GAN/u Generator/u_epochs=500_seq=254.pth (torch, 674454 bytes, 31 tensors)

weight f4 [1, 80, 1]
0.017030928 0.0107663395 -0.008803197 0.014888916 0.015029213 -0.0045839767 0.0037018582 0.01644327
0.015923135 -0.0069632726 0.007823915 0.004815021 0.022703774 0.012752617 -0.0018779174 0.015859013
0.019422699 0.0131652355 0.018519523 -0.010049837 0.0128101725 0.005254231 -0.0070576943 -0.0056280517
0.011410845 0.024128346 0.017558314 0.00583505 0.015966548 0.007486743 -0.011602169 -0.0028305384
0.0015800671 -0.008041719 0.0040860246 -0.0068410956 0.010035452 -0.0053786538 0.015337019 -0.006578983
0.011977779 0.005426808 0.015865136 -0.0042479355 -0.00449119 -0.009401146 0.007548874 0.009388815
0.017346205 0.012829346 0.008255379 0.019784465 0.025768694 0.023023175 -0.0064528673 0.014142082
0.014375588 0.02151945 -0.025393972 -0.005860207 0.016438313 -0.003491401 -0.0136271315 0.013554982
0.013465365 -0.0051229484 0.015196212 -0.006786368 -0.010072914 0.006845923 -0.00019203244 0.019060364
0.012835062 0.010156318 -0.020800725 0.0058673266 -0.003316956 0.004407126 -0.002765658 0.009847606
00000000: 7284 8b3c 4d65 303c 493b 10bc a4f0 733c
00000010: 173d 763c 2f35 96bb e09a 723b 09b4 863c
00000020: 3c71 823c 2a2c e4bb e12f 003c 53c7 9d3b
00000030: 44fd b93c 5af0 503c 7424 f6ba c3ea 813c
00000040: 5a1c 9f3c 00b3 573c 41b6 973c 12a8 24bc
00000050: c2e1 513c af2b ac3b 3b44 e7bb 856b b8bb
00000060: 8ef4 3a3c cfa8 c53c 74d6 8f3c f233 bf3b
00000070: 47cc 823c 5a53 f53b 0617 3ebc 8e80 39bb
00000080: 411a cf3a 6ac1 03bc 0fe4 853b 452b e0bb
00000090: bd6b 243c 6b3f b0bb 1f48 7b3c 8294 d7bb
000000a0: 723e 443c 5dd3 b13b 9af7 813c 4432 8bbb
000000b0: d52a 93bb 4407 1abc 8b5c f73b 8bd3 193c
000000c0: a119 8e3c 2d32 523c 9241 073c 0813 a23c
000000d0: de18 d33c 199b bc3c 9372 d3bb 31b4 673c
000000e0: 9687 6b3c 8f49 b03c 0507 d0bc fb06 c0bb
000000f0: a4a9 863c fdcf 64bb 5544 5fbc b715 5e3c
00000100: d69d 5c3c 68de a7bb 88f9 783c 2e60 debb
00000110: dd08 25bc c453 e03b 515c 49b9 7b24 9c3c
00000120: 274a 523c af66 263c 4866 aabc b442 c03b
00000130: 4a61 59bb a769 903b 0b40 35bb da57 213c

weight f4 [80, 3, 1]
0.09115304 -0.11651504 -0.07662244 -0.06877353 0.07765833 0.06415772 0.086180806 -0.07992036
-0.08526906 0.082492374 -0.078170076 -0.084656715 -0.09165704 0.08659291 0.08918326 -0.10538373
0.09770812 0.08890986 -0.08376009 0.09804426 0.08874019 0.09837763 -0.095063634 -0.0993897
0.059961773 -0.06273326 -0.062153336 -0.0633597 0.06067245 0.07099201 -0.09340118 0.08901897
0.096300505 -0.104017206 0.10116799 0.10147866 0.09235285 -0.09874445 -0.089444615 0.07743647
-0.10303148 -0.11298771 -0.0855819 0.08409393 0.0976021 0.11889931 -0.10763301 -0.10460291
0.105199315 -0.109120496 -0.10706883 -0.06392637 0.07995876 0.07979708 0.08817844 -0.08463291
-0.086508386 -0.05480109 0.053917997 0.063315436 0.09172964 -0.089977436 -0.08802674 -0.06086975
0.060649343 0.059898302 -0.076944165 0.077849895 0.091431305 0.08439821 -0.08511034 -0.087247565
0.12137044 -0.12982288 -0.13766848 0.10221537 -0.08088463 -0.09132501 -0.09095471 0.08391968
0.06351333 0.09711068 -0.08810866 -0.096262366 0.088566154 -0.08720267 -0.08973747 0.077371575
-0.078077465 -0.0797166 -0.08749551 0.09226919 0.0908928 -0.086656384 0.07156503 0.094775915
0.07382687 -0.06610772 -0.07915759 -0.083394095 0.08041953 0.10166184 -0.094844244 0.103953615
0.101896994 -0.058826342 0.0717531 0.038385853 0.097547926 -0.041634995 -0.09875453 0.08436343
-0.09073612 -0.10110741 0.08963369 -0.094504274 -0.09049212 -0.08543378 0.083571665 0.10875533
0.08517814 -0.10530442 -0.10833636 -0.055560283 0.057457946 0.0570542 -0.10514272 0.105859675
0.0997698 0.09306156 -0.091065034 -0.089715734 -0.08557964 0.09788852 0.0774946 0.07035289
-0.06597398 -0.094737835 -0.099074125 0.093632184 0.11653314 -0.09772985 0.08351694 0.084648594
0.105156615 -0.09097002 -0.08487931 -0.09847792 0.062607445 0.04957403 -0.09999998 0.085911095
0.08703377 -0.07300889 0.10384256 0.07258575 0.09204707 -0.08558866 -0.10951107 0.07741028
-0.12689963 -0.09146243 0.123364024 -0.097344086 -0.10898309 -0.07967894 0.09644554 0.089423664
0.09584093 -0.08944693 -0.10918117 -0.07158244 0.08818505 0.086025804 -0.054656718 0.028849665
0.038382195 -0.06345714 0.06678297 0.07581895 0.08650307 -0.10124071 -0.09828847 -0.08356854
0.099829145 0.09584084 -0.08595308 0.09663182 0.082016684 -0.07435122 0.08449859 0.07292984
0.10709142 -0.10057633 -0.09251099 0.09576739 -0.071384855 -0.104571745 0.08294526 -0.095215924
-0.105271645 -0.071956046 0.08019841 0.11345629 0.109732956 -0.107738875 -0.121195495 0.058273375
-0.06187265 -0.0684407 -0.079504356 0.07570525 0.05527369 -0.08467365 0.100787416 0.1016156
-0.108596526 0.08090368 0.095295265 0.0929202 -0.09285983 -0.07536645 -0.083285615 0.081527546
0.06794801 0.0968561 -0.09233316 -0.11170903 0.09905655 -0.08259417 -0.09735267 0.081348956
-0.10967536 -0.10100499 -0.05181221 0.060870457 0.06379853 0.10962205 -0.07750582 -0.110896796
00000000: 72ae ba3d 709f eebd 3aec 9cbd 23d9 8cbd
00000010: 550b 9f3d 1f65 833d 907f b03d 49ad a3bd
00000020: 8ca1 aebd c3f1 a83d a217 a0bd 8060 adbd
00000030: b0b6 bbbd a057 b13d b7a5 b63d 6dd3 d7bd
00000040: 321b c83d 5f16 b63d 698a abbd 6ecb c83d
00000050: 6bbd b53d 367a c93d b9b0 c2bd d48c cbbd
00000060: 7a9a 753d 4c7a 80bd 7f94 7ebd bbc2 81bd
00000070: ad83 783d 4264 913d 1e49 bfbd 944f b63d
00000080: 3339 c53d f906 d5bd 2a31 cf3d 0bd4 cf3d
00000090: 7e23 bd3d 883a cabd bd2e b7bd 0397 9e3d
000000a0: 2b02 d3bd 1a66 e7bd 9045 afbd 7039 ac3d
000000b0: 9ce3 c73d 7b81 f33d b26e dcbd 0d3a d6bd
000000c0: bd72 d73d 917a dfbd e746 dbbd d4eb 82bd
000000d0: 6bc1 a33d a76c a33d e696 b43d 0554 adbd
000000e0: 4f2b b1bd 1c77 60bd 1ed9 5c3d 86ab 813d
000000f0: c0dc bb3d 1746 b8bd 5d47 b4bd 8f52 79bd
00000100: 726b 783d ec57 753d e794 9dbd c46f 9f3d
00000110: 5640 bb3d f8d8 ac3d 544e aebd daae b2bd
00000120: 1191 f83d 4af0 04be f7f8 0cbe 4b56 d13d
00000130: d7a6 a5bd 9b08 bbbd 7746 babd 15de ab3d
00000140: 4713 823d f7e1 c63d 5072 b4bd 3425 c5bd
00000150: 2c62 b53d 5097 b2bd 47c8 b7bd fd74 9e3d
00000160: 14e7 9fbd 7542 a3bd d930 b3bd a1f7 bc3d
00000170: 0126 ba3d e778 b1bd b090 923d e019 c23d
00000180: 8b32 973d 7c63 87bd 601d a2bd 86ca aabd
00000190: ffb2 a43d 1534 d03d b33d c2bd a2e5 d43d
000001a0: 5faf d03d e4f3 70bd 4af3 923d 7c3a 1d3d
000001b0: 35c7 c73d 7589 2abd d13f cabd bcc6 ac3d
000001c0: dcd3 b9bd 6711 cfbd de91 b73d 758b c1bd
000001d0: ef53 b9bd e8f7 aebd 9f27 ab3d 1dbb de3d
000001e0: e071 ae3d d8a9 d7bd 74df ddbd 2e93 63bd
000001f0: 0659 6b3d aab1 693d 1155 d7bd f5cc d83d
00000200: 1c54 cc3d 0f97 be3d 4e80 babd e2bc b7bd
00000210: 6144 afbd c779 c83d 7db5 9e3d 2d15 903d
00000220: 5e1d 87bd e905 c2bd 60e7 cabd 3bc2 bf3d
00000230: eda8 ee3d 9626 c8bd ee0a ab3d 3e5c ad3d
00000240: 5a5c d73d 7d4e babd 34d5 adbd cbae c9bd
00000250: 5538 803d 230e 4b3d cacc ccbd 28f2 af3d
00000260: c33e b23d af85 95bd 68ab d43d d6a7 943d
00000270: 2d83 bc3d 1b49 afbd 5747 e0bd 4889 9e3d
00000280: faf1 01be a850 bbbd 47a6 fc3d 565c c7bd
00000290: 8732 dfbd b62e a3bd 3d85 c53d c123 b73d
000002a0: 4048 c43d f42f b7bd 619a dfbd d099 92bd
000002b0: 5d9a b43d 4c2e b03d b9df 5fbd 2256 ec3c
000002c0: a636 1d3d d1f5 81bd 83c5 883d f746 9b3d
000002d0: 8628 b13d 4a57 cfbd 774b c9bd fc25 abbd
000002e0: 3973 cc3d 3448 c43d 2b08 b0bd e7e6 c53d
000002f0: 5df8 a73d 7445 98bd 990d ad3d 3d5c 953d
00000300: bf52 db3d f7fa cdbd 6776 bdbd b221 c43d
00000310: 3932 92bd b629 d6bd 34df a93d 9100 c3bd
00000320: a998 d7bd b15d 93bd 103f a43d c55b e83d
00000330: acbb e03d 33a6 dcbd 5835 f8bd 10b0 6e3d
00000340: 2d6e 7dbd a32a 8cbd 2ed3 a2bd 5b0b 9b3d
00000350: aa66 623d 6169 adbd a269 ce3d d71b d03d
00000360: db67 debd d4b0 a53d 2a2a c33d f24c be3d
00000370: 4b2d bebd ba59 9abd a691 aabd eaf7 a63d
00000380: 5428 8b3d 7e5c c63d 2b19 bdbd b4c7 e4bd
00000390: 29de ca3d 2227 a9bd d660 c7bd 489a a63d
000003a0: 7a9d e0bd b4db cebd 0a39 54bd 4d53 793d
000003b0: cea8 823d 8681 e03d 5fbb 9ebd dc1d e3bd

bias f4 [80]
0.36841083 -0.5462149 0.088294335 0.07822709 -0.23489037 -0.3275215 -0.4810263 0.11663921
0.025128007 0.005842608 -0.32495633 -0.36708087 0.29987535 0.49012998 -0.42760244 0.21885255
0.12606594 -0.362189 0.33968514 -0.3660138 0.48036382 0.009115742 -0.24835719 0.55687135
0.17592855 0.56458324 -0.18156216 0.1001368 0.09840845 0.07693014 -0.5103364 -0.2795419
0.049068492 -0.23391189 -0.53099614 -0.0063781706 0.45667776 0.33209512 0.10256995 -0.21759471
0.37264857 0.10989344 -0.39251974 0.37131843 -0.3290856 0.2985843 -0.31562218 -0.17504418
0.34852296 -0.14451706 -0.2493842 -0.1982272 0.36437812 0.22429904 0.270147 -0.48301065
0.5540368 -0.420513 -0.29293206 0.47184438 0.2533504 -0.5317171 -0.527392 -0.2677227
0.4471395 0.3013268 0.43688217 -0.2912424 0.2129586 0.036099732 -0.05589802 -0.31057152
-0.42337596 0.27369636 -0.08293618 0.22992225 0.2455201 0.3799813 0.022333771 0.26429796
00000000: 58a0 bc3e bdd4 0bbf a9d3 b43d 8635 a03d
00000010: 1a87 70be e6b0 a7be 1449 f6be 8ae0 ee3d
00000020: 40d9 cd3c 5973 bf3b ad60 a6be 06f2 bbbe
00000030: 4389 993e 51f2 fa3e b5ee dabe e21a 603e
00000040: 6e17 013e d670 b9be 36eb ad3e 2966 bbbe
00000050: 3ff2 f53e 315a 153c 5951 7ebe 1f8f 0e3f
00000060: 9d26 343e 8788 103f 6eeb 39be 8614 cd3d
00000070: 5f8a c93d 8d8d 9d3d 68a5 02bf 1e20 8fbe
00000080: 0bfc 483d 9986 6fbe 5def 07bf f9ff d0bb
00000090: abd1 e93e 5f08 aa3e 3210 d23d 26d1 5ebe
000000a0: cbcb be3e d00f e13d 59f8 c8be 731d be3e
000000b0: e87d a8be 0be0 983e 3b99 a1be c83e 33be
000000c0: 9a71 b23e 48fc 13be 925e 7fbe 12fc 4abe
000000d0: c58f ba3e a6ae 653e b550 8a3e 2c4d f7be
000000e0: 5bd5 0d3f 7b4d d7be 31fb 95be 9695 f13e
000000f0: 25b7 813e 9d1e 08bf 2a03 07bf f312 89be
00000100: 78ef e43e 8247 9a3e 05af df3e b91d 95be
00000110: d211 5a3e 50dd 133d 52f5 64bd 3b03 9fbe
00000120: bcc4 d8be ee21 8c3e 72da a9bd bd70 6b3e
00000130: 9f69 7b3e e98c c23e 50f5 b63c 1052 873e

weight f4 [80, 80, 1]
0.010181828 -0.0052429345 0.014899951 0.019507483 -0.008163847 -0.010987078 0.0016039377 0.013130871
0.030453749 -0.06437936 -0.005621866 -0.008198469 0.014023694 0.00022430578 -0.0139850285 0.010542287
0.010995137 -0.0063840435 0.0072249295 0.012479258 0.0079724295 -0.055152938 0.0015208405 -0.006931734
0.030594908 0.012600673 -0.02475041 0.011776425 0.01843655 -0.003230126 0.024635633 -0.0066900137
0.007290057 -0.011762679 -0.009828604 -0.04262424 -0.0075584906 -0.0037967581 0.0055306824 -0.008576864
0.024348572 -0.023253592 -0.0012228916 0.005827056 0.010306294 0.010093745 -0.014398778 -0.019826273
0.0024991764 -0.015084366 0.0072026565 -0.009402331 0.012392439 -0.004768764 0.009484609 0.0120476885
-0.00993715 0.014809181 0.01462803 -0.00064099755 0.013548907 -0.0034016545 -0.00017489438 -0.006131518
0.011463436 0.016854603 0.0019993102 -0.010820056 0.00019006578 0.022043569 -0.07590925 -0.019067042
0.0066042575 0.0062576286 -0.04659332 0.0029765295 0.012837641 -0.012949604 -0.04857521 -0.002350639
-0.0017519405 -0.0057875644 -0.00065884733 0.00033970317 0.006502844 -0.0005477157 0.013009425 0.01130143
0.008198485 -0.063718 0.00052234664 -0.0048302487 0.008336439 -0.0050544012 0.0010477212 0.006937637
0.017292963 -0.008761403 0.010149024 0.019559909 -0.016959442 -0.054859105 -0.0074530016 -0.00677733
0.01482153 0.014193194 -0.02003137 -0.0034360988 0.019015694 0.00072027557 0.00040133917 0.016972916
0.008636367 -0.0047545754 -0.010863042 -0.049767107 -0.02001658 -0.00968407 0.012123516 0.0009505098
0.0057281246 -0.009542457 0.007747397 -0.012801906 0.0068746153 -0.006374706 0.0025672433 -0.011867523
0.012616465 0.0047592185 -0.008905112 -0.005174145 -0.0059711975 -0.0065006088 -0.010471401 0.0026633414
0.0013818395 0.005611318 0.014121675 -0.01556694 0.004165352 -0.0069075124 0.0024256252 0.0071300743
-0.015934225 0.0074973744 -0.014102918 0.00483175 0.015155952 0.0015717461 -0.04658102 -0.017348653
0.012610585 -0.008963085 -0.038656224 -0.013165389 -0.0036379562 -0.0002653421 -0.06498388 0.033193808
-0.0061547398 -0.011364893 -0.021389628 0.009565836 -0.0024720167 -0.010008364 -0.006386536 -0.013070953
-0.0080772415 0.03255615 -0.005746127 0.010720727 0.0196552 -0.021894887 -0.0018901613 -0.0029506849
-0.009103502 -0.014103426 -0.0054682386 -0.0073975273 -0.01045286 0.036937248 -0.0044074846 0.023326242
-0.004322894 -0.00812649 -0.0060567344 0.003163757 -0.0016757816 0.005457787 0.0055331867 -0.002597582
-0.021579614 -0.0043615387 0.0076286136 0.037293915 0.010459984 0.016206749 -0.0006730216 0.009943741
-0.002548147 0.012512191 0.013097037 0.0064601693 -0.02121556 -0.0057476372 -0.0033626987 -0.009808101
-0.011178499 -0.009850541 -0.010126825 0.0050826794 0.015418163 -0.01923484 -0.008557466 -0.0071265716
-0.0041037533 -0.0049821064 0.006751162 0.007438957 0.012009415 -0.004585266 0.000820834 -0.00059812475
0.012702495 -0.0031279759 -0.0016459937 -0.0033645825 -0.0013918643 -0.015293909 -0.01162254 0.0026505433
-0.017911937 -0.007828227 -0.0072739995 0.017006893 -0.0064596906 0.010728427 0.028059883 0.011397331
-0.0012593219 0.007300678 0.0035717376 0.010380751 0.007156416 -0.0063531073 0.005822412 0.0044424967
0.012566891 -0.072761975 0.004798694 0.005062149 0.0018573854 -0.029623142 -0.0031555742 -0.0069587776
00000000: afd1 263c eccc abbb ed1e 743c 28ce 9f3c
00000010: a8c1 05bc 2503 34bc 383b d23a dd22 573c
00000020: 247a f93c 53d9 83bd a137 b8bb df52 06bc
00000030: a3c3 653c a033 6b39 7621 65bc 8eb9 2c3c
00000040: f224 343c 3d31 d1bb 1abf ec3b cd75 4c3c
00000050: cb9e 023c 0ce8 61bd f056 c73a 9923 e3bb
00000060: 2ca2 fa3c 0e73 4e3c 5fc1 cabc e8f1 403c
00000070: 3f08 973c 86b0 53bb abd0 c93c e737 dbbb
00000080: 6ee1 ee3b 40b8 40bc 2708 21bc c196 2ebd
00000090: 37ad f7bb 08d3 78bb ba3a b53b fa85 0cbc
000000a0: a876 c73c 517e bebc 6f49 a0ba e3f0 be3b
000000b0: bbdb 283c 3c60 253c dae8 6bbc b56a a2bc
000000c0: 39c9 233b 6b24 77bc 4304 ec3b 3c0c 1abc
000000d0: a809 4b3c 4b43 9cbb 5565 1b3c ab63 453c
000000e0: 6ecf 22bc 35a2 723c 68aa 6f3c 9e08 28ba
000000f0: 3cfc 5d3c 4bee 5ebb da63 37b9 e7ea c8bb
00000100: 23d1 3b3c aa12 8a3c dc06 033b 9b46 31bc
00000110: 654c 4739 b794 b43c 4f76 9bbd 7c32 9cbc
00000120: 8768 d83b cb0c cd3b a3d8 3ebd e111 433b
00000130: f854 523c 932a 54bc cdf6 46bd 2e0d 1abb
00000140: 5ea1 e5ba 9ca5 bdbb 7fb6 2cba 301a b239
00000150: cf15 d53b 9494 0fba 7c25 553c a229 393c
00000160: f052 063c 957e 82bd 17ee 083a 1047 9ebb
00000170: 8f95 083c 649f a5bb b153 893a 1e55 e33b
00000180: f9a9 8d3c fd8b 0fbc 1848 263c 1a3c a03c
00000190: 87ee 8abc f1b3 60bd 4f38 f4bb 5d14 debb
000001a0: 01d6 723c 928a 683c d418 a4bc 2c30 61bb
000001b0: cdc6 9b3c e0d0 3c3a d56a d239 c90a 8b3c
000001c0: 8c7f 0d3c 45cc 9bbb e7fa 31bc 98d8 4bbd
000001d0: d0f9 a3bc efa9 1ebc b6a1 463c a22b 793a
000001e0: feb2 bb3b f757 1cbc e0dd fd3b 16bf 51bc
000001f0: 7444 e13b e9e2 d0bb 323f 283b 0070 42bc
00000200: 4ab5 4e3c 38f3 9b3b bfe6 11bc e08b a9bb
00000210: 09aa c3bb 0f03 d5bb 3d90 2bbc 748b 2e3b
00000220: d71e b53a 26df b73b 995e 673c 7b0c 7fbc
00000230: 817d 883b 6a58 e2bb 3df7 1e3b 66a3 e93b
00000240: 7e88 82bc 89ac f53b ed0f 67bc a853 9e3b
00000250: ac50 783c 0c03 ce3a bdcb 3ebd c31e 8ebc
00000260: a19c 4e3c e7d9 12bc fd55 1ebd a5b3 57bc
00000270: c76a 6ebb 9d1d 8bb9 4516 85bd 3bf6 073d
00000280: b3ad c9bb d133 3abc 4d39 afbc 06ba 1c3c
00000290: 8f01 22bb 1ffa 23bc 2646 d1bb 8d27 56bc
000002a0: 6856 04bc 9959 053d 024a bcbb fda5 2f3c
000002b0: f103 a13c e85c b3bc 4abf f7ba 4760 41bb
000002c0: db26 15bc 0e12 67bc e92e b3bb f566 f2bb
000002d0: 7942 2bbc 834b 173d a96c 90bb ad16 bf3c
000002e0: 10a7 8dbb f824 05bc 9277 c6bb 0957 4f3b
000002f0: e6a5 dbba 3cd7 b23b bc4f b53b 323c 2abb
00000300: bbc7 b0bc 3deb 8ebb 73f9 f93b 81c1 183d
00000310: 5a60 2b3c 04c4 843c b76d 30ba 13eb 223c
00000320: d0fe 26bb efff 4c3c f494 563c d4af d33b
00000330: 41cc adbc ad56 bcbb b960 5cbb 28b2 20bc
00000340: 0626 37bc 2a64 21bc fcea 25bc 9b8c a63b
00000350: 769c 7c3c 6292 9dbc 9d34 0cbc 0486 e9bb
00000360: c778 86bb f040 a3bb da38 dd3b 7fc2 f33b
00000370: 23c3 443c 0040 96bb 3d2d 573a 79cb 1cba
00000380: 201e 503c bafe 4cbb 62be d7ba 5480 5cbb
00000390: 376f b6ba 4e93 7abc 776c 3ebc bdb4 2d3b
000003a0: 0ebc 92bc f741 00bc bb5a eebb 0a52 8b3c
000003b0: d0ab d3bb 49c6 2f3c d7dd e53c dfbb 3a3c
000003c0: d50f a5ba 873a ef3b d013 6a3b 0714 2a3c
000003d0: 5e80 ea3b ba2d d0bb efc9 be3b 5d92 913b
000003e0: 5ce5 4d3c 3b04 95bd 5d3e 9d3b 62e0 a53b
000003f0: 8373 f33a 3bac f2bc c0cd 4ebb 7506 e4bb

bias f4 [80]
0.03905577 -0.106721185 -0.03888494 0.024025189 -0.0425805 -0.0027958576 -0.034500703 -0.05195221
-0.033743657 -0.085232295 0.060975272 -0.10074562 -0.045805622 0.039397974 -0.053160544 -0.115380116
0.1072704 0.051279675 0.06518836 -0.08687794 -0.13594393 0.057343885 -0.016974336 0.0750416
-0.10869498 -0.09624646 -0.10807897 -0.08418334 0.0023678266 -0.013023795 0.09563428 0.052223727
-0.01752326 -0.047766916 0.00064870954 0.08725014 -0.0076094135 -0.087358534 -0.031529233 0.10167264
-0.12752828 0.012812639 -0.10403792 0.09124977 -0.05022881 0.041661147 -0.038660157 -0.0610196
0.03742839 -0.09803466 0.036479183 0.029730858 -0.028107021 -0.06491765 0.094521716 0.032531187
0.1161637 0.057740793 0.0800954 0.057695843 0.054319315 0.051906787 -0.018799976 0.025140187
-0.06533506 0.14587718 -0.12184678 -0.047277115 -0.09888234 -0.11427191 -0.03656572 -0.10896955
0.06618621 -0.1711689 -0.05028114 -0.12764345 0.031937905 -0.083122365 0.07362017 0.0022855832
00000000: f1f8 1f3d a390 dabd d145 1fbd 79d0 c43c
00000010: e468 2ebd b53a 37bb 9c50 0dbd d7cb 54bd
00000020: ca36 0abd 458e aebd 35c1 793d b853 cebd
00000030: ad9e 3bbd c55f 213d dfbe 59bd 694c ecbd
00000040: 95b0 db3d a30a 523d 7a81 853d 10ed b1bd
00000050: e334 0bbe 6ce1 6a3d c30d 8bbc 69af 993d
00000060: 799b debd dd1c c5bd 8258 ddbd 5168 acbd
00000070: 8a2d 1b3b c161 55bc e8db c33d 8ce8 553d
00000080: f18c 8fbc 3ea7 43bd 290e 2a3a 34b0 b23d
00000090: 6358 f9bb 08e9 b2bd cc24 01bd bf39 d03d
000000a0: c696 02be 1aec 513c d511 d5bd 29e1 ba3d
000000b0: babc 4dbd e1a4 2a3d 1d5a 1ebd b0ef 79bd
000000c0: 834e 193d 65c6 c8bd 326b 153d 218e f33c
000000d0: b240 e6bc 8bf3 84bd 9a94 c13d 6c3f 053d
000000e0: 3ce7 ed3d 9c81 6c3d 0f09 a43d 7a52 6c3d
000000f0: ee7d 5e3d 369c 543d 6802 9abc cbf2 cd3c
00000100: 63ce 85bd d460 153e ce8a f9bd a6a5 41bd
00000110: d382 cabd 6407 eabd f0c5 15bd 6d2b dfbd
00000120: a38c 873d e646 2fbe 99f3 4dbd f7b4 02be
00000130: 52d1 023d 0f3c aabd 2cc6 963d b9c9 153b

weight f4 [80, 3, 1]
0.10571574 -0.10552495 -0.10016915 0.10959587 -0.102256976 -0.1220967 -0.08928635 0.067457445
0.10459737 0.101275936 -0.10248612 -0.10361778 0.09536834 -0.10612709 -0.09854706 -0.04390373
0.042310905 0.04933773 -0.09358518 0.099978685 0.08882244 0.09681705 -0.092392206 -0.08182253
0.095565446 -0.09899871 -0.11294661 -0.09167355 0.09593387 0.10555022 0.016162343 -0.049683597
-0.012953361 0.069603615 -0.081460536 -0.058306422 0.109970056 -0.11420005 -0.10903851 0.1095402
-0.10741678 -0.094746746 -0.083979435 0.1048572 0.077930264 0.11171856 -0.12150007 -0.12384533
0.097274244 -0.11566218 -0.10256132 0.08684599 -0.068869196 -0.06253149 0.088532716 -0.11767222
-0.104199775 -0.08976841 0.0912247 0.09387974 0.11292763 -0.104638934 -0.11408365 -0.072180726
0.053842906 0.08737834 -0.079130836 0.085011974 0.058193777 -0.09435588 0.090859 0.08538019
0.101528 -0.08744131 -0.10394191 0.119503655 -0.09681846 -0.099818066 0.12512083 -0.123137146
-0.12914138 0.07057835 -0.07510128 -0.06638855 0.11230212 -0.10726925 -0.09790731 0.029986182
-0.013204478 -0.05380306 -0.07704643 0.0801236 0.0959611 -0.030393278 0.036003996 0.03900305
0.051516175 -0.0369445 -0.04113333 -0.07712024 0.07593525 0.092504434 -0.07238449 0.072493635
0.08612597 -0.08514256 0.10015741 0.11285274 0.08987793 -0.11710403 -0.096204095 -0.10168223
0.09537577 0.1264084 0.06424045 -0.09706635 -0.103618674 -0.09793054 0.08063197 0.09630244
0.073921226 -0.09233329 -0.10981374 -0.081567265 0.0872736 0.07704434 0.08139118 -0.090501554
-0.09317195 -0.060821168 0.08307355 0.09812655 -0.087837316 0.057779305 0.08028716 -0.0939052
0.1029706 0.09457813 -0.06798546 0.09755681 0.09444589 0.09146415 -0.07153253 -0.109181784
0.11469115 -0.10999387 -0.11435121 0.04564403 -0.046044353 -0.050446752 0.09689641 -0.10336762
-0.11060566 0.10424442 -0.11240276 -0.09756782 -0.080174014 0.055646323 0.06470207 0.10114179
-0.09768073 -0.08698766 -0.08906379 0.09556376 0.08666637 0.12302195 -0.10590218 -0.11846079
0.09590472 -0.09747334 -0.11416213 0.115748644 -0.091661274 -0.096120566 -0.123155266 0.12778762
0.1412611 0.029197495 -0.027999986 -0.04367301 -0.080852784 0.08278627 0.07774451 -0.00390726
0.019923287 0.012712416 -0.11202682 0.09616088 0.10407713 0.09988494 -0.12331474 -0.10865464
0.09396945 -0.07891888 -0.08154953 -0.07101738 0.094490476 0.072873786 0.116603464 -0.10752443
-0.12193676 -0.09608565 0.09025409 0.10780051 -0.087783635 0.08316477 0.101773255 -0.08133659
0.082215264 0.08164506 -0.06997866 0.07019489 0.06662965 0.12610865 -0.13221899 -0.12935936
0.107401416 -0.07976721 -0.093978554 0.051743317 -0.051907673 -0.032504782 -0.1304447 0.12258679
0.115893595 -0.003217308 0.027392767 0.023385575 0.015603355 -0.017896691 -0.024573036 -0.09285257
0.087275416 0.08631815 -0.076079026 0.09269857 0.092584096 0.116738044 -0.09231155 -0.08986251
00000000: 7e81 d83d 771d d8bd 7c25 cdbd cd73 e03d
00000010: 1b6c d1bd d60d fabd c3db b6bd 2127 8a3d
00000020: 2537 d63d c269 cf3d 3ee4 d1bd 8f35 d4bd
00000030: 7a50 c33d 2959 d9bd 0ad3 c9bd 66d4 33bd
00000040: 334e 2d3d 5c16 4a3d 96a9 bfbd a0c1 cc3d
00000050: 8ae8 b53d 0448 c63d 2038 bdbd 9292 a7bd
00000060: d1b7 c33d d6bf cabd 8d50 e7bd 58bf bbbd
00000070: fa78 c43d b72a d83d e466 843c 0781 4bbd
00000080: 553a 54bc 578c 8e3d c8d4 a6bd b7d2 6ebd
00000090: fb37 e13d b7e1 e9bd 954f dfbd 9d56 e03d
000000a0: 54fd dbbd 950a c2bd 69fd abbd 5fbf d63d
000000b0: e799 9f3d b3cc e43d 07d5 f8bd 9fa2 fdbd
000000c0: b837 c73d 4be0 ecbd ab0b d2bd 4fdc b13d
000000d0: 4b0b 8dbd 8310 80bd a450 b53d 22fe f0bd
000000e0: b166 d5bd 80d8 b7bd 04d4 ba3d 0544 c03d
000000f0: 9a46 e73d f04c d6bd b0a4 e9bd 7dd3 93bd
00000100: 618a 5c3d 6af3 b23d 590f a2bd c21a ae3d
00000110: 995c 6e3d a83d c1bd 4914 ba3d cfdb ae3d
00000120: e9ed cf3d 6e14 b3bd 7fdf d4bd 55be f43d
00000130: c248 c6bd 6a6d ccbd ad1f 003e 542f fcbd
00000140: a33d 04be 628b 903d b3ce 99bd b8f6 87bd
00000150: a7fe e53d fbaf dbbd a183 c8bd 95a5 f53c
00000160: 9857 58bc 9960 5cbd 85ca 9dbd d817 a43d
00000170: 4187 c43d 53fb f8bc ed78 133d aac1 1f3d
00000180: a002 533d 1e53 17bd 6c7b 28bd 37f1 9dbd
00000190: f183 9b3d f772 bd3d 523e 94bd 8b77 943d
000001a0: d062 b03d 395f aebd 541f cd3d 561f e73d
000001b0: ec11 b83d 3dd4 efbd a706 c5bd c63e d0bd
000001c0: 5f54 c33d 3471 013e 7f90 833d b9ca c6bd
000001d0: 0736 d4bd cf8f c8bd 6022 a53d 373a c53d
000001e0: 0364 973d 3c19 bdbd 07e6 e0bd bd0c a7bd
000001f0: 80bc b23d 6cc9 9d3d 6bb0 a63d e158 b9bd
00000200: efd0 bebd 9e1f 79bd 7722 aa3d 93f6 c83d
00000210: 0de4 b3bd fea9 6c3d 986d a43d 5f51 c0bd
00000220: 40e2 d23d 2eb2 c13d f63b 8bbd ddcb c73d
00000230: d96c c13d 8e51 bb3d a67f 92bd b39a dfbd
00000240: 32e3 ea3d 7744 e1bd f830 eabd 3cf5 3a3d
00000250: 0199 3cbd 41a1 4ebd a071 c63d 67b2 d3bd
00000260: 3885 e2bd 197e d53d 6b33 e6bd a3d1 c7bd
00000270: 4632 a4bd 66ed 633d 8582 843d 6d23 cf3d
00000280: d60c c8bd 9626 b2bd 1467 b6bd efb6 c33d
00000290: 237e b13d eff2 fb3d 3ee3 d8bd 929b f2bd
000002a0: b269 c43d 1aa0 c7bd d6cd e9bd a00d ed3d
000002b0: e8b8 bbbd dcda c4bd d438 fcbd c2da 023e
000002c0: c0a6 103e 962f ef3c 3a60 e5bc 78e2 32bd
000002d0: 2596 a5bd d98b a93d 8338 9f3d 7908 80bb
000002e0: 2936 a33c bd47 503c 516e e5bd ffef c43d
000002f0: 6426 d53d 7a90 cc3d 708c fcbd 5386 debd
00000300: 0e73 c03d 39a0 a1bd 7103 a7bd 8f71 91bd
00000310: 3984 c13d da3e 953d cccd ee3d c535 dcbd
00000320: fbb9 f9bd 8ec8 c4bd 23d7 b83d 84c6 dc3d
00000330: e8c7 b3bd 4a52 aa3d 7f6e d03d cc93 a6bd
00000340: 7a60 a83d 8635 a73d f950 8fbd 57c2 8f3d
00000350: 2075 883d a022 013e 6a64 07be c876 04be
00000360: 46f5 db3d fe5c a3bd d477 c0bd cdf0 533d
00000370: 249d 54bd bc23 05bd 4c93 05be c80e fb3d
00000380: 9f59 ed3d 79d9 52bb cc66 e03c 1b93 bf3c
00000390: 37a5 7f3c 159c 92bc 644d c9bc 7d29 bebd
000003a0: 74bd b23d 92c7 b03d 52cf 9bbd bfd8 bd3d
000003b0: bb9c bd3d 5b14 ef3d d70d bdbd d609 b8bd

bias f4 [80]
0.10540122 0.34384665 -0.4049744 0.24458821 0.0010275495 -0.36851335 0.011974453 -0.03407225
0.36600643 -0.36117622 -0.258412 0.46926942 -0.052114762 0.32024863 -0.4376199 0.50319606
-0.14884306 0.23287173 -0.13927977 -0.20354885 0.47860375 0.29103056 -0.11844393 0.059368975
0.18730174 -0.028395137 0.42390698 -0.4849796 0.36398554 -0.31170455 -0.2474311 -0.22863325
-0.48224422 -0.25488886 0.5568345 -0.40130588 0.30597293 -0.4149495 0.17246535 0.027351955
0.476762 0.26994267 0.20618784 -0.47846898 -0.3778238 -0.37062225 0.37758818 0.4197
0.20520161 0.4343991 0.18129851 0.23737216 0.5267162 0.08133363 -0.220975 0.4757459
-0.29480398 -0.20235738 -0.49555093 -0.46911293 0.36270717 -0.48301163 0.014502673 -0.2023651
0.2885517 -0.53061897 0.35669583 -0.25770122 -0.14183548 0.40532053 0.016594496 0.49691513
0.12817937 0.32053208 -0.47287923 0.30820757 -0.30447894 -0.20662254 -0.3913157 0.5218278
00000000: 98dc d73d ab0c b03e ce58 cfbe 5575 7a3e
00000010: d7ae 863a c8ad bcbe 7f30 443c 588f 0bbd
00000020: 3265 bb3e 17ec b8be 944e 84be 1544 f03e
00000030: 4a76 55bd a1f7 a33e b70f e0be 75d1 003f
00000040: 516a 18be ed75 6e3e 5b9f 0ebe 1c6f 50be
00000050: 8d0b f53e f501 953e bb92 f2bd e22c 733d
00000060: 07cc 3f3e eb9c e8bc 560a d93e 3f4f f8be
00000070: 505c ba3e bd97 9fbe 945e 7dbe d61e 6abe
00000080: b7e8 f6be cb80 82be b58c 0e3f f777 cdbe
00000090: 7ca8 9c3e 4374 d4be c29a 303e 3511 e03c
000000a0: 261a f43e ed35 8a3e e822 533e e3f9 f4be
000000b0: 1f72 c1be 33c2 bdbe 3d53 c13e ebe2 d63e
000000c0: 5f20 523e 8f69 de3e 51a6 393e b011 733e
000000d0: dfd6 063f 3f92 a63d 4547 62be f794 f33e
000000e0: 8cf0 96be c636 4fbe dab8 fdbe 922f f0be
000000f0: c1b4 b93e 4d4d f7be 9f9c 6d3c cc38 4fbe
00000100: 0cbd 933e a5d6 07bf d6a0 b63e 6af1 83be
00000110: 523d 11be 2c86 cf3e 2ef1 873c a96b fe3e
00000120: 7441 033e c81c a43e 3a1d f2be 62cd 9d3e
00000130: aae4 9bbe dc94 53be 885a c8be 8296 053f

weight f4 [80, 80, 2]
-0.0022550896 0.004300045 -0.0015204243 -0.009970116 0.006672025 -0.010347342 -0.015667288 -0.014757146
-0.090978734 -0.09025494 0.0074393544 -0.0057141073 0.090638936 0.07210043 -0.07536937 -0.052557133
-0.010746994 0.008710971 0.002161757 0.0011345828 -0.012644851 -0.01079663 -0.008299592 0.012907273
-0.056230415 -0.05785852 0.008348097 -0.02716131 0.021650802 -0.0033952876 0.0041874303 0.008612073
-0.06640342 -0.064715005 0.0052328063 0.010179841 -0.058584504 -0.07055431 0.017779412 -0.00053431164
-0.002256628 0.0034449922 0.0044486467 0.009451745 0.019832062 0.021673786 0.034528416 0.058336593
-0.020923069 -0.034677576 -0.08023013 -0.09414961 0.005373369 0.014928671 0.0021378323 -0.0069363504
-0.007863014 -0.009586253 0.0010247285 -0.004654745 0.018995585 0.016915208 -0.032876004 -0.019553319
0.0009354844 -0.014748232 0.023097089 0.010571902 -0.0074122683 0.0071001914 0.00020261257 -0.0016499991
-0.0044111493 0.0013194074 0.016632916 -0.00528663 -0.010240922 -0.02957374 0.054317635 0.019652514
0.004882659 -0.009047251 0.002413115 0.009029817 -0.0303216 -0.0007376555 -0.008521457 -0.009726478
-0.0073098675 0.009379061 -0.005174911 0.019708704 0.021977259 0.019023165 -0.004426528 -0.0070020463
-0.010694649 0.015821232 -0.002862133 -0.013475807 -0.012276105 0.0027524154 -0.00992492 -0.012921784
-0.00083777565 0.015371279 -0.08779801 -0.06835295 0.035858586 0.017342795 -0.0114391185 0.0066491803
-0.044472896 -0.045075595 -0.054447122 -0.05039696 0.0020037265 -0.0010753993 -0.00642331 -0.009422199
0.010370925 0.007889943 0.003435768 -0.0026563462 0.056775726 0.06665354 -0.03640623 -0.020922448
-0.010433617 0.0023102995 -0.0026591322 0.0010020419 -0.0023605996 -0.00052423996 0.018493226 0.015707614
0.025494788 0.03379124 0.018928956 0.036410473 0.06813839 0.07034166 -0.00047840402 -0.0056139156
-0.014086392 -0.009589744 -0.004081404 0.0041300072 0.004914667 0.015166889 0.0147378985 0.00080630084
-0.018603696 -0.008341347 0.0047603124 0.0028435427 0.014147546 0.013103069 -0.0031011538 0.0009832322
-0.014329518 -0.0049003437 0.0033845494 -0.0008603098 -0.0025818115 0.011080908 -0.014931177 -0.029122801
-0.10562934 -0.07039329 -0.011942535 -0.004864385 0.093992755 0.08260034 -0.07342315 -0.07665589
-0.017447371 0.004731512 0.017408254 -0.013584554 -0.012370339 -0.005326622 -0.030768432 0.005978391
-0.076824516 -0.06591607 -0.015649814 -0.013120608 -0.0013214739 0.025952624 -0.008071983 0.008533257
-0.08379737 -0.07503731 -0.0007127018 -0.0035211903 -0.08049513 -0.08139345 0.0065825474 0.006726522
-0.008082921 0.0041840323 0.011552687 0.0073144226 0.019773953 0.01196759 0.04117933 0.037484404
-0.015902605 -0.012574852 -0.091755606 -0.098295264 0.0032490413 -0.012525864 -0.010736198 -0.013667562
-0.021246249 0.003830884 -0.008559999 -0.012479904 0.029912008 0.005318997 -0.010593925 -0.02824558
-0.0068029882 -0.016279466 0.0152713405 -0.009645816 0.017133763 0.0026537797 0.015027751 0.0077721598
0.007993481 -0.0160684 0.008015568 0.023093576 -0.01566065 -0.0053227865 0.035763167 0.023406044
-0.006264173 -0.01750663 0.015460872 0.011008349 -0.03824503 -0.031239562 0.027271759 -0.0235745
0.007268031 -0.009151373 0.0063870745 0.008024577 0.021853883 0.01274423 -0.006407921 0.017420437
00000000: 20ca 13bb 64e7 8c3b f948 c7ba b359 23bc
00000010: 01a1 da3b e687 29bc af58 80bc f5c7 71bc
00000020: 0f53 babd 95d7 b8bd d4c5 f33b 683d bbbb
00000030: e8a0 b93d 64a9 933d 425b 9abd 2646 57bd
00000040: 2914 30bc 76b8 0e3c 44ac 0d3b 48b6 943a
00000050: 592c 4fbc 59e4 30bc 03fb 07bc 0779 533c
00000060: dd51 66bd 0efd 6cbd 75c6 083c 6581 debc
00000070: 065d b13c 7983 5ebb b636 893b a719 0d3c
00000080: 84fe 87bd 4d89 84bd f677 ab3b 59c9 263c
00000090: 4ef6 6fbd c77e 90bd 21a6 913c 0c11 0cba
000000a0: efe3 13bb 61c5 613b f4c5 913b 7edb 1a3c
000000b0: d976 a23c 398d b13c ab6d 0d3d 5af2 6e3d
000000c0: db66 abbc 130a 0ebd b24f a4bd 83d1 c0bd
000000d0: 1613 b03b 6297 743c e01a 0c3b 534a e3bb
000000e0: dfd3 00bc a90f 1dbc 2f50 863a d586 98bb
000000f0: a19c 9b3c c391 8a3c fda8 06bd 482e a0bc
00000100: 4c3b 753a 92a2 71bc 1b36 bd3c c535 2d3c
00000110: 9de2 f2bb b9a8 e83b 6674 5439 c844 d8ba
00000120: 678b 90bb f7ef ac3a c141 883c 773b adbb
00000130: 8ac9 27bc a144 f2bc 2b7c 5e3d 4ffe a03c
00000140: b6fe 9f3b ec3a 14bc 5a25 1e3b ccf1 133c
00000150: 0165 f8bc 395f 41ba 959d 0bbc ce5b 1fbc
00000160: 9d87 efbb a2aa 193c 4d92 a9bb 2674 a13c
00000170: a709 b43c 78d6 9b3c 680c 91bb 6c71 e5bb
00000180: 9c38 2fbc 879b 813c a092 3bbb a2c9 5cbc
00000190: b721 49bc de61 343b 229c 22bc e4b5 53bc
000001a0: 2c9e 5bba d1d7 7b3c 71cf b3bd a2fc 8bbd
000001b0: 74e0 123d 7a12 8e3c 246b 3bbc 5ee1 d93b
000001c0: 3629 36bd 30a1 38bd f203 5fbd 0b6d 4ebd
000001d0: f450 033b 6af4 8cba a17a d2bb 915f 1abc
000001e0: d0ea 293c d244 013c 9f2a 613b 1816 2ebb
000001f0: aa8d 683d a781 883d b31e 15bd 8e65 abbc
00000200: c3f1 2abc 6568 173b d644 2ebb f256 833a
00000210: 4ab4 1abb 266d 09ba 1b7f 973c 41ad 803c
00000220: 72da d03c af68 0a3d e610 9b3c 2623 153d
00000230: 248c 8b3d 4a0f 903d 4dd2 fab9 f0f4 b7bb
00000240: 9cca 66bc 4d1e 1dbc 4cbd 85bb 0355 873b
00000250: 370b a13b 8b7e 783c 3a77 713c ef5d 533a
00000260: c766 98bc 25aa 08bc 65fc 9b3b bb5a 3a3b
00000270: 1ccb 673c 41ae 563c ba3c 4bbb ccdf 803a
00000280: 5bc6 6abc 1093 a0bb 51cf 5d3b 6a86 61ba
00000290: 9c33 29bb b28c 353c e5a1 74bc f192 eebc
000002a0: 3254 d8bd 5b2a 90bd 9faa 43bc 6b65 9fbb
000002b0: 467f c03d 5e2a a93d e05e 96bd c3fd 9cbd
000002c0: caed 8ebc cd0a 9b3b c19b 8e3c c091 5ebc
000002d0: f6ac 4abc f28a aebb 140e fcbc 61e6 c33b
000002e0: 2c56 9dbd 01ff 86bd 0a34 80bc d2f7 56bc
000002f0: 4e35 adba 999a d43c 5a40 04bc 13cf 0b3c
00000300: f59d abbd 29ad 99bd 9cd4 3aba c5c3 66bb
00000310: a1da a4bd 9cb1 a6bd 69b2 d73b 286a dc3b
00000320: 3a6e 04bc 351a 893b 7b47 3d3c d3ad ef3b
00000330: fcfc a13c b613 443c a8ab 283d 3f89 193d
00000340: 2e46 82bc c106 4ebc 5dea bbbd 074f c9bd
00000350: deed 543b 4839 4dbc e1e6 2fbc e9ed 5fbc
00000360: 9d0c aebc 910f 7b3b 3d3f 0cbc 8378 4cbc
00000370: 070a f53c fb4a ae3b 2492 2dbc 4663 e7bc
00000380: 9aeb debb 845c 85bc a534 7a3c 7c09 1ebc
00000390: 1b5c 8c3c 09eb 2d3b f536 763c 9aad fe3b
000003a0: 17f7 023c e1a1 83bc bb53 033c bd2e bd3c
000003b0: c34a 80bc c56a aebb 667c 123d 08be bf3c
000003c0: b143 cdbb 106a 8fbc 994f 7d3c 5d5c 343c
000003d0: d2a6 1cbd 1cea ffbc 0669 df3c 4f1f c1bc
000003e0: aa28 ee3b a4ef 15bc aa4a d13b 8479 033c
000003f0: ea06 b33c 2dcd 503c 8af9 d1bb 4eb5 8e3c

bias f4 [80]
-0.03282043 -0.00909273 0.035912063 -0.0458544 -0.009447739 -0.00039854928 -0.03992871 0.06666201
-0.026408445 0.07499047 -0.042162873 0.00695106 -0.014815142 -0.051408634 0.0048085996 0.06983623
0.04810227 -0.06221119 -0.010765549 -0.02526063 -0.057114307 0.034060705 -0.015629912 -0.053524353
0.06853215 0.015919853 0.015469922 0.06295824 -0.061529174 0.026970835 -0.0680399 0.03870275
-0.05556266 -0.07001244 -0.048305977 0.023709651 0.048251025 0.028808828 -0.058253117 -0.011930603
0.049835663 -0.07484719 -0.034674518 0.01765583 -0.07155729 -0.056399662 -0.045408 0.057388347
0.05656258 -0.01779412 0.03687268 0.01314908 -0.050581593 0.06698431 0.048448976 -0.011066007
-0.07743645 -0.005656829 -0.047931403 0.049021475 0.06254383 0.015746482 -0.058290962 0.025015093
-0.06871106 -0.072214395 -0.01912241 -0.054476403 0.047514588 0.06589781 0.009518865 -0.009013284
0.024926877 0.041927688 0.0032253645 0.035106372 -0.051181354 -0.017425349 0.075186 0.072859995
00000000: b76e 06bd acf9 14bc 8718 133d d3d1 3bbd
00000010: b1ca 1abc 61f4 d0b9 498c 23bd 1886 883d
00000020: 8656 d8bc 9b94 993d fab2 2cbd b8c5 e33b
00000030: 36bb 72bc dc91 52bd 7591 9d3b 4c06 8f3d
00000040: e306 453d 29d1 7ebd fc61 30bc 61ef cebc
00000050: b1f0 69bd 3d83 0b3d 4d0a 80bc 5a3c 5bbd
00000060: 955a 8c3d 5a6a 823c 8e75 7d3c 40f0 803d
00000070: 0406 7cbd f1f1 dc3c 8158 8bbd c686 1e3d
00000080: ac95 63bd af62 8fbd 7ddc 45bd be3a c23c
00000090: dea2 453d 7e00 ec3c d29a 6ebd 9378 43bc
000000a0: 7b20 4c3d 7c49 99bd de06 0ebd f6a2 903c
000000b0: a18c 92bd 5503 67bd bdfd 39bd 0b10 6b3d
000000c0: 2aae 673d f9c4 91bc cf07 173d 3d6f 573c
000000d0: a52e 4fbd 122f 893d 6f72 463d 334e 35bc
000000e0: 0097 9ebd ec5c b9bb b853 44bd beca 483d
000000f0: fb16 803d c4fe 803c 81c2 6ebd 74ec cc3c
00000100: 62b8 8cbd 24e5 93bd 9aa6 9cbc a622 5fbd
00000110: a89e 423d 6ef5 863d 03f5 1b3c 74ac 13bc
00000120: 7333 cc3c 5ebc 2b3d a360 533b b3cb 0f3d
00000130: 8aa3 51bd 9bbf 8ebc 1efb 993d 9f37 953d

weight f4 [80, 80, 2]
-0.025166115 -0.017311608 -0.011562341 -0.035507195 -0.015620554 -0.031693827 -0.020829117 -0.03087764
-0.027859613 -0.017545365 -0.020249922 -0.022311179 -0.019797785 0.0076685795 -0.019908663 -0.019025903
-0.02101962 0.004600199 -0.027278613 -0.020986183 -0.02394937 -0.003310917 -0.018286098 -0.008261291
-0.010708365 -0.0010390925 -0.008723264 -0.0066733155 -0.011124868 0.011286252 -0.03958302 2.3171674e-06
-0.019847266 -0.0064714737 -0.0022246414 -0.011396243 -0.012519413 -0.008936103 -0.023965169 -0.020801516
-0.016932527 0.0021643015 -0.024457974 0.007110912 -0.023326604 -0.017884323 0.015537495 -0.033998854
0.008997621 -0.018857257 -0.011976812 -0.018381894 0.00280418 -0.0112355845 -0.007331024 -0.020522237
-0.008721115 -0.040111333 -0.01356017 -0.0008951938 -0.00411139 -0.013572388 -0.005352473 -0.023950633
-0.026193282 -0.011108498 -0.0008970377 -0.010487316 -0.036843304 -0.013554814 0.00085982046 -0.023704441
-0.019748205 -0.010753697 -0.017644726 -0.00643904 -0.024796834 -0.018274033 -0.010442011 -0.009742269
-0.032420177 0.0022278365 0.011173216 0.0020217944 -0.0041447645 -0.01765359 -0.019779252 -0.009039722
-0.013639212 -0.018480396 -0.0045196656 -0.00143303 0.008991788 -0.025511205 0.004318775 -0.0103857415
-0.0087394295 -0.013768709 -0.0009194425 -0.0062570767 -0.011567296 -0.0032319385 0.006980102 0.008990355
-0.010136755 0.008541088 -0.007540279 -0.0020734868 -0.014924293 -0.018475268 -0.021054434 -0.016434902
-0.010232456 0.010081575 0.004921333 -0.02336019 -0.004213861 -0.004108262 0.0075620757 0.007276527
-0.021474056 -0.0008487967 -0.017980125 -0.011137767 -0.019378614 -0.022100275 -0.024023317 -0.012099725
-0.012474481 -0.03786286 -0.02759058 -0.0034371277 -0.0068866313 0.0121824015 -0.01147183 -0.0013627097
-0.008224224 -0.011427566 -0.0054539866 -0.024928445 -0.010807832 -0.0041879853 -0.031347867 -0.023099342
-0.033251524 -0.016493006 -0.0131359715 -0.006979411 -0.01158356 -0.0074824356 -0.009224137 -0.0054651024
-0.0055863964 -0.023892704 0.0023813997 0.005192705 0.018204756 0.015153006 -0.01394197 -0.0017653533
0.0046266313 -0.021669263 -0.015117853 -0.046564788 -0.016132828 -0.020734532 -0.018915331 -0.0153212035
-0.02012201 -0.0063485014 -0.009091871 -0.018659174 0.00029470833 -0.0049722 -0.019550439 -0.014067311
-0.01571651 -0.0012095963 -0.019743225 -0.01791384 -0.011797169 -0.00040439612 -0.0098419525 -0.013538826
-0.008620083 -0.013974751 -0.017168617 -0.031259336 -0.02121582 -0.017848149 -0.009538021 0.0065176766
-0.00407966 -0.009473516 -0.008032798 0.014261491 -0.0028264567 0.01061231 -0.029565558 -0.015207724
0.004717281 0.0024755301 -0.018507278 0.0008602306 -0.008068128 -0.003279748 0.005045134 -0.013448745
-0.025466977 0.0005858697 0.004434804 -0.0054473192 0.0035736796 0.00888204 -0.01213047 -0.017579824
-0.018380519 -0.0057411133 -0.022174148 -0.0006295948 -0.020670997 -0.000785584 -0.029447978 -0.02220161
-0.01250782 -0.033398878 -0.01817144 -0.012270296 -0.02023413 -0.027806384 -0.022005817 -0.023627564
-0.010534938 0.0060366285 -0.016963625 -0.024789834 -0.02180207 -0.005785227 -0.018190108 -0.019741002
-0.0195101 -0.025371049 -0.011000413 -0.0074014803 -0.009390998 -0.008791833 -0.010180458 -0.0048152828
-0.011932028 -0.011713269 -0.0096442625 -0.010312491 0.003450219 -0.029441489 0.0032603918 -0.026938139
00000000: 2b29 cebc 13d1 8dbc f96f 3dbc fe6f 11bd
00000010: 5aed 7fbc 63d1 01bd d3a1 aabc 1bf3 fcbc
00000020: d839 e4bc 4cbb 8fbc 2ae3 a5bc efc5 b6bc
00000030: f72e a2bc b548 fb3b 7e17 a3bc 36dc 9bbc
00000040: 5731 acbc 44bd 963b 6677 dfbc 37eb abbc
00000050: 7831 c4bc f8fb 58bb bacc 95bc 5e5a 07bc
00000060: 2372 2fbc 2932 88ba 05ec 0ebc d4ab dabb
00000070: 1445 36bc f9e9 383c ce21 22bd a280 1b36
00000080: bc96 a2bc a80e d4bb 4acb 11bb 4fb7 3abc
00000090: 391e 4dbc bc68 12bc 9a52 c4bc f167 aabc
000000a0: 15b6 8abc f4d6 0d3b 175c c8bc a702 e93b
000000b0: 6f17 bfbc 2582 92bc fa90 7e3c 6242 0bbd
000000c0: c26a 133c 897a 9abc 643a 44bc a095 96bc
000000d0: 55c6 373b 7515 38bc 1639 f0bb 401e a8bc
000000e0: 02e3 0ebc c84b 24bd 7a2b 5ebc 70ab 6aba
000000f0: d7b8 86bb b95e 5ebc cc63 afbb 1e34 c4bc
00000100: 4b93 d6bc 6b00 36bc 2e27 6bba fed2 2bbc
00000110: 01e9 16bd 0315 5ebc 9365 613a d12f c2bc
00000120: fdc6 a1bc 4630 30bc ac8b 90bc 95fe d2bb
00000130: bb22 cbbc 6db3 95bc f814 2bbc 0a9e 1fbc
00000140: 05cb 04bd e500 123b dd0f 373c 1580 043b
00000150: ced0 87bb 439e 90bc 1908 a2bc 581b 14bc
00000160: 0077 5fbc 3364 97bc b419 94bb 82d4 bbba
00000170: 4b52 133c e0fc d0bc 8384 8d3b f528 2abc
00000180: d32f 0fbc 2796 61bc be06 71ba 2a08 cdbb
00000190: c284 3dbc eece 53bb 57b9 e43b 484c 133c
000001a0: a214 26bc ebef 0b3c 7214 f7bb 56e3 07bb
000001b0: 0685 74bc 7259 97bc 597a acbc 7da2 86bc
000001c0: 08a6 27bc 312d 253c 2243 a13b df5d bfbc
000001d0: 6e14 8abb 999e 86bb 4acb f73b ef6f ee3b
000001e0: 5cea afbc c881 5eba 0e4b 93bc 2e7b 36bc
000001f0: e6bf 9ebc a30b b5bc 8ccc c4bc ed3d 46bc
00000200: c461 4cbc 1616 1bbd a405 e2bc 6f41 61bb
00000210: 40a9 e1bb b298 473c 58f4 3bbc f39c b2ba
00000220: e5be 06bc b03a 3bbc 5bb7 b2bb bd36 ccbc
00000230: 5513 31bc 5e3b 89bb 9f66 00bd d53a bdbc
00000240: c032 08bd 571c 87bc 4238 57bc 8bb3 e4bb
00000250: f9c8 3dbc 382f f5bb d620 17bc 9a14 b3bb
00000260: 170e b7bb a2ba c3bc 4211 1c3b 9127 aa3b
00000270: 2422 953c 5044 783c dc6c 64bc 6d63 e7ba
00000280: ff9a 973b bd83 b1bc dfb0 77bc b8ba 3ebd
00000290: fe28 84bc 77db a9bc 53f4 9abc c905 7bbc
000002a0: ead6 a4bc 1707 d0bb 12f6 14bc 20db 98bc
000002b0: 1583 9a39 d6ed a2bb 3e28 a0bc 947a 66bc
000002c0: e9bf 80bc 518b 9eba 8bbc a1bc 0cc0 92bc
000002d0: ea48 41bc 2105 d4b9 2440 21bc f4d1 5dbc
000002e0: 403b 0dbc 5bf6 64bc 33a5 8cbc ca09 00bd
000002f0: cdcc adbc 4836 92bc 5c45 1cbc 3c92 d53b
00000300: abae 85bb ce36 1bbc ff9b 03bc 07a9 693c
00000310: 133c 39bb 41df 2d3c 7833 f2bc d129 79bc
00000320: 6c93 9a3b 813c 223b 939c 97bc 1981 613a
00000330: 2e30 04bc 0af1 56bb a751 a53b 2058 5cbc
00000340: 1fa0 d0bc 0d95 193a d551 913b 6d7f b2bb
00000350: 6534 6a3b fa85 113c e1be 46bc 9003 90bc
00000360: be92 96bc f31f bcbb 8fa6 b5bc 640b 25ba
00000370: 3956 a9bc a6ef 4dba e33c f1bc 27e0 b5bc
00000380: 99ed 4cbc 43cd 08bd 46dc 94bc 5a09 49bc
00000390: 0cc2 a5bc 37ca e3bc 8b45 b4bc 988e c1bc
000003a0: bc9a 2cbc e9ce c53b 4df7 8abc 0d14 cbbc
000003b0: 419a b2bc 0092 bdbb 6c03 95bc e2b7 a1bc
000003c0: a5d3 9fbc f2d6 cfbc 143b 34bc 1e88 f2bb
000003d0: b3dc 19bc 9f0b 10bc f0cb 26bc 85c9 9dbb
000003e0: 8e7e 43bc 03e9 3fbc f802 1ebc b9f5 28bc
000003f0: 121d 623b 472f f1bc 4cac 553b 5fad dcbc

bias f4 [80]
0.043248635 0.047582272 0.039443243 -0.02974369 0.010424058 0.07000332 -0.050493147 -0.05986005
-0.033457316 0.047791056 -0.00037870737 0.0122424 -0.05024885 0.011606635 -0.026044657 -0.04656444
0.02922251 0.02898565 0.043218967 0.0010458273 -0.018541532 0.033540815 0.018953625 0.060599495
-0.055395298 0.0016570713 0.015432325 0.03992178 -0.09848045 0.03397781 0.031563576 0.0012601463
-0.030710034 -0.067454085 0.029597668 -0.019064434 -0.023635868 0.069815986 0.027373288 -0.0749924
0.0020562646 -0.08343327 0.024576563 0.048174247 0.037879992 0.06626311 -0.039276224 0.008230872
0.0034893386 -0.083932474 -0.037810136 -0.0427519 -0.08223351 -0.010051059 0.045891143 -0.06505894
-0.0065642116 0.028503943 -0.035457708 0.038002133 -0.0037266049 0.0039012763 -0.042470988 -0.03210654
-0.006237664 -0.059435703 -0.068079874 -0.07349165 0.029526176 0.000453634 0.055426847 0.027027063
-0.054580215 -0.091019675 -0.018056728 -0.054774977 -0.044383805 -0.06824327 -0.021689406 -0.028651513
00000000: 7b25 313d a1e5 423d 3d8f 213d 0aa9 f3bc
00000010: abc9 2a3c e75d 8f3d e7d1 4ebd d02f 75bd
00000020: 8a0a 09bd 8ec0 433d 3e8d c6b9 5994 483c
00000030: bdd1 4dbd c129 3e3c 9b5b d5bc 5bba 3ebd
00000040: 0c64 ef3c 5073 ed3c 5f06 313d 2414 893a
00000050: 69e4 97bc 1862 093d a244 9b3c 2d37 783d
00000060: 2ee6 62bd 1632 d93a ddd7 7c3c 0585 233d
00000070: 1eb0 c9bd 512c 0b3d cf48 013d 7e2b a53a
00000080: 9c93 fbbc 5e25 8abd cf76 f23c 042d 9cbc
00000090: 02a0 c1bc affb 8e3d f23d e03c 9e95 99bd
000000a0: 65c2 063b 10df aabd ca54 c93c 5c52 453d
000000b0: 0d28 1b3d f4b4 873d 1be0 20bd c8da 063c
000000c0: 63ad 643b cae4 abbd cdde 1abd 9e1c 2fbd
000000d0: 0b6a a8bd 32ad 24bc 5af8 3b3d 9f3d 85bd
000000e0: 9918 d7bb 1a81 e93c 1a3c 11bd 20a8 1b3d
000000f0: 0e3a 74bb 8eac 7f3b 0ff6 2dbd 2682 03bd
00000100: 5165 ccbb da72 73bd 766d 8bbd ca82 96bd
00000110: e1e0 f13c bad5 ed39 4307 633d dc67 dd3c
00000120: 818f 5fbd 8668 babd b4eb 93bc ba5b 60bd
00000130: cbcb 35bd 21c3 8bbd fbad b1bc 94b6 eabc

weight f4 [80, 80, 2]
0.0038946979 0.0043661813 0.005051851 -0.002795184 -0.019405661 -0.0060257437 0.0005788293 0.0121552115
0.01807917 0.00092961185 -0.0011019979 0.020438993 -0.07942092 -0.064217374 0.039296303 0.009256582
0.008328709 -0.0011012563 -0.018075334 -0.0021162794 -0.03990923 -0.01816894 0.015310652 0.0041731955
0.038143076 0.01628928 0.0014278905 0.0034817983 -0.0073271045 -0.021311896 -0.002481499 -0.013944181
0.025878634 0.010503898 0.01323522 0.0025128645 0.039791413 0.0019618473 -0.014835426 -0.010216973
0.0057676653 -0.001004754 -0.014208163 -0.007301911 -0.02317403 -0.0033467822 -0.03217599 -0.027652854
0.020427728 0.002175548 0.024203848 0.015081525 0.024245923 0.015111411 -0.0043172045 0.023452563
-0.0020820617 -0.009288105 0.001363232 -0.010780424 -0.012661899 -0.023347154 0.006840614 0.0013370196
0.007246826 -0.004748464 -0.013849873 -0.005282265 -0.016766725 -0.00030222893 -0.009234656 0.0002725055
-0.011996399 0.0029137966 0.0067540226 0.0015417516 0.010151889 0.019959109 -0.06806912 -0.03839137
-0.005337501 0.0069401027 -0.017427655 -0.01694992 0.016570373 0.02506324 -0.009443303 0.015740722
-0.008679281 0.0017019236 -0.004752928 -0.004127628 -0.012833141 -0.011026563 0.0057141827 0.013675337
0.02332288 -0.013285753 0.0003548641 -0.012286868 0.01250893 0.004720983 0.004980304 0.010390018
0.0020025128 -0.01938937 0.032606456 0.0005731178 -0.014035132 -0.023623273 -0.0025894523 -0.021069072
0.024456508 0.019344855 0.03736923 -0.010320985 0.002880826 0.008937217 0.0062578106 -0.011460617
-0.01509817 -0.01735631 0.014256976 -0.0045936527 -0.06837243 -0.04963103 0.041193064 0.034128547
0.01380617 -0.017836627 0.018734224 0.00544953 0.017143652 0.008841607 1.4411935e-05 -0.0028182473
-0.020701561 -0.014689822 -0.020900663 -0.015774097 -0.023096235 -0.036863238 0.0035420877 0.0035352546
0.018766198 -0.004793435 0.022475917 -0.023763588 0.02019855 -0.001902981 -0.007283894 -0.01100237
-0.00837898 -0.0010601586 -0.003692287 0.007690079 -0.010743802 0.00022174128 -0.006547631 0.002544714
-0.01301407 -0.008629683 -0.023384186 -0.012729324 0.017835574 0.006460077 -0.0075093624 -0.010515891
-0.04855911 -0.032661263 -0.0006577972 -0.009172064 0.039339475 0.034688763 -0.036313646 -0.03089803
-0.02778518 -9.2941904e-05 0.014783649 0.014636674 -0.006198845 -0.0043925606 -0.00177751 -0.0044740955
-0.035823397 -0.023556178 -0.0051106107 -0.00029826557 0.009287054 -0.008453411 -0.017911125 -0.0068970593
-0.053465556 -0.028078504 -0.015540519 0.002145919 -0.049591947 -0.029607253 0.021730695 0.017251248
-0.022202402 0.0013338653 -0.0037673526 -0.01059941 0.048778813 0.015320996 0.021052932 0.0053294045
-0.031210115 -0.023434289 -0.047310673 -0.055005282 0.00066318666 -0.0019790102 -0.023801314 -0.014328372
-0.020516071 -0.003310445 -0.022959357 -0.023709616 0.02688243 0.040546607 0.0033007327 0.021935428
-0.0247801 -6.9987186e-06 0.018272657 0.011866552 0.013922268 -0.0027416612 0.013807525 -0.014190063
0.0006241233 -0.016846381 -0.009462359 0.036702935 -0.020358691 -0.024070667 0.018279515 0.029301034
-0.007911731 -0.027603969 0.016545571 0.019194786 -0.01906084 -0.02481566 -0.013500655 0.0048060874
-0.0067684185 -0.0014106496 0.033980716 0.015794508 0.007647301 -0.006571042 -0.013607388 -0.0028290874
00000000: 303e 7f3b 2f12 8f3b ff89 a53b 682f 37bb
00000010: 9ff8 9ebc 9a73 c5bb 94bc 173a a726 473c
00000020: c41a 943c 32b1 733a ea70 90ba ad6f a73c
00000030: 6fa7 a2bd 6684 83bd 29f5 203d eba8 173c
00000040: 2375 083c 0858 90ba b912 94bc 47b1 0abb
00000050: dc77 23bd 07d7 94bc 87d9 7a3c 4dbf 883b
00000060: ea3b 1c3d 1971 853c 0e28 bb3a e22e 643b
00000070: 3518 f0bb 4996 aebc a5a0 22bb 2276 64bc
00000080: 6eff d33c 8b18 2c3c 89d8 583c dfae 243b
00000090: 52fc 223d 5692 003b 4910 73bc 1765 27bc
000000a0: affe bc3b f3b1 83ba 5bc9 68bc de44 efbb
000000b0: 77d7 bdbc b055 5bbb f9ca 03bd 3d88 e2bc
000000c0: 0d58 a73c a493 0e3b 2647 c63c 8018 773c
000000d0: 639f c63c da95 773c 5677 8dbb 971f c03c
000000e0: 3373 08bb 232d 18bc 7aae b23a 60a0 30bc
000000f0: db73 4fbc 8842 bfbc 3b27 e03b ef3e af3a
00000100: c876 ed3b 0199 9bbb 94ea 62bc da16 adbb
00000110: 5f5a 89bc 7b74 9eb9 f44c 17bc 12df 8e39
00000120: 8b8c 44bc 65f5 3e3b d950 dd3b 9914 ca3a
00000130: 1c54 263c 4981 a33c d367 8bbd 4540 1dbd
00000140: 34e6 aebb cd69 e33b 71c4 8ebc 8fda 8abc
00000150: 97be 873c 6d51 cd3c 15b8 1abc b0f2 803c
00000160: 8b33 0ebc 1413 df3a 73be 9bbb 0e41 87bb
00000170: 1842 52bc c2a8 34bc 0a3e bb3b 850e 603c
00000180: a00f bf3c 7dac 59bc 0e0d ba39 dc4e 49bc
00000190: 41f2 4c3c 7ab2 9a3b d131 a33b e53a 2a3c
000001a0: 973c 033b 75d6 9ebc 598e 053d 493d 163a
000001b0: 9cf3 65bc 9885 c1bc cdb3 29bb 0c99 acbc
000001c0: 0459 c83c 1a79 9e3c 7a10 193d 5919 29bc
000001d0: 3dcc 3c3b 686d 123c 520e cd3b 50c5 3bbc
000001e0: 515e 77bc d22e 8ebc 1796 693c 5a86 96bb
000001f0: d806 8cbd e849 4bbd 0fba 283d 60ca 0b3d
00000200: 4633 623c 1e1e 92bc 8478 993c f991 b23b
00000210: d870 8c3c 63dc 103c caca 7137 58b2 38bb
00000220: 5296 a9bc 94ad 70bc de37 abbc ae38 81bc
00000230: 5134 bdbc e8fd 16bd 5f22 683b bbaf 673b
00000240: 92bb 993c 3f12 9dbb 6a1f b83c dbab c2bc
00000250: 6e77 a53c 726d f9ba bbad eebb 4943 34bc
00000260: fd47 09bc 05f5 8aba 4cfa 71bb 0ffd fb3b
00000270: c606 30bc 3983 6839 838d d6bb 37c5 263b
00000280: f738 55bc 8463 0dbc 3190 bfbc a88e 50bc
00000290: e91b 923c 0eaf d33b 1911 f6bb d84a 2cbc
000002a0: ebe5 46bd d1c7 05bd 0670 2cba 6d46 16bc
000002b0: 6e22 213d ce15 0e3d 9ebd 14bd de1d fdbc
000002c0: bf9d e3bc cee9 c2b8 1e37 723c a9ce 6f3c
000002d0: ae1f cbbb 78ef 8fbb 57fb e8ba 6f9b 92bb
000002e0: 8ebb 12bd e3f8 c0bc e976 a7bb 8760 9cb9
000002f0: ba28 183c 2d80 0abc 5aba 92bc ba00 e2bb
00000300: b3fe 5abd e404 e6bc a99d 7ebc 8ca2 0c3b
00000310: ed20 4bbd e98a f2bc 9204 b23c 7d52 8d3c
00000320: d0e1 b5bc 18d5 ae3a b0e5 76bb 26a9 2dbc
00000330: 4bcc 473d ea04 7b3c 3377 ac3c 49a2 ae3b
00000340: 5bac ffbc 44f9 bfbc d6c8 41bd 384d 61bd
00000350: b4d9 2d3a 48b2 01bb f9fa c2bc 8cc1 6abc
00000360: 5211 a8bc 0df4 58bb 4315 bcbc ab3a c2bc
00000370: 8b38 dc3c 3314 263d 1b51 583b edb1 b33c
00000380: a3ff cabc 89d6 eab6 8ab0 953c ed6b 423c
00000390: 391a 643c 71ad 33bb f538 623c 707d 68bc
000003a0: 359c 233a 6c01 8abc 0308 1bbc d155 163d
000003b0: 45c7 a6bc d92f c5bc ecbe 953c b908 f03c
000003c0: 34a0 01bc b821 e2bc 948a 873c 623e 9d3c
000003d0: 7b25 9cbc 364a cbbc da31 5dbc 627c 9d3b
000003e0: 9cc9 ddbb 8ce5 b8ba 5d2f 0b3d 7c63 813c
000003f0: 3696 fa3b e551 d7bb 86f1 5ebc 3668 39bb
