GAN/u Generator/u_epochs=501_seq=127_batch=13.pth (torch, 674968 bytes, 31 tensors)

weight f4 [1, 80, 1]
0	0xba1a9b48	-0.00058977725
1	0x3bdbc0e1	0.0067063426
2	0x3bafd062	0.0053654173
3	0x3b2ccc78	0.002636699
4	0xbc524c45	-0.012835567
5	0xba7e2611	-0.00096950034
6	0xbbaab97b	-0.0052100993
7	0xba0c3bb4	-0.00053494726
8	0x3aa81590	0.0012823809
9	0xbce1b83e	-0.027553674
10	0x3c86d3bc	0.016458385
11	0x3b8cf47d	0.004301606
12	0x3c56219c	0.013069537
13	0xb9322a23	-0.000169911
14	0x3c8c68ca	0.017139811
15	0xbc2fea4a	-0.010737011
16	0xbc58a4f0	-0.013222918
17	0xbbb2da4a	-0.005458151
18	0x3bb2f2e3	0.0054610833
19	0x3bc44b59	0.0059904275
20	0xbc36bbd6	-0.011153182
21	0x3c72090c	0.014772665
22	0xbc2cc2c0	-0.010544479
23	0x39a39fba	0.00031208788
24	0x3c33be7c	0.010970708
25	0x3c8db8dc	0.017300062
26	0x3cd48952	0.025944386
27	0xbc1c8ca1	-0.009555013
28	0x3c6ab0d0	0.014324382
29	0x3c5d7169	0.013515809
30	0xbd0fa8ed	-0.03507321
31	0x3c87b068	0.01656361
32	0x3b84de98	0.0040548556
33	0xbc2ffbf5	-0.010741224
34	0xbc7c1b20	-0.0153873265
35	0x3caad787	0.020854725
36	0x3bb120c2	0.0054055164
37	0xbc43a05e	-0.01194009
38	0xbaf97642	-0.0019032436
39	0x3c5e29f0	0.013559803
40	0xbb4b52ff	-0.0031024811
41	0x3ba98c1d	0.0051741735
42	0xbc9ad584	-0.01890064
43	0x3c341d3f	0.010993301
44	0x3caa2963	0.020771688
45	0x3c81402e	0.015777674
46	0xbbd3ef9e	-0.0064677736
47	0xbc3f5403	-0.011677745
48	0xbc67d9b8	-0.014151029
49	0x3cbd2ec7	0.023093594
50	0xba611879	-0.00085867156
51	0x3c310dc5	0.010806506
52	0xbb89ade9	-0.00420164
53	0xbb265614	-0.0025380896
54	0x3ba2eb8e	0.004971928
55	0x3c4c8f6e	0.012485368
56	0x3bc02d20	0.0058647543
57	0xbc07eabe	-0.008295713
58	0xbbb3bc90	-0.005485125
59	0x3b36e8af	0.0027909686
60	0xbbdfbe5e	-0.0068281135
61	0xbb29583e	-0.002583995
62	0x3be51aee	0.0069917357
63	0xbc879b37	-0.016553504
64	0x3c8ac6a5	0.016940424
65	0xba1530eb	-0.0005691188
66	0x3b8f2cec	0.004369369
67	0x3c38ebec	0.011286717
68	0xbbbaa240	-0.0056956112
69	0xbc0b6301	-0.008507491
70	0x3cea6385	0.028611908
71	0x3c9738d9	0.018459724
72	0xbc6faabd	-0.0146281095
73	0x3c41c760	0.01182732
74	0xbbe6db19	-0.0070451614
75	0x38e5803a	0.00010943455
76	0x3c7af730	0.015317723
77	0xbc785171	-0.015156136
78	0x3c8d6ddd	0.017264301
79	0x3c16f81b	0.009214426

weight f4 [80, 3, 1]
0	0x3d493674	0.049124196
1	0x3d5fef88	0.054671794
2	0xbd8ec121	-0.0697043
3	0xbd9ae823	-0.07563808
4	0xbd74be00	-0.05975151
5	0x3db3bb63	0.087759756
6	0xbd68f590	-0.05687481
7	0xbd4bbd92	-0.049741335
8	0x3d8d2f17	0.06893747
9	0xbd9f6f2d	-0.07784877
10	0xbd954fc2	-0.07290603
11	0x3d8feb23	0.07027271
12	0x3dba1b45	0.090872325
13	0x3dbb7206	0.091526076
14	0xbddae341	-0.106878765
15	0xbd9a3469	-0.07529528
16	0xbd3c0620	-0.04590428
17	0x3da49fd5	0.08038298
18	0xbd934747	-0.071913294
19	0xbd80b3b1	-0.062842734
20	0x3d90eaa3	0.070760034
21	0x3d7c1d16	0.061551176
22	0x3d908893	0.070572995
23	0xbd6667de	-0.0562514
24	0xbd72ea2d	-0.05930536
25	0xbd7aa616	-0.06119355
26	0x3da5a758	0.08088559
27	0x3d8cee78	0.06881422
28	0x3d667dfb	0.056272488
29	0xbdb39d09	-0.087701865
30	0xbd6e0f3d	-0.05812
31	0xbd70f900	-0.058831215
32	0x3d8297cb	0.063766085
33	0xbd7c0d15	-0.061535913
34	0xbd9cdd0b	-0.07659348
35	0x3d890a6f	0.06691443
36	0xbd2b5234	-0.041826442
37	0x3d36ad7d	0.044599045
38	0x3cc401b9	0.023926603
39	0xbd9468da	-0.07246561
40	0xbdb8482c	-0.08998141
41	0x3d86c15d	0.0657985
42	0xbd823ccb	-0.063592516
43	0xbd5acb8e	-0.05341678
44	0x3d816efb	0.06319996
45	0xbe048c1e	-0.12944075
46	0xbdee83e3	-0.11646249
47	0x3de6735a	0.1125247
48	0xbd383c32	-0.04497928
49	0xbd2b22f6	-0.04178139
50	0x3d5442ec	0.051821634
51	0xbd8d78ce	-0.06907807
52	0xbda08b9f	-0.078391306
53	0x3d97ea3f	0.07417726
54	0x3d995cec	0.074884266
55	0x3d662fcd	0.05619793
56	0xbd8ef207	-0.06979757
57	0xbd0bd038	-0.03413412
58	0xbd24fc6b	-0.040279787
59	0x3d099b36	0.033595286
60	0x3d8d625e	0.06903528
61	0x3d9cb071	0.07650841
62	0xbda448d5	-0.08021704
63	0xbda36c1f	-0.07979607
64	0xbd7e668e	-0.062109523
65	0x3d8c46e3	0.06849458
66	0x3db76b84	0.08956054
67	0x3db4d77c	0.08830163
68	0xbdd1b52a	-0.102396324
69	0x3d6abfe0	0.057311893
70	0x3d32fa1e	0.04369556
71	0xbd746369	-0.059665117
72	0x3d5d93ca	0.05409602
73	0x3d887cfc	0.06664464
74	0xbd857ff3	-0.06518545
75	0x3e0aebbc	0.13566488
76	0x3e183d76	0.14867195
77	0xbe237cdb	-0.15965597
78	0x3d92da5c	0.07170555
79	0x3d962d81	0.07332898
80	0xbdbaa858	-0.0911414
81	0xbd50eec8	-0.05100897
82	0xbd402e67	-0.046919253
83	0x3d6912c8	0.056902677
84	0x3d47e7ad	0.048804928
85	0x3d7c0bf1	0.061534826
86	0xbd72bfcd	-0.059264947
87	0xbdb3c6ef	-0.08778178
88	0xbd935aca	-0.07195051
89	0x3d8bc7a2	0.06825186
90	0x3d836a8f	0.06416809
91	0x3d97ad81	0.0740614
92	0xbd888f00	-0.066679
93	0xbda214de	-0.07914136
94	0xbd9a34ed	-0.07529626
95	0x3db0b4bf	0.086282246
96	0x3d9fce96	0.07803075
97	0x3d8437b2	0.064559355
98	0xbd999d06	-0.07500653
99	0x3d8b6463	0.068062566
100	0x3d94b01f	0.07260155
101	0xbd969640	-0.07352877
102	0x3d93766d	0.07200322
103	0x3d85b08f	0.065278165
104	0xbdae7575	-0.08518497
105	0x3ce86d59	0.028372454
106	0x3d4eec81	0.050518516
107	0xbd43ad80	-0.047772884
108	0xbd91f963	-0.07127645
109	0xbd934d6a	-0.071925
110	0x3dc18707	0.094495825
111	0x3d82eade	0.063924536
112	0x3d8481ab	0.06470045
113	0xbdc58581	-0.096446045
114	0x3d83874c	0.0642229
115	0x3d7f59fd	0.06234168
116	0xbd8d8c93	-0.06911578
117	0xbd7fd749	-0.06246117
118	0xbd7e09b5	-0.062020976
119	0x3d8fb308	0.070165694
120	0xbd5a26f7	-0.053259816
121	0xbd59565f	-0.053060886
122	0x3d84ebe9	0.06490309
123	0xbdb4b1f1	-0.08823002
124	0xbda33e68	-0.079708874
125	0x3daf858d	0.08570395
126	0xbd682c81	-0.056683067
127	0xbd28449b	-0.041081052
128	0x3d76ceb9	0.06025574
129	0xbda2afdd	-0.079436995
130	0xbda1869a	-0.07887001
131	0x3d934a56	0.07191913
132	0x3d259ea9	0.040434513
133	0x3ca5d5fb	0.020243635
134	0xbca67b78	-0.020322546
135	0x3d5bd039	0.053665373
136	0x3cc4d209	0.024025934
137	0xbd85dc55	-0.065361656
138	0x3cf0dfa0	0.029403508
139	0x3d24e4c5	0.040257234
140	0xbd1f8562	-0.038945563
141	0x3db10a1c	0.08644506
142	0x3d80e918	0.06294459
143	0xbdb60573	-0.08887758
144	0x3d9af61a	0.075664714
145	0x3da89bd0	0.08232844
146	0xbdabe07e	-0.08392428
147	0xbd647822	-0.05577863
148	0xbd5e41c7	-0.05426195
149	0x3d858f70	0.06521499
150	0xbd47ecb3	-0.04880972
151	0xbd698e76	-0.057020627
152	0x3d5948f3	0.053048085
153	0xbdb20754	-0.08692804
154	0xbd1d78a1	-0.03844512
155	0x3d8d93ea	0.06912978
156	0xbdbc8b7e	-0.092062935
157	0xbda57d1a	-0.08080502
158	0x3dcdeb6b	0.10054668
159	0xbdad0e98	-0.08450049
160	0xbd951eb0	-0.07281244
161	0x3da1c191	0.07898248
162	0x3d4ba8d9	0.049721573
163	0x3d664eeb	0.056227606
164	0xbd8a5de7	-0.06756192
165	0xbdb084c1	-0.08619071
166	0xbd88ee8d	-0.06686125
167	0x3d9fbb30	0.07799375
168	0xbdcc49f9	-0.09975047
169	0xbd961a59	-0.07329244
170	0x3d980547	0.074228816
171	0x3da231f9	0.07919688
172	0x3d907269	0.07053072
173	0xbdbfca6d	-0.093647815
174	0xbd81560a	-0.06315239
175	0xbd42e87e	-0.047585003
176	0x3da77f86	0.0817862
177	0x3d50f50b	0.05101494
178	0x3d257faa	0.040404953
179	0xbd8054cf	-0.06266176
180	0x3d8cd479	0.068764634
181	0x3d96d9a8	0.073657334
182	0xbdc05932	-0.09392013
183	0x3da2dd5a	0.07952376
184	0x3d486810	0.048927367
185	0xbde00184	-0.10937789
186	0xbdb5377e	-0.08848475
187	0xbd8f4adb	-0.069966994
188	0x3d48decd	0.049040604
189	0xbd9f5ae1	-0.07781006
190	0xbd8728a7	-0.06599551
191	0x3db0fb4a	0.086416796
192	0xbd9a4b91	-0.075339444
193	0xbd57ce3e	-0.052686922
194	0x3d8b5ca2	0.06804778
195	0x3d90c6b3	0.07069149
196	0x3d9d22eb	0.07672676
197	0xbdadefc8	-0.08493
198	0xbd7f7a7c	-0.06237267
199	0xbd888b8e	-0.06667243
200	0x3d9176b9	0.07102723
201	0x3d75ba53	0.059992146
202	0x3d8d8717	0.06910532
203	0xbd8d0443	-0.068855785
204	0x3d0d16ca	0.03444556
205	0x3d52fd6e	0.05151122
206	0xbd523b56	-0.05132612
207	0xbd0b841e	-0.034061544
208	0xbd4972f3	-0.04918189
209	0x3d7b6b11	0.061381403
210	0x3daa9ae0	0.08330321
211	0x3da3b273	0.07993021
212	0xbd9e8725	-0.077406205
213	0x3d900f91	0.07034219
214	0x3d7c750f	0.061635073
215	0xbd8a97ba	-0.06767221
216	0xbdb5a82b	-0.08869966
217	0xbdbc7e5a	-0.09203787
218	0x3dcb2cdc	0.099206656
219	0x3d9eccf3	0.07753935
220	0x3d35c25f	0.04437482
221	0xbd8e51ec	-0.06949219
222	0x3d8c895a	0.06862135
223	0x3db06bc5	0.086143054
224	0xbdb68b1a	-0.0891325
225	0xbce6b80b	-0.02816393
226	0xbd4424d6	-0.047886692
227	0x3d60e972	0.05491013
228	0x3d805c11	0.0626756
229	0x3d63533c	0.0554993
230	0xbd9ce2e6	-0.07660465
231	0x3d9df336	0.077124044
232	0x3da02c75	0.078209795
233	0xbd8a893e	-0.06764458
234	0xbd3f1e22	-0.046659596
235	0xbd3a52ac	-0.045489
236	0x3d8f5c22	0.06999995
237	0x3d6a7238	0.057237834
238	0x3d8d98e0	0.06913924
239	0xbd4bf984	-0.049798504

bias f4 [80]
0	0x3e565927	0.20932446
1	0xbe81f774	-0.25384104
2	0xbdd2999e	-0.102832064
3	0xbea2c7be	-0.31793016
4	0xbdbb3097	-0.09140127
5	0xbec6b078	-0.3880651
6	0xbeb87f1f	-0.36034486
7	0x3e3bae21	0.18328144
8	0xbe247dcd	-0.16063614
9	0x3eaf689f	0.34259507
10	0xbe2c866f	-0.16848157
11	0xbeb981c8	-0.36231828
12	0xbd58536b	-0.05281393
13	0xbe878364	-0.2646743
14	0xbe1d3223	-0.15351157
15	0xbedb1cce	-0.42795414
16	0x3e9d19c2	0.30683714
17	0xbebd9961	-0.3703108
18	0x3e8eb064	0.2786895
19	0x3e75bd4f	0.23997997
20	0x3eca2040	0.3947773
21	0xbec91d2c	-0.3928007
22	0x3e681fc7	0.22668372
23	0xbe84b4cc	-0.25919187
24	0x3e4d83b4	0.20069772
25	0x3ebf3085	0.37341705
26	0xbd6e1b0d	-0.058131266
27	0x3bbe0ba4	0.0057997275
28	0xbdfd65fb	-0.12372967
29	0xbee9114a	-0.45521003
30	0x3e8a67e2	0.2703238
31	0xbf0648d3	-0.5245487
32	0x3eb22598	0.34794307
33	0x3ed57330	0.41689444
34	0x3f09e279	0.53861195
35	0xbdf498b4	-0.11943188
36	0xbee7ff44	-0.4531194
37	0x3e069e5d	0.13146348
38	0x3e9be6fc	0.30449665
39	0xbf05a2e6	-0.5220169
40	0xbdef8d96	-0.11696927
41	0xbea9ab46	-0.33138484
42	0xbd0b5cd9	-0.034024093
43	0xbe864316	-0.26223058
44	0xbe585fd0	-0.211303
45	0xbe27e4f9	-0.1639594
46	0xbf0738f5	-0.52821285
47	0x3ecdbe8e	0.40184444
48	0x3ee6a796	0.45049733
49	0xbd9f7101	-0.07785226
50	0xbd5f7961	-0.054559115
51	0xbe542273	-0.20716266
52	0xbe99e0f4	-0.30054438
53	0xbf0bcdfd	-0.5461119
54	0x3e4e0e1c	0.2012257
55	0xbe88824d	-0.26661912
56	0xbeafd03f	-0.34338567
57	0xbcdc1868	-0.026867107
58	0xbe2e742c	-0.17036504
59	0xbe34169c	-0.1758675
60	0x3cebee16	0.028800052
61	0xbde6489e	-0.112443194
62	0xbe40bc53	-0.1882184
63	0xbe6fd5c9	-0.23421396
64	0xbee6061e	-0.44926542
65	0x3ef147db	0.47125134
66	0xbe4690eb	-0.1939122
67	0x3e133252	0.14374664
68	0xbe393c81	-0.18089487
69	0x3d307432	0.043079562
70	0x3f040415	0.5156873
71	0x3e83faf2	0.25777394
72	0xbeebb901	-0.46039584
73	0x3e66570e	0.22494146
74	0x3f0930ad	0.535899
75	0x3e0cc14a	0.13745609
76	0x3eb19c47	0.34689543
77	0x3f0c6981	0.54848486
78	0xbd99aaf3	-0.07503309
79	0x3dd4b9cf	0.10387003

weight f4 [80, 80, 1]
0	0xbc7f3ced	-0.015578491
1	0x3c05890d	0.008150351
2	0xbcf3303a	-0.029686082
3	0x3c5a849f	0.013337283
4	0x3d1fd438	0.039020747
5	0xbc0643cd	-0.008194876
6	0x3ca6c910	0.020359546
7	0xbc4b2b30	-0.012400433
8	0xbbb7f3c1	-0.0056137745
9	0x3afda308	0.0019350955
10	0xba6e1f9a	-0.00090836885
11	0xbb6511ce	-0.003495324
12	0xbbb085d1	-0.005387046
13	0x3cbd1e34	0.023085691
14	0x3c21e65e	0.009881584
15	0x3ac9ce6a	0.0015396599
16	0xbd2ae758	-0.041724533
17	0x3b8ebaf4	0.0043557826
18	0x3c460f2e	0.01208858
19	0xbbf13e21	-0.0073621427
20	0xbc986fa9	-0.018607931
21	0x3cae025e	0.021241363
22	0xbc6a5495	-0.0143023925
23	0x3cff0b19	0.031133221
24	0xbb1e90f7	-0.0024195292
25	0xbbd14162	-0.006385968
26	0x3ccc0215	0.024903337
27	0xbd04fe07	-0.03246882
28	0x3d12fdb4	0.03588648
29	0x3bcf9f95	0.0063361623
30	0xbc8e662c	-0.017382704
31	0x3c8aef11	0.016959699
32	0xbc78c88c	-0.015184533
33	0xbc407844	-0.011747424
34	0xbca67b7f	-0.02032256
35	0x3cba1990	0.022717267
36	0x3bcc6bb3	0.0062384247
37	0xbb5c8d3b	-0.0033653516
38	0x3c0d167f	0.0086113205
39	0xba9ea7e8	-0.0012104483
40	0xbc4f5690	-0.012654915
41	0x3c7bc93e	0.015367804
42	0xbd916ebb	-0.07101198
43	0x3cb97e2b	0.02264317
44	0x3d1d56ac	0.038412735
45	0x3c987159	0.018608736
46	0x3d0e8aa1	0.034800176
47	0xbcea1106	-0.02857257
48	0xbacfbe9e	-0.0015849655
49	0xbd2b3a52	-0.041803665
50	0xbd631044	-0.055435434
51	0xbad68579	-0.0016366682
52	0x3ba90ab8	0.0051587485
53	0xba00337f	-0.0004890486
54	0xbc259367	-0.010105944
55	0x3cd9cb7b	0.026586285
56	0x3c8a7418	0.016901061
57	0x3d6ffc8d	0.05859046
58	0xbc369987	-0.011145002
59	0x3c388a4b	0.01126344
60	0x3bfb9ffc	0.0076789837
61	0x3c74e384	0.014946822
62	0x3b2356d7	0.0024923587
63	0x3c120538	0.008912377
64	0x3cfc5714	0.03080324
65	0xbcd6cda0	-0.026221097
66	0x3c09714b	0.008388828
67	0x3a6ee9d7	0.00091138243
68	0x3c68b769	0.014203885
69	0xbd2bda5f	-0.0419563
70	0xbb070a79	-0.0020605607
71	0xbbef5895	-0.007304261
72	0x3c871e0d	0.016493822
73	0x3aba8c87	0.0014232554
74	0xba559e68	-0.00081489095
75	0xbc326a06	-0.010889536
76	0xbb343583	-0.0027497716
77	0xbc306fb0	-0.010768816
78	0xbd87b8c3	-0.066270374
79	0xbc5c8282	-0.01345885
80	0xbd1fa80d	-0.038978625
81	0x3d37634d	0.044772435
82	0x3d71103a	0.058853365
83	0x3ce3e73d	0.027820224
84	0xbc54d5f8	-0.012990467
85	0x3c9b8127	0.018982483
86	0x3c3aee64	0.011409376
87	0xbd233ba5	-0.039851803
88	0x3d870c17	0.06594103
89	0xbd07c8db	-0.033150535
90	0x3ca658bb	0.020305982
91	0x3b6c9c78	0.0036104005
92	0x3bba716f	0.005689792
93	0x3d060099	0.032715414
94	0x3cd882a3	0.02642948
95	0x3cc950f2	0.02457473
96	0xbc3c0b9c	-0.011477377
97	0x3cb13914	0.021633662
98	0xbd076628	-0.03305641
99	0xbcbb7ef1	-0.022887679
100	0xbc7c7c2a	-0.015410462
101	0x3c359258	0.011082254
102	0xbd13892f	-0.0360195
103	0xbc96a908	-0.018391147
104	0xbc8ec081	-0.017425777
105	0xbd06eaee	-0.03293889
106	0xbc0540b3	-0.008133101
107	0x3d1c2954	0.03812535
108	0x3a664911	0.00087846915
109	0x3cdfe4d3	0.027330792
110	0xbd0dd7c2	-0.03462959
111	0x3cddd822	0.0270806
112	0xbd114679	-0.0354676
113	0xbce6aba0	-0.028158009
114	0xbca89efc	-0.020583622
115	0xbc918ee7	-0.017768336
116	0x3cef69c0	0.02922523
117	0xbc8e11f6	-0.017342549
118	0xbca56354	-0.020188965
119	0x3c535bcb	0.012900303
120	0x3d70be36	0.05877515
121	0x3d20f205	0.039293308
122	0x3d849798	0.06474227
123	0x3d1f2bd6	0.038860165
124	0xbcd5d022	-0.026100222
125	0xbae65b2b	-0.0017574778
126	0x3ce855c7	0.028361214
127	0xbcbf12a1	-0.023324313
128	0xbb8fb17c	-0.0043851715
129	0x3dbbfadb	0.09178706
130	0x3d9a24f5	0.0752658
131	0x3ccb9bde	0.024854597
132	0x3cb7c13c	0.022431009
133	0x3d0f0822	0.034919865
134	0xbcdb6e00	-0.02678585
135	0x3c15833d	0.009125528
136	0x3cca0315	0.024659673
137	0xbd8467bf	-0.064651005
138	0x3d27785d	0.04088627
139	0x3b8f40f4	0.0043717567
140	0xbd2b7385	-0.041858215
141	0xbcb9bdd3	-0.022673523
142	0x3cfeb79f	0.031093417
143	0x3cd22806	0.02565385
144	0x3c76953a	0.015050227
145	0xbcd5f5c0	-0.02611816
146	0x3c4d5857	0.012533269
147	0xbd310514	-0.043217734
148	0x3c01c6db	0.007920946
149	0x3d07aa0a	0.033121146
150	0xbcc2986e	-0.023754325
151	0xbd3505b7	-0.044194903
152	0x3cd53ec9	0.026030915
153	0xbd263da9	-0.040586147
154	0xbd041396	-0.03224524
155	0xba50ca39	-0.0007964704
156	0xbc6e124d	-0.01453073
157	0xbcb57a17	-0.022152944
158	0x3d7d7e76	0.06188818
159	0xbd21dd44	-0.039517656
160	0x3c349a7f	0.011023163
161	0x3a43b103	0.00074650365
162	0x3d0da23e	0.034578554
163	0x3b87f181	0.0041486626
164	0xbd0c3cad	-0.034237552
165	0x3c2736d6	0.010205945
166	0x3c13f36a	0.009030202
167	0x3c00c2a2	0.007858904
168	0x3cc41f46	0.023940694
169	0x3c487873	0.012235749
170	0xbbba0706	-0.005677107
171	0xbaf633f6	-0.0018783796
172	0xbbb9f31e	-0.005674734
173	0xbc99b566	-0.018763255
174	0x3c0f77bd	0.008756575
175	0xbc879f9f	-0.016555605
176	0x3c8b3683	0.016993767
177	0xbb7f7383	-0.0038978762
178	0xbc12ce13	-0.008960265
179	0x3ce1f5f6	0.027583104
180	0xbc6fd2b1	-0.014637635
181	0x3b9687d2	0.0045938278
182	0x3b307b1d	0.002692885
183	0xbba3d5ef	-0.004999868
184	0x3b03bbcc	0.002010095
185	0xbb91b276	-0.004446323
186	0xbd4027e1	-0.04691303
187	0x3cfff4d2	0.03124467
188	0xbd17fc2d	-0.037105728
189	0xbcc8e7c6	-0.02452458
190	0x3b01871f	0.0019764376
191	0x38a8480b	8.024283e-05
192	0x3b0234dc	0.0019867932
193	0xbbedf047	-0.0072613093
194	0x3b462e19	0.0030239879
195	0xbcdb0b37	-0.026738746
196	0xbb98328d	-0.004644698
197	0xbb9b4d9b	-0.004739476
198	0xbca3f79d	-0.020015532
199	0xbae9c663	-0.0017835613
200	0x3cd5d6cd	0.026103402
201	0xbb3beaeb	-0.0028673958
202	0x3d2ad9ca	0.041711606
203	0x3c9097e0	0.017650545
204	0xbc99da0c	-0.01878073
205	0xbc5b6cd8	-0.01339265
206	0xbce85050	-0.028358608
207	0x3becd70b	0.0072277836
208	0x3af2b052	0.0018515682
209	0x3d698511	0.057011668
210	0x3d967eb9	0.07348389
211	0xbaac158a	-0.0013128978
212	0x3c2520ea	0.010078648
213	0x3b391421	0.0028240758
214	0x3bcbcf27	0.006219763
215	0xbc12aa48	-0.008951731
216	0xbb09e310	-0.002103988
217	0xbe05ad93	-0.13054495
218	0x3babdd95	0.0052449205
219	0xbccc1819	-0.024913834
220	0xbccb39d3	-0.024807846
221	0xbce76830	-0.028247923
222	0x3ca3f9d7	0.020016594
223	0x3c0df2b5	0.008663823
224	0xbbf9c2de	-0.007622107
225	0x3c6b043c	0.014344271
226	0xbbe8b5a9	-0.0071017337
227	0xbc07576b	-0.008260588
228	0xbc402a08	-0.011728771
229	0x3d39ea30	0.045389354
230	0xbbe5d0db	-0.007013423
231	0xbabd20bc	-0.0014429311
232	0x3ae9a2fe	0.0017825065
233	0x3c08ce2c	0.008349936
234	0x3bcf5c00	0.006328106
235	0x3c7e7cbd	0.01553267
236	0x3c494ef7	0.012286893
237	0x3ca70523	0.020388192
238	0x3d8faa6a	0.07014926
239	0xbb1d0867	-0.0023961307
240	0xbc6031dc	-0.013683762
241	0x3b5b554b	0.0033467587
242	0x3ce5e801	0.02806473
243	0xbbc83a89	-0.0061104936
244	0xbd236d7c	-0.039899334
245	0xbc9b2993	-0.018940723
246	0x3c13f4b8	0.009030513
247	0x3c1026f6	0.0087983515
248	0x3c2d028c	0.010559689
249	0x3c93d0d3	0.018043911
250	0x3b5b3611	0.0033448974
251	0xbbe54ca4	-0.0069976617
252	0x3b2d0729	0.0026401973
253	0xbb37e7e5	-0.0028061804
254	0xbb910009	-0.004425053
255	0xbc2307e9	-0.009950616

bias f4 [80]
0	0x3d796939	0.060891364
1	0xbd2f8938	-0.04285547
2	0x3d0ef783	0.034904014
3	0x3d24ec00	0.04026413
4	0xbd9fe928	-0.07808143
5	0xbb1044fc	-0.0022013774
6	0xbc2b524a	-0.010456631
7	0xbdc21eb3	-0.09478512
8	0xbda20c7f	-0.0791254
9	0x3c816623	0.015795773
10	0x3d9c5f47	0.0763536
11	0x3c7f908c	0.0155984275
12	0xbda3b367	-0.07993203
13	0xbd0f8502	-0.035038956
14	0x3dead08f	0.11465561
15	0xbc9bbf09	-0.019011991
16	0x3d81cead	0.063382484
17	0x3c55181f	0.013006239
18	0x3d8db8ef	0.06920039
19	0xbd3fb0c3	-0.046799432
20	0x3dd57761	0.1042316
21	0x3bbb74c0	0.005720705
22	0xbcd30ee7	-0.025763942
23	0x3ddfb039	0.10922284
24	0x3d6a13af	0.057147678
25	0xbd8623d5	-0.06549803
26	0xbc6bf51a	-0.0144016985
27	0x3dac9be7	0.084281735
28	0x3cfdc58f	0.030977992
29	0xbcbdae72	-0.023154471
30	0xbd8fe6b2	-0.070264235
31	0xbda64b5a	-0.08119841
32	0x3d3c8213	0.046022486
33	0x3d15f02b	0.036605995
34	0xbdf704d4	-0.12061468
35	0xbccaa1a5	-0.024735281
36	0x3ca2a21c	0.01985269
37	0xbdc5f27a	-0.09665389
38	0x3ddacc58	0.10683507
39	0xbc9e66cc	-0.019336127
40	0xbd98ff4c	-0.07470569
41	0x3abf8d80	0.0014614314
42	0x3d44b744	0.04802634
43	0xbc12bd92	-0.00895633
44	0x3dc63546	0.0967813
45	0x3cf9bb84	0.030484922
46	0xbccbefc5	-0.024894604
47	0x3c32b518	0.010907434
48	0x3caaab94	0.020833768
49	0xbd3fbfbc	-0.04681371
50	0xbdd830b7	-0.105561666
51	0xbc5518c6	-0.013006395
52	0xbcea3201	-0.028588297
53	0xbdaf6cfc	-0.08565709
54	0x3d64a643	0.055822622
55	0xbd0e8ee7	-0.03480425
56	0x3dda5fbd	0.10662792
57	0xbc2b5c1d	-0.010458973
58	0x3d441059	0.047867153
59	0x3d4ef796	0.050529085
60	0x3cb0adc4	0.021567233
61	0x3d2bf19a	0.041978456
62	0x3db73c89	0.08947093
63	0xbc27080b	-0.010194789
64	0xbd1adce8	-0.03780833
65	0xbaa4e2e2	-0.0012579823
66	0xbd2d4ca8	-0.042309433
67	0xbc5d149b	-0.013493682
68	0x3c6d862c	0.014497321
69	0x3cd44ece	0.025916483
70	0xbde85f8e	-0.113463506
71	0x3c7cb3a0	0.015423685
72	0xbbb8cbcf	-0.0056395303
73	0xbda3a07d	-0.07989595
74	0xbe23bee3	-0.15990786
75	0xba34c997	-0.00068964943
76	0x3d960621	0.07325388
77	0xbdbc6844	-0.091995746
78	0x3cb02c29	0.021505432
79	0x3d88febe	0.06689213

weight f4 [80, 3, 1]
0	0x3d87d636	0.06632654
1	0x3d976524	0.07392338
2	0xbdcb52f2	-0.0992793
3	0xbd950e9c	-0.07278177
4	0xbd789172	-0.060685582
5	0x3da762ea	0.08173163
6	0xbdaaf6b6	-0.083478376
7	0xbdbb9f12	-0.091612
8	0x3dbbf7a7	0.09178095
9	0xbda054fd	-0.0782871
10	0xbdad3f9f	-0.084594004
11	0x3db58d7e	0.08864878
12	0xbd7e40f2	-0.062073655
13	0xbd4b6752	-0.04965908
14	0x3d6fd033	0.058548164
15	0xbdae6977	-0.085162096
16	0xbd8ced6a	-0.06881221
17	0x3daef6dd	0.08543179
18	0x3da6dde9	0.08147795
19	0x3d6ed9d8	0.05831322
20	0xbd8f5b1e	-0.06999801
21	0x3d6724ab	0.056431454
22	0x3d21d757	0.039512005
23	0xbd85b920	-0.065294504
24	0xbc0b8f6e	-0.008518083
25	0xbc802f43	-0.015647536
26	0x3cbf0ab4	0.023320533
27	0xbd85c6ef	-0.06532084
28	0xbd9d1dc4	-0.07671693
29	0x3d5d8c1f	0.054088708
30	0x3d9dcc11	0.07704938
31	0x3d8abb5a	0.06774016
32	0xbd975098	-0.07388419
33	0x3d90e66b	0.07075199
34	0x3dad6d7d	0.08468149
35	0xbd8fbdae	-0.070186004
36	0x3d24a4b4	0.040196136
37	0x3d6794c6	0.056538366
38	0xbd7ec30a	-0.062197722
39	0xbda242f8	-0.079229295
40	0xbda9bbf1	-0.082878
41	0x3dc3c634	0.095592886
42	0x3dbbe570	0.09174621
43	0x3d8d0efb	0.06887623
44	0xbdd663a7	-0.10468226
45	0xbda7d48f	-0.08194839
46	0xbdd1581d	-0.102218844
47	0x3dc21bac	0.09477934
48	0xbd508231	-0.05090541
49	0xbd922648	-0.07136208
50	0x3d6570fb	0.05601595
51	0xbd8f9097	-0.0701
52	0xbd8f1e1d	-0.069881655
53	0x3da0abd0	0.07845271
54	0x3d8d8cab	0.06911596
55	0x3d94a0ea	0.072572544
56	0xbda28213	-0.07934966
57	0xbdac96ce	-0.08427201
58	0xbda38aa9	-0.07985432
59	0x3db787be	0.08961438
60	0xbd97a3f7	-0.07404321
61	0xbd977339	-0.07395024
62	0x3db10390	0.086432576
63	0x3d9c0e45	0.07619909
64	0x3da9fa39	0.08299679
65	0xbda4758e	-0.08030234
66	0xbd8d4425	-0.06897763
67	0xbd84d255	-0.0648543
68	0x3d790fe6	0.060806178
69	0xbd86ca26	-0.065815255
70	0xbd696b34	-0.056987002
71	0x3d7544ec	0.059880182
72	0x3d9fb4ab	0.077981316
73	0x3d9384b3	0.07203045
74	0xbd91673f	-0.07099771
75	0x3d9524dd	0.07282422
76	0x3d843106	0.06454663
77	0xbd93118c	-0.07181081
78	0x3d854fa9	0.065093346
79	0x3d6291a6	0.055314682
80	0xbd98d868	-0.07463151
81	0xbd92137d	-0.07132623
82	0xbd4f78ba	-0.050652243
83	0x3d93c5e2	0.072154775
84	0x3da10345	0.07861952
85	0x3d994181	0.07483197
86	0xbd88266b	-0.06647953
87	0x3d9ff27e	0.078099236
88	0x3d6e04a5	0.058109898
89	0xbdae0912	-0.08497824
90	0xbd656e1c	-0.05601321
91	0xbd7e5225	-0.062090058
92	0x3db0415e	0.08606218
93	0x3d760150	0.060059845
94	0x3db0ac62	0.086266294
95	0xbd861c4f	-0.06548368
96	0xbd7cdfa2	-0.06173671
97	0xbd68fc83	-0.05688144
98	0x3d8b3239	0.067966886
99	0xbda24b32	-0.079244986
100	0xbd91feb7	-0.07128661
101	0x3db379d1	0.08763469
102	0xbd920dc3	-0.07131531
103	0xbd8ad691	-0.067792065
104	0x3d975228	0.07388717
105	0x3d5df7a4	0.054191247
106	0x3d81e4e9	0.06342489
107	0xbdb54ab3	-0.08852138
108	0x3d874616	0.06605165
109	0x3d8ed76c	0.06974682
110	0xbdb9665c	-0.090527266
111	0xbdaae03a	-0.08343549
112	0xbd648b88	-0.05579713
113	0x3d97cddb	0.07412311
114	0xbd92d0a8	-0.07168704
115	0xbdba2988	-0.09089953
116	0x3dae4d29	0.08510811
117	0x3d9ba69a	0.07600136
118	0x3d99f5f2	0.075176135
119	0xbdaaea7d	-0.08345506
120	0x3db0c101	0.086305626
121	0x3d94d4f2	0.072671786
122	0xbdc7ffc3	-0.097655796
123	0x3d284a5d	0.041086543
124	0x3d8f982e	0.07011448
125	0xbd46af23	-0.048506867
126	0xbd8bed5f	-0.06832384
127	0xbd8cf27f	-0.0688219
128	0x3dcd2912	0.10017599
129	0x3db56b0c	0.08858308
130	0x3dba1d96	0.09087674
131	0xbddd78e4	-0.10814074
132	0x3d767580	0.06017065
133	0x3d884ac4	0.066548854
134	0xbd9abde2	-0.075557485
135	0x3d9ae9dc	0.075641364
136	0x3dbe5d32	0.09295119
137	0xbdd46c27	-0.10372191
138	0x3d99c87b	0.07508942
139	0x3d9bd0d8	0.07608193
140	0xbdc28985	-0.09498886
141	0xbd73501f	-0.05940258
142	0xbd634446	-0.055485032
143	0x3d909052	0.07058777
144	0xbda2bc68	-0.07946092
145	0xbd55c940	-0.05219388
146	0x3d813249	0.06308419
147	0x3dbbc9cc	0.09169349
148	0x3da32830	0.079666495
149	0xbd9098fb	-0.07060429
150	0x3d874dfa	0.0660667
151	0x3d7df4b8	0.06200096
152	0xbd8b29ab	-0.06795057
153	0x3d74c107	0.059754398
154	0x3da1d708	0.07902342
155	0xbda55a22	-0.08073832
156	0x3d4d1f91	0.050078932
157	0x3d70b68e	0.058767848
158	0xbd91d5e7	-0.07120877
159	0xbd56af12	-0.052413054
160	0xbd4a8f9d	-0.049453367
161	0x3d9a2672	0.07526864
162	0xbd9c986f	-0.07646262
163	0xbd78a8c3	-0.06070782
164	0x3d970732	0.07374419
165	0x3d94e01a	0.072693065
166	0x3d4fc8ee	0.05072873
167	0xbd8afc6d	-0.06786428
168	0x3d938cf3	0.07204618
169	0x3d8461f3	0.06463995
170	0xbd8a5779	-0.06754965
171	0x3df784a0	0.12085843
172	0x3ded9eb4	0.11602536
173	0xbdf3f49d	-0.11911891
174	0xbda6a714	-0.081373364
175	0xbdb3d88b	-0.08781537
176	0x3d96cffb	0.07363888
177	0x3d0f781b	0.03502665
178	0x3d25b6ce	0.04045754
179	0xbd71d736	-0.05904313
180	0x3db32f27	0.08749228
181	0x3d8f437d	0.06995294
182	0xbd9935a1	-0.07480932
183	0x3dd25f0d	0.10272036
184	0x3dbfc627	0.093639664
185	0xbdd33469	-0.10312731
186	0xbdb68aab	-0.089131676
187	0xbd9d91b0	-0.07693803
188	0x3d96e0bf	0.07367086
189	0xbdb99772	-0.09062089
190	0xbda66551	-0.08124793
191	0x3d9f1f0c	0.077695936
192	0x3d840727	0.06446677
193	0x3d8292b7	0.0637564
194	0xbdb8bc54	-0.09020296
195	0x3d90503a	0.07046552
196	0x3d9b5d1e	0.0758612
197	0xbdc2e453	-0.09516206
198	0x3d90967d	0.07059953
199	0x3d7f291f	0.062295076
200	0xbdb73b52	-0.08946861
201	0x3d9882ce	0.07446824
202	0x3dafaf90	0.08578408
203	0xbdaeb96c	-0.0853146
204	0x3db7454a	0.08948763
205	0x3dc896d2	0.09794392
206	0xbde0ca79	-0.109761186
207	0xbd653835	-0.055961806
208	0xbd639586	-0.05556252
209	0x3d0fd1b2	0.03511209
210	0x3d981d39	0.07427449
211	0x3d783eec	0.060606882
212	0xbdaf47c1	-0.08558608
213	0x3d937b11	0.072012074
214	0x3d90eeda	0.07076807
215	0xbdb1ea16	-0.086872265
216	0x3cd21710	0.025645763
217	0x3c3dd1e3	0.011585685
218	0xbc8715c3	-0.016489869
219	0x3d76b65d	0.06023251
220	0x3da6db9a	0.081473544
221	0xbd926bbb	-0.07149454
222	0x3d2f9114	0.042862967
223	0x3d8076c1	0.062726505
224	0xbd316f19	-0.04331884
225	0xbdb33acb	-0.08751448
226	0xbda7239a	-0.08161087
227	0x3d9f4fdb	0.07778903
228	0x3d349cac	0.044094726
229	0x3d6f4bdd	0.05842196
230	0xbd5e9209	-0.05433849
231	0xbdb7dc67	-0.08977585
232	0xbdb1038e	-0.08643256
233	0x3d97a7ae	0.07405029
234	0x3d9507a3	0.07276847
235	0x3d34a54c	0.044102952
236	0xbd8d1f7b	-0.0689077
237	0x3dc35178	0.09537023
238	0x3dbd225a	0.09235068
239	0xbdbe37d8	-0.09287995

bias f4 [80]
0	0x3e7370d3	0.23773508
1	0x3db2d6dd	0.08732388
2	0xbeee7a1a	-0.4657753
3	0xbed122ce	-0.40846866
4	0x3e89c889	0.2691081
5	0xbe9185fe	-0.2842254
6	0x3ebeec28	0.37289548
7	0xbec62d64	-0.38706505
8	0x3ec118cf	0.3771424
9	0xbe9589a3	-0.2920657
10	0x3e5fbbd0	0.21848989
11	0x3e2a1f80	0.16613579
12	0xbedb925d	-0.42885104
13	0xbe99dab1	-0.3004966
14	0xbe0b56f1	-0.13607384
15	0xbb964afa	-0.0045865746
16	0x3e86af63	0.26305684
17	0xbe72f9fe	-0.23728177
18	0x3da67025	0.081268586
19	0xbe9dc40a	-0.30813628
20	0xbe8e2864	-0.2776519
21	0x3eb8b8a7	0.3607838
22	0xbe235f62	-0.15954354
23	0xbef71c6e	-0.48263878
24	0x3cd29760	0.025706947
25	0xbd9df840	-0.077133656
26	0x3e251e24	0.16124779
27	0xbe945782	-0.28973013
28	0x3cde7212	0.027154002
29	0xbe8c10b0	-0.27356482
30	0xbeaff655	-0.34367624
31	0x3e064b74	0.1311472
32	0x3e22a785	0.15884216
33	0x3dbfabec	0.09358963
34	0x3f02e0cf	0.5112428
35	0x3d6c0c44	0.057628885
36	0x3d31bb35	0.043391425
37	0xbd95af14	-0.07308784
38	0xbf0c362d	-0.54770166
39	0x3e6323d1	0.22181632
40	0x3ed7ff4e	0.4218697
41	0x3d46960a	0.048482932
42	0xbee3707b	-0.44421753
43	0x3ef85f75	0.48510328
44	0x3df72604	0.12067798
45	0x3ec4bafb	0.38423905
46	0x3e72350b	0.23653047
47	0x3da02f85	0.07821564
48	0xbe2f4a92	-0.1711829
49	0x3df88a73	0.12135782
50	0x3e340619	0.17580451
51	0xbd040cc2	-0.03223873
52	0xbeb64a78	-0.3560369
53	0xbe91621f	-0.28395173
54	0xbf03626e	-0.51322067
55	0xbe5c7407	-0.21528636
56	0xbdc08511	-0.094003804
57	0x3ed6d5af	0.41959903
58	0xbe9d997a	-0.30781156
59	0xbf0cd82b	-0.55017346
60	0x3e979a14	0.2960974
61	0x3eeec5cb	0.4663528
62	0xbee2ce93	-0.4429823
63	0xbc30535c	-0.010762062
64	0x3e37c622	0.17946675
65	0x3eae4146	0.34034175
66	0xbdc45f9f	-0.09588551
67	0x3e832229	0.25612
68	0x3eda31b9	0.4261606
69	0x3e9ea2f1	0.3098369
70	0x3e8d6af5	0.27620664
71	0x3ea5b881	0.32367328
72	0xbef590e6	-0.4796211
73	0x3dfe1acc	0.12407455
74	0x3ea9fa1e	0.33198637
75	0xbee319e6	-0.44355696
76	0xbef9d1d3	-0.48792896
77	0xbeed8c6e	-0.46396202
78	0x3e2f0103	0.1709023
79	0x3f00e909	0.50355583

weight f4 [80, 80, 2]
0	0xbce29b58	-0.027661964
1	0xbd127ebb	-0.03576539
2	0x3b21fe83	0.0024718351
3	0x3ca6badf	0.020352779
4	0x3bd2826f	0.0064242403
5	0x3ceba503	0.028765207
6	0x3b991a6e	0.00467234
7	0x3d0e061b	0.03467379
8	0xba31db8f	-0.0006784731
9	0x3c542e3e	0.012950478
10	0x3b0f2fd5	0.0021848578
11	0x3d036598	0.03207931
12	0xbc1c048f	-0.009522571
13	0xbc921963	-0.017834371
14	0x3b4d20a9	0.0031299985
15	0x3c011f2a	0.007880965
16	0xbb9a1032	-0.0047016377
17	0x3c5f2a2c	0.013620894
18	0x3ca63c5d	0.020292455
19	0x3c9c57fe	0.019084927
20	0xbcf7c1c8	-0.03024377
21	0xbce214a0	-0.027597725
22	0xbd503958	-0.050835937
23	0xbdbb4ac3	-0.09145119
24	0xbc1cf273	-0.009579289
25	0x398b2f50	0.00026547397
26	0x3d068283	0.03283931
27	0x3cf82da1	0.030295195
28	0xbd26b0a7	-0.040695813
29	0xbd696fbd	-0.056991328
30	0x3d049f3b	0.032378417
31	0x3d5a0109	0.053223643
32	0xbb5d14d0	-0.003373433
33	0xbc86c0ff	-0.01644945
34	0x3c89ba8a	0.016812582
35	0x3d74fb87	0.059810188
36	0xbd77adb7	-0.0604684
37	0xbd20ba37	-0.03924009
38	0x3c8d345b	0.01723688
39	0x3ccb4d5a	0.024817158
40	0x3ceef69d	0.029170329
41	0x3d7b95df	0.061422225
42	0x3c2e1bc0	0.010626733
43	0xbbf9c628	-0.007622499
44	0x3d11ec91	0.035625998
45	0x3d60cc22	0.054882176
46	0xbb8b1579	-0.004244503
47	0xbbc901ed	-0.006134263
48	0xbd35e35b	-0.044406276
49	0xbd926f72	-0.07150163
50	0xbb80f872	-0.003935867
51	0xbcb27539	-0.021784412
52	0xbcc5541e	-0.024087962
53	0xbd710987	-0.058846977
54	0x3cbbf230	0.022942632
55	0x3d270d82	0.040784366
56	0xbd6685bb	-0.05627988
57	0xbd60150a	-0.054707564
58	0xbc614091	-0.013748304
59	0xb9e43785	-0.00043528914
60	0x3be701a6	0.007049757
61	0x3cd9afca	0.02657308
62	0xbd8556de	-0.06510709
63	0xbd8ebe08	-0.06969839
64	0xbbe002c5	-0.0068362677
65	0x3c7a1ea7	0.015266097
66	0x3cda9595	0.026682654
67	0x3c7e8814	0.015535373
68	0x3ca7a050	0.020462185
69	0xbb12fea1	-0.0022429603
70	0xbcff2967	-0.031147672
71	0xbd66992b	-0.056298416
72	0xbd62cbde	-0.055370204
73	0xbd3ba887	-0.045815017
74	0x3d701aad	0.05861919
75	0x3db4c809	0.08827216
76	0x3cb6dcce	0.022322085
77	0x3c7ab56e	0.015302045
78	0xbcf337e1	-0.029689731
79	0xbd68a2fa	-0.05679605
80	0xbaf445dc	-0.0018636542
81	0xbca1e572	-0.019762728
82	0xbcd669d6	-0.026173513
83	0xbd64bc71	-0.055843774
84	0x3c98d4c9	0.018656151
85	0x3c3d4763	0.011552664
86	0x3b581989	0.0032974205
87	0xbb663fc1	-0.0035133215
88	0x39e6da95	0.00044031875
89	0xbd0d4312	-0.03448779
90	0xbcb597a0	-0.022167027
91	0xbc435d70	-0.011924133
92	0xbcf92886	-0.03041483
93	0xbd57cdd6	-0.052686535
94	0x3cac2959	0.02101581
95	0x3c30627b	0.010765667
96	0x3d0e7f49	0.034789357
97	0x3d23231f	0.039828416
98	0xbd93f130	-0.07223737
99	0xbdaf4fb7	-0.08560126
100	0xbc972f0e	-0.018455055
101	0xbd7ea5b7	-0.062169757
102	0xbc9e8120	-0.019348681
103	0xbd131dc2	-0.03591705
104	0x3bf07af1	0.0073388745
105	0xbc027d0b	-0.007964383
106	0xbb947a85	-0.004531207
107	0x3c199ee2	0.0093762595
108	0x3cb0752c	0.021540247
109	0x3b1674cb	0.0022957798
110	0xbbff5b7d	-0.0077928887
111	0xbcbb3c0c	-0.022855781
112	0xbd49183c	-0.049095377
113	0xbd580363	-0.052737605
114	0xbcafb50b	-0.021448633
115	0xbcb54854	-0.022129215
116	0x3b69cdd0	0.0035675652
117	0x3d4f75e2	0.05064953
118	0xbc327dd6	-0.010894259
119	0x3bbeb4f2	0.00581991
120	0xbc89130e	-0.016732719
121	0xbc95013f	-0.01818907
122	0x3c103949	0.00880272
123	0xbd13e085	-0.03610279
124	0x3caeabbd	0.021322126
125	0x3c06b51e	0.008221893
126	0x3cd465f5	0.025927523
127	0x3d314a59	0.043283794
128	0xbd348018	-0.044067472
129	0xbd687636	-0.05675336
130	0xbc98c88e	-0.01865032
131	0xbcfeb532	-0.03109226
132	0xbcb610dc	-0.022224836
133	0xbc98e4ff	-0.018663881
134	0xbbecc747	-0.007225904
135	0xbd08136a	-0.03322164
136	0xbbd9aedb	-0.006643159
137	0xbca61744	-0.020274766
138	0xbbeabc37	-0.0071635502
139	0xbc921c6a	-0.017835815
140	0xbce97151	-0.028496416
141	0xbd237441	-0.03990579
142	0xbc9e249d	-0.019304568
143	0xbcc44e38	-0.023963079
144	0x3bca8f76	0.0061816527
145	0x3c5d4aeb	0.013506631
146	0xbda2ff0c	-0.079588026
147	0xbd942540	-0.072336674
148	0x3c653851	0.013990478
149	0xbbd4431c	-0.0064777266
150	0x3bbb7c6c	0.0057216194
151	0x3bbf5d59	0.0058399853
152	0xbc4a4d7a	-0.012347573
153	0xbbe665f8	-0.0070311986
154	0x3bee9c30	0.0072818026
155	0x3c40af1a	0.0117604975
156	0xbc778279	-0.015106791
157	0xbcc994df	-0.02460712
158	0xbc29c5a1	-0.01036206
159	0xbc04a7fc	-0.008096691
160	0x3ca275b6	0.01983152
161	0xbc795bd9	-0.015219652
162	0xbc934779	-0.017978417
163	0xbd9d2a52	-0.076740876
164	0x3be24da8	0.00690623
165	0xbc9ed32e	-0.019387808
166	0x3b39485e	0.0028271894
167	0x3c5db5f8	0.013532154
168	0xbcb6ec56	-0.02232949
169	0xbcd686ff	-0.026187418
170	0x39f817ae	0.0004731989
171	0xba277d51	-0.0006389218
172	0x3b6f8c31	0.0036552066
173	0xbc8fa1bd	-0.017533178
174	0x3c082ab6	0.008310964
175	0x3baade60	0.0052144974
176	0x3a6f9501	0.000913933
177	0xbbba035c	-0.00567667
178	0xbc0b2b24	-0.008494172
179	0xb9df2c4a	-0.00042566872
180	0xbb3e4e23	-0.0029038272
181	0x3c9bc687	0.019015564
182	0xb9c82996	-0.00038177957
183	0x3c0b7ed6	0.008514127
184	0xbb9c7bc3	-0.0047754957
185	0xbb6eb608	-0.0036424417
186	0xbc071b24	-0.008246217
187	0x3ae6a5f4	0.0017597065
188	0x3d3a4490	0.045475543
189	0x3d978d41	0.07399989
190	0xbdc05d7f	-0.09392833
191	0xbde3ddeb	-0.11126312
192	0xbc3ebd14	-0.011641759
193	0xbcce7454	-0.025201954
194	0xbc1801d1	-0.009277777
195	0x3c35a07d	0.011085627
196	0xbb1db21e	-0.0024062465
197	0x3b470804	0.0030369768
198	0xbc089a32	-0.008337544
199	0x3981f264	0.00024785392
200	0xbc3fb735	-0.011701395
201	0xbcefb693	-0.029261863
202	0xbab9b634	-0.0014168681
203	0x3c0b213e	0.008491812
204	0xbc13f6bd	-0.009030995
205	0xbcf70cd1	-0.030157479
206	0x3a00b810	0.000491024
207	0x3c2bc403	0.010483745
208	0xbc9acd45	-0.018896708
209	0x3c9ca5f8	0.019122109
210	0x3cb754c0	0.02237928
211	0x3d9ddf46	0.07708602
212	0x3c03ac04	0.008036617
213	0x3c58faa7	0.013243354
214	0xbbf9b8bf	-0.0076209004
215	0x3b598a7a	0.003319411
216	0xbc201040	-0.009769499
217	0x3c80227f	0.015641449
218	0x3c23e9db	0.010004486
219	0x3cddbbb9	0.027067052
220	0xbbeb6902	-0.0071841488
221	0xbcd97201	-0.02654362
222	0x3c3be497	0.011468074
223	0x3cb10f6a	0.021613795
224	0x3b82e271	0.003994279
225	0xbd2f4cd4	-0.04279788
226	0xbcbbb54b	-0.022913596
227	0xbca47859	-0.020076917
228	0xbcdb83ae	-0.026796188
229	0x3a9ff4ee	0.0012203732
230	0x3cf19d5f	0.029493986
231	0x3d109ebf	0.035307642
232	0x3d7219d4	0.059106663
233	0x3d86bedc	0.06579372
234	0xbc8b4385	-0.01699997
235	0xbcef14b3	-0.029184675
236	0xbb72881f	-0.0037007404
237	0xbc5a6779	-0.013330334
238	0x3c8981be	0.016785499
239	0x3ced8084	0.028991945
240	0xbc4812ce	-0.012211515
241	0x3c88f8ae	0.016720142
242	0x3c8b10ea	0.016975839
243	0x3d0a0b3c	0.03370212
244	0x3c265007	0.010150916
245	0xbc1259f6	-0.008932581
246	0x3c81b276	0.015832167
247	0xbcbce33c	-0.023057573
248	0x3c5489ef	0.012972339
249	0xbb2edffd	-0.00266838
250	0x3befa49e	0.007313325
251	0xbbb6edc0	-0.005582541
252	0x3c867f0d	0.016418004
253	0x3ce6d2d8	0.02817671
254	0xbd19eb87	-0.037578132
255	0xbd449ac4	-0.04799916

bias f4 [80]
0	0x3d88ee94	0.0668613
1	0x3c62a8f3	0.013834226
2	0x3cc905de	0.02453893
3	0xbd787b46	-0.060664438
4	0x3aa674d1	0.0012699609
5	0x3d5fd6cd	0.05464821
6	0xbc5f196f	-0.013616904
7	0x3c281898	0.01025977
8	0xbd335604	-0.043783203
9	0x3d67f089	0.056625877
10	0xbd152393	-0.03641088
11	0x3cca12fc	0.024667256
12	0xbd66356a	-0.056203283
13	0x3bb3e286	0.00548965
14	0x3da0aa85	0.07845024
15	0xbd0efdf3	-0.034910154
16	0xbd5873b6	-0.052844726
17	0x3d2a0b83	0.041514885
18	0xbd8f1200	-0.06985855
19	0x3c451fbb	0.012031491
20	0xbd71d325	-0.059039254
21	0xbd48676a	-0.04892675
22	0xbd95c7e6	-0.07313518
23	0x3cc4d343	0.024026519
24	0x3bb0ef51	0.0053996225
25	0xbd5d3038	-0.054001063
26	0xbd92c9ef	-0.07167422
27	0x3c52ab3b	0.012858207
28	0x3d456b33	0.048197936
29	0xbcfdac5d	-0.030965978
30	0x3c732e54	0.014842588
31	0x3d83ef89	0.06442172
32	0x3d7297ef	0.059226926
33	0x3d57a090	0.05264336
34	0x3cd490a5	0.025947878
35	0x3d29070e	0.041266493
36	0xbd8e16d0	-0.06937945
37	0xbd8684f3	-0.06568327
38	0xbd4a9185	-0.049455184
39	0x3d881c43	0.066460155
40	0x3d95f1ef	0.07321536
41	0x3d9808f9	0.074235864
42	0xbcaa50b9	-0.020790445
43	0xbd915f34	-0.07098237
44	0xbd6f2152	-0.058381386
45	0x3d66be37	0.056333747
46	0x3cb83f6c	0.02249118
47	0x3d9087eb	0.07057174
48	0x3cd0a8ea	0.02547117
49	0xbcf2bcda	-0.029631067
50	0xbd97478a	-0.07386692
51	0xbcbbea14	-0.022938766
52	0x3d035319	0.03206167
53	0x3c08cae6	0.008349156
54	0xbd296c8c	-0.041363284
55	0xbad946fd	-0.0016576942
56	0xbd2ed4d2	-0.04268343
57	0x3c6f3437	0.014599851
58	0xbd6a56e0	-0.057211757
59	0xbc147780	-0.009061694
60	0x3c970fff	0.018440245
61	0xbd2dc774	-0.04242654
62	0xbcbebd80	-0.02328372
63	0xbd66ce76	-0.05634924
64	0xbad55428	-0.0016275691
65	0x3cbaeb3c	0.022817247
66	0xbd0ad519	-0.033894632
67	0x3d38050e	0.044926696
68	0xbd53e902	-0.051735885
69	0x3d673af9	0.056452725
70	0x3d00de8b	0.031462234
71	0xbccc8f9c	-0.024970822
72	0x3d1e01e7	0.038576033
73	0x3d67e947	0.056618955
74	0xbce3da48	-0.027814046
75	0x3c4e10ba	0.01257723
76	0x3d9e787d	0.07737825
77	0x3d7405ff	0.05957603
78	0x3b86104c	0.004091298
79	0x3d6059a3	0.054772984

weight f4 [80, 80, 2]
0	0x3b5bb8a5	0.0033526805
1	0x3b731d36	0.0037096268
2	0xbbd98195	-0.006637762
3	0xbcf74155	-0.03018252
4	0xbb6d3748	-0.003619628
5	0xbce57c03	-0.028013235
6	0x3b3fca38	0.002926482
7	0xbc2e14b8	-0.010625057
8	0x3b23ee48	0.0025013853
9	0x3bd115d0	0.006380774
10	0xbc94fc58	-0.018186733
11	0xbc6c3768	-0.014417507
12	0xbc8f325d	-0.01748007
13	0xbc0b20a6	-0.008491671
14	0x3c96981e	0.018383082
15	0xbcea2f94	-0.02858714
16	0xbcf32fbb	-0.029685846
17	0xbb88e14e	-0.004177249
18	0xbcf3e0e9	-0.029770331
19	0xba9ad57e	-0.0011812893
20	0xbc0bdde4	-0.00853679
21	0xbb598264	-0.003318929
22	0xbd14b3ca	-0.036304273
23	0x3cb0dc8d	0.021589542
24	0x3c91d606	0.01780225
25	0xbaa788d8	-0.0012781871
26	0xbc76c98e	-0.015062703
27	0x3a98349e	0.0011612361
28	0xbce4d5c3	-0.02793396
29	0xbcdd667d	-0.02702641
30	0xbd2b600e	-0.04183965
31	0x3bb503a6	0.0055241166
32	0xbc3043c9	-0.010758349
33	0x3c8345d5	0.01602451
34	0x3c1882f9	0.00930857
35	0xbc98e5a0	-0.018664181
36	0x3c61e85e	0.013788311
37	0xbd0990ea	-0.033585466
38	0xbc8e6005	-0.01737977
39	0x399dfe53	0.0003013486
40	0xbc84fdcb	-0.0162343
41	0xbcc49861	-0.023998441
42	0xbb1ec327	-0.0024225207
43	0xbd1921fc	-0.037385926
44	0xbcadbcd1	-0.021208199
45	0xbc2cc9e4	-0.010546181
46	0xbb92a147	-0.004474792
47	0xbd0a8279	-0.033815835
48	0xbc940313	-0.018067872
49	0xbc27a2b9	-0.010231667
50	0xbcc04f50	-0.02347532
51	0xbcd29e1e	-0.025710162
52	0x3cb05290	0.021523744
53	0x3a8fcd03	0.0010971132
54	0xbc48aa69	-0.01224766
55	0x3ba69fd2	0.00508497
56	0xbc91bfdc	-0.017791681
57	0xbccd05d3	-0.025027191
58	0xbcc2440f	-0.023714093
59	0xbc00265b	-0.007821645
60	0x3c844520	0.016146243
61	0x3b5d0055	0.0033722122
62	0x3b5eeac0	0.0034014434
63	0xbca0e0bc	-0.019638412
64	0xb90fe801	-0.00013723971
65	0xbc0ff45a	-0.008786285
66	0xbc85c653	-0.01632992
67	0xbc9283af	-0.017885057
68	0x3c4b9b47	0.012427158
69	0x3ccb6303	0.024827486
70	0xbce23fde	-0.027618345
71	0xbc983e55	-0.01858441
72	0xbce25f14	-0.027633227
73	0xbcbc0b53	-0.022954619
74	0x3b4b9441	0.0031063708
75	0xbc209cef	-0.009803041
76	0xbc1b78c6	-0.009489244
77	0xbd044806	-0.03229525
78	0xbc97b5ac	-0.018519245
79	0xbd16f713	-0.036856722
80	0xbcee1769	-0.029063897
81	0xbd219dd6	-0.039457165
82	0xbc46e412	-0.012139337
83	0xbd0782fa	-0.033083893
84	0xbc5b3f0c	-0.013381731
85	0xbc3a447a	-0.011368865
86	0xbd0a1e3a	-0.033720233
87	0xbc9022e5	-0.017594764
88	0x3c6b077f	0.014345049
89	0xbd12ed78	-0.035871
90	0xbc8e046f	-0.017336098
91	0xbc4c4cd3	-0.012469488
92	0xbd2df5a4	-0.04247059
93	0xbc2909e2	-0.010317298
94	0xbccd3315	-0.025048772
95	0xbd097be5	-0.03356542
96	0xbc4c51fd	-0.012470719
97	0xbd23c76c	-0.039985105
98	0xbbf45167	-0.007455993
99	0xbc9e3dcf	-0.019316582
100	0xbc8bb82f	-0.017055599
101	0xbcbd9d12	-0.023146186
102	0xbbfec64c	-0.0077751037
103	0xbcc2cb77	-0.02377866
104	0xbcb867f9	-0.022510516
105	0xbd13dfbd	-0.036102045
106	0xbd23bfcd	-0.039977837
107	0xbc99287a	-0.018696059
108	0xbc74fefc	-0.014953371
109	0xbbb79d57	-0.005603473
110	0xbc5b1d4f	-0.013373687
111	0xbbb1582d	-0.0054121227
112	0xbd0afa74	-0.033930257
113	0xbcd24632	-0.025668237
114	0xbca7024d	-0.02038684
115	0x3ae774d5	0.001765872
116	0xbc51da92	-0.012808459
117	0xbc1f9c77	-0.009741894
118	0xbc77a544	-0.015115086
119	0xbc04c71f	-0.008104115
120	0xbcc338e3	-0.023830837
121	0xbcd53fe2	-0.026031438
122	0xbced6dca	-0.028983016
123	0xbbe23544	-0.0069033224
124	0x3c0dc7f5	0.0086536305
125	0x3ce92dd6	0.02846424
126	0x3baf0c89	0.0053420705
127	0xbd02fe33	-0.031980705
128	0xbc455f7b	-0.01204669
129	0xbd1cb638	-0.038259715
130	0xbc8cbea7	-0.017180754
131	0xbcf27131	-0.02959499
132	0xbc122124	-0.008919034
133	0xbc0bcd0f	-0.0085327765
134	0xbce8442f	-0.028352825
135	0xbc4a850e	-0.012360824
136	0x3c5df79a	0.013547802
137	0x3cc528c5	0.024067292
138	0xbceb575f	-0.028728185
139	0xbb59941c	-0.0033199852
140	0xbb31550d	-0.002705875
141	0x3d3537bb	0.0442426
142	0xbca1d82b	-0.019756397
143	0xbce7e362	-0.028306667
144	0x3c435eec	0.011924487
145	0xbcf07777	-0.02935384
146	0xbcdf4799	-0.02725582
147	0xbd10323b	-0.035204154
148	0xbcbe012d	-0.02319392
149	0x3cf59d3a	0.029982198
150	0xbc4a7852	-0.012357788
151	0xbcc814d2	-0.02442399
152	0xbd1e6dfc	-0.038679108
153	0xbd2aa6af	-0.041662868
154	0xbcb460bd	-0.022018785
155	0xbc8febc3	-0.017568475
156	0xba17ce81	-0.00057909644
157	0xbd18ee39	-0.03733656
158	0xbc6291f8	-0.013828747
159	0xbd00b455	-0.031421978
160	0x3c63173f	0.013860523
161	0x3c1d7bd1	0.00961204
162	0xbc185830	-0.009298369
163	0x3a2befb8	0.0006558853
164	0x3d0407d4	0.032234028
165	0x3ccb3551	0.024805697
166	0xbb746032	-0.0037288782
167	0x3c7cdc79	0.015433424
168	0x3c8c0084	0.01709009
169	0x3ca86021	0.02055365
170	0xbd055c3c	-0.032558665
171	0xbcd83a48	-0.026394978
172	0xbb45bc2e	-0.0030171978
173	0xbd36ef40	-0.04466176
174	0x3b050abf	0.0020300595
175	0x3cfc6fa7	0.030814959
176	0xbc9a6748	-0.018848076
177	0xbc8e7a6f	-0.017392365
178	0x3beab6e9	0.007162918
179	0xbd5c77d2	-0.053825207
180	0x3bb5a3e8	0.005543221
181	0xbc8ef4f4	-0.017450787
182	0x3c13b80a	0.009016046
183	0xbce7b0a3	-0.02828247
184	0x3c4468ab	0.011987845
185	0x3d08037e	0.033206455
186	0xbc7acb8f	-0.015307321
187	0xbc80f7e1	-0.015743198
188	0x3cfe4114	0.031036891
189	0x3d294b72	0.041331716
190	0xbc673e56	-0.014113983
191	0xbd011fb8	-0.03152439
192	0xbc6d7d40	-0.014495194
193	0xbcd0fb5e	-0.025510486
194	0x3cdf43df	0.027254043
195	0x3d15ef3e	0.036605112
196	0xbc96d901	-0.018414022
197	0x3cb8640f	0.02250865
198	0x3d3aca75	0.045603234
199	0x3d15a5bf	0.03653502
200	0xbc303baf	-0.010756417
201	0x3ac978de	0.0015371104
202	0x3cf49c44	0.02985967
203	0x3cf74503	0.030184275
204	0x3c09c04d	0.0084076645
205	0xbbf94bd0	-0.0076079145
206	0x3c4b754a	0.012418101
207	0x3ccebd81	0.025236847
208	0xbaa070bc	-0.0012240629
209	0xbccef361	-0.025262536
210	0xbd0ef636	-0.034902774
211	0xbc6cb195	-0.014446636
212	0x3c9591b0	0.018257946
213	0x3d0d1a8f	0.034449156
214	0xbbae2ce9	-0.0053154123
215	0xbcb37aa0	-0.021909058
216	0xbd1db533	-0.038502883
217	0xbce4f63b	-0.027949443
218	0xbcaa68ca	-0.02080192
219	0xbd0fc4e7	-0.03509989
220	0x3d5fbd63	0.054623973
221	0x3d198a60	0.03748548
222	0x3cad8261	0.021180334
223	0x3c22c942	0.009935679
224	0x3cb69d71	0.02229187
225	0x3c53cfa9	0.012927928
226	0xbca53a3d	-0.020169372
227	0xbcaec5a9	-0.021334486
228	0x3c946b10	0.018117458
229	0x3c6963d7	0.014244995
230	0x3d18135c	0.037127838
231	0x3ce0ade4	0.027426668
232	0xbcbb9008	-0.022895828
233	0xbcb11e74	-0.021620966
234	0xbba6919c	-0.005083276
235	0xbd03f9f3	-0.032220792
236	0x3be21e90	0.006900616
237	0xbc2734a1	-0.010205419
238	0x3cef24d4	0.029192366
239	0x3d0adec7	0.033903863
240	0x3cd1cd0c	0.02561047
241	0x3d1da277	0.038485017
242	0x3cc41fbc	0.023940913
243	0x3d1370f5	0.035996396
244	0x3c205d2f	0.009787842
245	0x3bf3cde0	0.0074403137
246	0xbbca7348	-0.0061782934
247	0xbba2e3f9	-0.004971024
248	0x3cabb7b9	0.02096163
249	0x3d52ee43	0.051496755
250	0x3d22044c	0.03955488
251	0x3d0c82f2	0.034304567
252	0xbcba6a6f	-0.02275583
253	0xbc4b55b4	-0.01241057
254	0xbc4c952d	-0.012486738
255	0xbd079b2a	-0.03310696

bias f4 [80]
0	0x3ae73e62	0.0017642493
1	0x3bf0da64	0.007350253
2	0x3c6a6728	0.014306821
3	0xbd26dbe8	-0.040737063
4	0xbd311074	-0.04322858
5	0xbd8635a0	-0.06553197
6	0x3d062f7d	0.032760132
7	0x3d11cb22	0.035594113
8	0xbd52c01b	-0.051452737
9	0x3c1a5da1	0.009421737
10	0xbd54cb35	-0.051951606
11	0x3d2e6120	0.042573094
12	0x3af6355a	0.001878421
13	0x3cad41fc	0.021149628
14	0xbd3526bf	-0.044226404
15	0x3d785463	0.060627352
16	0xbc34b2c5	-0.01102895
17	0xbc2d32d0	-0.010571197
18	0xbd45fce7	-0.04833689
19	0x39e3d2de	0.00043453922
20	0xbc2c96b6	-0.010533979
21	0xbd70d5be	-0.05879759
22	0x3ce882c6	0.02838267
23	0x3d9eabb4	0.077475935
24	0xbb7b09a8	-0.0038305316
25	0x3ca474e7	0.020075275
26	0x3ca1956e	0.019724574
27	0xbd9375ef	-0.072002284
28	0x3d8a75b1	0.06760729
29	0x3d070b61	0.032969836
30	0x3d30e619	0.04318819
31	0xbd097567	-0.03355923
32	0xbd9eeacd	-0.077596284
33	0xbd57c0dd	-0.052674163
34	0x3b131cae	0.0022447514
35	0xbd2be120	-0.041962743
36	0xbc7b22d5	-0.015328129
37	0xbb012fdc	-0.0019712364
38	0xbcb7b40d	-0.022424722
39	0xbd90f76d	-0.07078443
40	0x3c5a3eae	0.013320608
41	0x3ca0468f	0.019564895
42	0x3d9d5d41	0.076838024
43	0x3cf3b70f	0.029750375
44	0xbc4367ef	-0.011926635
45	0xbdb177a5	-0.086653985
46	0x3a72385f	0.00092399673
47	0xbc2e269e	-0.010629324
48	0xbda36102	-0.07977487
49	0x3ca12357	0.019670172
50	0xbdb1992a	-0.08671792
51	0x3da2f9a3	0.07957771
52	0xba909168	-0.0011029663
53	0x3b89c68f	0.004204578
54	0x3d41951a	0.047261335
55	0x3d156f70	0.03648323
56	0xbc8edfd1	-0.017440708
57	0xbda1a15e	-0.078921065
58	0x3d3b9658	0.045797676
59	0xbc53d401	-0.012928964
60	0xbcd5343b	-0.026025882
61	0xbd060854	-0.032722786
62	0xbd709f6d	-0.05874579
63	0xbd97845d	-0.07398293
64	0xbdaf3d8e	-0.085566625
65	0xbdd8907c	-0.10574433
66	0xbd525f78	-0.051360577
67	0x3d617341	0.055041555
68	0x3c4a775a	0.012357557
69	0xbdc1c41d	-0.09461234
70	0xbd8fdfbc	-0.07025096
71	0xbc26ef6a	-0.010188917
72	0x3ca892e8	0.020577863
73	0x3d84a29d	0.064763285
74	0x3c8d2a0c	0.017231964
75	0xbcaea9b0	-0.021321148
76	0xbc9dd4b8	-0.019266471
77	0xbd30c2ea	-0.043154635
78	0xbd98fb9a	-0.07469864
79	0xbc6ddae1	-0.014517517
