GAN/u Generator/u_epochs=500_seq=127.pth (torch, 674454 bytes, 31 tensors)

weight f4 [1, 80, 1]
000000 dd da f9 ba 3c 7d 84 37 5a 9b 4f 3b db 45 73 3a
       -0.0019062419 1.5793943e-05 0.003167829 0.00092801236
000010 b0 5e a1 3a d7 c3 62 3c 43 8c 75 bc 95 84 d3 bb
       0.0012311544 0.013840637 -0.014987054 -0.006455014
000020 cb 6e 0f ba a1 97 45 3c e7 9d dc 39 d8 7c 12 3c
       -0.00054715265 0.012060077 0.00042079316 0.008940898
000030 75 f3 f0 b9 a9 10 07 bc 81 2d f6 bb 76 0a f2 3b
       -0.00045957757 -0.008243718 -0.0075127487 0.007386501
000040 24 7a 73 ba ac 83 1e bc 0e 90 84 bb cf da cb 3b
       -0.0009287915 -0.009674948 -0.004045493 0.0062211524
000050 bb c7 ab bb 47 b8 59 bb a6 80 92 3a 2d 80 83 bb
       -0.0052423156 -0.003322141 0.0011177256 -0.0040130825
000060 54 ac 83 bc 8c a3 22 b9 a5 92 59 3b 0b 3f 2e 3c
       -0.016073383 -0.0001551045 0.003319898 0.010635148
000070 57 51 c5 bb d6 25 47 3b a3 69 30 3c 20 69 f8 bb
       -0.0060216594 0.0030387542 0.010767373 -0.0075808913
000080 f9 ce bd 3b cc 2b 7f bc ed bb a0 3a a1 d1 d9 b9
       0.0057924953 -0.015574407 0.0012263037 -0.0004154565
000090 0f 56 98 bb 9e 7f 30 3a 06 36 94 3c c8 30 f6 bb
       -0.004648931 0.00067328836 0.018092167 -0.0075131394
0000a0 e0 a9 4a bb 25 4f 8a 3b 66 2e 83 3c 19 cb 0e bb
       -0.0030924007 0.0042208605 0.016013335 -0.0021788536
0000b0 6d d3 8e b9 79 9f 75 bc e9 3d bb ba 5c 70 20 3b
       -0.00027241875 -0.0149916345 -0.0014285418 0.0024481034
0000c0 33 6f 58 b8 fc a1 17 3b b9 c5 f9 3b 1c ee 9f 3b
       -5.1601975e-05 0.0023137322 0.0076224473 0.00488068
0000d0 a3 11 2e bb cc 73 f3 38 93 00 82 3b 6d 90 72 3b
       -0.0026560805 0.00011608712 0.0039673536 0.0037012354
0000e0 87 1e 86 bc 0c fa 6b bc 87 fc 16 bc e5 6c 3d 3c
       -0.016371978 -0.014402878 -0.009215481 0.011561607
0000f0 25 4b e5 3a 6a 81 ec ba 27 c1 17 3a f4 8f 03 bc
       0.0017493708 -0.001804394 0.0005788975 -0.008029927
000100 ba 4b b9 ba f4 32 e0 bb bd 7b 8d bb 91 5a fd 3b
       -0.0014136948 -0.0068420116 -0.0043177293 0.0077317436
000110 30 26 c1 bc c1 ac e3 3a 9d 58 33 3c 8b ce 74 3b
       -0.02357778 0.001737021 0.01094642 0.0037354555
000120 77 b0 d3 ba 94 3c f4 3a bd 4c 91 ba 7a e0 39 3c
       -0.0016150613 0.0018633776 -0.0011085492 0.011345023
000130 95 be 30 3c 33 0c 64 bc fa 39 31 ba b8 04 86 3a
       0.010787626 -0.013918924 -0.00067606533 0.0010224795

weight f4 [80, 3, 1]
000000 10 21 82 bd c7 f4 7d 3d 21 42 58 bd e6 ca d0 3d
       -0.063539624 0.062001016 -0.05279744 0.1019495
000010 57 c8 e7 bd 44 9a ef 3d b4 0c be 3d 42 e5 93 bd
       -0.11317509 0.11699346 0.09279767 -0.07221462
000020 26 ef a5 3d a2 5f 5a 3d b2 ed 38 bd ed 2e 43 3d
       0.081022546 0.05331386 -0.04514856 0.047652174
000030 44 47 d6 3c 0d 25 8f bc 24 70 e8 3c 87 ee 3a bd
       0.026157029 -0.017473722 0.028373785 -0.045637634
000040 10 df 91 3d aa 72 5b bd c8 34 55 bd 4f 34 ed 3c
       0.07122624 -0.05357615 -0.05205229 0.028955607
000050 9a 22 80 bc 57 a9 d1 3d 5e 56 ed bd 02 fe ad 3d
       -0.0156415 0.10237377 -0.11588739 0.08495714
000060 9e 2a d1 3d 83 86 c1 bd 5e fc b3 3d 94 19 a1 3d
       0.10213207 -0.09449484 0.087883696 0.07866207
000070 3c 3e ac bd dd 9b ad 3d 6f a8 ca bd 69 44 b8 3d
       -0.08410308 0.08476994 -0.098954074 0.08997423
000080 04 55 c8 bd 09 6a a1 bd 47 c1 9f 3d 4b ae 96 bd
       -0.097818404 -0.07881553 0.078005366 -0.073574625
000090 dc 32 96 bd 11 8a 9d 3d e6 d3 9c bd 36 fc 48 bd
       -0.073339194 0.0769235 -0.07657604 -0.049068652
0000a0 79 0d 65 3d 28 dd 69 bd 1c 5c ee 3d 98 b2 0a be
       0.05592105 -0.057095677 0.11638662 -0.1354469
0000b0 a1 c2 e7 3d d4 27 cb 3d 67 4a ec bd 4f 67 e4 3d
       0.113164194 0.09919706 -0.115376286 0.11152517
0000c0 0b 2d c3 3d a2 e8 c6 bd 59 bb b0 3d a8 8d 99 3d
       0.09530076 -0.0971234 0.08629484 0.07497722
0000d0 e4 a6 a8 bd 76 f5 9f 3d 19 fd 6a bd 66 26 7d 3d
       -0.08234957 0.0781049 -0.05737028 0.061804198
0000e0 0f 86 80 bd cd a9 c8 3d 41 a4 c6 bd 2d 85 ad 3d
       -0.0627557 0.09798012 -0.09699298 0.08472667
0000f0 5d 98 c8 bd 8b 1e b3 3d 01 63 b4 bd d3 36 ac 3d
       -0.09794686 0.0874606 -0.08807946 0.084088944
000100 b1 fb ba bd 0a b1 c4 3d d9 8a 09 be 9b df 0a 3e
       -0.091300376 0.0960408 -0.13431872 0.13561861
000110 1c 81 e5 bd 13 6f d5 bd 3d 52 00 3e a8 ae cf bd
       -0.11206266 -0.10421576 0.12531371 -0.10140735
000120 0a e6 86 bd e6 ac 95 3d a4 12 86 bd 92 39 02 3e
       -0.06586845 0.073083684 -0.06546524 0.12717274
000130 a5 c8 d5 bd 74 94 eb 3d fc 86 78 3d d0 71 80 bd
       -0.104386605 0.115029246 0.060675606 -0.06271708
000140 05 8e 79 3d 4b d8 c8 bd a6 8f d0 3d ed 5b e0 bd
       0.060926456 -0.098068796 0.10183649 -0.109550335
000150 42 1d 86 3d df 53 8a bd 41 ff 88 3d 9c f3 e8 bd
       0.06548549 -0.067542784 0.06689311 -0.1137459
000160 eb 57 c6 3d 9e 28 c0 bd 19 9a e4 bd 3a 36 e0 3d
       0.09684738 -0.09382747 -0.11162204 0.10947843
000170 91 9b e8 bd 96 7b ba 3d 4e b1 cf bd 3d 76 c0 3d
       -0.11357797 0.091056034 -0.1014124 0.09397552
000180 27 d9 c0 bd fe 12 c9 3d 0e 55 a3 bd 15 8e f9 bd
       -0.094164185 0.098180756 -0.07975207 -0.12185303
000190 23 c5 d0 3d c0 9b cf bd b7 d2 c1 3c f1 bd f2 bc
       0.10193851 -0.10137129 0.023660047 -0.029631587
0001a0 2c b6 d4 3c 1e 5f d0 3d b5 18 f7 bd d4 27 c3 3d
       0.025965773 0.10174392 -0.12065259 0.09529081
0001b0 cf 5e b2 3d 7b 23 d2 bd ab 41 bf 3d d7 e5 2c 3d
       0.087094896 -0.102606736 0.09338697 0.04221138
0001c0 24 36 73 bd 97 29 3a 3d d1 66 e8 bd 61 e1 f6 3d
       -0.059377804 0.04544982 -0.11347736 0.12054706
0001d0 ce 47 cb bd 81 53 cd bd 61 27 df 3d 61 6d e6 bd
       -0.09925805 -0.10025693 0.10896183 -0.11251331
0001e0 0f a4 b2 3d 93 93 c1 bd ac 5b b5 3d 15 f9 a7 3d
       0.08722698 -0.09451976 0.08855376 0.082018055
0001f0 94 37 f2 bd fd fb d0 3d d8 5a 1e 3d 86 df 56 bd
       -0.11827007 0.10204313 0.038660854 -0.052459262
000200 64 d8 42 3d e8 27 c0 bd fc 71 c1 3d cd 9a b4 bd
       0.047569647 -0.093826115 0.09445569 -0.088185884
000210 c4 42 ce 3d 05 97 cf bd e5 ed ed 3d ea b7 9b 3d
       0.10071328 -0.101362266 0.116176404 0.07603438
000220 86 c2 ea bd d5 ba ad 3d 79 9b 0f 3e 72 68 f1 bd
       -0.11462884 0.08482901 0.14024152 -0.117874995
000230 c3 59 03 3e 6a 9b 8c bd d6 15 8d 3d a6 64 38 bd
       0.1282721 -0.068655804 0.068889305 -0.04501786
000240 21 ef 36 bd fc 85 55 3d d0 73 53 bd b5 37 a8 bd
       -0.044661645 0.05212973 -0.05162412 -0.0821375
000250 d4 5e b3 3d e1 9d a9 bd 92 18 84 bd 3f 52 97 3d
       0.087583214 -0.08282066 -0.06449999 0.07388734
000260 ad 40 80 bd f3 a9 82 bc 54 75 93 3c cd 96 84 bc
       -0.06262336 -0.015950179 0.018000282 -0.016185189
000270 35 dc 23 3d f6 d9 14 bd f5 90 62 3d 24 4f cd 3d
       0.040004928 -0.036340676 0.055314023 0.100248605
000280 5b f5 d6 bd 9c 26 a4 3d 86 b5 a4 bd 7d 01 b4 3d
       -0.104960166 0.08015177 -0.08042435 0.08789346
000290 dc 92 a0 bd 96 f2 d6 3d 8d 21 d6 bd b7 34 a9 3d
       -0.07840511 0.10495488 -0.10455618 0.08262008
0002a0 01 48 83 bd 2e 71 5f 3d 55 33 88 bd c8 03 a6 3d
       -0.06410218 0.054551296 -0.06650416 0.0810619
0002b0 1d 5e ae bd 00 eb b0 3d 10 ed 9c bd 66 ad eb 3d
       -0.085140444 0.08638573 -0.076624036 0.115076825
0002c0 da a0 e3 bd 8c 47 04 3d 6b 3d 5b bd 8f e5 6b 3d
       -0.111146644 0.032294795 -0.05352537 0.05759197
0002d0 8a ee fd 3d 4c fe 15 be 5d 4e f1 3d 17 7b d5 3d
       0.12399013 -0.14647788 0.11782525 0.10423868
0002e0 9d b1 f0 bd e1 f8 f2 3d 7e fb 9f 3d 31 ab 92 bd
       -0.11752627 0.11863876 0.0781164 -0.071615584
0002f0 ca 71 b8 3d 6d 32 94 bd 4e d0 89 3d 25 39 80 bd
       0.090060785 -0.072361805 0.06729184 -0.062608995
000300 d7 c8 b7 3d 21 33 b3 bd ae 78 dc 3d 76 21 68 bd
       0.08973854 -0.087499864 0.10765205 -0.056672536
000310 0a d6 40 3d 11 43 7f bd fb b6 62 bd 7e 15 6c 3d
       0.047079124 -0.06231982 -0.055350285 0.057637684
000320 d2 7a 51 bd 45 ee b6 3d 78 c5 e6 bd 9f d0 e6 3d
       -0.05114252 0.08932165 -0.11268133 0.1127026
000330 07 8f 59 3d 2e 24 61 bd 30 23 57 3d 26 a4 d5 3d
       0.053114917 -0.054966144 0.05252379 0.104316995
000340 ae 10 e0 bd c7 cf c4 3d 81 9d f3 bc 0a 00 27 3d
       -0.109406814 0.09609943 -0.02973819 0.04077152
000350 4a 90 4c bd 1c 9b 75 bd 15 d2 94 3d 82 68 6d bd
       -0.049942292 -0.059962377 0.072666325 -0.057960995
000360 4d e4 ae 3d d9 4a 9a bd fe 02 80 3d 65 0f c1 3d
       0.08539639 -0.07533807 0.06250571 0.094267644
000370 d9 2d da bd 56 43 e0 3d 11 51 cf bd 81 f0 d8 3d
       -0.10653276 0.10950343 -0.10122884 0.105927475
000380 96 3c c5 bd 41 6c e5 3d 69 a2 c4 bd 33 c5 c5 3d
       -0.096306965 0.112022884 -0.0960129 0.096567534
000390 34 05 a5 3d ae 39 c1 bd e5 cd 85 3d 92 75 8e 3d
       0.08057633 -0.0943483 0.06533412 0.069560185
0003a0 53 5c 8f bd ef 58 91 3d 54 29 c2 3d 67 9d ca bd
       -0.07000031 0.07097041 0.09480539 -0.09893303
0003b0 10 8e d0 3d 13 35 ce 3d 8e 7c ed bd a7 fd e4 3d
       0.10183346 0.10068717 -0.115960225 0.11181193

bias f4 [80]
000000 6b 56 bc 3d 87 bb aa be 66 f0 25 be 56 58 98 3e
       0.091961704 -0.33346197 -0.16204986 0.29754895
000010 32 b7 bf be ec cd e6 3e 1c ba ec 3e eb f4 e6 be
       -0.37444454 0.4507898 0.4623574 -0.45108733
000020 eb c9 91 3e cd 32 04 bd e2 5c a8 3e b1 c3 27 3e
       0.28474364 -0.03227501 0.32883364 0.16383244
000030 5a 00 b4 3d 26 32 21 3d b3 57 d1 be 68 a4 8c be
       0.087891296 0.039354466 -0.40887222 -0.27469182
000040 0b 45 c4 be 3b dc a2 be 47 e3 3d 3d 6e a5 d8 be
       -0.38333926 -0.31808648 0.046359327 -0.42313713
000050 56 7c 23 3e c8 3f dc be ca c5 ed 3e 7c 9b b6 3e
       0.15965399 -0.4301741 0.46439964 0.356655
000060 8a 0b cd 3d c7 0b d0 3e c1 e3 e8 3c c6 18 a2 3e
       0.100119665 0.40633985 0.028428914 0.31659526
000070 72 3e 89 bc 5c 63 11 3f 3b d4 b4 3e b6 38 95 bd
       -0.016753409 0.56792235 0.3531817 -0.072862074
000080 bf 18 0f 3f f3 11 b0 3e 52 eb 6a 3e 2c 08 07 bf
       0.55897135 0.34388694 0.2294133 -0.52746844
000090 37 b4 28 be 02 6b cf 3d e9 bd 9c 3e 14 c5 e2 3e
       -0.16474997 0.10127832 0.3061364 0.44290984
0000a0 f1 07 18 bd 83 35 89 be 12 1b f0 be 6b f5 81 3e
       -0.03711695 -0.2679864 -0.46895653 0.25382552
0000b0 15 ff 3e be e2 a7 5f be 9d 44 dc be 41 60 c3 3e
       -0.18651994 -0.21841386 -0.43021098 0.38159373
0000c0 fe ec de 3e 54 a5 25 3e 44 ca bf 3d ad d2 83 3c
       0.43540186 0.16176349 0.09364751 0.016091669
0000d0 66 ad 57 3e 12 dc 0a bf be d0 32 3e 65 4b 4f 3e
       0.2106224 -0.5424205 0.17462441 0.20243604
0000e0 12 b4 b8 3d 0e e3 a9 be 19 0a f4 3e 4e 59 0c bf
       0.09018721 -0.3318104 0.47663954 -0.5482377
0000f0 16 b5 ca be 3a 18 c0 be 29 c2 04 be 99 b9 9c 3d
       -0.39591283 -0.37518483 -0.12964691 0.076525874
000100 d9 04 b4 bd 4a 56 89 bd ae 6d 81 bd 38 8a 9f be
       -0.08789987 -0.067059115 -0.06319748 -0.3116014
000110 36 fd 1f 3c c3 52 90 be fb c5 fe 3c eb 9c 0a 3f
       0.00976496 -0.28188142 0.031100264 0.5414569
000120 da a0 d3 be 7a 0f eb be 61 c7 5e 3e db 67 b1 bd
       -0.41333658 -0.45910245 0.21755745 -0.08662387
000130 bb 5d 05 bf 00 4b 30 3d ee be 0f bf ff 7d 0f bf
       -0.52096146 0.043040276 -0.5615071 -0.5605163

weight f4 [80, 80, 1]
000000 45 69 5b b9 79 d8 80 3b 6b dc 05 bc cd 51 ab bb
       -0.00020924683 0.0039320556 -0.0081702275 -0.0052282573
000010 59 3e 51 3c dc 1f 6d 3b 31 64 9c 3b b6 3e d2 bb
       0.0127712125 0.003618232 0.004772686 -0.006416167
000020 ac 8e af bc da 9b 0b bd 12 ca 84 3c 67 38 08 3a
       -0.021430336 -0.03408418 0.016209636 0.0005196393
000030 a1 e3 15 3c 49 15 03 3d 95 03 32 bc 77 10 92 ba
       0.009148509 0.03200272 -0.010865112 -0.0011143823
000040 84 26 e8 3b 35 34 56 bc 95 76 b6 3c df 53 25 bc
       0.0070846695 -0.013073971 0.022273341 -0.010090797
000050 fe 69 82 3c e9 d8 ae bb 24 13 b8 bb 8f db 7b 3c
       0.015919682 -0.0053359163 -0.005617516 0.015372171
000060 89 02 dd 3b fd 55 2d bb 91 7a 3c bd 69 18 bb 3c
       0.006744687 -0.0026448958 -0.046015326 0.022838788
000070 f9 41 89 bd a8 8e 5d 3c 84 03 78 bb 1b 55 c5 bc
       -0.067020364 0.013522781 -0.0037843892 -0.024088433
000080 62 86 1f 3b 1f 08 e3 3b 54 86 54 bc 7a 3a ca 3b
       0.0024341573 0.0069284583 -0.012971479 0.0061715217
000090 f3 20 87 bc b1 22 36 3c 47 1b 3a 3c f2 01 e3 3b
       -0.016495204 0.0111166695 0.0113590425 0.006927722
0000a0 cf 6b 73 bd 9a f5 d3 3b 62 6e a3 3b 44 28 7e 3c
       -0.059428986 0.006468487 0.004987524 0.01551253
0000b0 a2 af c6 3a d3 69 4d bc 6f 52 de bb 97 0a 97 3b
       0.0015158544 -0.0125374375 -0.006784729 0.0046094167
0000c0 58 06 9c ba 2b cd 8e 3c 1e e0 69 bc f7 f1 21 bc
       -0.0011903746 0.017431816 -0.014274625 -0.009884349
0000d0 ab c6 aa bc b1 bd 8e bc 58 66 f7 3b 5c 82 8b bc
       -0.020846685 -0.017424436 0.007550042 -0.017029934
0000e0 7a 6c 8a 3b 27 d9 b5 3b b9 42 b6 3c 51 7e 35 3c
       0.004224357 0.005549568 0.022248613 0.011077479
0000f0 3c a1 f6 bb d7 90 a8 bb 39 53 9c bc 48 aa 00 3d
       -0.007526545 -0.0051442194 -0.019082652 0.031412393
000100 d6 09 d8 bc cc e3 3d 3d a1 4d 1b 3d ee 49 73 bc
       -0.026371878 0.046359822 0.03791583 -0.014849169
000110 dc f5 98 bd 6a cd 73 bc e9 b2 f9 bb 18 f7 d8 bb
       -0.07468769 -0.0148805175 -0.0076202047 -0.0066212527
000120 46 f2 4e 3c 17 bc 53 3b 3e 8c 27 3c dd 11 61 bb
       0.012631005 0.0032308155 0.010226307 -0.0034342923
000130 b3 ce 66 bb f8 d6 fa bc 5c f6 b9 3b 4a 41 84 bc
       -0.0035218417 -0.030620083 0.0056751203 -0.016144414
000140 00 52 ca 3b 2b 52 9c bc 12 4c e2 3a 5d ef f3 3b
       0.006174326 -0.01908215 0.0017265102 0.007444306
000150 5b 1e ae bc ec 86 15 3c 86 cf 92 3c 57 f7 6f bc
       -0.021254709 0.009126406 0.01792122 -0.014646373
000160 0f 84 d7 3b 2d 44 6a bd c1 32 8f 3b c4 7e d8 3c
       0.006577022 -0.057193924 0.004370064 0.026427634
000170 a8 4d f1 3c 0d 86 6f 3c c5 29 ea bc e2 56 00 bc
       0.029455975 0.014619363 -0.02858437 -0.0078332145
000180 73 cf 8d bc 07 17 7e 3b 83 e2 7c 3c 3e c4 c0 bc
       -0.017310834 0.003877105 0.015434864 -0.023531076
000190 15 79 d7 3c be 3a 5d bb 51 67 04 3d 0f b6 f4 3c
       0.026302854 -0.0033756937 0.032325093 0.029871969
0001a0 56 ed 92 3c 1b 76 d1 3b 80 30 38 bc 8b f3 42 3c
       0.017935436 0.006392253 -0.011242032 0.0118988855
0001b0 90 83 99 bd 43 cc 9a 3c 86 31 1c 3c 73 2b 87 bd
       -0.07495797 0.018896228 0.009533292 -0.06600084
0001c0 76 9c 12 3d 4e 41 90 3c 6c 43 9a ba 35 5f d1 bc
       0.035793744 0.017609265 -0.0011769361 -0.025558094
0001d0 b1 69 c9 bc 70 fb 27 3c d6 11 e7 3b f5 75 a1 3c
       -0.02458653 0.010252818 0.0070516868 0.019709567
0001e0 61 2c c3 bd c0 83 d2 bc c6 c3 8d 3a ff ec d1 3c
       -0.09529949 -0.025697589 0.0010815791 0.025625704
0001f0 20 07 d8 bc d8 cc c2 37 be 37 80 bc fa a8 b3 3c
       -0.026370585 2.322199e-05 -0.01565158 0.02193116
000200 4a 49 de bb 87 42 07 3d fc 39 8d 3c bf 3c 0f 3c
       -0.006783639 0.03302243 0.017239563 0.00874251
000210 64 fc 12 3c 30 26 d9 bc 9d 66 42 3c 29 44 a6 3b
       0.008971307 -0.026507467 0.011865285 0.0050740433
000220 36 a8 c9 3c 6e f1 92 bc 0d a4 8c 3c 5e 1d b1 3b
       0.024616342 -0.017937388 0.01716807 0.005405112
000230 c6 ad 9c bc e8 f8 cf bc 85 f7 bd bc 67 a9 b6 3c
       -0.01912583 -0.025387242 -0.023189316 0.022297574
000240 8b bb 3f bd 46 16 2c bc 11 2a 9c 3c b7 4b fe ba
       -0.046809714 -0.010503357 0.019063028 -0.0019401227
000250 d7 ec 6b bd a2 06 e2 bb 5b 46 8a 3c fc 6f 92 3c
       -0.057598915 -0.0068977633 0.016879251 0.017875664
000260 f6 59 b2 3b e6 be a1 bc 36 f1 a9 3c d1 63 5d bd
       0.005442853 -0.019744348 0.020744901 -0.05405027
000270 7f c7 46 bc 55 03 8f bc a6 81 b4 bb 5a 00 d6 bc
       -0.0121325245 -0.017457644 -0.0055086194 -0.026123215
000280 67 66 fc 3b b6 7d 6b 3c d0 50 29 3d 85 b0 9e 3c
       0.007702637 0.014373234 0.041336834 0.01937128
000290 f7 b1 6b bc 77 ca a2 3c 69 58 3a 3c ef 30 e1 bb
       -0.014385692 0.019871933 0.011373618 -0.0068722884
0002a0 38 80 c3 3b 0b 36 1a 3d c9 8a 1e bc b1 02 4b bb
       0.0059662126 0.037649196 -0.009676644 -0.0030976946
0002b0 3a 44 0e 3c 49 39 96 39 1b 3c 1b bc 67 b1 33 3c
       0.008683259 0.0002865291 -0.0094747795 0.010967589
0002c0 ae 9b ec bb 0f a8 25 bc d4 95 b0 bc a0 03 27 bb
       -0.007220707 -0.010110869 -0.021555819 -0.0025484338
0002d0 1e 4b cd bb f8 e5 34 bb 00 0d 21 bc 0c 2d 2e ba
       -0.006265058 -0.0027602892 -0.00982976 -0.0006644286
0002e0 b2 ce 04 3c 3b 72 b0 3c c8 84 06 3d 2a 1a 0c bb
       0.008105921 0.021538844 0.032841474 -0.00213779
0002f0 a6 56 0e 3d 6e 1f 6d 3b 96 f7 09 3b c8 f0 74 3c
       0.034750603 0.0036182064 0.0021052114 0.014949985
000300 a7 fe 7b b8 3e 3e db 3a 39 6d 1d 3c 51 5e 0d bc
       -6.0080227e-05 0.0016726924 0.00960856 -0.008628444
000310 39 f1 c3 3c 2d 7b c0 ba 3f e0 85 bc 7f 17 3b bc
       0.023918735 -0.0014685147 -0.01634228 -0.011419176
000320 b7 c1 5c 3c 5f 5c b0 3b 5c 5c 3b bc 6e 94 d0 3a
       0.01347392 0.0053821052 -0.011435594 0.0015913376
000330 29 63 3b 3d 22 71 f6 3b 83 59 fd bb 43 a8 cc bb
       0.045748863 0.0075208107 -0.007731618 -0.0062456443
000340 ef 7e 37 3c 39 b0 4f bc 53 52 bc bb 0c b3 b9 3b
       0.011199697 -0.012676292 -0.0057471185 0.005667096
000350 ff 49 97 3b 00 fa ed bb 83 2f cd bb 8f 9a 0f 3d
       0.0046169753 -0.0072624683 -0.0062617674 0.035059508
000360 41 9a 33 bb 8e 12 85 bc b2 13 a8 3b a0 8e 25 bb
       -0.0027405175 -0.0162442 0.005129301 -0.0025262013
000370 f2 41 b1 37 96 58 cd bb e7 d2 24 3d be 6b 2d 3c
       2.1130752e-05 -0.006266664 0.040240195 0.01058477
000380 df 99 d7 3c 91 ba 11 bc cd c2 b5 bc b7 60 18 3b
       0.026318489 -0.008894579 -0.022187615 0.0023251006
000390 0b 9f 50 3d 8b 0e aa 3c c7 94 61 3c f6 d9 03 ba
       0.050932925 0.020758888 0.013768381 -0.0005029732
0003a0 7d c8 09 bb 92 24 68 bb 4e c0 82 bb 37 e9 af 3b
       -0.0021024041 -0.0035422188 -0.0039902097 0.0053683775
0003b0 26 5e 8c 3c 9e f7 a5 3c 3c 6e 91 bb 40 01 8e 3b
       0.017134737 0.020259675 -0.00443819 0.004333645
0003c0 50 c8 84 bc 7c a5 d0 3b 8e 54 02 3c 01 3d c7 bc
       -0.016208798 0.0063673835 0.00795473 -0.024321081
0003d0 8c 17 71 3b c9 19 92 bc 5f 32 e0 bc 5d 06 4f 3c
       0.0036787717 -0.017834561 -0.027367769 0.0126357945
0003e0 07 6a 5f bc 54 cf 10 3d 74 ed dc bc 66 df e2 bc
       -0.013636119 0.035353974 -0.026968695 -0.027694415
0003f0 11 aa fc bc 95 50 0a bd 3c c5 ad 3c a7 86 00 bc
       -0.030842813 -0.033768255 0.021212213 -0.007844604

bias f4 [80]
000000 4f da bb bd 19 59 7e bd d4 e1 c6 bd 51 ab dd bd
       -0.091724984 -0.06209669 -0.09711042 -0.10823692
000010 ef 77 ea bd 67 ec 73 3d 8f f9 ec bd 32 59 e6 3c
       -0.11448657 0.059551623 -0.11571037 0.028118704
000020 e9 84 db bd e7 cb b5 3c 45 f0 ed bd be 75 52 bc
       -0.1071871 0.022191955 -0.116180934 -0.012845455
000030 8f 99 af bd 91 1e 87 3d 04 26 81 3d e7 a8 65 bd
       -0.08574211 0.06597627 0.06306079 -0.05606928
000040 2f 98 ec bc 15 1c cd 3c 11 a5 2c 3d 7a cd 8e bd
       -0.02888116 0.025037805 0.042149607 -0.06972785
000050 75 4e 70 bb 75 8f 19 3d 7e 8a bd 3a 49 cb dd bd
       -0.0036667858 0.037490327 0.001446083 -0.10829789
000060 a4 bd a9 bd 7d 56 2c 3c e5 06 b8 bd 0b d5 9c bd
       -0.08288124 0.010518667 -0.0898569 -0.07657822
000070 85 3d 56 3d 78 0a 9f 3c 1d 4b 07 bd 3e 13 d3 bc
       0.052304763 0.019414172 -0.033030618 -0.025766011
000080 c1 91 1e 3d f8 78 03 bd d3 99 92 bc 33 01 bb 3b
       0.03871322 -0.032097787 -0.017895615 0.00570693
000090 fc 2f 0d be dc 38 13 3c 5b a2 a4 bd eb 77 9b 3d
       -0.13787836 0.008985724 -0.08038779 0.07591232
0000a0 16 03 63 3d 03 55 37 bb 04 70 d0 3b f1 36 3e 3d
       0.055422865 -0.0027974255 0.0063610096 0.046439115
0000b0 c2 8e 43 3c b8 4c 3b 3d 1b e0 b6 bd 3c e0 85 3d
       0.011935892 0.04572746 -0.089294635 0.0653691
0000c0 af 61 56 bd 81 5e 92 3d a9 cb d1 3d f7 b3 bd 3b
       -0.052339252 0.071469314 0.10243923 0.0057892757
0000d0 ec c6 f7 bc e4 b0 cb bd 67 7f cc bd ef b5 25 bc
       -0.03024622 -0.099458486 -0.099852376 -0.010114177
0000e0 69 bf 66 3d ce fe a1 3d 8a 29 53 bc d2 c7 67 3d
       0.056334887 0.07909928 -0.012888322 0.056587048
0000f0 45 96 c8 3d c1 75 6d bd 23 a2 bc bd f0 f2 55 bb
       0.09794287 -0.057973627 -0.092106126 -0.0032646023
000100 1e e8 b6 39 ef da 1c 3d 4c c2 cf 3d 6e 1f 2a 3d
       0.00034886686 0.03829473 0.10144481 0.04153388
000110 1b fb af bd 92 35 77 bd 7e 3d d8 bd 8b c1 41 3d
       -0.085928164 -0.060353823 -0.10558604 0.047303718
000120 3d d9 cf bd 04 46 50 bd b2 1c 82 bd e9 db a7 bd
       -0.10148857 -0.050848022 -0.063531294 -0.081962414
000130 7e 71 8c bd c1 94 10 be 9b 86 d4 3d 28 b3 d3 3d
       -0.068575844 -0.14119245 0.103772365 0.10336906

weight f4 [80, 3, 1]
000000 d2 32 1a be 15 f9 30 3e 56 6d 1e be cc 8b e4 bd
       -0.15058449 0.17282517 -0.15471396 -0.11159477
000010 f6 61 d2 3d ee c1 ec bd 04 63 fd 3d 6a 1f f9 bd
       0.10272591 -0.11560427 0.12372401 -0.12164195
000020 47 9d 0c 3e 09 30 b3 3d a8 bc da bd 35 af e8 3d
       0.13731872 0.08749396 -0.106805146 0.11361543
000030 6d 1d 45 3d f6 47 59 bd 7d c5 33 3d d5 7d 04 3e
       0.048123766 -0.053047143 0.04388951 0.12938626
000040 0c 8d 0d be e8 4a 08 3e 07 18 c1 bd b8 36 ce 3d
       -0.13823336 0.13309824 -0.09428411 0.100690305
000050 68 61 d8 bd f8 e8 e0 bd 8f 1e 00 3e 76 c9 db bd
       -0.10565454 -0.10981935 0.12511657 -0.10731785
000060 cc 07 96 3d 08 4b 95 bd e1 c4 94 3d 0a 8a cc 3d
       0.07325706 -0.07289702 0.07264114 0.09987266
000070 3b 42 00 be 96 64 cd 3d a6 f2 b8 3b 6c 83 09 bd
       -0.12525265 0.10028951 0.0056441603 -0.0335726
000080 f7 5e cc 3c 38 75 b7 3d 86 95 e1 bd c8 2f dd 3d
       0.024947627 0.089579046 -0.110148475 0.10800129
000090 8c 2a 09 3e 42 cb 1b be eb 9c f7 3d be f2 fa 3d
       0.13395137 -0.15214255 0.120904766 0.12253331
0000a0 04 ca 04 be ee 13 03 3e cb 11 e2 bd 90 43 05 3e
       -0.12967688 0.12800571 -0.1103855 0.13014054
0000b0 b7 9f df bd 23 8e 09 3e dc 10 da bd e9 4e f3 3d
       -0.10919135 0.13433127 -0.10647747 0.11880285
0000c0 ad eb 0d be 70 ce 1a 3e 9f 74 1a be 34 9f d9 bd
       -0.13859434 0.15117812 -0.1508355 -0.10626069
0000d0 48 55 df 3d 14 2d ea bd 46 79 77 3d ad df 6b bd
       0.10904938 -0.11434379 0.06041839 -0.05758636
0000e0 1b 9c 9b 3d c4 54 bd 3d 79 97 ac bd 6b 1b af 3d
       0.07598134 0.092446834 -0.084273286 0.085501514
0000f0 d5 f1 0d be 6f eb 2b 3e d0 e0 08 be 01 0c 39 3c
       -0.13861783 0.1678903 -0.13367009 0.011294366
000100 5d 83 4f bd 2f 7d e4 3c a8 6e 7d 3d ec f0 66 bd
       -0.050662387 0.027891723 0.06187311 -0.056382105
000110 69 9c 92 3d 4d bb 9d bd bd 02 e8 3d 37 ea d1 bd
       0.07158739 -0.077017404 0.11328647 -0.10249751
000120 4f d9 a8 3d da 06 dc bd f9 db d8 3d 9d a0 30 be
       0.08244573 -0.10743494 0.105888315 -0.17248769
000130 29 b4 19 3e 8b 2e 1a be fb 69 db 3d 79 3a f4 bd
       0.15010132 -0.15056817 0.107135735 -0.11925215
000140 44 00 07 3e 5f b2 f3 3d 78 85 17 be 5f d5 0c 3e
       0.13183695 0.11899256 -0.14797008 0.1375327
000150 5b e3 f1 bd ec 71 09 3e 3a ed c9 bd 15 cf fd 3d
       -0.11810943 0.13422364 -0.098597005 0.123930134
000160 19 b8 db bd 37 f3 da 3d 77 18 0b 3e 04 a9 15 be
       -0.10728473 0.10690921 0.13583551 -0.14615256
000170 cd 53 07 3e 7f af 61 3d 16 73 7c bd 43 16 9c 3d
       0.13215561 0.055099007 -0.061633192 0.076214336
000180 49 6a 68 bd 0c 76 6c 3d 57 0c 17 bd 5d 1d ae bd
       -0.056741986 0.057729766 -0.036877003 -0.08501694
000190 71 7d 8a 3d 3f 19 e0 bd 87 fd dd 3d 3d 48 d9 bd
       0.06762207 -0.10942315 0.10839372 -0.106094815
0001a0 8e f9 c5 3d 97 66 fc 3c b4 89 94 bc bd 2d 84 3c
       0.096667394 0.030810637 -0.018132068 0.016135091
0001b0 5e cf 20 3d 03 50 77 bd 94 96 42 3d 09 85 c7 3d
       0.03926026 -0.06037904 0.047506884 0.09742171
0001c0 1e 22 b9 bd c9 64 c0 3d 3d 99 09 3e 85 85 26 be
       -0.090397105 0.09394223 0.13437362 -0.16261871
0001d0 3c 65 04 3e 49 80 97 bd 4c 53 9f 3d 38 2f c3 bd
       0.12929243 -0.07397515 0.077795595 -0.09530491
0001e0 58 a6 af bd 57 e5 af 3d 94 54 b4 bd 70 d3 03 be
       -0.085766494 0.08588665 -0.088051945 -0.12873626
0001f0 2c 8e 11 3e bc 55 03 be 71 f5 1d 3e cc 0f 0c be
       0.1421439 -0.12825674 0.1542566 -0.13677901
000200 29 53 00 3e 45 6a 91 3d 3d 7f 84 bd 33 7a 42 3d
       0.12531723 0.071003474 -0.06469581 0.04747982
000210 b9 02 e2 bd 5b 4e 05 3e fb cb 0c be f4 c3 a2 bd
       -0.110356756 0.13018171 -0.13749687 -0.07947531
000220 44 a1 93 3d 01 3e 9c bd 38 91 a4 bd da c7 b9 3d
       0.07208493 -0.07629014 -0.08035511 0.09071322
000230 03 ec a8 bd 9c 18 67 3d 87 c4 25 bd 8c fe 05 3d
       -0.08248141 0.056419954 -0.040470626 0.032713458
000240 20 ed fe bd 08 08 d2 3d 22 9a ea bd f6 99 f9 bc
       -0.12447572 0.10255438 -0.1145518 -0.030468922
000250 7d 69 1c 3d 54 70 5c bd 48 ef ce 3d 8a 0f 0f be
       0.03818654 -0.053818062 0.10104233 -0.13970771
000260 b1 91 04 3e 91 c1 74 3c 2c 86 c2 bc 3a 02 05 3d
       0.12946202 0.014938728 -0.023745619 0.032472827
000270 73 ac d8 bc 5f 5d 22 3d 29 c3 c3 bc f4 c5 04 be
       -0.026449418 0.039639827 -0.02389677 -0.12966138
000280 44 47 01 3e 58 dd de bd 82 c1 9c 3d bc 92 ad bd
       0.12624842 -0.10882062 0.07654096 -0.08475253
000290 4d f1 a1 3d de f5 92 bd 44 6c 9c 3d fa 15 9d bd
       0.079073526 -0.07175802 0.076378375 -0.07670207
0002a0 07 3d fb bd 55 0e e5 3d c7 f5 e3 bd 08 63 d5 bd
       -0.122674994 0.11184374 -0.11130863 -0.10419279
0002b0 1c 73 00 3e 85 40 d4 bd f6 29 b7 bd 3b 1b bf 3d
       0.1254391 -0.103638686 -0.0894355 0.09331366
0002c0 48 85 c2 bd 30 50 10 3e 49 ca 25 be 20 cd 11 3e
       -0.09498078 0.14093089 -0.16190447 0.14238405
0002d0 bd 0d b0 bd e0 d6 c7 3d d6 d3 ed bd 72 7e 66 bd
       -0.0859637 0.09757781 -0.1161267 -0.05627293
0002e0 79 f4 5d 3d c6 e6 53 bd 19 a1 06 be a3 e9 22 3e
       0.054188225 -0.051733755 -0.13147391 0.15909438
0002f0 56 9c 15 be f3 11 c2 bd 47 5d cf 3d 69 a8 ad bd
       -0.14610419 -0.0947608 0.10125213 -0.08479387
000300 a9 ea c9 bd 2a 91 f6 3d a7 ed f5 bd da 01 0f be
       -0.09859211 0.120394066 -0.12008219 -0.1396555
000310 b1 10 16 3e 15 1a 14 be 1a 72 0f be 57 78 0e 3e
       0.14654805 -0.14463075 -0.1400837 0.13913094
000320 4d 78 fe bd 95 18 c5 3d 9d 1f db bd cf 5b ce 3d
       -0.12425289 0.09623829 -0.10699389 0.10076105
000330 c3 00 e3 bd 61 5a ee 3d 08 bd e6 bd 8f 78 84 3d
       -0.1108413 0.11638332 -0.112665236 0.06468307
000340 08 74 ad bd ed 73 86 3d f4 1f 22 3e 55 c9 0f be
       -0.08469397 0.0656508 0.15832502 -0.14041646
000350 86 3e 17 3e b5 86 8f bd dc e0 b3 3d 36 9d 8e bd
       0.14769945 -0.07008115 0.08783123 -0.06963579
000360 78 be 0c be 26 87 2a 3e ad 18 11 be b9 d9 8f bd
       -0.13744533 0.16653118 -0.1416957 -0.07023949
000370 5c 17 8c 3d bc fa 5e bd 63 16 5d bd 46 ce 59 3d
       0.06840393 -0.054438338 -0.053976428 0.053175233
000380 ae 93 0b bd 8b b5 e7 3d 25 02 ce bd 8e 95 c6 3d
       -0.034076385 0.113139234 -0.10059003 0.09696494
000390 76 80 6d 3d fd 1e a0 bd bb 4b 9a 3d 70 cf 2f 3d
       0.057983838 -0.078184105 0.07533976 0.042922437
0003a0 10 83 37 bd 58 3b 45 3d c5 d8 26 be 26 b6 2b 3e
       -0.044802725 0.048152298 -0.16293629 0.16768703
0003b0 ba c1 2f be 99 c4 0c bd ef 46 c7 3c f1 41 37 bd
       -0.17163745 -0.034367178 0.024325816 -0.04474062

bias f4 [80]
000000 65 67 6e bd 7b 48 cc bd a5 5c e6 bd ae bd 84 3e
       -0.058204073 -0.09974762 -0.11248139 0.25925964
000010 c4 01 1a 3e da fd c2 3d af c3 e2 3e 88 a5 48 3e
       0.15039736 0.095210746 0.4428992 0.19594395
000020 a1 eb b3 3e ea 54 2a be 14 e2 07 3f 90 f4 c8 be
       0.35140708 -0.16633955 0.5307934 -0.39249086
000030 f3 99 55 be 2c 57 30 bd c2 fb 2e 3e 05 50 af 3e
       -0.20859508 -0.043051884 0.17088225 0.34240738
000040 e6 4a 09 bd 16 11 a5 3e 40 aa 10 3e a4 12 8b 3e
       -0.033518694 0.32239598 0.14127445 0.2716266
000050 05 a3 ac 3b 5e 62 ef 3e 2e e5 c9 be 12 5a 1d 3e
       0.005268457 0.46754736 -0.39432663 0.1536639
000060 c1 bc 76 be 9d ea 02 be e0 c2 0f 3e bb 1f 14 3e
       -0.24095441 -0.1278481 0.14039183 0.14465229
000070 de 14 e3 3d 45 f7 80 be 61 fc df 3d 28 60 0d be
       0.110879645 -0.25188652 0.10936809 -0.13806212
000080 1e 96 95 be cb 3e f7 3e d0 52 0f bd 79 db 8e 3e
       -0.29216093 0.48290095 -0.034991086 0.2790182
000090 86 7e 95 3e 22 de c4 be 7d cb c1 3d ee f4 b6 3e
       0.29198092 -0.38450724 0.094626404 0.35733742
0000a0 4d dc 2d 3e 82 33 28 be cb 1a 06 3d a8 86 c6 be
       0.1697857 -0.16425899 0.032740396 -0.3877461
0000b0 e2 3a 8e 3d f6 09 fe 3e 84 43 89 3e cf 31 e3 3e
       0.06944825 0.49616975 0.26809323 0.44373938
0000c0 a2 fb b5 be 9f 24 04 bf bd 6c 1c be 5c da cb 3e
       -0.35543543 -0.5161838 -0.15275855 0.39815032
0000d0 bf 7d e8 3e 6a fd b5 be c6 64 bc be 9a f3 a0 be
       0.45408437 -0.35544902 -0.36795634 -0.31435853
0000e0 0e 5f 6e 3d d0 2e 18 3d 07 b2 df 3e 3c dd 35 3d
       0.05819612 0.03715402 0.43690512 0.04440044
0000f0 be 0c e1 be d6 86 a7 3e 62 10 d7 bd 94 e5 cb 3e
       -0.43955034 0.3272006 -0.10501172 0.39823592
000100 68 0d 7d be 70 cc 7f be ba 49 69 3c b9 5c 01 bf
       -0.24712145 -0.2498033 0.014238769 -0.5053211
000110 51 97 81 3e 23 44 8a 3e 4c 99 39 3d 52 8d ac be
       0.25310758 0.2700511 0.04531221 -0.3370157
000120 45 a2 8f bd 0d 0b 81 be 73 af b3 3e 44 4d ac be
       -0.07013372 -0.25203744 0.35094795 -0.336527
000130 2f cf 0f bf ed 48 e9 3e 07 c5 b5 be 32 26 09 bf
       -0.5617551 0.4556345 -0.35501882 -0.53573906

weight f4 [80, 80, 2]
000000 69 21 0b bd 23 7b db bc 87 23 17 bd cf 8b 11 bd
       -0.03396741 -0.026792115 -0.036899116 -0.035533722
000010 c2 95 85 3c d6 39 1b 3d 80 7e 01 3c 0b 8b ea 3b
       0.016306762 0.037896954 0.007903695 0.0071576885
000020 a1 bd 82 3c a2 ca 3c bc 86 84 fe 3b dc 5b cf 3b
       0.015959563 -0.011522921 0.007767263 0.006328089
000030 ec a5 e2 bb 21 5f 05 bc 4b 1d 9d bc f3 20 83 bc
       -0.006916752 -0.008140356 -0.019179007 -0.016006922
000040 22 6b 4f 3c 3d 90 c6 bc b3 76 a9 3c 76 3d 8e 3c
       0.01265982 -0.0242387 0.020686483 0.017363291
000050 50 67 02 bb 23 18 49 bc de a7 f8 bb b9 25 d1 3b
       -0.0019898005 -0.012273821 -0.0075883707 0.0063826707
000060 96 38 8a 3c f8 0b 86 3c cb 98 46 3d 72 36 bf 3c
       0.016872685 0.016363129 0.04848556 0.023341391
000070 91 5d b2 bc 31 75 2b bc f5 e6 c4 3c 4d ff 96 bb
       -0.021773132 -0.010464952 0.02403591 -0.004608071
000080 8c 33 7f bd 2a 4b 8e bd 37 cf df bb dc ab 65 3c
       -0.06230502 -0.0694793 -0.006830122 0.014018025
000090 a6 f8 1b 3b 2e ef e9 3a 65 4e 63 3a 34 cf f9 3b
       0.002379933 0.001784777 0.00086710445 0.0076235775
0000a0 c7 98 bb bd 60 f0 c2 bd 20 8f 12 3c 84 c1 09 3c
       -0.09159999 -0.09518504 0.0089452565 0.008407954
0000b0 b5 a7 9a 3c 2c fb 5c 3c f2 12 c9 bb 6f 16 af bc
       0.018878797 0.013487618 -0.0061362917 -0.021373002
0000c0 8a 60 19 ba aa 0d 7c bb 4c 11 f6 bc 77 a8 12 bd
       -0.0005850872 -0.0038460293 -0.030037545 -0.03580519
0000d0 82 c0 cb 3c ee b8 b0 3c fb a0 ae bb 38 93 57 3b
       0.024872068 0.021572556 -0.005329249 0.0032894146
0000e0 74 7b 35 bc a7 e4 05 bd d4 14 94 3c 6c de 0d 3d
       -0.011076797 -0.032688763 0.018076338 0.034635946
0000f0 40 b0 e9 3c e7 62 a9 3c 79 e9 93 3b 06 c7 01 bc
       0.028526425 0.020677043 0.004513916 -0.007920986
000100 d9 8f 95 bc b6 e6 81 3b 35 c7 0d 3a 9e 2a 00 bc
       -0.018257068 0.0039642705 0.00054084073 -0.007822661
000110 c1 43 67 3d 98 9b 88 3d d5 b2 9a 3c 4f ae 1a 3b
       0.0564611 0.06670302 0.018884102 0.0023602431
000120 d5 32 68 bc 42 0a 80 3c 88 00 26 3c 60 0a e1 3b
       -0.014172276 0.015629891 0.010131963 0.006867692
000130 32 31 0f 3d ff 39 39 3d 83 a2 61 39 fb d0 28 bc
       0.034959026 0.045221325 0.00021518212 -0.010303731
000140 bb e1 50 3a 34 9b f0 bb ae 39 3e bd b2 88 17 bd
       0.0007968207 -0.0073427204 -0.046441726 -0.036995597
000150 21 aa 74 3d b0 e0 4d 3d 2f f7 ed 3a ee 49 80 bc
       0.05973256 0.050263107 0.0018155331 -0.015660252
000160 ae b2 87 bd 5d c6 87 bd 1a 2d 6e bc a0 de 29 3c
       -0.06625877 -0.06629632 -0.01453712 0.010368019
000170 90 d1 23 bc 03 f2 3f bc 12 64 08 bc 14 43 37 bc
       -0.009998694 -0.011715415 -0.00832464 -0.011185426
000180 c4 6f f8 bb 08 fd ac bc e5 13 84 bc 33 aa 29 bc
       -0.007581683 -0.021116748 -0.016122768 -0.01035552
000190 e9 29 0d 3d 39 b6 12 3d 6b 44 81 bb d7 1f a9 3a
       0.034463797 0.035818312 -0.0039449236 0.0012903166
0001a0 3d e4 a1 bc 71 9f 6e bc 94 38 91 3b 8d 5b 22 bc
       -0.019762153 -0.014564381 0.0044317935 -0.009909523
0001b0 82 c7 0b 3c b8 ac bc 3a 73 7c 8b bc 38 3f 80 bc
       0.008531453 0.0014394736 -0.017027115 -0.015655145
0001c0 20 32 9d bc 4c 94 71 bc 8b 47 08 bd c0 e9 07 bc
       -0.01918894 -0.014744829 -0.033271354 -0.008295476
0001d0 1d 87 ad 3a a8 5b 91 3c d7 3a 37 3d d1 f3 40 3d
       0.001323912 0.0177439 0.04473385 0.04710752
0001e0 9b c6 b9 bb bc 3b cf 3b 4b e2 96 3c 16 53 2d bc
       -0.0056694276 0.0063242596 0.018418452 -0.010578891
0001f0 51 09 8d bc ac ee 25 bc d5 23 85 3c e9 0d ba bc
       -0.017216356 -0.010127705 0.016252438 -0.022711711
000200 8f 24 8b 3b 13 5e 0a bc 63 05 8a bc 52 e5 b1 bc
       0.0042463015 -0.008445281 -0.016848272 -0.021715794
000210 ed 0d 4f bd b9 e6 aa bc fc 62 4e 3c 13 70 3b 3c
       -0.05055039 -0.02086197 0.012596842 0.011440295
000220 1b b0 97 bb c1 1e 64 bc 81 20 f6 3a 76 85 a9 3b
       -0.0046291477 -0.013923348 0.0018777997 0.0051733805
000230 57 87 84 3d 55 1f 99 3d 75 40 ae bb a8 42 85 bc
       0.064711265 0.07476679 -0.0053177425 -0.016267136
000240 42 a9 02 bd 50 51 15 bd b6 4d 82 bc 61 58 3f 3c
       -0.031899698 -0.0364545 -0.015906196 0.011678786
000250 d7 1e f2 3b 99 e6 6e 3a 54 0b a2 3b ca d5 72 bc
       0.0073889303 0.0009113341 0.004945198 -0.014821479
000260 fa a6 4b 3c 9f d4 1d 3c 7c a5 7b 3c e2 a6 92 3b
       0.012429947 0.009633212 0.015359279 0.0044754604
000270 7a 3e 30 bd 7a 36 f4 bb 1a 13 47 bc b5 ab f5 3b
       -0.043028332 -0.007452783 -0.01215055 0.0074972757
000280 d3 ca 0e bd 0c 10 68 bd a8 e5 63 bd 9e 95 a0 bd
       -0.034861397 -0.05665593 -0.05563894 -0.07841037
000290 45 b8 ec 3c 9c 31 44 3d 75 4a 24 3c 08 3d ce 3c
       0.02889646 0.047898874 0.010027518 0.025175586
0002a0 76 fc 4e 3c 0a ed 70 3c bb 8b 49 3d 12 ef e0 3c
       0.012633434 0.014704952 0.049205523 0.027457748
0002b0 c6 fe 48 ba a9 66 7d bc 53 38 d4 bc f4 f5 98 bc
       -0.0007667359 -0.015466371 -0.025905764 -0.018671967
0002c0 45 b7 23 bb 13 8c 07 3b 5b 43 86 3c 74 52 5c 3c
       -0.0024981063 0.0020682856 0.01638954 0.013447393
0002d0 8a e4 86 3b a2 b5 4d 3c 4e f8 b8 39 07 c1 66 3b
       0.0041165994 0.012555512 0.00035280216 0.0035210268
0002e0 e7 fe 07 3c f4 08 ab 3c 26 3f 47 3d db 67 56 3d
       0.00830052 0.020878293 0.048644207 0.052345138
0002f0 a6 2d 11 3c fd f4 7f bc 13 80 f5 3b 44 50 db 3c
       0.008860981 -0.015622375 0.0074920743 0.026771672
000300 5c 38 8d bd ed 7f 95 bd 6c 32 8b bb f4 01 97 bb
       -0.06895515 -0.072997905 -0.004247954 -0.004608387
000310 ef 46 76 3c f9 a6 ca 3a 2e 21 da 3c 3e c4 d9 3c
       0.01503156 0.0015461139 0.02662715 0.026582833
000320 eb 08 9c bd 21 26 a8 bd fe 4c e3 3c 3f 08 4b 3c
       -0.076188885 -0.082103975 0.027746674 0.012392103
000330 90 7e 56 3c 26 79 4b bc 5c 6c b7 bc 65 b7 94 bb
       0.013091698 -0.012419021 -0.022390537 -0.004538464
000340 30 f5 26 3c 06 7c 16 bc 3d 7c 2f bd cb 7b 4b bd
       0.010190293 -0.009184843 -0.042843092 -0.049678605
000350 17 29 4e 3c e4 14 b0 3c c1 da 3f 3d 5c d4 ee 3c
       0.012583039 0.021494336 0.04683948 0.029153995
000360 d7 f3 97 bc ea 13 2f bd 11 3a 83 3c 0c 23 a5 3c
       -0.01854889 -0.0427436 0.0160189 0.020158313
000370 22 76 52 3d 25 44 18 3d f9 93 74 3b bb d9 d7 3b
       0.05138219 0.037174363 0.0037319644 0.006587235
000380 dc 39 f1 39 67 2b cd bc cc e6 51 3c fa e7 c4 3a
       0.0004601021 -0.02504511 0.012811374 0.0015022748
000390 c6 8c 82 3d 17 f8 aa 3d 28 7f 42 3c 1d e3 fc ba
       0.06374507 0.08348101 0.011871137 -0.0019293759
0003a0 14 f0 b2 3b d6 cc 10 3c 33 f0 ff 3a 1c b9 01 3c
       0.0054607484 0.008837899 0.0019526541 0.007917669
0003b0 22 aa 39 3d da 2e 2d 3d 15 c9 5d 3c 90 75 f7 3b
       0.045328267 0.04228101 0.013536711 0.0075518563
0003c0 c9 81 43 3b aa 6f 93 bc d8 95 3c bd d6 46 3a bd
       0.0029831997 -0.017997582 -0.04604134 -0.04547771
0003d0 57 56 90 3d 0a 10 94 3d c0 75 ab 3c cc b8 85 bb
       0.07047718 0.07229622 0.020930171 -0.0040808674
0003e0 eb 64 64 bd a8 c6 c0 bd 4a d1 85 3b f0 53 5c 3c
       -0.055760305 -0.09412891 0.004083787 0.013447747
0003f0 3f c1 0d 3c 51 b2 42 3b 0e e8 82 3a 6e 15 d6 bb
       0.0086520305 0.0029708336 0.000998737 -0.0065333163

bias f4 [80]
000000 55 59 93 3d c0 73 d3 3c a5 94 0f 3d a8 b1 06 3a
       0.07194773 0.02581203 0.035053868 0.0005138167
000010 54 fd 7e 3d 02 29 6f 3d 9d b7 83 3d 0b f1 b1 bc
       0.06225331 0.058388717 0.06431506 -0.021721384
000020 99 db 6a 3d 99 6a a5 3c 88 a7 72 bc 95 c8 01 3d
       0.05733833 0.020192431 -0.01481045 0.03168543
000030 45 d4 f1 3c ad 55 d3 3c 18 e0 27 bd 56 fb 98 bd
       0.029520163 0.02579769 -0.040985197 -0.074698135
000040 e4 f6 01 bd ce 7e 35 bc 55 9e 7f bd ff 2e 49 bd
       -0.031729594 -0.011077596 -0.062406857 -0.049117085
000050 54 69 54 3c c2 43 89 3d 98 bc 62 bc 5c 6f e7 3c
       0.012964565 0.06702377 -0.01383891 0.028251342
000060 11 ff 2b 3d 56 bc 80 bd 93 55 93 3c 80 72 35 3d
       0.041991297 -0.06285922 0.01798514 0.04429865
000070 db 85 85 3d ed 46 28 3d c2 68 7c 3c 69 9c 7a bd
       0.065196715 0.041083265 0.015405836 -0.06118432
000080 4b c1 22 3d f3 94 62 3d 7e df 83 bd 85 7c 39 bd
       0.03973512 0.05531783 -0.06439112 -0.045284767
000090 81 c4 36 bd 82 36 e8 3b 50 4b 8f 3b 4d b3 8c 3b
       -0.044620994 0.007086576 0.0043729916 0.0042938353
0000a0 6e ea ec ba aa 31 1f bb 44 ea 2f bd 4b 09 52 bd
       -0.0018075237 -0.0024291077 -0.042948022 -0.051278394
0000b0 7c 9c 8e 3d 5e 25 89 bd 54 dc 9e 3d 5c cf 6c 3d
       0.06963441 -0.0669658 0.07756868 0.05781494
0000c0 c9 55 58 3b 37 3c 08 bd 40 e8 94 bb 49 b2 83 bd
       0.0033010116 -0.03326055 -0.004544288 -0.064304896
0000d0 f1 f5 cf 3c f6 44 d3 3c 12 64 76 bd 5e a3 be 3c
       0.025385829 0.02578972 -0.06015403 0.023271259
0000e0 af 4c 7d bd 2b ac a0 3d 89 b1 0e bd 84 f3 9c 3d
       -0.06184071 0.078453384 -0.03483728 0.076636344
0000f0 d4 4e 8a 3c 91 d1 2b 3d b7 40 9d bd 5c 50 41 bd
       0.016883291 0.041947905 -0.07678359 -0.047195777
000100 2d a2 83 bd 99 08 81 3d cf 69 84 bc c3 03 f7 bc
       -0.06427417 0.06300468 -0.016163735 -0.03015316
000110 48 d3 a0 3d 10 ed cf bb 46 4b 35 3d cb ee 06 bd
       0.07852799 -0.0063453987 0.04426124 -0.032942574
000120 26 b7 89 3d 59 81 2e 3d 18 c3 30 bc 5b 4b 43 3d
       0.06724386 0.042603824 -0.0107887015 0.047679286
000130 78 68 6e bd 49 b2 18 bd 9f e8 fe bc d5 c7 8b 3c
       -0.058205098 -0.0372794 -0.031116782 0.01706306

weight f4 [80, 80, 2]
000000 3b 56 52 bc b1 d8 95 bc 2b bb 0e 3c 01 8f 13 bc
       -0.012837942 -0.018291803 0.0087116165 -0.009006263
000010 69 44 69 b9 f4 fb 57 3c 89 c4 3b bc f3 f8 77 b8
       -0.00022246096 0.013182629 -0.011460432 -5.912124e-05
000020 32 c8 c2 bc 62 22 14 bd 65 f3 f7 3c 00 b6 90 3c
       -0.023777101 -0.036165603 0.030267427 0.01766491
000030 e2 56 10 3c db 7f 43 3c 7c 35 0e 3c 6f 60 9b 3b
       0.008809777 0.011932339 0.008679744 0.0047417204
000040 a4 9b 94 3c fc 29 f4 bb 1f 26 ed bb ad a8 83 bc
       0.018140621 -0.007451294 -0.0072372104 -0.016071642
000050 8e a0 d0 3b 66 16 d1 3c ef a8 20 bc 0b 42 3f bc
       0.006366796 0.025523376 -0.009805902 -0.011673461
000060 cc a8 33 3c 5a 12 82 3c 7b d9 7e 3b f5 0f fa bc
       0.010965537 0.015877891 0.0038886953 -0.030525187
000070 35 7a ae bc 6c b6 2b 3c cb d9 7f bc 91 18 44 bc
       -0.021298507 0.0104805045 -0.015615891 -0.011968748
000080 cc 97 b2 bc ee 2f 77 bb c6 2d 58 bb 3e 13 de bc
       -0.021800898 -0.0037717777 -0.0032986267 -0.027108785
000090 0c d8 aa 3c f7 89 9a 3c 87 f6 3a 3b 06 99 1e 3c
       0.020854972 0.018864615 0.002852829 0.009680038
0000a0 c8 d9 2d 3c 15 fe 93 3c a5 8f cc 3c 7f de 1d bd
       0.010611005 0.018065492 0.024970839 -0.038542267
0000b0 6d 38 72 3c 1c 9a 89 3c f8 88 9e 3c e3 28 d5 bb
       0.014783961 0.016797118 0.019352421 -0.006505118
0000c0 98 bc 00 bb db b6 af bc c8 60 1e 3a d4 46 c7 39
       -0.001964366 -0.021449497 0.0006041643 0.0003800901
0000d0 f8 36 a8 3b e5 a9 cf 3b 16 14 92 bc a8 d0 81 bc
       0.005133506 0.0063373917 -0.017831843 -0.015846565
0000e0 e8 a8 49 3c c2 26 25 3b aa 2c 88 3b d6 be 25 3c
       0.012308337 0.0025200103 0.004155715 0.0101163
0000f0 c5 78 c1 bb ed 52 08 bd b2 e5 bf 3c de 78 32 bd
       -0.0059042894 -0.03328221 0.023424957 -0.0435723
000100 ed d8 45 ba 47 86 8e 3b 8e bb c9 bc 28 ce 87 bc
       -0.0007547278 0.004349503 -0.024625566 -0.016577795
000110 66 14 a3 bc fd 06 9f bc 87 c9 96 bc 70 66 fe bc
       -0.019907188 -0.019412512 -0.018406643 -0.031054705
000120 87 35 a6 3a 51 fd 18 3c 99 8b 02 3c f0 b2 a5 3b
       0.0012680747 0.009337739 0.007967853 0.0050567314
000130 e3 67 0b bb da f9 80 38 ca b4 ad bc 77 51 03 bc
       -0.0021271638 6.150054e-05 -0.021204371 -0.008015028
000140 21 89 82 3c fa 7b 06 3c 33 7f b3 ba 30 bc fe 3b
       0.015934529 0.008208269 -0.0013694525 0.0077738985
000150 6b e7 38 bc e8 7a 5b bc f6 06 d3 3c 1e 22 5e 3b
       -0.011285643 -0.013396002 0.025760155 0.0033894847
000160 55 83 88 3c 13 f2 8d 3a 31 c5 d3 bb bb 28 59 bc
       0.016664186 0.001082959 -0.006462716 -0.01325434
000170 5e e8 0a 3b 95 7c 07 3c 6a d3 45 3c df f4 52 3c
       0.002119563 0.008269449 0.012074331 0.012875765
000180 2c e6 0c 3b a8 5f c7 3b a0 fb 70 3c b9 b4 44 3b
       0.0021499498 0.006084401 0.01470843 0.0030014946
000190 ff b6 75 3c ee 7f 46 3c 6b e3 e9 bb 99 55 9b bb
       0.014997243 0.012115462 -0.007137706 -0.0047404286
0001a0 f5 50 23 3c a0 2b 4f bc bc e0 46 3c d4 c4 a4 3c
       0.009968032 -0.012644678 0.012138542 0.020113386
0001b0 14 c4 34 3c 3f f6 58 3b f0 80 97 bb 0d 66 24 3b
       0.011033077 0.0033105758 -0.004623525 0.002508524
0001c0 01 1c fe bc a9 8b 92 bc 74 88 cf bb eb 3d 96 ba
       -0.031019213 -0.01788886 -0.006333405 -0.0011462545
0001d0 3f e2 cf bb 40 56 b8 bc b6 a6 73 ba 72 69 12 3c
       -0.0063441093 -0.022502065 -0.0009294556 0.008936273
0001e0 ee 0e fe 3b ff 93 41 bb a1 75 9b 3c af 68 3c bc
       0.0077532446 -0.0029537675 0.018976988 -0.011499568
0001f0 bc ca 9b bc 32 7f 7b bc 6e 29 61 bb 15 07 a0 3c
       -0.01901757 -0.01535015 -0.003435697 0.019534627
000200 3e ff 00 3d c3 7f 1a 3c b5 f8 26 bb ff b6 e5 3c
       0.031493418 0.009429875 -0.002547783 0.02804136
000210 cb 99 06 bd 8d b5 65 bc 02 df 1b 3c b7 57 64 3c
       -0.032861512 -0.014020336 0.009513618 0.0139369285
000220 03 27 8a bc 51 69 24 bd 84 58 36 b8 83 82 b7 39
       -0.016864305 -0.0401395 -4.3474618e-05 0.0003500172
000230 9a 60 f4 3b 4a c3 25 3c d8 9c 64 3c ac 31 83 bb
       0.007457805 0.010117361 0.01395341 -0.004003724
000240 3a e1 9e bb 5d a3 68 bb 71 1d 54 bc b0 4a ab bc
       -0.0048486264 -0.0035497763 -0.0129464725 -0.020909637
000250 d5 44 9d bb ad 9f 56 3c 15 18 83 3c 13 b4 a0 bb
       -0.004799465 0.013099593 0.016002694 -0.004904279
000260 7a 1b a4 bc 46 09 95 bc ed d4 54 bc e0 19 bc bc
       -0.020032633 -0.018192898 -0.012990219 -0.022961557
000270 99 f4 17 bc 64 ed b5 bc 30 b7 91 bc ae 26 f5 bc
       -0.009274625 -0.022207923 -0.017787546 -0.02992567
000280 f9 56 33 3b ec b9 ea bc 98 85 a6 bc 57 7d c6 bc
       0.0027365072 -0.028653108 -0.020327374 -0.024229689
000290 d2 ed d9 3b ae 1d c5 3b a3 eb e1 bc 02 ea b0 bc
       0.006650665 0.006015501 -0.02757818 -0.021595959
0002a0 ef 95 b3 bc 12 98 da bc 9e 70 36 3c a7 f3 01 3d
       -0.02192208 -0.02668384 0.0111352485 0.031726506
0002b0 26 8d ee 3a f8 c1 07 3c f3 d2 42 bc ed c2 17 3c
       0.0018200024 0.008285992 -0.0118911145 0.0092627825
0002c0 eb 05 57 3c ae f4 52 3c f3 02 37 bc a8 db 53 3c
       0.01312397 0.012875719 -0.011170137 0.012930788
0002d0 d4 17 9a 3c 77 c3 fc 3c c1 81 8f bb 00 a7 04 3a
       0.01881019 0.030854924 -0.0043794815 0.00050602853
0002e0 74 6b a0 3b 8f e5 03 3d bd 29 46 bc f8 d5 c9 bc
       0.004895622 0.032201346 -0.012094912 -0.024638161
0002f0 55 bd a9 bc 51 47 07 bd cd c5 6b bc ee 70 1b bd
       -0.020720163 -0.033026997 -0.014390421 -0.037949495
000300 97 56 c6 bc 77 1a ca bc 49 ca 5b bc 4b 9f 48 bb
       -0.024211211 -0.024670823 -0.013414928 -0.0030612524
000310 0d a5 55 3c 34 b8 1d 3c 0a 7c de bb 0f 30 3f bc
       0.013039839 0.009626437 -0.006789689 -0.011669173
000320 98 98 cc 3c 36 f9 b3 3c f2 f6 fc 3c 9b 8b 6a 3b
       0.024975106 0.021969419 0.030879471 0.0035788778
000330 89 14 6f 3c 8e c8 4a 3c 86 fa 5e 3b 12 1f 81 3c
       0.014592298 0.0123769175 0.0034023835 0.015761886
000340 17 11 82 bc a5 b4 94 bc 1b d5 97 3c 8d ec cd 3c
       -0.01587729 -0.018152544 0.018534234 0.02513721
000350 a4 49 23 3a 8c 9b c7 3c fc 44 83 bc eb 83 a5 3a
       0.000622893 0.024366163 -0.016024105 0.0012627816
000360 d5 e7 aa bc dd 5c 37 bc 16 37 e2 39 9e 0b 39 3c
       -0.0208625 -0.011191574 0.0004314712 0.011294274
000370 ff ff e6 bc d9 94 02 bd 65 f2 00 3d ad 62 e2 bc
       -0.02819824 -0.031880233 0.031481165 -0.027634943
000380 7f 1a 4a 3c e4 56 86 bb ab 71 5d 3c 05 2a 64 bb
       0.012335419 -0.0040997136 0.01351587 -0.0034815085
000390 ad 81 1b bd b6 73 3d bc 91 58 de bc 81 53 24 bd
       -0.037965465 -0.011563232 -0.027141841 -0.040118698
0003a0 5f cb 63 3c 71 2f 50 3b 5a 2b a8 3c b4 29 f7 3b
       0.013903468 0.0031766559 0.020528484 0.007542813
0003b0 a2 31 aa 3b d9 51 6a bc 6a da 9d bc 6d 45 93 bb
       0.005193905 -0.014301741 -0.019269187 -0.00449436
0003c0 54 3f 24 b6 6b 45 cf 3b 07 14 bd 3b cd d5 0f bc
       -2.4474766e-06 0.006325414 0.0057702097 -0.008779001
0003d0 81 cc 78 bc 72 55 ab bc 40 29 86 3c 5e fd d9 3c
       -0.015185476 -0.020914767 0.016377091 0.026610073
0003e0 1a 4c ae 3b 3d 04 25 bc 6f e7 c1 ba 69 19 1c bd
       0.0053191306 -0.010071811 -0.0014793704 -0.03811017
0003f0 60 54 44 3a e9 ff 85 bb c3 b2 8e 3c c8 a0 71 3c
       0.00074893795 -0.0040893448 0.017419225 0.014747806

bias f4 [80]
000000 26 31 98 3d 37 4b 3a bc b2 ab bb bc d6 73 9b bd
       0.07431249 -0.011370472 -0.02290902 -0.07590453
000010 34 f5 5a bd 5e 8c 90 bd a9 dc 94 3c 03 09 18 bd
       -0.0534565 -0.07058023 0.018171625 -0.03711797
000020 89 37 6c bd 99 e0 ee 3c 26 6d 3d bd 30 38 58 3d
       -0.05767015 0.02915983 -0.04624667 0.05278796
000030 6e d9 a1 bb 35 42 32 3c e0 42 96 3d fe fa 42 3d
       -0.0049392497 0.010880043 0.07336974 0.047602646
000040 6a 72 2b bb 36 d9 38 bd ef 63 84 3c 7d 4e 30 bd
       -0.0026160725 -0.045129023 0.016160933 -0.043043602
000050 d4 78 00 bd 2f 5f 88 3b 35 bc 0e 3c 2a 58 70 3d
       -0.03136523 0.0041617374 0.008711864 0.05867783
000060 f0 2b f2 3c b7 f9 89 3d 73 6d 86 bd f1 60 90 bd
       0.029561967 0.067370825 -0.065638445 -0.0704974
000070 7e d4 f9 bc ca bc 39 3d 93 4a 53 3d bf de 6b 3d
       -0.030496832 0.04534606 0.05158479 0.057585474
000080 86 bc ea 3b 67 e2 93 bb ad 57 f7 3c aa 9c c6 3c
       0.007163587 -0.0045130732 0.030193174 0.024244625
000090 45 93 68 3d 80 4b 66 bd b6 9e a6 bd 5f c8 60 3d
       0.056781072 -0.056224346 -0.081357405 0.05487859
0000a0 fc db d2 3c 1e 3c 63 bd 65 07 41 bd b1 6b 14 bd
       0.025739662 -0.055477254 -0.047126193 -0.036235515
0000b0 8f fc 94 bd 34 00 12 bd 84 db 4d ba 64 c1 6e bd
       -0.07274734 -0.035644725 -0.000785284 -0.0582899
0000c0 88 a8 8a bc ca 7d 60 bd 29 50 3a 3d 8a 28 8d bd
       -0.016926065 -0.05480746 0.045486603 -0.06892498
0000d0 d3 1c 12 bd 1a 3c 42 3d 5e 29 a9 3d 40 93 f7 3c
       -0.03567202 0.0474206 0.08259843 0.030221581
0000e0 dd f9 2f bd 18 05 0f 3d 10 60 68 3d 4e 50 3b ba
       -0.042962898 0.034916967 0.056732237 -0.000714545
0000f0 83 a4 5c bd d7 47 d4 bc 98 55 37 3d 79 3c 0e bd
       -0.053867828 -0.025913162 0.044759363 -0.03472564
000100 0d 8d 1b bd 8b 1f a8 3c 64 26 c9 3c 69 95 e4 3c
       -0.037976313 0.020522853 0.024554439 0.027903276
000110 ff 0f 53 3d 57 36 40 bc 80 96 55 bd ef 78 7d bd
       0.051528927 -0.011731706 -0.05214548 -0.06188291
000120 ae dd 11 bd ab ae 89 bd 31 ab 23 bd 9a 57 2b bd
       -0.0356118 -0.067227684 -0.039958183 -0.04183159
000130 5f 11 82 bd 4e 28 ab bd 50 94 7a 3b 80 dd 4c 3d
       -0.063509695 -0.08357297 0.0038235374 0.050015926
