GAN/u Generator/u_epochs=500_seq=80.pth (torch, 674404 bytes, 31 tensors)

weight f4 [1, 80, 1]
0.014068715 -0.008339466 0.0140624195 0.01277719 -0.0019644615 0.023258355 -0.00495179 -0.014104263
0.011792105 0.0047514318 -0.021197213 0.027394034 -0.008263825 -0.008467224 -0.0012453013 0.0053743557
0.01136507 0.030155994 -0.012288023 0.017492954 0.01364633 -0.017405847 -0.00016858219 0.010413598
0.00096310175 0.013486951 0.004833525 -0.019184966 0.021891197 0.03755698 0.017267516 -0.0020689568
0.022889337 -0.002376733 0.004410804 0.012637052 0.0058972584 -0.005549537 -0.0032865095 -0.0029085677
0.017194524 0.0008037093 -0.007864042 0.01765113 0.008838189 -0.009291172 0.0033374785 0.0007003834
0.012218952 0.012889806 -0.005897896 0.013973851 -0.009606782 -0.01897721 -0.005921565 -0.017393071
0.007305045 -0.0013768016 0.014263466 0.018142708 -0.014860337 0.01551256 -0.022325104 -0.00622026
-0.0073394864 -0.012043485 -0.0013693258 -0.012464819 0.0017625046 0.016285118 -0.02422161 -0.002402596
0.003960005 -0.021464162 -0.008401537 0.0049673137 -0.00565169 -0.0044693504 0.029430533 -0.0058215824
00000000: 7880 663c 41a2 08bc 1066 663c 6b57 513c
00000010: 32be 00bb 4e88 be3c a042 a2bb 9115 67bc
00000020: ac33 413c e6b1 9b3b c7a5 adbc 7469 e03c
00000030: ff64 07bc 1dba 0abc 6139 a3ba 5d1b b03b
00000040: 8f34 3a3c b409 f73c b453 49bc 624d 8f3c
00000050: db94 5f3c b596 8ebc 70c5 30b9 cc9d 2a3c
00000060: aa78 7c3a 5ff8 5c3c 8c62 9e3b ca29 9dbc
00000070: 2b55 b33c 59d5 193d 9b74 8d3c 5697 07bb
00000080: 6b82 bb3c f7c2 1bbb 8188 903b a30b 4f3c
00000090: ca3d c13b e4d8 b5bb 7b62 57bb ab9d 3ebb
000000a0: 88db 8c3c 05b0 523a 2fd8 00bc 1a99 903c
000000b0: 0dce 103c 003a 18bc 99b9 5a3b ef99 373a
000000c0: 0032 483c c42f 533c 2343 c1bb 94f2 643c
000000d0: c465 1dbc 1876 9bbc b009 c2bb ea7b 8ebc
000000e0: 295f ef3b cc75 b4ba 50b1 693c 04a0 943c
000000f0: c578 73bc 6428 7e3c 23e3 b6bc 53d3 cbbb
00000100: 1380 f0bb 0a52 45bc f37a b3ba 3d39 4cbc
00000110: d703 e73a 5e68 853c 666c c6bc df74 1dbb
00000120: eec2 813b 9cd5 afbc 9aa6 09bc d9c4 a23b
00000130: d031 b9bb a173 92bb 4d18 f13c f9c2 bebb

weight f4 [80, 3, 1]
-0.118680224 0.09915264 -0.11149901 0.09961407 -0.06580865 0.095748946 -0.079255335 0.08983067
-0.073841 -0.09788642 0.050163567 -0.07819478 0.13442853 -0.088933036 0.10655136 -0.09042643
0.06471867 -0.10462064 0.042071026 -0.04987427 0.063920304 -0.13206804 0.096999496 -0.117351614
0.1247757 -0.105057724 0.12792291 0.060871635 -0.05162555 0.07585543 -0.123287745 0.069478676
-0.108997464 -0.11858311 0.07881904 -0.08454626 0.09198608 -0.08561894 0.09405739 0.114816606
-0.07874786 0.1245238 0.09584864 -0.06551556 0.12518264 0.07539784 -0.0644071 0.077430405
-0.1076729 0.07309033 -0.10065466 -0.108493276 0.09090312 -0.11339126 0.08664113 -0.0599004
0.10108117 0.08488445 -0.04177351 0.08544027 0.12753728 -0.07666299 0.12521058 0.12506905
-0.08718799 0.11812726 0.14823744 -0.113616236 0.14958547 0.085159585 -0.054493442 0.0895848
-0.12620184 0.09487683 -0.11555767 -0.11079463 0.07746157 -0.11560562 0.103188574 -0.06826069
0.10191461 -0.11017257 0.0631503 -0.092246704 -0.13372928 0.10679646 -0.11219205 0.10386566
-0.063704304 0.11209552 0.14710692 -0.09135428 0.10963434 -0.10114901 0.0917624 -0.117167085
0.06574116 -0.05229442 0.07804846 -0.09231287 0.07059571 -0.10221494 -0.017682053 0.013103626
-0.011895224 -0.08047465 0.047266427 -0.09467554 -0.09905047 0.07175096 -0.12653975 -0.06968843
0.055342402 -0.085160196 0.09153228 -0.054426543 0.077661105 -0.09760964 0.08096338 -0.10404057
-0.08873274 0.058863882 -0.08227763 -0.07469774 0.04778308 -0.056174412 0.09235247 -0.061657794
0.09721617 -0.11512434 0.09572126 -0.10198576 -0.07640342 0.07297433 -0.07258714 0.07479073
-0.054701086 0.08591963 -0.08652052 0.049002774 -0.07884985 0.13069986 -0.10845334 0.12807801
-0.1245251 0.065961845 -0.13392344 0.112787046 -0.073459275 0.112664595 -0.10896096 0.059480708
-0.10244095 -0.09176789 0.09025958 -0.09036043 -0.12997031 0.09161414 -0.10161935 -0.09495274
0.06608741 -0.08945113 0.11496149 -0.09053364 0.10083152 0.098910674 -0.04652437 0.085245915
-0.099920645 0.06989163 -0.083876394 -0.11465743 0.08613182 -0.13389042 -0.0920259 0.06725795
-0.10548539 -0.08643953 0.050809022 -0.08104209 -0.0845816 0.07885804 -0.08177572 -0.08910173
0.07635966 -0.11160857 0.08443637 -0.06347985 0.08047984 0.13099483 -0.079009555 0.10639324
-0.08162121 0.08013898 -0.09973927 0.10834375 -0.06437129 0.10748403 0.12567057 -0.07331763
0.13186972 -0.09478181 0.07443229 -0.10114527 0.024306852 -0.005919152 0.03660673 0.122477055
-0.07087468 0.11839747 -0.104977 0.08944252 -0.08666407 0.13565896 -0.09018255 0.11277771
0.11802713 -0.07935143 0.13217026 -0.10702205 0.07982328 -0.104417875 0.08502345 -0.04679977
0.07853677 -0.062295288 0.033526503 -0.077885315 -0.0010998722 0.0015686353 -0.0003370319 0.1162649
-0.06886646 0.08093283 0.09575156 -0.06572393 0.099528685 -0.109773725 0.07224904 -0.1257184
00000000: 9e0e f3bd 8a10 cb3d 9859 e4bd 7602 cc3d
00000010: afc6 86bd 0618 c43d 9f50 a2bd 24f9 b73d
00000020: f339 97bd ad78 c8bd 5078 4d3d 9624 a0bd
00000030: a2a7 093e 8622 b6bd 9937 da3d 7e31 b9bd
00000040: 398b 843d 5943 d6bd ab52 2c3d f648 4cbd
00000050: a6e8 823d d83c 07be aca7 c63d 0b56 f0bd
00000060: 678a ff3d 8128 d7bd 39fe 023e 8954 793d
00000070: 5075 53bd 175a 9b3d 497e fcbd d64a 8e3d
00000080: 103a dfbd b4db f2bd e06b a13d 9726 adbd
00000090: 3363 bc3d fc58 afbd 29a1 c03d f824 eb3d
000000a0: 8f46 a1bd 5606 ff3d 4b4c c43d 062d 86bd
000000b0: e12f 003e 2f6a 9a3d dfe7 83bd d593 9e3d
000000c0: 9c83 dcbd 62b0 953d 0824 cebd b931 debd
000000d0: 6a2b ba3d ad39 e8bd e870 b13d 1f5a 75bd
000000e0: a503 cf3d e6d7 ad3d b31a 2bbd 4ffb ae3d
000000f0: 2299 023e 7c01 9dbd 3437 003e 1a12 003e
00000100: 9e8f b2bd b4ec f13d 8ecb 173e a1af e8bd
00000110: ef2c 193e 2668 ae3d 8434 5fbd 3c78 b73d
00000120: 0e3b 01be c94e c23d 80a9 ecbd 4ce8 e2bd
00000130: 2ca4 9e3d a4c2 ecbd 8854 d33d 43cc 8bbd
00000140: 9bb8 d03d 28a2 e1bd f254 813d d7eb bcbd
00000150: 54f0 08be 1ab8 da3d f2c4 e5bd 85b7 d43d
00000160: 6777 82bd 5692 e53d 32a3 163e f417 bbbd
00000170: f887 e03d 3627 cfbd eded bb3d 4cf5 efbd
00000180: 4da3 863d ac32 56bd dfd7 9f3d 880e bdbd
00000190: 7c94 903d 1156 d1bd f4d9 90bc 97b0 563c
000001a0: 30e4 42bc e5cf a4bd 719a 413d 40e5 c1bd
000001b0: f9da cabd 2bf2 923d a393 01be cfb8 8ebd
000001c0: b7ae 623d 7868 aebd 4775 bb3d 5eee 5ebd
000001d0: c90c 9f3d 90e7 c7bd 21d0 a53d 3913 d5bd
000001e0: 83b9 b5bd 411b 713d 2d81 a8bd 21fb 98bd
000001f0: 31b8 433d 2417 66bd 4b23 bd3d e28c 7cbd
00000200: 4519 c73d 4fc6 ebbd 8209 c43d e9dd d0bd
00000210: 6579 9cbd 9173 953d 91a8 94bd e22b 993d
00000220: 3f0e 60bd a2f6 af3d ac31 b1bd 22b7 483d
00000230: 087c a1bd 2fd6 053e c91c debd e226 033e
00000240: 0407 ffbd 0117 873d 3a23 09be e5fc e63d
00000250: d171 96bd b2bc e63d ec26 dfbd 0ba2 733d
00000260: 90cc d1bd cef0 bbbd 04da b83d e40e b9bd
00000270: f016 05be 32a0 bb3d ce1d d0bd 9576 c2bd
00000280: d658 873d 2732 b7bd ee70 eb3d b369 b9bd
00000290: c280 ce3d ae91 ca3d 5690 3ebd 6995 ae3d
000002a0: 32a3 ccbd 5823 8f3d 63c7 abbd 84d1 eabd
000002b0: e165 b03d 921a 09be 1378 bcbd 89be 893d
000002c0: b908 d8bd 3507 b1bd 1f1d 503d 65f9 a5bd
000002d0: 1e39 adbd 5380 a13d 077a a7bd f87a b6bd
000002e0: 7462 9c3d 0993 e4bd faec ac3d b901 82bd
000002f0: 9dd2 a43d 8223 063e c3cf a1bd b3e4 d93d
00000300: 0529 a7bd e81f a43d 1a44 ccbd 54e3 dd3d
00000310: 18d5 83bd 9620 dc3d c9af 003e 8e27 96bd
00000320: db08 073e f71c c2bd f56f 983d 4025 cfbd
00000330: 2a1f c73c 72f5 c1bb f0f0 153d 40d5 fa3d
00000340: bf26 91bd 5f7a f23d 2efe d6bd a42d b73d
00000350: ef7c b1bd 2fea 0a3e a1b1 b8bd 00f8 e63d
00000360: 35b8 f13d 0183 a2bd a457 073e 602e dbbd
00000370: 637a a33d 0ad9 d5bd c620 ae3d 1eb1 3fbd
00000380: e3d7 a03d 5829 7fbd 1653 093d 5682 9fbd
00000390: 9629 90ba ab9a cd3a a8b3 b0b9 4b1c ee3d
000003a0: dc09 8dbd 1dc0 a53d 6519 c43d 459a 86bd
000003b0: b2d5 cb3d 0cd1 e0bd 4ef7 933d 53bc 00be

bias f4 [80]
-0.5462319 0.40028936 -0.4002562 -0.06064453 0.41126364 -0.018883629 -0.06430231 -0.35151908
0.434298 0.032817762 0.19083644 -0.42973772 -0.30836293 0.4274486 0.1991528 0.040007524
-0.22703125 -0.37233767 0.12856592 0.42313138 0.20860209 0.497663 0.5031449 0.46904594
-0.31946987 -0.25445813 0.43099087 -0.21396363 -0.54737526 0.2678753 0.47208804 -0.2888815
0.05400219 -0.45624536 -0.08849275 -0.51152104 -0.26942474 -0.47927585 0.08876441 -0.49879396
0.010862576 -0.07394284 0.13660645 -0.48486462 -0.14306316 0.49016187 0.010887429 0.35658795
-0.47881407 0.19443716 -0.2106538 -0.2250811 -0.25493336 -0.02545726 0.5466372 0.31204277
-0.15912235 -0.2762125 -0.12285229 -0.05606961 -0.52478576 -0.28414384 0.10754885 0.2642974
-0.15855029 0.20442177 0.24349095 -0.22825032 0.43427348 0.27031416 -0.21601564 0.31285065
0.30622077 -0.43934232 0.03602149 -0.30997324 -0.4312001 0.26542592 0.33521754 -0.4487021
00000000: dbd5 0bbf baf2 cc3e 61ee ccbe 6666 78bd
00000010: 2691 d23e d7b1 9abc eeb0 83bd 4ffa b3be
00000020: 4f5c de3e eb6b 063d a16a 433e 9506 dcbe
00000030: bfe1 9dbe 8bda da3e b6ee 4b3e eede 233d
00000040: e17a 68be 0ba3 bebe c9a6 033e ada4 d83e
00000050: c99b 553e afcd fe3e 1bce 003f ca26 f03e
00000060: 8e91 a3be 5648 82be d6aa dc3e 4819 5bbe
00000070: c920 0cbf f426 893e 86b5 f13e 47e8 93be
00000080: 6631 5d3d fe98 e9be b03b b5bd 0bf3 02bf
00000090: 0af2 89be a563 f5be 1dca b53d ec61 ffbe
000000a0: f2f8 313c 586f 97bd 90e2 0b3e 2d40 f8be
000000b0: 267f 12be 7ff6 fa3e 3061 323c b292 b63e
000000c0: 1e27 f5be 891a 473e a1b5 57be a97b 66be
000000d0: a086 82be be8b d0bc 6af0 0b3f 12c4 9f3e
000000e0: f8f0 22be ba6b 8dbe fb99 fbbd 3fa9 65bd
000000f0: 5c58 06bf 4d7b 91be 9242 dc3d fd51 873e
00000100: 025b 22be f153 513e b155 793e 74ba 69be
00000110: 1859 de3e 9e66 8a3e 3433 5dbe f62d a03e
00000120: f8c8 9c3e 7af1 e0be 458b 133d d0b4 9ebe
00000130: 42c6 dcbe e8e5 873e a2a1 ab3e 48bc e5be

weight f4 [80, 80, 1]
0.0455735 -0.045189034 0.032592464 -0.04011334 -0.053556632 -0.108500935 0.09070655 0.045743205
-0.059525102 -0.0245275 -0.06813906 0.036667854 0.0656415 -0.041824337 -0.045652222 -0.027160233
0.050354373 0.06077151 -0.041526806 -0.03850834 -0.014148671 -0.06900703 -0.047486853 -0.046360508
0.047840536 0.05247413 -0.04299236 0.048453573 0.05003418 -0.03721727 -0.059171826 0.044763006
-0.063193314 0.06447014 0.03596477 0.05229024 0.035557337 0.062421057 -0.03307722 0.048799574
-0.09450394 0.014481738 -0.049955327 0.052603185 0.03892636 -0.04228349 -0.090815425 -0.055508383
0.040707964 -0.06757884 0.05706494 0.034678794 0.042088907 -0.10253495 -0.054233547 -0.04050657
0.027584588 0.04248654 0.03549969 -0.026873486 0.042264912 0.060435012 -0.018706413 -0.042478528
0.048819907 -0.024454731 -0.029449262 0.041345563 -0.045528285 -0.05886607 0.043179687 -0.048643038
-0.047100402 0.036837276 -0.020942722 0.057688076 0.04615312 -0.047604136 -0.035455808 0.052105043
0.03554552 -0.04189486 0.03875626 0.06964322 -0.021628052 0.033121888 0.0030020182 0.061650883
-0.03488296 -0.062630855 -0.03370909 0.03090906 0.025661647 -0.04331334 -0.04305078 -0.06807792
0.04214758 0.04611179 -0.05123618 -0.03076697 -0.04610271 -0.027299995 -0.047787365 -0.058432933
0.03312722 0.05664221 -0.05071709 0.04378384 0.027236776 -0.048895985 -0.06262853 0.028540246
-0.048127506 0.058373384 0.04051653 0.06680645 0.042699654 0.0439686 -0.06897025 0.04971279
0.03470123 0.041889403 -0.05087158 0.041248787 0.051305287 -0.03606852 0.009623632 -0.05434819
0.02660635 -0.043795526 0.03340156 0.016441844 0.022444831 0.035798747 -0.047953743 -0.030676909
0.033522233 0.052691087 0.05172178 0.062442698 0.053686697 0.047804702 -0.06251304 -0.032577902
0.0439728 -0.05075295 -0.05969488 0.039519202 -0.033086304 -0.046035696 0.045115773 -0.0586178
-0.056816217 0.030683987 -0.06646291 0.04943251 0.033077832 -0.03481374 -0.039520834 0.05924544
0.016572243 0.0009181615 0.008829101 -0.047408674 0.0014147387 -0.058461674 0.024610443 0.0070974794
-0.025985656 -0.0046319244 -0.03285533 0.020725591 0.047312655 -0.015469619 -0.010313528 0.014343582
0.009070884 0.030968647 -0.007161541 -0.002786914 -0.007991205 -0.0029127784 -0.015147354 -0.008365355
0.0027043815 0.003708908 0.0029702738 -0.02016491 0.016922722 -0.008481822 -0.0018272308 0.014047544
0.0035141432 0.007679026 0.009948606 0.023919139 0.0018876311 0.03736866 -0.003924664 0.009358675
-0.08753938 0.012306549 0.00023844383 0.022688648 0.019840496 0.0008712549 -0.080638744 -0.0047843764
-0.010625188 -0.0104344515 0.005493021 0.014406381 0.02203784 -0.033514682 -0.022143282 -0.016111746
0.018340537 0.025548022 0.0046993876 -0.05418875 0.016554942 0.017702281 0.008358666 -0.0054636737
0.026335087 0.006272142 -0.008224196 -0.0022152818 0.0049213534 0.0025219736 0.0053053903 -0.0075827125
-0.0012932663 0.034179177 0.007990543 0.025498632 0.008816532 -0.017173402 -0.030917576 0.013721553
0.037568614 -0.020874348 0.04141021 -0.023844007 -0.032879986 -0.06603752 0.04699718 0.011130087
-0.031102674 0.0047893412 -0.037361063 0.03222967 0.051959317 -0.018419584 -0.025203882 0.00764534
00000000: 47ab 3a3d 2318 39bd ad7f 053d e34d 24bd
00000010: 335e 5bbd bd35 debd 5bc4 b93d 3a5d 3b3d
00000020: 98d0 73bd e5ed c8bc 7e8c 8bbd 0831 163d
00000030: 0d6f 863d ff4f 2bbd d3fd 3abd 237f debc
00000040: 6340 4e3d 8ceb 783d 0318 2abd ecba 1dbd
00000050: d4cf 67bc 8f53 8dbd 9381 42bd 84e4 3dbd
00000060: 70f4 433d 1def 563d c218 30bd 4177 463d
00000070: a4f0 4c3d 2371 18bd 285e 72bd 6a59 373d
00000080: 7f6b 81bd ec08 843d cb4f 133d 4a2e 563d
00000090: 92a4 113d 39ad 7f3d fb7b 07bd 10e2 473d
000000a0: 488b c1bd d044 6d3c f59d 4cbd 7076 573d
000000b0: 3f71 1f3d 7431 2dbd 70fd b9bd c25c 63bd
000000c0: 65bd 263d c666 8abd edbc 693d 5a0b 0e3d
000000d0: 6b65 2c3d d8fd d1bd ff23 5ebd 38ea 25bd
000000e0: 13f9 e13c 5e06 2e3d 1f68 113d c925 dcbc
000000f0: f91d 2d3d b48a 773d 313e 99bc f7fd 2dbd
00000100: 62f7 473d 4a55 c8bc 943f f1bc f759 293d
00000110: de7b 3abd 8c1d 71bd 2fdd 303d ec3d 47bd
00000120: 5aec 40bd afe2 163d 1290 abbc 554a 6c3d
00000130: 0e0b 3d3d 8efc 42bd 1c3a 11bd 196c 553d
00000140: 2e98 113d f299 2bbd e2be 1e3d 1ba1 8e3d
00000150: 502d b1bc d1aa 073d 82bd 443b a385 7c3d
00000160: 6fe1 0ebd 9b44 80bd 8b12 0abd ff34 fd3c
00000170: 6038 d23c 5469 31bd 0456 30bd 706c 8bbd
00000180: f1a2 2c3d b7df 3c3d 07dd 51bd 030b fcbc
00000190: 32d6 3cbd 3da4 dfbc afbc 43bd 5f57 6fbd
000001a0: 68b0 073d a901 683d b9bc 4fbd af56 333d
000001b0: a91f df3c 2847 48bd 6343 80bd 3ccd e93c
000001c0: 5921 45bd ee18 6f3d a9f4 253d d2d1 883d
000001d0: d5e5 2e3d 6b18 343d 4640 8dbd a39f 4b3d
000001e0: e022 0e3d 3994 2b3d b85e 50bd 7df4 283d
000001f0: 7e25 523d 96bc 13bd 70ac 1d3c 359c 5ebd
00000200: 8ff5 d93c f062 33bd 13d0 083d 0cb1 863c
00000210: 39de b73c b5a1 123d 256b 44bd 244e fbbc
00000220: 9c4e 093d 9cd2 573d 38da 533d eac3 7f3d
00000230: 95e6 5b3d ddce 433d d606 80bd 6870 05bd
00000240: d31c 343d 53e2 4fbd 9e82 74bd e3de 213d
00000250: 8185 07bd ed8f 3cbd 51cb 383d 3819 70bd
00000260: 1fb8 68bd fc5c fb3c b51d 88bd be79 4a3d
00000270: 9f7c 073d da98 0ebd 99e0 21bd 59ab 723d
00000280: 83c2 873c c6b0 703a efa7 103c 992f 42bd
00000290: c16e b93a 8275 6fbd d79b c93c f991 e83b
000002a0: dfdf d4bc 66c7 97bb 4f93 06bd b7c8 a93c
000002b0: eaca 413d 4974 7dbc 12fa 28bc 5801 6b3c
000002c0: 0c9e 143c f6b1 fd3c 5cab eabb a8a4 36bb
000002d0: 8bed 02bc 50e4 3ebb 9c2c 78bc d80e 09bc
000002e0: fe3b 313b 2711 733b eda8 423b e230 a5bc
000002f0: 85a1 8a3c 57f7 0abc b17f efba ac27 663c
00000300: 8a4d 663b 57a0 fb3b 7aff 223c 12f2 c33c
00000310: 646a f73a e10f 193d 789a 80bb 2155 193c
00000320: d947 b3bd 68a1 493c c706 7a39 8bdd b93c
00000330: 8988 a23c ed64 643a ed25 a5bd 42c6 9cbb
00000340: 4515 2ebc 43f5 2abc cdfe b33b be08 6c3c
00000350: b388 b43c b146 09bd d465 b5bc c8fc 83bc
00000360: e53e 963c 164a d13c 52fd 993b 06f5 5dbd
00000370: 3b9e 873c 6004 913c c9f2 083c 9e08 b3bb
00000380: aebc d73c 8a86 cd3b c7be 06bc 432e 11bb
00000390: 4e43 a13b b247 253b d7d8 ad3b 6778 f8bb
000003a0: d182 a9ba 77ff 0b3d c4ea 023c 82e2 d03c
000003b0: 3773 103c 3caf 8cbc db46 fdbc 5dd0 603c
000003c0: 8ce1 193d ae00 abbc c19d 293d 8254 c3bc
000003d0: 2aad 06bd ae3e 87bd 1d80 403d f85a 363c
000003e0: 09cb febc e8ef 9c3b ea07 19bd 4203 043d
000003f0: 4bd3 543d abe4 96bc 5f78 cebc c385 fa3b

bias f4 [80]
0.010721349 -0.0765956 -0.12783271 0.061123095 0.064718276 0.054767128 -0.11081627 -0.095986314
0.08025746 0.063035436 0.009232594 0.08146719 -0.091090724 -0.10239617 -0.10332718 -0.027424203
-0.106718384 0.022153663 0.037384454 -0.005328798 -0.00019814949 -0.047315415 -0.03223895 0.014696432
-0.020694567 -0.06796084 -0.14301506 -0.0069044554 0.008153325 0.061158847 -0.13149357 -0.06872841
-0.0011145587 0.13532057 -0.040717103 0.08402255 0.036172584 0.06874964 0.028193494 -0.07145605
0.03696143 -0.059277333 0.06762141 0.09501036 0.03418743 -0.064337425 -0.062709406 0.04067556
-0.011357453 -0.15023956 -0.105128825 -0.0974272 -0.024282489 -0.04823572 0.050053257 -0.020274535
-0.022566473 -0.0612354 -0.100682944 -0.0031128 -0.08212173 -0.022616325 0.09975954 -0.097030595
-0.007149492 -0.11081226 -0.019369522 -0.013586258 -0.13546813 0.035712693 0.010622441 0.07098767
0.09401837 0.026446477 0.016475175 -0.08130908 -0.03537135 -0.083324924 0.04389472 0.00050848286
00000000: 99a8 2f3c 27de 9cbd 94e6 02be 365c 7a3d
00000010: 048b 843d 7f53 603d a4f3 e2bd 7994 c4bd
00000020: 065e a43d b918 813d 4e44 173c 45d8 a63d
00000030: c68d babd 15b5 d1bd 339d d3bd b9a8 e0bc
00000040: 2b8f dabd 997b b53c 7120 193d 339d aebb
00000050: 59c6 4fb9 cfcd 41bd fd0c 04bd 4ec9 703c
00000060: a787 a9bc 0e2f 8bbd 8a72 12be c53e e2bb
00000070: 8695 053c b381 7a3d 40a6 06be 7bc1 8cbd
00000080: 6216 92ba 7a91 0a3e fac6 26bd 0414 ac3d
00000090: b429 143d 9ccc 8c3d 0bf6 e63c 8d57 92bd
000000a0: de64 173d cacc 72bd 187d 8a3d cb94 c23d
000000b0: 1e08 0c3d 57c3 83bd ca6d 80bd 6a9b 263d
000000c0: 9c14 3abc 66d8 19be c84d d7bd e987 c7bd
000000d0: 12ec c6bc d192 45bd a504 4d3d c816 a6bc
000000e0: 53dd b8bc f9d1 7abd dc32 cebd 1e00 4cbb
000000f0: 702f a8bd df45 b9bc bb4e cc3d fab7 c6bd
00000100: 4946 eabb 8af1 e2bd d5ac 9ebc e598 5ebc
00000110: 28b8 0abe 7947 123d bf09 2e3c fc61 913d
00000120: b48c c03d 48a6 d83c f2f6 863c 6085 a6bd
00000130: 8ce1 10bd 42a6 aabd f3ca 333d b54b 053a

weight f4 [80, 3, 1]
0.09960303 -0.0716307 0.089602016 -0.12977108 0.071713865 -0.14193748 0.12147189 -0.09262197
0.1136596 0.083102584 -0.06392015 0.084999904 -0.12616998 0.070641086 -0.13297051 0.12172448
-0.103696205 0.10441482 -0.14009708 0.101829305 -0.14265987 -0.11593213 0.07577395 -0.119117014
0.11066911 -0.06623506 0.100449316 -0.046582583 0.053573985 -0.05886636 -0.12697548 0.07917223
-0.12280461 0.08629363 -0.09342256 0.10671847 -0.10704842 0.052227415 -0.08287148 -0.15028878
0.10571513 -0.14462735 -0.11772087 0.091747425 -0.13623422 0.045956578 -0.02458051 0.042584315
0.1306489 -0.10258616 0.14567283 0.14870025 -0.11214602 0.1515003 -0.16368324 0.1052162
-0.14893284 0.12533806 -0.08073509 0.09777304 0.12635335 -0.065274574 0.11124319 -0.059727598
0.028891608 -0.06603907 0.049249947 -0.048836697 0.04822681 0.10864678 -0.08180678 0.079230405
0.04866643 -0.02873345 0.02048676 0.14892003 -0.09361074 0.14264545 0.055467736 -0.03888134
0.05921909 -0.14232893 0.0974552 -0.15400131 0.11545539 -0.09431843 0.114513665 0.0997166
-0.0800422 0.09028967 0.025945133 -0.022749756 0.024157092 -0.1651101 0.11198754 -0.12690158
0.13102187 -0.09372308 0.10957687 -0.07364995 0.071619235 -0.06896742 0.12373531 -0.089743294
0.1252569 0.17000264 -0.1180853 0.16584913 0.11437854 -0.10037078 0.13966382 -0.14449146
0.09335821 -0.10409006 -0.10467371 0.07513509 -0.10786617 -0.13254493 0.08131504 -0.11840884
0.13339674 -0.08269576 0.13092765 0.0785292 -0.050795093 0.06150504 -0.18035914 0.14015901
-0.17071004 0.16602825 -0.10554659 0.14926982 0.08551815 -0.058806576 0.08545057 0.011226019
0.0076631107 -0.02617335 0.0940319 -0.07935748 0.1105201 -0.06740965 0.059951693 -0.0375548
0.16343842 -0.113352224 0.15883765 0.056498915 -0.06891846 0.05765678 -0.1283024 0.09898752
-0.12460858 0.019854637 -0.027136672 0.048308514 -0.09526629 0.0805981 -0.100583956 -0.1331993
0.10083592 -0.14811301 -0.12254232 0.06422764 -0.12877902 -0.15431327 0.1126093 -0.14437665
0.15595338 -0.13463219 0.15882397 -0.003358793 0.02094498 -0.011855742 0.15653189 -0.1068668
0.15186843 0.15301445 -0.10600265 0.16538028 -0.12944798 0.07834126 -0.11466705 0.13041556
-0.08179108 0.1438463 -0.07208481 0.08029719 -0.051022965 -0.124491096 0.07129105 -0.12711443
-0.14835098 0.10290862 -0.15561773 -0.13248926 0.080100186 -0.12962842 -0.10723903 0.060279258
-0.108050436 -0.13040826 0.07020464 -0.123415895 0.119385056 -0.09650983 0.11777178 0.13327
-0.11922698 0.14000295 -0.099516034 0.08254698 -0.113465436 -0.12496784 0.09743261 -0.115152664
0.14004019 -0.08364546 0.12104081 -0.1599555 0.10206439 -0.13017997 -0.13757543 0.095496126
-0.1493508 0.12142244 -0.10802446 0.1438063 -0.14092422 0.075076014 -0.12611447 -0.14142238
0.06369924 -0.14831801 0.10863596 -0.10658399 0.12534747 -0.12838617 0.095264435 -0.1424549
00000000: acfc cb3d 1eb3 92bd 4381 b73d b6e2 04be
00000010: b8de 923d 0f58 11be 41c6 f83d 96b0 bdbd
00000020: 5dc6 e83d b031 aa3d 91e8 82bd 6e14 ae3d
00000030: b432 01be 46ac 903d 6c29 08be af4a f93d
00000040: ad5e d4bd 70d7 d53d 9c75 0fbe e28b d03d
00000050: 6e15 12be d36d edbd 5f2f 9b3d 9ff3 f3bd
00000060: 7da6 e23d 3fa6 87bd 5fb8 cd3d 61cd 3ebd
00000070: 6570 5b3d da1d 71bd dc05 02be 0d25 a23d
00000080: fc80 fbbd b7ba b03d 5454 bfbd 378f da3d
00000090: 343c dbbd 6aec 553d 86b8 a9bd 4de5 19be
000000a0: 2d81 d83d 3119 14be a417 f1bd 13e6 bb3d
000000b0: fc80 0bbe f73c 3c3d 115d c9bc e46c 2e3d
000000c0: d3c8 053e b118 d2bd 422b 153e e144 183e
000000d0: d0ac e5bd e522 1b3e 949c 27be 977b d73d
000000e0: da81 18be 9f58 003e 7058 a5bd 3b3d c83d
000000f0: c662 013e adae 85bd 78d3 e33d eda4 74bd
00000100: 18ae ec3c 7e3f 87bd 50ba 493d fd08 48bd
00000110: 7a89 453d 3482 de3d 508a a7bd 8d43 a23d
00000120: 7356 473d 6a62 ebbc dad3 a73c 7e7e 183e
00000130: fdb6 bfbd a611 123e 2332 633d 0a42 1fbd
00000140: b78f 723d adbe 11be 9896 c73d 85b2 1dbe
00000150: e073 ec3d 052a c1bd 2486 ea3d 3738 cc3d
00000160: 2aed a3bd cae9 b83d e38a d43c b25d babc
00000170: 18e5 c53c 9f12 29be b959 e53d 7df2 01be
00000180: 992a 063e e3f1 bfbd d769 e03d c9d5 96bd
00000190: 1bad 923d ca3e 8dbd f068 fd3d 55cb b7bd
000001a0: 5843 003e 2c15 2e3e b5d6 f1bd 5bd4 293e
000001b0: 4c3f ea3d 328f cdbd 0804 0f3e 92f5 13be
000001c0: 9732 bf3d 2b2d d5bd 2c5f d6bd 6de0 993d
000001d0: f0e8 dcbd dcb9 07be 8088 a63d 5580 f2bd
000001e0: 2899 083e 655c a9bd e611 063e ebd3 a03d
000001f0: 840e 50bd b5ec 7b3d 11b0 38be d885 0f3e
00000200: 9dce 2ebe 4f03 2a3e d028 d8bd 30da 183e
00000210: 2424 af3d 2adf 70bd b500 af3d 56ed 373c
00000220: d51a fb3b 7e69 d6bc cc93 c03d 2d86 a2bd
00000230: 5d58 e23d 120e 8abd e88f 753d 10d3 19bd
00000240: 675c 273e 3625 e8bd 56a6 223e 686b 673d
00000250: 1f25 8dbd 8429 6c3d b461 03be f8b9 ca3d
00000260: c832 ffbd 31a6 a23c ba4d debc 26df 453d
00000270: f91a c3bd 9e10 a53d f6fe cdbd 6665 08be
00000280: 1083 ce3d f0aa 17be 78f7 fabd c889 833d
00000290: a6de 03be 4c04 1ebe b49f e63d 79d7 13be
000002a0: 3eb2 1f3e 05dd 09be c0a2 223e 321f 5cbb
000002b0: cf94 ab3c 963e 42bc e549 203e fbdc dabd
000002c0: 6683 1b3e d2af 1c3e eb17 d9bd 7359 293e
000002d0: 038e 04be 6271 a03d 8fd6 eabd a88b 053e
000002e0: 1582 a7bd 724c 133e 33a1 93bd da72 a43d
000002f0: 75fd 50bd 30f5 febd 0b01 923d 492a 02be
00000300: 52e9 17be c1c1 d23d 415a 1fbe 44ab 07be
00000310: 910b a43d 50bd 04be 23a0 dbbd 62e7 763d
00000320: 8c49 ddbd be89 05be 73c7 8f3d 79c1 fcbd
00000330: 2780 f43d f2a6 c5bd 5532 f13d ee77 083e
00000340: 462d f4bd ef5c 0f3e 10cf cbbd 640e a93d
00000350: 9160 e8bd 24ef ffbd c08a c73d 29d5 ebbd
00000360: b266 0f3e 504e abbd 3fe4 f73d 60cb 23be
00000370: 2307 d13d e64d 05be 93e0 0cbe 7993 c33d
00000380: 6bef 18be 54ac f83d ee3b ddbd f541 133e
00000390: 704e 10be 74c1 993d 2724 01be 07d1 10be
000003a0: bf74 823d ade0 17be 887c de3d b548 dabd
000003b0: 165b 003e aa77 03be 001a c33d b3df 11be

bias f4 [80]
0.49408796 0.5017158 0.2106923 0.15853326 0.04680988 0.12434 0.06560394 0.15254018
0.18708499 -0.3559085 0.2574489 0.3639517 -0.41268727 -0.0576706 0.18782733 0.31139836
-0.09738018 -0.07101322 -0.089874595 0.12408974 -0.28722107 -0.5009074 0.4510948 -0.38651508
-0.32719442 0.13557151 0.2948142 0.43011189 0.31946814 0.35976613 0.3488748 -0.012202392
0.21255025 -0.43432632 0.235992 -0.19322507 0.33252063 -0.2030716 -0.35132575 -0.09623001
-0.40428403 -0.4623629 -0.067764066 -0.18465368 0.33261138 -0.5327811 0.45639038 -0.42300504
-0.06282073 0.4239839 -0.1652685 0.458519 -0.31018734 0.47243634 0.11645721 0.43288848
-0.00047432727 0.32126307 -0.13425462 0.036483895 -0.25421047 -0.14674541 -0.3402048 -0.35671028
0.37140384 0.26691785 0.15106626 -0.26945806 0.20794286 -0.027214244 0.24246 -0.32779747
0.041667975 0.39971367 -0.12951386 -0.5134763 -0.12225254 0.09874923 0.33147863 -0.0765893
00000000: 19f9 fc3e 7270 003f b9bf 573e 8b56 223e
00000010: b7bb 3f3d f8a5 fe3d 5c5b 863d 7e33 1c3e
00000020: 3593 3f3e a439 b6be 58d0 833e e157 ba3e
00000030: bf4b d3be 0238 6cbd cf55 403e 9b6f 9f3e
00000040: 436f c7bd 616f 91bd 2c10 b8bd c322 fe3d
00000050: a40e 93be 783b 00bf e6f5 e63e 4ee5 c5be
00000060: 0786 a7be 42d3 0a3e e3f1 963e a037 dc3e
00000070: 5491 a33e 4433 b83e b89f b23e 8bec 47bc
00000080: c6a6 593e 0560 debe e3a7 713e cbdc 45be
00000090: 2540 aa3e 00f2 4fbe f8e0 b3be 3d14 c5bd
000000a0: 51fe cebe d4ba ecbe e3c7 8abd db15 3dbe
000000b0: 0a4c aa3e 5864 08bf 00ac e93e 1e94 d8be
000000c0: 28a8 80bd 6b14 d93e 253c 29be 01c3 ea3e
000000d0: e0d0 9ebe 2de3 f13e 1e81 ee3d 8fa3 dd3e
000000e0: 21af f8b9 987c a43e 0b7a 09be 2370 153d
000000f0: e027 82be 6e44 16be 532f aebe bba2 b6be
00000100: a528 be3e 75a9 883e 1db1 1a3e 68f6 89be
00000110: f9ee 543e 68f0 debc 6f47 783e 12d5 a7be
00000120: 0aac 2a3d 45a7 cc3e 489f 04be 2f73 03bf
00000130: 8a5f fabd 093d ca3d 91b7 a93e dada 9cbd

weight f4 [80, 80, 2]
0.015629787 -0.012604636 -0.00012333268 0.0036561652 0.012229857 -0.018428361 0.008653282 -0.00026751365
-0.049582243 -0.009697779 0.023063919 -0.023472138 -0.04347472 -0.014012944 -0.016708413 0.018051147
0.015621975 -0.014448158 -0.018436022 0.008895198 0.003438524 0.017395595 0.012602323 -0.011596072
0.0012935337 -0.003608588 0.00851597 0.004707403 -0.011860182 0.020801043 0.0054434366 0.017939942
0.016969254 0.014433752 0.0034690644 -0.00030522572 -0.01466544 0.021052228 -0.017755765 -0.02224888
0.018336996 0.0026892375 -0.020871064 -0.053460393 -0.009812787 0.0022925232 0.0019475922 -0.006880795
0.008347298 -0.020187298 0.0249016 -0.027212832 0.0076118126 -0.003811425 -0.010050656 -0.004172275
0.015462161 0.0019442997 -0.008310205 5.8061134e-05 0.0011659046 0.016557109 -0.0040107444 0.017160334
0.0009228265 -0.018193945 0.0021395127 0.011533421 -0.0054498315 -0.0054853647 0.011769686 0.022313433
0.011561885 -0.019226424 0.0023235227 0.014905675 -0.001165319 0.021453114 0.004453284 0.007571834
0.01148185 -0.027151925 0.0064346585 -0.0063113426 -0.028289488 -0.012538929 0.031283967 0.0139027415
-0.01723106 0.0074506435 -0.008514704 -0.045228306 -0.0074241017 -0.01560233 0.0017734892 -0.0024024297
0.015183705 0.008751665 0.0073752883 -0.005650931 -0.0033313574 0.011631237 -0.00055595604 -0.0037974087
0.010605981 0.012591296 -0.0005355369 0.02097351 -0.021056676 0.0109007945 0.017311689 0.010778961
0.015212588 -0.01654598 -0.0003615255 0.007162976 0.026549675 0.014485738 0.006900946 -0.038203135
-0.0020169772 0.017427625 0.0466351 0.020513827 0.007863372 0.015516372 -0.00410921 0.008041716
0.011844951 0.010653211 -0.0012972461 0.024592297 -0.019480007 -0.003063767 -0.015179186 0.011288886
0.020568196 -0.021605222 0.0045087016 -0.044270124 -0.0060206996 -0.008091455 -0.0047182054 0.024361156
-0.015317805 -0.03135683 -0.0032826844 0.0046192347 -0.0028505654 0.003415858 0.016059639 -0.0015959413
0.010869737 0.021470364 -0.075701706 -0.047456663 0.0014181047 -0.011557375 -0.00095721346 0.0022302745
0.0029718338 -0.0061009107 0.0028091432 0.0011694812 0.007568981 -0.0034592117 -0.0033628105 -0.014519766
-0.06389813 -0.03661486 -0.00028833988 -0.023944154 -0.035327148 -0.038538117 -0.020665374 0.005694922
0.0052114404 -0.024797311 0.029652534 0.022232708 -0.013590342 0.012766692 -0.0056902124 -0.008120132
0.004939013 0.029075548 -0.038183283 -0.026046947 -0.017712103 0.0021281748 0.0025618733 0.01224052
0.017517455 0.020426042 0.00716133 -0.0039264704 0.0074774865 -0.0029066473 0.006238254 -0.007915979
-0.012034694 -0.019790117 -0.018096106 -0.0105641205 0.0070154243 0.00086648256 6.6888756e-06 -0.016671851
-0.008298403 0.008821911 0.002024288 -0.0055503775 -0.009390379 -0.0061470405 0.0051690494 0.004400978
-0.012371322 -0.013705824 -0.010847209 -0.006374246 -0.0015991135 0.0028311948 -0.010800644 -0.018412435
-0.020999374 0.0006303802 0.0019274225 0.017206324 -0.004849751 -0.007980411 0.01367931 0.0026150306
0.006397579 -0.0024758417 0.00035531403 -0.010507197 0.00092085043 0.0059156283 0.003830167 0.011849264
-0.024661452 -0.021676205 0.009787097 -0.011305638 0.0016176515 -0.014387025 0.01006825 0.016766101
0.01205997 -0.017604226 -0.03045551 -0.04195467 0.00022142465 -0.009861117 2.2102315e-05 -0.002556872
00000000: 0a0a 803c ad83 4ebc dd52 01b9 469c 6f3b
00000010: bd5f 483c 13f7 96bc 7fc6 0d3c 1341 8cb9
00000020: c016 4bbd 6fe3 1ebc 8bf0 bc3c a448 c0bc
00000030: 8c12 32bd 8c96 65bc 15e0 88bc 00e0 933c
00000040: 50f3 7f3c f8b7 6cbc 2407 97bc 2abd 113c
00000050: dc58 613b 3581 8e3c f979 4e3c 74fd 3dbc
00000060: ca8b a93a 0f7e 6cbb 9186 0b3c 8f40 9a3b
00000070: 3551 42bc f366 aa3c db5e b23b c9f6 923c
00000080: 1b03 8b3c 8b7b 6c3c 3e59 633b b406 a0b9
00000090: 5047 70bc b975 ac3c 8a74 91bc 4843 b6bc
000000a0: 7837 963c eb3d 303b cbf9 aabc 49f9 5abd
000000b0: d0c5 20bc 283e 163b 5a46 ff3a 4b78 e1bb
000000c0: 1bc3 083c d55f a5bc 71fe cb3c 72ed debc
000000d0: 836c f93b 1ac9 79bb 82ab 24bc 94b7 88bb
000000e0: 0155 7d3c dfd7 fe3a 8727 08bc ab86 7338
000000f0: 44d1 983a c6a2 873c 906c 83bb d493 8c3c
00000100: d7e9 713a 780b 95bc 1137 0c3b adf6 3c3c
00000110: 8094 b2bb 93be b3bb a4d5 403c a9ca b63c
00000120: 0f6e 3d3c bc80 9dbc 3e46 183b ef36 743c
00000130: 9ebd 98ba 71be af3c dbec 913b 261d f83b
00000140: 5f1e 3c3c b76d debc d4d9 d23b 61cf cebb
00000150: 5bbf e7bc 1470 4dbc 9e23 003d 53c8 633c
00000160: 2728 8dbc 8724 f43b 4281 0bbc 5141 39bd
00000170: e145 f3bb eaa0 7fbc 6c74 e83a 1572 1dbb
00000180: 13c5 783c 2563 0f3c 67ac f13b 722b b9bb
00000190: e752 5abb f290 3e3c 94bd 11ba f2dd 78bb
000001a0: b5c4 2d3c b94b 4e3c 4663 0cba a3d0 ab3c
000001b0: 0d7f acbc 3f99 323c 3ed1 8d3c 3d9a 303c
000001c0: 383e 793c 6f8b 87bc 228b bdb9 66b7 ea3b
000001d0: b47e d93c 9755 6d3c 5521 e23b e47a 1cbd
000001e0: 432f 04bb 61c4 8e3c 7204 3f3d 9d0c a83c
000001f0: 5fd5 003c 6238 7e3c 8da6 86bb 67c1 033c
00000200: 5311 423c ce8a 2e3c 5b08 aaba c975 c93c
00000210: 8994 9fbc 7bc9 48bb 1fb2 78bc 05f5 383c
00000220: a27e a83c 6ffd b0bc bbbd 933b 9754 35bd
00000230: 4a49 c5bb 0692 04bc 2d9b 9abb 0c91 c73c
00000240: 88f7 7abc 0570 00bd 4e22 57bb f35c 973b
00000250: 8dd0 3abb 96dc 5f3b 818f 833c e72e d1ba
00000260: fb16 323c 9ee2 af3c 7f09 9bbd eb61 42bd
00000270: b3df b93a 255b 3dbc 82ed 7aba cc29 123b
00000280: 19c3 423b 26ea c7bb 9a19 383b 4749 993a
00000290: 3705 f83b f1b3 62bb 9962 5cbb 50e4 6dbc
000002a0: 06dd 82bd 77f9 15bd 532c 97b9 8826 c4bc
000002b0: 33b3 10bd 25da 1dbd 6e4a a9bc 789c ba3b
000002c0: bbc4 aa3b bb23 cbbc dfe9 f23c 5e21 b63c
000002d0: 07aa 5ebc 632b 513c f674 babb 4d0a 05bc
000002e0: 72d7 a13b d82f ee3c 1366 1cbd 6860 d5bc
000002f0: f918 91bc d978 0b3b 1ae5 273b 768c 483c
00000300: c480 8f3c 8454 a73c 97a9 ea3b 9fa9 80bb
00000310: b405 f53b 737d 3ebb 446a cc3b 06b2 01bc
00000320: 2a2d 45bc e21e a2bc 493e 94bc 2215 2dbc
00000330: a5e1 e53b a924 633a 0171 e036 6893 88bc
00000340: 06f6 07bc c789 103c eba9 043b f1df b5bb
00000350: 1bda 19bc 1d6d c9bb 2161 a93b 1436 903b
00000360: 16b1 4abc 648e 60bc 7eb8 31bc 0ddf d0bb
00000370: 5899 d1ba 918b 393b 2ff5 30bc add5 96bc
00000380: e106 acbc 1940 253a 91a1 fc3a 47f4 8c3c
00000390: a9ea 9ebb 45c0 02bc 2f1f 603c ef60 2b3b
000003a0: c8a2 d13b bb41 22bb 7149 ba39 6126 2cbc
000003b0: 3a65 713a e3d7 c13b 8a03 7b3b 6a23 423c
000003c0: d006 cabc 4c92 b1bc 0f5a 203c 483b 39bc
000003d0: 6107 d43a 8eb7 6bbc 4df5 243c 1059 893c
000003e0: 2e97 453c bd36 90bc d57d f9bc a9d8 2bbd
000003f0: 3a2e 6839 8690 21bc 5c68 b937 3291 27bb

bias f4 [80]
-0.032623366 5.378058e-06 -0.034983117 -0.063983634 -0.029383365 -0.061669957 -0.03011033 0.06756906
0.03890112 0.02228124 0.02399756 -0.01371173 -0.018949956 0.05805852 -0.034980442 0.07589533
0.066451125 -0.058488213 0.0358604 -0.058419235 0.03676731 0.06369754 -0.028252812 -0.040435676
-0.015507277 -0.022048485 0.056853466 0.0041328287 0.019686984 -0.018240016 0.0562966 0.01321624
0.037797734 -0.058066797 -0.056797497 0.014020406 -0.050445307 0.015336212 -0.068388954 0.04301818
0.064450175 0.058417883 -0.01589249 0.013612204 -0.052154705 0.004384775 -0.061178107 0.0077754958
0.019182725 0.073259264 -0.035306185 0.029799895 0.006110777 -0.051066943 0.03544165 -0.07984953
0.0070325662 -0.025897162 -0.06519785 -0.03629212 0.059868664 -0.006545528 -0.03908718 0.05942062
-0.050370906 -0.013002772 0.012069099 -0.023780927 0.032733265 -0.0665157 -0.07269484 0.030965872
-0.015455497 -0.055879693 0.05787933 -0.08568693 -0.010907379 0.020082127 -0.0708776 0.044389307
00000000: 14a0 05bd 2b75 b436 754a 0fbd da09 83bd
00000010: 62b5 f0bc a399 7cbd f0a9 f6bc a661 8a3d
00000020: c856 1f3d 2687 b63c 8896 c43c 2aa7 60bc
00000030: f03c 9bbc c5ce 6d3d a747 0fbd 036f 9b3d
00000040: 8717 883d 5691 6fbd 5be2 123d 0249 6fbd
00000050: 5299 163d db73 823d 7172 e7bc e19f 25bd
00000060: 3c12 7ebc 069f b4bc 2edf 683d ae6c 873b
00000070: 9946 a13c 166c 95bc 4397 663d ee88 583c
00000080: ccd1 1a3d 73d7 6dbd 7ea4 68bd d8b5 653c
00000090: bd9f 4ebd bc44 7b3c 820f 8cbd d533 303d
000000a0: 74fe 833d 9747 6f3d f830 82bc b905 5f3c
000000b0: 2ca0 55bd 29ae 8f3b e595 7abd 96c9 fe3b
000000c0: 1725 9d3c f408 963d 389d 10bd e91e f43c
000000d0: ea3c c83b 922b 51bd 432b 113d 2688 a3bd
000000e0: 7171 e63b 4926 d4bc 7386 85bd 0ca7 14bd
000000f0: d838 753d de7b d6bb e119 20bd 0963 733d
00000100: b951 4ebd 9409 55bc 78bd 453c 38d0 c2bc
00000110: 5113 063d 6239 88bd 08e1 94bd 24ac fd3c
00000120: 0e39 7dbc 1be2 64bd e012 6d3d a17c afbd
00000130: ddb4 32bc 4683 a43c 4628 91bd 90d1 353d

weight f4 [80, 80, 2]
-0.0035373615 -0.014177563 -0.025016751 -0.005349567 -0.00917371 0.0018672674 -0.02429354 -0.024954574
0.008503597 -0.014841811 -0.005598185 -0.012271482 -0.015134069 -0.030137876 -0.04327841 -0.023566127
-0.022444297 -0.023656605 -0.02723424 -0.04638872 -0.026499704 -0.041939247 -0.035812598 -0.018850803
-0.051535174 -0.018820195 -0.024046436 -0.03420253 -0.037956662 -0.03826007 -0.00051222515 -0.026707351
-0.025825929 -0.012062957 0.011628792 0.0015294201 -0.03569986 -0.048094105 -0.03237154 -0.05409021
-0.019527415 -0.03937351 -0.015707323 -0.04276444 0.020709416 0.0036845808 -0.029062318 -0.026876325
-0.038593132 -0.017180169 0.025384666 0.009962396 -0.0056906934 -0.0005269821 -0.017214123 -0.021345243
0.0059882402 0.014577598 -0.0066832835 -0.014035748 0.00088262034 -0.018665625 -0.020393508 -0.032643132
0.019299265 0.0054300753 -0.009674247 0.007564437 -0.049781516 -0.008658815 -0.034676533 -0.025096402
-0.0071805306 -0.018855086 -0.025905188 -0.02662839 -0.003715621 0.00035495526 -0.036078233 0.0020602813
0.0010137027 0.009162397 -0.0090455245 -0.0109932 -0.026262624 -0.05024149 -0.030282605 -0.026928019
-0.0067464467 -0.00084640976 -0.03951363 -0.021520186 -0.043022178 -0.040112283 -0.03981392 -0.020443892
-0.030249668 -0.0042732637 0.013157595 -0.0038801609 0.03087188 0.013824269 -0.03026486 0.00111439
-0.027736848 -0.02301623 -0.040557966 0.0006035344 0.0041608047 -0.0034723761 0.011553578 -0.005416725
-0.031249672 0.004272785 0.017490052 0.010765501 -0.030668495 -0.0564289 -0.02687192 0.0014314462
0.005790382 -0.030744879 -0.045719154 -0.036637843 -0.020732542 -0.026659956 -0.01660145 -0.031243388
0.019199084 0.0024065534 0.0028574027 0.0075087873 -0.027178451 -0.025268223 0.012723366 -0.015442374
-0.00598983 -0.020230334 0.00790234 0.004822305 0.029844528 0.026920602 -0.02160754 -0.038478103
-0.0101581765 0.0009592764 0.0028447306 -0.0080536185 -0.005990002 -0.015742294 -0.024745217 -0.047390986
-0.03470692 -0.03289207 -0.009930051 -0.022461958 -0.008241529 0.0022566572 -0.0388276 -0.02069897
0.006176456 -0.024296453 -0.029077327 -0.029688245 -0.005918729 -0.005173185 0.016028333 0.021857163
-0.016705966 -0.0043812566 -0.019176444 -0.008267651 -0.009916283 -0.012225663 -0.0022023148 -0.019121606
-0.01927048 -0.04439665 -0.021706963 -0.004586991 -0.021605534 -0.019342659 0.032241598 -0.024906676
-0.059186425 -0.04614604 -0.004533089 -0.02220286 -0.034554023 -0.009279805 -0.05017635 -0.015764216
-0.0078612175 -0.017735401 -0.011574313 0.010318853 -0.032360192 0.0034046157 -0.015295344 -0.013410955
-0.03973152 -0.018581761 -0.0068029454 -0.0057339794 -0.013264939 -0.010364404 -0.0008756232 -0.025988903
-0.026875058 -0.035924304 -0.024378473 0.0046250275 0.0037407393 -0.0011867429 -0.0061291335 -0.020140737
0.032785885 -0.0012917891 0.029158358 -0.022789778 0.004676933 -0.026286935 0.021795677 -0.0039239726
-0.018590806 -0.0007728927 0.034441836 0.025350517 -0.01324673 -0.014177039 -0.044094034 -0.030250393
-0.014083956 -0.010736652 0.009699591 -0.006817362 -0.036307625 0.0064111426 -0.0021065562 -0.018216899
-0.0017094146 0.0009261443 -0.014590958 -0.007563738 -0.026349097 -0.026390055 -0.0074213287 -0.042654693
-0.024491614 0.010645634 0.0054389085 -0.04094221 -0.018139036 -0.029381227 -0.019619051 -0.02136088
00000000: 14d3 67bb 0249 68bc eeef ccbc 6c4b afbb
00000010: 544d 16bc 19bf f43a 3f03 c7bc 896d ccbc
00000020: ac52 0b3c 112b 73bc fb70 b7bb 530e 49bc
00000030: e3f4 77bc b5e3 f6bc b444 31bd c00d c1bc
00000040: 1add b7bc 7fcb c1bc 571a dfbc 1902 3ebd
00000050: e815 d9bc 7dc8 2bbd 3bb0 12bd 006d 9abc
00000060: 8c16 53bd cf2c 9abc 08fd c4bc f417 0cbd
00000070: 7278 1bbd 97b6 1cbd d946 06ba 60c9 dabc
00000080: e690 d3bc b5a3 45bc b086 3e3c d376 c83a
00000090: 043a 12bd 53fe 44bd 0598 04bd b28d 5dbd
000000a0: f5f7 9fbc 1e46 21bd a5ac 80bc c429 2fbd
000000b0: cba6 a93c 0279 713b 1914 eebc bd2b dcbc
000000c0: d513 1ebd 6dbd 8cbc 81f3 cf3c 5139 233c
000000d0: ff78 babb 2c25 0aba a204 8dbc 38dc aebc
000000e0: 0039 c43b e1d6 6e3c 72ff dabb 32f6 65bc
000000f0: a65f 673a a7e8 98bc 4910 a7bc ceb4 05bd
00000100: 7e19 9e3c c6ee b13b bc80 1ebc 19df f73b
00000110: b4e7 4bbd b4dd 0dbc fb08 0ebd f896 cdbc
00000120: a84a ebbb fb75 9abc 1e37 d4bc c823 dabc
00000130: c781 73bb 4a19 ba39 c5c6 13bd c905 073b
00000140: 38de 843a e11d 163c ae33 14bc d31c 34bc
00000150: b724 d7bc 05ca 4dbd 3a13 f8bc 2698 dcbc
00000160: 4c11 ddbb 99e1 5dba 0bd9 21bd 1a4b b0bc
00000170: 0638 30bd c74c 24bd ec13 23bd f379 a7bc
00000180: 27ce f7bc bc06 8cbb f492 573c 4c4a 7ebb
00000190: 06e7 fc3c 307f 623c 03ee f7bc b910 923a
000001a0: 6338 e3bc 888c bcbc 1c20 26bd 8236 1e3a
000001b0: 5c57 883b ce90 63bb 384b 3d3c c87e b1bb
000001c0: 50ff ffbc b802 8c3b 4c47 8f3c c961 303c
000001d0: 7f3c fbbc fe21 67bd 8022 dcbc 5d9f bb3a
000001e0: 3fbd bd3b afdc fbbc 0244 3bbd 9011 16bd
000001f0: 4bd7 a9bc fb65 dabc c4ff 87bc 22f2 ffbc
00000200: 6647 9d3c 44b7 1d3b 4343 3b3b 460c f63b
00000210: 58a5 debc 4eff cebc aa75 503c 0302 7dbc
00000220: 5646 c4bb 16ba a5bc d178 013c 6d04 9e3b
00000230: 837c f43c 9888 dc3c 4c02 b1bc 379b 1dbd
00000240: 7b6e 26bc f377 7b3a a96e 3a3b 53f3 03bc
00000250: c747 c4bb fcf5 80bc 7bb6 cabc 0d1d 42bd
00000260: d828 0ebd d6b9 06bd a7b1 22bc 2402 b8bc
00000270: 7a07 07bc 6de4 133b b109 1fbd e390 a9bc
00000280: de63 ca3b 5b09 c7bc 9333 eebc c334 f3bc
00000290: e6f1 c1bb d283 a9bb da4d 833c cb0d b33c
000002a0: f3da 88bc a590 8fbb eb17 9dbc 0b75 07bc
000002b0: e877 22bc 264e 48bc b654 10bb eaa4 9cbc
000002c0: 20dd 9dbc 43d9 35bd cdd2 b1bc 784e 96bb
000002d0: 17fe b0bc 7f74 9ebc c40f 043d 1609 ccbc
000002e0: 776d 72bd a103 3dbd 4f8a 94bb c6e2 b5bc
000002f0: 8588 0dbd 530a 18bc b785 4dbd f523 81bc
00000300: 56cc 00bc d549 91bc 30a2 3dbc 6810 293c
00000310: 1f8c 04bd f91f 5f3b 5399 7abc 9fb9 5bbc
00000320: 85bd 22bd c738 98bc 3eeb debb 1be4 bbbb
00000330: 3055 59bc 76cf 29bc 148a 65ba aee6 d4bc
00000340: 1529 dcbc 5d25 13bd 5db5 c7bc 8b8d 973b
00000350: 3127 753b 7c8c 9bba e6d6 c8bb 30fe a4bc
00000360: 7e4a 063d 4051 a9ba 82dd ee3c a1b1 babc
00000370: f540 993b b357 d7bc d98c b23c ab94 80bb
00000380: bf4b 98bc f39b 4aba e212 0d3d e3ab cf3c
00000390: d008 59bc d046 68bc f29b 34bd accf f7bc
000003a0: 65c0 66bc c8e8 2fbc 09eb 1e3c 2d64 dfbb
000003b0: 4eb7 14bd 9014 d23b 260e 0abb 9b3b 95bc
000003c0: 700e e0ba 7ec8 723a ea0e 6fbc 3cd9 f7bb
000003d0: 10da d7bc f52f d8bc 9e2e f3bb b0b6 2ebd
000003e0: a3a2 c8bc 066b 2e3c df38 b23b 05b3 27bd
000003f0: 5198 94bc e6b0 f0bc 22b8 a0bc 03fd aebc

bias f4 [80]
0.03230052 0.0051191133 -0.08650951 -0.1047065 -0.008871732 -0.010239807 0.05693472 -0.05587765
0.0054938034 0.03232141 -0.093250155 0.010692315 0.05378143 0.014435673 0.05370035 -0.064516276
-0.0016903518 0.05912415 -0.07561806 0.034475647 0.051818132 -0.0647644 0.0066310368 -0.049435005
-0.03974907 0.02518912 0.01473682 -0.054088213 0.05406054 0.033285696 -0.049343232 0.0023958113
0.05275916 0.033898767 -0.04856317 -0.043116774 -0.024264585 -0.052878026 0.06496489 0.04428376
-0.020476647 0.021269685 -0.035142574 0.050011322 0.041292954 -0.014509274 -0.052287724 0.058911778
0.019502765 0.022905005 0.017084116 -0.033081684 -0.022183105 -0.09989458 0.0429888 0.023514288
0.05883375 0.019358918 -0.03127227 -0.05026319 -0.008199044 -0.0037455808 -0.075095944 -0.02620038
0.0074996515 -0.017359274 -0.07533021 0.026221436 -0.019174097 0.02934381 0.0004564447 -0.07413609
-0.010812669 -0.055370055 0.066627674 -0.025153264 -0.06062248 -0.008864353 -0.019144798 0.049916163
00000000: 8d4d 043d 3cbe a73b e62b b1bd 5d70 d6bd
00000010: be5a 11bc ddc4 27bc 6234 693d f6df 64bd
00000020: 5d05 b43b 7463 043d f0f9 bebd d22e 2f3c
00000030: eb49 5c3d 9a83 6c3c e6f4 5b3d 1c21 84bd
00000040: cb8e ddba 2a2c 723d a4dd 9abd 5636 0d3d
00000050: 403f 543d 33a3 84bd 2b49 d93b 5c7c 4abd
00000060: eccf 22bd 6a59 ce3c b472 713c 9a8b 5dbd
00000070: 966e 5d3d 9556 083d 211c 4abd 0b03 1d3b
00000080: fd19 583d 6fd9 0a3d 2dea 46bd 379b 30bd
00000090: 86c6 c6bc a196 58bd 500c 853d e362 353d
000000a0: a4be a7bc c33d ae3c a9f1 0fbd acd8 4c3d
000000b0: cd22 293d 4eb8 6dbc a72b 56bd 7a4d 713d
000000c0: 43c4 9f3c 47a3 bb3c fdf3 8b3c a980 07bd
000000d0: 58b9 b5bc 8895 ccbd 0615 303d 09a1 c03c
000000e0: a9fb 703d 9896 9e3c 5a17 00bd c6e0 4dbd
000000f0: 4855 06bc 6b78 75bb e7cb 99bd 2ea2 d6bc
00000100: a3bf f53b 0935 8ebc ba46 9abd 56ce d63c
00000110: ff12 9dbc 6e62 f03c f84e ef39 aad4 97bd
00000120: 9f27 31bc b6cb 62bd 1774 883d 380e cebc
00000130: 474f 78bd cb3b 11bc 8dd5 9cbc e474 4c3d

weight f4 [80, 80, 2]
-0.013391412 -0.0138536645 -0.027133666 -0.005583124 -0.00630636 0.0011691552 0.017321598 -0.010309328
-0.046640713 -0.017772185 0.0032984337 -0.019877622 -0.049780577 -0.039186765 -0.027989876 -0.009259284
-0.013889574 -0.022393962 0.015520804 0.0021321701 -0.025513463 0.0024073585 0.0020177236 0.0038306254
-0.00698017 0.012424456 -0.034417666 -0.010797916 -0.014123868 -0.02693129 0.0031770763 -0.0064853765
0.044075117 -0.0058415765 0.014551873 0.0031110488 -0.009850373 -0.012431981 -0.011223068 0.0066869124
0.018790396 0.0030271627 -0.02704647 -0.0153868105 -0.012145718 -0.002730799 -0.003446716 -0.015397358
-0.002298556 -0.025224876 0.0062138774 0.008227242 0.0017199485 0.022476416 -0.022706922 -0.01837793
0.010039899 -0.022473216 -0.0035766433 -0.00091651274 -0.0011949588 -0.013299542 -0.06074244 -0.06825611
-0.011979097 -0.016868815 0.016183348 0.025659299 0.008304252 -0.014470745 0.031117104 0.007085744
-0.013097245 -0.005919506 0.010302035 -0.0030570002 0.015049459 -0.0025487547 -0.019639388 -0.02176509
-0.004551358 -0.0050438987 0.0044967555 -0.023239272 -0.039426386 -0.03072316 0.011892582 0.0051516085
0.002960002 0.0024683182 -0.009962783 -0.021421494 -0.008021418 -0.0060750134 0.01100709 0.015123952
0.038560912 0.018826472 0.007295649 -0.010524927 -0.021792771 0.010058031 -0.0105486335 -0.009033085
-0.008246894 0.015048846 -0.0027832927 -0.008627625 0.00578982 -0.003917131 -0.008489159 -0.0023901982
0.01654782 0.0007163386 -0.0022042196 0.006553001 0.044899035 0.013754329 0.01765608 0.023192888
-0.0038919165 0.007389244 0.026590543 0.011653159 -0.0031498296 -0.016315738 0.012483711 -0.0007841415
-0.039896645 -0.021405235 -0.007831016 -0.005863494 -0.01014778 -0.015358571 0.004505532 -0.007720807
-0.02376915 -0.012850356 -0.0063569928 -0.00034288722 0.009861512 0.0068870676 -0.00087294355 0.01313455
0.015492984 -0.0056321346 -0.001797627 -0.004737836 -0.0023091321 -0.022613946 0.004028308 -0.00615675
0.0030112548 0.015094552 -0.056029726 -0.032904334 -0.0053947046 0.004375664 -0.043232564 -0.009981066
-0.008628072 -0.012986191 -0.00984044 -0.017764855 0.010271715 0.00670929 -0.0021741348 -0.004337674
-0.057154395 -0.023168778 -0.005772651 -0.003350418 -0.044405542 -0.03279873 -0.044244073 -0.027631322
0.0003836143 -0.020499561 -0.0009419167 0.0042355466 -0.0029412443 -0.00905774 -0.011233161 -0.012643043
-0.009289428 -0.004653808 -0.017172871 -0.036329936 -0.023231864 -0.02267244 0.008126979 -0.0005712367
0.01073261 0.03518004 0.013333399 0.009902086 -0.0153315645 -0.0076362924 -0.0009726599 -0.0020841789
0.015948975 0.033588346 -0.00802967 -0.010377578 -0.01959442 -0.004093488 -0.023392605 -0.011046071
0.024184963 -0.00037099817 -0.0038893481 0.0094555095 -0.013403802 -0.030632848 -0.014534576 -0.018233053
-0.0002986836 -0.017535107 -0.019652212 -0.0007903594 -0.008420409 -0.009365249 -0.06908068 -0.05948824
0.0049528573 -0.017825527 0.0056157503 0.023342442 -0.011412647 -0.00621381 0.033687964 0.033986814
-0.0023092595 -0.022824666 -0.0015456334 -0.0031837912 0.01605815 0.009194803 -0.01594142 -0.029198393
-0.004659153 -0.0023988192 -0.0024346916 -0.019604344 -0.046417993 -0.06260461 0.0035144982 0.02938316
-0.0078666555 -0.0037195822 -0.02638873 -0.02768962 0.01124455 0.009483916 0.013504651 0.010566169
00000000: a767 5bbc 7bfa 62bc 6c47 debc a3f2 b6bb
00000010: 95a5 cebb 573e 993a 06e6 8d3c 75e8 28bc
00000020: 550a 3fbd f996 91bc 892a 583b 65d6 a2bc
00000030: b8e6 4bbd 4d82 20bd 064b e5bc 40b4 17bc
00000040: 1991 63bc 8b73 b7bc f84a 7e3c e1bb 0b3b
00000050: 9c01 d1bc c6c4 1d3b c93b 043b 3b0b 7b3b
00000060: e9b9 e4bb f28f 4b3c 8af9 0cbd bee9 30bc
00000070: cc67 67bc 029f dcbc 7f36 503b 4883 d4bb
00000080: 1c88 343d b26a bfbb fb6a 6e3c bde2 4b3b
00000090: 7563 21bc 82af 4bbc f6e0 37bc e31d db3b
000000a0: 51ee 993c 5d63 463b 8f90 ddbc f618 7cbc
000000b0: d5fe 46bc 34f7 32bb 4ce2 61bb 3345 7cbc
000000c0: 5fa3 16bb 66a4 cebc c89d cb3b 8ecb 063c
000000d0: e56f e13a 7620 b83c de03 babc 508d 96bc
000000e0: 637e 243c c019 b8bc 1e66 6abb 2142 70ba
000000f0: 2aa0 9cba 52e6 59bc 11cd 78bd dcc9 8bbd
00000100: f943 44bc 7830 8abc f192 843c 7333 d23c
00000110: 8f0e 083c b416 6dbc 4ce9 fe3c 872f e83b
00000120: d495 56bc 6af8 c1bb dec9 283c f457 48bb
00000130: 0292 763c 0209 27bb c8e2 a0bc b44c b2bc
00000140: 8f23 95bb 4a47 a5bb 8559 933b 4960 bebc
00000150: 907d 21bd 23af fbbc 1bd9 423c d3ce a83b
00000160: 98fc 413b 82c3 213b f13a 23bc 217c afbc
00000170: 446c 03bc e810 c7bb 1557 343c 74ca 773c
00000180: 0cf2 1d3d f939 9a3c 5710 ef3b be70 2cbc
00000190: c186 b2bc 71ca 243c 2dd4 2cbc 81ff 13bc
000001a0: fb1d 07bc 6f8f 763c e767 36bb e25a 0dbc
000001b0: 88b8 bd3b 475b 80bb 1d16 0bbc dfa4 1cbb
000001c0: 4b8f 873c abc8 3b3a ab74 10bb 8eba d63b
000001d0: 0de8 373d d659 613c 7ca3 903c 03ff bd3c
000001e0: 860f 7fbb 7921 f23b 69d4 d93c e4ec 3e3c
000001f0: 5f6d 4ebb 95a8 85bc 7b88 4c3c d88e 4dba
00000200: aa6a 23bd 085a afbc a94d 00bc 8d22 c0bb
00000210: e042 26bc 84a2 7bbc 24a3 933b d3fe fcbb
00000220: 85b7 c2bc 4d8a 52bc 524e d0bb 8bc5 b3b9
00000230: 2e92 213c e9ac e13b 40d6 64ba 4c32 573c
00000240: 49d6 7d3c c58d b8bb 5a9e ebba d93f 9bbb
00000250: cf54 17bb e240 b9bc e6ff 833b 90be c9bb
00000260: 7958 453b 244f 773c 6d7f 65bd b2c6 06bd
00000270: 10c6 b0bb bb61 8f3b a114 31bd a087 23bc
00000280: c25c 0dbc 08c4 54bc cc39 21bc 9a87 91bc
00000290: b24a 283c 9bd9 db3b ee7b 0ebb 0c23 8ebb
000002a0: ba1a 6abd 73cc bdbc 8228 bdbb b092 5bbb
000002b0: 96e2 35bd f657 06bd 4639 35bd 155b e2bc
000002c0: d71f c939 b2ee a7bc f6ea 76ba 57ca 8a3b
000002d0: e4c1 40bb ea66 14bc 4b0b 38bc c424 4fbc
000002e0: af32 18bc f97e 98bb 1fae 8cbc b3ce 14bd
000002f0: c050 bebc 8ebb b9bc 0527 053c 0cbf 15ba
00000300: d4d7 2f3c f218 103d 5474 5a3c 5c3c 223c
00000310: 3e31 7bbc dd39 fabb 1afa 7eba b896 08bb
00000320: 6da7 823c ef93 093d e18e 03bc b806 2abc
00000330: 7a84 a0bc ab22 86bb d9a1 bfbc 94fa 34bc
00000340: 8b1f c63c 8882 c2b9 6fe4 7ebb 48eb 1a3c
00000350: 9f9b 5bbc bdf1 fabc 6e22 6ebc 7c5d 95bc
00000360: a298 9cb9 c9a5 8fbc adfd a0bc 1f30 4fba
00000370: c1f5 09bc b470 19bc 2c7a 8dbd f1a9 73bd
00000380: 944b a23b d706 92bc 5404 b83b a638 bf3c
00000390: 1cfc 3abc 379d cbbb 64fc 093d c235 0b3d
000003a0: f256 17bb cbfa babc da96 caba 27a7 50bb
000003b0: 628c 833c cda5 163c 9597 82bc 7831 efbc
000003c0: cfab 98bb 8235 1dbb 598f 1fbb 4a99 a0bc
000003d0: cb20 3ebd d936 80bd 7f53 663b f4b4 f03c
000003e0: 25e3 00bc 3cc4 73bb 2e2d d8bc 58d5 e2bc
000003f0: 103b 383c 6d62 1b3c 9d42 5d3c ba1d 2d3c
