GAN/PM Generator/PM_epochs=1000_seq=80_batch=10.pth (torch, 675018 bytes, 31 tensors)

weight f4 [1, 80, 1]
00000000: 8759 81bb 60bd 53bb b2e2 f13a 725e 543b
00000010: 5e22 8dbc 12fe af3b faf1 8dbb d7ed a43c
00000020: e4f7 8dbb 9ab2 61bb 8699 1fbb ec24 c038
00000030: 16f7 123d 9c6c d53a e1c3 833c eda2 18bc
00000040: c590 3dbc f08a 153c 08bd 17bb 903d a33b
00000050: 891f 0abb 2551 4bbc c510 0abc d2e1 1d3c
00000060: 8a4b a43b c4a6 9f3c 122c 043c 1088 563c
00000070: c661 043c b921 693c 3c07 90bc 3b2a 4fbc
00000080: 808b c9bb b46f 0ebc 5bf5 5bbc 9db8 9e3c
00000090: ec7b 65b9 0d91 753c a610 5f3b 8748 c0bc
000000a0: aecf 863b 36c9 69bb 8c1f 52bb 3b11 e53a
000000b0: 954f 963b 4867 1a3b bd8c 2bbb 512d 64bc
000000c0: 52da adbb 795d 053c f3ea 8ebb cdec 273c
000000d0: 3e6e cf3c edaf 9e3b 3480 743c 663a 233c
000000e0: 65ea f63a c728 1fbc bab2 cd3b d8e7 b23c
000000f0: a6c2 04bc aead f6ba 6117 843b cf31 86bc
00000100: db34 2439 073b f3bb bc8c 653c 2ea1 38bb
00000110: 29c3 44bb 2773 42bc 7719 9c3b 06ba ba3b
00000120: 3061 1e3c 3f60 e63a c5d6 c4bb 29c7 fabb
00000130: 04be fb3c ca05 01bc 8d33 163c eae3 70bb
-0.00394744 -0.0032308921 0.0018454401 0.0032404927 -0.017228302 0.0053708637 -0.0043318244 0.020132942
-0.0043325294 -0.003443873 -0.0024352982 9.162151e-05 0.03588017 0.0016282978 0.016084613 -0.009316188
-0.01157016 0.009127364 -0.0023153443 0.004981704 -0.0021075925 -0.012409483 -0.00842685 0.009636359
0.005013888 0.0194887 0.008067148 0.013093963 0.008079952 0.0142292315 -0.017581575 -0.012644346
-0.006150663 -0.008693624 -0.0134251965 0.01937514 -0.00021885306 0.014988196 0.0034037023 -0.023472084
0.004114113 -0.003567291 -0.003206226 0.0017476449 0.0045871236 0.0023560096 -0.0026176416 -0.01392682
-0.005305567 0.008139961 -0.004361504 0.010249329 0.025321122 0.0048427493 0.014923144 0.009962654
0.0018838166 -0.009714312 0.0062774094 0.021839067 -0.008103048 -0.0018820071 0.0040311073 -0.016381172
0.00015659949 -0.007422808 0.0140106045 -0.0028172242 -0.003002355 -0.011868275 0.004763778 0.0056984453
0.009666726 0.0017576291 -0.006007048 -0.0076531363 0.030730255 -0.007874915 0.009167564 -0.003675694

weight f4 [80, 3, 1]
00000000: 1999 a53d 2547 af3d a73d 763d 07bb c1bd
00000010: d9a0 b4bd ad85 a3bd f4e2 8fbd f7f7 8abd
00000020: 883d 50bd 8aca d6bd f9b2 debd 994c b7bd
00000030: 1211 96bd 8d32 8fbd d3a5 85bd e8b3 e1bd
00000040: f13b b5bd d730 c1bd bd50 e4bd 1f10 ddbd
00000050: ed37 c4bd aaf0 bf3d 069c d03d 58d4 bb3d
00000060: c66b 78bd 9ba0 94bd 7e0e 46bd 0312 c53d
00000070: 2144 b03d f048 8e3d 5e1b 8bbd 6833 9abd
00000080: 7712 93bd f0b2 d1bd 12e3 f9bd 7474 eabd
00000090: 90cd bcbd 95ac 60bd 9992 6dbd ed7f a5bd
000000a0: fb6d d4bd b9f2 acbd aac2 a9bd 9e85 9cbd
000000b0: 9df5 88bd c039 fbbd 2263 e1bd a058 e5bd
000000c0: 3605 c63d 86aa bb3d 7b31 a83d 9c36 dfbd
000000d0: d538 00be 87a3 e2bd fa75 c03d 6671 973d
000000e0: da91 a63d 8536 cb3d f38d ad3d 4d55 4e3d
000000f0: a7a1 c23d d9cd d53d 5b67 a63d 8baa f7bd
00000100: c3f7 dabd 6bd4 dfbd df55 c33d 8277 c73d
00000110: 7028 b03d 51dc b0bd 48a4 c8bd ced8 adbd
00000120: 5385 ab3d 1f67 ba3d 71b9 9a3d 5681 d63d
00000130: 7cc6 f13d dd86 ac3d f873 98bd 5d74 95bd
00000140: 1b78 60bd 94f9 c83d 2b3d f23d b5a9 c83d
00000150: 0b05 a4bd 4849 95bd 1c1c 63bd 863b 06be
00000160: 44c1 f7bd 776a f0bd f848 a53d c186 ac3d
00000170: e62b a23d 598f e3bd 38f8 e6bd 668a edbd
00000180: 82b7 d73d eb03 bd3d 746b b63d 63f1 cf3d
00000190: 20b1 db3d 8115 b33d e4ae 123e 3e55 113e
000001a0: eb00 f93d dd19 afbd 5f86 8bbd ed9b 6ebd
000001b0: 50b9 f4bd bddf febd 38d5 c9bd d6cf ec3d
000001c0: 23b5 c43d 1fc7 7f3d 8ba2 ae3d 5870 a73d
000001d0: b0fa b33d 3741 dcbd 9bc0 e5bd 876d d7bd
000001e0: d157 79bd a4a0 8dbd 283c 64bd af26 ecbd
000001f0: 9a0d f0bd 4f72 acbd 3d60 a7bd 54ba 8abd
00000200: 91c4 06bd e7b2 c9bd 563e d4bd 0458 b6bd
00000210: ab0e abbd 8f8e cabd 1b3e 7bbd 871e 86bd
00000220: 342f b9bd 852e a1bd b111 e9bd c02a cdbd
00000230: 69bb bebd aeef ea3d 44df be3d 19c2 ab3d
00000240: bd98 d43d 6133 e13d 9d5e b43d b7b3 96bd
00000250: ca6a 95bd 6ac3 64bd fafb 88bd 407d 97bd
00000260: e7cf 87bd dc1a d8bd 6a7a 91bd 38d1 9cbd
00000270: 8576 ddbd 0199 c8bd 1993 b0bd 12e9 0ebe
00000280: 8114 06be e340 dcbd 12a1 973d 2eb1 a33d
00000290: 65ba 903d 86a5 d8bd 0c08 c7bd 348f bebd
000002a0: a847 00be 01cb dfbd 3c35 bdbd fed2 95bd
000002b0: 031b a4bd 8cad 8abd ba6f a3bd 01f1 90bd
000002c0: be0a 7dbd 5528 9cbd 8eff aebd 7485 90bd
000002d0: 88ab df3d afc5 fb3d 6e30 a93d 43e7 a6bd
000002e0: ef61 b3bd c795 8cbd b7a5 c6bd 2285 b2bd
000002f0: 1568 b8bd a29d b3bd 29ce abbd e0d9 b4bd
00000300: c3d7 02be 1a65 e7bd 9e89 efbd cc95 d23d
00000310: c416 e03d f1f8 a93d eff3 aabd 7792 bcbd
00000320: 2a4a 9abd 74c0 c33d 61e6 d93d db91 a23d
00000330: 2de8 b3bd 01fd 95bd fb77 8dbd df89 033e
00000340: 9b21 023e 8b40 c73d d3df eb3d 43dd ef3d
00000350: 27d5 cb3d ba3b c73d 6b30 aa3d 5375 aa3d
00000360: 603f 07be 549a 0bbe b0fd fabd f13c da3d
00000370: 4651 7f3d 18c5 9a3d 1d7d da3d 549e fb3d
00000380: 4c8c ad3d 0853 0a3e a9b7 ac3d 043f 973d
00000390: 5df9 d63d 3d0b cd3d ca26 873d 7dc1 d53d
000003a0: d7ef dd3d f4fe d33d f1dc 76bd d55d 82bd
000003b0: 72e9 38bd 9f04 dd3d 5bd0 133e 1fd3 b03d
0.08085842 0.085584916 0.06011739 -0.09459501 -0.08819742 -0.07984481 -0.0702571 -0.06785577
-0.05083993 -0.1048785 -0.1087398 -0.08950157 -0.07327475 -0.06992064 -0.06525769 -0.110206425
-0.088493235 -0.094331436 -0.11148212 -0.107940905 -0.095809795 0.09372075 0.10186009 0.09171361
-0.060649656 -0.072571956 -0.048353665 0.09622576 0.086067446 0.069475055 -0.06792329 -0.07529336
-0.07181256 -0.10239208 -0.12201513 -0.11447993 -0.092188954 -0.054852087 -0.058001135 -0.080810405
-0.103725396 -0.08444733 -0.08289082 -0.07642673 -0.06687472 -0.12266874 -0.11005236 -0.111985445
0.09668963 0.09163384 0.08212563 -0.10899088 -0.1252168 -0.110663466 0.09397502 0.07394676
0.08133288 0.09922508 0.0847434 0.050374318 0.09503489 0.10439653 0.08125182 -0.12093075
-0.10691788 -0.109291874 0.09537863 0.09739591 0.08601463 -0.08635772 -0.09796959 -0.08488618
0.08375039 0.091017 0.075549014 0.104738876 0.11805436 0.08424161 -0.07443994 -0.07297585
-0.05480204 0.09813228 0.11828073 0.09797994 -0.08008774 -0.07289368 -0.05544673 -0.13108644
-0.12097409 -0.117390566 0.08070558 0.0842414 0.07918529 -0.11111326 -0.11277813 -0.11598663
0.10533048 0.09229263 0.08907214 0.10153463 0.10727143 0.08744336 0.14324528 0.14192674
0.12158378 -0.08549855 -0.068127386 -0.05825417 -0.11949408 -0.124450184 -0.098551214 0.11563079
0.096048616 0.062445756 0.08527096 0.08175725 0.08788049 -0.10754626 -0.11218377 -0.105189376
-0.060874764 -0.069154054 -0.055721432 -0.11530816 -0.11721344 -0.0842024 -0.08172653 -0.067738205
-0.032902304 -0.09848576 -0.10363452 -0.089035064 -0.08352407 -0.09890472 -0.061338525 -0.065487914
-0.090422064 -0.07870201 -0.113803275 -0.100179195 -0.093130894 0.114714965 0.09319928 0.083866306
0.10380695 0.10996128 0.088071086 -0.07358497 -0.07295759 -0.055850424 -0.06688686 -0.073969364
-0.06631451 -0.10551998 -0.07103427 -0.07657093 -0.108136214 -0.09794808 -0.08621807 -0.13956097
-0.13093759 -0.10754564 0.074037686 0.07992779 0.07066802 -0.10578446 -0.09718332 -0.093046576
-0.12527335 -0.10927392 -0.09238669 -0.07315634 -0.080129646 -0.06771383 -0.079802945 -0.07077218
-0.061777823 -0.0762488 -0.08544837 -0.07056704 0.10921389 0.122935645 0.0826119 -0.081495784
-0.08758914 -0.06864505 -0.09699576 -0.08716799 -0.09004227 -0.087703004 -0.08388931 -0.08830619
-0.12777619 -0.112985805 -0.1169617 0.10282478 0.10941842 0.08299435 -0.08347308 -0.092076235
-0.07533677 0.09558192 0.106396444 0.07937976 -0.087845184 -0.07323647 -0.0690765 0.12845562
0.12708132 0.097291075 0.115173005 0.11712124 0.09952765 0.09728189 0.08310016 0.08323159
-0.1320777 -0.1363309 -0.12255418 0.10656155 0.062333368 0.07557124 0.10668395 0.12286058
0.08474025 0.13508236 0.08433468 0.07385066 0.10496781 0.10011909 0.06599195 0.104372956
0.108367614 0.10351363 -0.0602693 -0.06365553 -0.045144506 0.10791897 0.1443495 0.08634018

bias f4 [80]
00000000: 1c18 703e 5219 8bbe afca f0bd 0399 a1be
00000010: 49c8 cebd 455e b8be 9e7a b6be 8b9a 463e
00000020: 1cf5 24be 714d b03e cc07 36be fba6 cbbe
00000030: 214b cbbd 6567 85be 7c05 38be 8f1b f3be
00000040: cb36 a03e 1d1d c2be 2d6f 903e 9d98 843e
00000050: 9e4d cd3e 9f7c d6be 4c2a cb3e 4df1 88be
00000060: 6ceb 5a3e f4f8 063f cd12 9ebd 74bf a73c
00000070: 78ac 0abe 3421 e2be f9d3 8a3e ce69 08bf
00000080: b3d6 aa3e 6258 d83e bcd7 ff3e 52eb 09be
00000090: 49bc d0be a49e 0a3e e668 9f3e ff16 0cbf
000000a0: ef5b 02be e2ab a9be 9792 3fbd 26f8 8fbe
000000b0: 1895 70be 86e7 3cbe 37fd 05bf 0163 ec3e
000000c0: dedb ef3e c21b aebd df89 59bd da4e 70be
000000d0: 179a fcbe 6848 00bf 5c0c 5c3e 57ca 9cbe
000000e0: 5b15 b7be 5c56 11bd 8066 42be 92e7 42be
000000f0: b13e 2d3d fb5c f6bd d442 42be 6125 89be
00000100: 3522 d8be c686 ed3e dc23 6dbe 5b00 253e
00000110: c8e8 4cbe ea9c 8f3d 355a 043f 7d56 833e
00000120: 7a9c eebe 97f9 5d3e 1fb3 063f dfa9 273e
00000130: 1122 c03e 4931 093f 7557 acbd 9e51 0a3e
0.23446697 -0.27167755 -0.11757409 -0.3156205 -0.10096795 -0.36009422 -0.35640424 0.19394891
-0.16109127 0.34434083 -0.17776412 -0.39775833 -0.09926439 -0.26055446 -0.17970842 -0.47481963
0.31291804 -0.37912837 0.2820982 0.25897685 0.4009828 -0.41891953 0.39680707 -0.26746598
0.21378869 0.5272362 -0.0771843 0.020477034 -0.13542354 -0.44165957 0.27114847 -0.53286445
0.33366928 0.4225493 0.4996928 -0.13468674 -0.4076865 0.13537079 0.3113472 -0.5472259
-0.12730382 -0.3313895 -0.04677066 -0.2811901 -0.23494375 -0.18447694 -0.523395 0.46169284
0.46847433 -0.08501388 -0.05311 -0.2346758 -0.4933631 -0.50110483 0.2148909 -0.30623123
-0.3575848 -0.03548275 -0.18984413 -0.1903365 0.042296115 -0.12029453 -0.18970805 -0.2678633
-0.42213598 0.46391886 -0.2315821 0.16113417 -0.20010674 0.07012351 0.51700145 0.25651923
-0.46603757 0.21677242 0.5261707 0.16373394 0.3752599 0.5359083 -0.084151186 0.13507697

weight f4 [80, 80, 1]
00000000: ead1 b6bc f801 5ebc c6b3 3cbd ef1a 68bc
00000010: c8c0 50bd 8ffc 86bb 407a 5e3c f6e9 90bc
00000020: be64 eebc d64f b4bb 5b1c 2dbd 7f94 b5bb
00000030: 2b19 a0bd c651 ebbc 515b 0cbd 8861 1e3c
00000040: f746 21bd 5850 15bc eb1f ad3b 33cb a9bb
00000050: a7c2 d0bc 5c9b b43c 920e a9bc 35df babc
00000060: d638 22bc b9b1 54bc 4325 67bd d4e2 753d
00000070: d07e f9bc c9dc a43b 83aa cabc dac3 bd3c
00000080: 2ade b4bc 74f2 92bc f044 d5bc dd5b 30bd
00000090: 0788 e43b ac9f 16bc a98e 2f3b 4d98 a63b
000000a0: 76d7 18bd 161d 7bbc 689c acbd 1910 24bd
000000b0: 39c3 d7bc 9b6a 46bd 27af 1b3d a75f 08bd
000000c0: 8011 0cbc 3337 3cbd b4b8 86bd f0f3 58bd
000000d0: d547 863c 258a 9c3b e921 91bc efb2 e939
000000e0: c77b 1b3b 8adf 80bd 167f 36bd b603 64bd
000000f0: 0f93 e13c 98de a2bd fc93 4dbd 38d6 16bc
00000100: ad8c e93c db6f 0bbd 1d2a 3dbd 6312 88bb
00000110: b722 55bd 0d33 993c cedd 10bc 21bc 6abc
00000120: ea74 773c 7f2b c9bb 8654 13bc 814e 703b
00000130: 166b 07bc e60f 91bc 0a7a 94bd 41a0 8dbb
00000140: 2383 59bc 234b c33a d9bd 4abc 5315 87bc
00000150: aede 9cbb 4456 e1ba d94b 8ebc e47a 3dbc
00000160: 5345 8f3c b630 c4bb ff79 bfbc 589a 8bbc
00000170: 6490 a9bc fce8 d7bc 6ebd d5bc fedf b43a
00000180: 25ee d2bb eb9e 17bc bffd 9cbb d253 92bc
00000190: c27c 443c 2450 e2bb 1955 54bc 6428 2fbd
000001a0: 2e3a 363c 99fc 4ebc d01a e8bb d50c 57bd
000001b0: e3e0 8dbb becd 403b d258 b4bb f561 443c
000001c0: 11f7 f5bb de0d 0ebb b1e3 4e3b af6f debc
000001d0: 6edc 8f3b cfc6 3e3c 978d a93b e330 caba
000001e0: ad01 12bc 2081 44bc 50a3 febc cf4c d8bc
000001f0: 9b84 74bd e89c 4ebc 48c7 b03c 0344 9bbb
00000200: 6027 b23c e059 d4bb a740 30bd 189f cebc
00000210: fe17 6bbb d659 5a3c b9de bab9 0a01 02bd
00000220: cf19 5bbc b461 22bd 49c2 e2bb a562 e9bb
00000230: 330a 3abd 9518 cebc 5675 edbc bb73 93bc
00000240: a1d6 f8bb 1545 4e3a 9eb0 43bd 93af 6abc
00000250: 5c6c 59bb f952 37bd f5c9 083b 93e5 80bc
00000260: 213e 153b df6a 35bc d995 b8bb 16d5 18bc
00000270: 45be 1d3c bc0f c43a 4014 b7bc d872 96bc
00000280: f1e1 013a 3928 8c3d 97a3 793d 6aad a43d
00000290: a9af 873d 30aa be3c 086e 403d 46c8 41bc
000002a0: b0ee a43d ee5f c03b c0ac 8a3d 743b bb3c
000002b0: 81e5 883d ed93 5d3d b953 be3d 02ce 2cbc
000002c0: e1ca 07bb 9b19 413d 5e3b 93bc c39b f93b
000002d0: 108f adbc 2de5 ac3c 8564 57bb 9591 ad3d
000002e0: d21f 23bc b188 10bc 3b65 733d be06 edbd
000002f0: cc7c 323d e527 01bb 4e3c eebb 63cf bb3b
00000300: 382c d2bb 6c91 6cbc 7376 bebb dd42 493d
00000310: d8cf 823c 0c0f 4bbd 4f2a efbc 2bf9 593b
00000320: 74f5 8e3d d6ee a13d 1313 773d d083 c73d
00000330: 1b92 823d ba58 bc3d a5d0 9fbc 57ea e9b9
00000340: 5b48 74bb 2fe5 753d 9ffa a13d 3a53 933d
00000350: 0276 3e3c 3d9a 463c af9c 7abb c6e9 833d
00000360: 6f9a 563d a096 603d 9484 8b3d 6129 9a3d
00000370: e74f 91bd 6de7 8e3d f676 da3d e849 963d
00000380: 1604 923c 94e5 203c 2a42 8f3d 0756 14bd
00000390: c621 9c3d a70b 34bd 80cb 4fbc 6b1d 48bc
000003a0: 0de1 cc3c 7ce6 41bb be23 2e3b 362b 22bd
000003b0: 46cf 7c3b 7ef2 7e3c 885b 8d3d 374c 93bd
000003c0: 7219 f33c cd6d ebbc 1809 e93b 698a 29bd
000003d0: 98cd 07bd df8e 6dbd 56ab f0bc 0400 333d
000003e0: 52e9 12bb 4552 853d 6ae5 563b 4f34 3abd
000003f0: 7baa 7cbc 9d9a eebc 7252 ecbb 3ee3 57bd
-0.022316892 -0.013550274 -0.046069883 -0.014166578 -0.0509651 -0.004119463 0.013578951 -0.017689686
-0.029100772 -0.0055026812 -0.04226337 -0.0055413838 -0.078173004 -0.028725516 -0.034266774 0.009666808
-0.039374318 -0.009113394 0.005283346 -0.005181694 -0.025483442 0.022046737 -0.02063683 -0.022811512
-0.009901246 -0.0129818255 -0.05643202 0.060030773 -0.030455977 0.0050312025 -0.02473951 0.023164678
-0.022078592 -0.017937876 -0.026033849 -0.043056358 0.0069742235 -0.009193342 0.0026787913 0.0050840736
-0.037314855 -0.015326759 -0.084282696 -0.040054414 -0.026338207 -0.04844151 0.038008835 -0.033294346
-0.008549094 -0.04595108 -0.06578198 -0.052967012 0.016391674 0.0047772103 -0.017716365 0.0004457454
0.00237249 -0.06292637 -0.044554792 -0.0556676 0.027535943 -0.07952613 -0.050189957 -0.009206347
0.028509462 -0.03404222 -0.04618274 -0.0041525825 -0.05203506 0.0187011 -0.008841945 -0.01432708
0.015103558 -0.0061392183 -0.00899232 0.0036667886 -0.008265277 -0.017707776 -0.072498396 -0.0043220823
-0.013275894 0.0014899712 -0.012374365 -0.01648966 -0.0047872877 -0.0017191847 -0.017370151 -0.011564944
0.017489111 -0.005987252 -0.023373602 -0.01704137 -0.020698734 -0.026356213 -0.026091304 0.0013799665
-0.0064370804 -0.009254198 -0.004790991 -0.017862234 0.011992635 -0.006906526 -0.012959742 -0.04276313
0.01112227 -0.012633466 -0.0070832744 -0.052502472 -0.004329787 0.0029419507 -0.0055037523 0.011986245
-0.0075062593 -0.0021675746 0.003156882 -0.027152864 0.004390291 0.011644079 0.0051743495 -0.0015425946
-0.008911532 -0.011993676 -0.031083733 -0.026403813 -0.059696775 -0.012610652 0.0215794 -0.0047383322
0.021747291 -0.0064804405 -0.043030407 -0.025222346 -0.0035872455 0.013327083 -0.00035642626 -0.031739272
-0.0133728525 -0.03964396 -0.0069201333 -0.007122355 -0.045419883 -0.025158206 -0.028986614 -0.01799952
-0.007593945 0.00078685704 -0.047775857 -0.014324087 -0.003317616 -0.044756863 0.002087233 -0.01573447
0.0022772627 -0.011072843 -0.0056330976 -0.009328147 0.009627883 0.0014958302 -0.022348523 -0.018365309
0.00049546274 0.06843609 0.060947027 0.080408886 0.066253014 0.023274511 0.046979934 -0.011827534
0.080533385 0.0058708107 0.06771231 0.022855498 0.066843994 0.05409615 0.092933126 -0.010547163
-0.002072029 0.04714356 -0.017972644 0.007617445 -0.021186382 0.021105373 -0.003286631 0.08475033
-0.009956317 -0.008821652 0.059422713 -0.115735516 0.043576047 -0.0019707617 -0.0072703725 0.0057315095
-0.0064139627 -0.014438968 -0.00581246 0.04913603 0.015968248 -0.049574897 -0.029194979 0.0033260088
0.0698041 0.079068825 0.060320925 0.09741938 0.06375524 0.09196611 -0.01950867 -0.0004461582
-0.0037274573 0.06003302 0.0790913 0.071936086 0.011624815 0.012121734 -0.0038240363 0.06441073
0.052393373 0.054831147 0.06812397 0.07527424 -0.07095318 0.06977735 0.10667221 0.07338315
0.017824214 0.009820361 0.06995042 -0.036214855 0.07623629 -0.043956425 -0.0126827955 -0.012214045
0.025009656 -0.0029586842 0.0026571597 -0.03959199 0.0038575693 0.015560744 0.06902224 -0.07192271
0.02967522 -0.02873888 0.0071116798 -0.041391764 -0.033155054 -0.05799758 -0.029378574 0.043701187
-0.0022416902 0.06509832 0.003279055 -0.04546004 -0.015421505 -0.02912646 -0.0072119767 -0.05270695

bias f4 [80]
00000000: 4946 523d 5769 e3bc fe55 173d acfc a83d
00000010: 00f0 8cbd 5d32 553b 836d ddbb a1fb d5bd
00000020: f8a9 54bd 08d6 233d 3310 813d d954 813c
00000030: bc40 b7bd 3ac4 0abd 3c0d ca3d afd1 133a
00000040: a446 843d a65e 133c 447b 663d 5757 39bd
00000050: 56e7 033e c919 babc be98 b4ba 0e7d b43d
00000060: c409 313d 8b5c afbd 9fa8 f8bc 01c3 8f3d
00000070: f9ba a43c f419 1ebd c547 f0bc aab6 a8bd
00000080: 8221 593d f3aa 503d 8f20 03be d42d 08bd
00000090: c377 143d 756d d9bd 090e 143e d827 f6bc
000000a0: 8148 c4bd 6b56 a33c 6691 8f3d 05fa 24bc
000000b0: 1419 ad3d 9a50 5bbd 1873 bcbc 09f3 cb3c
000000c0: 2c9d 3c3d edab 7cbd bbcf c1bd 1613 a8bc
000000d0: 18f9 2cbd 08cc cabd 9134 283d bd46 54bd
000000e0: a11d f73d b93e 703c aacf 3b3d 9938 0f3d
000000f0: 4408 c63c 9483 fa3c 10c1 b93d bf5e b33b
00000100: f0f9 2dbd 6406 04bc 37c4 77bd 1885 c2bc
00000110: be76 c33a b8a6 f13c ea6a 0cbe 5ab8 973b
00000120: 524c 12bd 767e a9bd 299f 97bd 177e 093d
00000130: 3482 573d a833 57bc 272b 223c f423 c13c
0.05133656 -0.02776019 0.036947243 0.08251318 -0.06881714 0.003253124 -0.0067574396 -0.10448385
-0.051919907 0.039999038 0.06301918 0.015787529 -0.08947894 -0.033878542 0.098658055 0.000563885
0.06458786 0.008994734 0.0562699 -0.04524931 0.12881216 -0.022717373 -0.0013778431 0.08812915
0.043222204 -0.08562573 -0.030353842 0.07019616 0.020108687 -0.03859897 -0.029331097 -0.082379654
0.05301047 0.05094428 -0.12805389 -0.03324683 0.036247026 -0.106165804 0.14458479 -0.030048296
-0.095841415 0.019938668 0.070101544 -0.010069375 0.08452049 -0.053543665 -0.0230041 0.024896162
0.04604833 -0.0616874 -0.094634496 -0.020516913 -0.04222974 -0.09902197 0.041065756 -0.051825274
0.12066198 0.014663392 0.04585234 0.034966085 0.024173863 0.03058032 0.09070027 0.005473941
-0.042474687 -0.008058164 -0.06048986 -0.023745105 0.0014912707 0.029498443 -0.1371266 0.0046301307
-0.035717316 -0.08276074 -0.07403404 0.033567514 0.052614406 -0.013134874 0.009897984 0.023576714

weight f4 [80, 3, 1]
00000000: 31e6 ce3d 9389 d93d 6008 9a3d 9205 b93d
00000010: 05ad b93d 3fa6 8d3d 03ae e7bd 3748 f8bd
00000020: ed26 bbbd 6f22 0f3d e525 de3c c498 373c
00000030: 9634 e93d cd8f f03d 63d4 b93d 7d29 c8bd
00000040: 1e94 abbd ae46 abbd d9e3 053e 76e6 d53d
00000050: be56 fb3d f1ae f3bd c861 02be d386 dbbd
00000060: a09c 0d3e 78b0 f33d 004b 023e a3ea a03d
00000070: dfab 763d 3699 343d f365 bf3d aad5 b93d
00000080: 0db6 c03d 8077 c33d bbe6 d93d 77bf 9d3d
00000090: d8ad 0cbe 2243 e1bd 9c44 f2bd b334 d8bd
000000a0: dcf8 dfbd fa39 99bd d94c 99bd 01f4 acbd
000000b0: 99df b1bd ec15 a93d cd9f 4d3d ae81 8d3d
000000c0: e109 103e 6b5c e33d f974 ef3d 0435 bdbd
000000d0: ce74 b8bd e4f8 8fbd a818 a43d 9a16 a53d
000000e0: 9211 8a3d cdf9 f1bd d7ca e8bd a4dc aebd
000000f0: bbc7 be3d 63be ac3d df98 aa3d 0bfa dc3d
00000100: 00b4 f23d dd18 e53d 85c1 b93d c9f3 ab3d
00000110: 13dc 533d 07cf e6bd b83f e2bd 7b8e adbd
00000120: 9180 a53d aaed 9d3d 74e1 983d 23f9 b3bd
00000130: a68d a9bd ee1f 79bd 035b 9abd 9ab3 99bd
00000140: 742a 88bd 97f0 dbbd 532e adbd 87e4 9abd
00000150: 092a b1bd 414f abbd c769 91bd d70f c1bd
00000160: ba80 d0bd e7a8 cabd 396c 763d 918e 493d
00000170: fc12 503d ac00 923d 2af8 ca3d 8b43 aa3d
00000180: 854c bd3d f3cc b53d 0586 b53d 5f03 bc3d
00000190: 89a8 b53d 7e11 ae3d 872e 0f3e e388 073e
000001a0: 078a 1d3e 536a f2bd d977 ccbd 88bd c8bd
000001b0: d564 b13d edc5 b33d 6af8 433d 6200 e9bd
000001c0: 3da2 a8bd b50a 8bbd 3c25 533d 5c63 dd3c
000001d0: 7dd8 d23c 9113 b83d 916a c03d 3f46 973d
000001e0: 0484 063e d6f7 ef3d ed99 f53d e0f3 873d
000001f0: ee9d bc3d 59e0 ac3d 57a4 9e3d eca1 923d
00000200: 0767 ac3d 3259 093e e177 0a3e 5b91 cc3d
00000210: 47d5 b3bd 77b2 90bd 7566 8bbd a79d 863d
00000220: 7733 8b3d 4ed1 b13d a03e f03d 131c ef3d
00000230: 245d 853d 7beb cd3d 9cf1 bc3d 4fb5 693d
00000240: 93b5 ae3d ec0d d43d 16a8 783d 1379 87bd
00000250: e4ef 88bd 5c94 79bd 2e8f bf3d 2db0 af3d
00000260: 2269 9e3d 1a83 9dbd f6ad 50bd b09c 90bd
00000270: cfd9 08be d737 efbd ae01 dfbd a758 e3bd
00000280: 02c3 e8bd e732 aabd c0bc 02be 7fbc e9bd
00000290: e97e d9bd 0bdb a8bd 48df babd 8586 a8bd
000002a0: 081d c13d 014e ad3d fa44 a03d cbd8 0c3e
000002b0: d4c1 053e da1d 083e 32e6 b8bd 619e cdbd
000002c0: e6a8 a8bd 041b 07be f633 f5bd 1868 02be
000002d0: def8 093e aa78 eb3d 6cd6 bc3d cd19 1a3e
000002e0: f7af 093e 60ae fa3d 5ffc f3bd 870f debd
000002f0: 578f cabd f5b8 aa3d ee43 a63d 8a93 6b3d
00000300: 2531 ab3d 88d8 a63d 475a 673d af35 f73d
00000310: 0235 f53d 548d e23d 7991 b6bd 895c adbd
00000320: fc46 a7bd 367b ce3d 7215 e33d 3e5a 9c3d
00000330: 88af 1b3e 40a1 233e f7a8 ce3d 93df 113e
00000340: 94e5 063e 10f2 be3d 580d 49bd ce36 5dbd
00000350: f510 89bd 4fdd 73bd adb4 6cbd ae8c 2bbd
00000360: 9638 f0bd ddb1 f9bd 1372 f4bd cacd 893d
00000370: a04a ba3d b976 a23d 3c6b 083e ccec 0f3e
00000380: 458b fe3d 69f0 ffbd f6dd f3bd 3919 e9bd
00000390: 0e2e 1cbe cc45 03be 8e0e e8bd cad5 edbc
000003a0: bfac d3bc 6d77 19bd 9f9f 9abd a805 c4bd
000003b0: 765d 86bd 08f7 0d3e fbe0 0a3e efab 023e
0.10102499 0.10621943 0.07521129 0.090342656 0.09066204 0.069164746 -0.11312487 -0.12123149
-0.09138284 0.034944948 0.027117679 0.011205856 0.11386983 0.11746178 0.09073713 -0.09773538
-0.083778605 -0.083630905 0.13075198 0.104443476 0.12272404 -0.11898602 -0.12732613 -0.10719075
0.13829279 0.11898893 0.12723923 0.078572534 0.060222503 0.044091426 0.09345617 0.09073956
0.094097234 0.09544277 0.106397115 0.07702535 -0.13738191 -0.10999133 -0.118294924 -0.105569266
-0.10936138 -0.07481761 -0.07485361 -0.084449776 -0.08685226 0.082561344 0.050201226 0.069095
0.14066269 0.11101612 0.11692233 -0.092386276 -0.09006654 -0.07029894 0.08012515 0.080609515
0.067416325 -0.11815224 -0.11366814 -0.085381776 0.09315439 0.08434751 0.08329939 0.107898794
0.118507385 0.11186383 0.09070114 0.08396108 0.05172355 -0.11269956 -0.1104731 -0.084744416
0.08081163 0.077113464 0.07464877 -0.087877534 -0.082789704 -0.060821466 -0.0753689 -0.075049594
-0.06648722 -0.10739248 -0.08456101 -0.075631194 -0.08650596 -0.08364726 -0.071002536 -0.09426849
-0.10180803 -0.09895497 0.060161803 0.049208228 0.050799355 0.071290344 0.09910615 0.08313664
0.092431106 0.088769816 0.08863453 0.091803305 0.08870036 0.0849943 0.13982593 0.13235812
0.15384685 -0.11836686 -0.099837966 -0.09801775 0.0866181 0.08777986 0.047844328 -0.11377026
-0.082340695 -0.067891516 0.05154918 0.027024917 0.025737995 0.08988107 0.09395326 0.07386445
0.13136297 0.11717193 0.1199225 0.06638312 0.0920981 0.084412284 0.07746189 0.071597904
0.084180884 0.13412932 0.13522293 0.09988662 -0.08780914 -0.070652895 -0.068066515 0.065730385
0.067969255 0.086825 0.11730695 0.116752766 0.06511906 0.1005468 0.09225771 0.057057675
0.08530726 0.10354218 0.060707174 -0.0661489 -0.066863805 -0.060932502 0.09353481 0.08578525
0.07734896 -0.07691021 -0.050947152 -0.07061136 -0.13364337 -0.116805725 -0.10888992 -0.111008935
-0.1136532 -0.0831049 -0.12767315 -0.11412906 -0.10619909 -0.08244904 -0.09124619 -0.082287826
0.094293654 0.08462144 0.07825656 0.13754575 0.13062221 0.13292637 -0.09028281 -0.10039974
-0.0823534 -0.131939 -0.119728014 -0.12735021 0.13473842 0.11497624 0.09220585 0.15048905
0.13446032 0.12240291 -0.1191337 -0.10842805 -0.09890621 0.08336059 0.08118425 0.05751375
0.08358983 0.08146769 0.05648258 0.12070786 0.11973001 0.110621125 -0.089144655 -0.08464915
-0.08167836 0.10082094 0.11088075 0.076344 0.15203679 0.1597948 0.10090821 0.14245443
0.13173515 0.093235135 -0.04908499 -0.054007344 -0.066926874 -0.05953723 -0.057789493 -0.04188221
-0.11729543 -0.12192128 -0.119358204 0.06728704 0.09096265 0.07932801 0.13322157 0.14055175
0.12428907 -0.124970265 -0.1190757 -0.11381764 -0.15251943 -0.12819594 -0.11330901 -0.029032607
-0.025839208 -0.03746741 -0.075499766 -0.09571391 -0.06560795 0.13863766 0.13562386 0.127609

bias f4 [80]
00000000: c58a 693e 10a6 ee3d 7cb2 e8be 8dcd bdbe
00000010: 1ee4 8f3e 7e18 8fbe 3209 c03e adab cabe
00000020: 5757 d23e 3b53 89be b003 513e 77ab 303e
00000030: 0427 e6be 2245 96be 6df4 1fbe f019 913c
00000040: ea31 8a3e a15e 75be 3908 b93d 7206 9cbe
00000050: a52d 85be 25bf a93e 42ec 0cbe 3609 00bf
00000060: 8167 013d dc2d c9bd 8bf6 0b3e 2754 99be
00000070: 7fc9 173c b334 93be 4d34 9cbe 87b9 083e
00000080: dd5e 363e 4ffa df3d b00e 013f 5873 203d
00000090: 3c61 763d 3a96 b7bd 22a4 03bf 16fe 553e
000000a0: 8121 cd3e 55c5 893d 2440 d9be b696 f73e
000000b0: c029 d23d c884 923e 037b 7a3e 6c8a cc3d
000000c0: d008 1dbe bf0b c43d dfa4 433e b0d7 42bd
000000d0: 14d3 bbbe 6a88 98be da7d 05bf eb2b 6ebe
000000e0: 0009 abbd 64dc e43e f89b 9cbe a957 0fbf
000000f0: b747 9a3e 0344 e93e 2e4b e0be 8447 d23b
00000100: 9fe6 333e 000a ad3e 27f6 f1bd 2d14 7c3e
00000110: 2b11 d33e 46ba a33e e715 793e da05 9d3e
00000120: 820e 00bf b3f4 fd3d cba2 d63e 07d4 ddbe
00000130: 139a 00bf 9249 c8be 3098 1c3e 4baa eb3e
0.22806843 0.11652768 -0.45448673 -0.37070885 0.28103727 -0.27948374 0.37507015 -0.39584103
0.4108226 -0.26821312 0.20411563 0.17252909 -0.44951642 -0.2934962 -0.15620585 0.017712563
0.26991206 -0.2396188 0.090347715 -0.30473667 -0.26011387 0.33153644 -0.13762 -0.50014055
0.03159285 -0.098232 0.13668267 -0.29947016 0.009264349 -0.28751144 -0.30508652 0.13352023
0.17809625 0.109364145 0.50413036 0.0391725 0.060151324 -0.089642 -0.5142232 0.20897707
0.40064624 0.06727091 -0.42431748 0.4835717 0.102618694 0.2861693 0.24460988 0.099873394
-0.15335393 0.09572553 0.19105862 -0.047568977 -0.36684477 -0.29791576 -0.5214516 -0.23258941
-0.08351326 0.44699395 -0.30587745 -0.55993134 0.3013284 0.455597 -0.43807358 0.0064172167
0.17568444 0.33796692 -0.11814528 0.24617071 0.41224036 0.31978053 0.24324761 0.30668527
-0.5002214 0.12400188 0.41921076 -0.43325827 -0.502351 -0.3911863 0.1529243 0.4602836

weight f4 [80, 80, 2]
00000000: b3a2 72bc efa5 a5bb 54f4 f3bc e465 b6bb
00000010: 5290 94ba e68d 553c 7011 b4bc 91e2 383c
00000020: ffda d2bb 6116 2a3c 5e36 14bc ae3c fa3b
00000030: c4e9 1eba a1d9 4fbb e164 2b3b af42 063c
00000040: c628 54bb 3220 903c f112 2db8 7f10 f33c
00000050: 7096 e2bc 5f21 abbb 4db0 acbc 6d57 8f39
00000060: 6d36 36bc 11ce 9fba f9fd 873c 1e45 383b
00000070: 53df a03b d46c 0abc f1e0 d1bc ff07 303b
00000080: d689 86bc 6c09 c0bc df5a b7b9 e3b5 893c
00000090: 6fbd 0abd 5341 efb8 3b25 f539 9163 8aba
000000a0: 4e83 ffba 1751 093d f0f1 933c 128c 133c
000000b0: fa93 0f3d ee04 973d 80d6 0d35 c74a c1bb
000000c0: f965 323d 5cef 8b3d 356f 933c 74e4 9db9
000000d0: 4b4b f3ba aa9f d9bc 649c c23b 359f dabb
000000e0: c1ea 3bbd 6e06 afbd 0f19 d4bb 2627 d23b
000000f0: 2d6a d9bc a71a d23b 0921 e73b 8702 60bb
00000100: 3204 f9bc d4c6 eab8 58b0 f03a 0f75 87bb
00000110: 2c41 9f3c 3f81 29bb 2fb7 7fbd 412b 20be
00000120: 9499 a1bc dd11 e73b fcf9 ecbb 9823 3abb
00000130: 16c1 10bc c12f a1bb 7d4d 3abc d05a 6bbc
00000140: ce91 ae3b 263f abbb 8db7 2a3b 30c3 e9ba
00000150: e423 06bc 84d2 66ba 7aaf 813c eb9d 6c3c
00000160: 6c6c 2a3c 668b ccbc 11df 40bc bf3d 8bbb
00000170: 2c77 0fbc ccae eebb 172e 02bb e147 b1bb
00000180: 3e6c 7e3c 28b0 263d 7dc9 b5bb cd8f 15bd
00000190: e2e5 f93b 2e17 4d3c 6aa2 5c3c 8a2c 85bc
000001a0: 8e17 333c 8e3b 9bbb d16a aabb ddfb 1c3b
000001b0: d37d 793c fc3d 04bc 4239 da3b f489 d5bb
000001c0: 09e4 6cbc 84c1 123c e5d1 afbb 3fbe 803b
000001d0: f3da 27bc 7b0f 923c 226c 43bc d2d3 b43b
000001e0: f845 b5bb 5f79 623b cd7c ac3c 16f2 91bc
000001f0: f184 8b3c 3558 cfbb 2ad3 f5bc 7409 e0bb
00000200: 4cdf 9cbc 04a2 e93b fc38 25bc 5ec9 52bc
00000210: fc1d 26bb c908 1cbb 4165 393c 816c 8d3b
00000220: ee19 d73b 9208 a03a 70c6 45bc 1123 9cbc
00000230: 81e6 d9bb 1c89 85bc ea06 f0bb 1043 25bc
00000240: e003 db3b d3ee 563c 07c9 98bc 3805 7fba
00000250: 0513 843c 5e14 dcb9 df92 623c 73b6 acb9
00000260: 3996 25bc 548a b9bb d8f5 b0bc 271b ecbb
00000270: c68d d139 bb3d 1abc fe9d 2bbb 2dcb 923b
00000280: 33c7 303c fd9f eabc 3a17 aa3c 6ddc 89bc
00000290: 820a 8d3c 21ad 43bc 51b7 a63b 1ce8 573c
000002a0: 42d9 e7bb 2e46 10bc 8d99 513c 183b df3b
000002b0: 472c 2fba 9a11 aebc ccd0 d1ba 42ee 3bbc
000002c0: efe0 b03b 1f3a 5739 2aea 913c 1115 143d
000002d0: a125 3abc ae02 d33b b98f 22bb ea55 23bc
000002e0: f67f 65bc a32d 88bc d905 1f3b 1c7e 303c
000002f0: 14a7 843b 5c89 1dbc eb7e 9b3c 83e8 3cbc
00000300: 1f37 c0b7 5c99 41bc daea acba 884c 9a3c
00000310: c56e 8d3b 5953 84bc 50b7 93ba 1ab4 163c
00000320: 0714 ed3c 2b12 ee3b 31e8 29bc 1752 93ba
00000330: 22f0 7a3d 6476 e93c 5b68 1cbb 1d61 4c3a
00000340: d04c 1f3d c4e7 5e3d acae c23a 9611 d23b
00000350: 2688 adbb c8b9 d5bb 6cde 23bb 8ee2 223c
00000360: 1c72 8dbd 0e57 fbbd 40c0 25bb 36df 7839
00000370: 49a8 8f3a e04e cdbc dffd 1f3c b1d6 7dbb
00000380: 2fab 833c 3d58 cebc 814f 54bb 32a1 443c
00000390: f469 71bc 9337 693c eefd dbbd 17a6 14be
000003a0: 2eb0 7e3a 2426 19bc 3984 4cbc 633a 913a
000003b0: a786 12b9 683f 62bc 5ffd ec3b 9b72 503c
000003c0: 344d 9bbc 1dc8 283c aed2 0e3c e2d4 30bc
000003d0: ecea 9b3c cfc2 e8ba 5a73 3f3c c306 e4bc
000003e0: 91b0 883b a5df 88bc 90dd 1ebb 4eb9 94bc
000003f0: d41c 1f3c ec50 543c 3e26 5dbc 1ecd 81bc
-0.014809298 -0.005055181 -0.02977959 -0.0055663455 -0.0011334515 0.0130343195 -0.021980971 0.011284486
-0.006434798 0.010381312 -0.009046165 0.007636628 -0.00060620555 -0.003171541 0.0026152658 0.00819461
-0.0032372936 0.017593477 -4.1264055e-05 0.029670952 -0.027659625 -0.005222484 -0.02108016 0.00027340223
-0.011121375 -0.001219215 0.016600596 0.002811737 0.004909435 -0.008448798 -0.025619956 0.0026860235
-0.016423147 -0.023441993 -0.00034972184 0.016810363 -0.033872064 -0.00011408576 0.0004675778 -0.0010558238
-0.0019494088 0.0335246 0.0180597 0.009005563 0.03505323 0.07373987 5.283873e-07 -0.0058988067
0.04355428 0.068327636 0.017997364 -0.00030115584 -0.0018561868 -0.026565392 0.0059390534 -0.006671811
-0.045878176 -0.08546148 -0.006472714 0.0064133583 -0.026539886 0.0064118686 0.0070534986 -0.0034181194
-0.030397508 -0.00011195024 0.0018363101 -0.0041338275 0.019440256 -0.002586439 -0.062430557 -0.156415
-0.019726552 0.00705169 -0.007231949 -0.0028402563 -0.008835098 -0.004919023 -0.011371014 -0.014364913
0.00532744 -0.0052260337 0.0026049346 -0.001783466 -0.008187268 -0.0008805173 0.015830744 0.014441947
0.010401826 -0.024968814 -0.011771933 -0.004249304 -0.00875644 -0.007284021 -0.0019863897 -0.00541018
0.015528737 0.04069534 -0.005547701 -0.036514092 0.007626281 0.0125177335 0.013466457 -0.01625659
0.010930909 -0.004737324 -0.005200722 0.0023953833 0.015227753 -0.008071419 0.0066596577 -0.0065166894
-0.014458665 0.0089572705 -0.0053655975 0.003928929 -0.010245073 0.017829647 -0.011927636 0.005518415
-0.0055320226 0.0034557206 0.021055603 -0.01781563 0.017031165 -0.006327654 -0.030007917 -0.0068370644
-0.019149445 0.0071299095 -0.010084387 -0.0128653925 -0.0025347462 -0.0023808947 0.011315645 0.004315913
0.0065643704 0.0012209585 -0.012071237 -0.01905969 -0.0066497927 -0.01630073 -0.007325043 -0.01008679
0.0066838115 0.013118464 -0.018650545 -0.00097282557 0.01612235 -0.00041976845 0.013828962 -0.00032942332
-0.010106617 -0.005662242 -0.021601602 -0.0072053852 0.00039969216 -0.009414132 -0.00261867 0.004479787
0.01078968 -0.028640741 0.020763028 -0.01682874 0.017216925 -0.011943133 0.005087771 0.013177898
-0.0070754597 -0.008805795 0.012792957 0.0068124644 -0.0006682318 -0.021248627 -0.0016007661 -0.011470379
0.005397908 0.0002052565 0.017811853 0.036152903 -0.0113615105 0.0064395284 -0.0024804904 -0.009969214
-0.014007559 -0.016623324 0.002426496 0.010772254 0.0040482376 -0.009615269 0.018981418 -0.0115300445
-2.2913851e-05 -0.011816349 -0.001319255 0.018835321 0.0043161833 -0.016153025 -0.0011269841 0.009198213
0.028940214 0.0072653494 -0.0103703 -0.0011239675 0.061264165 0.028498836 -0.0023865912 0.00077964534
0.038891613 0.054420248 0.0014853082 0.006410788 -0.005295771 -0.006522391 -0.00250044 0.00994171
-0.0690653 -0.12272464 -0.0025291592 0.00023734276 0.0010960187 -0.025062025 0.009765117 -0.0038732702
0.016072838 -0.02518856 -0.003239602 0.012001323 -0.014734734 0.014234441 -0.107417926 -0.14516483
0.0009715584 -0.009347472 -0.012482696 0.0011080023 -0.00013973807 -0.013809063 0.0072323526 0.012722637
-0.018957712 0.010301617 0.008717222 -0.010792943 0.019032918 -0.0017758253 0.011685217 -0.027835255
0.004171439 -0.016708205 -0.0024240948 -0.018154766 0.009711463 0.012958746 -0.013497887 -0.015844878

bias f4 [80]
00000000: cca9 993d 966b ae3c 7c88 ef3c 885d 89bd
00000010: bc36 883c 7389 323d ca08 97bc 5c50 923c
00000020: 0eeb 33bd 5ed7 0c3d c2ca 00bd 1f4b 983c
00000030: 6656 37bd 0cad a0bb c6f2 a63d 2cda 43bd
00000040: 384a 87bd e64b 3a3d c349 84bd 2da1 083c
00000050: b9ef 64bd 3cbc 84bd a805 a0bd 0611 d53c
00000060: d380 30bc 4b79 61bd fbce a2bd ed75 8d3c
00000070: e27a 263d 1272 23bd 6ff1 733c 98ba 6f3d
00000080: 83ef 4e3d 06fd 5c3d 8b87 0a3d 54a9 173d
00000090: 904e a8bd 7fe1 98bd 3542 5dbd 0420 823d
000000a0: f1df 843d 8465 aa3d 2c60 04bd f85d a9bd
000000b0: 51a5 8abd 3969 643d fd3b ab3c 8dcb 9c3d
000000c0: 357b dc3c 0342 f4bc 7565 acbd 5188 e1bc
000000d0: 4106 e23c 805d 5f3c e84f 0cbd 2485 b4bb
000000e0: c044 30bd dd53 a73b d503 8dbd c82c 87bc
000000f0: e6c3 113c 0057 62bd 5573 97bc d889 94bd
00000100: 65b4 083c 0180 b53b 26a2 d7bc 9ca1 2d3d
00000110: ce9b 6dbd c2e7 1f3d 2db1 2f3d 7251 e6bc
00000120: 336f 363d 7d5e 013d 8a14 31bd f17c aa3c
00000130: a3ff 8e3d 1988 6f3d f2cb d53b 431f 6e3d
0.07503089 0.021291535 0.029239886 -0.06707293 0.016627662 0.043588113 -0.018436808 0.017860584
-0.043925337 0.034385078 -0.031443365 0.018590508 -0.04476013 -0.0049034413 0.08151774 -0.047815487
-0.06605953 0.04548254 -0.064593814 0.008339209 -0.05589268 -0.06481215 -0.07813579 0.026009094
-0.010772902 -0.055047315 -0.07949635 0.017268145 0.040644534 -0.039903708 0.014889105 0.05852756
0.050521385 0.05395224 0.03382067 0.03702672 -0.082181096 -0.07464885 -0.054018218 0.06353763
0.06488026 0.08320144 -0.03231828 -0.08269876 -0.06769813 0.05576441 0.020902628 0.07656012
0.026914218 -0.029816633 -0.08417789 -0.027530821 0.027590873 0.013633132 -0.034255892 -0.0055090357
-0.043034315 0.005106433 -0.068854965 -0.016500846 0.0088968035 -0.05525875 -0.018487612 -0.07252854
0.008343791 0.005538941 -0.026322436 0.04239045 -0.058009915 0.03903938 0.042893577 -0.028115008
0.04453964 0.03158425 -0.04323248 0.02081153 0.069823526 0.058479402 0.0065245563 0.058135282

weight f4 [80, 80, 2]
00000000: cee1 1dbc 028f e0bc 08d4 dabc 3d27 18bd
00000010: 299d 02bc 3ff3 e0bc 65eb 92bb 56da c1bc
00000020: 72fc cbbc 433d efbc a7c5 0abc 70c0 87bc
00000030: 78b2 75bc f989 cbbc 17ec cfbc c137 d0bc
00000040: c34e 25bd 7ed9 c3bc 108c 6abc aa88 a6bc
00000050: 6c6d a7bb 03a1 6fbd e82d 5cbc c4f7 4dbb
00000060: feb6 f1bc e6ad 02bd fdbb 833b 930e 7c3a
00000070: 34a9 f3bc c747 9abc dc5b c7bc 3d49 d53a
00000080: a300 723c a73c 473d 537d 99bc 70b2 d93a
00000090: 80d9 a0bb f804 cabc fd82 d4bc 47ce 873c
000000a0: 5b62 40bd 7507 cd39 4eb0 0d3d a9e6 ba3c
000000b0: 54be 9c3b fe14 703b b8b6 7fbc 6d01 41bc
000000c0: b611 9abb e404 2c3b 6555 14bd 4429 dcbc
000000d0: d7de 833b 1f90 f539 f2c9 38bd 5b4f 84bc
000000e0: d0dd 5bbd b7e6 00bd 880d 35bc 3397 49bc
000000f0: db2f 40bd 17d2 abbc a442 87bc 7344 f9bb
00000100: bda3 8dbc 2e8d 55ba 8f98 c8bc da4e 95bc
00000110: 9648 19bd 519d 37bc 8227 76bd e154 9ebb
00000120: 2c1f 233c 1901 ed3a 54c4 db3c 3711 a23c
00000130: ca9a 88bc b55b 27bd bd2b 33bc f2ef 5ebd
00000140: 0a82 aebc 58ec 82bd 2ba4 843b c94c dfbc
00000150: 183c a33c 12fd b93c 76cd c239 28af 853c
00000160: e9a3 993c 444e 84bc 377d 30bd d10b 2e3c
00000170: 90c5 5fbd 5e15 9abc fda5 05bd 1ca2 52bd
00000180: 446d 34bd 7a69 d6bc 5872 0abd 1319 b1bc
00000190: f954 333c bc03 0d3c ef16 22bc bfd7 17bd
000001a0: 2793 c4bc 4f66 69bc 7712 70bd 134e eebc
000001b0: a168 29bd cb3f 59bc af0d acbc 3562 b3bc
000001c0: c54b 66bd b79b 82bc 9a20 bcbc 1a4e f9bb
000001d0: 13bc ab3c 7596 153d 4225 adbc 8382 bdbc
000001e0: fb31 a4bc 7adf 54bc 79b6 f23b ec26 583b
000001f0: 0f1e 06bd 2ceb babc cd7d 103d f64f 573c
00000200: 4378 20bd 955b 19bd 28f5 c7bb a27c fe3c
00000210: 633c 25bc 366a d1bc b8b2 74bd 9a1e 99bc
00000220: 9135 8bbb e8bf ca3b 8d29 98bc 72c1 e4bc
00000230: 5e79 2bbd 5adc 0fbc db58 8bbc a280 21bd
00000240: 7599 c9bc bdef 0fbd 7254 8dbc d998 59bc
00000250: 0695 f83a bb00 b13c eabb 1cbd 19b5 b2bc
00000260: b8de 3bbd 38b6 ebbc e3f6 06bd 5b63 8bbc
00000270: f74a d2bc 91f8 a1bc 6abd 86bc 5d75 27bd
00000280: 8e4a dabb 741e 20bd 6532 33bd d901 9abb
00000290: 4d8c b7bb 0fe5 24bd cf88 63bc 68ec 443c
000002a0: 8c79 d2bb bf13 3dbd e48e 9fbc 85a2 483c
000002b0: 3990 bdbb 6ae8 07bc 3c67 54bd b55f dc3a
000002c0: 5c95 6bbb 7340 653c 929e 3d3b b395 01bb
000002d0: 0225 693c 66d4 60bd 2788 cebb 9622 463c
000002e0: 963e 25bd a301 f9bb 33fb 82bc beab a6b9
000002f0: 690f 3bbc 96a8 a53a 90e3 93bc f063 8abc
00000300: 4acb 6bbc 3797 9bbc 020a 02bd 07f5 00bc
00000310: 170e 83bc 3b98 6f3b 9067 b2bc 9f92 0b3c
00000320: a312 90bd 562a 023d 9c7a b0bc 0cd5 b8bc
00000330: 3c4d 63bc 8bb6 f6bb ce72 00bd 4210 96bc
00000340: 1470 b1bb 345d abbc f488 89bd 22ba bdba
00000350: 8b61 0abc 402c d7bc 35ae 83bd 2e73 4bbb
00000360: fcbc 92bd 9583 2cbc 9ded 2bbc 690a 85bc
00000370: cc55 26bd 4721 c2bb d50f 1ebd 5958 96bc
00000380: 9d73 0bbc 9717 0abc aa22 37bd 93a8 7dbc
00000390: f2a0 0abd f986 a9bc 39ea 37bd 2f04 00bc
000003a0: cccf e1bc 89a6 3abc d102 1ebc 67e0 13bd
000003b0: 0325 623c 2057 efba 5b25 9b3b 8a37 89bd
000003c0: 9564 6e3c f2aa 7dbd cc7d 9cbb b51b afbc
000003d0: 3d10 c9ba f2e0 25b9 35f8 2bbc fc7e 65bb
000003e0: 176a 24bc eb16 9eba b325 02bd bb11 19bc
000003f0: 4a05 06bd 13d8 cc3b 3722 88bc f540 ccbc
-0.009636356 -0.027411941 -0.026712433 -0.037146796 -0.00797204 -0.027459739 -0.0044836276 -0.023663681
-0.024900649 -0.029204017 -0.008469976 -0.016571254 -0.014996164 -0.024846064 -0.025381131 -0.02541721
-0.040358316 -0.02390742 -0.01431562 -0.020328838 -0.0051094797 -0.058503162 -0.013438679 -0.0031428197
-0.029506203 -0.031904124 0.0040202127 0.0009615209 -0.029743768 -0.018833054 -0.024335794 0.0016272437
0.01477066 0.048641827 -0.018736517 0.0016608965 -0.0049087405 -0.024660572 -0.025941366 0.016577853
-0.0469688 0.00039106203 0.034591965 0.022815065 0.004783431 0.0036633606 -0.015607528 -0.011780125
-0.0047018183 0.0026248032 -0.03621425 -0.026875146 0.0040243673 0.0004683742 -0.045114465 -0.01615112
-0.053678334 -0.031470027 -0.011050589 -0.012304115 -0.04692064 -0.020974202 -0.016511269 -0.0076070367
-0.01728999 -0.00081463426 -0.024486808 -0.018226076 -0.03742274 -0.011206941 -0.06009627 -0.0048318957
0.009956162 0.0018081992 0.026827015 0.0197836 -0.016675372 -0.040858943 -0.010935721 -0.05442805
-0.021302242 -0.06392735 0.0040478907 -0.027258294 0.019926116 0.022703681 0.00037155644 0.016318873
0.018754916 -0.016150601 -0.043088164 0.010622934 -0.05463177 -0.018809017 -0.032629002 -0.05142413
-0.044049516 -0.026173342 -0.033800453 -0.021618402 0.010945552 0.008606847 -0.009893163 -0.037070986
-0.023995949 -0.014245584 -0.05861136 -0.029089963 -0.041359548 -0.013259838 -0.021002619 -0.021897415
-0.056224603 -0.015943391 -0.022964764 -0.0076081874 0.020963704 0.03652044 -0.02113593 -0.023133522
-0.020043364 -0.012992734 0.0074070063 0.0032982184 -0.03274351 -0.022817217 0.035276223 0.013141623
-0.03917719 -0.037440855 -0.006102223 0.031065289 -0.010085198 -0.02556334 -0.059740752 -0.01869135
-0.004248329 0.006187428 -0.0185745 -0.027924273 -0.04186379 -0.008780563 -0.017010143 -0.039429314
-0.024609307 -0.03514074 -0.01725218 -0.013281071 0.0018965311 0.021606794 -0.038265146 -0.02181487
-0.045866698 -0.028773412 -0.032950293 -0.01701515 -0.025670512 -0.019771846 -0.016447742 -0.04088341
-0.0066617196 -0.039091542 -0.04374923 -0.0046999273 -0.005601442 -0.04025751 -0.013887598 0.012019254
-0.006423181 -0.04616141 -0.019477315 0.012245779 -0.005785015 -0.008295158 -0.051856264 0.0016813191
-0.003594718 0.013992417 0.0028933627 -0.0019773066 0.014230015 -0.05489006 -0.0063028517 0.012093207
-0.04034289 -0.007599072 -0.015988922 -0.00031789945 -0.011417248 0.0012638744 -0.018052846 -0.016893357
-0.01439173 -0.018993003 -0.031747825 -0.007870919 -0.01599793 0.0036559242 -0.021777898 0.008518844
-0.07034805 0.031778656 -0.02154284 -0.022562526 -0.013873395 -0.007529085 -0.031359486 -0.0183183
-0.005414972 -0.020918466 -0.06715575 -0.0014475028 -0.008446108 -0.026266217 -0.06429712 -0.0031043994
-0.07164952 -0.0105294185 -0.010493663 -0.016240316 -0.040609166 -0.005924377 -0.038589317 -0.018352674
-0.008511451 -0.008428476 -0.044710793 -0.015482086 -0.033844896 -0.020694243 -0.044901107 -0.007813497
-0.027564906 -0.011392244 -0.009644226 -0.03610268 0.01380277 -0.0018260218 0.0047346777 -0.06700046
0.014550348 -0.061930604 -0.0047757383 -0.021375516 -0.0015339922 -0.00015819425 -0.010496189 -0.0035018316
-0.010035059 -0.0012061273 -0.031774234 -0.009342606 -0.032719888 0.006251344 -0.016617877 -0.024933318

bias f4 [80]
00000000: 4555 f6bc bc9a 893b 21a3 3a3c a679 8cbd
00000010: 3c10 7abd 3277 88bd 9ace 703c 968b b53c
00000020: bc23 60bd dbf4 2bbc b732 98bd 9c61 bc3c
00000030: 9290 e3bc 3f96 8d3c 9247 7dbd 8438 aa3b
00000040: 155a 00bd 6131 8cbc f064 13bd 1c14 4abc
00000050: 39e6 1cbd 3a71 b3bd 87c7 cf3b 4186 893d
00000060: 0efb 2fbc 3686 a43b 650f e43b c87f a6bd
00000070: ed39 843d 8c76 643c cfd2 063d 657f 4abd
00000080: e7be eebd 0af3 aabd 2995 42bc c6fa 41bd
00000090: a8d2 cfbd 646a 3dbc 6449 1ebd e82d cfbd
000000a0: 38c1 46bb c9dc 94bd e3a0 8c3d a07f 693c
000000b0: b83b 0cbc c8d8 e3bd 2313 05bc a992 8dbd
000000c0: d90d d5bd d99e 4c3c e90c cbbd f823 8a3d
000000d0: 16fc 7ebc 3aed 8cbc d126 033d 7ffc 9a3c
000000e0: 9967 32bd a2ad b1bd 39b6 423d ff6c ddbc
000000f0: 07bf 3fbd 9737 2bbd ec1e 82bd 60d6 07be
00000100: 8771 cbbd c42c dbbd 6741 93bd c92f df3c
00000110: 8a3f dcbb 6a21 eabd bd43 99bd 5b93 04bb
00000120: 5ec2 623c a744 4e3d 7b2c 5e39 4e83 24bd
00000130: 3259 fabc 25dc 68bd 4908 8bbd 0cfa 19bc
-0.030069957 0.004199354 0.011391432 -0.0685914 -0.06105064 -0.0666336 0.014697695 0.022161286
-0.05472158 -0.01049539 -0.07431548 0.022995763 -0.027778897 0.017283557 -0.061835833 0.0051947255
-0.03133591 -0.01711339 -0.035984933 -0.012333896 -0.038305495 -0.08761831 0.006340924 0.0671506
-0.010741008 0.005020882 0.006959843 -0.08129841 0.06456361 0.013944279 0.032915886 -0.0494379
-0.116575055 -0.08347137 -0.011876383 -0.047358297 -0.10147601 -0.01156101 -0.03864421 -0.10116178
-0.003032757 -0.07268674 0.06866624 0.01425162 -0.00855916 -0.11125332 -0.008122238 -0.06912739
-0.10403032 0.012489044 -0.09914572 0.06745142 -0.015563032 -0.017202962 0.03201944 0.018919228
-0.04355583 -0.08675696 0.047537062 -0.027029512 -0.046813037 -0.04180106 -0.06353554 -0.13265371
-0.09933763 -0.10701898 -0.07190209 0.027244465 -0.0067214416 -0.114321545 -0.07483623 -0.0020229432
0.013840286 0.05035844 0.0002118814 -0.040164284 -0.03056011 -0.05685057 -0.0678869 -0.009397995

weight f4 [80, 80, 2]
00000000: a324 e3bc c985 bdbb 4ec9 09bd 4c91 c3b9
00000010: 4716 a03b 8666 2c3a ce4b 6c3b 44a8 b13c
00000020: 83b1 35bc 53cf 7dbc b25f 35b9 efaf 4b3c
00000030: aefa 21bc 3d15 bb3a db1b 73bc 3938 24bc
00000040: 0843 9abc 61be 99bb 533d cfbc e1d2 2a3a
00000050: dd99 c2bc 44c9 95bc 42d2 6ebc 641c 9dbc
00000060: 7436 50bc a3b3 3637 ec32 3abb bb22 04bb
00000070: 1d14 dfbb 5c27 b73c 0359 913b 42ff 9abc
00000080: 6513 d5bc 4093 2cbc 563e 03bc c136 83bb
00000090: 9c37 87bc ead3 3ebc c2f5 443c 8670 d5ba
000000a0: 8d15 50bc 5a2a 1d3c 9895 debc 66fc 2d3b
000000b0: 82d8 fabc 2bbd 92bb 90b7 87bc b25c e9bb
000000c0: 5954 3a3b 8e7e 823c 5989 4cbb 2579 e83b
000000d0: d13c 8aba 4860 863c 2f16 963b 3be5 3a3c
000000e0: dfb2 89bc 730f 753c 46a9 e43b f585 8abb
000000f0: 688e 85bc 458a 973a aae1 7abc dc51 bebb
00000100: 71f2 b8bc 8280 6b3b 16e9 abbc 2cb0 2fbc
00000110: f0fb 3b3c ac86 f3bb fcaf 363b 0b69 d23a
00000120: 9b0b 903b 8a32 e33b a95d 7bbb ff3a 463c
00000130: b6cd c9bb 96dc 20bc 39c1 76bc 6cc7 63bc
00000140: dc2b 47bc 301c 7bbc 16b6 d0bc 1857 403c
00000150: 3be3 b43b d965 9d3c 3942 4ebc c050 6f3b
00000160: 633f c2bb 8819 433c ad89 bbbc bfbd dcbc
00000170: 0853 c93b e046 70bc 6565 6bbc 8d2c 15bc
00000180: 224a edbc fbbc f8bb 5e79 323c 27d1 d13c
00000190: 66ec e7bc b929 9dba 57fa f2ba d245 17bc
000001a0: 64ea 48bc 3d6a 9fbc dd90 a63b bf88 98bb
000001b0: 3626 00bb d797 e8b9 d6ca 04bb b4bb b33b
000001c0: 0613 86bc d149 5abc 89ce 9cba c7bf 4fbc
000001d0: 514f 82bb e242 0abc d8e1 ddba 0153 0aba
000001e0: 5534 9d3b df10 88bc c1e2 d4bc e3ad b5bb
000001f0: d112 473b 64ba cc3b 8f5e b1ba d83e 1ebc
00000200: e583 64bc 5c38 b6bc 4316 0ebc d1cd 4fbc
00000210: cbba a3bc b35d 233c f056 30bc cf2e ecbb
00000220: d7b5 cfbc 5002 8cbc a51a 14bc 6bcc acbc
00000230: d8e1 bfbb fc1d 8d3c b000 cebc d83d 76bc
00000240: 10ef f53b 36bf 5cbc f973 71bc 297c 5d3c
00000250: 0aa6 f5bb b14a 0e3c 7825 6eba 3841 91bb
00000260: c305 52bc 0093 c1ba fa06 dfbc af01 4ebc
00000270: 864e edbb e885 3f3c 8b99 b4ba 999c 6dbc
00000280: 7abe f7bb ca88 8abb ff9c 853a c8ed 92bc
00000290: 71b0 6fbb a103 1a3b fdc4 083c a81f 103c
000002a0: 56ca 12bc 3b1a 6cbc 6691 dfbb 3a26 4a3c
000002b0: 1074 6abb c904 48bc ccd6 f6bb 159c 6bbc
000002c0: 244e 02ba b2f5 aebc df00 463c 2790 db3b
000002d0: ad4f 1c3c 1e96 f0bc 5a49 7239 68e9 87b8
000002e0: 1867 cd3b 288d 80bc ece7 163c 5248 5e3c
000002f0: 28e4 f2bb 73e0 fb3a 9af6 8cbb 1cc6 24bd
00000300: e54c 9fbc ede6 c3bc 3c29 a13c 2f7b 3abb
00000310: 2242 3e3d ed4f 413d 02a5 ce3a f502 08bc
00000320: 27be 3cba 6fff 163c d8e4 28bd fe01 693c
00000330: 39b5 85bc a7ac 583c 4704 aa3b 246e 8bba
00000340: 5fa1 293d cb33 df3c a9fa 70bb 7296 93bc
00000350: 9ed4 12bd a822 d1bc e8fe 14bc c8cc 4c3b
00000360: 4243 01bd c90b 03bd 4d3a be3b 6b9a 3c3b
00000370: a536 813c 1a4a 853a 3c1c 843c 420f 353c
00000380: ff75 093b fe76 dbbc 2105 53ba 3077 d6bc
00000390: 8531 97bc 2698 a3bc f24b a2bd 33f7 35bd
000003a0: ea98 8a3b 189c e2bc 170d c8bb 6877 e8bc
000003b0: 02a9 22bc 4d50 153c d1b2 823c 469b a4bc
000003c0: 969e f038 fa48 62bb ed5d d0bb bf0b 41bc
000003d0: 92ef 623d df76 2c3d be27 e0bc 6766 c6ba
000003e0: b3f9 fdbc 9819 febc 56a8 e1bc 5ffd c4bb
000003f0: 2f40 a83b 9b36 06bc a5f9 b7bc a10b 29bd
-0.02772743 -0.0057837707 -0.033639245 -0.00037301553 0.004885468 0.00065765565 0.0036055925 0.02168668
-0.011089685 -0.0154913245 -0.00017297154 0.012432083 -0.009886427 0.0014273297 -0.014838184 -0.01002317
-0.018830791 -0.0046918844 -0.025297796 0.0006516409 -0.023755008 -0.018284447 -0.014576497 -0.019178577
-0.012708295 1.088987e-05 -0.00284117 -0.0020162303 -0.0068078176 0.022357635 0.00443566 -0.018920545
-0.026010225 -0.010533154 -0.0080104675 -0.00400433 -0.016506009 -0.011647204 0.012021484 -0.0016284145
-0.012700451 0.009592617 -0.027170941 0.0026548146 -0.030620817 -0.004478117 -0.016567022 -0.007121646
0.0028431623 0.015929487 -0.0031209795 0.0070945197 -0.0010546689 0.016403332 0.004580281 0.011407192
-0.016808925 0.014957297 0.006978187 -0.0042273947 -0.016303256 0.0011561593 -0.015312592 -0.0058080982
-0.022576543 0.003593475 -0.020985167 -0.010723155 0.011473641 -0.0074318256 0.002787589 0.0016053034
0.0043959147 0.006933515 -0.0038355386 0.012099027 -0.006158556 -0.009818217 -0.015060716 -0.013902526
-0.012156453 -0.015326545 -0.02547745 0.011739515 0.005520252 0.019213604 -0.012589031 0.0036516637
-0.0059279664 0.011907943 -0.022892797 -0.026945947 0.0061439313 -0.014665335 -0.014367436 -0.00910486
-0.028966013 -0.0075908876 0.010893194 0.025612427 -0.028310966 -0.0011990584 -0.0018537742 -0.009232955
-0.012262914 -0.019459838 0.005083187 -0.0046549733 -0.0019554025 -0.00044363618 -0.0020262501 0.0054850224
-0.016366493 -0.013323263 -0.0011963408 -0.012680001 -0.0039767404 -0.008438798 -0.0016928269 -0.0005276651
0.004797498 -0.016609607 -0.025987031 -0.0055444106 0.0030376206 0.0062478054 -0.0013532209 -0.009658538
-0.013947462 -0.022243671 -0.0086723 -0.012683348 -0.01998653 0.00997107 -0.010762915 -0.0072077285
-0.025355263 -0.017090946 -0.009039556 -0.021093568 -0.00585578 0.017226212 -0.025146812 -0.015029393
0.007505305 -0.013473323 -0.014737123 0.013518372 -0.0074966 0.0086848 -0.0009084563 -0.0044328235
-0.0128187565 -0.0014768541 -0.027225006 -0.012573644 -0.0072420267 0.011689641 -0.001377867 -0.014502668
-0.0075605484 -0.0042277323 0.0010193883 -0.017935649 -0.0036573673 0.0023500698 0.008347747 0.00879661
-0.008959373 -0.014410551 -0.0068227528 0.0123382155 -0.0035774745 -0.012208172 -0.00753293 -0.014380475
-0.00049707503 -0.021357391 0.012085169 0.006700534 0.009540481 -0.029368456 0.00023106244 -6.480777e-05
0.0062683932 -0.015692309 0.009210568 0.013567047 -0.0074124523 0.0019216671 -0.004301858 -0.040227994
-0.019445846 -0.023913825 0.019672982 -0.002845477 0.046449788 0.047195364 0.0015765729 -0.008301486
-0.0007199966 0.009216174 -0.041233867 0.014221666 -0.016321765 0.013224757 0.005188498 -0.0010637683
0.04141366 0.027246376 -0.00367705 -0.018016074 -0.0358473 -0.02552922 -0.0090939775 0.0031249989
-0.031558283 -0.03199366 0.00580529 0.0028778564 0.015773127 0.0010169179 0.016126744 0.011051001
0.0020974872 -0.026790138 -0.00080497755 -0.02617988 -0.01845623 -0.019970011 -0.07924642 -0.0444252
0.0042296546 -0.027662322 -0.006105076 -0.02837725 -0.00992799 0.0091133835 0.015954407 -0.020093571
0.00011473631 -0.003452836 -0.006358853 -0.011782586 0.055404253 0.04210555 -0.0273627 -0.001513672
-0.031002855 -0.031018063 -0.02754609 -0.0060116495 0.0051346044 -0.00819173 -0.022457907 -0.041270856
