GAN/PM Generator/PM_epochs=1000_seq=100_batch=16.pth (torch, 675068 bytes, 31 tensors)

weight f4 [1, 80, 1]
-0.0012918405 0.026654465 -0.010241312 -0.009940207 0.00078854937 0.026546529 -0.009828599 0.00023005386
-0.00305708 0.030211747 -0.0054668523 0.02186967 -0.0008019783 0.0036948738 0.00604728 0.00017673857
-0.0070928643 0.03421278 -0.007056509 -0.0148028135 0.0012657427 -0.0008443109 -0.0053250515 0.026909942
-0.0024202748 -0.008132896 0.029991101 0.019634712 0.00064459484 -0.011724169 0.008896933 -0.0024453916
-0.014076538 -0.0129253445 0.026783813 0.026468687 0.023462214 -0.0012673934 0.00032072962 0.0010775148
-0.016234023 -0.01702769 0.006436372 -0.014636616 -0.001807429 -0.013982904 -0.013732561 0.0019380075
-0.0004969626 -0.0013198185 -0.010531363 -0.0011576471 -0.010932911 0.0022669826 0.0013225577 -0.0005450545
-0.00037904963 -0.0065779453 -0.01035431 0.010882978 0.027087837 -0.0063172835 0.02402826 0.023135029
0.012211187 -0.004477771 -0.00011119146 -0.0011005278 0.0042889933 -0.0027228298 -0.0056319777 -0.0010406512
-0.0007079775 -0.016950948 0.0039455234 -0.0061010695 -0.005915445 0.0014562849 -0.019808844 -0.005597621
00000000: f952 a9ba 775a da3c 2dcb 27bc 40dc 22bc
00000010: a7b6 4e3a 1b78 d93c 2208 21bc 9d3a 7139
00000020: 4b59 48bb a07e f73c 4823 b3bb 0628 b33c
00000030: da3b 52ba b225 723b 4328 c63b e652 3939
00000040: 426b e8bb b322 0c3d 4a3a e7bb 8087 72bc
00000050: 47e7 a53a bf54 5dba c57d aebb 3d72 dc3c
00000060: 799d 1ebb d73f 05bc e6af f53c fad8 a03c
00000070: 07fa 283a bb16 40bc 71c4 113c dd42 20bb
00000080: 48a1 66bc d3c4 53bc ba69 db3c dcd4 d83c
00000090: d433 c03c aa1e a6ba 9a27 a839 663b 8d3a
000000a0: 37fd 84bc a77d 8bbc 34e8 d23b 6bce 6fbc
000000b0: 41e7 ecba 8d18 65bc 89fe 60bc be04 fe3a
000000c0: 9846 02ba c3fd acba bd8b 2cbc 31bc 97ba
000000d0: f41f 33bc a891 143b ac59 ad3a fde1 0eba
000000e0: 2ebb c6b9 ce8b d7bb 20a5 29bc 854e 323c
000000f0: 50e7 dd3c 3701 cfbb ead6 c43c ac85 bd3c
00000100: 6e11 483c 44ba 92bb 762f e9b8 963f 90ba
00000110: af8a 8c3b 8171 32bb 748c b8bb 7666 88ba
00000120: 9197 39ba b7dc 8abc 7349 813b 7beb c7bb
00000130: 59d6 c1bb d0e0 be3a 2846 a2bc 406c b7bb

weight f4 [80, 3, 1]
0.09665625 -0.10690273 0.104577325 0.079763606 -0.10672911 0.10027139 -0.057624176 0.08921667
-0.07124628 -0.09151079 0.09645387 -0.105326556 -0.07257841 0.08946173 -0.08570322 -0.095780306
0.11927 -0.10820346 -0.093366735 0.098266855 -0.09969473 -0.08932152 0.077999145 -0.0790957
-0.068674505 0.08636571 -0.0878827 -0.092553675 0.08419023 -0.09058543 0.11372798 -0.119054444
0.1070904 0.067855135 -0.07038999 0.069517694 -0.07282447 0.11438137 -0.080408774 0.08816586
-0.08651156 0.10245564 -0.08756422 0.07757101 -0.09100909 0.086614355 -0.08996431 0.10603395
-0.09024321 0.11703352 -0.08239835 0.120601244 -0.11432673 0.12764038 -0.07459267 0.09741988
-0.074446715 0.09604013 -0.100308254 0.11428072 -0.082530566 0.10317752 -0.0747027 0.088085
-0.10680008 0.08486178 -0.0712373 0.10111364 -0.089218944 0.07195679 -0.0738018 0.07079557
-0.09709303 0.08738893 -0.09185673 0.11704073 -0.12388745 0.11067807 -0.075629726 0.073743545
-0.08573856 0.08553509 -0.092682846 0.108819604 -0.06678487 0.08299018 -0.065288335 0.08729942
-0.11284375 0.11014434 -0.0922765 0.085085936 -0.07941526 0.06814153 -0.078252055 0.07614933
0.102514416 -0.10374827 0.08820146 0.095167354 -0.101300575 0.08911063 -0.069676906 0.09108188
-0.07473825 -0.08950453 0.08685737 -0.102479994 0.10074487 -0.0996362 0.08668756 -0.10973685
0.10190379 -0.1056808 -0.07654327 0.08911209 -0.08151951 -0.0750061 0.095531516 -0.07926862
0.08213706 -0.10200183 0.08097291 0.08654844 -0.10828172 0.107880354 -0.07187596 0.1079728
-0.06939417 0.10479445 -0.108110726 0.12912995 -0.09035801 0.09885136 -0.09384353 0.09758501
-0.11723674 0.10255737 -0.08172127 0.13171348 -0.08173375 0.09396015 -0.112895966 0.122650094
-0.09155004 0.10517395 -0.107441254 -0.08650438 0.073309734 -0.07509606 -0.07320066 0.08353771
-0.07889789 -0.082895264 0.09000025 -0.086251825 -0.090322606 0.08698398 -0.09551389 -0.06454621
0.090598956 -0.06367579 0.09437418 -0.11293929 0.11633887 0.08640703 -0.08001231 0.10977957
-0.07761278 0.12821437 -0.10001418 0.105107665 -0.105673224 0.10637635 -0.08567003 0.0979961
-0.0893312 0.07908123 -0.09604084 0.08167548 -0.11508378 0.14048143 -0.124725305 0.08628674
-0.1064076 0.092142135 0.095518515 -0.091482 0.112148225 0.09612188 -0.10446268 0.10752106
-0.057331543 0.09008571 -0.079636954 -0.084105596 0.080954306 -0.07590064 0.06874968 -0.07951987
0.07074501 0.0996197 -0.10385528 0.09425705 0.10718906 -0.12644342 0.10670797 -0.096183956
0.0974784 -0.102630615 0.08390409 -0.09152973 0.084886655 -0.08905393 0.096786246 -0.0659199
0.09512075 -0.09009111 0.08881835 0.102573335 -0.119999334 0.09052327 -0.083549336 0.10263613
-0.08294971 -0.105798416 0.11597641 -0.09743858 0.06908586 -0.08213257 0.0835696 -0.08536936
0.111156315 -0.09886042 0.099971786 -0.07811248 0.08915156 0.0817546 -0.09240105 0.1003219
00000000: b6f3 c53d d2ef dabd a32c d63d 1a5b a33d
00000010: cb94 dabd 165b cd3d 5407 6cbd 3bb7 b63d
00000020: 92e9 91bd 026a bbbd 9b89 c53d 73b5 d7bd
00000030: fda3 94bd b637 b73d 2b85 afbd 7728 c4bd
00000040: d443 f43d c799 ddbd 0f37 bfbd 2240 c93d
00000050: c02c ccbd 33ee b6bd 04be 9f3d edfc a1bd
00000060: 38a5 8cbd 81e0 b03d d8fb b3bd c88c bdbd
00000070: ed6b ac3d db84 b9bd 37ea e83d d1d2 f3bd
00000080: 3652 db3d a2f7 8a3d a128 90bd 4b5f 8e3d
00000090: ff24 95bd c840 ea3d 5bad a4bd 4d90 b43d
000000a0: f92c b1bd 43d4 d13d df54 b3bd 8ddd 9e3d
000000b0: f962 babd de62 b13d 353f b8bd 5428 d93d
000000c0: 6fd1 b8bd 45af ef3d 77c0 a8bd c9fd f63d
000000d0: 2224 eabd 29b4 023e 0bc4 98bd 1384 c73d
000000e0: 8577 98bd b0b0 c43d 6a6e cdbd 030c ea3d
000000f0: c905 a9bd bc4e d33d bbfd 98bd e965 b43d
00000100: 00ba dabd 03cc ad3d dde4 91bd ab14 cf3d
00000110: 6cb8 b6bd 155e 933d 6625 97bd 45fd 903d
00000120: b6d8 c6bd f8f8 b23d 621f bcbd 0db3 ef3d
00000130: b4b8 fdbd 2fab e23d c2e3 9abd db06 973d
00000140: b397 afbd 052d af3d 81d0 bdbd d0dc de3d
00000150: 82c6 88bd c1f6 a93d e4b5 85bd 0aca b23d
00000160: a01a e7bd 5b93 e13d 76fb bcbd 8941 ae3d
00000170: 78a4 a2bd c98d 8b3d 9d42 a0bd 2ef4 9b3d
00000180: 14f3 d13d f979 d4bd f8a2 b43d 1ae7 c23d
00000190: ad76 cfbd a27f b63d c4b2 8ebd 2389 ba3d
000001a0: 5e10 99bd 274e b7bd 47e2 b13d 08e1 d1bd
000001b0: 5453 ce3d 100e ccbd 3f89 b13d b7bd e0bd
000001c0: efb2 d03d 2d6f d8bd b8c2 9cbd 6680 b63d
000001d0: b3f3 a6bd cc9c 99bd 07a6 c33d 9657 a2bd
000001e0: 7a37 a83d 56e6 d0bd 20d5 a53d 4f40 b13d
000001f0: cec2 ddbd 60f0 dc3d b433 93bd d820 dd3d
00000200: 881e 8ebd 799e d63d 2869 ddbd a43a 043e
00000210: 9f0d b9bd 9572 ca3d 0931 c0bd a6da c73d
00000220: d119 f0bd 9909 d23d 7b5d a7bd e6df 063e
00000230: 0664 a7bd 2e6e c03d 0036 e7bd f92f fb3d
00000240: 967e bbbd 7165 d73d 290a dcbd 3529 b1bd
00000250: 6a23 963d f7cb 99bd 3aea 95bd d215 ab3d
00000260: 3895 a1bd fec4 a9bd 0d52 b83d cca4 b0bd
00000270: 0ffb b8bd a824 b23d c99c c3bd ce30 84bd
00000280: f28b b93d 7468 82bd 4047 c13d b74c e7bd
00000290: 1343 ee3d 2bf6 b03d 7edd a3bd 1cd4 e03d
000002a0: 73f3 9ebd a14a 033e 3cd4 ccbd b042 d73d
000002b0: 346b d8bd d8db d93d c573 afbd 2eb2 c83d
000002c0: 47f3 b6bd 57f5 a13d 0fb1 c4bd 7945 a73d
000002d0: 0bb1 ebbd 5dda 0f3e fb6f ffbd 1ab7 b03d
000002e0: 3aec d9bd 04b5 bc3d 369f c33d ea5a bbbd
000002f0: f8ad e53d 8cdb c43d 88f0 d5bd 0034 dc3d
00000300: 7bd4 6abd db7e b83d b318 a3bd 8e3f acbd
00000310: 5fcb a53d cb71 9bbd a2cc 8c3d 50db a2bd
00000320: c3e2 903d 6a05 cc3d 14b2 d4bd d709 c13d
00000330: f085 db3d 627a 01be b589 da3d 18fc c4bd
00000340: c1a2 c73d 0030 d2bd e8d5 ab3d f073 bbbd
00000350: 0ed9 ad3d e861 b6bd de37 c63d 0301 87bd
00000360: abce c23d b081 b8bd 65e6 b53d f811 d23d
00000370: 36c2 f5bd 4464 b93d ea1b abbd e432 d23d
00000380: 8ae1 a9bd d7ac d8bd 0a85 ed3d e18d c7bd
00000390: e37c 8d3d 1f35 a8bd 8a26 ab3d 22d6 aebd
000003a0: eca5 e33d 5577 cabd 02be cc3d 70f9 9fbd
000003b0: 1895 b63d f56e a73d c33c bdbd 9175 cd3d

bias f4 [80]
-0.3953386 -0.47179914 0.025452824 0.4801483 0.24170262 0.4778599 0.4077107 0.17353536
0.23353155 0.29478413 -0.5514412 -0.03958091 0.10605157 -0.36284387 0.29527876 -0.52670264
0.5014667 -0.4716298 0.2640794 -0.5240126 0.24792501 -0.2962278 0.0762378 -0.041426722
0.5239551 -0.46093348 0.25321132 -0.18795131 0.020818274 -0.39422765 0.14560398 -0.04121754
-0.5007071 -0.43251073 0.022671035 0.4141905 -0.44900224 0.4779011 0.28843012 0.1824339
-0.28854275 -0.3255794 0.2673374 -0.41191968 0.5129805 -0.3297165 0.5352843 -0.4273022
0.5358477 0.15684433 0.24302739 0.2874543 0.36370993 0.20090067 -0.46485087 -0.27220464
0.1270899 -0.24813753 0.2773315 -0.2631279 0.47480655 -0.2976115 -0.3521722 -0.4090394
0.17739892 0.12620926 -0.10305065 -0.31452534 -0.37020805 0.49694312 -0.32048193 0.11954346
-0.50997555 -0.46527645 0.004184501 0.5463999 -0.060312416 0.33767822 -0.13608626 -0.20731884
00000000: d269 cabe a88f f1be 7182 d03c ffd5 f53e
00000010: e480 773e 0eaa f43e 75bf d03e 41b3 313e
00000020: e522 6f3e f2ed 963e 402b 0dbf 981f 22bd
00000030: 9131 d93d acc6 b9be c72e 973e fcd5 06bf
00000040: 1f60 003f 7679 f1be 6a35 873e b125 06bf
00000050: 0ee0 7d3e 2cab 97be 9022 9c3d 11af 29bd
00000060: ec21 063f 79ff ebbe eaa4 813e 4f76 40be
00000070: 168b aa3c 35d8 c9be 3619 153e b9d3 28bd
00000080: 572e 00bf 0c72 ddbe 9bb8 b93c c710 d43e
00000090: 9fe3 e5be 74af f43e 1dad 933e f4cf 3a3e
000000a0: e0bb 93be 58b2 a6be 73e0 883e 23e7 d2be
000000b0: b152 033f 9ad0 a8be 6408 093f 5bc7 dabe
000000c0: 512d 093f cd9b 203e 2cdc 783e 362d 933e
000000d0: 3038 ba3e e8b8 4d3e ef00 eebe 685e 8bbe
000000e0: db23 023e c417 7ebe 65fe 8d3e b3b8 86be
000000f0: d819 f33e 8960 98be ea4f b4be 9d6d d1be
00000100: 10a8 353e 003d 013e 380c d3bd 7709 a1be
00000110: e98b bdbe 546f fe3e 3516 a4be 34d3 f43d
00000120: c28d 02bf b738 eebe 231e 893b dde0 0b3f
00000130: 270a 77bd 29e4 ac3e 325a 0bbe 644b 54be

weight f4 [80, 80, 1]
-0.011025257 0.013826962 0.030375121 -0.005876655 0.0014943555 -0.008350942 -0.00743396 0.0137185985
0.005704884 -0.0042199027 0.01974802 -0.049853843 0.017049039 -0.0028867081 -0.011714062 0.024605343
-0.005948699 0.0046005826 -0.019005507 0.009162943 -0.0032957552 -0.039244145 0.012952702 -0.06471423
-0.0034896554 0.003474167 -0.010685841 -0.038372498 0.025067866 -0.0037515466 -0.0099382615 -0.049330477
0.010783738 0.00049021206 0.027500622 0.01096316 0.027828155 -0.016419467 0.009029906 -0.009039243
-0.0099467365 -0.01411533 -0.008112315 0.018544758 0.0051975884 -0.03805316 -0.01523758 -0.0006184539
0.00976921 -0.020927856 -0.02032916 -0.014917944 -0.0064597274 -0.009829472 0.016163565 -0.042427003
-0.0055329064 -0.056278247 0.0042853714 -0.040406648 0.01446793 -0.017579438 0.018740408 -0.0047211586
0.006843194 -0.009425772 -0.039073065 -0.02397157 -0.004562781 0.012065928 0.017486846 0.0011431489
0.0021736752 0.008837468 0.022762235 -0.0137180155 -0.056575477 0.0027892026 -0.022108592 -0.017156975
0.017442431 0.018612808 -0.05190254 -0.017925246 -0.050194487 -0.028588302 -0.021723041 -0.06762614
-0.049664635 -0.044485755 0.026114399 0.05170793 -0.05940691 0.0336243 -0.033036843 0.036880177
-0.024619503 0.011860273 -0.03618675 0.0035444892 -0.03782721 0.07743476 -0.04804421 0.047524747
-0.017544584 0.028851606 -0.029129539 0.08006834 -0.048284363 0.041590486 -0.097169995 0.07407361
0.016690413 0.03272854 -0.05342803 -0.03047135 0.04403127 -0.024097443 -0.035401635 -0.07066351
0.07496803 0.06393489 -0.036193307 0.04172539 -0.028699888 0.0807436 -0.025264306 0.043690003
-0.018686833 -0.07494143 -0.049159523 -0.037125412 -0.023398943 -0.051720515 0.029037228 0.08524497
-0.08105365 0.076135606 -0.035650015 0.069498196 -0.029096944 0.06987597 0.053512026 0.03223373
-0.046597965 -0.09952664 0.045307346 0.08121812 0.0952513 -0.010580693 0.04431816 -0.10293914
0.032419536 0.038998347 -0.07360597 -0.007880414 0.05693317 -0.036253 0.069233075 0.082991585
-0.0033072885 -0.001956109 0.029588914 -0.023225158 0.014818143 -0.031971928 -0.008088478 0.024365332
-0.0071212156 0.00049296755 0.009983291 -0.055477228 -0.022497214 -0.0013460844 0.0012011704 0.0080250185
-0.015946247 0.012163236 0.021403259 0.0057507306 -0.013685942 -0.010061886 -0.010926456 -0.07398068
-0.02107752 0.024082497 -0.0010558137 -0.06810441 0.029005952 -0.008514929 0.012518604 -0.04558322
0.01210824 -0.0027918583 0.026239688 -0.0025798983 0.0016560848 0.00048369358 0.0019958643 0.014471847
-0.003699925 -0.013140033 -0.021842422 0.008698425 -0.016401593 -0.019878011 0.0068541756 0.01646557
0.0019805764 -0.018051432 -0.013955024 0.019507512 -0.021467865 0.007019481 -0.00031772297 -0.0043969126
-0.009116402 -0.02206305 0.008251937 -0.018656777 -0.015015957 -0.017720522 0.0130028045 0.010497786
0.013452821 -0.005297867 -0.07579836 0.02590325 -0.0031254748 -0.016633641 0.014485642 -0.022546787
0.021875387 0.006824681 0.07047782 -0.010973916 -0.08574326 -0.007426322 -0.07580283 -0.009561645
0.01008357 0.017720142 0.04062962 -0.015543342 -0.013753362 -0.0049206303 -0.015677717 -0.0005445002
0.0072366092 -0.010595199 0.014572195 -0.054874685 0.008967193 0.018303886 -0.009062018 0.025910785
00000000: 48a3 34bc 7b8a 623c 3fd5 f83c f590 c0bb
00000010: 40de c33a 64d2 08bc 9498 f3bb f9c3 603c
00000020: 09f0 ba3b 1c47 8abb 9ac6 a13c 8b33 4cbd
00000030: 6daa 8b3c ed2e 3dbb 56ec 3fbc 2591 c93c
00000040: 4eed c2bb 7cc0 963b 70b1 9bbc 2b20 163c
00000050: 99fd 57bb 78be 20bd 9237 543c e588 84bd
00000060: b4b2 64bb daae 633b aa13 2fbc 7b2c 1dbd
00000070: 205b cd3c 82dc 75bb 17d4 22bc c10e 4abd
00000080: 47ae 303c 9381 003a fc48 e13c d39e 333c
00000090: dff7 e33c 1e82 86bc 2cf2 133c 5519 14bc
000000a0: a3f7 22bc fc43 67bc 84e9 04bc 2deb 973c
000000b0: 8850 aa3b a1dd 1bbd 0ba7 79bc bd1f 22ba
000000c0: 090f 203c e570 abbc 5789 a6bc 646a 74bc
000000d0: 1fac d3bb cb0b 21bc 7469 843c f0c7 2dbd
000000e0: 624d b5bb 0584 66bd 4d6c 8c3b 7181 25bd
000000f0: e60a 6d3c c102 90bc 7c85 993c f3b3 9abb
00000100: df3c e03b 8e6e 1abc 140b 20bd 0760 c4bc
00000110: 6283 95bb 2cb0 453c 9340 8f3c b6d5 953a
00000120: 3874 0e3b 07cb 103c de77 ba3c 87c1 60bc
00000130: b0bb 67bd 0ecb 363b 141d b5bc c98c 8cbc
00000140: 6ee3 8e3c e379 983c c297 54bd f7d7 92bc
00000150: bc98 4dbd 0432 eabc 85f4 b1bc 937f 8abd
00000160: 256d 4bbd b236 36bd dded d53c b2cb 533d
00000170: a954 73bd a2b9 093d a451 07bd ab0f 173d
00000180: d7ae c9bc 9751 423c 8f38 14bd a94a 683b
00000190: b4f0 1abd 1e96 9e3d 01ca 44bd 4fa9 423d
000001a0: a9b9 8fbc 345a ec3c 12a1 eebc dffa a33d
000001b0: d3c5 45bd c95a 2a3d 1001 c7bd e8b3 973d
000001c0: 55ba 883c 5d0e 063d 5ad7 5abd 0d9f f9bc
000001d0: 225a 343d 0068 c5bc 4e01 11bd 08b8 90bd
000001e0: d788 993d 4cf0 823d 6f3f 14bd 3ee8 2a3d
000001f0: 071c ebbc e75c a53d 17f7 cebc 4af4 323d
00000200: 2115 99bc e47a 99bd 7f5b 49bd d110 18bd
00000210: 24af bfbc e4d8 53bd 7bdf ed3c ea94 ae3d
00000220: 75ff a5bd fcec 9b3d c005 12bd 1255 8e3d
00000230: b75c eebc 221b 8f3d 6d2f 5b3d 8407 043d
00000240: 82dd 3ebd 9fd4 cbbd 3294 393d b055 a63d
00000250: 1d13 c33d a55a 2dbc f586 353d c1d1 d2bd
00000260: 59ca 043d bbbc 1f3d babe 96bd da1c 01bc
00000270: c132 693d 077e 14bd 12ca 8d3d 7ef7 a93d
00000280: 18bf 58bb 1032 00bb 7364 f23c b042 bebc
00000290: ccc7 723c fff4 02bd 8985 04bc ce99 c73c
000002a0: 1659 e9bb 7e3a 013a f590 233c 173c 63bd
000002b0: 144c b8bc 196f b0ba 9770 9d3a 5e7b 033c
000002c0: b4a1 82bc 4f48 473c e355 af3c a070 bc3b
000002d0: 003b 60bc 9cda 24bc e104 33bc 2f83 97bd
000002e0: c3aa acbc a848 c53c 3b63 8aba 537a 8bbd
000002f0: e49d ed3c 3382 0bbc d51a 4d3c 78b5 3abd
00000300: a461 463c 9cf7 36bb 9df4 d63c 8313 29bb
00000310: fc10 d93a 4198 fd39 0ccd 023b 531b 6d3c
00000320: 717a 72bb 4b49 57bc e1ee b2bc d783 0e3c
00000330: a25c 86bc 36d7 a2bc fe98 e03b cee2 863c
00000340: 8fcc 013b 99e0 93bc 9da3 64bc 38ce 9f3c
00000350: 60dd afbc ad03 e63b 0e94 a6b9 fa13 90bb
00000360: f65c 15bc 92bd b4bc 2233 073c 19d6 98bc
00000370: 7d05 76bc a12a 91bc b709 553c e8fe 2b3c
00000380: 3969 5c3c bb99 adbb 2c3c 9bbd 0d33 d43c
00000390: c4d4 4cbb 4643 88bc 3055 6d3c 0ab4 b8bc
000003a0: 0334 b33c 93a1 df3b ad56 903d f1cb 33bc
000003b0: 2a9a afbd 8158 f3bb 843e 9bbd 72a8 1cbc
000003c0: 8f35 253c d529 913c 3f6b 263d 80a9 7ebc
000003d0: c855 61bc 3d3d a1bb 8e6e 80bc cabc 0eba
000003e0: 1421 ed3b 7c97 2dbc 37c0 6e3c 47c4 60bd
000003f0: 22eb 123c 08f2 953c dc78 14bc db42 d43c

bias f4 [80]
-0.011163241 0.06624022 0.062203277 -0.02084343 0.11448841 0.091299765 0.072127104 0.020850385
-0.10885954 0.06944025 -0.041479368 0.09332754 -0.06638239 -0.0034110376 -0.036622085 0.06533368
-0.04208068 0.054510772 0.019046908 0.004785766 -0.011440771 -0.05624204 -0.015027933 0.0327306
0.079257056 -0.026204815 -0.10209787 0.004978261 -0.092507854 -0.010687956 0.07776918 -0.04081192
0.034067642 0.06305166 -0.01542449 0.06347357 0.090010166 0.032758206 -0.0016196392 -0.09877913
0.037423924 -0.11092551 -0.023694815 0.08104974 0.017914653 0.0004134282 -0.094087906 0.031955127
-0.03485634 0.0991458 0.083557494 -0.0050732284 0.068208866 0.055403467 0.05392828 -0.0027540356
0.052089512 -0.03355104 -0.07689005 0.024521312 -0.051653273 0.10720101 0.036985148 0.07136098
0.0058013108 -0.10484872 0.045065746 -0.09728679 0.11719883 0.021122873 -0.088033676 -0.00093052455
0.080033 -0.07534826 0.056718003 0.09390037 -0.062983036 -0.09375575 0.04864931 0.06292772
00000000: 07e6 36bc f4a8 873d ddc8 7e3d d7bf aabc
00000010: e678 ea3d 5ffb ba3d 60b7 933d 6dce aa3c
00000020: c0f1 debd b136 8e3d 45e6 29bd 8222 bf3d
00000030: 7ef3 87bd b78b 5fbb 0a01 16bd aacd 853d
00000040: cb5c 2cbd b046 5f3d 4308 9c3c ead1 9c3b
00000050: 1272 3bbc 0e5e 66bd b837 76bc 8610 063d
00000060: 8651 a23d 7bab d6bc b018 d1bd ae20 a33b
00000070: c274 bdbd 891c 2fbc 7345 9f3d 662a 27bd
00000080: 838a 0b3d 3b21 813d 00b7 7cbc 6efe 813d
00000090: 4057 b83d 782d 063d 134a d4ba b64c cabd
000000a0: d449 193d ea2c e3bd a11b c2bc 68fd a53d
000000b0: c0c1 923c 65c1 d839 29b1 c0bd 61e3 023d
000000c0: 86c5 0ebd f40c cb3d 3120 ab3d 533d a6bb
000000d0: 17b1 8b3d bfee 623d e6e3 5c3d 0d7d 34bb
000000e0: d05b 553d d16c 09bd 8878 9dbd ebe0 c83c
000000f0: 6292 53bd 348c db3d bd7d 173d b525 923d
00000100: ec18 be3b edba d6bd dc96 383d 4c3e c7bd
00000110: f105 f03d e009 ad3c 004b b4bd 72ee 73ba
00000120: 57e8 a33d 3050 9abd 2351 683d d64e c03d
00000130: 40fd 80bd 0403 c0bd 8044 473d 40e0 803d

weight f4 [80, 3, 1]
-0.08671787 0.09485832 -0.07882292 0.060141664 -0.07666674 0.077697605 -0.08429191 0.098397866
-0.10564953 -0.10288828 0.13194121 -0.11097884 0.082558684 -0.0664167 0.055498183 0.080913514
-0.08438333 0.081230916 -0.07478612 0.084475264 -0.090480216 -0.086507656 0.111449175 -0.07559573
-0.10155096 0.109263614 -0.082226 0.09175091 -0.08922872 0.09163268 -0.11657373 0.09837897
-0.09088953 0.07994163 -0.097933695 0.08572598 -0.07801791 0.08338274 -0.083711825 -0.09908856
0.09923712 -0.09595718 -0.119274065 0.13482785 -0.12480986 -0.0722672 0.07892218 -0.070583306
-0.08177844 0.09523703 -0.101131484 0.075699925 -0.12282179 0.08999275 -0.08363283 0.100753844
-0.0838025 -0.11370308 0.117058 -0.118306965 -0.0752779 0.106847905 -0.07950471 -0.10840167
0.120273225 -0.114172414 -0.08977704 0.099344864 -0.108693995 0.09467703 -0.116964236 0.07473729
-0.07794303 0.10893154 -0.09591514 -0.032228973 0.03618154 -0.018141495 0.053932786 -0.09240787
0.08070611 0.08027764 -0.09919219 0.0843718 -0.036940943 0.06163244 -0.07086127 -0.107203156
0.13561481 -0.124149166 0.07861679 -0.07754281 0.07770166 -0.06942972 0.099757254 -0.09029329
-0.109798975 0.13300797 -0.11652972 -0.100111976 0.11796311 -0.11278428 0.08332437 -0.119713254
0.090105094 0.07836805 -0.09158957 0.10558091 0.05632696 -0.07481053 0.059457645 -0.07808625
0.061354816 -0.07784973 -0.08023702 0.105603844 -0.09088854 -0.074465156 0.07234917 -0.0876941
-0.12006424 0.121441655 -0.11320417 -0.108219735 0.12252642 -0.11230466 -0.08769232 0.09718829
-0.08669934 -0.12599531 0.13427359 -0.13033183 -0.09917455 0.12927404 -0.11476549 -0.072423525
0.090363465 -0.07571275 -0.11834508 0.12896904 -0.116767675 -0.081692465 0.085343964 -0.06672977
-0.10640092 0.102345645 -0.10786666 -0.080164686 0.10086769 -0.07941367 -0.083561644 0.101077765
-0.09140061 -0.10356421 0.110709354 -0.109111436 -0.08302896 0.08974491 -0.077101246 -0.08093809
0.10646831 -0.09232007 -0.109965436 0.10292697 -0.12540014 -0.100745596 0.12561041 -0.1250211
-0.08918274 0.1304062 -0.12105805 -0.04419434 0.036642864 -0.024144081 -0.08991275 0.0874453
-0.0974596 0.058277294 -0.07331943 0.093613915 0.074623905 -0.08893627 0.08999182 -0.02915901
0.05540932 -0.015394681 0.08041814 -0.10631235 0.12471329 0.06773287 -0.07221613 0.07079366
0.07239029 -0.095023006 0.07030399 -0.060346156 0.1037953 -0.08686025 -0.07550351 0.1053653
-0.087184876 -0.1126421 0.12671342 -0.12005775 0.08545486 -0.094815865 0.0790104 -0.106216066
0.12398615 -0.098440744 -0.07702278 0.08602732 -0.08709785 -0.095109366 0.121969156 -0.10970358
-0.07597769 0.09225359 -0.09245352 -0.12073028 0.107294835 -0.11203164 0.102861814 -0.10449813
0.10566215 -0.09550882 0.09544891 -0.09537299 -0.10968847 0.13122594 -0.10693024 -0.12422343
0.118236326 -0.09661359 -0.08676436 0.11556907 -0.07810019 -0.08831915 0.08575387 -0.08556863
00000000: 2399 b1bd 1445 c23d e96d a1bd 1b57 763d
00000010: 7403 9dbd ec1f 9f3d 3da1 acbd d284 c93d
00000020: c85e d8bd 17b7 d2bd 991b 073e e048 e3bd
00000030: 8714 a93d 7b05 88bd 1052 633d fcb5 a53d
00000040: 2bd1 acbd 655c a63d 7729 99bd 5e01 ad3d
00000050: b14d b9bd ed2a b1bd 773f e43d efd1 9abd
00000060: f3f9 cfbd 9ac5 df3d 1b66 a8bd e7e7 bb3d
00000070: 8cbd b6bd eaa9 bb3d 35be eebd ea7a c93d
00000080: 4a24 babd 70b8 a33d 7691 c8bd 1a91 af3d
00000090: dbc7 9fbd 92c4 aa3d 1b71 abbd f1ee cabd
000000a0: d53c cb3d 3385 c4bd f645 f4bd 5010 0a3e
000000b0: 509c ffbd d300 94bd f4a1 a13d fb8d 90bd
000000c0: 747b a7bd a20b c33d 061e cfbd 9008 9b3d
000000d0: fe89 fbbd 1e4e b83d b047 abbd 0858 ce3d
000000e0: a5a0 abbd 29dd e8bd 1bbc ef3d ec4a f2bd
000000f0: 4d2b 9abd 13d3 da3d 5ed3 a2bd b201 debd
00000100: cf51 f63d 3ad3 e9bd 06dd b7bd 5275 cb3d
00000110: f59a debd 08e6 c13d f28a efbd dd0f 993d
00000120: 98a0 9fbd 8017 df3d 286f c4bd 8702 04bd
00000130: 1833 143d 799d 94bc a0e8 5c3d 5640 bdbd
00000140: 3f49 a53d 9a68 a43d 4625 cbbd 1fcb ac3d
00000150: 634f 17bd 4c72 7c3d b71f 91bd 548d dbbd
00000160: 9cde 0a3e eb41 febd d701 a13d c4ce 9ebd
00000170: 0c22 9f3d 2b31 8ebd 884d cc3d b0eb b8bd
00000180: 49de e0bd 3e33 083e 22a7 eebd 8207 cdbd
00000190: a596 f13d 72fb e6bd f8a5 aa3d 392c f5bd
000001a0: 0589 b83d 6e7f a03d 5093 bbbd ce3a d83d
000001b0: 19b7 663d 4336 99bd dc89 733d afeb 9fbd
000001c0: 304f 7b3d ae6f 9fbd 4f53 a4bd d446 d83d
000001d0: c523 babd 3081 98bd cd2b 943d f798 b3bd
000001e0: 3ee4 f5bd 67b6 f83d 96d7 e7bd 4fa2 ddbd
000001f0: 22ef fa3d fcff e5bd 0898 b3bd a70a c73d
00000200: 6c8f b1bd ea04 01be 047f 093e b575 05be
00000210: 071c cbbd 6a60 043e 2b0a ebbd c952 94bd
00000220: 7b10 b93d 490f 9bbd e85e f2bd 7610 043e
00000230: e423 efbd 614e a7bd d1c8 ae3d 9ea9 88bd
00000240: bae8 d9bd 989a d13d 32e9 dcbd 622d a4bd
00000250: b893 ce3d a2a3 a2bd 5e22 abbd dc01 cf3d
00000260: 3e30 bbbd 7919 d4bd 96bb e23d d175 dfbd
00000270: 160b aabd 2ecc b73d 42e7 9dbd dfc2 a5bd
00000280: 0f0c da3d 4e12 bdbd 8f35 e1bd 60cb d23d
00000290: e568 00be b553 cebd 04a0 003e 8805 00be
000002a0: 71a5 b6bd 3489 053e 48ed f7bd 2005 35bd
000002b0: d416 163d cfc9 c5bc 2d24 b8bd 8516 b33d
000002c0: e698 c7bd 2cb4 6e3d 7f28 96bd a7b8 bf3d
000002d0: 6bd4 983d 3824 b6bd a24d b83d e0de eebc
000002e0: e2f4 623d f939 7cbc 44b2 a43d 4aba d9bd
000002f0: ae69 ff3d 88b7 8a3d 0de6 93bd 44fc 903d
00000300: 5c41 943d 6c9b c2bd 8afb 8f3d 882d 77bd
00000310: a192 d43d c9e3 b1bd 96a1 9abd c3c9 d73d
00000320: fc8d b2bd e7b0 e6bd 2ac1 013e d6e0 f5bd
00000330: f502 af3d d22e c2bd 34d0 a13d cf87 d9bd
00000340: 73ec fd3d 4d9b c9bd 1fbe 9dbd 172f b03d
00000350: 5c60 b2bd b3c8 c2bd f7ca f93d 45ac e0bd
00000360: 319a 9bbd 73ef bc3d 4558 bdbd 7041 f7bd
00000370: 65bd db3d d870 e5bd 37a9 d23d 1e03 d6bd
00000380: 6665 d83d 219a c3bd b87a c33d ea52 c3bd
00000390: 59a4 e0bd 1860 063e 3efe dabd db68 febd
000003a0: e325 f23d 59dd c5bd 83b1 b1bd 7aaf ec3d
000003b0: fef2 9fbd ace0 b4bd ba9f af3d 9b3e afbd

bias f4 [80]
0.24566536 -0.17320564 0.23966344 0.47957337 -0.463658 -0.012580646 0.17496428 0.09433722
0.2614123 -0.5518914 -0.07683345 -0.3872812 0.22024286 0.24901478 0.46130073 -0.22668016
-0.14416578 -0.52460617 -0.41248345 0.50344086 -0.0024770477 0.4083926 -0.13322802 -0.37516892
-0.10721755 -0.4363732 -0.38359833 -0.21774733 0.2558073 0.5429519 -0.33787072 0.1999931
0.41568014 0.29922515 -0.5506834 -0.3632378 0.06599522 0.16526239 0.2054484 0.16850476
0.45067787 0.4279917 0.31313044 0.45235607 0.45128405 -0.06056935 0.5098605 0.18141115
0.32571164 0.017015895 -0.17544407 0.3467263 0.05631276 -0.025089623 0.27803096 0.40572888
0.4467157 -0.23388077 -0.10626265 -0.23018196 -0.2867593 -0.52529055 -0.5354462 0.22359927
-0.09039386 0.21675871 0.11038127 0.54009134 -0.43711826 0.29031453 0.17501749 0.002445499
0.10764502 0.5113017 -0.4832347 -0.19810103 0.4955531 0.424633 0.08919756 -0.15572731
00000000: b38f 7b3e d25c 31be 556a 753e a48a f53e
00000010: 9564 edbe 0e1f 4ebc d629 333e df33 c13d
00000020: d5d7 853e c148 0dbf db5a 9dbd b949 c6be
00000030: 5887 613e bbfd 7e3e 9c2f ec3e d81e 68be
00000040: 32a0 13be 974c 06bf 0831 d3be 80e1 003f
00000050: f755 22bb d618 d13e ed6c 08be 2416 c0be
00000060: e094 dbbd 4f6c dfbe 0067 c4be 28f9 5ebe
00000070: 2df9 823e e5fe 0a3f 64fd acbe feca 4c3e
00000080: 07d4 d43e 0a34 993e 96f9 0cbf 4efa b9be
00000090: 8028 873d 8b3a 293e 1161 523e 838c 2c3e
000000a0: 40bf e63e ba21 db3e a252 a03e 379b e73e
000000b0: b40e e73e 9117 78bd 3886 023f d8c3 393e
000000c0: adc3 a63e eb64 8b3c 9ca7 33be 1c86 b13e
000000d0: 35a8 663d c188 cdbc 135a 8e3e b2bb cf3e
000000e0: ecb7 e43e 717e 6fbe 3ba0 d9bd d2b4 6bbe
000000f0: 1dd2 92be 7179 06bf 0113 09bf 35f7 643e
00000100: 6b20 b9bd fff5 5d3e 930f e23d 6d43 0a3f
00000110: f7cd dfbe 1ba4 943e c937 333e aa44 203b
00000120: fe74 dc3d abe4 023f 8a6a f7be ffda 4abe
00000130: 23b9 fd3e 7f69 d93e 36ad b63d fb76 1fbe

weight f4 [80, 80, 2]
0.008869921 -0.00079707924 -0.05145088 0.04047763 0.016436404 -0.015875258 0.020992033 -0.010382199
0.0312098 0.0043038107 -0.11386159 -0.0666736 0.029090073 0.0032097232 0.039119318 -0.02607472
0.011634973 -0.009913779 0.018087836 0.011730806 0.11374972 0.02096325 -0.004879329 0.016732845
0.028007263 -0.020719785 0.08241486 -0.029233953 0.021466548 0.008792607 0.0589 -0.006702576
0.0799491 0.039409246 -0.02047177 -0.0021333268 0.053604197 0.006530699 0.014570187 0.007190028
0.08067108 -0.014062751 -0.011991287 0.013241686 0.10110319 0.017433003 -0.014734294 0.017277693
0.11133361 -0.0022073362 0.053479284 -0.008969101 0.003714889 0.009162883 -0.012473436 0.012696791
-0.018783752 0.00484996 0.012184114 -0.0028317962 -0.030318849 0.012487064 0.036633503 -0.017174073
0.02126863 0.0046134233 0.0341527 -0.0029355215 -0.0033763116 -0.00468294 -0.023734016 0.00027529142
-0.05298295 -0.0048754355 0.044067856 -0.0234605 0.031438682 -0.012502765 0.035191596 -0.021274202
-0.0044730194 -0.015316401 -0.0009548102 0.01047629 -0.010273522 0.017687526 0.016413031 -0.019098679
0.0064799427 0.001762728 0.071425416 -0.018527037 -0.0037319923 0.008707158 0.023568455 -0.010372465
0.026805624 0.0013083582 0.05543506 -0.036864445 0.09212505 -0.01205465 0.019783543 0.008927816
0.045436367 -0.03521549 0.051030617 -0.009332985 0.040348787 -0.024702258 0.0045518023 -0.019419953
0.0136993695 -0.0040719844 0.057653517 -0.022691067 0.123128824 0.036695726 -0.015377424 0.035272542
0.00228318 0.0031550105 0.022260891 -0.0073566106 0.0049957107 0.0039623776 -0.021431774 0.006113472
-0.07598117 0.011615794 0.023606809 -0.022942878 0.037965864 -0.029244287 0.011736951 -0.006247193
0.00058275316 0.006252527 0.025288435 -0.023776723 0.056607615 -0.029896393 0.091835074 0.009641178
0.050873335 -0.050120227 0.004054775 0.036283262 -0.00096687756 0.0039185947 0.13752338 0.01690415
0.012167164 -0.001304464 0.016330475 -0.007740627 0.037549607 -0.012518168 0.08250579 -0.0015845825
-0.029242307 -0.03878771 0.10618396 0.12933102 -0.04205547 -0.031705353 -0.02627735 -0.026948398
0.0020649177 -0.004034835 0.044942014 0.06310866 -0.07597194 -0.070054464 -0.043109655 -0.063721895
-0.066560246 -0.05585903 0.014016511 0.040599618 -0.046008937 -0.042176828 0.03703343 0.0135037005
-0.052947685 -0.051020693 -0.036944266 -0.025716193 -0.034722023 -0.03319934 -0.0035784768 -0.02750739
-0.0056341914 -0.016474932 0.018077394 0.03210255 -0.003828319 -0.031748023 -0.016670996 -0.03904148
-0.0929273 -0.05125336 -0.018221658 -0.037889518 -0.061295692 -0.07110727 0.028478606 0.018462295
-0.04508169 -0.054174185 -0.007329883 0.010134002 -0.00045593875 0.017295904 0.079491004 0.06766451
-0.012355864 -0.026038514 -0.009114242 -0.019707724 0.035240766 0.036079157 -0.07471586 -0.060892645
-0.014521351 -0.023396924 -0.026759967 -0.048187137 0.032369815 0.0103324745 0.043336343 0.038262263
0.034701586 0.022001524 -0.03894593 -0.074073635 -0.09489636 -0.08328969 -0.054998733 -0.0737018
-0.01040339 -0.014131054 -0.021171829 -0.015239067 -0.023897596 -0.0036722568 -0.03235737 -0.011162659
-0.01214381 -0.028550748 -0.07452711 -0.03958287 -0.026038982 -0.022170028 -0.05479756 -0.051947985
00000000: 2553 113c 15f3 50ba 28be 52bd dfcb 253d
00000010: a3a5 863c d40c 82bc 7cf7 ab3c 191a 2abc
00000020: b2ab ff3c fb06 8d3b 4430 e9bd 2b8c 88bd
00000030: 4e4e ee3c 385a 523b 943b 203d a79a d5bc
00000040: 9da0 3e3c 676d 22bc f12c 943c 9132 403c
00000050: 9df5 e83d 1fbb ab3c c7e2 9fbb 5213 893c
00000060: 7d6f e53c 8abc a9bc 1fc9 a83d 0b7c efbc
00000070: 9dda af3c de0e 103c 2041 713d 48a1 dbbb
00000080: 5bbc a33d 976b 213d 6ab4 a7bc 49cf 0bbb
00000090: 1390 5b3d 79ff d53b cbb7 6e3c 549a eb3b
000000a0: e136 a53d 7467 66bc 1a77 44bc a8f3 583c
000000b0: 300f cf3d a8cf 8e3c 1c68 71bc f389 8d3c
000000c0: e002 e43d f5a8 10bb 180d 5b3d 23f3 12bc
000000d0: 7f75 733b eb1f 163c 625d 4cbc 3406 503c
000000e0: 62e0 99bc 6aec 9e3b e19f 473c a895 39bb
000000f0: 3c5f f8bc 8b96 4c3c 030d 163d a4b0 8cbc
00000100: 8d3b ae3c 332c 973b b4e3 0b3d e161 40bb
00000110: 1c45 5dbb 5973 99bb d76d c2bc fd54 9039
00000120: a604 59bd 1ec2 9fbb 7f80 343d 3c30 c0bc
00000130: d9c5 003d 66d8 4cbc 1025 103d 3c47 aebc
00000140: 6892 92bb a4f1 7abc 3a4c 7aba bfa4 2b3c
00000150: 4652 28bc 6ee5 903c 9f74 863c d574 9cbc
00000160: b355 d43b 560b e73a 7d47 923d 03c6 97bc
00000170: 7194 74bb 78a8 0e3c a212 c13c 45f1 29bc
00000180: 7897 db3c 377d ab3a e00f 633d 2cff 16bd
00000190: 0fac bc3d de80 45bc 1911 a23c f945 123c
000001a0: 7c1b 3a3d 1e3e 10bd 7b05 513d 60e9 18bc
000001b0: c544 253d 645c cabc 4927 953b 9816 9fbc
000001c0: 5273 603c 486e 85bb 1826 6c3d 9ee2 b9bc
000001d0: f72a fc3d 424e 163d 97f1 7bbc f179 103d
000001e0: 67a1 153b 4bc4 4e3b 795c b63c b90f f1bb
000001f0: 0fb3 a33b d5d6 813b b091 afbc 8553 c83b
00000200: 049c 9bbd 2c50 3e3c 1163 c13c b4f2 bbbc
00000210: 1882 1b3d b791 efbc 574c 403c 41b5 ccbb
00000220: e7c3 183a ffe1 cc3b b129 cf3c 67c7 c2bc
00000230: 63dd 673d 48e9 f4bc 0714 bc3d 08f6 1d3c
00000240: 8f60 503d de4a 4dbd ebdd 843b c29d 143d
00000250: 0e76 7dba 8e67 803b eed2 0c3e 927a 8a3c
00000260: c958 473c 8cfa aaba 7dc7 853c 16a5 fdbb
00000270: 9ecd 193d 0119 4dbc ccf8 a83d c4b1 cfba
00000280: 908d efbc dddf 1ebd fa76 d93d 5a6f 043e
00000290: 5b42 2cbd 79dd 01bd 9943 d7bc e3c2 dcbc
000002a0: 9253 073b a636 84bb 1e15 383d 1d3f 813d
000002b0: 2d97 9bbd b778 8fbd c093 30bd a080 82bd
000002c0: bd50 88bd 70cc 64bd 82a5 653c c94b 263d
000002d0: de73 3cbd 9cc1 2cbd 5eb0 173d a03e 5d3c
000002e0: acdf 58bd 13fb 50bd df52 17bd c4aa d2bc
000002f0: ae38 0ebd 08fc 07bd e184 6abb 2e57 e1bc
00000300: 069f b8bb 70f6 86bc 0b17 943c f77d 033d
00000310: 89e4 7abb 370a 02bd 9d91 88bc f5e9 1fbd
00000320: ab50 bebd 0bef 51bd 9645 95bc 0a32 1bbd
00000330: 3111 7bbd b0a0 91bd f74b e93c 3d3e 973c
00000340: 94a7 38bd c0e5 5dbd 842f f0bb 1609 263c
00000350: 100b efb9 24b0 8d3c 2ecc a23d b193 8a3d
00000360: 4070 4abc b94e d5bc e753 15bc 1872 a1bc
00000370: 9f58 103d bdc7 133d a104 99bd 916a 79bd
00000380: f6ea 6dbc e8aa bfbc b837 dbbc e05f 45bd
00000390: 3696 043d 8a49 293c 7381 313d e4b8 1c3d
000003a0: 4023 0e3d 8a3c b43c c485 1fbd ebb3 97bd
000003b0: 0659 c2bd c993 aabd 5a46 61bd f8f0 96bd
000003c0: fb72 2abc f085 67bc 8b70 adbc 48ad 79bc
000003d0: e4c4 c3bc 3faa 70bb 2989 04bd 96e3 36bc
000003e0: d5f6 46bc 42e3 e9bc aba1 98bd a621 22bd
000003f0: b44f d5bc eb9d b5bc 6873 60bd 69c7 54bd

bias f4 [80]
-0.053885967 0.024897408 -0.06759176 -0.033085775 0.025090627 -0.04509576 -0.058680795 0.0035479309
-0.0060031107 0.010251664 -0.07965768 -0.0514996 0.005876042 0.0027814307 -0.039065573 -0.04341039
0.07137843 -0.07845947 -0.054677308 0.038386803 0.05336953 -0.015592773 0.06788011 0.025954137
0.022923796 0.04071256 0.053756956 0.0028140454 -0.076905616 0.051498856 0.028354151 0.067894794
-0.0031570522 -0.06761852 -0.029451694 0.007065848 -0.07335383 -0.016376698 -0.04021659 -0.05088576
-0.037607312 0.06600329 -0.013308402 -0.07271147 -0.04958808 0.052249942 0.067916565 -0.058183342
-0.024886329 0.019186364 0.04985193 -0.0037211606 0.004813086 -0.012329383 0.016685257 -0.054501873
-0.05463812 0.0330268 0.06330311 -0.042773575 -0.04368587 -0.03833844 0.07348555 -0.04674525
0.047520474 -0.013087486 -0.014736176 0.00912278 -0.011664393 -0.0057948194 -0.014324936 0.07162522
-0.06237271 0.05565776 0.041446447 0.012478482 -0.00505661 0.025529748 -0.02934924 0.02542382
00000000: 88b7 5cbd a6f5 cb3c 8c6d 8abd f384 07bd
00000010: dc8a cd3c 55b6 38bd 465b 70bd 6784 683b
00000020: beb5 c4bb 98f6 273c 9123 a3bd 3ff1 52bd
00000030: d08b c03b aa48 363b 3903 20bd 18cf 31bd
00000040: db2e 923d 5caf a0bd 50f5 5fbd 7b3b 1d3d
00000050: 029a 5a3d d578 7fbc ba04 8b3d c59d d43c
00000060: afca bb3c 37c2 263d 4130 5c3d d96b 383b
00000070: b180 9dbd 77f0 523d f746 e83c 6d0c 8b3d
00000080: 8ce6 4ebb 947b 8abd ae44 f1bc a188 e73b
00000090: 883a 96bd 6d28 86bc 27ba 24bd 966d 50bd
000000a0: 200a 1abd bc2c 873d 7c0b 5abc c0e9 94bd
000000b0: df1c 4bbd 0904 563d d717 8b3d a851 6ebd
000000c0: 6ade cbbc b92c 9d3c 8a31 4c3d b7de 73bb
000000d0: 17b7 9d3b 2e01 4abc 85af 883c 5b3d 5fbd
000000e0: 39cc 5fbd 1c47 073d 10a5 813d 5833 2fbd
000000f0: f4ef 32bd c508 1dbd 987f 963d f277 3fbd
00000100: d4a4 423d e56c 56bc 0070 71bc b677 153c
00000110: 031c 3fbc 78e2 bdbb 23b3 6abc 3eb0 923d
00000120: 877a 7fbd 64f9 633d c0c3 293d 8c72 4c3c
00000130: ebb1 a5bb c323 d13c d16d f0bc 9d45 d03c

weight f4 [80, 80, 2]
-0.06570135 -0.013885568 -0.013378599 -0.016236985 0.008367674 -0.0023364185 -0.006399593 -0.023004426
-0.041588023 0.0057450957 0.020916153 -0.020609448 -0.059222996 -0.03232786 -0.0061532063 -0.032053877
-0.03459778 -0.027065277 -0.0052774665 -0.019126082 2.0954783e-05 0.004183461 -0.018691242 -0.035658225
-0.024745688 -0.03469358 -0.078603454 0.0028358153 -0.030031364 -0.0024468855 0.011057502 -0.017087076
-0.015084733 -0.028140608 -0.026277931 -0.020980498 -0.008246209 0.0016391819 -0.030673185 -0.024658715
-0.03696945 -0.026105266 -0.02394273 -0.026304182 -0.026016446 -0.012423015 -0.00065410463 -0.027434437
-0.016617374 -0.00949768 -0.065565065 -0.024038946 -0.032655593 -0.026981466 -0.041494515 -0.03000202
-0.056633726 -0.016122445 -0.041440308 -0.034800854 -0.039743345 -0.016337274 -0.016517539 -0.034638915
-0.029904824 -0.05227647 -0.017040161 -0.018661812 0.009173818 0.021234045 -0.043746028 -0.029165337
0.0010613999 -0.016238024 0.0047295727 -0.02501965 -0.0129478965 -0.010837749 0.023382226 -0.002136769
-0.04013117 -0.03457649 -0.032228287 -0.030977527 -0.06392493 -0.006945609 -0.013050083 -0.010743494
0.027238153 0.0010870725 -0.043080367 -0.006921392 -0.05492281 -0.00676176 -0.004700277 0.0026619218
-0.041786768 -0.034854908 -0.02526893 -0.0185546 -0.056510136 -0.017972667 -0.027031627 -0.033541374
-0.007911073 -0.027936533 -0.014822761 -0.0177754 -0.012510384 -0.020220298 -0.05260036 -0.025033815
-0.0003149185 0.008353867 -0.005342011 -0.003487409 -0.029799197 -0.02122253 -0.025351617 -0.014716024
-0.009186614 -0.0030389978 -0.0063388073 -0.01686248 -0.028558165 -0.021055318 -0.030689713 -0.03896329
0.007972146 -0.018834855 -0.018153353 -0.015221702 -0.05068609 -0.03360141 -0.010987844 -0.02875214
-0.010207983 -0.035931613 0.015089249 0.032877967 -0.0021751428 -0.009223587 -0.015715526 -0.030234793
-0.013594888 -0.046729386 -0.06564082 0.0068709007 -0.026447153 -0.02197862 -0.030157171 -0.039150313
-0.022256618 -0.029340807 -0.020565871 -0.040665396 -0.019222178 -0.015075006 -0.050807 -0.025976188
0.025730142 -0.04171848 0.03199059 0.03179887 0.02859819 0.05609255 -0.02508187 -0.0047982233
0.017267957 -0.026241813 0.043381743 0.04999167 -0.028848838 -0.016588809 0.04867735 0.03072254
-0.015237733 -0.0025960242 0.042742703 0.045756634 0.051476434 0.05101478 -0.017049273 -0.019890131
0.037347082 0.022248365 0.023436079 -0.045104887 0.035851676 0.038640633 0.040578146 0.057951506
-0.0044150166 -0.01928487 0.028976833 0.030913832 0.04870411 0.059773594 -0.021432608 -0.041222118
-0.012491548 -0.025737436 0.035189543 0.036050715 0.0034636613 -0.016410362 0.0330261 0.034381036
-0.0073669115 -0.02959349 0.014362913 -0.051202886 -0.0069456915 -0.008783936 0.032647558 0.035789512
-0.0100740595 -0.04697019 0.010749282 -0.0140069565 0.026853397 0.03852925 -0.005918766 -0.00947164
-0.0060641817 -0.049516547 0.03880081 0.03540479 0.056298267 0.054478586 -0.0009359497 -0.031378347
0.033200096 0.057717863 0.011607373 0.04570966 0.022959506 0.04823571 0.031547796 0.04833433
-0.004449959 -0.017291322 -0.004989931 -0.009930869 0.016817588 -0.089495115 0.040148526 0.046389185
0.03399645 0.053452123 0.0062294803 -0.02423161 0.0008542652 -0.008938709 0.042515177 0.05528221
00000000: 6e8e 86bd 4b80 63bc e931 5bbc 6d03 85bc
00000010: 9218 093c 991e 19bb adb3 d1bb c773 bcbc
00000020: 3458 2abd 5b41 bc3b 5a58 ab3c 25d5 a8bc
00000030: d093 72bd 386a 04bd d6a0 c9bb ed4a 03bd
00000040: 67b6 0dbd 00b8 ddbc 99ee acbb 4dae 9cbc
00000050: 0ec8 af37 6a15 893b 601e 99bc 5c0e 12bd
00000060: 78b7 cabc db1a 0ebd d9fa a0bd 16d9 393b
00000070: 5604 f6bc ed5b 20bb 862a 353c 32fa 8bbc
00000080: f525 77bc 2287 e6bc d144 d7bc 4bdf abbc
00000090: 1b1b 07bc d1d9 d63a 5546 fbbc 1301 cabc
000000a0: 476d 17bd b6da d5bc 8b23 c4bc de7b d7bc
000000b0: 7120 d5bc e789 4bbc 3878 2bba 2fbe e0bc
000000c0: 2921 88bc 289c 1bbc fa46 86bd 53ed c4bc
000000d0: dfc1 05bd 3c08 ddbc 27f6 29bd ccc6 f5bc
000000e0: c4f8 67bd 3813 84bc 50bd 29bd 578b 0ebd
000000f0: ebc9 22bd bfd5 85bc ca4f 87bc 89e1 0dbd
00000100: f6fa f4bc da1f 56bd cf97 8bbc a8e0 98bc
00000110: c84d 163c 05f3 ad3c 092f 33bd 25ec eebc
00000120: ac1e 8b3a 9b05 85bc 88fa 9a3b 02f6 ccbc
00000130: 6a23 54bc d090 31bc 158c bf3c 0909 0cbb
00000140: 9560 24bd 14a0 0dbd cf01 04bd 95c4 fdbc
00000150: 13eb 82bd fe97 e3bb 04d0 55bc 7b05 30bc
00000160: 8c22 df3c 1a7c 8e3a 0a75 30bd d8cc e2bb
00000170: bef6 60bd c191 ddbb c804 9abb a373 2e3b
00000180: 9a28 2bbd 05c4 0ebd c900 cfbc d1ff 97bc
00000190: 2c77 67bd 6a3b 93bc 6e71 ddbc ae62 09bd
000001a0: 729d 01bc 28db e4bc 2adb 72bc b79d 91bc
000001b0: 5bf8 4cbc 0aa5 a5bc 7a73 57bd b713 cdbc
000001c0: a51b a5b9 a8de 083c 090c afbb 048d 64bb
000001d0: 721d f4bc dfda adbc 32ae cfbc 7a1b 71bc
000001e0: 7483 16bc ec29 47bb c5b5 cfbb 2f23 8abc
000001f0: d0f2 e9bc 347c acbc fe68 fbbc f997 1fbd
00000200: 9b9d 023c 8e4b 9abc 57b6 94bc 7264 79bc
00000210: 389c 4fbd a2a1 09bd 5c06 34bc 9c89 ebbc
00000220: 623f 27bc 072d 13bd e638 773c 0cab 063d
00000230: d78c 0ebb 871e 17bc d9bd 80bc f5ae f7bc
00000240: 18bd 5ebc 5067 3fbd b26e 86bd 4b25 e13b
00000250: b3a7 d8bc 820c b4bc 2c0c f7bc 145c 20bd
00000260: 8353 b6bc 225c f0bc c279 a8bc c290 26bd
00000270: d477 9dbc 28fd 76bc 001b 50bd 04cc d4bc
00000280: 05c8 d23c ffe0 2abd 9108 033d 883f 023d
00000290: c046 ea3c 4dc1 653d 7e78 cdbc 6a3a 9dbb
000002a0: 8875 8d3c 12f9 d6bc 0eb1 313d 11c4 4c3d
000002b0: 6654 ecbc 41e5 87bc e761 473d d6ad fb3c
000002c0: afa7 79bc 0f22 2abb f912 2f3d 4f6b 3b3d
000002d0: f4d8 523d e0f4 503d ebaa 8bbc a1f0 a2bc
000002e0: 41f9 183d 3442 b63c 05fd bf3c e7bf 38bd
000002f0: 35d9 123d a445 1e3d 4535 263d 8f5e 6d3d
00000300: d8ab 90bb 4efb 9dbc d360 ed3c 013f fd3c
00000310: f67d 473d 28d5 743d 7093 afbc 86d8 28bd
00000320: 5aa9 4cbc 51d7 d2bc e922 103d eaa9 133d
00000330: 98fe 623b 066f 86bc 6046 073d 21d3 0c3d
00000340: 2266 f1bb 0c6e f2bc 6c52 6b3c 1eba 51bd
00000350: af98 e3bb 7fea 0fbc 72b9 053d 0698 123d
00000360: ab0d 25bc d063 40bd c21d 303c 6f7d 65bc
00000370: a8fb db3c d9d0 1d3d 35f2 c1bb f02e 1bbc
00000380: 0bb6 c6bb ddd1 4abd 99ed 1e3d 9d04 113d
00000390: 0399 663d f024 5f3d 855a 75ba 9586 00bd
000003a0: d3fc 073d 9169 6c3d da2c 3e3c 0d3a 3b3d
000003b0: 9315 bc3c cf92 453d 4338 013d 38fa 453d
000003c0: f6d0 91bb 88a6 8dbc 9382 a3bb 15b5 22bc
000003d0: 0ac5 893c 3749 b7bd c872 243d 9602 3e3d
000003e0: dd3f 0b3d 9df0 5a3d ab20 cc3b 5f81 c6bc
000003f0: c4f0 5f3a aa73 12bc 6524 2e3d 996f 623d

bias f4 [80]
-0.08544303 -0.049652133 -0.044191044 0.023393722 -0.012517034 -0.0075865146 -0.053731404 -0.0076005273
0.007065658 0.053132325 0.0123550305 0.023399735 0.01156322 0.028633906 0.006715594 0.047636777
0.032169756 0.011381999 -0.029399518 0.034631897 0.05827536 -0.084329434 0.06177892 -0.03512598
0.050911844 0.025703702 0.05134888 0.015456705 -0.05379392 -0.055955023 0.022749491 0.019682659
-0.054989364 -0.07767943 0.023317218 -0.07036001 0.015389752 0.037337467 0.007322863 -0.031347476
0.010586965 -0.002930186 0.019287525 -0.07262627 -0.012044233 -0.04674746 -0.070608504 -0.040955618
0.020271732 -0.087079614 -0.07437605 -0.054070305 0.014010232 -0.07676363 0.017591348 -0.037810802
-0.11620183 -0.037204146 -0.06790798 0.014804339 0.018671608 0.07180368 -0.033582237 -0.049432386
0.06264992 -0.0011637115 -0.053645357 -0.09978593 -0.05135356 0.03405252 -0.08517705 0.025695493
-0.0060796067 -0.05075024 0.03736396 0.042692006 -0.093237 0.032069832 -0.06193632 -0.03421433
00000000: c1fc aebd 0960 4bbd ab01 35bd 31a4 bf3c
00000010: 3f14 4dbc 4c98 f8bb 7615 5cbd d80d f9bb
00000020: 0987 e73b 48a1 593d c16c 4a3c cdb0 bf3c
00000030: a973 3d3c a791 ea3c 7c0e dc3b c81e 433d
00000040: 6fc4 033d 907b 3a3c 42d7 f0bc 2dda 0d3d
00000050: 25b2 6e3d e9b4 acbd e50b 7d3d 42e0 0fbd
00000060: f088 503d 9290 d23c 3453 523d 1f3e 7d3c
00000070: 0357 5cbd 1831 65bd 245d ba3c 873d a13c
00000080: 873c 61bd 6516 9fbd c003 bf3c e918 90bd
00000090: 4c25 7c3c 2cef 183d a1f4 ef3b 3666 00bd
000000a0: f374 2d3c 5d08 40bb df00 9e3c 15bd 94bd
000000b0: 2d55 45bc 447a 3fbd 319b 90bd 14c1 27bd
000000c0: e710 a63c cc56 b2bd 7852 98bd d378 5dbd
000000d0: 2c8b 653c 4036 9dbd bb1b 903c 80df 1abd
000000e0: 3afb edbd 6063 18bd 5713 8bbd e68d 723c
000000f0: 33f5 983c cf0d 933d 878d 09bd 9d79 4abd
00000100: 9a4e 803d ae87 98ba 3cbb 5bbd 915c ccbd
00000110: 1c58 52bd a87a 0b3d 4e71 aebd 5b7f d23c
00000120: 7037 c7bb 7cdf 4fbd f40a 193d d0dd 2e3d
00000130: 0af3 bebd a85b 033d f0b0 7dbd 5324 0cbd

weight f4 [80, 80, 2]
0.03626063 -0.039363466 -0.012230235 -0.0020541314 0.015722543 -0.04291934 0.01978335 -0.029629124
-0.07717593 -0.003025773 -0.018478548 -0.07827349 0.021202136 -0.028021298 0.01591002 -0.016772987
-0.015608058 -0.013063183 0.035835512 0.0052663432 0.00490204 0.010751242 0.0032539286 0.002592758
0.024874095 -0.01588197 0.039071646 -0.008330676 0.028890166 -0.05074065 0.006468564 0.009412937
-0.01274605 -0.0065952567 0.020819182 0.01329764 -0.01833036 0.017390007 -0.013562271 -0.01742336
0.008866771 -0.024508221 0.06848846 -0.013418236 -0.027906656 -0.0152132595 0.01457212 -0.001102612
-0.0030427875 -0.02523858 -0.05110938 0.014847434 0.040290646 -0.0033957304 0.00495283 -0.018594896
-0.0037378494 -0.022781203 -0.0060026147 -0.036457777 0.027363122 -0.02000177 -0.0019424947 -0.01682468
0.015834903 -0.047089577 0.00021188479 -0.04703765 0.04626798 0.008016676 0.013628571 -0.00817248
-0.029903809 -0.071284615 0.018668616 0.00019668038 0.01154272 -0.021721968 0.02978572 -0.018527899
0.008829164 -0.04789798 -0.007423815 -0.029794268 -0.027461777 -0.0410182 -0.0054721152 -0.031545028
0.0073234783 -0.021416014 0.02201782 -0.010823789 -0.0039016965 -0.03905845 0.013002321 -0.0073157283
-0.012640095 -0.017568303 0.025730165 -0.023781663 0.00073785096 -0.017945701 -0.008038754 -0.021941822
0.019714218 -0.04865162 0.014800067 -0.04228608 0.040654253 -0.022995114 -0.0027212629 -0.029855786
-0.00562948 -0.026495952 -0.033883926 -0.016570717 -0.0026313714 0.0126188975 0.017395908 -0.030646777
0.022453193 -0.020497823 -0.030650076 0.012633084 0.03874611 0.0012078466 -0.028275657 -0.05386893
-0.026202135 -0.068101324 0.009559974 -0.040984895 0.013832385 -0.026219832 0.012449008 -0.038544867
0.03814753 -0.00996562 0.009329171 -0.036899224 0.017601525 0.0045817997 0.058495395 0.0073664654
0.028128766 -0.008835819 -0.01896247 -0.04379483 -0.0065586683 0.0064807385 0.010451045 -0.021037225
0.0032463735 -0.038637497 0.00565802 -0.03623974 0.005998046 -0.04373064 -0.017160568 -0.020270841
-0.031700637 -0.018666474 0.067331195 0.08112132 0.00325767 0.0057680896 -0.01317798 -0.027615642
0.01202214 0.014929633 0.053153664 0.057025224 -0.01967349 0.005213816 0.023346111 0.0006770848
-0.018654633 -0.024699662 0.06178656 0.06188059 -0.0061032814 -0.02610435 0.076542854 0.058464155
-0.014053112 0.012057091 0.026302423 0.03732241 0.026097119 0.0077297697 0.017420083 0.012420434
-0.024279289 -0.04465893 0.040422108 0.059962854 0.02540662 -0.014798467 -0.0072591114 -0.017287914
-0.012697559 -0.019456116 0.010941068 -0.0118697025 -0.0034841604 -0.021201003 0.038169462 0.057836365
0.0010873394 -0.0030704576 0.014077776 -0.0054498166 0.057249136 0.06813947 0.061875615 0.07441412
0.040162098 0.021207953 0.019533483 -0.011714619 0.04857991 0.08130168 -0.025902975 -0.030474538
-0.03075179 -0.003454246 -0.02929285 -0.055835195 0.03657001 0.030663718 0.073418885 0.07437285
0.04790171 0.04307945 -0.0060543707 -0.004475254 -0.0061700754 -0.053115666 -0.011675442 -0.0058824965
-0.0010342784 0.014706472 -0.035769586 -0.017582955 0.0155338105 0.031285025 -0.00901054 -0.014944302
-0.006519556 -0.004571752 -0.029598137 0.0028439006 -0.018061563 -0.018285725 0.0032106705 0.009604778
00000000: 0786 143d 963b 21bd 5361 48bc 9b9e 06bb
00000010: 90cc 803c 31cc 2fbd b110 a23c c7b8 f2bc
00000020: 6a0e 9ebd 0c4c 46bb 5360 97bc da4d a0bd
00000030: 1ab0 ad3c ec8c e5bc bb55 823c 8167 89bc
00000040: f1b8 7fbc f606 56bc 42c8 123d 4a91 ac3b
00000050: 4ba1 a03b fa25 303c dd3f 553b 43eb 293b
00000060: c2c4 cb3c e81a 82bc 9709 203d 637d 08bc
00000070: 12ab ec3c 6ed5 4fbd 3ff6 d33b b838 1a3c
00000080: cfd4 50bc 061d d8bb fd8c aa3c 58de 593c
00000090: 8d29 96bc 7d75 8e3c 4a34 5ebc 6fbb 8ebc
000000a0: ef45 113c 77c5 c8bc ad43 8c3d 29d8 5bbc
000000b0: 809c e4bc 0941 79bc e7bf 6e3c 8585 90ba
000000c0: 8169 47bb 23c1 cebc 1258 51bd a742 733c
000000d0: ce07 253d e78a 5ebb 594b a23b 5354 98bc
000000e0: b5f6 74bb a59f babc 95b1 c4bb c054 15bd
000000f0: a028 e03c c1da a3bc 4e9b feba e9d3 89bc
00000100: 33b8 813c 00e1 40bd 642d 5e39 8daa 40bd
00000110: 7e83 3d3d 6058 033c 5f4a 5f3c dee5 05bc
00000120: d5f8 f4bc abfd 91bd edee 983c fd3b 4e39
00000130: ad1d 3d3c 45f2 b1bc 2f01 f43c d2c7 97bc
00000140: 33a8 103c ac30 44bd 7943 f3bb 1c13 f4bc
00000150: 85f7 e0bc b302 28bd 6e4f b3bb 5c35 01bd
00000160: caf9 ef3b a370 afbc b75e b43c 4356 31bc
00000170: 9bb3 7fbb c1fb 1fbd b007 553c c7b8 efbb
00000180: 6718 4fbc 67eb 8fbc 11c8 d23c c3d1 c2bc
00000190: 576c 413a dd02 93bc fab4 03bc 56bf b3bc
000001a0: b67f a13c ec46 47bd fb7b 723c 2b34 2dbd
000001b0: 1385 263d 4060 bcbc 3757 32bb 1f94 f4bc
000001c0: 8077 b8bb 0a0e d9bc dfc9 0abd 50bf 87bc
000001d0: 1673 2cbb 7ebf 4e3c dd81 8e3c f30e fbbc
000001e0: c2ef b73c 0deb a7bc de15 fbbc fffa 4e3c
000001f0: 3eb4 1e3d 9b50 9e3a 5aa2 e7bc aba5 5cbd
00000200: dca5 d6bc b578 8bbd 70a1 1c3c c7df 27bd
00000210: 3aa1 623c f9ca d6bc edf6 4b3c 39e1 1dbd
00000220: 9640 1c3d d746 23bc 61d9 183c a423 17bd
00000230: 1331 903c ec22 963b de98 6f3d 6462 f13b
00000240: 4c6e e63c 1cc4 10bc 2f57 9bbc 3562 33bd
00000250: 19ea d6bb 605c d43b dc3a 2b3c 4256 acbc
00000260: 1cc1 543b 5a42 1ebd e966 b93b 1f70 14bd
00000270: 428b c43b e61e 33bd 5294 8cbc 090f a6bc
00000280: 87d8 01bd 6fea 98bc f0e4 893d ef22 a63d
00000290: a27e 553b 3e02 bd3b 74e8 57bc 333a e2bc
000002a0: 83f8 443c 6b9b 743c a8b7 593d 4893 693d
000002b0: 4d2a a1bc a9d8 aa3b 5840 bf3c 647e 313a
000002c0: 9ad1 98bc f256 cabc e713 7d3d 8076 7d3d
000002d0: 09fe c7bb cad8 d5bc 80c2 9c3d 1c78 6f3d
000002e0: 063f 66bc 1b8b 453c 2e78 d73c 62df 183d
000002f0: a0c9 d53c 024a fd3b 90b4 8e3c 137f 4b3c
00000300: 5ce5 c6bc 48ec 36bd a791 253d 9c9b 753d
00000310: 8b21 d03c 4575 72bc d7dd edbb 629f 8dbc
00000320: 6c09 50bc 6f62 9fbc 2a42 333c 2479 42bc
00000330: 8356 64bb baad adbc 9557 1c3d d3e5 6c3d
00000340: 0e85 8e3a bb39 49bb 79a6 663c 6094 b2bb
00000350: 127e 6a3d b58c 8b3d 4971 7d3d 6e66 983d
00000360: 0381 243d 4dbc ad3c af04 a03c acee 3fbc
00000370: bafb 463d 7f81 a63d 7a32 d4bc bda5 f9bc
00000380: 2eeb fbbc a260 62bb 8ff7 efbc 72b3 64bd
00000390: 6fca 153d 7a32 fb3c a45c 963d cb50 983d
000003a0: 9534 443d 1474 303d be63 c6bb 27a5 92bb
000003b0: 582e cabb d08f 59bd 5a4a 3fbc f5c1 c0bb
000003c0: a090 87ba 6af3 703c 2183 12bd 210a 90bc
000003d0: 8681 7e3c ba24 003d f2a0 13bc f2d8 74bc
000003e0: 00a2 d5bb a3ce 95bb cb77 f2bc bc60 3a3b
000003f0: d8f5 93bc f2cb 95bc 1d6a 523b 5c5d 1d3c
