GAN/PM Generator/PM_epochs=500_seq=100_batch=26.pth (torch, 675018 bytes, 31 tensors)

weight f4 [1, 80, 1]
00000000: d00c eebc 8f61 843c f00b cdbb 190c 46bc
00000010: c25d 7b3c a823 9e3c 90ac 073c 13da c43c
00000020: d796 31bc d75f 98bc 1951 58bc d510 423c
00000030: 6b20 87bc 82aa aa3c baff e2bb ed12 f03b
00000040: 8553 b73c 9923 f43c c070 4fbc 1aa3 47bc
00000050: 2db0 91bc d950 6cbc af83 e13b 776b 18bc
00000060: a820 f6bb ab7c 46bc d71d 4fbc 1a3e d2bb
00000070: 4a67 4bbc 3e14 973c f747 80bc cb87 063c
00000080: 7ebb 2b3c 13c3 293c a836 483c bc60 66bc
00000090: 431a ddbb 6c6c ed3c 7d21 063b 85a9 2fbc
000000a0: 272d 6ebc d972 0ebc 076c 38bc 62cc 503c
000000b0: 5bed 3e3c be5b e9ba 556a 21bc e811 da3c
000000c0: 5428 173c b4b3 6cbc 97c8 e1bb ea6f ef3c
000000d0: 7ca4 4cbc 269a e13c 3c0b 16bc 75ff b6bb
000000e0: 8c22 9a3c 1631 f8bb f177 603c 59c0 c7bb
000000f0: 9545 86bc cd49 0cbc d4c5 2f3d 2fa0 d63c
00000100: e267 00bc 8606 49bc 2c17 87bb 0b32 92bc
00000110: ff59 94bb 15bc 85bc 3f19 893c 26ca b5bb
00000120: 52da 4a3c cefc 9ebb 5c3f 26bc 7656 fbbb
00000130: 067f bebb aaa5 84bc 8fd9 55bc 0681 f2bb
-0.029058844 0.0161598 -0.0062575266 -0.012087845 0.015342178 0.019304112 0.008280888 0.024029767
-0.010839186 -0.018600387 -0.013202929 0.011844833 -0.01649495 0.020833258 -0.0069274576 0.007326475
0.022378692 0.02980213 -0.012661159 -0.012184883 -0.017784202 -0.014423572 0.006882153 -0.009302965
-0.007511217 -0.012114684 -0.012641392 -0.0064160945 -0.012414763 0.01844227 -0.015659316 0.0082110865
0.010481713 0.010361451 0.012220062 -0.014061149 -0.0067475154 0.028982364 0.0020466738 -0.010721569
-0.014537132 -0.008694374 -0.0112562245 0.012744041 0.01165327 -0.001780383 -0.009852012 0.026619866
0.009225924 -0.014447141 -0.0068903673 0.02922817 -0.012490388 0.027539324 -0.009157952 -0.005584652
0.018815301 -0.007574211 0.013700471 -0.0060959277 -0.016390601 -0.008562517 0.042913273 0.026199428
-0.007837268 -0.012269622 -0.0041226353 -0.017846128 -0.00452733 -0.016325036 0.016735671 -0.0055477796
0.012381153 -0.004851914 -0.010146942 -0.007670219 -0.005813482 -0.016192276 -0.013052358 -0.0074006347

weight f4 [80, 3, 1]
00000000: b958 bbbd cc63 ac3d 16e7 c23d 0f6e 803d
00000010: a10e a4bd 7c06 99bd 675a 553d 4f0b 75bd
00000020: 6b1f 54bd 1646 b7bd f635 a13d f14e a73d
00000030: 3a6b 913d 03f6 9dbd b6f3 87bd 794b a73d
00000040: 78a5 9bbd 8a12 a2bd 0859 6dbd d1a2 8d3d
00000050: 47e1 a03d c49d 3b3d 2842 6cbd 7ef4 9fbd
00000060: eabc 9bbd 4802 993d 3267 b03d 8ffb 9e3d
00000070: 71dc bbbd e257 a7bd 051a 893d 5322 8fbd
00000080: f0a6 9bbd 9d2a 873d 8d15 8cbd dd02 84bd
00000090: bb07 9bbd 61b0 f63d 61a3 7b3d 5a8a a4bd
000000a0: 6339 873d 4500 983d 0caa 7ebd 1a86 c13d
000000b0: 4312 c53d db3b 97bd 7130 ac3d f87d a53d
000000c0: 44e1 aebd 1404 b03d da47 883d 0c82 8fbd
000000d0: 5726 973d fa28 383d ed4d a33d 19da a0bd
000000e0: 3544 7ebd db6f a13d 2125 81bd c0d7 a2bd
000000f0: ec44 703d b25b 89bd 2d79 6cbd d09a 1cbd
00000100: a195 a33d 9dc6 a23d 45cc a9bd ff32 943d
00000110: 0549 ae3d e083 80bd b123 9b3d 33e0 9c3d
00000120: 6494 7bbd d296 953d eb46 703d 1183 913d
00000130: c515 9abd 045f a6bd 15a7 9a3d eb90 9cbd
00000140: 2e96 a8bd 0c7a 853d ee2a 64bd f4a5 88bd
00000150: 9cc3 893d 12c3 a9bd 8299 87bd 61a1 95bd
00000160: d1fc a23d 54a7 6b3d 39b0 90bd 7ec1 aa3d
00000170: f204 aa3d 37ef 8e3d 00af b5bd 6e72 94bd
00000180: 1af6 a2bd db70 8e3d 0496 843d 342f 8abd
00000190: 7a78 893d 3b4a 9e3d 7de4 ccbd 90a9 ad3d
000001a0: 6ea6 a33d 0f25 84bd d098 8d3d 366a c13d
000001b0: a51b 883d beb6 a2bd 43a9 77bd 1b0c 72bd
000001c0: f58a 8b3d 50f7 ce3d 478f afbd 52b4 933d
000001d0: 4b48 943d ce03 a53d 2175 87bd dd28 86bd
000001e0: 91ec 62bd 22b6 aa3d 9302 8c3d 3b30 8c3d
000001f0: d496 a3bd f709 99bd 72d5 8f3d 8ae0 8fbd
00000200: 8fbd 96bd f7ac 8dbd e611 843d 963c 873d
00000210: 682f 833d e91a 86bd 12dc 9cbd 0b1f 633d
00000220: bb55 b0bd 4b14 52bd 6517 853d d352 7fbd
00000230: 0eb6 60bd 0144 953d 20ab 80bd 7945 bfbd
00000240: 7858 853d bde6 9abd 26ab 87bd bb6e 74bd
00000250: 80df 9c3d 3bec 713d 8037 9ebd 1085 843d
00000260: d0ad 9f3d eabe 81bd 9a11 8d3d ccdc 853d
00000270: 85dc 8a3d 267a 8fbd b367 babd aa74 a13d
00000280: 266a 96bd 6fd9 9fbd 4f36 b1bd 9266 c53d
00000290: a516 b43d 1bc1 aabd ad74 8d3d 5da4 9e3d
000002a0: 7f0c a7bd feb0 963d f034 a23d e39a b63d
000002b0: b7b2 a0bd 21da 5fbd ada4 9dbd 347e 873d
000002c0: c397 b53d 0d4f 653d f06f f8bc 55ad 27bd
000002d0: 72f7 87bd e30d 9d3d 545d 863d 30fc a8bd
000002e0: 0ba0 a03d 97ed 933d 6d35 bbbd 1d57 893d
000002f0: 6aae bc3d 9b62 86bd 6a60 8e3d a891 ae3d
00000300: 43bf 99bd 76af b03d c7a4 573d 8331 773d
00000310: 8372 8ebd 8a89 abbd 2696 a2bd 4da9 be3d
00000320: 4a74 ab3d 3d73 77bd 0aec ad3d 2833 813d
00000330: 438f 77bd aa69 b13d 7013 993d a991 8c3d
00000340: c467 86bd b30c 86bd 7e4f 9f3d 691e 95bd
00000350: ff47 78bd 1838 9d3d e36b 6fbd 42c5 aabd
00000360: ef9b 6f3d 0e64 99bd b0b7 98bd 003f 823d
00000370: a141 90bd ce94 95bd 2374 7d3d 5534 9bbd
00000380: 489a a0bd 5475 82bd 334b aa3d 0fec 783d
00000390: 8743 a63d 6a73 84bd 9e46 85bd b883 a1bd
000003a0: b8a9 a53d 99e4 b93d e075 83bd 0ad6 7f3d
000003b0: 9146 8a3d 5a1c a03d 8279 9bbd 9685 58bd
-0.09147782 0.08417472 0.095167324 0.06270992 -0.08010603 -0.0747194 0.052088168 -0.059825238
-0.051787775 -0.08948915 0.0787162 0.08169354 0.0710053 -0.07712939 -0.06638281 0.08168692
-0.0759992 -0.07913692 -0.057946235 0.069158204 0.07855468 0.045804754 -0.05768028 -0.07810305
-0.07604392 0.07471138 0.08613433 0.07762825 -0.09172905 -0.08171059 0.06694416 -0.06988969
-0.076002 0.06599925 -0.06840048 -0.06445859 -0.07569834 0.1204536 0.061435107 -0.08034201
0.066027425 0.074219264 -0.062173888 0.09449406 0.09622624 -0.073844634 0.08407677 0.08080667
-0.0853906 0.08594528 0.066543296 -0.07007226 0.073803596 0.044960953 0.079738475 -0.07854099
-0.062076766 0.07882663 -0.0630591 -0.07951307 0.05865948 -0.067069426 -0.05773275 -0.03823358
0.07987524 0.07948039 -0.082909144 0.07236289 0.08510021 -0.06275153 0.07575167 0.0765995
-0.061420813 0.07304157 0.058661383 0.07105077 -0.075236835 -0.081235915 0.075513996 -0.076448284
-0.082317695 0.06517419 -0.055705003 -0.06672278 0.06726763 -0.0828916 -0.06621076 -0.07306171
0.07958377 0.057532623 -0.07064862 0.08337687 0.083017245 0.0697922 -0.08871269 -0.07248388
-0.079570964 0.06955119 0.06473926 -0.067472845 0.06712432 0.07729002 -0.10004518 0.08479607
0.07990728 -0.06452381 0.06913912 0.09444086 0.06645898 -0.079450116 -0.060464155 -0.059093576
0.06813613 0.10105765 -0.0857225 0.07212128 0.07240351 0.08057366 -0.066141374 -0.06550763
-0.05540139 0.0833552 0.068364285 0.06845137 -0.079877526 -0.07472604 0.07023133 -0.07025249
-0.07360374 -0.06917756 0.06448726 0.06603353 0.064055264 -0.065481015 -0.076591626 0.055449527
-0.08610102 -0.051288884 0.06498603 -0.062334847 -0.05486112 0.07288361 -0.062826395 -0.09339423
0.06511015 -0.07563541 -0.06624441 -0.059675913 0.07659817 0.059063178 -0.077254295 0.06470692
0.07796824 -0.06335242 0.06888123 0.06536254 0.06780342 -0.0700572 -0.0910181 0.0788358
-0.07344465 -0.07805144 -0.08652937 0.09638704 0.087933816 -0.08337613 0.0690702 0.077461936
-0.0815668 0.07357977 0.07920253 0.08916261 -0.07846587 -0.054651383 -0.07697425 0.06615868
0.08866837 0.05598359 -0.030326813 -0.040936787 -0.06638993 0.07668664 0.0656077 -0.08251226
0.07843026 0.07223051 -0.091410495 0.06706069 0.09212954 -0.06561776 0.06951983 0.085238755
-0.075071834 0.086272165 0.05264738 0.060349952 -0.06955435 -0.08375843 -0.07938795 0.09309635
0.0837179 -0.060412634 0.084922865 0.063085854 -0.06043936 0.08662732 0.074744105 0.0686372
-0.065627605 -0.06545391 0.07778834 -0.07281191 -0.060615536 0.07676715 -0.0584525 -0.08338405
0.05849832 -0.07489787 -0.074569106 0.063596725 -0.07043768 -0.07303773 0.061878335 -0.07578341
-0.07841927 -0.06370035 0.08315124 0.060771998 0.081183486 -0.06467326 -0.0650761 -0.078864515
0.08089012 0.09076805 -0.06418967 0.062459983 0.06751741 0.07817908 -0.07591535 -0.052861772

bias f4 [80]
00000000: de83 993d fada afbd 99c7 90bc bb55 233d
00000010: ab65 80bd bb53 dcbe 6afe d63e c8ed 80be
00000020: 0e1c 1f3e 6c2c 0cbf 2ed2 65bd c43b 5bbd
00000030: 05a1 c63d 98e3 073e 8aa2 c93e 5c44 b73e
00000040: a621 0d3f 6842 6c3e 5099 5bbe 5935 f1bd
00000050: 6f83 5fbd 525b d13d 2b22 813e 31c5 603e
00000060: cf4c 1d3e 83bf 3cbe 3a28 dabe 8cd1 97be
00000070: 51a0 05bf 3091 ee3e e944 893e 86eb 95be
00000080: 086c 113f 1aec 733e dedc 7b3d a510 2c3e
00000090: 62c4 d8be 7927 e93d c798 553e fd56 0ebf
000000a0: dcdf 163e 41ff f9be 5c0d f9be 1df6 733e
000000b0: 935b 80bd 9f69 e4bd d28b c5be 483a cabe
000000c0: 9f32 24be f46c dc3e 4215 ab3e 698c a63e
000000d0: 4e65 e4be aedd 93be 2255 0a3f 8e24 ca3e
000000e0: 1767 ca3e 29d1 7ebe 7bb0 a53d c024 f3bc
000000f0: 2e95 653e 08a5 333e bf4e a53e d1e7 813e
00000100: 0658 013e fe2f aabe ca37 123f 0eaa cf3e
00000110: 986f 0e3e 971d d8bd f337 d5be 7328 ecbe
00000120: 5a6e 99bd 1682 13bf 92b4 a9be ce0f 603e
00000130: e873 b5be 510a 0c3f 7e73 223e da29 26be
0.07495855 -0.08586688 -0.0176733 0.03987668 -0.062693916 -0.4303263 0.41990978 -0.25181413
0.15538046 -0.5475528 -0.056108646 -0.053523794 0.09698681 0.13270414 0.3938182 0.35794342
0.5512947 0.23072207 -0.21445203 -0.117777534 -0.054568704 0.10222496 0.2522138 0.21950223
0.15361331 -0.18432431 -0.42608815 -0.2965206 -0.5219775 0.46595144 0.26810387 -0.29281253
0.5680547 0.23820534 0.061489932 0.16803224 -0.42337328 0.11384482 0.20859061 -0.55601484
0.14733833 -0.48827556 -0.48643005 0.23824354 -0.062674664 -0.11152958 -0.38583237 -0.3949759
-0.16034935 0.43051875 0.33414656 0.32529 -0.4460854 -0.28880066 0.5403615 0.39481014
0.39531776 -0.24884476 0.080903016 -0.02968061 0.22420189 0.17543423 0.3228664 0.25372174
0.12631235 -0.3323974 0.5711638 0.4055943 0.13909757 -0.10552519 -0.41644248 -0.4612461
-0.07491751 -0.5762037 -0.33145577 0.21881029 -0.35439992 0.5470324 0.1586437 -0.16226903

weight f4 [80, 80, 1]
00000000: 8b81 f23c 037b 81bd 1780 f4bc 53e4 733c
00000010: 679e 25bd 8020 5fbb 2160 b73c 9efe e9bb
00000020: 580d a83c d0fd 8ebc 6d80 6fbd 205f 5fbd
00000030: 9047 a43c 9d86 0d3c be68 023c 621a 883a
00000040: 0958 b93a a2d5 023d 4faf 8dbc f614 debd
00000050: ffca 1bbd 1a75 be3c d42e 943c 072a 883c
00000060: ed63 6b3c 8d3c d8bc 3158 d0bc 0f4e 27bc
00000070: 4167 14bb 94d0 93ba 6e6d 193c 176e b3bb
00000080: 320d 6a3c 38f3 533c b5b1 5b3c 90c4 673c
00000090: 56c3 2dbc 8341 c13c e657 fd3c 8992 ad3b
000000a0: c371 d03c 458f 82bc 40a2 b9bb 33af 933c
000000b0: 1527 3abd c7fc 8bbd f724 433b b854 823b
000000c0: fa6d ccbc 0ccb 843c 33e8 cfba 5a0f 113d
000000d0: 5a67 2ebc e816 8ebc 9db9 933c 5f7b 77bc
000000e0: 4d58 cc3c 70f4 e7bc a290 823c 2aac 0ebc
000000f0: b943 aa3a 7541 d0ba d57f 183c 223c ec3a
00000100: b961 9c3c 029b 0b3b 22e6 3c3c 0800 233c
00000110: a92d d53c 4a60 ebbd 01b0 35bc fe69 8cbc
00000120: 5de6 6cbd 2278 07bc b2b3 39bc eb07 d13c
00000130: da56 bdb9 e268 bd3c 0f43 353c 4359 0bbc
00000140: f41f 9dbd a43b 843d 850c 543d d55d 82bd
00000150: 8481 303d e61a a83c 54aa dbbc ac1c 023d
00000160: 7dc0 3abd a7dc e03c 4f02 7c3d ab3b 183d
00000170: 7c7a 6ebd a9a2 86bd e620 e9bc f2bc dabc
00000180: 1e9c 99bc 40f2 cabc e1b2 313d ff71 3c3d
00000190: 7d81 2c3d a5c1 5bbd 9bce 09bd 4890 20bd
000001a0: 666d 17bd a19d db3c 2e63 013d 57e4 c83c
000001b0: 9a82 023d a83a 76bc 98b4 1dbd 39b0 a23c
000001c0: dfd3 9ebc 163b 00bd e18f bebd ee94 2ebd
000001d0: e53b 913c 9566 f1bc 50a4 8dbc a897 973c
000001e0: 3129 23bd 31b7 a33c c484 343c 070c c5bc
000001f0: 89fe 523d 190f 4c3d eb05 5b3c 5e44 f13c
00000200: 969f 643d 270f 81bc fe38 dfbc 740f 0abc
00000210: 3396 e43c 69c4 313d da36 0dbd e708 38bd
00000220: 8e87 8bbb 7aa2 253d 250d 56bd ef0f d93c
00000230: dfcd 15bd fa65 1bbd ccd0 22bd 3d7c 0dbd
00000240: 5a6b 22bd a26b 4f3c e68d 0bbc ed77 b9bc
00000250: 4207 05bd 6a25 683d 5ea7 4c3d 8931 923c
00000260: d53e 1e3d 5afb 743c f9c0 f53c 364c d4bc
00000270: a93b a83c 0a1c d4bc ff62 05bd b8fc 6a3d
00000280: 646a 6438 2dde 58bd e691 13bd 1c00 af3c
00000290: c1ce 38bd 9f8d d13b a649 abbc 391b e83c
000002a0: ae5f bebc 5342 303a df8b 41bd ee39 43bd
000002b0: 5f47 92bb 2814 b93b 72c7 77bc 0a2c 7dbc
000002c0: 986a a93b 0e69 313b 19c7 3e3b c4d9 71bd
000002d0: 5d2d 26bd f6ed 2fbc 6355 ddbb 9113 8ebb
000002e0: 74f1 2a3c 82cc 0abd a82e 7b3b 315e d93c
000002f0: a63f 933c 038b c5bc 0d68 9ebb 608c 30bc
00000300: 2e63 c7bc 1277 3abc 9947 793c 74b7 6b3c
00000310: 6007 ad3c a1f8 983c ef5c 0f3c 1a5e a63c
00000320: 0e90 41bc f159 de3b 6d94 333c 0781 503a
00000330: dcbe d6bc bebb 76bd d297 013c 213c 2b3c
00000340: 700a 1ebd 1131 b6bb 286b b0ba e62c 00bc
00000350: ca2c a23c 0a62 1c3c 5224 e6bb d80a 163c
00000360: 8334 a1bc 6404 2b3c 8ca2 863b 1aae 15bd
00000370: 5259 3abc 3388 fb3b 2925 6fbc b2f3 283c
00000380: 174d e9bb fe32 873c 57ad c2ba f289 33bc
00000390: be6e 49ba 92dd 32bd 5263 943c 9a73 0c39
000003a0: fbca 28bd c8b3 163d 1234 673c ae74 77bb
000003b0: 6a2e be3b f662 d3ba bafe a3bb b1fd bcbc
000003c0: 575a b23c d079 6cbd e133 90bd 0609 c83c
000003d0: 1f5e 7bbd 2081 c93b 133d 173c b93f 533b
000003e0: d102 9d3c 52c0 c8bc 13f6 59bd 4840 53bd
000003f0: 1dd3 c5ba aaf0 843b 620f 92bc 7900 f73c
0.029602787 -0.06322291 -0.029846234 0.01488598 -0.040434267 -0.003404647 0.022384705 -0.0071409484
0.020514175 -0.017455012 -0.058472086 -0.054534078 0.020053655 0.008638051 0.007959543 0.0010383839
0.0014140616 0.031942017 -0.017295508 -0.10843842 -0.03803539 0.023249198 0.018088736 0.016621603
0.014367086 -0.02639606 -0.025432678 -0.010211482 -0.0022644552 -0.0011277371 0.009364469 -0.00547577
0.014285373 0.012936406 0.013409068 0.014145985 -0.010605654 0.023590809 0.030925702 0.0052970094
0.02544487 -0.015937457 -0.0056650937 0.018027877 -0.045447428 -0.06835323 0.0029776671 0.0039773844
-0.024954785 0.016210102 -0.0015862047 0.03541503 -0.010644758 -0.017344907 0.018032843 -0.015105098
0.024944449 -0.0283148 0.015938107 -0.008708039 0.0012990154 -0.0015888648 0.009307821 0.0018023292
0.019089567 0.0021302109 0.011529477 0.009948738 0.026022749 -0.11492975 -0.011089326 -0.017140385
-0.05783688 -0.008268388 -0.011334347 0.02551647 -0.000361136 0.023121301 0.011063351 -0.008505168
-0.0767211 0.06456688 0.051769752 -0.06365553 0.043092266 0.020520639 -0.026814617 0.031765625
-0.045593727 0.027448965 0.06152564 0.03716628 -0.05822228 -0.06573994 -0.02845807 -0.026701424
-0.0187512 -0.024773717 0.043383483 0.046007153 0.042115677 -0.05365147 -0.0336443 -0.039200097
-0.036969565 0.026808562 0.031588726 0.024522943 0.031862833 -0.015028633 -0.038502306 0.01985942
-0.019388137 -0.03130635 -0.093047865 -0.0426225 0.017728755 -0.02946786 -0.017290264 0.018504933
-0.039834205 0.019984813 0.011017982 -0.024053587 0.051512275 0.049819086 0.01336811 0.029451545
0.055816256 -0.015754296 -0.027248856 -0.008426536 0.027903652 0.043400202 -0.03447614 -0.044930365
-0.0042581027 0.040438153 -0.05225863 0.026496856 -0.036573287 -0.03793905 -0.039749905 -0.03454231
-0.03965316 0.012659939 -0.008517718 -0.022640193 -0.032477625 0.056676306 0.0499643 0.017845886
0.03863414 0.014952505 0.029999243 -0.025915246 0.02053626 -0.025892276 -0.032565113 0.057369918
5.445852e-05 -0.05294626 -0.03602781 0.021362357 -0.04511905 0.0063950564 -0.020909142 0.028333293
-0.023238983 0.000672375 -0.047252532 -0.047662668 -0.0044640745 0.0056481548 -0.015123235 -0.015452394
0.0051701777 0.0027070674 0.002911037 -0.059045568 -0.040570606 -0.010737887 -0.0067545637 -0.0043358286
0.0104335435 -0.03388644 0.003832737 0.026534172 0.017974686 -0.024114138 -0.004834181 -0.0107756555
-0.024339285 -0.011380928 0.015214824 0.014387 0.02112168 0.018673243 0.008750184 0.020308543
-0.0118141305 0.006785624 0.01096068 0.0007953797 -0.026214056 -0.06023764 0.007909732 0.010451348
-0.038584173 -0.0055600484 -0.001345967 -0.007823205 0.019796748 0.009544859 -0.0070233727 0.009157859
-0.01967836 0.0104380585 0.0041087326 -0.03654299 -0.011373835 0.0076761483 -0.014596262 0.010312008
-0.0071197855 0.016503807 -0.0014852685 -0.010958182 -0.00076840434 -0.043668337 0.018113766 0.00013394505
-0.041209202 0.036792547 0.014111536 -0.0037758755 0.005803873 -0.0016127515 -0.005004731 -0.023070188
0.021771593 -0.057733357 -0.07041145 0.024418365 -0.061369058 0.006149426 0.00923087 0.0032234027
0.019166382 -0.024505768 -0.05321319 -0.051574975 -0.0015092824 0.0040570097 -0.0178296 0.030151593

bias f4 [80]
00000000: bf7b a73c c7d3 d0bd 5cc8 c6bd 42b1 1f3d
00000010: c047 a5bd aa24 a03b 0599 c9bd 0d1e 2abd
00000020: 8e3e 72bd 2eb9 8fbd 946c 613c 7289 a83d
00000030: 9ef1 f53d dad8 7abd fd3a 413b b4e5 7d3c
00000040: 9a4c b9bc b7c6 3a3d 00ac 76bd db18 b2bd
00000050: 5a29 84bd bd11 8cbd 4ae0 b33d f715 603c
00000060: 7aca 9b3d e3fc 883d eef1 c13d 7874 19bd
00000070: caa2 323d 3a7a b83d 0a80 f6bc 40f5 663d
00000080: 1188 8a3d 9961 3dbd 31d1 f33c 9253 843c
00000090: 32fb b2bd d5f7 94bd 90e5 c4bc 6e86 033d
000000a0: efc1 4b3d 303b 8dbb 1296 9a3d 276c c23c
000000b0: 49fe 803b 7214 b53c df7e 5fbd 2643 79bc
000000c0: f65a d8bc c3fa 02bd e75a b33d 929c 8bbd
000000d0: f961 debd 3537 733d 22ee c23d 25ea a7bc
000000e0: 3645 52bd 1ba7 273d b32e a1bd b728 65bd
000000f0: dd89 4d3c 766b abbb f00a 093d a7ed ccbd
00000100: 651c 91bd 7e54 a3bd 186d fdbc 9b2d fabc
00000110: 9685 8b3d 6456 cfbd 27cf 133d 0dae c93d
00000120: abc8 71bd 4729 513d db14 41bd aadf 2d3d
00000130: a647 67bd 1c9a 3fbd b470 3c3d f165 9ebc
0.020444749 -0.10196643 -0.09706184 0.038987406 -0.08070326 0.004887183 -0.09843639 -0.041532565
-0.059141688 -0.07017742 0.013758797 0.082293406 0.120089754 -0.061241962 0.0029484623 0.01549666
-0.022619534 0.045599665 -0.060222626 -0.08696147 -0.064532 -0.06839321 0.08783014 0.013677112
0.07606979 0.06688859 0.094699726 -0.03746459 0.04361228 0.09007688 -0.03009035 0.056386232
0.06764234 -0.046235655 0.029762836 0.01615313 -0.08739318 -0.07273833 -0.024035245 0.032110624
0.049745496 -0.004310034 0.07548155 0.023733212 0.003936563 0.022104476 -0.054564353 -0.015213763
-0.026410561 -0.031977426 0.087575726 -0.06816973 -0.108585306 0.05937882 0.095180765 -0.020497391
-0.051335536 0.04093085 -0.07870235 -0.05594703 0.012545076 -0.005231316 0.033457696 -0.10006266
-0.07085494 -0.079751 -0.030935809 -0.030539325 0.06812589 -0.101238996 0.036086228 0.09847651
-0.059029263 0.051064756 -0.04713903 0.04244963 -0.056464814 -0.04677783 0.04600592 -0.019335719

weight f4 [80, 3, 1]
00000000: cb8e 84bd bdc8 bc3d 857c 973d af3c 873d
00000010: 8f83 98bd 53b5 c5bd f83b 9dbd 3103 c33d
00000020: 75e3 ad3d 01ca b0bd 8162 ab3d 7454 b53d
00000030: 9a08 7b3d 12da 80bd d539 9dbd ea91 8c3d
00000040: d702 abbd 90fe 89bd a387 adbd 9657 993d
00000050: 8e83 c73d e1ce 883d f72e 9abd 6e6e 9fbd
00000060: 6ceb 9bbd f624 9c3d f4f6 bc3d 234e aebd
00000070: 8ed4 a53d 5da1 853d 452a 9cbd d8ba 9d3d
00000080: d1d0 be3d 620b 613d 4418 a8bd a77a 72bd
00000090: 9593 8dbd ca4e 993d 50fe 843d ec72 8f3d
000000a0: 6a4e 91bd 5e18 83bd a77f ecbc b08d 703d
000000b0: 0a35 9d3d 9179 693d 0de5 58bd df76 f0bc
000000c0: b11e 963d 9814 87bd b2c7 c3bd de0c 6f3d
000000d0: c3c3 8dbd 561e 84bd 7e20 cdbd a127 b83d
000000e0: 6703 ca3d a7cc b3bd 7e80 983d bb32 a43d
000000f0: 6bcd 8fbd b743 a53d 9e7a aa3d d53b 9abd
00000100: e651 903d a2ec c83d 19f1 8b3d 1be7 6ebd
00000110: 2272 6fbd b72b b23d 13b9 a5bd a28b a0bd
00000120: ea22 57bd 4bb1 813d f5ef 6d3d cd76 9fbd
00000130: cbdd cb3d edf7 e13d dd57 99bd ed1d 643d
00000140: 7ea2 9e3d 0c08 73bd e069 5f3d 33e4 543d
00000150: bf77 84bd 2ebc 953d e73f a13d 6d16 af3d
00000160: 1d50 a6bd f205 acbd 82bb d8bd af93 a63d
00000170: 96c4 b73d 44e5 173d 2f2d 63bd 1f38 83bd
00000180: 09ee 893d c08b babd ab98 b7bd e925 a33c
00000190: 330e d3bc 820f f8bc 6a29 b43d 80da 6cbd
000001a0: e41a 9cbd 1474 48bd 0799 a33d 6938 a73d
000001b0: 55dc 82bd 6c0b 893d cb41 983d 8288 863d
000001c0: b476 93bd eeb5 c2bd 730b eebd 3990 d93d
000001d0: 76bb f23d 265c b6bd 615d a63d 6a4b 853d
000001e0: f2be a8bd 7684 9b3d bea4 d53d 5dc1 963d
000001f0: 5aa5 a6bd d086 c6bd 624a aabd 4628 7e3d
00000200: 78d6 783d 4f80 223d 53f8 edbc 99e2 cfbc
00000210: 0a9b 4db9 dd44 82bc e91f f6bc 51ad a4bd
00000220: adb1 b23d 96ad a33d 562c 94bd d432 d63d
00000230: e672 8e3d f5bc a43d 94a0 a3bd d9c2 95bd
00000240: daa4 d33c ec43 d4bc 6da6 f1bc 451d cbbd
00000250: a849 ba3d 4ecb c23d ab96 92bd 39a8 8d3d
00000260: c4d9 9e3d ff2d 8b3d 7878 a1bd 2eff cdbd
00000270: f3c7 c7bd 3d00 a13d 7dd2 e93d f2b7 8c3d
00000280: 8695 9ebd 86da 9fbd 47f0 c4bd b5f0 963d
00000290: 8126 a23d c1f7 93bd c6ef 6f3d 206f 483d
000002a0: 1126 9a3d 137a b0bd 094f cfbd 10fb 9ebd
000002b0: bd65 b83d 49d1 ec3d d182 7e3d d47c c7bd
000002c0: 88a2 89bd 6090 9fbd 4345 5b3d dfe2 933d
000002d0: 8acb 9bbd 12fe 9d3d 70c7 aa3d dc2f 863d
000002e0: c28a 6dbd e431 a8bd 8a7c 783d 3040 8dbd
000002f0: 9054 acbd fd63 ab3d 1b79 a1bd be50 9ebd
00000300: 778d bebd 91fe c03d d733 c13d fd32 c5bd
00000310: 09d9 ad3d fe00 973d d9d8 97bd 8e8f 793d
00000320: 42f4 c83d fcc5 80bd 2163 883d cf6d a53d
00000330: 51da d8bd 46c9 dd3d c435 d03d 0161 e0bd
00000340: ca0f d23d 1d95 cc3d 3438 b13d 46d9 8cbd
00000350: 78fd 8cbd 3e27 7cbd 5e58 893d 709d 8a3d
00000360: ebe4 183d 7d43 3abd 9198 9dbd 2c88 e5bd
00000370: a878 c53d 9c7a f83d 06b0 bbbd d5ef 8d3d
00000380: 5dc2 ca3d 54e7 a0bd 8b4f 9f3d 266c cc3d
00000390: 2f36 bcbd 1918 e13d 1fa5 c43d b0e2 2fbd
000003a0: 8d51 733d 7ebf 6f3d 6688 9bbd e574 943d
000003b0: 7bad 933d 5ec8 a7bd 4592 b03d e41f a93d
-0.06472548 0.09217975 0.07396797 0.06603371 -0.07446968 -0.096537255 -0.07677454 0.09522093
0.084906496 -0.08632279 0.083683975 0.08853999 0.0612875 -0.062915936 -0.07677046 0.068637684
-0.08350151 -0.06738007 -0.08473136 0.07487409 0.09741889 0.06680084 -0.07528489 -0.07784735
-0.076132625 0.07624237 0.0922679 -0.08510997 0.08097182 0.06524918 -0.0762525 0.07701653
0.09317172 0.054942496 -0.08207753 -0.059199 -0.06912915 0.07485731 0.06493819 0.070043415
-0.070950344 -0.06401132 -0.028869463 0.058728874 0.07676132 0.0570007 -0.052952815 -0.029353557
0.07330073 -0.06595725 -0.09559573 0.05836188 -0.06922104 -0.064510986 -0.10015963 0.089919336
0.0986393 -0.08779269 0.07446383 0.080174886 -0.07021602 0.08069556 0.083241686 -0.07530943
0.07046871 0.09810759 0.06833095 -0.058325868 -0.058458455 0.08699744 -0.08091941 -0.07839133
-0.05252353 0.06332644 0.05809017 -0.07786331 0.09954413 0.11033616 -0.07487462 0.055692602
0.07745837 -0.059333846 0.05454433 0.05197544 -0.06468152 0.07311283 0.078735165 0.08549199
-0.08120749 -0.083995715 -0.10582639 0.08133637 0.08973043 0.03708388 -0.055463012 -0.064071886
0.06734855 -0.091086864 -0.08964666 0.019915538 -0.025763607 -0.030280832 0.087969616 -0.057825565
-0.076223165 -0.048938826 0.07988172 0.08165056 -0.06389681 0.06691632 0.07434424 0.065690055
-0.07200375 -0.095073566 -0.116232775 0.106232114 0.118521616 -0.08904295 0.08123279 0.06508525
-0.08239545 0.07593624 0.10431813 0.073611 -0.08137007 -0.09693682 -0.08314969 0.062050126
0.06075141 0.039673146 -0.029049074 -0.025376605 -0.0001960808 -0.015901977 -0.030044513 -0.0804087
0.08725295 0.07992093 -0.07235019 0.104589134 0.06955509 0.08043853 -0.07989612 -0.07312555
0.025835443 -0.025911294 -0.029498303 -0.09917692 0.0909608 0.095114335 -0.07157644 0.069168516
0.07756379 0.067958824 -0.07884306 -0.10058437 -0.09754934 0.078613736 0.114171006 0.06871022
-0.07743363 -0.07805352 -0.09616142 0.0737013 0.079175 -0.0722499 0.058578275 0.048934102
0.07526792 -0.08617034 -0.10122497 -0.0776273 0.0900378 0.115633555 0.062136475 -0.09740606
-0.067204535 -0.07791209 0.05353285 0.072210066 -0.07607181 0.07714476 0.08338821 0.06552097
-0.057993658 -0.08212641 0.060665645 -0.068970084 -0.084145665 0.083686806 -0.07884427 -0.07730244
-0.09304326 0.09423555 0.09433716 -0.09628866 0.08488662 0.07373236 -0.07414407 0.06092792
0.098122135 -0.062877625 0.06659532 0.08077585 -0.105885155 0.108294055 0.10166505 -0.10956002
0.10256918 0.099893786 0.08653298 -0.06877379 -0.06884283 -0.06156086 0.06706308 0.0676831
0.03732769 -0.045474518 -0.07695115 -0.11207613 0.09642154 0.12132761 -0.09164433 0.0693051
0.09900353 -0.07856622 0.077788435 0.09981565 -0.09190022 0.109909244 0.09601807 -0.042940795
0.059403945 0.05853223 -0.07594375 0.07248858 0.07210823 -0.08192514 0.08621649 0.08258036

bias f4 [80]
00000000: a302 573e 4f2b 293e efb5 d93e 9a45 593e
00000010: 0d40 0ebe 2420 03bf 4afe a53e 83a1 d5bd
00000020: 3f3d 503e 86a5 e23e 4091 293e 8d24 81be
00000030: 9b5d b5be c9ad 99be 1e84 d2be 1703 df3e
00000040: efe7 6cbd 932b 0abf 50e3 083f 3f30 2ebe
00000050: 0e4b 4a3e 8a79 d83e a80d a8be f24d f3be
00000060: 1e52 fdbe 94c7 e23e dc31 ee3c dd02 8dbe
00000070: 7ee0 06ba e752 03be 7f53 fd3e acc2 c83e
00000080: 2f5c ddbe 37e2 c43e aeca acbe a4c5 8d3c
00000090: 45c4 503e 748e 49be a2b9 d73e 5a58 803d
000000a0: 8a3f 7b3e 0540 f0be 48c2 f53d fd81 b23d
000000b0: a158 893e 5ed7 603d 477c 343e 5329 eabe
000000c0: 86eb 9b3e 0ede 0c3f 67a5 d2be 5889 00bf
000000d0: 10da fa3e eece b9be fc3b 19be d263 67be
000000e0: 011a 0cbf 41b1 f8bd 6d8a 75be c202 0b3d
000000f0: 8e9a 583e b81f 04bf 6ed5 c7be e6e5 0ebf
00000100: a705 10bd 30b1 bb3e 5ad7 68bd d12a 7d3e
00000110: 18b7 0b3f 7d90 0c3f 99d4 fabd 1de5 bebe
00000120: b651 fe3e 8285 b83e a2e0 753d 4cf7 f73c
00000130: 0abd e53e 56b1 0cbf d732 353e 9ba9 e6bd
0.209971 0.16520427 0.42521617 0.21217957 -0.13891621 -0.5122092 0.3242057 -0.104311965
0.20335864 0.4426691 0.16559315 -0.252232 -0.35422978 -0.300154 -0.41116422 0.43557045
-0.057838377 -0.5397274 0.5347185 -0.17010592 0.19755194 0.42280227 -0.3282292 -0.47520405
-0.49476713 0.4429289 0.02907651 -0.27541247 -0.0005145146 -0.12824593 0.49477765 0.39211023
-0.43234393 0.38453838 -0.33748382 0.017306156 0.20387371 -0.19683248 0.42133814 0.06266852
0.24535957 -0.46923843 0.11999947 0.087161995 0.2682543 0.05489289 0.17625533 -0.45734653
0.30453128 0.5502633 -0.41141817 -0.5020957 0.48994493 -0.36290687 -0.14964288 -0.22596672
-0.5472718 -0.121431835 -0.23978586 0.033938177 0.21152708 -0.516109 -0.3903002 -0.5581955
-0.03516164 0.3665862 -0.056846 0.24723364 0.54576254 0.5490797 -0.12247581 -0.37284175
0.49671715 0.36039358 0.06002868 0.030269288 0.44870788 -0.54958093 0.17695175 -0.112628184

weight f4 [80, 80, 2]
00000000: c20d f4bc 08dd 34bc dc7b 603c edd7 0c3c
00000010: 3a09 2dbc 1702 4cbc bdb2 f2bc 1819 c9bc
00000020: 93af 763d 1411 9a3c aec3 8b3c d978 d73b
00000030: 2df6 aebc 4026 7dbb 6c65 013e 2e9f 673d
00000040: 4b72 57bd b9d1 96bc 2e66 10bc fdd6 a5bc
00000050: 9603 c6bd 5461 69bd 020f 503d 51af b13c
00000060: b85e 5ebd 6365 c7bc 8b67 843c 12c9 673c
00000070: 9768 37bc 9591 7bba ce05 0bbb 7354 9fbb
00000080: 6037 ba3d 4cf7 8e3d bbdb ba3c 5130 cdba
00000090: ecef 35bc e401 86bb f4a6 07bd f825 5bbd
000000a0: b4d5 27bd 8e37 c4bc 24a3 46bc 0ee4 a8ba
000000b0: d17b c2ba 6b41 a43a d8f0 283c 59c8 963c
000000c0: 1442 2d3b 3a72 f8bb 55e0 84bc 1486 b4bb
000000d0: 247d 7ebd cf87 d9bc 176d f8bc e866 debc
000000e0: becc 13be 426f 47bd a912 933d 4440 263d
000000f0: 76e1 8ebb 9f3b 50bc 309d fc3b fa52 563c
00000100: 8d29 2f3c f1f7 b83c be09 35bb 1d15 453c
00000110: 4806 513c 9c38 c73c 2309 e3bd 8534 44bd
00000120: 65bb 0ebd 7693 23bd 89bb 1c3d 54a9 e83b
00000130: 2bb4 ddbb 3826 4ebc 65c3 cbbd 4a5e 12bd
00000140: c3fe 01bc ddd4 15bc 530e 2d3d c7c7 43bc
00000150: 1b12 98bc 67ce a3bb 61d9 f03c 0017 953c
00000160: c842 f5b7 6a89 85b9 08b9 eebd fb19 e6bc
00000170: 0302 7ebd c73d 6cbc 1f3c 103c ba5f 52ba
00000180: dfe6 9fba 7965 5d3b ef8b 2dbc 0718 98bc
00000190: 41e1 a5bc c7b8 c0bc 534b a43c ae5c b0b9
000001a0: c67a 93bc 82c8 e13b 8e7a ce3c 2870 6c3c
000001b0: 4698 8fbd 2e37 81bd bdf1 b2bc c763 88bb
000001c0: 30e3 963c ef54 e43b 10c2 a4bd f136 7cbd
000001d0: 72a9 943c 8bfb ad3c b9f0 2dbd 2f11 94bd
000001e0: a90b babb 5dda e1bc 969a c8bb e168 b83a
000001f0: b7b4 173c ae53 9b3b a751 b83c b979 adbb
00000200: 198f 97bd 4ba2 47bd a857 20bd fc25 32bc
00000210: 9709 76bd 9c0b 98bd e8c4 14bc abc2 873a
00000220: 6c3c 3cbc 41fd 21bb 899a 0a3a 2c32 20bc
00000230: e0b2 d73d 5a55 cd3d 57ac 1ebc c9f3 d0bb
00000240: cc76 a03c 4ff0 0f3c 8b68 98bc c40e 7cbc
00000250: 94ec e1bd 4558 9ebd 9d94 fcbd e77a 95bd
00000260: d5d3 acbb 728f d73b eb29 053c 4b4c 57bc
00000270: b26e 54bc b42c abbc 3b7e a8bd da21 a1bd
00000280: 0e3b bfbc 739a ceb6 b8e7 c53c 9df2 4b3b
00000290: d79b 86bc a6ee e1ba 203d 59bc b1dd bbbc
000002a0: 63bd db3c 3712 ac3c d2ec b9ba 1e13 4c3b
000002b0: bfe7 9a3c e98c 03bc 5a2e e23d 41fe f03d
000002c0: c2c2 e7bc 4ca7 0ebd 8b0c 3ebc 45d0 d43a
000002d0: 3bfd d2bd 5f8f f5bd 3766 053d 51f5 c93c
000002e0: ce8e 1fbd 2ea6 33bd b553 993c 35c1 f63b
000002f0: eb80 82bc 8586 b5bc 1c19 76bb 31b0 3b3b
00000300: 1b41 873d d15f 893d 814f b23b 374b 753c
00000310: 117a 97bb fc88 e9bb 53f1 1abd bb11 39bd
00000320: 5ee6 54bd 1ce5 3cbd 6c9f 49bc 198e 83bb
00000330: db7f 6b3b 5113 ac3c ba79 ce39 b9e8 cd3c
00000340: 2e5c 11bb 226e bcbc 34a4 06bd afd2 34bc
00000350: a2d8 63bd a1d7 61bd 254b f3bc 2533 ccbc
00000360: cd91 debd 1837 e3bd a76a 643d 378c 853d
00000370: beeb 7ebb fc71 7abc 1818 4cbc 3fd6 653a
00000380: cd96 8b3b 3668 913c 53ff 873c 51e8 003c
00000390: 0aed 693c f948 343d e0a5 bfbd ef7a fabd
000003a0: 4614 01bd 6a0f b5bc de1f dd3c 592b 153d
000003b0: b24e 80bc 805c 22bc e8cc 9bbd bf35 a7bd
000003c0: baab 8ebc d16e 98bc a474 093c cc28 8e3c
000003d0: 3ec5 aebc 4e04 8bbc e986 04bb bfe9 523c
000003e0: 0c7b 98bc 99a5 843b 25ca f8bd ec9d f1bd
000003f0: fe24 32bd 5b41 5abd 30c0 1ab9 d263 ed3c
-0.029791716 -0.011039026 0.013701405 0.008596403 -0.010561282 -0.01245167 -0.029626245 -0.024548098
0.060226034 0.018806972 0.01706108 0.0065756855 -0.02135762 -0.0038627535 0.12636346 0.05654829
-0.052599233 -0.01841055 -0.008813424 -0.020244116 -0.09668653 -0.056977585 0.050795563 0.021690043
-0.05428955 -0.024340337 0.016162654 0.01414706 -0.01119437 -0.00095965835 -0.0021213177 -0.004862362
0.09092593 0.06980762 0.022809854 -0.0015654658 -0.011104565 -0.004089581 -0.033118203 -0.053503007
-0.040975288 -0.023952272 -0.012123857 -0.0012885348 -0.0014837926 0.0012531703 0.010311328 0.01840608
0.002643709 -0.0075819762 -0.016220251 -0.0055091474 -0.062131062 -0.026554016 -0.030325456 -0.027148679
-0.14433572 -0.048690088 0.071812935 0.040588632 -0.004360373 -0.012709527 0.007709168 0.013081307
0.010691059 0.022579165 -0.0027624215 0.01202896 0.012757845 0.024318986 -0.11085727 -0.04790165
-0.034846682 -0.03993555 0.038264785 0.0071002636 -0.0067658625 -0.012582354 -0.09949378 -0.035734452
-0.007934275 -0.009144989 0.04224999 -0.011949486 -0.01856332 -0.0049989703 0.02940053 0.018199444
-2.9237373e-05 -0.00025470118 -0.11656386 -0.02808856 -0.062013637 -0.014419026 0.0088033965 -0.00080251286
-0.0012199542 0.0033782406 -0.010592445 -0.018566145 -0.020249011 -0.023525609 0.020055449 -0.00033638388
-0.018002879 0.0068903575 0.025204923 0.014431037 -0.07011466 -0.06309353 -0.021843785 -0.004162285
0.018418878 0.0069681327 -0.08044827 -0.061575834 0.018147204 0.02123811 -0.0424659 -0.0722984
-0.0056776595 -0.027569944 -0.0061219437 0.0014069342 0.009259394 0.0047402 0.022499872 -0.0052940515
-0.074003406 -0.04873876 -0.039146096 -0.010873314 -0.06006774 -0.07424089 -0.009080149 0.0010357698
-0.011489015 -0.0024717601 0.000528731 -0.009777587 0.105321646 0.10026045 -0.009684644 -0.0063767177
0.019587897 0.008785321 -0.018604537 -0.01538438 -0.11031452 -0.0773168 -0.12333033 -0.072988324
-0.005274276 0.0065783793 0.00812767 -0.013140748 -0.012965845 -0.02089534 -0.082272016 -0.07867785
-0.02334359 -6.1572587e-06 0.024158344 0.003111995 -0.016431732 -0.001723726 -0.013259202 -0.02293286
0.026823705 0.02100478 -0.0014184958 0.0031139324 0.018909333 -0.008029201 0.11043997 0.11767245
-0.02829111 -0.034827515 -0.01159967 0.0016236386 -0.10302206 -0.119902365 0.032568183 0.024653109
-0.03895455 -0.043859653 0.018716672 0.0075303563 -0.015930614 -0.02215887 -0.0037551587 0.0028638954
0.06604215 0.06707729 0.0054416065 0.014971546 -0.0046227057 -0.0071269255 -0.0378278 -0.045182925
-0.051977508 -0.046116933 -0.012306076 -0.004014742 0.0035934362 0.021005305 0.00039382075 0.025135385
-0.0022180188 -0.023001734 -0.03287144 -0.011036559 -0.05562652 -0.05513728 -0.029698918 -0.024926731
-0.10867653 -0.11094493 0.055765774 0.065208845 -0.0038897838 -0.015285965 -0.012456916 0.0008767582
0.00425992 0.017749887 0.01660124 0.007867889 0.014277706 0.044014905 -0.0935781 -0.12230479
-0.031513475 -0.022102077 0.026992735 0.036418293 -0.015662525 -0.009909749 -0.07607442 -0.08164548
-0.01741587 -0.018607529 0.008389626 0.017353438 -0.021334287 -0.016969826 -0.0020222014 0.012873112
-0.01861336 0.004048061 -0.12147931 -0.11797699 -0.04349231 -0.053284984 -0.0001475818 0.028978262

bias f4 [80]
00000000: 5208 3d3c 5d16 75bd 140f 033d 66dc 293d
00000010: b86c a43c a693 ec39 2b52 d33b 355a 5f3d
00000020: 6aad d93a 9d1d 7ebd 90f3 a5bc 041e b2bb
00000030: 2f12 67bd af55 2fbd c26f 89bd 0be2 3c3d
00000040: fe5e 9bbd f36f aabc 8739 1c3d a2e3 9b3c
00000050: faf6 8c3d 3b88 83bd 2d77 8c3d 7121 01bc
00000060: 2625 163d aa3f 3ebd 39c9 1f3d 0e94 2f3d
00000070: 0da1 103c a2a0 99bc 9a35 e5bc f780 bf3c
00000080: cf3f 4d3c 062c 86bd 686c 8ebd d71e f43c
00000090: 1d56 f73b a6d8 063c 298a 2b3d f527 55bd
000000a0: 4ae7 fa3c df61 8abd 0b4c 9cbd 0e89 d3bc
000000b0: dbf2 a53a 5a81 8d3d 308c 2fbd 91e3 99bd
000000c0: 67af be3c 443f 8d3d 84c4 fdbc 1188 3bbb
000000d0: e2de 0dbd 62cd 973c dc91 8c3d cb65 36bd
000000e0: 035f 1f3d 9044 0bbd e5e5 8b3d a3a9 7cbd
000000f0: 02fa b6bc 3dd1 fa3b e5d0 7dbd d75f 95bd
00000100: d075 54bc cf73 e43c de05 8d3d 8111 9abc
00000110: 0a13 4e3d 21a7 623d 5a59 75bd 6d1a a2bc
00000120: 2c6b 70bd 810d a43c e163 263d a834 99bd
00000130: 10ca 923d 1870 313d 5140 243c afc7 4d3c
0.011537628 -0.05983578 0.0319968 0.041469954 0.020071372 0.00045123434 0.006449004 0.054529388
0.0016607468 -0.06203996 -0.020257741 -0.005435707 -0.056413826 -0.042806324 -0.06710769 0.04611401
-0.07586478 -0.020805335 0.0381408 0.019029442 0.068830445 -0.06422468 0.068586685 -0.007881508
0.03665652 -0.046447434 0.03901026 0.042865805 0.00882746 -0.018753354 -0.02797966 0.023376925
0.01252742 -0.065513656 -0.069542706 0.029799862 0.0075481073 0.008230364 0.041879807 -0.05204006
0.030627865 -0.06756949 -0.076316915 -0.025822189 0.0012660878 0.069094375 -0.042858303 -0.07514108
0.023276998 0.068968326 -0.030977495 -0.0028615037 -0.034636386 0.018530551 0.06863758 -0.04453067
0.03890897 -0.034000933 0.06830958 -0.061685216 -0.02233601 0.0076543377 -0.061966795 -0.072936706
-0.012967542 0.027887253 0.06885885 -0.018807175 0.050311126 0.055335168 -0.059899665 -0.019787991
-0.058695957 0.02002597 0.040622596 -0.074807465 0.071674466 0.04331979 0.0100251 0.012559815

weight f4 [80, 80, 2]
00000000: 03f1 a33c a10b c5bb 5e45 00bc 2801 c33b
00000010: f780 5f3c 2446 aebc bd8d dabb 2837 c83b
00000020: da93 38ba 5f72 ecba f3da 52bb 79a4 10bb
00000030: dc96 05bb 4cdf 2b3a 29b4 06bc 9869 b53b
00000040: a967 023c 57c9 3b3a 0952 1cb9 35d8 833b
00000050: d901 6dbc 063f 1abc 4d85 ee3a 5790 1abb
00000060: c63e 71bb 2210 a7bc 53b7 0ebc 9294 b6bb
00000070: f37d 843c adf2 02bc 0b39 b03a b788 bc3b
00000080: 7899 89bc 9f44 473b e6e0 6b3d f2a4 28bc
00000090: 9f23 45bc bb14 c13b cbb6 e6bb 2ebf deb9
000000a0: a641 0dbb 43fc da3b 4b82 04bb 2b89 bd3b
000000b0: af4e 85bc 379a 4dbc 0b3c 4e3c 2d2f 9dbc
000000c0: 5a2c 6ebc 1314 abbc 5b75 33bc 918f 0d3c
000000d0: 0fe0 57bb 2d93 873b 282b 8cbc d639 25bc
000000e0: f265 503c 1ebc 5fbb 6ebd e1ba 6b93 a63b
000000f0: 6fe4 c13b 3d97 463c 0e04 723b 2947 ba3b
00000100: f056 4c39 53ed 403b 7500 0cbb ecaa 3fbc
00000110: 29cd e13b 68b2 94ba ee9b a6bc dd93 6abb
00000120: 798b 3a3b 0788 9fbc 8d41 e4ba 505c eb39
00000130: 2952 86bc 51ba ffbb 7206 f33c f58a 6cbc
00000140: fed1 89bb 0b02 28ba ebe2 f73c fd8b 833b
00000150: 650d e93a 5570 0739 c969 603b 83f7 1dbc
00000160: 3fd7 a03c 5aab bb3b a33b d13c 7df2 82bc
00000170: 9dd0 eb3b 05ce 1abc 872a f33c fbcd 973a
00000180: 5ff7 9b3a 7354 1ebb 276f 02bd 3f90 f4b9
00000190: 0e34 60bc 99a3 963b 50b2 263d b50d 6e3b
000001a0: 3942 fc3a a914 a6bb 1759 a3bc 30eb f0ba
000001b0: 771c 03bc 18b4 87ba 8636 91bb e181 d33b
000001c0: 8204 58bc 5111 a7bb 7cf3 dabc e5d3 ef3a
000001d0: f21b 1c3c caa0 e1bb 6fc9 153b caad 26bc
000001e0: 205a babb 5fb0 0d3a 272d 3c3c aeea 813b
000001f0: 1ccd 8fbb 7d54 f7bb fb22 e4ba 1702 34bc
00000200: 8b99 a3bc d6b9 f2bb 9bd5 853b 2bc1 5bbc
00000210: f0ed cdba 48f4 d23b 917a 233c 81fd 283b
00000220: a995 253c cc57 2ebb 4da6 34bc ef60 cb3a
00000230: 1666 87bb bcce f1b9 5536 a0ba 8ab2 ecbb
00000240: bbc7 563c 4bd0 293c 9174 c4bb ad50 a0bc
00000250: 8662 8dbb e8a5 38bc 1b8e 653c 6127 603c
00000260: b615 50bc b17a 91bc 029c 233c 5fe1 843b
00000270: f456 e5bb be48 ffbb 9b2a 4cbc 0fe4 24ba
00000280: 7fcf 203d 547e 233d bdb8 343d 555e 0d3d
00000290: 2d47 e03c 5a80 603d 483a d3bc f6bd adbc
000002a0: 3ca8 d4bb 765f e0bb f000 cbbc 946f 3bbc
000002b0: c152 e7bc 54ba f4bc d906 3bbc ed0a febc
000002c0: d782 0c3d cb8d 263d dee2 583d 19f4 e53c
000002d0: d185 f83c 57fd 523d d4b8 da3c 9ef8 153d
000002e0: 53f2 773c bd4f 3f3d 30e8 da3c 729c 7e3c
000002f0: 2fbb f53c ea1f 5e3d c683 0bbd ee97 c9bc
00000300: 7b0f 21bc 77ab 07bd 3abc 6d3c 069f 333d
00000310: 2b9c 20bc d174 17bd 1ef1 77ba 953e 3fbc
00000320: e70d 36bc 6c4d 96bc 00c9 24bb 544a 13bd
00000330: f365 afbc d947 75bc 4c99 d73c 9b8d d23c
00000340: 7804 1bbd 9fe6 a8bc 813a 6a3c c852 b7bc
00000350: cfe0 dd3a b5b7 3ebb de3c 29b9 8465 d6bb
00000360: 2d57 223d 0c2e 4d3d d54b 083d f6e6 553d
00000370: a21a b8bc 279e 80bc f8ab 26bc ebe7 b7bc
00000380: 8334 d4bc 0e91 6cbc c3fe 303d 876f a03d
00000390: 61f6 033d 593a 3a3d 1254 723d 801c 3e3d
000003a0: 27d8 4e3d 9cfa 543d af05 08bd c897 d6bc
000003b0: f766 77bc c3e5 83bc 70a3 8ebc 38f7 f0bc
000003c0: 5bd8 89bc 5afe 0bbb 3ebd 553c 6162 193d
000003d0: 55e4 c73c bbae e43c de46 6a3d 3850 1b3d
000003e0: e03a d53c 86a4 293d 71c2 dc3c 8461 293c
000003f0: b364 203d 8a42 f33c 471b 9e3c 4fae 8d3c
0.020012384 -0.006013349 -0.007829038 0.0059510656 0.013641587 -0.02127368 -0.0066697286 0.0061100908
-0.00070410746 -0.0018039456 -0.003217396 -0.002207069 -0.0020384109 0.0006556406 -0.0082216645 0.0055362694
0.007959285 0.0007163486 -0.0001490788 0.0040235766 -0.014465773 -0.00941444 0.0018197686 -0.0023584568
-0.0036811098 -0.020393435 -0.0087107 -0.00557191 0.016173339 -0.007992429 0.0013444735 0.0057536024
-0.016796812 0.0030405892 0.057587527 -0.010293232 -0.0120324185 0.005892364 -0.0070408336 -0.0004248558
-0.0021554022 0.006682904 -0.0020219262 0.005784174 -0.01627287 -0.012548975 0.012587558 -0.019187534
-0.014536941 -0.020883596 -0.010953273 0.008640186 -0.0032939946 0.004137418 -0.017110422 -0.01008459
0.012719618 -0.0034139226 -0.0017222592 0.0050834916 0.005917124 0.012121019 0.0036928686 0.0056847525
0.00019487343 0.0029438331 -0.0021362577 -0.011698466 0.006890912 -0.0011344673 -0.020338025 -0.00357937
0.002846448 -0.019474043 -0.0017414555 0.0004489147 -0.016396599 -0.007804193 0.02966616 -0.014437427
-0.004205941 -0.0006408996 0.03025957 0.0040144906 0.0017780481 0.0001291645 0.003424274 -0.009641531
0.019633887 0.005727214 0.025541132 -0.015984768 0.0071964995 -0.009448533 0.029683365 0.0011581773
0.0011899284 -0.0024159222 -0.031844284 -0.00046646778 -0.013684286 0.004597139 0.040697396 0.0036324088
0.001924581 -0.005068381 -0.019939942 -0.0018380638 -0.008002392 -0.0010353355 -0.0044315485 0.0064546918
-0.0131846685 -0.0050985 -0.02672743 0.0018297402 0.009528147 -0.0068856226 0.002285566 -0.0101732705
-0.0056870133 0.00054050045 0.0114853745 0.0039647436 -0.0043884646 -0.0075479136 -0.0017405445 -0.010986826
-0.019970676 -0.0074074073 0.0040843016 -0.013412754 -0.001571117 0.006437812 0.009977953 0.0025785866
0.010106483 -0.0026602624 -0.011025977 0.0015516559 -0.0041320426 -0.0004612113 -0.0012223223 -0.007223432
0.013109143 0.010364602 -0.005995341 -0.01956972 -0.0043147234 -0.011270024 0.014010931 0.013681264
-0.012700489 -0.0177587 0.009985926 0.0040551866 -0.006998891 -0.007790654 -0.01246133 -0.0006290087
0.039260384 0.039915398 0.044121493 0.03451379 0.02737769 0.054809906 -0.025784627 -0.021208744
-0.0064897817 -0.0068473173 -0.02478072 -0.0114401765 -0.028237702 -0.029874004 -0.011415207 -0.03101107
0.034304466 0.040662568 0.052950732 0.028070496 0.030337246 0.051511135 0.026699461 0.036614053
0.015133458 0.046706904 0.026722044 0.015540229 0.029996483 0.054229654 -0.034061216 -0.024608579
-0.009830351 -0.033122506 0.014510209 0.04385283 -0.009802858 -0.03697664 -0.00094582315 -0.011672636
-0.011111713 -0.018347465 -0.002514422 -0.035959557 -0.021410918 -0.014970743 0.026318215 0.025702288
-0.03784606 -0.020617781 0.014296175 -0.02237834 0.001692796 -0.0029101197 -0.00016139771 -0.0065428633
0.03963392 0.05009274 0.033275444 0.052222215 -0.022473637 -0.015700413 -0.0101728365 -0.022449454
-0.025903946 -0.014438881 0.04321171 0.07833772 0.032217387 0.0454658 0.059162207 0.0464139
0.050499108 0.051996812 -0.033208545 -0.026195422 -0.015100232 -0.01610077 -0.017411917 -0.029414758
-0.0168268 -0.0021361322 0.013045607 0.037447337 0.02440087 0.02791535 0.05719649 0.0379183
0.02602905 0.041416667 0.026948186 0.010338191 0.039158534 0.029694814 0.019300116 0.01729503

bias f4 [80]
00000000: d495 6bbc 7459 673d 35eb 21bc 64d9 9fbd
00000010: f18a abbc 5a2e 1e3d f447 50bd 69fd 87bd
00000020: e15d ba3c db4b 97bd 780b 303d f432 2e3d
00000030: 94b1 27bd c800 673d 1aa2 753d b9ab ef3b
00000040: 338e a83c 32ff 9b3c fefa 3ebd 6d1b cd3a
00000050: 5e0b 8ebd 19c8 c6bc f2b3 0ebd e351 3e3c
00000060: 9fbf d2bc d881 b3bc 0414 243d 0379 38bd
00000070: 3903 e3bb 72ed 193b 9953 483d fbae f0bc
00000080: 3e72 383d a41d 8bbd cf1c 96bd d40d 63bd
00000090: 3d15 863d 9dbb 8cbd 95fa 06bd 1175 81bd
000000a0: 209e 83bd dad3 a53d 2b2c 1bbd 901d 2d3d
000000b0: 5dad 19bd b362 39bd e5b7 f93c ddb7 72bd
000000c0: 9159 da3c 262f cebd cc92 013b 6d54 2f3d
000000d0: f52f d2bd 7033 09bc 3077 013d 43b0 b1bc
000000e0: 0d83 9a3d e2d1 453d 46db 55bd 27ac 73bd
000000f0: 698a 9d3d ec51 c9bc ab4b 423d 1f4f 11bd
00000100: b075 ceb9 e76a d9bd 0fbd e23b 47f7 d13c
00000110: 8899 d5bc 3211 cabd f3be e53c f93c 9dbc
00000120: 97f6 a8bd ff52 743c 954e 19bd 9ed2 b9bd
00000130: b835 70bd 9339 323c 0664 4b3d 41bc debb
-0.0143789835 0.056481794 -0.009882738 -0.07805136 -0.020940276 0.038618423 -0.05084987 -0.06640131
0.022749843 -0.07387515 0.042979687 0.04252906 -0.040940836 0.05639723 0.059969045 0.007314172
0.020575618 0.019042585 -0.046626084 0.0015648432 -0.06935762 -0.024265336 -0.034839578 0.011616203
-0.025726138 -0.0219125 0.04005815 -0.04503728 -0.0069278744 0.0023487476 0.04890785 -0.029380312
0.045030825 -0.06792763 -0.073297136 -0.05543311 0.0654702 -0.06871722 -0.032953817 -0.06321157
-0.06426644 0.08097048 -0.03788392 0.04226452 -0.037518848 -0.045260143 0.030483196 -0.059257377
0.026654037 -0.100675866 0.0019771336 0.042805124 -0.10263053 -0.00837408 0.031607807 -0.021690493
0.07544527 0.048295863 -0.05221107 -0.05949035 0.07692415 -0.024575196 0.047435444 -0.035475846
-0.00039379066 -0.10616093 0.00691951 0.025630606 -0.026074186 -0.09866561 0.028045153 -0.019194113
-0.08250158 0.014912366 -0.037428457 -0.09073375 -0.05864498 0.010877985 0.049655937 -0.006797344

weight f4 [80, 80, 2]
00000000: ef97 debb 87f4 9fbc d47d ea3c 5c08 4a3d
00000010: 1fa9 6cbc 9bc1 bfbb 6187 22ba c485 63bc
00000020: dce2 6d3d 34c1 363d 8cf4 b13c c5a8 8a3c
00000030: 96df 753c 1ba6 043c 5830 a53d 0692 373d
00000040: e3de 513c a87f 88bc 9103 04bb cb0c 21bc
00000050: 6e11 02bd 7257 b03b 6488 913d c9d9 343d
00000060: aa11 97bd 6d1e 1ebd 12cd 923d c21a 123d
00000070: fe9b bdbc 80f3 bbbc 734b b43c 9703 2ebc
00000080: 3e6c 883d b399 5c3d 884a 143d ee93 1b3d
00000090: 87bb 9d3b 3ecf 63bc 6c74 3bbd e09a 1dbd
000000a0: 8af4 2ebd 0fb2 fdbc 5ddd dabc 58e4 82bc
000000b0: b5ae 7fba b9e8 8ebc c298 24bd 449d f5bc
000000c0: a95a f2bc 4a81 6bbc ed74 053a 99d5 f5bb
000000d0: 9fe2 aebb b4d1 a5b9 9b4e 79bd b2ed 9bbc
000000e0: 6425 20bc 926f 413a 055b 853d b55d 593d
000000f0: a3da 6abc 44d6 98bc 3864 163d c35c 603c
00000100: 3148 6d3c 4a48 2fbb 2e13 d23c e8b2 773c
00000110: 8dc3 8e3c 35b3 063d e43a 383c 9de4 f43c
00000120: 1d13 32bd 6be1 43bd 5fee 3e3d 0617 203d
00000130: 0123 b5ba daaa a6bc 74a8 fdba 8602 ed3b
00000140: 89f6 abbc 3e20 0cbc 276a bfbc d9c2 97bc
00000150: 0f75 8f3c 5dca ed3b bb3d 053d 15c0 b73c
00000160: 0fb5 cc3c 9bfd aa3c fda3 983c 3cd3 093c
00000170: d894 30bc ebcb c7bc 3161 283d 95e5 ae3c
00000180: 0ff8 643c f5bf a63b b5b9 8cbb 373b 9cbc
00000190: bd50 e2bc de21 91bc 2ff1 523d 9f40 b23c
000001a0: 299a d4ba ca26 91bc 5dea 7c3d 06e5 473d
000001b0: 6454 17bd 8d0e c9bc 21f3 7ebd 5ec6 57bc
000001c0: 0eb1 3b3d 6ede 043d a6ae 5fbc da83 3abc
000001d0: d129 993c cb5d fa3c 6d29 f1bc 8e73 48bc
000001e0: 8330 b23b d880 60bc 1926 cabb 56d3 0bbc
000001f0: ac6a 6d3d e456 0b3d e48b 8f3c 8c61 203c
00000200: 807f 03bd f9dd 883b 74c4 eebb 5c94 9abc
00000210: 5ce3 f2bc 4600 f2bc 4cd2 6abb 19d2 7ebc
00000220: afd0 7abc 1cec 5cbc b708 49bc 1507 b1bc
00000230: a67a 763d 844b 2f3d f2ef 21bd 4641 01bd
00000240: edcb ad3c 272a 6f3c ef08 2cbc 374f 88bd
00000250: 1d8e b3bc 2ed2 0fbc 9f50 e63c d842 4cbb
00000260: 9cbd 863c 3173 63b7 096d 23bd 3e05 cdbc
00000270: 2e0b fabb be7b 0cbc 3c90 23bd d6c9 5cbd
00000280: 5838 b3bb 4db5 813c c751 533d 1074 4b3d
00000290: efb5 383a 55c8 11ba 4050 30bc 5d9e c2bc
000002a0: aa1b 9a3d e377 203d 87fd e23c 0e78 813c
000002b0: 985a 083d 2ef2 eb3b b078 853d ea19 803d
000002c0: 53b3 d6bb 586c 48bc 7c06 3cbc 4eed a1bc
000002d0: 9133 2bbd a8e4 3fbc 3033 a13d 8d6d 793d
000002e0: bcdb 2ebd 3610 42bd f766 883d 4c7e 313d
000002f0: ccb3 afbb ecd7 9ebc ec0f e33c 6682 623c
00000300: 5c95 933d 4e6b 903d eb4e 2c3d b171 133d
00000310: 7008 87bb 61fc c6ba c461 49bd 6ac4 16bd
00000320: 8092 49bd 56fd b9bc 9637 d53b fe08 3cbb
00000330: b990 4bbc 5cd7 76bc d175 a3bc 50d6 debc
00000340: b9a3 d8bc e4d0 c5bc a479 b5bb 0cf2 43bb
00000350: 7991 383c 3e7c 57bc a3f5 81bd 4125 72bd
00000360: d517 063c a675 33bb b7c3 a93d 6ad4 763d
00000370: c862 4cbc de5f 74bc 2c54 f73c 327b 3fbb
00000380: 09b7 5f3c 0b30 0ebc 9257 0f3d 99fd 4f3c
00000390: 971b f33c f569 a63c 5545 3d3c 3b4b f53b
000003a0: 3732 61bd 3042 39bd fd88 3e3d f120 483d
000003b0: a3a3 91bb 2693 41bd a0a1 243a 15c1 9ebc
000003c0: 0969 92bb e4cf 41ba f71a aabc 9bf7 c4bc
000003d0: fbaf bc3c d510 56bb 7a0c 093d 7779 203d
000003e0: 895d 0f3d ba90 fb3c 46f7 4f3c 96ed 15bc
000003f0: ea5f 84bc f4eb 68bc f11e d93c 8674 d63c
-0.0067930142 -0.01952578 0.028624453 0.04932438 -0.0144446185 -0.005851937 -0.00061999826 -0.013886873
0.058077678 0.044617847 0.021723054 0.016926179 0.01500692 0.008096243 0.080658615 0.044816993
0.012809488 -0.016662434 -0.0020143727 -0.00982971 -0.031754903 0.005381518 0.071060926 0.04415301
-0.07376416 -0.038603235 0.0716802 0.03567005 -0.023145672 -0.022943258 0.022008633 -0.010620973
0.066612706 0.053857516 0.03620389 0.037982874 0.0048136148 -0.013904391 -0.045765325 -0.03847778
-0.04271368 -0.030968694 -0.026716882 -0.015978023 -0.00097535114 -0.017444955 -0.040184744 -0.029982217
-0.029584246 -0.014374087 0.00050909707 -0.0075022695 -0.005337074 -0.00031627493 -0.06086598 -0.01903424
-0.00977454 0.0007378991 0.06511501 0.05306788 -0.014334354 -0.018656857 0.03671667 0.013693991
0.014482544 -0.0026745968 0.025643911 0.015118338 0.01742723 0.03288575 0.011244509 0.029894168
-0.04347526 -0.047822397 0.046614047 0.039084457 -0.0013819636 -0.02034514 -0.0019352571 0.007232967
-0.02099158 -0.008552609 -0.023366047 -0.018525528 0.017511873 0.0072567896 0.032529574 0.022430459
0.02498868 0.020872882 0.018632883 0.008412179 -0.010777675 -0.024389228 0.041108314 0.021349708
0.013975157 0.005088801 -0.004294599 -0.019071205 -0.02762639 -0.017716344 0.05149954 0.02175933
-0.001622026 -0.017718691 0.061746944 0.0488024 -0.036945716 -0.024543071 -0.062243585 -0.013169853
0.04582315 0.032438688 -0.013652479 -0.011383975 0.018696697 0.030562302 -0.029438699 -0.012234582
0.005437912 -0.013702594 -0.0061690924 -0.008534273 0.05796306 0.034018412 0.01752276 0.009788882
-0.032104015 0.004176852 -0.0072866026 -0.018869571 -0.029649429 -0.029541146 -0.0035830913 -0.015553021
-0.015308543 -0.013484027 -0.012270144 -0.021609822 0.06017556 0.042796627 -0.03953547 -0.03155639
0.021215403 0.014597452 -0.010500177 -0.06655734 -0.02191835 -0.008778138 0.028114615 -0.0031167772
0.016447835 -1.3557074e-05 -0.039898906 -0.025026914 -0.0076307273 -0.008574424 -0.039932474 -0.053903423
-0.005469363 0.015833521 0.05159166 0.049671233 0.0007046153 -0.0005561163 -0.010761321 -0.023757154
0.07524808 0.039176833 0.027708782 0.015804317 0.033289522 0.007200501 0.0651716 0.06254943
-0.006552139 -0.012232862 -0.011476155 -0.019766476 -0.041797224 -0.011712231 0.07871091 0.06089549
-0.042690024 -0.04737874 0.06660264 0.043333337 -0.0053620096 -0.019390069 0.027717553 0.013825035
0.072062224 0.07051717 0.04206745 0.035997096 -0.004120879 -0.0015181416 -0.049165502 -0.03680841
-0.04921198 -0.022703808 0.0065068705 -0.0028691883 -0.012424641 -0.015065994 -0.01995364 -0.027201802
-0.026445257 -0.024147458 -0.0055381823 -0.002989891 0.011265152 -0.01315218 -0.063456796 -0.05911756
0.008184393 -0.0027383356 0.08289283 0.060261168 -0.012474723 -0.014915435 0.030191503 -0.0029217717
0.013654479 -0.0086784465 0.034995623 0.01269474 0.029676242 0.020314196 0.011552175 0.007485775
-0.05497953 -0.045229137 0.04651736 0.04885954 -0.004444556 -0.047259472 0.00062801875 -0.019379178
-0.0044680876 -0.0007393344 -0.020764811 -0.024043849 0.023033133 -0.0032663841 0.033459164 0.039178338
0.03500131 0.03070866 0.012693232 -0.009150883 -0.016159017 -0.014216412 0.026504012 0.02617861
