GAN/PM Generator/PM_epochs=500_seq=60_batch=6.pth (torch, 674918 bytes, 31 tensors)

weight f4 [1, 80, 1]
0	0x3c780df4	0.015140045
1	0x3c719cdd	0.014746872
2	0xbc94fb71	-0.018186303
3	0xbbf32997	-0.0074207294
4	0xbbc7075d	-0.006073876
5	0xbbed9d88	-0.007251445
6	0xbc12a139	-0.008949571
7	0x3cbd8581	0.023134949
8	0x3cccfaf1	0.025022002
9	0x3c67d2f1	0.014149413
10	0xbbd66109	-0.006542329
11	0x3c29337a	0.010327214
12	0x3c8b9f6d	0.017043794
13	0xbbece397	-0.0072292793
14	0xbba5d6b0	-0.005060993
15	0xbbe46119	-0.0069695828
16	0xbbe2bffa	-0.006919858
17	0xbb8a9859	-0.004229587
18	0x3cae4a61	0.021275701
19	0xbbdd1bc4	-0.0067476947
20	0x3c3f36dc	0.011670794
21	0xbc5e4021	-0.013565094
22	0x3c48c792	0.0122546125
23	0x3bf9233c	0.007603077
24	0xbc0ed8b7	-0.008718661
25	0x3cdfeedb	0.027335575
26	0x3c70c343	0.0146949915
27	0x3c1db40f	0.009625449
28	0x3c487fa1	0.01223746
29	0xbc3ada3d	-0.011404571
30	0xbb0b78af	-0.002128165
31	0xbb8b29d3	-0.004246929
32	0xba176e9b	-0.00057766744
33	0x3cc56d9d	0.02410012
34	0x3c9969b3	0.01872716
35	0xbc39c746	-0.011339014
36	0x3c3c5fd9	0.011497461
37	0x3ca3850d	0.019960904
38	0xba6ac9c5	-0.00089564576
39	0xbc64a844	-0.013956133
40	0xb7805d63	-1.5302276e-05
41	0xbc963721	-0.018336834
42	0xbbea07e1	-0.0071420525
43	0xb815c0b6	-3.5703844e-05
44	0xb8f29ba8	-0.000115684525
45	0xbb8f1cf4	-0.004367465
46	0xbbaa6120	-0.0051995665
47	0xbd13a6a5	-0.036047596
48	0xbc295e0b	-0.010337363
49	0xbb387b4d	-0.0028149665
50	0x3ccd6d60	0.025076568
51	0x3c7d3ef4	0.015456904
52	0xbbf95add	-0.0076097087
53	0x3c1ddfd7	0.009635887
54	0xbcccb507	-0.024988664
55	0x3c5393bf	0.012913643
56	0xbb3258c8	-0.0027213562
57	0xbb976587	-0.0046202573
58	0xbba9a302	-0.0051769027
59	0xbc39e23b	-0.011345441
60	0xbb261a1a	-0.0025345148
61	0xbb608ab7	-0.0034262368
62	0x3c18b8cc	0.009321403
63	0x3acf0812	0.0015795252
64	0xbcd975e0	-0.026545465
65	0x3c130911	0.00897433
66	0x3c830e04	0.015997894
67	0x3c0f4b47	0.008745975
68	0x3ca6ec2e	0.020376291
69	0x3c147878	0.009061925
70	0xb930b5c7	-0.00016852385
71	0xbc456244	-0.012047354
72	0x3cfe9401	0.031076433
73	0x397eae4b	0.00024288257
74	0xbab673df	-0.001392003
75	0x3ad5c6be	0.001630984
76	0xbbbf1009	-0.005830769
77	0x3b863a62	0.0040963152
78	0x3c42fbfd	0.011900899
79	0xbc35f76c	-0.011106353

weight f4 [80, 3, 1]
0	0xbde21d7f	-0.11040782
1	0xbddff871	-0.10936058
2	0xbddb20f4	-0.10699645
3	0x3de8a1eb	0.113590084
4	0x3df2d19b	0.11856385
5	0x3df14bbe	0.11782025
6	0x3e0f7bb4	0.14012033
7	0x3dd4d78e	0.10392676
8	0x3dd59ef0	0.104307055
9	0xbdb30f98	-0.08743209
10	0xbde08dce	-0.10964547
11	0xbdb89dd9	-0.09014482
12	0x3dc55032	0.09634437
13	0x3dda59fa	0.10661693
14	0x3dc7a6b2	0.097485915
15	0xbda1f63a	-0.07908292
16	0xbd963d31	-0.0733589
17	0xbda791a4	-0.081820756
18	0x3dbd5bd5	0.09246031
19	0x3d9bbd3f	0.07604455
20	0x3dc3470d	0.09535036
21	0x3dffdea4	0.12493637
22	0x3dd85d22	0.10564639
23	0x3dfcd23e	0.12344788
24	0x3de2aabd	0.11067722
25	0x3e0ea197	0.13928829
26	0x3dfc3277	0.12314313
27	0x3dc518f1	0.09623898
28	0x3df4a562	0.11945607
29	0x3df1eabb	0.118123494
30	0xbdf03912	-0.11729635
31	0xbdfa6e3c	-0.12228057
32	0xbdee5bc2	-0.11638595
33	0xbdd0467d	-0.101696946
34	0xbddb5336	-0.107092306
35	0xbdb75acd	-0.08952866
36	0xbdca0218	-0.098636806
37	0xbdf71ba0	-0.12065816
38	0xbdcff099	-0.10153312
39	0xbdc2bd7c	-0.095087975
40	0xbdd7fcae	-0.10546242
41	0xbde3800f	-0.111084096
42	0x3dc59250	0.096470475
43	0x3df9c8bc	0.1219649
44	0x3df1d0af	0.11807381
45	0xbdda0eec	-0.10647377
46	0xbdedfba4	-0.11620262
47	0xbdb369c6	-0.08760409
48	0x3e0381e3	0.12842517
49	0x3e11ae8f	0.14226745
50	0x3ddf7528	0.10911018
51	0xbdb51318	-0.088415325
52	0xbde42cc1	-0.11141349
53	0xbddab51d	-0.10679076
54	0x3dddaad1	0.10823596
55	0x3e05249b	0.13002245
56	0x3dd6514f	0.10464727
57	0x3dc68b64	0.096945554
58	0x3dc95c5a	0.09832068
59	0x3dabccef	0.08388697
60	0x3dc136dc	0.09434292
61	0x3e0bbe2a	0.1364676
62	0x3df637e9	0.12022383
63	0x3df00c87	0.117211394
64	0x3e04d7d5	0.12972958
65	0x3e0b45a6	0.13600788
66	0x3dd5b43d	0.10434768
67	0x3dfd5c6e	0.12371145
68	0x3e03097b	0.12796585
69	0x3dcf6eb2	0.10128535
70	0x3dbfeeae	0.093716964
71	0x3dc74af8	0.09731096
72	0xbd83d224	-0.064365655
73	0xbd2e7183	-0.042588722
74	0xbd8bbdcf	-0.068233125
75	0x3dd0c708	0.10194212
76	0x3de60f80	0.11233425
77	0x3e00f7b6	0.12594494
78	0x3dd07cb8	0.10180038
79	0x3de01cae	0.1094297
80	0x3dd3ceaf	0.10342156
81	0xbdbc3aa8	-0.09190875
82	0xbd915621	-0.07096506
83	0xbdc4d8ff	-0.09611701
84	0x3e03b438	0.12861717
85	0x3e047ebe	0.12938973
86	0x3e1c7f7e	0.1528301
87	0x3dea1880	0.11430454
88	0x3dd61a64	0.10454252
89	0x3dcd3529	0.10019905
90	0x3dc30c50	0.09523833
91	0x3df1a92d	0.11799846
92	0x3e046953	0.12930803
93	0xbde4544e	-0.11148892
94	0xbe0d0626	-0.13771877
95	0xbe12d92d	-0.14340658
96	0xbdb77728	-0.08958274
97	0xbdc3eab6	-0.09566252
98	0xbdb61020	-0.08889794
99	0x3de135db	0.109966
100	0x3e01bbd7	0.12669311
101	0x3e0baf14	0.13641006
102	0x3df8fda4	0.12157753
103	0x3ddf4806	0.10902409
104	0x3db56ef8	0.08859056
105	0x3de363ac	0.11102995
106	0x3ddf8458	0.109139144
107	0x3ddedb69	0.10881693
108	0xbda51304	-0.080602676
109	0xbda65776	-0.081221506
110	0xbd9d88b7	-0.07692092
111	0xbde049c7	-0.10951572
112	0xbdbee8cf	-0.093217485
113	0xbdd21820	-0.10258508
114	0xbdd69296	-0.10477178
115	0xbe04b0bd	-0.12958045
116	0xbdd26e1d	-0.10274909
117	0x3deb54cf	0.11490785
118	0x3dedf749	0.116194315
119	0x3dedeb9b	0.11617204
120	0xbdcc3075	-0.0997018
121	0xbdb0cf35	-0.086332716
122	0xbdb8a519	-0.09015865
123	0xbdca61a5	-0.098819055
124	0xbdc54414	-0.096321255
125	0xbdb58603	-0.08863451
126	0xbddd9ec4	-0.10821298
127	0xbdc1f066	-0.094696805
128	0xbde8052a	-0.1132911
129	0x3dd234ac	0.102639526
130	0x3df05caa	0.11736424
131	0x3dbd8b41	0.09255076
132	0x3db8b29d	0.09018443
133	0x3dd06f8f	0.10177528
134	0x3de19525	0.11014775
135	0x3df1f0ae	0.11813484
136	0x3e1ffe5d	0.15624376
137	0x3dddc3a7	0.10828333
138	0x3df11fe5	0.117736615
139	0x3e101e58	0.14074075
140	0x3df1e930	0.11812055
141	0x3dcdc6ee	0.100477085
142	0x3e05cd84	0.13066679
143	0x3e03f384	0.12885863
144	0x3de04cef	0.10952174
145	0x3dffc124	0.124880105
146	0x3df4c939	0.11952443
147	0xbdc0cf1a	-0.094145015
148	0xbdcee578	-0.101023614
149	0xbdc85fc6	-0.09783892
150	0x3dc5f6d3	0.096662186
151	0x3def99ad	0.11699233
152	0x3ddae53c	0.10688254
153	0x3df52acc	0.119710535
154	0x3e0c1ffe	0.13684079
155	0x3dd2f7e0	0.10301185
156	0x3dda3bb0	0.10655916
157	0x3e017763	0.12643199
158	0x3e04f7ab	0.12985103
159	0xbdd9da7c	-0.10637376
160	0xbddc755b	-0.10764571
161	0xbdd7ccdb	-0.1053712
162	0x3dd00f11	0.10159124
163	0x3dea18bf	0.11430501
164	0x3e03b9cc	0.12863845
165	0xbdb8e365	-0.09027747
166	0xbdebdd03	-0.11516764
167	0xbdb3ee37	-0.0878567
168	0xbdabd0b1	-0.08389414
169	0xbdd23d30	-0.10265577
170	0xbd9e74ad	-0.07737098
171	0xbdce1787	-0.10063081
172	0xbdf8230c	-0.1211606
173	0xbdfb20f6	-0.12262146
174	0xbddb0a1e	-0.10695289
175	0xbdce4aef	-0.10072886
176	0xbdc40f2a	-0.09573205
177	0x3dccd9b9	0.10002465
178	0x3e01fdb1	0.12694432
179	0x3e0279d5	0.12741788
180	0xbdcd0cab	-0.10012182
181	0xbda9c2b0	-0.08289087
182	0xbdc745e4	-0.097301275
183	0xbdaa057b	-0.083018266
184	0xbda8771d	-0.08225844
185	0xbdbe3a62	-0.092884794
186	0xbda41e05	-0.08013538
187	0xbda3e431	-0.080025084
188	0xbda99e65	-0.082821645
189	0xbdcfa498	-0.10138816
190	0xbde57a85	-0.11205009
191	0xbdbeb999	-0.09312744
192	0x3c8e4cad	0.017370546
193	0x3dc08562	0.09400441
194	0x3dbcc51c	0.09217283
195	0xbdbc5bfe	-0.091972336
196	0xbdce300a	-0.100677565
197	0xbdb8f909	-0.09031875
198	0x3db1b955	0.086779274
199	0x3cd01d91	0.025404723
200	0x3dc59eb2	0.09649409
201	0x3de209c2	0.110370174
202	0x3dec456d	0.115366794
203	0x3ddb58eb	0.10710319
204	0xbde52f54	-0.11190668
205	0xbdd7279f	-0.10505604
206	0xbdf79895	-0.120896496
207	0xbddc54e9	-0.10758383
208	0xbe11b4e1	-0.14229156
209	0xbde5540e	-0.11197673
210	0x3dd62485	0.10456184
211	0x3df3d8a4	0.11906555
212	0x3ddc900f	0.107696645
213	0xbd9d305d	-0.0767524
214	0xbd89c008	-0.0672608
215	0xbdaaca5f	-0.083393805
216	0xbe00e9a1	-0.12589122
217	0xbdf3e7b6	-0.1190943
218	0xbe00a620	-0.12563372
219	0x3dcdca1f	0.10048317
220	0x3dffc97a	0.124896005
221	0x3dfbf5bf	0.12302732
222	0xbdc8845c	-0.097908705
223	0xbdda16b2	-0.1064886
224	0xbdebca6e	-0.1151322
225	0xbe215828	-0.15756285
226	0xbe2d69f0	-0.16934943
227	0xbe16d332	-0.14729002
228	0x3de3ad62	0.111170545
229	0x3df80645	0.12110571
230	0x3de8a5f0	0.11359775
231	0x3e0c2986	0.13687715
232	0x3de78d4e	0.113062486
233	0x3db0b894	0.086289555
234	0xbdc34afa	-0.09535785
235	0xbdcc7f3b	-0.09985205
236	0xbde49cac	-0.11162695
237	0xbde0f848	-0.10984856
238	0xbded3b42	-0.11583568
239	0xbde85b58	-0.113455474

bias f4 [80]
0	0xbef0a10f	-0.46997878
1	0x3eeb1b7a	0.459194
2	0x3eede6f6	0.46465272
3	0xbee68b52	-0.45028168
4	0x3e999754	0.29998267
5	0xbcfc8214	-0.030823745
6	0x3eaf0a3f	0.34187505
7	0x3e338fcb	0.17535321
8	0x3dcac98f	0.099017255
9	0x3d5615ff	0.05226707
10	0xbecfdb82	-0.4059716
11	0xbe9230ae	-0.28552765
12	0xbec8bb41	-0.39205363
13	0xbea925c5	-0.33036628
14	0x3d59ab50	0.053141892
15	0xbedb68a8	-0.42853284
16	0x3e2bb3f0	0.1676786
17	0xbedfc222	-0.437028
18	0x3eeac29e	0.45851606
19	0x3eb3aeaa	0.35094196
20	0x3dd8070a	0.105482176
21	0x3ed1dba7	0.40987894
22	0x3d1768cb	0.036965173
23	0x3ea65f57	0.32494614
24	0xbb83bc5b	-0.0040202565
25	0x3f101903	0.56288165
26	0x3eb64fe2	0.3560782
27	0xbd9836c4	-0.07432321
28	0x3f0a168e	0.53940666
29	0x3eb4e2f3	0.353294
30	0x3e99fb5a	0.3007458
31	0xbf060104	-0.523453
32	0xbe2917ba	-0.16512957
33	0x3dfb16cd	0.12260208
34	0x3ea1ab35	0.31575933
35	0x3ee363a6	0.44411963
36	0xbd0839ea	-0.033258356
37	0xbe8ac94d	-0.27106705
38	0xbef27c25	-0.4736034
39	0x3e8682f5	0.26271787
40	0xbe3dc7c1	-0.18533231
41	0xbe6426de	-0.22280452
42	0xbedb167d	-0.42790595
43	0x3ec10877	0.3770177
44	0x3ef31fc7	0.47485182
45	0x3e221d15	0.15831406
46	0x3dca8e4e	0.09890424
47	0x3d7ab9d1	0.061212365
48	0x3e716c47	0.23576461
49	0xbf0a33a9	-0.5398508
50	0x3e390366	0.18067703
51	0x3e509548	0.20369446
52	0x3dd6f988	0.10496813
53	0xbea8ed35	-0.32993475
54	0x3ef438fd	0.4769973
55	0xbf0fd3c2	-0.5618249
56	0xbeca6bcd	-0.3953537
57	0xbebcbee4	-0.36864388
58	0xbe00b516	-0.12569079
59	0x3d85ceea	0.06533606
60	0xbdaf05db	-0.08546039
61	0xbd4f07c9	-0.050544534
62	0xbd2d4998	-0.042306513
63	0xbea00c98	-0.31259608
64	0x3c638d72	0.013888704
65	0xbe8ecc5f	-0.27890298
66	0x3d21c2a7	0.039492276
67	0x3f0fb173	0.5613014
68	0xbed93295	-0.42421404
69	0xbeeeffe9	-0.4667962
70	0x3e5db8f2	0.21652582
71	0xbdb2f369	-0.08737833
72	0xbf05b8ef	-0.5223531
73	0x3d58c0e0	0.052918315
74	0xbf0f2d51	-0.5592852
75	0xbf0d8476	-0.55280244
76	0x3ea2071f	0.31646058
77	0x3e3f5002	0.18682864
78	0xbec5b2e4	-0.38613045
79	0xbf054a66	-0.5206665

weight f4 [80, 80, 1]
0	0x3cea87f2	0.028629277
1	0xbc978c38	-0.018499479
2	0xbc56bf84	-0.013107184
3	0x3c64c5c9	0.013963171
4	0xbd16aac0	-0.036783934
5	0x3c6d101a	0.014469171
6	0xbcb18bd2	-0.021673117
7	0xbcb7ab0c	-0.022420429
8	0xbd308c7d	-0.04310273
9	0xbd14044b	-0.036136907
10	0x3c84c703	0.016208177
11	0x3d0a418c	0.033753917
12	0x3ccfa822	0.025348727
13	0x3d16548a	0.036701716
14	0xbd386b03	-0.04502393
15	0x3bc122b3	0.005894029
16	0xbcc86562	-0.024462406
17	0x3c83428b	0.016022941
18	0xbcecdafd	-0.028913015
19	0xbc225183	-0.009907129
20	0xbc4f4dd0	-0.012652829
21	0xbcf902ef	-0.030396907
22	0xbdad6236	-0.08465998
23	0xbcd073b0	-0.02544579
24	0x3cbbfcb4	0.022947647
25	0xbbfdde3a	-0.0077474387
26	0xbcf5feb0	-0.030028671
27	0x3d66f20c	0.056383178
28	0xbceab76d	-0.028651917
29	0xbce433ee	-0.027856793
30	0xbd018437	-0.03162023
31	0x3c314dd9	0.010821783
32	0x3d36ec18	0.04465875
33	0xbc3d3ff6	-0.011550894
34	0xbc82e0ba	-0.015976299
35	0xbc88b4d8	-0.016687796
36	0x3d7ea11e	0.062165372
37	0x3cff3838	0.031154737
38	0x3cec29de	0.028828558
39	0xbce38c9d	-0.02777701
40	0x3d7efec5	0.062254686
41	0x3d22c03d	0.039734114
42	0x3c8cd452	0.017191086
43	0xbc985b29	-0.018598156
44	0xbc444f04	-0.011981729
45	0xbd078f65	-0.033095736
46	0xbd264ff5	-0.040603597
47	0xbd665d30	-0.056241214
48	0xbd271ec2	-0.040800817
49	0x3a96ef87	0.0011515477
50	0xbcc73fee	-0.024322476
51	0xbd0bf476	-0.034168683
52	0xbd1bac92	-0.038006373
53	0x3cd3b238	0.025841817
54	0xbc636da2	-0.013881119
55	0x3cb8abf3	0.02254293
56	0x3c817ca1	0.015806498
57	0x3ccc4558	0.02493541
58	0x3d542393	0.05179174
59	0xbcee70a4	-0.029106446
60	0x3d368e4a	0.04456929
61	0x3d583d2b	0.05279271
62	0x3d5b1a74	0.053492025
63	0x3c9c1dc7	0.019057168
64	0xbd727057	-0.059189167
65	0x3c9c523a	0.019082177
66	0xbd660ab9	-0.05616257
67	0xbcde92f3	-0.02716968
68	0x3c4dcc09	0.012560853
69	0x3c930c45	0.017950187
70	0xbca08b91	-0.0195978
71	0x3d49acff	0.049237248
72	0x3c8beee6	0.01708169
73	0xbd5440c0	-0.051819563
74	0x3cd9db3f	0.026593802
75	0x3bdbda54	0.0067093764
76	0xbc87ded8	-0.016585752
77	0xbcb4ee73	-0.022086358
78	0x3c423403	0.011853221
79	0x3c1e949b	0.009678985
80	0xbb286c59	-0.0025699346
81	0xbc8d5426	-0.01725204
82	0xbb8fbe31	-0.0043866863
83	0x3c04ca19	0.008104824
84	0xbc53c843	-0.012926164
85	0x3d56e0da	0.05246053
86	0xbd152222	-0.036409505
87	0xbd185938	-0.03719446
88	0xbd3fa333	-0.0467865
89	0xbdc23465	-0.0948265
90	0x39d737df	0.00041049623
91	0x3cdd2f93	0.027000224
92	0x3cd3bd76	0.025847178
93	0x3c4f8bb9	0.01266759
94	0xbdb6dfbb	-0.08929392
95	0x3c2da017	0.01059725
96	0xbcc4dec1	-0.024031999
97	0x3ca60c61	0.020269575
98	0x3baccd11	0.0052734693
99	0x3a4bcc8f	0.0007774317
100	0xbd01c7ce	-0.03168469
101	0xbc88fefe	-0.016723152
102	0xbdd95811	-0.106125005
103	0xbc3821eb	-0.011238555
104	0x3d1e42a7	0.038637783
105	0xbbd05b95	-0.0063585737
106	0xbcac71d1	-0.021050366
107	0x3d80ed41	0.062952526
108	0xbc52782a	-0.012846032
109	0xbc8c6b96	-0.017141145
110	0xbcdb14c3	-0.026743298
111	0x3aa8bea2	0.0012874196
112	0x3d4ee4a5	0.05051102
113	0xbcf630d0	-0.030052572
114	0xbccc97fc	-0.024974816
115	0xbbfa75a0	-0.0076434165
116	0x3d8ac727	0.067762665
117	0x3d07e23c	0.03317474
118	0x3cac2ef0	0.021018475
119	0xbcf39e93	-0.0297387
120	0x3d592ff9	0.053024266
121	0x3d89748e	0.06711684
122	0x3c2dc9a4	0.010607157
123	0xbbb4a699	-0.005513024
124	0xbcff4a65	-0.031163404
125	0xbd55ef7d	-0.052230347
126	0xbd525402	-0.051349647
127	0xbdbb24ec	-0.09137902
128	0xbc9690a5	-0.018379519
129	0xbbb22727	-0.005436796
130	0xbcdd29ed	-0.02699753
131	0xbcb650bd	-0.022255296
132	0xbd50d6a5	-0.05098595
133	0x3d25853a	0.040410258
134	0xbbe198cf	-0.0068846713
135	0x3b83bfdb	0.0040206737
136	0x3bd19194	0.006395528
137	0x3bca8b58	0.006181162
138	0x3d6787cc	0.05652599
139	0xbda1ab19	-0.078939624
140	0x3d40585a	0.04695926
141	0x3d62c23e	0.055361025
142	0x3d73b241	0.059496168
143	0x3cb8764d	0.022517348
144	0xbda33749	-0.07969529
145	0x3ce1d11d	0.027565533
146	0xbd61fb23	-0.055171143
147	0xbbdf8f5e	-0.0068225106
148	0x3bdc95a4	0.0067317057
149	0x3c1c5f44	0.0095441975
150	0xbc8b8bdd	-0.017034465
151	0x3d41a24f	0.04727393
152	0x3c317ae7	0.010832525
153	0xbdc0b2b3	-0.09409084
154	0x3c928b80	0.017888784
155	0xba9fd418	-0.0012193946
156	0xbc571055	-0.013126452
157	0xbd204880	-0.03913164
158	0x3c024597	0.007951162
159	0x3c34513d	0.011005697
160	0xbb13afee	-0.0022535282
161	0x3c546410	0.01296331
162	0x3a4f95d7	0.0007918751
163	0x3a5a8cc6	0.0008337017
164	0xbca442a4	-0.020051308
165	0xbd9238da	-0.0713975
166	0xbccb8995	-0.024845878
167	0x3cc41e41	0.023940207
168	0x3ca99403	0.02070046
169	0x3ca0bc70	0.019621104
170	0xbbb6bfe6	-0.0055770753
171	0x3c269b18	0.010168813
172	0xbc568075	-0.01309215
173	0xba0a1835	-0.00052678894
174	0xba14271d	-0.000565158
175	0x3c20c948	0.009813614
176	0xb9f32cf4	-0.00046382064
177	0x3b95e818	0.004574787
178	0xbc7bdf2d	-0.0153730335
179	0xbb9c74c2	-0.004774661
180	0x3c270c01	0.010195733
181	0x3bb3eb6e	0.005490712
182	0x3c0ee137	0.008720688
183	0xbba503f8	-0.0050358735
184	0xbdcd2118	-0.10016078
185	0xbb728a45	-0.0037008685
186	0xba96721a	-0.0011478097
187	0xbd1a082c	-0.03760545
188	0xbc1d2247	-0.009590692
189	0xbb3e9e65	-0.002908611
190	0x3bde993d	0.00679317
191	0x3ca3695c	0.0199477
192	0xbc966789	-0.018359916
193	0xbc1f8eed	-0.009738666
194	0xbc9c58c4	-0.019085295
195	0xbc8b21e8	-0.016983941
196	0xbd74620e	-0.059663825
197	0x3afb735c	0.001918416
198	0x3cb724b3	0.022356367
199	0x3c2c107c	0.010501977
200	0x3b174df4	0.0023087235
201	0x3b6a26e9	0.0035728759
202	0xbb59be95	-0.0033225168
203	0xbc53a24b	-0.012917112
204	0x3c1e18ac	0.009649437
205	0xbb8b6ed3	-0.0042551546
206	0x3c49dd1d	0.012320784
207	0x3c2faac7	0.010721869
208	0xbb97d192	-0.004633137
209	0x3ae73121	0.0017638543
210	0xbbe958a5	-0.007121163
211	0x3cc45fc2	0.023971442
212	0x3b980b02	0.004639984
213	0x3b13d613	0.0022558018
214	0x3b64b4c0	0.0034897774
215	0x3c10c50b	0.008836041
216	0x3b871459	0.0041222987
217	0xbb837bce	-0.0040125614
218	0xbcf30b71	-0.029668542
219	0x3ccb901f	0.024848996
220	0xbce2bf5f	-0.027679143
221	0xbcec9d15	-0.028883496
222	0xbd3ac439	-0.04559729
223	0xba697ffa	-0.00089073146
224	0x3c650a41	0.0139794955
225	0x3ca4d46b	0.02012082
226	0x3ca7b169	0.020470338
227	0xbc0f0e30	-0.00873141
228	0x3bf36f77	0.007429059
229	0xbca53a5f	-0.020169435
230	0xb994cfa6	-0.0002838347
231	0xbcb9a45b	-0.022661379
232	0x3ccde89b	0.025135329
233	0x3c090810	0.008363739
234	0x3b317a5a	0.0027080984
235	0x3c37f159	0.011226975
236	0xbb11debb	-0.0022258002
237	0x39c50e76	0.00037585542
238	0xbbf3a5c4	-0.0074355323
239	0xbc2d4f54	-0.010577995
240	0xbb1a08b6	-0.0023503727
241	0xbc0c3489	-0.008557447
242	0xbca6087c	-0.020267718
243	0x3b8d4ba6	0.0043119965
244	0xbc4f91eb	-0.012669067
245	0xbda29c8d	-0.07940016
246	0xbc1e5937	-0.009664825
247	0xbc1b78bf	-0.009489237
248	0xbba80c3a	-0.0051284106
249	0xbab3c1b4	-0.0013714344
250	0x3c23106e	0.009952648
251	0xbcaef9db	-0.021359375
252	0xbc45442a	-0.012040177
253	0xbb9f264c	-0.0048568603
254	0x3cc558d8	0.024090216
255	0x3c80088b	0.015629074

bias f4 [80]
0	0xbde72f1c	-0.11288282
1	0x3d811365	0.06302527
2	0xbde9cab1	-0.114156134
3	0x3cdcd0fa	0.026955117
4	0xbdde0750	-0.108412385
5	0x3cb9b54f	0.022669462
6	0xbde4383d	-0.11143539
7	0xbc4e20e5	-0.012581085
8	0xbdbf1bfb	-0.09331509
9	0x3d819f24	0.06329182
10	0x3d8209f7	0.06349557
11	0xbdddf831	-0.108383544
12	0xbd211bb4	-0.03933306
13	0x3cbb5a99	0.022870349
14	0x3d37875d	0.044806827
15	0xbd879053	-0.066193245
16	0x3c237d63	0.009978625
17	0x3d4c5e77	0.049894776
18	0xbc85d15b	-0.01633518
19	0xbdcc2c22	-0.09969355
20	0xbdced64c	-0.10099468
21	0x3c9b7253	0.018975412
22	0xbdd1dd25	-0.10247258
23	0xbdb5b24d	-0.08871899
24	0x3d687e09	0.05676082
25	0x3c06480f	0.008195891
26	0xbd38ec9d	-0.045147527
27	0xbd308708	-0.043097526
28	0x3ccc8acf	0.024968533
29	0xbd23b44b	-0.039966863
30	0xbc7dbcdc	-0.015486922
31	0x3cac9da9	0.021071272
32	0xbe1294c8	-0.14314568
33	0xbb1ee646	-0.002424614
34	0xbda7e710	-0.081983685
35	0x3da77419	0.08176441
36	0x3d352b57	0.044230785
37	0xbc5c92ae	-0.013462706
38	0x3c680b17	0.0141628
39	0x3d319a50	0.043360054
40	0x3c9e69fb	0.019337645
41	0x3d478c10	0.04871756
42	0xbda4b0f8	-0.080415666
43	0x3d68e50c	0.05685906
44	0xbd3aed6a	-0.045636572
45	0x3da99b5f	0.08281588
46	0x3de191fa	0.11014171
47	0x3d3d499d	0.04621278
48	0x3bfe259b	0.0077559478
49	0xbdb0b0ae	-0.08627449
50	0xbddceb89	-0.10787112
51	0xbc8d174f	-0.017223028
52	0x3d6e734d	0.05821543
53	0x3d93749f	0.07199978
54	0xbc288886	-0.010286456
55	0x3d768632	0.060186572
56	0x3dc98f7c	0.098418206
57	0xbd4824de	-0.048863284
58	0xbda61164	-0.08108786
59	0xbba94d2a	-0.0051666694
60	0x3b6c8b65	0.0036093828
61	0x3d34eaae	0.04416912
62	0x3dca5a74	0.09880534
63	0x3d609c5d	0.05483662
64	0xbdbb0e00	-0.0913353
65	0xbdb784df	-0.0896089
66	0xbdda3fb2	-0.1065668
67	0x3d119274	0.03554006
68	0xbdee92b9	-0.11649079
69	0xbd826749	-0.06367356
70	0xbd7a1e88	-0.061064273
71	0xbd625a03	-0.055261623
72	0xbd90dff7	-0.07073968
73	0xbe0e763d	-0.13912292
74	0x3ddce5e5	0.107860364
75	0x3dde4f3e	0.10854958
76	0x3d63379c	0.055472955
77	0xbdaf3d6f	-0.085566394
78	0xbd86f046	-0.06588797
79	0x3b55f34f	0.0032646244

weight f4 [80, 3, 1]
0	0xbdb0142f	-0.085976
1	0xbd83715b	-0.06418105
2	0xbd81a830	-0.06330907
3	0xbdbe9063	-0.09304883
4	0xbdb7fe43	-0.089840434
5	0xbdd21c2a	-0.10259278
6	0x3dda19f0	0.106494784
7	0x3de4c924	0.11171177
8	0x3dec3a61	0.115345724
9	0x3ddaec8c	0.10689649
10	0x3db869ec	0.09004578
11	0x3de278ec	0.1105822
12	0x3dde4fb5	0.10855047
13	0x3de69834	0.11259499
14	0x3df65985	0.12028793
15	0x3db30e71	0.08742989
16	0x3d8c33ce	0.068458185
17	0x3dc93d5a	0.09826155
18	0x3e0f278f	0.13979934
19	0x3e05e7d6	0.1307672
20	0x3e003a5a	0.1252226
21	0xbdcd8789	-0.10035617
22	0xbdb262cc	-0.0871025
23	0xbdbd8394	-0.09253612
24	0xbdb3882e	-0.087662086
25	0xbdc1e30c	-0.09467134
26	0xbde02c83	-0.1094599
27	0xbde96d16	-0.113977596
28	0xbe05b251	-0.13056304
29	0xbe0f93ea	-0.14021268
30	0x3dfbf6f4	0.12302962
31	0x3db100cd	0.08642731
32	0x3e00a406	0.1256257
33	0x3c77ac8f	0.015116825
34	0x3d1db3ba	0.03850148
35	0x3d2e16b1	0.04250211
36	0xbdbf5b42	-0.09343578
37	0xbdbd5c2a	-0.092460945
38	0xbdbd0cf4	-0.09230986
39	0x3dc59ccb	0.096490465
40	0x3dd6ea0c	0.1049386
41	0x3e09ad07	0.13444911
42	0x3dc5f6b4	0.096661955
43	0x3dde623b	0.1085858
44	0x3ddb9cdb	0.10723277
45	0x3df029f9	0.11726756
46	0x3dc40f06	0.09573178
47	0x3dd73744	0.10508588
48	0x3dbbe72a	0.091749504
49	0x3d941ea6	0.07232408
50	0x3dbaa459	0.09113378
51	0x3e0a2be5	0.13493307
52	0x3e178877	0.14798151
53	0x3e092612	0.13393429
54	0xbdd41422	-0.103554025
55	0xbdb265d0	-0.087108254
56	0xbdcd15e4	-0.10013941
57	0x3dd73a0c	0.105091184
58	0x3dce71ab	0.10080274
59	0x3da52ebd	0.08065555
60	0xbd9b8a0b	-0.07594689
61	0xbd98187c	-0.07426545
62	0xbd950e07	-0.07278066
63	0x3dcdc3ed	0.100471355
64	0x3de9f40e	0.11423503
65	0x3e074004	0.13208014
66	0xbcf947c7	-0.030429734
67	0xbd26afae	-0.040694885
68	0xbce59a91	-0.028027805
69	0xbcc073af	-0.023492662
70	0xbd3472f8	-0.044054955
71	0xbd05e50a	-0.03268913
72	0x3db64d61	0.089014776
73	0x3dc81063	0.097687505
74	0x3dbc1903	0.09184458
75	0xbd9655e9	-0.07340605
76	0xbdb1ca9f	-0.08681225
77	0xbdccf3cc	-0.10007438
78	0xbd3c65af	-0.04599541
79	0xbce877f5	-0.028377512
80	0xbd72b2b7	-0.059252467
81	0xbd86f83f	-0.06590318
82	0xbd7fba37	-0.062433448
83	0xbd9b1f2e	-0.075743064
84	0xbdad771f	-0.08469986
85	0xbdaf5c82	-0.08562566
86	0xbdc23e7b	-0.094845735
87	0x3df823fd	0.12116239
88	0x3df33d24	0.11876896
89	0x3ddbfb5e	0.10741304
90	0x3de47fa0	0.11157155
91	0x3dda1471	0.1064843
92	0x3dcf8cf4	0.101343066
93	0x3da1536c	0.078772396
94	0x3dd8e1b3	0.10589924
95	0x3dc708ef	0.09718501
96	0x3dd11f34	0.1021103
97	0x3dda1534	0.106485754
98	0x3e039ce2	0.12852815
99	0xbdbb0999	-0.0913269
100	0xbddc665a	-0.107617095
101	0xbdd6aa43	-0.104816936
102	0xbdcf86f3	-0.101331614
103	0xbde083c2	-0.10962631
104	0xbddd9928	-0.10820228
105	0x3dcfbb3f	0.10143136
106	0x3df317fa	0.118698075
107	0x3dfe954e	0.12430821
108	0xbcc0ea78	-0.023549303
109	0xbc998c7b	-0.018743744
110	0xbcc19c71	-0.023634167
111	0xbdc8d8e2	-0.09806992
112	0xbdc83e99	-0.097775646
113	0xbdb13188	-0.086520255
114	0x3db1fa96	0.086903736
115	0x3d97ad2c	0.07406077
116	0x3dbee305	0.09320644
117	0x3d038de8	0.032117754
118	0x3d3f9e99	0.04678211
119	0x3ce1f032	0.027580354
120	0x3dc2858e	0.0949813
121	0x3dc68d94	0.09694973
122	0x3ddf80d6	0.109132454
123	0x3e0834ea	0.13301435
124	0x3df28cae	0.11843239
125	0x3e121da9	0.14269127
126	0x3dc86e2e	0.0978664
127	0x3dba08ce	0.090837106
128	0x3dcc10a7	0.09964114
129	0x3dffb5fa	0.12485881
130	0x3dd63a42	0.104603305
131	0x3df054a8	0.11734897
132	0x3d316983	0.043313514
133	0x3d4fd4ff	0.05074024
134	0x3d4a4124	0.04937853
135	0x3b61877a	0.0034413026
136	0xbbb2d76c	-0.005457809
137	0x3cae2309	0.02125694
138	0x3db5ef2b	0.08883508
139	0x3d9dcbcf	0.07704889
140	0x3da4faab	0.080556236
141	0x3dcece83	0.10097983
142	0x3de784de	0.11304639
143	0x3e001003	0.12506108
144	0x3dfe1f66	0.124083325
145	0x3e007240	0.12543583
146	0x3de55ff2	0.11199941
147	0x3da9124a	0.082554415
148	0x3d86a9a8	0.06575328
149	0x3db299a8	0.08720714
150	0xbda47027	-0.08029204
151	0xbd8f6bad	-0.070029594
152	0xbdaf726b	-0.08566745
153	0xbd973108	-0.07382399
154	0xbdbea68c	-0.0930911
155	0xbde99da7	-0.11407023
156	0x3da66cb8	0.08126205
157	0x3da094da	0.07840891
158	0x3dc19a9d	0.09453318
159	0xbd53a08b	-0.051666778
160	0xbda06733	-0.07832184
161	0xbdaba757	-0.08381527
162	0x3e00df70	0.12585235
163	0x3df33abf	0.11876439
164	0x3e0bd79f	0.13656472
165	0xbdf37c6a	-0.118889645
166	0xbde9447e	-0.11390017
167	0xbdf56c60	-0.119835615
168	0x3d85ace1	0.06527115
169	0x3d8a4219	0.067508884
170	0x3d869012	0.06570448
171	0x3dd6f2fe	0.10495566
172	0x3dfeb981	0.12437726
173	0x3df52390	0.11969674
174	0x3de9e70e	0.11421023
175	0x3dddd3d0	0.10831416
176	0x3e02676b	0.12734763
177	0x3debae56	0.11507861
178	0x3dde338d	0.10849676
179	0x3df00541	0.11719752
180	0x3e006c26	0.12541255
181	0x3df60e7d	0.12014482
182	0x3e0b130b	0.13581483
183	0x3dda0719	0.10645885
184	0x3dc0ccc4	0.09414056
185	0x3de0f935	0.109850325
186	0xbdc62cce	-0.096765146
187	0xbdbf30dd	-0.09335492
188	0xbdf63888	-0.12022501
189	0x3d306637	0.04306623
190	0x3d3b9192	0.045793124
191	0x3cf063b0	0.02934441
192	0x3df06925	0.11738805
193	0x3dc1ca61	0.09462429
194	0x3dcbaeea	0.099454716
195	0x3dc40c76	0.09572689
196	0x3dce3a09	0.10069663
197	0x3dc7df4e	0.09759389
198	0xbdb91f23	-0.09039142
199	0xbdd5797b	-0.10423561
200	0xbdeaa961	-0.11458088
201	0xbd9ab5a0	-0.075541735
202	0xbdc979f4	-0.09837714
203	0xbdc6b977	-0.09703343
204	0xbda3c9b0	-0.07997453
205	0xbdc2a176	-0.095034525
206	0xbdcf1f1a	-0.10113354
207	0xbdb9e31d	-0.090765215
208	0xbdaf178b	-0.08549412
209	0xbda779fd	-0.08177564
210	0x3e0b1a86	0.13584337
211	0x3e0b0d19	0.13579215
212	0x3e09c1c9	0.1345283
213	0xbcdfee22	-0.02733523
214	0xbc955738	-0.018230066
215	0xbd048697	-0.032354917
216	0xbdd97f19	-0.10619945
217	0xbdd00925	-0.10157994
218	0xbe04f497	-0.12983929
219	0x3e02de35	0.12780078
220	0x3e05fb66	0.13084182
221	0x3df4e124	0.11957005
222	0x3dbb7351	0.09152854
223	0x3dd24b4f	0.1026827
224	0x3da89925	0.08232335
225	0xbdf14719	-0.11781139
226	0xbe08a6ac	-0.1334483
227	0xbdf2e342	-0.11859752
228	0x3c73a463	0.014870736
229	0x3d820234	0.063480765
230	0x3d3cb579	0.046071503
231	0x3e081245	0.1328822
232	0x3dfee2b4	0.12445584
233	0x3e02f4c8	0.12788689
234	0xbd63abd3	-0.055583786
235	0xbd4a66fa	-0.049414612
236	0xbd833e4f	-0.06408369
237	0x3d2c018b	0.04199366
238	0x3ca23914	0.019802608
239	0x3cda9c0b	0.026685735

bias f4 [80]
0	0x3e19d419	0.15022315
1	0x3db6fd3a	0.08935018
2	0x3ee45612	0.44596916
3	0x3e48e1d1	0.19617392
4	0x3eb252ac	0.348287
5	0xbe24b8f2	-0.16086176
6	0x3f08fc82	0.53510296
7	0xbecc607e	-0.39917368
8	0xbe62b46a	-0.22139135
9	0xbd390ac9	-0.0451763
10	0x3e2b377f	0.16720389
11	0x3e9375fd	0.28800955
12	0xbd2ab76c	-0.04167883
13	0x3ea3a64d	0.31962815
14	0x3e1a1ad5	0.15049298
15	0x3e8dde67	0.27708742
16	0x3c10fa11	0.008848683
17	0x3ef5bc5b	0.47995266
18	0xbed5bd98	-0.4174621
19	0x3e27172e	0.16317436
20	0xbe890488	-0.2676127
21	0xbdf21d75	-0.11822025
22	0x3e00f8d7	0.12594925
23	0x3e0622f3	0.1309927
24	0x3de6990b	0.112596594
25	0xbe877e5a	-0.26463586
26	0x3dc396c8	0.095502436
27	0xbe24e009	-0.16101088
28	0xbe9cd2e2	-0.3062964
29	0x3ef28fb7	0.4737527
30	0xbd0d7765	-0.03453769
31	0x3e9a8c44	0.3018514
32	0x3e92c35a	0.28664666
33	0xbecb0937	-0.39655468
34	0x3dba8814	0.09107986
35	0x3ebb04fc	0.3652724
36	0x3e1ee334	0.15516359
37	0xbe33e437	-0.17567526
38	0x3d24f1a8	0.040269524
39	0xbecb06d3	-0.39653644
40	0x3d9b814d	0.075930215
41	0x3effb92e	0.49945968
42	0x3e8eed11	0.27915242
43	0x3eddee2d	0.43345776
44	0xbeb5bbf4	-0.3549496
45	0xbf016586	-0.5054554
46	0xbe15d1f0	-0.14630866
47	0x3ee1f6c5	0.44133583
48	0x3efb5437	0.49087688
49	0xbeb375ba	-0.35050756
50	0xbec3b767	-0.38225862
51	0xbea3322d	-0.3187422
52	0x3d71943a	0.05897925
53	0x3cd9cb27	0.026586128
54	0x3ee1d459	0.4410732
55	0x3d2b16a2	0.04176963
56	0xbee0f9df	-0.43940637
57	0x3eaf242f	0.34207293
58	0xbdcbf195	-0.099581875
59	0x3ecb5711	0.39714864
60	0xbe7bd45f	-0.24592732
61	0xbe7c72de	-0.24653193
62	0x3c130448	0.008973189
63	0xbefc2474	-0.49246562
64	0x3e8136d3	0.2523714
65	0x3e76d15f	0.24103306
66	0x3d2c3c3c	0.04204963
67	0xbeb26caa	-0.3484853
68	0xbdad1a59	-0.08452291
69	0xbe861455	-0.26187387
70	0x3eb55da8	0.35423017
71	0xbea1e9f5	-0.31623808
72	0xbf11671c	-0.5679796
73	0x3eea4672	0.4575687
74	0xbeb3e8df	-0.35138604
75	0xbf07d15f	-0.5305385
76	0xbefb9a20	-0.49141026
77	0x3ea4981b	0.32147297
78	0x3e274ce7	0.1633793
79	0xbea5e28e	-0.3239941

weight f4 [80, 80, 2]
0	0xbcff7957	-0.031185789
1	0xbb04521e	-0.0020190547
2	0xbd054c51	-0.032543484
3	0xbce46621	-0.02788073
4	0xb88bf7e4	-6.67421e-05
5	0x3cae2945	0.021259913
6	0x3cc7ec0a	0.024404544
7	0x3cb5a43f	0.022173045
8	0x3bfab879	0.0076513854
9	0x3b660290	0.0035096742
10	0x3c447e98	0.011993073
11	0x3c5325b8	0.012887411
12	0x3c370b4b	0.011172126
13	0x3aa0926d	0.001225067
14	0xbca11a28	-0.019665793
15	0x3bee231c	0.007267369
16	0xbc64740a	-0.0139436815
17	0xbcaadc79	-0.020857083
18	0xbe1b006f	-0.15136884
19	0xbdbbd30c	-0.09171113
20	0x3c4cf69e	0.01250997
21	0xbbbc3f89	-0.0057448787
22	0xbb6d22e9	-0.0036184138
23	0x3cba1c82	0.022718672
24	0xbd59963a	-0.053121783
25	0xbced450b	-0.028963586
26	0x3cd041df	0.025422035
27	0xbba9c822	-0.0051813284
28	0x3cc0fca4	0.023557968
29	0x3c2adc4f	0.010428502
30	0x3c79108d	0.0152017
31	0xbc1705d8	-0.009217702
32	0x3c83daac	0.016095482
33	0x3bd28f8b	0.006425803
34	0xba480433	-0.000763002
35	0x3ba58776	0.0050515486
36	0xbcd178a7	-0.025570227
37	0xbbda07a8	-0.0066537447
38	0x3c9b8cc1	0.018988015
39	0x3c80bdf2	0.015715573
40	0x3c20018d	0.009765995
41	0x3bd1cc78	0.0064025484
42	0x3df25ce2	0.11834122
43	0x3d4ed5a6	0.05049672
44	0xbca4cfad	-0.020118559
45	0xbcb7cec9	-0.02243747
46	0xbc045556	-0.008076986
47	0xbc2fb152	-0.010723429
48	0x3c9aafbd	0.018882627
49	0x3c3d105e	0.011539547
50	0xbd06692d	-0.032815147
51	0xbca4460e	-0.020052936
52	0xbcde210d	-0.02711537
53	0xbcd7bed9	-0.02633612
54	0xbc19dc41	-0.0093908915
55	0x397d8689	0.00024178078
56	0xbb0f40db	-0.0021858725
57	0xbbc1324d	-0.005895889
58	0x3aeae986	0.0017922379
59	0xbc1fd895	-0.009756227
60	0x3d9861df	0.074405424
61	0x3bdb6aa7	0.0066960636
62	0x3c800dac	0.01563152
63	0x3c1edc34	0.009696055
64	0x3beac11c	0.0071641337
65	0x3b996799	0.0046815393
66	0x3c2e0e6e	0.0106235575
67	0xbb607536	-0.003424955
68	0xbdb92661	-0.09040523
69	0xbd88555f	-0.06656908
70	0xba5c9858	-0.0008415035
71	0xbba74e88	-0.005105797
72	0xbb951c9a	-0.0045505287
73	0x3c351210	0.01105167
74	0xbc32c655	-0.010911544
75	0xbc8b596f	-0.017010419
76	0x3c6b6f09	0.014369735
77	0x3c599df3	0.013282287
78	0x3cba3dc1	0.022734525
79	0xbbadda55	-0.005305568
80	0x3cc6636e	0.024217334
81	0x3bec430d	0.0072101415
82	0x3b8b3b0a	0.0042489814
83	0xbc551283	-0.013004902
84	0x3c814ee7	0.015784694
85	0x3c39155d	0.011296597
86	0x3bf9a502	0.0076185474
87	0xbba0ceed	-0.00490748
88	0x3bf4341a	0.0074525
89	0x3b364864	0.0027814144
90	0x3b0f8935	0.002190185
91	0xbc5c2359	-0.013436162
92	0x3d32a9b2	0.043618865
93	0xbba409b9	-0.005006042
94	0xbc29b3ca	-0.010357806
95	0x3bb08b6f	0.0053877155
96	0x3bd0da4b	0.006373679
97	0x3c0490f6	0.008091202
98	0x3cd8aeb9	0.026450502
99	0x3cd94200	0.026520729
100	0x3c35366e	0.01106034
101	0xbc8cc20f	-0.017182378
102	0x3ae4a6ca	0.0017444727
103	0xbc344e21	-0.0110049555
104	0x3c73a806	0.014871603
105	0x3aade7b8	0.001326791
106	0xbd7638c7	-0.06011274
107	0xbd2bac9d	-0.041912664
108	0x3bdad82d	0.006678602
109	0x3acea09c	0.0015764418
110	0xbdb1b3c8	-0.08676869
111	0xbd8a2668	-0.06745607
112	0x3cc5e66e	0.024157729
113	0x3d15bf28	0.036559254
114	0x3c73c1a6	0.014877712
115	0x3c851415	0.016244927
116	0x3d88936f	0.06668746
117	0x3d4c45ea	0.049871363
118	0x3c67ff86	0.014160043
119	0x3b2a9eaf	0.0026034524
120	0x3de00cbf	0.10939931
121	0x3d7921cd	0.06082325
122	0x3e0a690d	0.13516636
123	0x3d4842a7	0.04889169
124	0xbd63f16b	-0.055650156
125	0xbcec3111	-0.02883199
126	0x3c256699	0.010095262
127	0x3cc67b92	0.024228845
128	0xbc5540bd	-0.013015923
129	0x3c410bda	0.011782611
130	0x3cac79d9	0.021054195
131	0x3c537e04	0.012908462
132	0xbe13ba47	-0.14426528
133	0xbdb17d6b	-0.086665
134	0xbb9a1371	-0.0047020246
135	0xbc114f07	-0.008868939
136	0xbca4407b	-0.020050278
137	0xbb842c51	-0.0040336032
138	0xbc126abf	-0.008936583
139	0xbc95e471	-0.018297406
140	0x3c4fb320	0.012676984
141	0x3cb1f0e0	0.021721303
142	0x3c2c092f	0.010500236
143	0xbcc2cf87	-0.023780597
144	0x3bbf5a14	0.0058395956
145	0x3a25f65e	0.0006330962
146	0x3bbccf58	0.005762022
147	0xbc814dac	-0.015784107
148	0x3d761d0f	0.060086306
149	0x3d459fd4	0.048248127
150	0x3a88495d	0.001039784
151	0x3a0c7cfb	0.00053592
152	0xbc44d647	-0.012013978
153	0x3ca0fd22	0.019651953
154	0x39914b4f	0.00027712664
155	0x3c59a24b	0.013283323
156	0xbcd8b3b9	-0.026452886
157	0xbba38e3b	-0.0049913204
158	0x3c294b5d	0.010332909
159	0xbb9681d8	-0.0045931153
160	0x3cb372b8	0.021905288
161	0x3d21e101	0.03952122
162	0x3c51e17e	0.012810109
163	0x3d0c9300	0.034319878
164	0x3a602d0d	0.0008551635
165	0xbc360de9	-0.011111715
166	0xbbafc625	-0.005364197
167	0xbc5d0755	-0.013490518
168	0xbc200531	-0.009766863
169	0xbcd9119a	-0.02649765
170	0xbd0a9b44	-0.03383948
171	0xbce95113	-0.028481042
172	0xbcecac8f	-0.028890876
173	0xbc81a48d	-0.015825534
174	0x3c32f894	0.010923523
175	0x3ca1e656	0.019763153
176	0x3bec3152	0.007208028
177	0x3c9edd8e	0.019392755
178	0x3d7d3714	0.061820105
179	0x3db7540a	0.08951576
180	0xbcfd5a18	-0.03092675
181	0xbd1691c1	-0.036760096
182	0x3b8f351d	0.0043703453
183	0x3c2f6b81	0.010706783
184	0x3dcbddf6	0.09954445
185	0x3d934f4a	0.071928576
186	0xbc94d877	-0.018169625
187	0xba90162b	-0.0010992935
188	0xbd38e57c	-0.04514073
189	0xbd85278f	-0.06501686
190	0xbc497ab4	-0.012297321
191	0xbc0a5483	-0.008443001
192	0xbd5be19b	-0.05368195
193	0xbdafaec6	-0.08578257
194	0x3bc41937	0.005984451
195	0x3ba1a461	0.0049329256
196	0xbac44edc	-0.0014977115
197	0x3bcb87f4	0.0062112752
198	0xbd2921c8	-0.041291982
199	0xbd85458a	-0.06507404
200	0x3cbb3019	0.022850083
201	0xba9e3fee	-0.0012073496
202	0xbd7e2cab	-0.062054317
203	0xbd90098e	-0.070330724
204	0x3c431331	0.011906431
205	0x3c416c52	0.011805611
206	0x3c9ee004	0.019393928
207	0x3c87c4c5	0.01657332
208	0xbceb747e	-0.028742071
209	0xbcc3b13c	-0.023888223
210	0x3cbe944f	0.023264078
211	0x3c1fa618	0.00974419
212	0x3be4d86d	0.006983808
213	0x3b9a8619	0.0047156927
214	0x3b8dcd9f	0.0043274905
215	0x3c0860a9	0.008323827
216	0x3cadf8d8	0.021236822
217	0x3c3c33a1	0.011486919
218	0x3b5e316f	0.0033903976
219	0x3b3f9111	0.0029230753
220	0xbda2dbdf	-0.07952093
221	0xbd8f073b	-0.06983801
222	0xbb4cd203	-0.0031253106
223	0x39dcf03c	0.00042140658
224	0xbc809704	-0.01569701
225	0xbcc46005	-0.023971567
226	0x3beae135	0.00716796
227	0xbb935f0c	-0.0044974145
228	0x3c909374	0.017648436
229	0x3d3bed8b	0.045880836
230	0xb9987b6e	-0.00029083662
231	0xbc3acf5a	-0.0114019755
232	0x3b7f945c	0.0038998341
233	0x3bae846b	0.005325844
234	0x3d06b2e7	0.03288546
235	0x3d08e3f3	0.033420514
236	0xbd954da8	-0.072902024
237	0xbda20d65	-0.07912711
238	0xbc154e01	-0.009112836
239	0xbbe4fc78	-0.0069881044
240	0xbd15e2c3	-0.03659321
241	0xbd44e05f	-0.04806554
242	0x3cd056b8	0.025431976
243	0xbad8cbce	-0.0016540231
244	0xbc2fedff	-0.010737895
245	0xbcbac67f	-0.022799728
246	0xba06d191	-0.0005142922
247	0xbc17ae7a	-0.009257907
248	0xba4250ad	-0.00074125343
249	0xbc0e5012	-0.008686082
250	0xbc8d2a41	-0.017232062
251	0xbccad1d3	-0.024758255
252	0xbcfff002	-0.031242374
253	0xbd7fa4c7	-0.062413003
254	0x3ce53bdd	0.027982647
255	0xbbb7bc4c	-0.0056071635

bias f4 [80]
0	0x3d6881ef	0.05676454
1	0x3d726064	0.059173957
2	0x3d7cdbc0	0.061733007
3	0xbcb1fb94	-0.021726407
4	0x3d565961	0.052331332
5	0x3ccaac0a	0.024740238
6	0xbcc76ec6	-0.024344813
7	0x3ce08e9a	0.027411748
8	0x3c82a7bd	0.015949124
9	0x3cbb0c26	0.022832941
10	0xbd3f4135	-0.046693046
11	0xbdaa9d51	-0.08330787
12	0xbd1707f0	-0.036872804
13	0xbc5ab643	-0.013349119
14	0xbd943f97	-0.07238691
15	0xbd61e7b7	-0.05515262
16	0x3c3bb976	0.011457792
17	0x3d3f20e3	0.046662223
18	0xbc91dd96	-0.017805856
19	0x3cc9d79d	0.024638945
20	0x3d3233f8	0.043506593
21	0xbd88817b	-0.066653214
22	0x3ca84efd	0.020545477
23	0x3d10747f	0.03526735
24	0x3d79825f	0.060915347
25	0x3d15221d	0.036409486
26	0x3c3436d4	0.0109994
27	0xbd9f5174	-0.07779208
28	0x3d1a51e1	0.037675742
29	0x3d80ce82	0.06289388
30	0xbd92caf4	-0.071676165
31	0xbd837848	-0.06419426
32	0xbd47967c	-0.048727497
33	0x3b88a309	0.004169826
34	0x3c45aa5a	0.012064541
35	0x3b8fa8c0	0.0043841302
36	0xbc14d4f8	-0.009083979
37	0xba7ca22b	-0.0009637202
38	0xbd54c22b	-0.051942986
39	0xbd7d049f	-0.061771985
40	0x3d895792	0.06706156
41	0xbd852239	-0.06500668
42	0x3d90f426	0.070778176
43	0x3d49c9db	0.04926477
44	0x3b59192f	0.0033126583
45	0xbd2453a7	-0.04011884
46	0xbb91fb7b	-0.0044550276
47	0xbd964a09	-0.0733834
48	0x3ca845b1	0.020541044
49	0x3cd6a3e6	0.0262012
50	0xbd8ecb48	-0.069723666
51	0x3d049785	0.032371063
52	0xbd83ff8c	-0.06445226
53	0x3da125fa	0.078685716
54	0xbd26465e	-0.04059445
55	0x3d9fe74a	0.07807787
56	0x3c6303fb	0.0138559295
57	0x3d281880	0.04103899
58	0xbda8c185	-0.08240036
59	0xbd50c90e	-0.05097299
60	0xbd884423	-0.06653621
61	0x3d744039	0.05963156
62	0xbcb71369	-0.022348123
63	0xbd0c78c6	-0.034294866
64	0x3d988b7f	0.07448482
65	0xbc10d1e7	-0.008839107
66	0x3d294b2f	0.041331466
67	0xbd35fbca	-0.044429578
68	0x3d801d7d	0.062556244
69	0x3d2b9ac8	0.041895658
70	0xbc7a6ac5	-0.015284245
71	0x3d405c82	0.046963222
72	0xbd7c5175	-0.06160112
73	0xbd36263c	-0.044470057
74	0xbd0525d9	-0.032506797
75	0x3c70f5bf	0.014707028
76	0x3d306fed	0.04307549
77	0xbd21904c	-0.039444253
78	0xbd2859cd	-0.041101266
79	0x3d499b3c	0.04922031

weight f4 [80, 80, 2]
0	0xbc82b454	-0.015955128
1	0xbcead05b	-0.028663805
2	0xbc42ced9	-0.011890137
3	0x3ba87291	0.0051406105
4	0xbcb7152d	-0.022348965
5	0xbc22faab	-0.009947459
6	0xbc259a82	-0.010107638
7	0xbc277250	-0.010220125
8	0xbbf72ba7	-0.0075430456
9	0xbbf0a03e	-0.007343321
10	0xbc276e36	-0.010219147
11	0x3cd27c29	0.02569397
12	0xbd0e641e	-0.034763448
13	0xbd788473	-0.06067319
14	0x3c53eee0	0.01293537
15	0x3af3aa47	0.0018590175
16	0x3b1af6e1	0.0023645686
17	0x3ccd0733	0.025027847
18	0xbd0afcf7	-0.033932652
19	0xbd4a78e6	-0.049431704
20	0x39ba4bdf	0.00035533213
21	0xbbc3eec5	-0.0059793913
22	0x3bd69969	0.0065490496
23	0x3cebdeec	0.02879282
24	0x3c5f3cdc	0.01362535
25	0x3c495fa4	0.012290869
26	0xbd0a0756	-0.033698402
27	0xbce1ae86	-0.02754904
28	0x3cd2ad80	0.025717497
29	0x3b142c87	0.0022609548
30	0x3b711deb	0.0036791514
31	0xbb8b0173	-0.004242116
32	0x3bef8153	0.007309118
33	0xbc097b2f	-0.008391186
34	0x3c74d80c	0.014944088
35	0xbca30973	-0.019901967
36	0x3b219f38	0.0024661552
37	0x3cb098da	0.02155726
38	0xbb0b7186	-0.0021277382
39	0xbd22dea8	-0.039763123
40	0xbc69c3f8	-0.014267914
41	0xbcf3cc64	-0.029760547
42	0x3c9a566b	0.018840035
43	0xba335bd0	-0.0006841989
44	0xbd14b656	-0.0363067
45	0xbc0dc279	-0.008652323
46	0x3c81b7c0	0.01583469
47	0x3c9256ff	0.017863749
48	0xbd27c70a	-0.040961303
49	0xbd61a367	-0.055087473
50	0xbc0f4223	-0.008743796
51	0xbcadf885	-0.021236667
52	0xbca35934	-0.019939996
53	0xbcca2183	-0.024674183
54	0x3ce126fb	0.027484408
55	0xbc2d740f	-0.010586753
56	0x3c0856b1	0.00832145
57	0xbcd97e8a	-0.026549596
58	0xbbb12a0d	-0.005406624
59	0xbc9b92db	-0.018990925
60	0xbc95e71f	-0.018298684
61	0xbcd675bb	-0.026179185
62	0x3c2531de	0.01008269
63	0x3c84c801	0.01620865
64	0x3c8dded7	0.017318172
65	0x3cc36f7d	0.023856873
66	0x3bf975e6	0.0076129315
67	0xbaa71c5c	-0.0012749541
68	0xbca42b97	-0.020040317
69	0xbc7ab9fe	-0.015303133
70	0xbca9dd77	-0.020735485
71	0xbcc93f7d	-0.024566406
72	0x3c654fb1	0.013996051
73	0x3d00bbb9	0.031429026
74	0xbb29aff7	-0.0025892237
75	0xbc0a0d25	-0.008425985
76	0xbc0ac958	-0.008470856
77	0x3ca00b5c	0.019536667
78	0x3d04faab	0.032465618
79	0x3b98d266	0.0046637533
80	0xbcc1d188	-0.023659483
81	0xbc665902	-0.014059307
82	0x3ce420ac	0.02784761
83	0x3c1f5cfb	0.009726758
84	0xbb4757dd	-0.003041736
85	0xbceb2bd9	-0.028707432
86	0xbd064f43	-0.032790434
87	0xbd39653d	-0.045262564
88	0xbac3c6e3	-0.0014936592
89	0x3bf579b5	0.0074913152
90	0x3c9095aa	0.01764949
91	0x3cca7e10	0.024718314
92	0xbcbcd9a8	-0.023053005
93	0xbd3cc8fe	-0.04609012
94	0x3c7e0b97	0.015505693
95	0x3c291cf5	0.010321845
96	0x3cbda807	0.02315141
97	0x3cc8aac0	0.024495482
98	0xbc0cadca	-0.008586356
99	0xbc1efa61	-0.00970325
100	0x3aea0e3e	0.0017857028
101	0x3c329716	0.0109002795
102	0xbcab5e76	-0.020919066
103	0xbcc75552	-0.024332676
104	0xbc33552c	-0.0109455995
105	0xbd2b9c11	-0.041896883
106	0xbcbd782d	-0.023128593
107	0xbc6bf1d6	-0.01440092
108	0xbc0c313d	-0.008556661
109	0xbc962a30	-0.018330663
110	0xbccef788	-0.025264516
111	0xbd2a770f	-0.04161745
112	0xbcd80d75	-0.026373604
113	0xbcb4b111	-0.022057088
114	0xbcc0f639	-0.023554908
115	0xbc8f44de	-0.017488893
116	0x3c359457	0.01108273
117	0x3c8804de	0.016603883
118	0xbc04176d	-0.008062226
119	0xbb722272	-0.00369468
120	0xbcc7e730	-0.024402231
121	0xbd3839ee	-0.04497712
122	0xbcb7d583	-0.022440678
123	0xbba40764	-0.005005764
124	0xbc5bc8df	-0.013414591
125	0xbc899bce	-0.016797926
126	0xbcbcae95	-0.023032466
127	0xbd41beb7	-0.04730102
128	0xbd1e2fbb	-0.038619738
129	0xbc68cace	-0.014208509
130	0xbc54ba16	-0.0129838195
131	0xbc6dc052	-0.014511185
132	0x3bfc7572	0.0077044303
133	0x3babfbf9	0.0052485433
134	0x3c8d096b	0.017216405
135	0x3d3096e0	0.043112636
136	0x3c9830c7	0.018577946
137	0x3cae864c	0.021304272
138	0x3c498e44	0.012301985
139	0xbbcea145	-0.006305846
140	0x3ba10ad1	0.0049146195
141	0xbbbddf5b	-0.0057944483
142	0xbc24fb36	-0.010069659
143	0xbc8c8149	-0.017151492
144	0xbc899070	-0.016792506
145	0xbaa7f966	-0.0012815415
146	0x3c9b6092	0.018966947
147	0xbb81db6f	-0.003962926
148	0xbc8a6d6f	-0.016897885
149	0xbc9097b9	-0.017650472
150	0xbba4c88f	-0.0050287913
151	0xbd13cb5f	-0.03608262
152	0xbcbe15f7	-0.023203833
153	0xbd0d7501	-0.03453541
154	0xba227d91	-0.00061985204
155	0x3b689ecb	0.0035495039
156	0x3be8c894	0.007103989
157	0x3b97043c	0.004608659
158	0xbc6d26bc	-0.014474567
159	0xbce6001d	-0.028076226
160	0xbb922138	-0.0044595264
161	0xbd3256f3	-0.043539952
162	0x3b36d205	0.0027896177
163	0x3c8691f5	0.01642702
164	0x3c01312f	0.007885261
165	0xbb27ef8d	-0.002562496
166	0xbcaa0204	-0.020752914
167	0xbcd5bf39	-0.026092159
168	0xbca63b79	-0.02029203
169	0xbc8b23ee	-0.016984906
170	0xbd14b8a5	-0.036308903
171	0x3ce71d1d	0.028212124
172	0xbd0f90bc	-0.03505014
173	0xbd886cb9	-0.06661362
174	0x3d206467	0.03915825
175	0x3cccd6f8	0.025004849
176	0x3cacf25d	0.021111662
177	0x3d19e6d6	0.037573658
178	0xbcea2368	-0.028581336
179	0xbd325cac	-0.04354541
180	0xbc9c92b4	-0.019112922
181	0x3be7dc34	0.007075811
182	0x3cf24ccb	0.029577633
183	0x3d32a469	0.043613825
184	0x3c888c94	0.016668595
185	0xbd0a4916	-0.033761106
186	0xbcec2c62	-0.028829757
187	0xbd62acda	-0.055340625
188	0x3c553e18	0.013015293
189	0xb88ec98e	-6.80863e-05
190	0x3c79a164	0.015236232
191	0xbbd4dece	-0.006496287
192	0xbbb3da05	-0.0054886364
193	0xbce9e91c	-0.028553538
194	0x3b662d6c	0.0035122288
195	0xbd402e02	-0.046918876
196	0x3b6e6300	0.0036374927
197	0x3cb3ff77	0.021972401
198	0xbc424b22	-0.011858733
199	0xbd2cbbde	-0.04217135
200	0xbc8d015b	-0.01721256
201	0xbd33cff6	-0.0438995
202	0x3c6da3b8	0.014504366
203	0x3d154bae	0.036449127
204	0xbcf46b7d	-0.02983641
205	0xbd10ddd6	-0.03536781
206	0x3cd7ee2a	0.026358683
207	0x3cc32446	0.023821007
208	0xbd66a805	-0.05631258
209	0xbd6966a5	-0.056982655
210	0xbcc6311c	-0.024193339
211	0xbca5c661	-0.020236196
212	0xbd20ca53	-0.03925545
213	0xbd3e9cb9	-0.04653618
214	0x3d42d3bc	0.047565207
215	0xbc903a92	-0.017606054
216	0xbca1ab52	-0.019735012
217	0xbcf1222e	-0.029435243
218	0x3c6c09f4	0.01440667
219	0x3c4cb07d	0.01249325
220	0xbcc15111	-0.023598226
221	0xbd5019f2	-0.050805993
222	0x3b78fe93	0.0037993535
223	0x39d34835	0.00040298855
224	0x3bf4d718	0.0074719302
225	0x3d2876e1	0.041128997
226	0x3b59311d	0.0033140846
227	0xbb7a2ad1	-0.0038172493
228	0xbcc0354f	-0.02346292
229	0xbd0667a1	-0.032813672
230	0xbce61bba	-0.028089393
231	0xbd574c3b	-0.052562933
232	0x3d059305	0.032610912
233	0x3ce7f7f1	0.02831647
234	0xbc82239d	-0.015886122
235	0xbcb1eb77	-0.021718724
236	0x3c7d1dbc	0.015448984
237	0xbaca607a	-0.0015440129
238	0x3c9da1e0	0.019242227
239	0xbc763a7c	-0.015028592
240	0xbcc6ff4f	-0.024291662
241	0xbc9933af	-0.018701402
242	0x3d007f18	0.031371206
243	0x3d407dcf	0.04699498
244	0xbc6ab26d	-0.014324767
245	0xbc558c69	-0.013033965
246	0xbca058b5	-0.019573549
247	0xbd6677de	-0.056266658
248	0x3c7b1cda	0.015326703
249	0x3c63278d	0.01386441
250	0x3ce92852	0.028461609
251	0x3d08bc9b	0.033382993
252	0xbccee6ad	-0.02525648
253	0xbd397b78	-0.045283765
254	0x3c74dfcf	0.014945938
255	0x3c957676	0.018244963

bias f4 [80]
0	0xbd5a29c5	-0.05326249
1	0xbd945955	-0.07243601
2	0x3cd77438	0.026300535
3	0xbd1a43a4	-0.037662163
4	0xbd855f6f	-0.06512343
5	0x3d145f6a	0.036223806
6	0xbce6e380	-0.028184652
7	0x3d3691fa	0.044572808
8	0xbc9e66ec	-0.019336186
9	0x3c33f482	0.010983588
10	0x3d8c071a	0.06837292
11	0x3c6d7463	0.014493081
12	0xbc1708b0	-0.00921838
13	0xbd511682	-0.051046856
14	0x3cd7886c	0.026310168
15	0xbd3ccae8	-0.046091944
16	0xbd217d2c	-0.039426014
17	0x3c37024f	0.011169984
18	0xbc2129ce	-0.009836627
19	0x3d81922f	0.063267104
20	0x3c012a78	0.0078836605
21	0x3d9c0c21	0.07619501
22	0xbdb5d0f7	-0.088777475
23	0xbd9a93a2	-0.0754769
24	0xbccb5b82	-0.024823908
25	0x3d0687c8	0.032844335
26	0x3d317c8a	0.04333166
27	0x3d3fcba4	0.046825066
28	0xbbbec415	-0.0058217146
29	0xbc214d48	-0.009845085
30	0x3d0d43b6	0.034488402
31	0x3d21053d	0.039311636
32	0x3d66a18d	0.05630641
33	0xbd8fe684	-0.07026389
34	0xbda32645	-0.07966284
35	0x3d6c418f	0.05767971
36	0x3cb42b77	0.021993382
37	0xbd93b3cf	-0.0721203
38	0xbd4b1df3	-0.04958911
39	0xbca130ee	-0.019676652
40	0xbd98b5a0	-0.07456517
41	0xbd19106d	-0.03736918
42	0x3c015189	0.007892975
43	0xbd974a5c	-0.0738723
44	0xbc5d2ac1	-0.013498963
45	0xbd54ec7a	-0.051983334
46	0x3d605438	0.054767817
47	0xbd46f86e	-0.048576765
48	0xbd042476	-0.032261334
49	0x3d62eb55	0.05540021
50	0x3d8af7e0	0.0678556
51	0x3cb3fa91	0.021970065
52	0xbd4ad3b3	-0.0495183
53	0x3c995221	0.01871592
54	0x3d8cdaa7	0.06877642
55	0xbb032738	-0.002001239
56	0xbd603984	-0.05474235
57	0xbc195c52	-0.00936039
58	0x3d478ab2	0.048716255
59	0xbd10464c	-0.03522329
60	0xbd019977	-0.031640496
61	0x3cf108e5	0.029423187
62	0x3ca3e978	0.020008788
63	0x3d250d0b	0.040295642
64	0x3d6dda79	0.05806968
65	0xbd11dc81	-0.03561068
66	0xbd630767	-0.05542698
67	0xbd957756	-0.07298152
68	0xbd52de53	-0.051481556
69	0xbd9f2a8d	-0.07771788
70	0xbd4104ca	-0.047123708
71	0xbd097649	-0.03356007
72	0xbd945b7c	-0.07244012
73	0xbdc25954	-0.09489694
74	0x3bdef7b8	0.0068044327
75	0x3d180d44	0.037122026
76	0x3c12c3f2	0.00895785
77	0xbbf95ff3	-0.007610315
78	0xbbd2dfe1	-0.00643538
79	0x3d036a2d	0.03208368
