GAN/PM Generator/PM_epochs=1000_seq=85_batch=5.pth (torch, 674968 bytes, 31 tensors)

weight f4 [1, 80, 1]
0	0xbb00573e	-0.001958325
1	0xbc449190	-0.011997595
2	0x3c4431ec	0.011974793
3	0xbba10341	-0.004913718
4	0xbc164b99	-0.009173297
5	0x3c83cce9	0.01608892
6	0xbba802ac	-0.0051272716
7	0x3cc0a72c	0.023517214
8	0xbc1b2694	-0.009469647
9	0xbbf2a1eb	-0.007404556
10	0xbcbfbf06	-0.023406517
11	0xbc1cd977	-0.009573332
12	0x3d0c07a9	0.034186993
13	0x3b8d7aa0	0.0043175966
14	0x3ce526a7	0.027972532
15	0xbb8e6bd7	-0.0043463516
16	0xbc52f10b	-0.012874852
17	0x3c635ecf	0.013877585
18	0xbc5399de	-0.012915103
19	0x3c93df5f	0.018050848
20	0xbb02555c	-0.0019887304
21	0xb9465979	-0.00018916083
22	0xbbea60ff	-0.007152676
23	0x3ca59a80	0.020215273
24	0x3c29986c	0.010351282
25	0x3cf17a2b	0.0294772
26	0x3cbcfe3d	0.023070449
27	0x3c98c2b8	0.018647537
28	0x3c85f2aa	0.016351063
29	0x3cedf91e	0.029049452
30	0xbc82c847	-0.01596464
31	0xbcb2e4c6	-0.021837603
32	0xbb1e7263	-0.0024177067
33	0xbc163a21	-0.009169132
34	0xbc8adebe	-0.016951915
35	0x3cad1f6f	0.021133153
36	0xbb565986	-0.0032707169
37	0x3cb733e9	0.02236362
38	0xbb44ca96	-0.0030027977
39	0xbcce8b9b	-0.025213053
40	0xbc1a1d38	-0.00940638
41	0xbc07b3df	-0.008282631
42	0xbc33609c	-0.010948326
43	0xbb9fea24	-0.0048802067
44	0x3ca30009	0.019897478
45	0x3c54ed3e	0.012996016
46	0xbae2c253	-0.0017300345
47	0xbc1a27fe	-0.009408949
48	0xbc4884c8	-0.012238689
49	0x3cb409d9	0.021977352
50	0xbc18ecbb	-0.009333785
51	0x3c6547cd	0.013994169
52	0x3ccd19d7	0.025036735
53	0x3c9a026f	0.018799989
54	0x3cb29efd	0.021804327
55	0x3ca69c20	0.020338118
56	0xbc4ba238	-0.012428813
57	0xbc26acfa	-0.010173077
58	0xbad10f9d	-0.0015950088
59	0x3cd243df	0.02566713
60	0xbc54b8be	-0.012983499
61	0xbb957479	-0.0045610038
62	0x3c05de9c	0.00817075
63	0xbc85e675	-0.016345242
64	0xbcac41a0	-0.021027386
65	0xbb69f35b	-0.003569803
66	0x3cee9f94	0.029128827
67	0xbcb575dc	-0.022150926
68	0xbb8d1bea	-0.004306306
69	0xbc39216f	-0.011299475
70	0x3caa4d92	0.020788942
71	0x3c32b6bc	0.010907825
72	0x3cb56905	0.022144804
73	0xbc0bd368	-0.00853429
74	0xbb180bcf	-0.0023200398
75	0xbc1dedc4	-0.009639207
76	0x3d026809	0.031837497
77	0xbc3b7345	-0.011441057
78	0x3caa636c	0.020799361
79	0xb9ff62be	-0.0004871096

weight f4 [80, 3, 1]
0	0x3d934508	0.07190901
1	0x3d9786af	0.07398736
2	0x3d9ae84a	0.07563837
3	0xbdbf4e89	-0.09341151
4	0xbda68a80	-0.081318855
5	0xbdc54a96	-0.09633367
6	0xbd961708	-0.073286116
7	0xbd8675c9	-0.065654345
8	0xbd94d19e	-0.07266544
9	0xbddb0464	-0.10694197
10	0xbdcf6251	-0.10126174
11	0xbddde182	-0.10834028
12	0xbd945377	-0.07242482
13	0xbd886fcd	-0.06661949
14	0xbdaeabf5	-0.08528892
15	0xbde15330	-0.11002195
16	0xbd9df572	-0.077128306
17	0xbdd3436d	-0.10315595
18	0xbde377b1	-0.11106814
19	0xbdc5da17	-0.09660738
20	0xbde368a8	-0.11103946
21	0x3da9689e	0.08271907
22	0x3db2f3a8	0.0873788
23	0x3dd80f63	0.1054981
24	0xbd778c32	-0.060436435
25	0xbd858fb8	-0.06521553
26	0xbd838887	-0.06422525
27	0x3db8fbaf	0.0903238
28	0x3d9b573f	0.07585
29	0x3db3e3d6	0.08783691
30	0xbd8fd49c	-0.07022974
31	0xbd9357ac	-0.071944565
32	0xbdbfa280	-0.09357166
33	0xbdc111bd	-0.094272114
34	0xbde0f8b4	-0.10984936
35	0xbe00995f	-0.12558506
36	0xbdb9cb5c	-0.09071991
37	0xbd474fbf	-0.048660036
38	0xbd9c24a9	-0.0762418
39	0xbdadaebe	-0.08480595
40	0xbdcd4108	-0.10022169
41	0xbdcfebfd	-0.10152433
42	0xbdad63bb	-0.08466288
43	0xbd95cef4	-0.07314864
44	0xbdb5964f	-0.0886656
45	0xbdd9825a	-0.10620566
46	0xbdc3c005	-0.09558109
47	0xbdefad54	-0.117029816
48	0x3db0408e	0.08606063
49	0x3da28d17	0.07937067
50	0x3dc6ee09	0.0971337
51	0xbdca319e	-0.09872745
52	0xbddf697c	-0.109087914
53	0xbdf1c8b2	-0.11805858
54	0x3dada12e	0.08478008
55	0x3d7b82f9	0.061404202
56	0x3dbf3ccd	0.09337769
57	0x3dc8d5ca	0.09806402
58	0x3d95b5f3	0.07310095
59	0x3d8fe8da	0.07026835
60	0x3dbe2066	0.09283523
61	0x3dc7e1e6	0.097598836
62	0x3dc9831b	0.098394595
63	0xbde76541	-0.112986095
64	0xbdbf467b	-0.09339615
65	0xbdf21fbc	-0.11822459
66	0x3db7847f	0.089608185
67	0x3db0bb54	0.0862948
68	0x3dcfd298	0.101475894
69	0xbdb4446f	-0.08802115
70	0xbdb76052	-0.089539185
71	0xbdd1013b	-0.10205313
72	0x3d911c6b	0.070854984
73	0x3da8ef29	0.08248741
74	0x3db3f701	0.08787347
75	0x3dc215d2	0.09476818
76	0x3dcea71d	0.10090468
77	0x3dc30977	0.0952329
78	0xbd94713f	-0.072481625
79	0xbd8b77f7	-0.06809991
80	0xbd981634	-0.0742611
81	0x3d619c58	0.05508074
82	0x3d8381bb	0.064212285
83	0x3dbe25f8	0.09284586
84	0xbdad97bc	-0.08476207
85	0xbd8ea7fb	-0.069656335
86	0xbd9ee3c3	-0.07758286
87	0xbdfc8841	-0.12330676
88	0xbdd5aaa5	-0.104329385
89	0xbe02c4cf	-0.12770389
90	0x3d93bf78	0.07214254
91	0x3d9dec62	0.07711102
92	0x3dbf4e84	0.093411475
93	0xbdc5bb37	-0.09654849
94	0xbdbedde3	-0.09319665
95	0xbdf6eb9f	-0.1205666
96	0x3dc58227	0.09643965
97	0x3da1ad73	0.07894411
98	0x3dcb161a	0.09916325
99	0x3dbf249d	0.09333155
100	0x3dbf7c36	0.09349863
101	0x3dd28a36	0.10280268
102	0x3def7e81	0.116940506
103	0x3dd8602d	0.10565219
104	0x3defd125	0.11709813
105	0xbdb34160	-0.08752704
106	0xbd7994f2	-0.06093306
107	0xbda2a96e	-0.079424724
108	0xbdc8ba4e	-0.0980116
109	0xbdc7eff1	-0.09762562
110	0xbdbec90f	-0.09315693
111	0x3db57ed1	0.08862079
112	0x3d991b19	0.074758716
113	0x3da0060c	0.07813653
114	0x3d9a4a4d	0.07533703
115	0x3d899e32	0.067196265
116	0x3dd1a3a4	0.1023629
117	0xbdce6ab1	-0.100789435
118	0xbdcc1412	-0.099647656
119	0xbdf2b2fb	-0.11850544
120	0xbd7809dd	-0.06055628
121	0xbd80bcea	-0.062860325
122	0xbd98f3e1	-0.07468391
123	0xbde70a9b	-0.1128132
124	0xbddd3019	-0.108001895
125	0xbdcb3bb3	-0.09923496
126	0xbda002d5	-0.0781304
127	0xbd824c53	-0.06362214
128	0xbd872bf0	-0.06600177
129	0xbdc9d64f	-0.09855329
130	0xbdc36e57	-0.0954253
131	0xbdd8577f	-0.105635636
132	0xbdad119a	-0.08450623
133	0xbdc0ad7d	-0.0940809
134	0xbda1a4cd	-0.078927614
135	0xbd8b7c49	-0.06810815
136	0xbdb2091a	-0.08693142
137	0xbdcf33e1	-0.10117317
138	0xbde6347e	-0.11240481
139	0xbdc33d0a	-0.09533127
140	0xbde3a247	-0.11114936
141	0x3ddbb572	0.10727967
142	0x3da68eee	0.081327304
143	0x3dcfe845	0.10151724
144	0x3dc4e1cc	0.0961338
145	0x3dcc8b98	0.09987563
146	0x3dd6cd70	0.10488403
147	0xbd93aaa6	-0.07210283
148	0xbd89e31c	-0.06732771
149	0xbd987334	-0.07443848
150	0xbd896d84	-0.067103416
151	0xbd89726a	-0.06711276
152	0xbda669fb	-0.08125683
153	0xbdd5a625	-0.1043208
154	0xbd865591	-0.06559289
155	0xbdc9540f	-0.09830486
156	0xbdd0569f	-0.10172772
157	0xbdb9f34b	-0.090796076
158	0xbdcd7307	-0.10031705
159	0xbdfeffff	-0.12451171
160	0xbde3eadb	-0.111287795
161	0xbde291ac	-0.11062941
162	0x3d81f14d	0.063448526
163	0x3d8bf5ee	0.06834017
164	0x3dacfe42	0.08446933
165	0xbdd8b1e9	-0.10580809
166	0xbdb6f585	-0.08933548
167	0xbde2023b	-0.11035582
168	0xbe00d56b	-0.12581412
169	0xbdd7f08d	-0.10543928
170	0xbde7c3f3	-0.11316671
171	0xbd92c56c	-0.071665615
172	0xbd936ee9	-0.07198889
173	0xbda9ae33	-0.08285179
174	0xbd9f12b2	-0.07767238
175	0xbd80e567	-0.06293755
176	0xbda3b641	-0.079937465
177	0xbda5a479	-0.08088011
178	0xbda235c8	-0.07920414
179	0xbdb9b614	-0.09067932
180	0x3da15930	0.07878339
181	0x3d863963	0.065539144
182	0x3dac8882	0.08424474
183	0xbda98d5b	-0.082789145
184	0xbdabbdb1	-0.0838579
185	0xbdb97d7e	-0.09057139
186	0xbdcb81ba	-0.09936853
187	0xbdad575f	-0.0846393
188	0xbde0ab4a	-0.10970171
189	0xbdbabe67	-0.091183476
190	0xbda17399	-0.07883377
191	0xbdd71776	-0.10502522
192	0xbdefb880	-0.117051125
193	0xbdb7485f	-0.089493506
194	0xbdfb2586	-0.122630164
195	0x3dcbb132	0.09945907
196	0x3dcb021e	0.09912513
197	0x3dcf7ded	0.1013144
198	0xbdab0e18	-0.083522975
199	0xbdb20615	-0.08692566
200	0xbdc2f1d5	-0.09518782
201	0x3daf1215	0.08548371
202	0x3dbc8076	0.092041895
203	0x3dbe37d6	0.092879936
204	0xbdb78179	-0.08960242
205	0xbd8cf441	-0.06882525
206	0xbdb8dc0b	-0.09026345
207	0x3dc367a1	0.0954125
208	0x3d8c762d	0.06858478
209	0x3dd0704e	0.101776704
210	0x3ddad1a9	0.10684521
211	0x3dcf5688	0.101239264
212	0x3de3c028	0.11120635
213	0x3daf921f	0.08572792
214	0x3d8c7eda	0.068601325
215	0x3db92a18	0.09041232
216	0xbde28d07	-0.11062055
217	0xbddb6f33	-0.10714569
218	0xbdf6e4d9	-0.12055368
219	0x3dc2f0c5	0.095185794
220	0x3d4cba45	0.049982328
221	0x3db2ca04	0.08729938
222	0x3dd02ef3	0.10165205
223	0x3decc0b3	0.11560192
224	0x3dd2d972	0.10295381
225	0x3deccc3f	0.11562394
226	0x3d977886	0.07396035
227	0x3db2c559	0.08729047
228	0x3dd412b3	0.10355129
229	0x3db74997	0.08949583
230	0x3daba092	0.08380236
231	0x3dcad6d2	0.09904255
232	0x3dcbecf2	0.09957303
233	0x3df3d26f	0.119053714
234	0xbd732e95	-0.059370596
235	0xbd78316d	-0.06059401
236	0xbd8397c0	-0.064254284
237	0x3dc25fd1	0.09490932
238	0x3dac4e5d	0.08413384
239	0x3dc08633	0.094005965

bias f4 [80]
0	0x3e710169	0.23535694
1	0xbe8c2242	-0.27369887
2	0xbdf4a401	-0.11945344
3	0xbea3274d	-0.31865922
4	0xbdda6974	-0.10664645
5	0xbebd30cc	-0.36951292
6	0xbeb7dc2a	-0.3591016
7	0x3e45f45a	0.19331494
8	0xbe21bef3	-0.15795498
9	0x3eb0e943	0.34552965
10	0xbe394c56	-0.18095526
11	0xbece92f5	-0.40346494
12	0xbdd9960c	-0.10624322
13	0xbe87329f	-0.26405808
14	0xbe393f47	-0.18090545
15	0xbf02fc39	-0.5116611
16	0x3ea1144d	0.314608
17	0xbec32951	-0.3811746
18	0x3e921bf6	0.28536958
19	0x3e856878	0.26056266
20	0x3ecde5c6	0.40214366
21	0xbed9356c	-0.4242357
22	0x3ecdf33c	0.40224636
23	0xbe8a5bd5	-0.27023187
24	0x3e5ddc51	0.21666075
25	0x3f07d710	0.53062534
26	0xbdafbf3b	-0.08581396
27	0x3ca24cc0	0.019811988
28	0xbe0c70bf	-0.13714884
29	0xbee45fde	-0.4460439
30	0x3e8befe3	0.27331457
31	0xbf0c3e16	-0.54782236
32	0x3eaec046	0.34131068
33	0x3ed9600b	0.42456087
34	0x3eff1a0e	0.49824566
35	0xbe0d90ef	-0.13824819
36	0xbedde7e8	-0.43340993
37	0x3e06accb	0.13151853
38	0x3e9fe63d	0.31230345
39	0xbf0d0387	-0.5508351
40	0xbe05f4bb	-0.13081639
41	0xbeaa4283	-0.3325387
42	0xbd52fa13	-0.05150802
43	0xbe9044ce	-0.28177494
44	0xbe718a07	-0.2358781
45	0xbe3e67d3	-0.18594293
46	0xbf065ea6	-0.5248817
47	0x3eec6855	0.4617335
48	0x3ef1e7dd	0.4724721
49	0xbdbf9d20	-0.09356141
50	0xbd74dcf5	-0.059781034
51	0xbe70f2c2	-0.23530105
52	0xbf0111f9	-0.5041805
53	0xbf00ad45	-0.5026439
54	0x3e609dd5	0.21935208
55	0xbe9d5286	-0.30727023
56	0xbeb7a206	-0.35865802
57	0xbd269ab4	-0.04067488
58	0xbe43d517	-0.19124256
59	0xbe4242e8	-0.18970835
60	0x3d199ef3	0.0375051
61	0xbdffb1eb	-0.12485107
62	0xbe4695ca	-0.19393077
63	0xbe8a1418	-0.26968455
64	0xbedf4cfa	-0.43613416
65	0x3eee5d7a	0.46555692
66	0xbe6d6a52	-0.23185089
67	0x3e23fa0c	0.16013354
68	0xbe4e6307	-0.20154963
69	0x3d895ba7	0.067069344
70	0x3f0581a8	0.52150965
71	0x3e872714	0.26397002
72	0xbef2e761	-0.47442153
73	0x3e5f58df	0.21811245
74	0x3f06b08c	0.5261314
75	0x3e24b021	0.16082813
76	0x3ec15723	0.37761793
77	0x3f0b99cd	0.54531556
78	0xbdb87f62	-0.09008671
79	0x3e08bdfb	0.13353722

weight f4 [80, 80, 1]
0	0xbcbc4f94	-0.022987165
1	0xbd1275a1	-0.03575671
2	0xbd474f89	-0.048659835
3	0xbd2c60b7	-0.042084422
4	0xbd0e3a7b	-0.03472374
5	0xbbb10875	-0.0054026195
6	0x3c2f8a2d	0.010714096
7	0xbca14bd0	-0.01968947
8	0xbd3c37ef	-0.04595178
9	0xbbb475fc	-0.005507229
10	0xbda8089b	-0.08204766
11	0xbbb706c3	-0.005585523
12	0xbd7900ab	-0.060791653
13	0xbd7e50e2	-0.062088855
14	0xbd840f0b	-0.06448182
15	0x3c205f3a	0.009788329
16	0xbd2165d7	-0.039403763
17	0xbadab777	-0.0016686757
18	0x3bb944c4	0.0056539495
19	0xbbc3e114	-0.005977759
20	0xbccf1563	-0.025278753
21	0x3cb2f6dd	0.02184623
22	0xbca4da47	-0.020123614
23	0xbd6567d1	-0.05600721
24	0xbc329a14	-0.010900993
25	0xbc55c875	-0.013048281
26	0xbd36f54f	-0.04466754
27	0x3d7cf6a7	0.061758664
28	0xbd3b0a40	-0.045664072
29	0x3bd0baab	0.006369909
30	0xbcc9a47a	-0.024614561
31	0x3cbc4ab7	0.022984846
32	0xbcb315bb	-0.021860948
33	0xbc9222fc	-0.017838947
34	0xbce26cf8	-0.027639851
35	0xbd6e4455	-0.058170635
36	0x3c66496b	0.01405559
37	0xbc8109f4	-0.015751816
38	0x3b5000cd	0.0031738759
39	0x3b909c19	0.0044131395
40	0xbd79b392	-0.060962267
41	0xbc9c0d6e	-0.019049373
42	0xbda1a15e	-0.078921065
43	0xbd8ec624	-0.06971386
44	0xbd32f984	-0.043694988
45	0xbd9e9061	-0.07742382
46	0x3d17ceb8	0.037062377
47	0xbd079e7c	-0.033110127
48	0xbc08c451	-0.008347587
49	0xbd0aea5a	-0.0339149
50	0xbd79e277	-0.06100699
51	0xbd9ce237	-0.076603346
52	0x3c7feb6f	0.015620097
53	0x3bbded9f	0.005796149
54	0xbc913ff5	-0.017730692
55	0xbce34ce9	-0.027746635
56	0xbcaf7582	-0.021418337
57	0xbd82d80b	-0.06388863
58	0xbd81b859	-0.0633399
59	0xbdb9f591	-0.09080041
60	0x3cb2fe99	0.021849917
61	0xbd730eee	-0.05934041
62	0xbd96bf76	-0.07360737
63	0xbd648d3e	-0.05579876
64	0x3d082455	0.033237774
65	0xbd0a311e	-0.033738248
66	0xbd84c824	-0.06483486
67	0xbbe78941	-0.0070659225
68	0xbd9bde2f	-0.076107375
69	0x3c93047f	0.01794648
70	0xbc0f5723	-0.008748802
71	0xbc6ef0a2	-0.0145837385
72	0x3caf4949	0.02139725
73	0xbbe53b0e	-0.0069955653
74	0xbc0fa49a	-0.008767271
75	0xbab85df7	-0.001406609
76	0xbc0e0f1a	-0.008670593
77	0xbc8a234e	-0.016862538
78	0xbd6ac2f3	-0.057314824
79	0xbc7ebe28	-0.0155482665
80	0x3c102630	0.008798167
81	0xbc168ad2	-0.009188371
82	0xbdc4241e	-0.09577201
83	0xbccce355	-0.025010744
84	0xbd9f4a90	-0.077778935
85	0xbc89ba0b	-0.016812345
86	0xbcf69eb8	-0.03010498
87	0x3ca01439	0.019540893
88	0xbcc3389a	-0.0238307
89	0x3c2bff60	0.010497898
90	0xbdae7215	-0.08517853
91	0xbcfb87bf	-0.030704377
92	0xbdc1710e	-0.094453916
93	0xbd004792	-0.031318255
94	0xbdc7c586	-0.097544715
95	0xbc51286c	-0.012765985
96	0x3c4e489b	0.012590553
97	0xbc8db658	-0.017298862
98	0x3c817249	0.015801566
99	0x3b322e42	0.0027188216
100	0x3ce81635	0.028330902
101	0xbcb06e57	-0.02153699
102	0x3b3b0693	0.0028537854
103	0xbd44cbbd	-0.048045862
104	0x3d158f23	0.03651346
105	0x3a81034b	0.00098429
106	0xbd6f330b	-0.058398288
107	0x3db40e6d	0.08791814
108	0xbdc8d1ae	-0.09805618
109	0xbc21fe64	-0.009887312
110	0x3c8563d6	0.016282957
111	0xbb083a8f	-0.0020786857
112	0x3c32c2fb	0.010910745
113	0x3c62683a	0.013818795
114	0x3c94c2d8	0.018159315
115	0xbe01f05c	-0.12689346
116	0xbbbbf16e	-0.005735568
117	0x3d4fef99	0.050765608
118	0x3cc60440	0.024171948
119	0xbc7d7416	-0.015469572
120	0xbdf073e8	-0.11740857
121	0xbc75f76f	-0.015012606
122	0xbd407aa4	-0.04699196
123	0xbccce618	-0.025012061
124	0xbd817693	-0.06321444
125	0xbdd743c2	-0.10510971
126	0x3beeb1b5	0.007284368
127	0x3c25fe85	0.010131483
128	0x3d169375	0.03676172
129	0xbd868424	-0.065681726
130	0xbd8a4df7	-0.06753152
131	0xbd3cd70f	-0.046103533
132	0xbc91b7b4	-0.017787792
133	0x38e82778	0.00011069974
134	0x3cc372c8	0.023858443
135	0xbd2bec5f	-0.041973468
136	0xbcd98963	-0.026554769
137	0xbd4bddf4	-0.049772218
138	0xbd116041	-0.035492186
139	0xbd87eb7c	-0.06636712
140	0x3da2cc5c	0.07949135
141	0xbdd431e3	-0.10361078
142	0xbe2e100e	-0.16998312
143	0xbd092a50	-0.033487618
144	0xbc9dda12	-0.019269023
145	0x3c7f3828	0.015577354
146	0xbd7966ba	-0.060888983
147	0x3caf4671	0.021395894
148	0xbd29194a	-0.041283883
149	0x3d7fce0f	0.062452372
150	0x3c89bfbc	0.016815059
151	0x3bef3ba6	0.007300812
152	0xbc04fda3	-0.008117112
153	0x3c59d6b2	0.013295816
154	0x3c09427b	0.008377667
155	0x3cdfd63a	0.02732383
156	0x3cd2b854	0.02572266
157	0x3c849d08	0.01618816
158	0xbdb77f62	-0.08959843
159	0x3ce64cb2	0.028112743
160	0x3a312621	0.0006757696
161	0x3dbd74bc	0.09250781
162	0x3d7ab37a	0.06120632
163	0x3dd97741	0.10618449
164	0x3d439a0d	0.047754336
165	0x3ce0f1d7	0.027459068
166	0x3d99711a	0.074922755
167	0xbc54f13e	-0.01299697
168	0x3dac98fe	0.084276184
169	0x3bc57745	0.006026181
170	0x3dafffcd	0.08593712
171	0x3cebe585	0.028795967
172	0x3d4467af	0.047950443
173	0x3d8f5ef9	0.070005365
174	0x3dd63688	0.1045962
175	0xbc4f5068	-0.012653448
176	0xbb0c11dd	-0.0021372952
177	0x3d4b35da	0.049611904
178	0xbc9e60f5	-0.019333342
179	0x3bfc48c9	0.0076991064
180	0xbcb20477	-0.021730645
181	0x3cb94910	0.022617847
182	0xbb7762f2	-0.0037748185
183	0x3ddd3821	0.10801721
184	0xbc1cd5cb	-0.009572457
185	0xbbfbf78a	-0.007689421
186	0x3d0d343b	0.03447364
187	0xbdb9d944	-0.09074643
188	0x3d727e4a	0.05920247
189	0xba41aec1	-0.0007388406
190	0xbc0f360e	-0.008740915
191	0x3b8ff71d	0.004393472
192	0xbbd506f1	-0.0065010716
193	0xbc6cfc1d	-0.014464405
194	0xbad43bdd	-0.0016192157
195	0x3d8ec06e	0.06970297
196	0xba5c52f7	-0.0008404697
197	0xbd057360	-0.032580733
198	0xbcf4bf5e	-0.029876407
199	0x3b4a9cf6	0.003091631
200	0x3daee9ee	0.08540712
201	0x3daed4fa	0.08536716
202	0x3d51c2d8	0.051211208
203	0x3dea3d53	0.11437478
204	0x3d906fe2	0.0705259
205	0x3dd1d018	0.10244769
206	0xbc9beeca	-0.019034762
207	0xb97544e4	-0.00023390685
208	0xbb701b32	-0.0036637303
209	0x3d1748e3	0.036934745
210	0x3d8f7d25	0.07006291
211	0x3dab28a5	0.08357362
212	0x3c3d7e69	0.011565783
213	0x3c147c90	0.009062901
214	0xbba1dcf3	-0.0049396693
215	0x3dbd2a3f	0.092365734
216	0x3dbf57f5	0.09342948
217	0x3d4cb56c	0.049977705
218	0x3d9b7889	0.0759135
219	0x3db48993	0.08815303
220	0xbd8e3629	-0.06943924
221	0x3d4cd6e0	0.05000961
222	0x3de1e0dd	0.110292174
223	0x3ddc0ba8	0.10744411
224	0x3bef8361	0.0073093628
225	0x3c1ff33e	0.009762583
226	0x3d9a9798	0.075484455
227	0xbd1a7c54	-0.037716225
228	0x3db6b140	0.089205265
229	0xbd2cbea4	-0.042173997
230	0xbc484b04	-0.012224916
231	0xbc50a2b7	-0.012734107
232	0x3c300858	0.010744177
233	0xbb466aa3	-0.0030275963
234	0x3b3fa558	0.002924284
235	0xbd14ac78	-0.03629729
236	0x3b935255	0.0044958987
237	0x3c7488ba	0.014925176
238	0x3d529601	0.051412586
239	0xbd8e4181	-0.06946088
240	0x3b07e3b3	0.0020735085
241	0xba7352dc	-0.00092820614
242	0x3c9efee9	0.01940866
243	0xbc3abab2	-0.011397051
244	0x3c09d9a3	0.008413705
245	0xbd30f758	-0.043204635
246	0xbba3395c	-0.004981203
247	0x3c8134c5	0.015772233
248	0x3c8afb56	0.01696555
249	0x3d4169a6	0.047219895
250	0x3c22c4c8	0.009934612
251	0xbcdb327b	-0.02675747
252	0x3cd588b9	0.026066171
253	0xbae832d1	-0.001771534
254	0xbbeb3eb8	-0.0071791075
255	0xbd348bf4	-0.044078782

bias f4 [80]
0	0x3d5554ca	0.052082814
1	0xbc985f71	-0.018600198
2	0x3d195b9b	0.037440877
3	0x3db44d89	0.08803851
4	0xbd91a409	-0.07111365
5	0x3bc1d0c8	0.0059147812
6	0xba79a9dd	-0.0009523908
7	0xbdd379a0	-0.103259325
8	0xbd44e4d6	-0.048069797
9	0x3d23ae6c	0.039961264
10	0x3d86f312	0.06589331
11	0x3c8aba30	0.016934484
12	0xbdb71b43	-0.08940747
13	0xbd067960	-0.032830596
14	0x3dc2e89a	0.095170215
15	0x3bc83ad2	0.0061105276
16	0x3d831f29	0.06402428
17	0x3c069e4d	0.008216453
18	0x3d9754f6	0.07389252
19	0xbd3582f8	-0.044314355
20	0x3e04f409	0.12983717
21	0xbc1bb3f8	-0.009503357
22	0x3ac24a06	0.0014823086
23	0x3db1ed23	0.08687808
24	0x3d1fed8e	0.03904491
25	0xbdaf1bc8	-0.08550221
26	0xbcfb5d97	-0.030684276
27	0x3d8fd8c9	0.0702377
28	0x3c4a60d0	0.012352183
29	0xbd21d0eb	-0.03950588
30	0xbcc77fef	-0.024352996
31	0xbda2705f	-0.07931589
32	0x3d5aa85e	0.053383224
33	0x3d58d2b3	0.052935313
34	0xbdf75cd2	-0.12078251
35	0xbd01bfec	-0.03167717
36	0x3d2e9833	0.042625617
37	0xbdd982f1	-0.10620678
38	0x3e1facd5	0.15593274
39	0xbccf2fa1	-0.025291266
40	0xbdab8427	-0.083748154
41	0x3cd8b613	0.026454007
42	0x3daa765e	0.08323358
43	0xbc4d5d37	-0.012534431
44	0x3da98da1	0.08278967
45	0xbc6533aa	-0.013989368
46	0xbcb65286	-0.022256147
47	0x3cf18a54	0.029484905
48	0x3d423d08	0.047421485
49	0xbd7bc99b	-0.061471563
50	0xbdc107e2	-0.09425332
51	0xbc8dfe1a	-0.01733308
52	0xbd22c997	-0.039743032
53	0xbdca3317	-0.09873026
54	0x3d2a0c02	0.041515358
55	0xbd5b1870	-0.053490102
56	0x3dfceba1	0.1234963
57	0x3c7f1adc	0.015570369
58	0x3da73f61	0.081663854
59	0x3d0ef29e	0.034899347
60	0x3cca47d8	0.02469246
61	0x3cead48b	0.028665802
62	0x3daed7f4	0.085372835
63	0x3c31059f	0.010804563
64	0xbd218015	-0.03942879
65	0xba9a0065	-0.0011749385
66	0xbd788547	-0.06067398
67	0xbca767e7	-0.020435287
68	0xb98e196e	-0.00027103297
69	0x3cc8f04e	0.024528649
70	0xbe0920fc	-0.13391489
71	0xbc094804	-0.008378986
72	0xbd0f910c	-0.035050437
73	0xbda1c0bc	-0.07898089
74	0xbd9c25b3	-0.07624378
75	0x3d57c76e	0.052680425
76	0x3d5807b6	0.05274173
77	0xbc941c32	-0.01807985
78	0x3c383c6c	0.011244874
79	0x3d34aafb	0.044108372

weight f4 [80, 3, 1]
0	0x3db4872c	0.088148445
1	0x3db18185	0.08667282
2	0x3db0dd51	0.08635963
3	0x3db14369	0.086554356
4	0x3da90754	0.08253351
5	0x3dbb6cf9	0.09151644
6	0xbdbd3737	-0.09239047
7	0xbdc8432f	-0.09778439
8	0xbdc05ff4	-0.093933016
9	0xb92489f3	-0.00015691649
10	0xbd215bfd	-0.039394367
11	0xbc6b4586	-0.014359837
12	0x3dc5729a	0.09640999
13	0x3db9f15b	0.09079238
14	0x3dc3bff6	0.09558098
15	0xbda3c692	-0.07996859
16	0xbd803526	-0.06260137
17	0xbda74a5a	-0.08168478
18	0x3de0412b	0.1094993
19	0x3d9ba079	0.07598967
20	0x3e003e31	0.12523724
21	0xbdbf5216	-0.093418285
22	0xbdc16465	-0.09442977
23	0xbdd35730	-0.10319364
24	0x3debd5b6	0.115153715
25	0x3daaba77	0.083363466
26	0x3e012bc1	0.12614347
27	0x3d9d52c9	0.07681806
28	0x3d575008	0.052566558
29	0x3d89995d	0.06718705
30	0x3daf0f5b	0.08547851
31	0x3d9cb795	0.07652203
32	0x3dbb4923	0.09144809
33	0x3dad2594	0.08454433
34	0x3dbd5167	0.09244042
35	0x3dbd79d0	0.092517495
36	0xbde21e04	-0.11040881
37	0xbd98bee7	-0.07458287
38	0xbde51daf	-0.11187302
39	0xbdb92734	-0.090406805
40	0xbdb9aa62	-0.09065701
41	0xbda7f940	-0.082018375
42	0xbd84e942	-0.06489803
43	0xbd92ee50	-0.07174361
44	0xbdd50d42	-0.10402919
45	0x3da61635	0.081097044
46	0x3d341208	0.04396251
47	0x3dc03603	0.09385302
48	0x3df1e5a1	0.11811376
49	0x3d9ccf01	0.0765667
50	0x3dde0d6b	0.10842403
51	0xbd9fb0f0	-0.0779742
52	0xbd9d386c	-0.07676777
53	0xbda66a08	-0.081256926
54	0x3d9c50e7	0.076326184
55	0x3d9d2bd4	0.07674375
56	0x3db34c50	0.0875479
57	0xbdc33773	-0.095320605
58	0xbdb13047	-0.08651786
59	0xbdb1eade	-0.086873755
60	0x3dba6844	0.09101918
61	0x3d9889e1	0.07448173
62	0x3dd7b61d	0.10532782
63	0x3dd55a9a	0.104176715
64	0x3dd797e4	0.10527018
65	0x3defc6fc	0.11707875
66	0x3db7ea1d	0.089802004
67	0x3d9c8792	0.076430455
68	0x3d9fa828	0.07795745
69	0xbdbbd207	-0.09170919
70	0xbdb04391	-0.08606637
71	0xbdb3e5d4	-0.087840706
72	0xbd8b980d	-0.06816111
73	0xbd697971	-0.05700058
74	0xbd9edcd0	-0.077569604
75	0xbd9bf882	-0.076157585
76	0xbd898eb4	-0.067166716
77	0xbd996305	-0.074895896
78	0xbd96a61a	-0.073559
79	0xbd899b9a	-0.06719132
80	0xbdb189e0	-0.08668876
81	0xbdba049e	-0.09082912
82	0xbd86a1a8	-0.06573802
83	0xbdac7de1	-0.08422447
84	0xbd9c6e86	-0.07638268
85	0xbd81f985	-0.0634642
86	0xbdaaaf81	-0.08334256
87	0xbd9f2a3d	-0.07771728
88	0xbda28653	-0.079357766
89	0xbdd77c95	-0.10521809
90	0x3d91293d	0.07087944
91	0x3d5dd012	0.05415351
92	0x3daebfe1	0.08532692
93	0x3d81284c	0.06306514
94	0x3db2e3aa	0.0873483
95	0x3dc3510c	0.09536943
96	0x3dad8514	0.08472648
97	0x3d93823b	0.07202574
98	0x3dd82922	0.105547205
99	0x3dadde0d	0.084896185
100	0x3d97f349	0.0741945
101	0x3dd122d5	0.10211722
102	0x3dcf6ded	0.101283886
103	0x3dabbf41	0.08386088
104	0x3e06a9f9	0.13150777
105	0xbddfa337	-0.10919803
106	0xbdb03ad3	-0.0860497
107	0xbde52ca1	-0.11190153
108	0x3daa690f	0.083208196
109	0x3da60bf0	0.08107746
110	0x3d93382b	0.071884476
111	0xbdcafffa	-0.09912105
112	0xbd86b0aa	-0.06576665
113	0xbda6d6f6	-0.08146469
114	0x3cbdd72f	0.023173897
115	0xbc2b0b30	-0.010439679
116	0x3ca410c9	0.020027535
117	0x3db17c5e	0.08666299
118	0x3db2164e	0.086956605
119	0x3da497d9	0.08036775
120	0x3ddef46a	0.10886462
121	0x3db0a93c	0.08626029
122	0x3df29691	0.118451245
123	0x3d7fcfa6	0.06245389
124	0x3dae1991	0.0850097
125	0x3ddda7b5	0.10823003
126	0x3d8196fb	0.06327625
127	0x3d4048d7	0.046944465
128	0x3dbdd9d0	0.0927006
129	0x3de8cb43	0.11366894
130	0x3dd74e58	0.1051299
131	0x3dcd30a6	0.100190446
132	0xbdaa73ae	-0.083228454
133	0xbd6111cb	-0.05494861
134	0xbdb0415b	-0.086062156
135	0x3db18fd8	0.08670014
136	0x3dbf1427	0.09330016
137	0x3dfddc5f	0.12395548
138	0x3dcf1d56	0.10113017
139	0x3dc18005	0.09448246
140	0x3d9765d9	0.07392473
141	0x3dc833ce	0.09775506
142	0x3dac7ea9	0.08422596
143	0x3da46298	0.08026618
144	0x3da8b7ac	0.08238158
145	0x3dc22688	0.094800055
146	0x3da9c14d	0.08288822
147	0xbd815552	-0.06315102
148	0xbd6e5b12	-0.05819232
149	0xbda60012	-0.08105482
150	0x3da93778	0.08262533
151	0x3d912b94	0.0708839
152	0x3dbd3741	0.092390545
153	0xbdb746b6	-0.08949034
154	0xbd7ac2f9	-0.061221097
155	0xbdba2342	-0.09088756
156	0xbddaa430	-0.106758475
157	0xbda64fc3	-0.08120682
158	0xbdd538c4	-0.10411218
159	0xbdad4fb5	-0.084624685
160	0xbda513e8	-0.080604374
161	0xbda557ad	-0.080733635
162	0xbdcfd552	-0.101481095
163	0xbda60a2f	-0.08107411
164	0xbdd15366	-0.10220985
165	0xbd883f67	-0.06652718
166	0xbd967c17	-0.07347887
167	0xbdbcbbfd	-0.092155434
168	0x3db2db7a	0.08733268
169	0x3d98c72c	0.07459864
170	0x3dc8dd2d	0.09807811
171	0x3de6fd77	0.11278813
172	0x3dc33156	0.095308945
173	0x3e05e679	0.130762
174	0xbc5526b6	-0.013009718
175	0xbca5b1fd	-0.020226473
176	0x3c676d40	0.014125168
177	0xbdd44049	-0.10363824
178	0xbda9f66d	-0.08298955
179	0xbdf663fa	-0.12030788
180	0x3e000d9f	0.12505196
181	0x3dcad629	0.09904129
182	0x3ddaebaf	0.10689484
183	0x3e01af3b	0.12664501
184	0x3dcf5922	0.101244226
185	0x3df12688	0.117749274
186	0xbdd41333	-0.103552245
187	0xbdb3a9ac	-0.08772597
188	0xbdd9cd66	-0.1063488
189	0x3da20b9c	0.079123706
190	0x3d977960	0.07396197
191	0x3da385af	0.079844825
192	0x3d9687ef	0.07350146
193	0x3d94e157	0.07269543
194	0x3d8daaaf	0.06917321
195	0x3dffe5ae	0.1249498
196	0x3de4c8bf	0.11171102
197	0x3e06145f	0.13093708
198	0xbd9d49be	-0.07680081
199	0xbd8bc597	-0.06824797
200	0xbdc2fe3b	-0.09521147
201	0x3db5e29d	0.08881114
202	0x3dc8b8be	0.09800862
203	0x3db0a337	0.08624881
204	0x3e041549	0.12898745
205	0x3e009786	0.12557802
206	0x3dc890ad	0.0979322
207	0x3de5e84f	0.1122595
208	0x3dbb772b	0.09153589
209	0x3dad6ea3	0.08468368
210	0xbd5c40e2	-0.053772815
211	0xbd56f6dd	-0.05248152
212	0xbdbd242f	-0.09235417
213	0xbbf376fe	-0.0074299565
214	0x3b7a9ae9	0.0038239306
215	0xbc696808	-0.014245994
216	0xbdb49314	-0.088171154
217	0xbdae8e1c	-0.08523199
218	0xbde66524	-0.1124976
219	0x3d6ad3e6	0.05733099
220	0x3da54c52	0.080711976
221	0x3daf1da4	0.085505754
222	0x3dd7a9de	0.105304465
223	0x3dd07e37	0.101803236
224	0x3dee8de6	0.11648159
225	0xbda477ca	-0.080306605
226	0xbda45a80	-0.08025074
227	0xbd9c7daf	-0.0764116
228	0xbde823e6	-0.11334972
229	0xbda04dc7	-0.07827335
230	0xbdc15804	-0.09440616
231	0x3c48c44e	0.012253834
232	0xba33ae79	-0.00068543066
233	0x3c6d8b90	0.014498606
234	0xbd8054a1	-0.06266142
235	0xbd911aef	-0.07085215
236	0xbd9a6dff	-0.07540511
237	0x3e257c6b	0.16160743
238	0x3e177394	0.14790183
239	0x3e232a88	0.15934193

bias f4 [80]
0	0x3e6b3170	0.22968078
1	0x3def3cc4	0.11681512
2	0xbee9df97	-0.45678398
3	0xbeb994ff	-0.36246487
4	0x3e902642	0.28154188
5	0xbe8ea231	-0.27858117
6	0x3ec482b8	0.3838098
7	0xbecad0a4	-0.39612305
8	0x3ed47fd8	0.41503787
9	0xbe896cf2	-0.2684093
10	0x3e5d2379	0.21595563
11	0x3e38f2e5	0.18061407
12	0xbee70051	-0.4511743
13	0xbe944e6d	-0.28966084
14	0xbe233c5e	-0.15940997
15	0x3ca1b9ad	0.019741857
16	0x3e893346	0.2679693
17	0xbe778a10	-0.2417376
18	0x3daf972d	0.08573756
19	0xbe9df1ed	-0.30848637
20	0xbe848c68	-0.2588837
21	0x3eb08a3a	0.34480458
22	0xbe0ba8f1	-0.13638665
23	0xbf0080f7	-0.50196785
24	0x3bcd0885	0.006257119
25	0xbdd0693f	-0.10176324
26	0x3e0a2a3e	0.13492677
27	0xbe9a0cbb	-0.30087838
28	0x3bcc5f97	0.006236981
29	0xbe95009f	-0.29102036
30	0xbe9cf28d	-0.30653802
31	0x3e0d7ebb	0.13817875
32	0x3e332746	0.1749545
33	0x3ddde69c	0.10835001
34	0x3f038388	0.51372576
35	0x3d22600b	0.039642375
36	0x3d7b6fc0	0.06138587
37	0xbdbd61d8	-0.09247178
38	0xbf00891c	-0.5020921
39	0x3e5c3750	0.21505475
40	0x3ed359e2	0.41279513
41	0x3d8d9723	0.06913593
42	0xbed2c60a	-0.41166717
43	0x3ef7d0ea	0.48401576
44	0x3dcdf0ad	0.10055671
45	0x3eae9b90	0.3410306
46	0x3e7a7502	0.24458697
47	0x3dce6e21	0.10079599
48	0xbe1beb72	-0.15226534
49	0x3dc131ee	0.094333515
50	0x3e4922d4	0.19642192
51	0xbd3fa37e	-0.046786778
52	0xbebb8cc4	-0.36630833
53	0xbe99df4e	-0.3005318
54	0xbf059cdf	-0.5219249
55	0xbe712f87	-0.23553286
56	0xbda7027a	-0.08154769
57	0x3ee683a8	0.4502232
58	0xbe8d5562	-0.27604204
59	0xbf0fc195	-0.5615476
60	0x3e9b141f	0.3028879
61	0x3ee9ffd5	0.45702997
62	0xbee26ced	-0.4422373
63	0x3c0d48bb	0.008623297
64	0x3e3886c4	0.18020159
65	0x3eb156fc	0.34636676
66	0xbdf9ceb7	-0.12197631
67	0x3e8022ca	0.25026542
68	0x3ed2d441	0.41177562
69	0x3ea18b83	0.31551751
70	0x3e7d0805	0.2471009
71	0x3e95c88b	0.29254565
72	0xbf012fc4	-0.5046351
73	0x3e042067	0.12902986
74	0x3ed6fab2	0.4198814
75	0xbecedb6d	-0.40401784
76	0xbf011868	-0.50427866
77	0xbece5b3f	-0.4030399
78	0x3e189f98	0.1490463
79	0x3ef865cf	0.48515174

weight f4 [80, 80, 2]
0	0xbc5abb4a	-0.013350317
1	0xbc486c79	-0.012232893
2	0xbc8723f3	-0.016496634
3	0xbbf8d13e	-0.007593303
4	0xba9f628a	-0.0012160104
5	0x3c8d2ecc	0.017234229
6	0xbc8728d3	-0.016498959
7	0x3b806083	0.003917755
8	0xbb8df948	-0.004332695
9	0x3b97aded	0.004628888
10	0xbc1951aa	-0.009357849
11	0x3c7ae0a3	0.015312347
12	0xb9f7c684	-0.00047259417
13	0xbbff289f	-0.007786825
14	0x3b49cbef	0.003079172
15	0x3c506cda	0.012721265
16	0xbb3afcc8	-0.0028532017
17	0x3c55ea48	0.013056345
18	0xbbfc1992	-0.007693478
19	0xbb185b43	-0.0023247756
20	0xbc93d307	-0.018044962
21	0xbc0123e6	-0.007882094
22	0xbc67b4a6	-0.014142191
23	0xbbacb737	-0.0052708643
24	0xbc35aac7	-0.01108808
25	0x3b1bf066	0.0023794412
26	0x3c833c48	0.016019955
27	0x3be6cdc0	0.0070435703
28	0xbc01ce2e	-0.007922692
29	0xbc01af67	-0.007915354
30	0xbc57a639	-0.013162189
31	0xb9d9e7f7	-0.00041562293
32	0xbc4dc2db	-0.012558664
33	0xbcf78679	-0.030215489
34	0xbbb823f6	-0.0056195213
35	0x3cb14962	0.021641437
36	0xbcbc9c91	-0.023023875
37	0xbbeca86a	-0.007222225
38	0x3a7db474	0.00096780737
39	0x3b9c31d3	0.0047666817
40	0x3a125cd0	0.0005583288
41	0x3d9d4ad1	0.07680286
42	0x3ca69090	0.020332605
43	0x3b987b19	0.0046533463
44	0x3c2eccd4	0.010668952
45	0x3dae80d1	0.085206635
46	0x39045181	0.00012618864
47	0xbb10779c	-0.002204395
48	0xbbec5fd3	-0.0072135716
49	0xbc9d914e	-0.019234326
50	0x3bffc5c2	0.007805557
51	0x3b811adf	0.003939971
52	0xbbb9f592	-0.005675026
53	0xbb310693	-0.0027011975
54	0x3ae6bf33	0.0017604589
55	0xbb18c483	-0.002331049
56	0xbc95671e	-0.018237647
57	0xbbbaed1d	-0.0057045356
58	0xbc15b90d	-0.009138358
59	0x3c361196	0.011112591
60	0xbc95d560	-0.018290222
61	0xbb8543f1	-0.004066937
62	0x3c8bfa4e	0.017087128
63	0xbbc7c2ee	-0.0060962355
64	0xbcbc0707	-0.02295257
65	0xbbbe1a2d	-0.0058014602
66	0x3c0284f5	0.00796627
67	0xbc1b577c	-0.009481307
68	0x3c9dcc03	0.01926232
69	0xbbcca62e	-0.006245396
70	0xbc011bb2	-0.007880138
71	0xbcca8887	-0.024723304
72	0xbc355bd9	-0.0110692615
73	0x3b635a3a	0.003469123
74	0xbc9eeec8	-0.01940097
75	0xb98d8732	-0.00026994344
76	0x3b280ff6	0.002564428
77	0xbc20193d	-0.009771642
78	0xbbd5fe40	-0.006530553
79	0xbc9e3700	-0.019313335
80	0x3be667eb	0.007031431
81	0xbc15bcb3	-0.009139228
82	0x3c4734d7	0.012158594
83	0xbbc6a2f6	-0.006061907
84	0xbbde072a	-0.0067757564
85	0xbcc36eeb	-0.0238566
86	0x3c55ddd2	0.013053374
87	0x3c14ca92	0.0090815
88	0x3bf37bdb	0.007430536
89	0xb91eba39	-0.00015137428
90	0xbc9f69ec	-0.019459687
91	0xbbcbc7da	-0.0062188925
92	0xbbcc4fc8	-0.0062350966
93	0xbc62f529	-0.013852396
94	0x3ba38b19	0.004990947
95	0xbc303773	-0.010755408
96	0x3ca20003	0.019775396
97	0x3d461c07	0.048366573
98	0xbb4844e8	-0.003055865
99	0xbbbd3b7a	-0.0057749124
100	0x3c2ae23b	0.010429914
101	0x3b825c71	0.003978305
102	0xbd3cf7f1	-0.046134893
103	0xbd723f8c	-0.059142634
104	0x3c12f7ac	0.008970182
105	0xb9bf8cd6	-0.0003653529
106	0xbbd3ecdd	-0.0064674453
107	0x3be6593c	0.0070296805
108	0x3c7e38a5	0.015516435
109	0xbb96083c	-0.0045786183
110	0x3b128e8e	0.0022362801
111	0xbae12712	-0.0017177782
112	0xbbc17cb9	-0.0059047607
113	0x3c021063	0.007938477
114	0xbbdf7565	-0.0068194144
115	0xbaa63626	-0.0012680932
116	0xbcdf38cd	-0.027248764
117	0x3bb47a87	0.0055077705
118	0xbc42e2bc	-0.011894878
119	0x3c100884	0.008791093
120	0xbbd5be28	-0.0065229125
121	0xbb7053a8	-0.0036670957
122	0x3ca321dd	0.019913608
123	0xbcba8c41	-0.022771956
124	0x3c4c94b9	0.01248663
125	0xbb86471a	-0.0040978314
126	0xbca9cb65	-0.020726869
127	0xbc0841a7	-0.008316434
128	0xbc6a1727	-0.0142877465
129	0x3ade0a3b	0.0016940305
130	0xbc12b0f0	-0.008953318
131	0xbc9a8f06	-0.018867027
132	0xbc62b190	-0.0138362795
133	0x3aaa71ba	0.0013003864
134	0x3c5810e9	0.013187625
135	0xbb0b72fc	-0.0021278253
136	0x3bb4332e	0.005499265
137	0xbb9770c2	-0.004621596
138	0xbc3eeae3	-0.011652681
139	0xbcce65be	-0.025194999
140	0xbc84e6a4	-0.01622326
141	0xbb9f5e75	-0.004863555
142	0xbc5fdcc1	-0.013663472
143	0xbbb61071	-0.005556159
144	0x3c07501f	0.008258848
145	0x3c8b4187	0.01699902
146	0xbbfd3b56	-0.0077280207
147	0xbb33318c	-0.0027342765
148	0x3c807d5a	0.015684772
149	0xbbb49196	-0.0055105193
150	0x3caa31d0	0.020775706
151	0x3c71665a	0.014733875
152	0xbc45db04	-0.012076143
153	0xbb32d75a	-0.0027289004
154	0xbc3bdd0a	-0.011466274
155	0xbc248383	-0.01004112
156	0xba9feef9	-0.0012201957
157	0x3c83c1ea	0.016083676
158	0xbb80fc61	-0.003936336
159	0xba78e3ca	-0.00094943924
160	0x3c1d07b3	0.009584355
161	0xbd0d09e2	-0.034433253
162	0x3cb3f7a4	0.02196867
163	0xbc7d3d7b	-0.015456553
164	0x3c898083	0.016784912
165	0xbbcce754	-0.0062531624
166	0x3babb062	0.0052395323
167	0x3c304d70	0.01076065
168	0xbbe06911	-0.0068484624
169	0xbc71c5c4	-0.014756624
170	0x3c731d9b	0.014838601
171	0x3c8aa16d	0.016922677
172	0x3b0051ec	0.001958008
173	0xbce4c037	-0.027923686
174	0xbaf0a64c	-0.0018360107
175	0xbb99d46d	-0.0046945126
176	0x3bfe5680	0.0077617764
177	0xbbc090e3	-0.005876647
178	0x3b7edbff	0.0038888452
179	0x3c1a5986	0.009420758
180	0xbc043392	-0.008068936
181	0x3b8cbe88	0.004295174
182	0xbbe7737e	-0.0070633283
183	0xbc65d711	-0.014028327
184	0xbc837274	-0.016045786
185	0xbc229e1b	-0.009925391
186	0xba99d1d1	-0.0011735504
187	0x3c9335ca	0.017969985
188	0x3b5b145a	0.0033428879
189	0xbc13903b	-0.009006555
190	0x3ce42307	0.027848734
191	0xbc38408c	-0.011245858
192	0x3b6a3c87	0.0035741644
193	0xbc8c0f12	-0.01709703
194	0xbad4b4b2	-0.0016228168
195	0x3cdc06ea	0.026858766
196	0x3a9b6ad1	0.0011857395
197	0xbc88b7db	-0.016689232
198	0x3a9a15b7	0.0011755739
199	0x3c7ee078	0.015556447
200	0x3d170924	0.03687395
201	0x3c9f5133	0.019447898
202	0xbc0f7700	-0.008756399
203	0xbbda9614	-0.0066707227
204	0x3d5145b6	0.051091872
205	0x3c48619d	0.012230304
206	0xbb382dc7	-0.0028103457
207	0x3bf2627c	0.007396994
208	0xbce1ac09	-0.027547853
209	0xbcbebc7c	-0.023283236
210	0x3b8ede62	0.004360006
211	0x3c2c075d	0.010499802
212	0x3b502be5	0.0031764444
213	0xbc956c05	-0.018239984
214	0xbb4c3ed1	-0.0031165371
215	0x3c9372e3	0.017999118
216	0xbc8a8711	-0.016910108
217	0xbcdbcd81	-0.02683139
218	0xbb80584a	-0.003916775
219	0x3c00bc72	0.007857429
220	0x3ae73450	0.0017639492
221	0xbc7adb83	-0.015311125
222	0x3c14425c	0.009049024
223	0xba952b8c	-0.0011380776
224	0x3cb459ee	0.022015538
225	0xbce022c7	-0.027360333
226	0x3ad2a206	0.0016070015
227	0x3c2725c8	0.010201879
228	0xbc4fa5e5	-0.01267383
229	0x3c1766e2	0.009240838
230	0xbbd75b5a	-0.0065721693
231	0xbd2b7398	-0.041858286
232	0x3b9ffb0d	0.0048822225
233	0xbc187b45	-0.0093067335
234	0xbc3f33ef	-0.011670097
235	0x3b21fbae	0.0024716663
236	0xba0921f6	-0.0005231196
237	0xbc1c5d91	-0.009543792
238	0x3bfe1311	0.0077537377
239	0x3c03b0e2	0.008037778
240	0xbc85208e	-0.016250875
241	0x3ba3c9b9	0.0049984124
242	0x3c4d68e4	0.012537215
243	0xbc399b6d	-0.01132856
244	0x3c561c1a	0.013068223
245	0x39fdd908	0.0004841762
246	0x3c285bb2	0.010275768
247	0xbd0c4ccd	-0.03425293
248	0x3c6444da	0.013932431
249	0xbcdc7c95	-0.026914874
250	0xbac80885	-0.0015261328
251	0xbcafa237	-0.021439655
252	0x3bf11e1a	0.0073583247
253	0x3bea9c2f	0.007159732
254	0xbc3513e8	-0.011052109
255	0xbc8cd5c6	-0.017191779

bias f4 [80]
0	0x3d8bf05f	0.068329565
1	0x3c564277	0.01307737
2	0x3cc59049	0.024116652
3	0xbd913e5c	-0.07091972
4	0x3b8c2bd0	0.004277684
5	0x3d265a65	0.04061355
6	0xbcbaaa68	-0.022786334
7	0x3c3a1ade	0.011358945
8	0xbd50c21c	-0.050966367
9	0x3d0dde40	0.034635782
10	0xbd109c1d	-0.03530513
11	0x3c83452f	0.0160242
12	0xbd5b9908	-0.05361274
13	0xbbd1f2e3	-0.006407128
14	0x3d9732d6	0.07382743
15	0xbd3c2eaf	-0.04594296
16	0xbd88b1e7	-0.06674557
17	0x3d1da2ad	0.038485218
18	0xbd88b739	-0.06675572
19	0x3a285d02	0.00064225507
20	0xbd8c94a0	-0.068642855
21	0xbd8613cd	-0.065467454
22	0xbda0bef0	-0.078489184
23	0x3caf5cf5	0.02140663
24	0xbc0ae71b	-0.008477951
25	0xbd8d10b0	-0.068879485
26	0xbda47fec	-0.08032212
27	0x3c89337f	0.016748188
28	0x3d1a96ab	0.037741344
29	0xbd2c92fb	-0.04213236
30	0x3c7a5ae0	0.015280455
31	0x3d815ee2	0.063169256
32	0x3d51040b	0.051029246
33	0x3d501f2e	0.050810985
34	0x3cf22192	0.029557023
35	0x3d12a9cd	0.035806466
36	0xbda94e57	-0.08266895
37	0xbd9a04e4	-0.07520464
38	0xbd74521e	-0.059648626
39	0x3d7ec809	0.062202487
40	0x3d896a77	0.0670976
41	0x3d93ee34	0.07223168
42	0xbd039cce	-0.032131962
43	0xbdabcfd2	-0.08389248
44	0xbd87d8dc	-0.066331595
45	0x3d53a587	0.05167153
46	0x3c94c22e	0.018158998
47	0x3d84a98e	0.064776525
48	0x3caa271e	0.020770606
49	0xbd05de2f	-0.032682594
50	0xbdae3aa9	-0.08507282
51	0xbd14752e	-0.036244564
52	0x3c9e1489	0.019296901
53	0x3bc272f6	0.0059341146
54	0xbd274092	-0.040833063
55	0xbc5d8ad2	-0.013521867
56	0xbd41db17	-0.04732808
57	0x3d0a34f6	0.033741914
58	0xbd85c440	-0.06531572
59	0xbc972957	-0.01845233
60	0x3c1c0087	0.00952161
61	0xbd644f90	-0.05573994
62	0xbcb5bca6	-0.022184681
63	0xbd8f5a58	-0.069996536
64	0xbb07cda6	-0.0020721941
65	0x3c20fb5c	0.009825554
66	0xbd09d9c5	-0.033654947
67	0x3d156d61	0.036481265
68	0xbd0f42d8	-0.034975857
69	0x3d011359	0.031512592
70	0x3d1a17c0	0.037620306
71	0xbd0a7d5b	-0.033810955
72	0x3d244f0e	0.040114455
73	0x3d46a9b3	0.04850168
74	0xbd237977	-0.03991076
75	0x3c2b33fc	0.010449406
76	0x3d8a1752	0.06742729
77	0x3d696a6e	0.056986265
78	0xbc2b7aa1	-0.010466249
79	0x3d5777c9	0.05260447

weight f4 [80, 80, 2]
0	0xbd3197a4	-0.043357506
1	0xbd04a4f7	-0.032383885
2	0xbd2c433b	-0.042056303
3	0xbd3a037f	-0.04541349
4	0xbd1df2a1	-0.038561467
5	0xbd03ede4	-0.032209292
6	0xbb9e6f7d	-0.004835068
7	0xbc97051d	-0.018435055
8	0xbd42f85b	-0.04760013
9	0xbd005f1f	-0.031340715
10	0xbc924fd9	-0.01786034
11	0xbc2b810f	-0.010467782
12	0xbb89ce80	-0.004205525
13	0xbb1805c0	-0.0023196787
14	0xbd23f580	-0.04002905
15	0xbd432b6c	-0.047648832
16	0xbd0a9315	-0.033831675
17	0xbbf4a684	-0.0074661393
18	0xbc47937b	-0.012181158
19	0xbc8842d4	-0.016633429
20	0xbd166789	-0.036719833
21	0xbd37699e	-0.04477846
22	0xbc8c0c4e	-0.017095711
23	0xbb8c7474	-0.004286343
24	0xbd4b6f14	-0.04966648
25	0xbd5cedea	-0.05393783
26	0xb8a89595	-8.038726e-05
27	0x3b152b2d	0.002276133
28	0xbd458cbe	-0.048229925
29	0xbd043e78	-0.032286137
30	0xbcf2f70d	-0.029658819
31	0xbc625a86	-0.013815528
32	0x3c05abf1	0.00815867
33	0x3d5691a6	0.052384995
34	0xbcda9af7	-0.026685221
35	0xbc6b0f75	-0.014346947
36	0xbc6deb31	-0.014521406
37	0xbcc69461	-0.024240674
38	0xbd86fc7a	-0.06591125
39	0xbc905d6e	-0.017622676
40	0x3b60a0ae	0.003427546
41	0x3c075f7d	0.008262512
42	0x3cdcbb2d	0.026944721
43	0x3ce02314	0.027360477
44	0xbb75520c	-0.0037432937
45	0x3b59ab38	0.0033213627
46	0xbd0a232e	-0.033724956
47	0xbcf831d0	-0.03029719
48	0xbc165d96	-0.009177586
49	0xbafb6605	-0.0019180184
50	0x3bac6ca5	0.005261975
51	0x39abb2cf	0.00032748884
52	0xbc2f2b56	-0.010691484
53	0xbcb3fe72	-0.021971915
54	0xbd23bbe3	-0.039974105
55	0xbd00cca5	-0.031445164
56	0xbd6701ff	-0.056398388
57	0xbd5931f4	-0.053026155
58	0xbc66feab	-0.0140988035
59	0xbbb3750a	-0.0054765986
60	0xbd0751dd	-0.033037055
61	0xbd285340	-0.04109502
62	0xbd38800e	-0.045043997
63	0xbd0a9b60	-0.033839583
64	0xbcbd4564	-0.023104377
65	0xbbff3de0	-0.0077893585
66	0xbcef9d50	-0.029249817
67	0xbd2dc6da	-0.042425968
68	0xbd606701	-0.054785732
69	0xbd13222e	-0.03592127
70	0xbd49f112	-0.04930217
71	0xbcad8929	-0.021183567
72	0x3a9f25cf	0.0012142005
73	0x3bb29309	0.005449657
74	0x3c8d0f46	0.017219197
75	0x3caa582a	0.020793993
76	0xbc75c288	-0.014999993
77	0xbceda10d	-0.029007459
78	0xbce12f5b	-0.027488401
79	0xbd03adf3	-0.032148313
80	0xbd5e6734	-0.05429764
81	0xbd3a73b3	-0.045520496
82	0xbcc843de	-0.024446424
83	0xbcee2c78	-0.029073939
84	0x3c349fc0	0.0110244155
85	0x3ccde0d9	0.02513163
86	0xbc0053f7	-0.007832519
87	0x3c866edc	0.016410284
88	0xbd17149b	-0.036884885
89	0xbd372cbc	-0.044720396
90	0xbd358c5c	-0.04432331
91	0xbb79354f	-0.003802616
92	0xbd799f05	-0.06094267
93	0xbd0484ce	-0.032353215
94	0xbd54480f	-0.051826533
95	0xbd8236c0	-0.06358099
96	0xbd6d5c61	-0.057949428
97	0xbd31d38e	-0.043414645
98	0xbd203590	-0.03911358
99	0xbd3ecfa1	-0.04658473
100	0x3b176f50	0.002310712
101	0x3c144bb7	0.009051255
102	0xbb9cdf77	-0.0047873813
103	0xbc8c01dd	-0.017090732
104	0x3c1e5a29	0.009665051
105	0xb98b7b52	-0.00026604027
106	0xbd7770a3	-0.060410153
107	0xbd2540b1	-0.040344898
108	0xbd0f8c85	-0.03504612
109	0xbcfa1a4a	-0.030530114
110	0xbc4c241e	-0.012459783
111	0xb8e877d2	-0.0001108494
112	0xbd759bd6	-0.05996307
113	0xbd0e123e	-0.034685366
114	0xbda87fc3	-0.082274936
115	0xbca17d47	-0.019713057
116	0xbd413f71	-0.047179643
117	0xbd14c34a	-0.036319055
118	0xbcb5b917	-0.022182984
119	0xbca58003	-0.020202642
120	0xbd159646	-0.036520265
121	0xbce02917	-0.027363343
122	0xbb13ef88	-0.0022573192
123	0x3b844929	0.0040370417
124	0xbd0d9e0e	-0.03457456
125	0xbd3461da	-0.04403863
126	0x3cae5b5a	0.021283794
127	0x3cce5ebf	0.025191663
128	0xbd546731	-0.051856223
129	0xbd641267	-0.055681612
130	0xbb986964	-0.0046512354
131	0x3a013bdd	0.000492988
132	0xbd0de369	-0.034640703
133	0xbd1c5f60	-0.038176894
134	0xbd7069f4	-0.058694795
135	0xbd14767a	-0.0362458
136	0xbd9138fd	-0.07090948
137	0xbbf62d1f	-0.007512703
138	0xbb07d56f	-0.0020726582
139	0xbb0df226	-0.0021659224
140	0xbd76502e	-0.06013506
141	0xbcde11fd	-0.027108187
142	0xbc58585a	-0.013204658
143	0xbcad9f1a	-0.02119403
144	0xbcffd24b	-0.031228205
145	0xbd4f9ea3	-0.050688397
146	0xbd8a97eb	-0.06767257
147	0xbd39f2e8	-0.04539767
148	0xbc8f2ec5	-0.017478356
149	0xb93fa39f	-0.00018276133
150	0xbd780462	-0.060551055
151	0xbd110901	-0.035408977
152	0xbd51f81f	-0.051262017
153	0xbcb0bd00	-0.021574497
154	0xbd43bdb3	-0.047788333
155	0xbd154b5e	-0.03644883
156	0x3c6b578d	0.014364135
157	0x3c95229c	0.01820498
158	0xbd168def	-0.036756452
159	0xbd16ec6c	-0.036846563
160	0xbd678078	-0.056519
161	0xbd59a6e5	-0.05313768
162	0xbd8ee798	-0.06977767
163	0xbcfa218d	-0.030533576
164	0xbd5f6728	-0.054541737
165	0xbd547f41	-0.05187917
166	0xbcb157c3	-0.021648293
167	0x3be111d2	0.0068685794
168	0xbd78b65e	-0.060720794
169	0xbd6cf5ed	-0.05785172
170	0xbcd43a9e	-0.025906857
171	0x3cb06653	0.021533167
172	0xba7b883c	-0.00095951906
173	0x3be2a8f3	0.006917113
174	0xbdbcad41	-0.09212733
175	0xbd2fb88c	-0.042900607
176	0xbc4d6401	-0.01253605
177	0x3bcef4f2	0.006315821
178	0xbc6f714b	-0.0146144135
179	0xbcca255b	-0.024676016
180	0xbd3ee5e5	-0.046605963
181	0xbd43fc09	-0.04784778
182	0xbbe14067	-0.0068741324
183	0x3c88956b	0.01667281
184	0xbde20d0c	-0.11037645
185	0xbd5152a7	-0.051104214
186	0xbc4816f7	-0.0122125065
187	0x3c836a8b	0.016042015
188	0xbd8d69e6	-0.06904964
189	0xbd0b02b0	-0.03393811
190	0xbce796f6	-0.028270226
191	0xbcb096e3	-0.021556323
192	0x3aae28a1	0.0013287255
193	0x3ce34aa9	0.027745562
194	0xbd48930b	-0.048968356
195	0xbd07c149	-0.033143315
196	0xbcf85b81	-0.03031707
197	0x3b890c0e	0.0041823452
198	0xbd764994	-0.060128763
199	0xbd25105b	-0.0402988
200	0x3c23807e	0.009979365
201	0x3d644580	0.055730343
202	0x382d792c	4.1359264e-05
203	0x3cb1325c	0.021630459
204	0x3b91216c	0.004429033
205	0x3ccc9ef7	0.024978144
206	0xbd70e615	-0.058813173
207	0xbd4d76c0	-0.050162077
208	0xbb92ec30	-0.004483722
209	0xbc029966	-0.007971143
210	0x3b061d50	0.002046425
211	0x3d3e689a	0.046486475
212	0xbc5b0390	-0.013367549
213	0xbcfc90f7	-0.030830843
214	0xbd82f4cc	-0.063943475
215	0xbd0d763c	-0.034536585
216	0xbdc5f2e5	-0.09665469
217	0xbd57d30a	-0.052691497
218	0xbc61c5e6	-0.013780093
219	0x3a927b0a	0.0011175585
220	0xbd35de50	-0.044401467
221	0xbd4df6a5	-0.050284047
222	0xbd2fd76e	-0.04293006
223	0xbd699eb1	-0.057036106
224	0xbcdd7998	-0.02703552
225	0xbd1fcb88	-0.039012462
226	0xbd3ac67b	-0.045599442
227	0xbd833065	-0.06405715
228	0xbdd997df	-0.1062467
229	0xbd8e8331	-0.069586165
230	0xbd34fc57	-0.044185963
231	0xbd378383	-0.044803154
232	0xbc3fdd16	-0.011710426
233	0x3cd7150c	0.026255153
234	0x3bb78583	0.0056006326
235	0x3b89babe	0.0042031696
236	0x3ce9611b	0.028488686
237	0x3cf16f74	0.02947209
238	0xbd1110ff	-0.0354166
239	0xbd0f4448	-0.034977227
240	0xbd4d2967	-0.050088312
241	0xbd53e958	-0.051736206
242	0xbd4f3489	-0.05058721
243	0xbce700b1	-0.028198572
244	0x3c5e6795	0.013574501
245	0x3d23ba75	0.03997274
246	0x3bf55386	0.0074867634
247	0x3d0eb58e	0.034841113
248	0xbda4ae08	-0.08041006
249	0xbd52ecfe	-0.051495545
250	0xbd0aad2d	-0.03385656
251	0xbd38faa2	-0.045160897
252	0xbd839679	-0.06425185
253	0xbcd9a419	-0.026567506
254	0xbdaca6e3	-0.084302686
255	0xbd8543fc	-0.065071076

bias f4 [80]
0	0xbc9cde4f	-0.019148974
1	0xbd1a8f3d	-0.03773426
2	0x3c2da645	0.010598724
3	0xbd9245c7	-0.07142215
4	0xbd955c65	-0.072930135
5	0xbd897a17	-0.0671274
6	0x3c65f784	0.014036063
7	0x3ccbdfb4	0.024886943
8	0xbd745106	-0.059647582
9	0x3b01ad3f	0.00197871
10	0xbd8d1236	-0.06888239
11	0x3d178b52	0.0369981
12	0xbcdef364	-0.027215667
13	0x3c4f69d7	0.0126595115
14	0xbd79f8f7	-0.061028447
15	0xbd150050	-0.03637725
16	0xbd43e196	-0.047822557
17	0xbc9cf038	-0.019157514
18	0xbe030011	-0.12792994
19	0xbc806829	-0.015674667
20	0xbcc59d79	-0.02412294
21	0xbde64b22	-0.11244799
22	0x3d22ff3d	0.039794195
23	0x3d88698d	0.06660757
24	0xbb02eb46	-0.001997666
25	0x3b89fe0a	0.004211192
26	0x3c0c874c	0.008577179
27	0xbda84adb	-0.082174025
28	0x3d7b557d	0.061360825
29	0x3c49fd7a	0.0123285
30	0x3d6558b8	0.055992812
31	0xbd539d20	-0.051663518
32	0xbde491e6	-0.111606404
33	0xbde06e8a	-0.10958584
34	0x3b70193c	0.0036636135
35	0xbd4da096	-0.050201975
36	0xbda87092	-0.08224596
37	0xbc559a19	-0.013037228
38	0xbd2da5ed	-0.042394567
39	0xbdc674dc	-0.09690258
40	0xbcf22daf	-0.0295628
41	0xbd8766e8	-0.06611425
42	0x3d78c9d9	0.060739372
43	0xbbc86995	-0.006116102
44	0xbc17fef5	-0.009277095
45	0xbdfa83b4	-0.12232152
46	0xbbd7c634	-0.006584907
47	0xbdeaa172	-0.114565745
48	0xbdb73808	-0.08946234
49	0x3c547010	0.012966171
50	0xbdc66db9	-0.09688897
51	0x3d89734d	0.06711445
52	0xbc5e0517	-0.013551018
53	0xbc889f08	-0.016677395
54	0x3d02dd53	0.031949352
55	0x3c8dc2f1	0.01730487
56	0xbd37084a	-0.04468564
57	0xbdc0b5ea	-0.09409697
58	0x3d2260f8	0.039643258
59	0xbcd537c7	-0.026027573
60	0xbd69230e	-0.056918196
61	0xbd8b8838	-0.06813091
62	0xbd9175c5	-0.07102541
63	0xbdeee3a9	-0.116645165
64	0xbdcbeabf	-0.09956884
65	0xbe3f8248	-0.18702042
66	0xbd93a3cc	-0.07208976
67	0x3d062735	0.032752234
68	0xbcbdf99e	-0.023190316
69	0xbe0a2984	-0.134924
70	0xbd8726bb	-0.06599184
71	0xbb97576b	-0.0046185753
72	0x3c37a28a	0.011208186
73	0x3d54cdf7	0.051954236
74	0xbca69bc9	-0.020337956
75	0xbc0e3d77	-0.008681647
76	0xbd023818	-0.031791776
77	0xbda5bbec	-0.08092484
78	0xbd932dd1	-0.07186473
79	0xbe12ce0a	-0.1433641
