GAN/PM Generator/PM_epochs=500_seq=127_batch=29.pth (torch, 675018 bytes, 31 tensors)

weight f4 [1, 80, 1]
0	0x3c38645a	0.011254394
1	0x3bd37911	0.006453641
2	0xbd2b5a88	-0.041834384
3	0x3cdaa8bf	0.026691793
4	0xbd0001d7	-0.031251755
5	0xbc81103c	-0.015754811
6	0x3c12e15b	0.008964862
7	0xbcb1bc88	-0.021696344
8	0x3c98790d	0.018612409
9	0xbb8514c0	-0.0040613115
10	0xbc28edd6	-0.010310611
11	0x3c078dee	0.008273585
12	0x3c45663b	0.012048299
13	0x3c8a5f4e	0.016891148
14	0x3c91caa7	0.017796827
15	0xbb203307	-0.0024444477
16	0x3c2a6a22	0.010401281
17	0xbc5a93a5	-0.013340865
18	0x3c7ef515	0.015561362
19	0xbcefaf74	-0.029258467
20	0xbb34c8ff	-0.0027585623
21	0x3c658bd6	0.01401039
22	0xbcd8b387	-0.026452793
23	0xbc23263b	-0.009957845
24	0xbccf9d4a	-0.025343556
25	0x3ba4e110	0.0050317124
26	0x3b11df97	0.0022258514
27	0x3a24fb1e	0.0006293523
28	0x3c1cc068	0.009567358
29	0xbc13c5b0	-0.0090193
30	0xbcf862b1	-0.030320497
31	0x3c2ca560	0.010537475
32	0x3bd2648d	0.006420678
33	0xbc827fa3	-0.015930003
34	0xbcb3dab8	-0.02195488
35	0xbd2e3f8d	-0.042541075
36	0xbcc8472d	-0.024448002
37	0x3c22139b	0.00989237
38	0x3c6b95c8	0.014378972
39	0x3c42164f	0.011846139
40	0x3d024012	0.031799383
41	0xbcf3d2cb	-0.0297636
42	0xbc25831c	-0.01010206
43	0xb81ec14a	-3.785015e-05
44	0x3cb1ecf6	0.021719437
45	0xbc4e549b	-0.012593414
46	0xbd22bb22	-0.039729245
47	0xb8990075	-7.295694e-05
48	0xbcadcd39	-0.021216022
49	0x3cfd62ec	0.030930959
50	0xbd0e9e57	-0.034818973
51	0xba2be33f	-0.00065569946
52	0x3c1c6176	0.009544721
53	0x3c019221	0.007908375
54	0x3bfcdeff	0.007717013
55	0x3c3c70ff	0.01150155
56	0xbcc0a850	-0.023517758
57	0x3a9dacad	0.0012029611
58	0x3c418998	0.01181259
59	0x3ca9a7b7	0.020709855
60	0xbcd37b64	-0.025815673
61	0x3afa7608	0.0019108662
62	0xbcc03c9a	-0.023466397
63	0x3bcdbeee	0.006278864
64	0xbc159df1	-0.009131894
65	0xbcd2aec7	-0.025718106
66	0xbcfdb68d	-0.030970836
67	0x3c63a005	0.013893132
68	0xbcffc49c	-0.03122168
69	0x3c9bfcd4	0.019041456
70	0xbc1f1f39	-0.009712034
71	0xbc9a9f2a	-0.018874723
72	0x3c3a7423	0.011380228
73	0xbce354f4	-0.02775047
74	0xb91e9716	-0.00015124338
75	0xbc8eac4a	-0.017416138
76	0x3bf10fd2	0.0073566223
77	0x3be44884	0.0069666523
78	0xbc69ac3b	-0.014262254
79	0xbcc9f227	-0.0246516

weight f4 [80, 3, 1]
0	0xbd230a4d	-0.039804745
1	0x3d1c3128	0.038132817
2	0xbd1dd822	-0.0385362
3	0xbd15b79a	-0.03655205
4	0x3d76725f	0.060167667
5	0xbd7261f8	-0.05917546
6	0xbd833095	-0.06405751
7	0x3d87c649	0.06629617
8	0xbdb52e0c	-0.08846673
9	0x3d1fc050	0.039001763
10	0xbd0c50f9	-0.03425691
11	0x3d088196	0.033326708
12	0x3d218ea8	0.03944269
13	0xbd03be13	-0.03216369
14	0x3d183537	0.037160125
15	0x3bdb9d3b	0.006702093
16	0x3c41a846	0.011819905
17	0xbc6fa499	-0.0146266455
18	0xbd1d9588	-0.038472682
19	0x3d38a093	0.04507501
20	0xbd33b6b8	-0.043875426
21	0xbd791c40	-0.060817957
22	0x3d8019d9	0.0625493
23	0xbd7ed26b	-0.06221239
24	0x3d95cde6	0.07314663
25	0xbd722dbe	-0.059125654
26	0x3d868d6d	0.065699436
27	0x3d8b06aa	0.067883804
28	0xbd87f06f	-0.06637656
29	0x3d822ac6	0.06355815
30	0xbd61ba79	-0.055109475
31	0x3d9cc7df	0.0765531
32	0xbd59bb9e	-0.05315744
33	0x3d244e03	0.04011346
34	0xbd5c62ef	-0.053805288
35	0x3d259772	0.040427633
36	0x3d06ee6b	0.032942217
37	0xbb9f6443	-0.004864247
38	0x3aba627a	0.0014220022
39	0xbd54369d	-0.051809896
40	0x3d86b8a3	0.065781854
41	0xbd264319	-0.040591333
42	0x3cf12c1d	0.02943998
43	0xbd2d9bc5	-0.04238488
44	0x3d331a32	0.043726154
45	0xbd9d029d	-0.07666514
46	0x3d715953	0.058923077
47	0xbdae62f0	-0.085149646
48	0x3d4e17ce	0.05031567
49	0xbd4d4439	-0.05011389
50	0x3d646f6a	0.055770315
51	0xbbaa2f4b	-0.005193626
52	0x3bcc370d	0.0062321485
53	0x3b09c4c5	0.0021021825
54	0xbdae4f46	-0.08511214
55	0x3d96bdae	0.07360397
56	0xbd826142	-0.06366207
57	0x3d32fe2b	0.043699425
58	0xbd3baf61	-0.04582155
59	0x3d4332c4	0.047655836
60	0xb9a216ea	-0.0003091612
61	0xbc231b54	-0.009955246
62	0xbca1b1ac	-0.01973804
63	0x3d34e9cd	0.044168282
64	0xbd933e35	-0.071895994
65	0x3d8cf35d	0.06882355
66	0xbd1cd148	-0.038285524
67	0x3d4fce92	0.05073411
68	0xbd0eb6f0	-0.03484243
69	0x3d2385f5	0.039922673
70	0xbcdc1bee	-0.026868787
71	0x3d0433f4	0.03227611
72	0x3d37e4e5	0.044896025
73	0xbd035783	-0.03206588
74	0x3d0dffe5	0.03466787
75	0xbc99aadc	-0.01875823
76	0xbb8d46ef	-0.0043114345
77	0xbbe03578	-0.0068423115
78	0xbce3091a	-0.0277143
79	0x3d1c453b	0.03815196
80	0xbd54575d	-0.05184113
81	0xbd347587	-0.044057395
82	0x3d64d554	0.055867508
83	0xbd3b0d4e	-0.045666985
84	0x3d3aaf52	0.045577355
85	0xbd0b9c02	-0.034084328
86	0x3d324a4d	0.04352789
87	0xbd9ca6f5	-0.07649032
88	0x3d83946f	0.06424796
89	0xbd95301a	-0.07284565
90	0xbd85a824	-0.06526211
91	0x3d87d6dc	0.06632778
92	0xbd395534	-0.04524727
93	0xbc8f5f37	-0.017501457
94	0xbd22b27f	-0.03972101
95	0xbcb07101	-0.02153826
96	0x3d1e5df7	0.03866383
97	0xbd177481	-0.03697634
98	0x3d41aa03	0.047281276
99	0x3d28bd8a	0.041196384
100	0xbcf629c6	-0.030049216
101	0x3d0c2255	0.03421243
102	0x3cff9094	0.03119687
103	0xbcd2b589	-0.025721328
104	0x3d49a06f	0.049225267
105	0xbd3ddb45	-0.04635169
106	0x3d8935e6	0.066997334
107	0xbdb8c3c7	-0.090217166
108	0x3d8024d2	0.06257023
109	0xbdb91e82	-0.09039022
110	0x3d4ad566	0.04951992
111	0x3ccd571b	0.02506595
112	0xbcc6698b	-0.024220249
113	0x3d3205e7	0.04346266
114	0xbd83f620	-0.06443429
115	0x3d9c2e7d	0.076260544
116	0xbd435143	-0.04768492
117	0x3d3bb20b	0.045824092
118	0xbd50515f	-0.05085885
119	0x3d39b16a	0.04533521
120	0xbd0b6b64	-0.034037963
121	0x3d68499b	0.05671082
122	0xbd4ddda0	-0.050260186
123	0x3d29de43	0.04147173
124	0xbd5b1041	-0.053482298
125	0x3d5451cc	0.05183582
126	0xbd8515af	-0.064982764
127	0x3d6e25cd	0.05814152
128	0xbd3b9738	-0.04579851
129	0xbd066f9a	-0.032821275
130	0x3ceeb22d	0.029137695
131	0xbd607b7a	-0.054805256
132	0x3d0d26fa	0.034461
133	0xbd816a53	-0.06319108
134	0x3d77434e	0.06036692
135	0xbcd90e9f	-0.02649623
136	0x3db86164	0.09002951
137	0xbda64609	-0.08118827
138	0xbd00ab40	-0.031413317
139	0x3d2a7c5a	0.041622497
140	0xbcfe1402	-0.0310154
141	0xbd2fdcf9	-0.042935345
142	0x3d2f4f93	0.042800497
143	0xbd3c67e3	-0.04599751
144	0x3cedf7f2	0.029048894
145	0xbdaefda8	-0.08544475
146	0x3d1e5ea2	0.038664468
147	0x3d040243	0.03222872
148	0xbd043d63	-0.032285105
149	0x3d2d42f6	0.042300187
150	0x3d437d94	0.047727183
151	0xbd6513a9	-0.055926953
152	0x3d3b9add	0.045801986
153	0xbd10dd81	-0.035367493
154	0x3d20cb2f	0.03925627
155	0xbd86bcb1	-0.06578959
156	0x3d1449ff	0.03620338
157	0xbd5cc23d	-0.053896178
158	0x3d5ba1db	0.053621154
159	0xbd9dbe31	-0.07702292
160	0x3d636c35	0.055523116
161	0xbd88ef3e	-0.06686257
162	0xbd39b6ed	-0.045340467
163	0x3d86ef29	0.06588585
164	0xbd7ebc83	-0.062191498
165	0x3dad0a15	0.084491886
166	0xbd92be72	-0.07165231
167	0x3db08317	0.086187534
168	0x3d148e4e	0.036268525
169	0xbd363cf0	-0.04449171
170	0x3cb7ae17	0.02242188
171	0xbd54a0a9	-0.05191103
172	0x3cd472ac	0.025933586
173	0xbd21534f	-0.03938609
174	0xbd248d8a	-0.040174045
175	0x3d508941	0.050912146
176	0xbd814f31	-0.06313933
177	0xbd3d5e1f	-0.04623234
178	0x3d299f7f	0.041411873
179	0xbd389bf7	-0.045070615
180	0x3d5cc10e	0.05389505
181	0xbd95723e	-0.072971806
182	0x3d66ec66	0.05637779
183	0x3d518439	0.051151488
184	0xbd6653b4	-0.05623217
185	0x3d73b81a	0.059501745
186	0x3d1163a6	0.035495423
187	0xbd64aadc	-0.055827007
188	0x3d205375	0.03914209
189	0xbd415bd5	-0.04720672
190	0x3ce6fd69	0.028197007
191	0xbd340d31	-0.043957893
192	0x3d7d47b3	0.061835956
193	0xbd6d8c2e	-0.057995014
194	0x3d0fdced	0.0351228
195	0x3d037311	0.032092158
196	0xbcd3ece0	-0.025869787
197	0x3d4d043a	0.05005286
198	0xbd442e8f	-0.047895964
199	0x3cba118b	0.022713443
200	0xbbdf654a	-0.0068174945
201	0xbd542f6b	-0.051803034
202	0x3d2f05e4	0.042730227
203	0xbd826c2c	-0.063682884
204	0xbccc6f17	-0.024955316
205	0x3c116b96	0.008875748
206	0x3b24618a	0.0025082552
207	0x3d24a028	0.0401918
208	0xbd833de6	-0.064082906
209	0x3d2e031d	0.042483438
210	0xbd304e7f	-0.04304361
211	0x3da04733	0.0782608
212	0xbd80a8f4	-0.06282225
213	0x3d372c61	0.044720057
214	0xbd0bce63	-0.034132373
215	0x3cf0e6d5	0.029406944
216	0x3d302105	0.04300024
217	0xbd01264c	-0.031530663
218	0x3d03b379	0.03215358
219	0x3d4b3a13	0.04961593
220	0xbd69bc8d	-0.05706458
221	0x3d3bb556	0.045827232
222	0x3cff407b	0.031158676
223	0xbc881852	-0.01661316
224	0x3cc7d61a	0.024394084
225	0x3d50487d	0.05085038
226	0xbd3496b3	-0.04408903
227	0x3ce8366c	0.028346263
228	0xbc78dc6f	-0.015189274
229	0xbca8ab08	-0.020589367
230	0x3c2703f0	0.01019381
231	0xbd4a2275	-0.049349267
232	0x3d67987b	0.0565419
233	0xbd116d06	-0.035504363
234	0x3d695c0a	0.05697254
235	0xbd4d3949	-0.05010346
236	0x3d1f677d	0.038917053
237	0x3d093665	0.03349914
238	0xbccb6c72	-0.024831984
239	0x3d47bf10	0.048766196

bias f4 [80]
0	0xbe793a93	-0.2433875
1	0xbea4165e	-0.32048315
2	0xbeed5a55	-0.4635798
3	0x3dda08a4	0.10646179
4	0x3ca96b20	0.020680964
5	0xbc10f5eb	-0.008847694
6	0xbea90df5	-0.3301846
7	0xbeba7ebb	-0.36424813
8	0x3e8f421e	0.2798013
9	0x3ef6b3e7	0.4818413
10	0xbed682b0	-0.41896582
11	0x3e566ea5	0.20940645
12	0x3df8663d	0.121288754
13	0xbebe656c	-0.37186754
14	0x3eb2fcfd	0.3495864
15	0xbeba7ab4	-0.3642174
16	0x3ef54333	0.4790283
17	0x3c898c96	0.01679067
18	0xbe79b7a9	-0.24386467
19	0x3f104150	0.5634966
20	0x3e3be92d	0.18350668
21	0x3f0dd08b	0.55396336
22	0xbe28fc68	-0.16502535
23	0x3db08860	0.086197615
24	0x3dbc8826	0.09205656
25	0x3db7901b	0.08963033
26	0xbf01fb5a	-0.5077416
27	0xbea390e6	-0.31946486
28	0x3d040536	0.032231532
29	0xbe60de87	-0.21959887
30	0xbf063cc3	-0.52436465
31	0xbbfb53e7	-0.007669914
32	0x3f028812	0.50988877
33	0x3ea6776a	0.3251298
34	0x3dbbcc23	0.09169795
35	0xbe4abc2a	-0.19798341
36	0x3ebb8a9d	0.3662919
37	0x3dd90151	0.10595954
38	0xbecdd736	-0.40203255
39	0x3eb94183	0.36182794
40	0xbea98de0	-0.33116055
41	0x3e9e863a	0.30961782
42	0xbe9bce1f	-0.30430695
43	0xbe2f6631	-0.17128827
44	0x3eb20d26	0.34775656
45	0xbe021927	-0.12704907
46	0xbe788d2a	-0.242726
47	0xbe3e873b	-0.18606274
48	0x3eb43117	0.35193703
49	0x3e61f327	0.22065412
50	0x3e85caaf	0.26131198
51	0xbef9357e	-0.48673624
52	0x3f0be4f8	0.54646254
53	0xbed0975b	-0.40740475
54	0xbeaeaaaf	-0.34114596
55	0x3ee7c5f0	0.45268202
56	0x3e80fcc3	0.25192842
57	0xbf077bf6	-0.52923524
58	0xbf047458	-0.51740026
59	0xbe876880	-0.26446915
60	0x3ee13131	0.43982843
61	0x3e95b332	0.29238278
62	0x3edd8c1c	0.43270957
63	0xbe9b930b	-0.30385622
64	0x3e5134f6	0.20430359
65	0x3d0c3c7b	0.034237366
66	0xbd2d87aa	-0.042365707
67	0xbe9889a8	-0.29792523
68	0xbee0f5ee	-0.4393763
69	0x3e8a05c8	0.26957536
70	0xbd94b5c6	-0.07261233
71	0x3e6adedd	0.22936578
72	0x3e7cd488	0.24690449
73	0x3ebe78e2	0.372016
74	0x390d9a26	0.00013504233
75	0x3e840308	0.25783563
76	0x3ef86e92	0.48521858
77	0xbe8cffb6	-0.27538842
78	0x3e9f0008	0.3105471
79	0x3de9bb18	0.114126384

weight f4 [80, 80, 1]
0	0x3a0708f9	0.00051511783
1	0xbb866308	-0.004101161
2	0x3ba76515	0.0051084855
3	0xbbc38bbe	-0.0059675863
4	0xbc3d1729	-0.011541166
5	0xbc0fa2c0	-0.00876683
6	0x3cbbb68c	0.022914194
7	0xbca7514c	-0.020424508
8	0x3c2807ba	0.010255748
9	0xbb9891b6	-0.004656042
10	0xbc18eeea	-0.009334305
11	0xbaf70f73	-0.0018849209
12	0x382dee8a	4.146857e-05
13	0xbaef0075	-0.0018234389
14	0xbca8c0e2	-0.020599786
15	0x3b2351cd	0.0024920583
16	0x39902a4b	0.0002749733
17	0x3be20076	0.0068970276
18	0xbbbad8b7	-0.005702104
19	0xbc615028	-0.013752021
20	0x3c22f014	0.009944934
21	0xbc2742a4	-0.010208759
22	0xbc07ce05	-0.008288865
23	0x3c12be4c	0.008956503
24	0xbb4e222e	-0.0031453478
25	0xbbf99070	-0.0076160952
26	0x3ced296c	0.028950416
27	0x3a2e380d	0.00066459255
28	0xbc94e6c5	-0.018176446
29	0xbbd4c0a5	-0.0064926916
30	0x3ca2ef14	0.019889392
31	0x3cd9f94b	0.02660813
32	0xbc640f2c	-0.013919633
33	0xbc8357c0	-0.016033053
34	0xbc88af08	-0.016685024
35	0xbc4b82ae	-0.012421293
36	0xbc7e77e9	-0.0155315185
37	0xbc074f6a	-0.00825868
38	0x3bcc29bf	0.0062305625
39	0xbbd1b8b3	-0.0064001917
40	0x3c890ebb	0.016730657
41	0xb7f1f8c4	-2.884528e-05
42	0xbc544cbb	-0.012957747
43	0xbb94374e	-0.0045231944
44	0xbbbd2b0d	-0.0057729543
45	0xbc857e5b	-0.016295603
46	0xbba99bfa	-0.0051760646
47	0x3bfe069f	0.007752254
48	0x3b371b1b	0.002793974
49	0xbc84afdb	-0.016197136
50	0xbb466a35	-0.0030275707
51	0x3c8f0bd6	0.017461699
52	0xbcb1c202	-0.021698955
53	0xbbb3a7a5	-0.0054826313
54	0xbac58b38	-0.0015071398
55	0xbbf03d82	-0.007331551
56	0x398785d3	0.00025848913
57	0xbb39b49d	-0.0028336414
58	0x3b8c3908	0.0042792596
59	0x3ac67de7	0.0015143723
60	0xbbe8ebaf	-0.007108174
61	0xbc5dffd1	-0.013549761
62	0xbbf407e6	-0.0074472306
63	0x3c6823e5	0.014168714
64	0xbc81c3e6	-0.015840482
65	0xbc0ee13a	-0.00872069
66	0x3ba9be29	0.0051801396
67	0xbc3e15a8	-0.011601843
68	0xbafc89d4	-0.001926715
69	0xbc4285f6	-0.011872759
70	0xbb177b65	-0.002311432
71	0xbcb5429a	-0.022126485
72	0x3adcf7b0	0.0016858485
73	0xbcc1341c	-0.023584418
74	0xbcd97646	-0.026545655
75	0xbc80ea4c	-0.015736721
76	0x3b0ff776	0.0021967567
77	0x3b9d6f62	0.0048045376
78	0xba2efaf9	-0.0006674971
79	0xbbd2595d	-0.0064193443
80	0xbc10f6ec	-0.008847933
81	0xbc95cdb6	-0.018286567
82	0xbbeb9bfd	-0.007190226
83	0x3cae8500	0.021303654
84	0x38bf5a84	9.1244496e-05
85	0x3c867e7f	0.01641774
86	0xbb0d6b92	-0.002157901
87	0xbc687be3	-0.014189693
88	0x3cda1477	0.026621087
89	0x3c5bb566	0.013409948
90	0xbc93028a	-0.017945547
91	0x3ca97191	0.020684035
92	0xbb1d864d	-0.0024036348
93	0xbca1c36d	-0.019746507
94	0x3c1633e8	0.009167649
95	0xbcf54dc6	-0.029944312
96	0x39a51471	0.00031486482
97	0x3ca618eb	0.020275554
98	0xbcf47fbe	-0.029846068
99	0x3c3a933a	0.011387641
100	0x3c6142a5	0.013748799
101	0x3b9c6954	0.0047732983
102	0xbcb33ce0	-0.021879613
103	0xbb2968f0	-0.00258499
104	0x3cddbcc4	0.02706755
105	0x3c27662d	0.010217232
106	0xbc9f0ba9	-0.01941474
107	0xba87408b	-0.0010318918
108	0x3c535ac5	0.012900059
109	0xbc931bde	-0.017957624
110	0xbd061e79	-0.032743905
111	0x3cb3ed21	0.021963658
112	0xbad6b7b8	-0.0016381657
113	0x3ba13606	0.00491977
114	0x3c9e0a42	0.019292
115	0xbcac79b5	-0.021054128
116	0x3c4a8184	0.0123599805
117	0x3c856e96	0.016288083
118	0xbcd0bd84	-0.025480993
119	0x3c98dc6b	0.018659791
120	0xbc433898	-0.0119153485
121	0x3c2bb670	0.010480508
122	0xbc7a6369	-0.01528249
123	0xbcb3db2b	-0.021955093
124	0x3b9c5608	0.004770998
125	0xbca4a676	-0.020098906
126	0xbc7ae540	-0.0153134465
127	0xb9ab6ec0	-0.00032698177
128	0x3c2868ec	0.010278922
129	0x3c1514b6	0.009099176
130	0x3b6f66aa	0.0036529698
131	0xbc868ee9	-0.016425567
132	0x3c513da9	0.012771049
133	0xbd3496e9	-0.04408923
134	0xbc82232d	-0.015885914
135	0x3b37bd4b	0.0028036411
136	0x3c9446b5	0.018100122
137	0xbcd9d574	-0.02659104
138	0xbc8d6437	-0.0172597
139	0xbc357762	-0.011075826
140	0x3c3cab58	0.011515461
141	0x3c8a6734	0.016894914
142	0x3b4dac55	0.0031383235
143	0xbc9fe610	-0.019518882
144	0x3cdd6dc9	0.027029889
145	0xba4e01b4	-0.000785853
146	0x3b94314a	0.0045224773
147	0xbd0c58e9	-0.03426448
148	0xbca98e58	-0.020697758
149	0x3bc950e5	0.0061436766
150	0xbd057a08	-0.03258708
151	0x3cd75006	0.026283275
152	0x3c3a3d31	0.011367128
153	0x3c7c0c75	0.015383829
154	0xbc41c414	-0.011826534
155	0x3d405856	0.046959244
156	0x3cb0d47a	0.021585692
157	0x3bb78d3f	0.0056015546
158	0x3b8939db	0.004187805
159	0x3b7b2520	0.0038321689
160	0x3c433418	0.011914276
161	0x3b9e0717	0.0048226225
162	0x3c37e889	0.011224874
163	0xbc8cc57a	-0.017184008
164	0x3c70bc13	0.014693278
165	0xbcd9f0be	-0.026604053
166	0x3c92be5e	0.01791304
167	0x3c4c1460	0.01245603
168	0x3b503889	0.0031771979
169	0xbd1d2c9e	-0.03837263
170	0x3c748052	0.014923172
171	0xbc5fd85b	-0.013662423
172	0xbc8d4246	-0.017243516
173	0x3b8a0fcf	0.0042133103
174	0xba310a40	-0.00067535415
175	0x3c78dbe8	0.0151891485
176	0xbcce391f	-0.025173722
177	0xbd29c141	-0.041444067
178	0x3c96caf4	0.018407322
179	0x3bf95d93	0.007610032
180	0xbd00b304	-0.031420723
181	0xbb470384	-0.0030367086
182	0x3ca5fdff	0.020262716
183	0xbc15a43d	-0.009133396
184	0xbb32beb5	-0.0027274315
185	0xbc6d4119	-0.0144808525
186	0x3cc07f9e	0.023498353
187	0x3c44989b	0.011999275
188	0x3bd8e0b9	0.006618586
189	0x3cb992f7	0.022653086
190	0x3afc5fd1	0.001925463
191	0xbcfabf76	-0.030608874
192	0xbba9ffd6	-0.0051879687
193	0x3b91fcda	0.004455191
194	0xba885c05	-0.00104034
195	0x3d0450d1	0.032303635
196	0xbcc6db1b	-0.0242744
197	0xbc34adb2	-0.01102774
198	0x3c337166	0.010952329
199	0xbc50684e	-0.012720181
200	0xbbaec7f0	-0.005333893
201	0xbc9683e2	-0.018373434
202	0x3c66ba1d	0.014082459
203	0x3b914385	0.004433098
204	0xbc83077b	-0.015994778
205	0x3cec2cb2	0.028829906
206	0x3c01c7fe	0.007921217
207	0x3c90856e	0.01764175
208	0x3b0d2495	0.0021536697
209	0xbd02ba03	-0.031915676
210	0xbc9dc274	-0.019257762
211	0x3c2033f3	0.009778011
212	0xbbcbcba3	-0.0062193437
213	0x3c50caf0	0.012743697
214	0x3c602e6d	0.013682944
215	0xbc7462aa	-0.0149161015
216	0x3a527b82	0.00080292684
217	0x3c7c2610	0.015389934
218	0x3c970fd7	0.01844017
219	0x3c662c4d	0.014048648
220	0xbcc6ac88	-0.024252191
221	0x3916fd16	0.00014399397
222	0xbb671b52	-0.0035264087
223	0x3c38d6bd	0.011281666
224	0xbc11c2c8	-0.008896537
225	0xbb89ab34	-0.004201317
226	0xbc8388ea	-0.016056497
227	0x3c884f68	0.016639426
228	0x3d157f15	0.036498148
229	0xbbae701b	-0.0053234226
230	0x3d28ba67	0.041193392
231	0xbba42c5d	-0.0050101713
232	0xbc9b8323	-0.01898343
233	0xbb056ad8	-0.0020357873
234	0x3c3894f7	0.011265985
235	0x3a86617c	0.0010252441
236	0xbc40c305	-0.011765246
237	0x3ce38cef	0.027777163
238	0xbc470ea8	-0.01214949
239	0xbb6cd7d3	-0.0036139383
240	0xbb18617c	-0.0023251465
241	0xbc8a17b7	-0.016857011
242	0xbbe5786c	-0.007002881
243	0x3c0b4c22	0.008502038
244	0xbc201b31	-0.009772108
245	0xbcad72ae	-0.021172848
246	0xbc0c9a4d	-0.00858171
247	0xbc1a619d	-0.009422687
248	0x3c6f73c6	0.014615005
249	0xbc968564	-0.018374152
250	0xbc7178f4	-0.01473831
251	0xb93427f4	-0.00017181021
252	0x3cd3e388	0.025865331
253	0xbc5df8de	-0.013548104
254	0x3b821f1f	0.003970995
255	0xbbf9e6ee	-0.007626406

bias f4 [80]
0	0xbd50f83b	-0.05101798
1	0xbcd9850a	-0.026552696
2	0xbd417819	-0.047233675
3	0xbd5b9d4a	-0.0536168
4	0xbd00d83b	-0.031456213
5	0xbdc924fc	-0.09821507
6	0x3d5ab1b3	0.053392123
7	0xbdbeaefe	-0.09310721
8	0xbd422e85	-0.047407646
9	0x3d3ab02e	0.045578174
10	0xbd6c7d9c	-0.057736978
11	0xbdd4dd82	-0.10393812
12	0x3dc5b656	0.096539184
13	0x3da7fc5e	0.08202432
14	0x3d627456	0.055286728
15	0xbda00c0c	-0.07814798
16	0xbdfa0349	-0.12207658
17	0x3d5e432c	0.05426328
18	0xbc95ae88	-0.0182717
19	0x3d4aab16	0.049479567
20	0xbdf98ef6	-0.12185471
21	0xbdb8585f	-0.090012304
22	0xbe054304	-0.13013846
23	0xbdcbf12b	-0.099581085
24	0xbcf374e1	-0.029718818
25	0xbcd77d9e	-0.026305016
26	0x3dbbbc15	0.09166733
27	0x3d08082e	0.033210926
28	0xbd04c901	-0.032418255
29	0xbd63383f	-0.055473562
30	0xbbd22fac	-0.0064143743
31	0x3da56f1c	0.08077833
32	0xbd0571d4	-0.032579258
33	0xbdc19c28	-0.094536126
34	0xbd805973	-0.06267061
35	0x3d94d037	0.07266276
36	0xbdf2350a	-0.11826523
37	0x3c7fb6ad	0.015607518
38	0xbdb22d55	-0.08700053
39	0x3db546f2	0.08851422
40	0xbda016dd	-0.07816861
41	0x3d49d06b	0.04927103
42	0xbd68ee60	-0.056867957
43	0xbdb90bf1	-0.09035481
44	0x3d2597f2	0.04042811
45	0xbd89912c	-0.067171425
46	0x3ca6f81e	0.020381983
47	0x3ceef1ad	0.029167974
48	0xbd2465c7	-0.040136125
49	0xbd7ef1b8	-0.06224224
50	0x3dc99d2b	0.098444305
51	0x3d0d4039	0.034485076
52	0x3de54d58	0.11196393
53	0x3d15adda	0.03654275
54	0x3db2b304	0.08725551
55	0x3d346bb9	0.044048045
56	0x3d09089a	0.03345547
57	0x3d0fe30d	0.035128642
58	0xbcbe1daa	-0.023207504
59	0x3ccd72c6	0.025079142
60	0xbdbe3e7f	-0.09289264
61	0x3dff222d	0.124576904
62	0xbe0a64d0	-0.1351502
63	0xbd4f055c	-0.05054222
64	0xbdc3d399	-0.095618434
65	0xbe05a630	-0.13051677
66	0xbd578367	-0.05261555
67	0xbdd184f3	-0.10230436
68	0x3d6dca58	0.0580543
69	0xbdbf7590	-0.09348595
70	0xbd703a4a	-0.05864934
71	0xbdffa98c	-0.124835104
72	0x3c7fabc2	0.015604915
73	0xbdb2dc7e	-0.08733462
74	0x3d922d15	0.07137505
75	0xbc2f73ba	-0.010708744
76	0xbb809a61	-0.0039246534
77	0xbd2045bd	-0.039129008
78	0x3d32944e	0.043598466
79	0xbce001b6	-0.027344566

weight f4 [80, 3, 1]
0	0xbc5af312	-0.013363617
1	0x3b6eb0b7	0.0036421248
2	0xbc34ffdf	-0.011047333
3	0xbd763414	-0.06010826
4	0x3d36c893	0.044624876
5	0xbd454de9	-0.048170004
6	0x3d494537	0.049138274
7	0xbd65012e	-0.05590933
8	0x3d1dfb07	0.038569476
9	0xbbb7c0c8	-0.005607698
10	0x3bb67be8	0.00556897
11	0x3b06e3dd	0.0020582594
12	0x3c61559b	0.01375332
13	0xbc9521cc	-0.018204592
14	0x3ca5786a	0.02019902
15	0x3cb7a02a	0.02241524
16	0xbca22780	-0.019794226
17	0x3c79c313	0.015244263
18	0xbd37d18c	-0.044877574
19	0x3d661480	0.056171894
20	0xbcef25eb	-0.029192885
21	0x3d43be54	0.047788933
22	0xbd70828f	-0.05871826
23	0x3d5ffcd4	0.054684475
24	0xbcc97fbd	-0.024597043
25	0x3cde57e4	0.027141519
26	0xbd059323	-0.032611024
27	0x3c260626	0.010133302
28	0xbd493614	-0.04912384
29	0x3cb75304	0.022378452
30	0x3bbc38d7	0.0057440805
31	0xbc43f51d	-0.011960295
32	0x3cbae950	0.02281633
33	0xbd24adee	-0.040204935
34	0x3c90497a	0.017613161
35	0xbcd944b6	-0.026522022
36	0xbbcd2881	-0.006260932
37	0x3ca35354	0.019937195
38	0xbc61ed42	-0.013789477
39	0xbcce95ac	-0.025217853
40	0x3c3edffb	0.011650081
41	0xbce398c0	-0.027782798
42	0xbd16c7d6	-0.036811672
43	0x3ce5dd89	0.028059738
44	0xbca09b27	-0.019605232
45	0x3c8d2b8b	0.017232677
46	0xbc969b41	-0.018384578
47	0x3cbd7bb5	0.023130277
48	0x3c98d766	0.018657397
49	0xbaa42867	-0.0012524248
50	0x3be90654	0.00711135
51	0x3d0dd9b4	0.034631446
52	0xbd2fdb65	-0.04293384
53	0x3d57483b	0.05255912
54	0xbbfbc1a5	-0.0076829963
55	0x3bde2842	0.0067797014
56	0xbb52ffe4	-0.003219598
57	0x3d345814	0.04402931
58	0xbd31d203	-0.043413173
59	0x3d3a9fc9	0.04556254
60	0xba9f542d	-0.0012155824
61	0xbc779e1e	-0.015113382
62	0x3b3010a1	0.002686538
63	0xbc3ed37e	-0.011647103
64	0xba8ae9b2	-0.0010598211
65	0xbb0d2c51	-0.0021541307
66	0x3cd3c914	0.025852717
67	0xbd3dbb46	-0.046321176
68	0x3d213ab4	0.039362624
69	0x3c1f3992	0.009718316
70	0xbc93f1b8	-0.018059596
71	0x3c10020e	0.008789552
72	0x3d5397bd	0.05165838
73	0xbcff77e6	-0.031185102
74	0x3d558aee	0.052134447
75	0xbd03db6a	-0.03219167
76	0x3d113f57	0.035460796
77	0xbcec9c60	-0.02888316
78	0xbcf70f83	-0.030158764
79	0x3d508ae4	0.050913706
80	0xbcda13dd	-0.0266208
81	0xbcf29cd5	-0.029615799
82	0x3d1d7571	0.03844208
83	0xbced9f25	-0.02900655
84	0xbd20ab38	-0.039225787
85	0x3cd8b511	0.026453527
86	0xbd23a044	-0.039947763
87	0x3d08c85d	0.033394206
88	0xbbb4a81b	-0.005513204
89	0x3c131f04	0.008979563
90	0x3d202330	0.039096057
91	0xbc99a2c5	-0.018754372
92	0x3d05f7cb	0.032707017
93	0xbd65415c	-0.055970535
94	0x3d300948	0.0429776
95	0xbd4abe56	-0.049497925
96	0xbbab9e1c	-0.005237354
97	0xbbc7ea7f	-0.006100952
98	0x3ba9bee3	0.005180226
99	0x3cb56d41	0.022146823
100	0xbc323c5d	-0.01087865
101	0x3cdabb53	0.026700651
102	0x3d5ac318	0.053408712
103	0xbd231100	-0.039811134
104	0x3d3f73d8	0.046741337
105	0xbb09a812	-0.0021004719
106	0xbc1e87f8	-0.009675972
107	0x3c258d4e	0.01010449
108	0x3ce8276f	0.028339116
109	0xbd07f523	-0.033192765
110	0x3cbd728c	0.02312591
111	0xbc8494e2	-0.016184274
112	0x3c13ddad	0.00902502
113	0xbcad4b88	-0.02115418
114	0xbd0a810e	-0.033814482
115	0x3c494a80	0.012285829
116	0xbc6b29f5	-0.014353265
117	0xbd04e6f0	-0.0324468
118	0x3cfb228b	0.03065612
119	0xbc98307c	-0.018577807
120	0x3bcc3ba5	0.006232696
121	0xbc2f75ba	-0.010709221
122	0x3bc8c48a	0.006126945
123	0x3b3be88f	0.0028672551
124	0x3bf32b08	0.007420901
125	0x3c01c410	0.00792028
126	0x3b01331e	0.0019714306
127	0xbc695003	-0.014240268
128	0x3b6ec087	0.0036430673
129	0x3d04fb83	0.032466423
130	0xbd62e144	-0.05539061
131	0x3d6aa6a0	0.057287812
132	0xbc956e60	-0.018241107
133	0x3cd8915f	0.026436506
134	0xbc7c8969	-0.0154136205
135	0x3d2d74e5	0.042347807
136	0xbd0d72f1	-0.034533445
137	0x3ce946a8	0.028476074
138	0x3d56ca0f	0.05243879
139	0xbd43cd1e	-0.047803037
140	0x3d39c33e	0.045352213
141	0x3932b689	0.00017043402
142	0x3ca5ba49	0.02023043
143	0xbc776b1c	-0.01510122
144	0x3d317ca1	0.043331746
145	0xbc8c19a5	-0.017102072
146	0x3ccad336	0.024758916
147	0xbcb52b08	-0.022115245
148	0x3c8dd345	0.017312655
149	0xbc84c01d	-0.016204888
150	0x3abd6dbf	0.0014452263
151	0xbc9e502a	-0.019325335
152	0x3c426508	0.011864908
153	0xbcd0ac63	-0.025472825
154	0x3b95a7cc	0.004567122
155	0xbaa836be	-0.0012833697
156	0xbca13bb4	-0.019681789
157	0x3d2b5140	0.041825533
158	0xbd2c3c8d	-0.042049933
159	0xbcca5444	-0.024698384
160	0x3cdfc7d2	0.027316961
161	0xbc83ebcc	-0.016103648
162	0xbd11ac14	-0.035564497
163	0x3d357344	0.04429938
164	0xbd1958bd	-0.037438143
165	0xbd1d5fdb	-0.038421493
166	0x3d31432b	0.043276947
167	0xbcea5e04	-0.028609283
168	0x3d3e0554	0.0463918
169	0xbcbecebb	-0.023291936
170	0x3d21e5af	0.039525684
171	0xbd5e846e	-0.054325514
172	0x3d78dd75	0.060758073
173	0xbd30387c	-0.043022618
174	0xbc9c7d0c	-0.019102596
175	0x3bbaf180	0.0057050586
176	0xbbfe6adc	-0.0077642035
177	0xbcc6625a	-0.02421682
178	0x3c12e02f	0.008964582
179	0xbc02a867	-0.007974721
180	0x3d45f300	0.048327446
181	0xbd3d91d1	-0.04628164
182	0x3d218bba	0.039439894
183	0xbd6c8efb	-0.057753544
184	0x3d8c3159	0.0684535
185	0xbd83f9e8	-0.0644415
186	0x3c959f66	0.018264484
187	0xbd07290e	-0.032998137
188	0x3d11b91b	0.03557692
189	0xbd68b062	-0.056808837
190	0x3cc3b839	0.023891555
191	0xbd1ea52a	-0.03873173
192	0x3d4a86bd	0.049444903
193	0xbd04aa4a	-0.032388963
194	0x3ca69016	0.020332377
195	0x3d1ba2b3	0.03799696
196	0xbcedf2e2	-0.02904648
197	0x3d13c458	0.03607592
198	0x3d134a71	0.035959665
199	0xbd01b365	-0.031665225
200	0x3d10250c	0.03519158
201	0xbcfc9ceb	-0.030836543
202	0x3d2235fb	0.03960226
203	0xbd078dad	-0.033094097
204	0x3d36650f	0.04452997
205	0xbd4cc590	-0.049993098
206	0x3d1426e1	0.03616989
207	0xbcb2e874	-0.021839358
208	0x3caa6a44	0.020802625
209	0xbc521435	-0.012822201
210	0x3a92bcbe	0.0011195166
211	0xbd0f8a75	-0.035044152
212	0x3c4fe9aa	0.012689987
213	0x3cbf008a	0.023315687
214	0xbd18e299	-0.037325475
215	0x3cb59956	0.022167843
216	0xbd269114	-0.0406657
217	0x3d744f4c	0.059645936
218	0xbd279d67	-0.040921595
219	0xbb617800	-0.00344038
220	0x39e6a144	0.0004398917
221	0x3b63a634	0.0034736516
222	0xbd409947	-0.047021177
223	0x3d3fdf50	0.046843827
224	0xbd7af3d2	-0.06126768
225	0x3d3dd4ed	0.04634564
226	0xbce272c3	-0.027642613
227	0x3d1144e0	0.035466075
228	0xbd26dcfa	-0.040738083
229	0x3d009d81	0.031400207
230	0xbd2dc2a5	-0.042421956
231	0xbc80e16a	-0.015732486
232	0x3d080c04	0.033214584
233	0xbc320dee	-0.010867579
234	0x3d01bf2d	0.03167646
235	0xbc90f319	-0.017694043
236	0x3cfacd65	0.030615518
237	0x3b58b588	0.0033067185
238	0xbc10cd41	-0.008837999
239	0x3c7a07ca	0.015260646

bias f4 [80]
0	0xbbcc3228	-0.006231565
1	0xbecd095d	-0.40046206
2	0x3b08ed96	0.0020893565
3	0xbd0aead8	-0.03391537
4	0x3ebf8517	0.37406227
5	0xbebeee4e	-0.37291187
6	0xbe838a3b	-0.256914
7	0x3ef552b6	0.47914666
8	0xbd5c14eb	-0.053730886
9	0x3ea616fb	0.32439408
10	0xbee54f27	-0.4478695
11	0x3f040252	0.5156604
12	0xbe1503bc	-0.14552206
13	0x3e8af142	0.2713719
14	0xbe0c039f	-0.13673256
15	0xbe4653aa	-0.19367853
16	0x3efb5f77	0.4909627
17	0x3e93b455	0.2884852
18	0xbde26cd5	-0.11055914
19	0x3d17e78a	0.037086047
20	0x3e312089	0.17297567
21	0xbc9df6be	-0.019282695
22	0x3ecdbed2	0.40184647
23	0xbef95f81	-0.48705676
24	0x3ea9dbfa	0.3317564
25	0xbea536e2	-0.32268435
26	0xbe82f365	-0.2557632
27	0xbe798ae5	-0.2436939
28	0xbefb770c	-0.49114263
29	0xbe847477	-0.25870106
30	0x3f0cff41	0.55076987
31	0xbed00361	-0.40627578
32	0x3e8e6142	0.27808577
33	0xbed6b843	-0.41937456
34	0x3e0e61d6	0.13904509
35	0x3a9a530f	0.0011774021
36	0x3ef78c9f	0.48349473
37	0x3e8bc9fe	0.27302545
38	0x3e648423	0.22316031
39	0xbef7d026	-0.48400992
40	0xbecd2dc2	-0.40073973
41	0xbeba79ea	-0.36421138
42	0x3eb922aa	0.3615926
43	0x3ec7444d	0.38919297
44	0x3e57801f	0.21044968
45	0x3eede696	0.46464986
46	0x3e2666c5	0.16250141
47	0x3e72b4dc	0.23701805
48	0x3f04e152	0.5190631
49	0x3da71a1e	0.08159278
50	0xbe5e52a1	-0.21711208
51	0x3ef4e56c	0.47831285
52	0xbe99d800	-0.30047607
53	0xbe600296	-0.21875986
54	0xbefc446c	-0.49270952
55	0xbef7eabf	-0.48421285
56	0x3eaf9d49	0.34299687
57	0xbeff569a	-0.4987076
58	0x3c831a91	0.016003879
59	0xbe506beb	-0.20353667
60	0x3e85cc7c	0.26132572
61	0xbf0d6348	-0.55229616
62	0x3eaf8fd3	0.34289417
63	0xbe85b8f3	-0.26117668
64	0xbe09f423	-0.13472037
65	0x3ec6fedc	0.38866317
66	0x3a48c5a6	0.00076588464
67	0x3f00b8a5	0.50281745
68	0x3df2f1b9	0.11862511
69	0x3ecbe230	0.39821005
70	0xbef4f99d	-0.4784669
71	0x3e9f9c82	0.31174093
72	0xbe9fa5cb	-0.31181177
73	0xbe55de1e	-0.20885512
74	0xbec97d4c	-0.39353406
75	0x3f030419	0.5117813
76	0xbee16549	-0.44022587
77	0x3edda134	0.4328705
78	0x3ec172aa	0.37782794
79	0xbee45f37	-0.44603893

weight f4 [80, 80, 2]
0	0x3c1d5575	0.009602894
1	0x3ce4a35f	0.027909933
2	0xbb2dc97f	-0.0026517806
3	0xbbcf2665	-0.0063217157
4	0xbc2801ad	-0.010254306
5	0xbd2f67fd	-0.04282378
6	0x3c1ad9b0	0.009451315
7	0x3d351663	0.044210803
8	0x3c098ab6	0.008394888
9	0xbbdb2d88	-0.0066887774
10	0xbc447e13	-0.011992949
11	0x3ad4cdc5	0.001623564
12	0x3bb769f5	0.005597348
13	0x3cadc758	0.021213219
14	0xbb6974b0	-0.003562253
15	0xbb946a75	-0.004529292
16	0xba990a42	-0.0011676031
17	0x3c513cb1	0.012770818
18	0xbc024931	-0.0079520205
19	0x3c4ee2c3	0.012627306
20	0xbc4631d9	-0.012096846
21	0xbb728d81	-0.0037010612
22	0xbbe27b4e	-0.0069116717
23	0xbc5e250a	-0.0135586355
24	0x3d01af5e	0.031661384
25	0x3c29a12b	0.010353367
26	0x3c0e16d8	0.008672439
27	0x3c73b861	0.014875502
28	0x3c80687a	0.015674818
29	0x3ca00698	0.019534394
30	0x3aa2f611	0.0012432953
31	0xbcb94b59	-0.022618936
32	0x3b2ace5e	0.0026062946
33	0xbc0061b8	-0.007835798
34	0x3bbe56a8	0.00580867
35	0xbc0c4f6b	-0.008563857
36	0x3d2bfeee	0.041991167
37	0x3ca4ed6a	0.02013274
38	0x3c0bb864	0.008527849
39	0xbc7d0ffa	-0.015445704
40	0xbb8d0a94	-0.0043042395
41	0x39292a39	0.00016132825
42	0x3a9c7abe	0.0011938435
43	0x3d277038	0.040878505
44	0x3c507326	0.012722766
45	0xbbd952bf	-0.0066321786
46	0xbcaf0291	-0.021363528
47	0xbcce6835	-0.025196174
48	0x3bcf23a1	0.006321386
49	0x3c730b16	0.014834186
50	0x3ca76680	0.020434618
51	0x3c1889d1	0.009310202
52	0xbc224f60	-0.00990662
53	0xba93b3f7	-0.0011268844
54	0x3c39f19f	0.011349111
55	0xbb7fd66c	-0.0039037718
56	0x3b116508	0.0022185463
57	0x3b8d9181	0.004320324
58	0xbcd328b1	-0.02577624
59	0xbc91150b	-0.01771023
60	0x3c00a76d	0.007852417
61	0x3c24d20b	0.010059844
62	0xb9c5e1ff	-0.00037743148
63	0x3b3d5882	0.0028891866
64	0xbcba7971	-0.022762986
65	0xbb8bc41a	-0.0042653205
66	0xbbf23094	-0.007391045
67	0xbc3bacfb	-0.011454816
68	0x3c483a6a	0.012220958
69	0x3b067bcb	0.0020520564
70	0xbbedf094	-0.007261345
71	0xbbf2d9d6	-0.007411222
72	0x3b1b3df9	0.0023688062
73	0xbc98de9a	-0.018660832
74	0x3c8fadb6	0.017538887
75	0xbc2b8abd	-0.0104700895
76	0x3c052ac4	0.008127872
77	0x3a29006e	0.00064469024
78	0xba1bdde0	-0.0005945843
79	0xbc85e13f	-0.016342757
80	0xbbff0542	-0.007782609
81	0x3c5f2a84	0.013620976
82	0xbc7c813e	-0.015411673
83	0xbc9e650f	-0.019335298
84	0xbcad5ff2	-0.021163914
85	0x3ba37dcc	0.0049893614
86	0xbc3f2814	-0.01166727
87	0x3b0d461a	0.0021556676
88	0x3c607098	0.013698719
89	0x3c7bc8cd	0.015367699
90	0xbbc61c83	-0.0060458793
91	0xbc07bf2b	-0.008285324
92	0x3c35a7e9	0.011087396
93	0xbb49d5d4	-0.0030797618
94	0x3bb4581d	0.005503668
95	0xbb692c2e	-0.0035579312
96	0xbbd53eaa	-0.0065077143
97	0x3bf1e91e	0.007382526
98	0x3c6c4cb4	0.014422584
99	0x3cadcda1	0.021216216
100	0xbccd891b	-0.025089791
101	0xbce9fbab	-0.028562387
102	0xbc31af3f	-0.010845005
103	0x3c669a1e	0.01407483
104	0x3cb4e76e	0.02208301
105	0x3c0eb01e	0.008708982
106	0xbb666ae9	-0.0035158938
107	0x3c4c734a	0.012478659
108	0x3ba1be59	0.0049360213
109	0x3a86782e	0.0010259205
110	0x3c6b34f9	0.014355891
111	0x3b9cc54a	0.004784261
112	0xbb93458d	-0.004494375
113	0xbb861f0c	-0.0040930565
114	0x3c3c1dec	0.011481743
115	0x3b6ae54b	0.0035842236
116	0xbc9b380c	-0.018947624
117	0x3cf7e9fb	0.030262938
118	0x3b712b1e	0.0036799381
119	0x3c071ab0	0.008246109
120	0xbcc3391b	-0.023830941
121	0xbc236ab8	-0.009974174
122	0x3c08193f	0.0083068
123	0x3cb75642	0.022379998
124	0x3c1589a2	0.0091270525
125	0xbcaf1af7	-0.021375163
126	0x3c607835	0.013700535
127	0x3a3f02a0	0.0007286463
128	0xbb6b4846	-0.0035901233
129	0xbcb50909	-0.022099035
130	0x3b4525e6	0.0030082404
131	0x3ba6dc80	0.0050922036
132	0xbc593386	-0.013256913
133	0xbd0b2f07	-0.033980396
134	0x393af6b7	0.0001783025
135	0x3c2c0941	0.010500253
136	0xbb098d34	-0.0020988705
137	0x3be3e873	0.0069552003
138	0x3bb6be50	0.0055768862
139	0x3a6e29de	0.0009085218
140	0x3bd02fe8	0.006353367
141	0x3a85d8d5	0.0010211716
142	0x3ba54fb4	0.0050449017
143	0x39681459	0.00022132824
144	0x3c028f35	0.0079687135
145	0x3c9912a4	0.018685646
146	0x3b781545	0.0037854475
147	0xbc9a75d2	-0.01885501
148	0x3c501c4e	0.012702061
149	0x3bd369c4	0.006451817
150	0xbb11a0ab	-0.002222101
151	0x3bef3685	0.0073002004
152	0x3c573df7	0.013137332
153	0x3c64d104	0.013965849
154	0xbae290a8	-0.0017285543
155	0x3b6f4cd2	0.0036514294
156	0xb8acba82	-8.236339e-05
157	0xbc26cf4d	-0.01018126
158	0xbc91f307	-0.01781608
159	0x3bd3e484	0.00646645
160	0xbcb2afe4	-0.021812387
161	0xbccfc670	-0.025363177
162	0xbbf9760f	-0.0076129506
163	0xbcd4cfcc	-0.025977992
164	0xbae65563	-0.0017573055
165	0x3c9a0a52	0.01880375
166	0xbc933ac7	-0.017972363
167	0xbca738be	-0.020412799
168	0x3c4829d3	0.012217003
169	0x3bd713d8	0.006563645
170	0x3c9def01	0.019279005
171	0x3bfbcf64	0.007684635
172	0xbcb87ea5	-0.022521326
173	0x3b08745e	0.0020821313
174	0xbc95f6ca	-0.018306155
175	0xbc99439b	-0.018708995
176	0xbc808f5e	-0.015693363
177	0xbc7fc478	-0.015610807
178	0xbce8a79a	-0.028400231
179	0x3bdc71f0	0.0067274496
180	0xbafd2b15	-0.0019315208
181	0x3c41a9da	0.011820281
182	0x3c862d3c	0.016378991
183	0x3aaaa56a	0.0013019268
184	0xbc4c87eb	-0.012483577
185	0x3c79e6ed	0.015252811
186	0xbc34fe73	-0.011046994
187	0x3b790c58	0.0038001742
188	0xbb43df82	-0.002988786
189	0xbc2a4446	-0.010392254
190	0x3bf5af23	0.0074976846
191	0x3d22452e	0.039616756
192	0xbc56a075	-0.013099779
193	0xbc81d091	-0.015846523
194	0xbb836428	-0.0040097423
195	0x3a1bda21	0.00059452845
196	0xba5dd867	-0.00084627274
197	0xbc3f8502	-0.011689426
198	0xbca4b677	-0.020106537
199	0xbc820e86	-0.015876066
200	0x3c10d688	0.008840211
201	0x3be92b4d	0.0071157576
202	0xbc5df391	-0.01354684
203	0xbcc300e7	-0.023804141
204	0xbc88b7f8	-0.016689286
205	0x3c324fda	0.010883296
206	0xbc04a686	-0.008096343
207	0x3c8773dd	0.01653474
208	0x3c3930f6	0.011303177
209	0xbbd3c66c	-0.0064628627
210	0xba10ba8f	-0.00055209635
211	0xbb851dfc	-0.0040624123
212	0xbabb79d9	-0.0014303281
213	0xbc22133c	-0.009892281
214	0xbbe79f42	-0.0070685456
215	0x3b96405b	0.0045853085
216	0x3be0d629	0.0068614674
217	0xbc4ca177	-0.012489668
218	0x3c97831a	0.018495131
219	0x3c26a691	0.010171548
220	0xbc7085d4	-0.014680345
221	0x3b1be522	0.0023787697
222	0xbb35823e	-0.0027696039
223	0xbc16c562	-0.009202333
224	0x3befd9ee	0.0073196804
225	0xbc0242fb	-0.00795054
226	0x3c9a5a31	0.018841835
227	0x3c77471d	0.015092638
228	0xbc59cbce	-0.01329322
229	0x3b34047c	0.0027468493
230	0x3c91a7e7	0.017780257
231	0x3c8383b8	0.01605402
232	0x3bbb9db1	0.0057255854
233	0x3c4746d7	0.012162886
234	0xbc510a1f	-0.012758761
235	0xbcb084f6	-0.021547776
236	0xbbd53a6f	-0.00650721
237	0xbcc22b21	-0.023702206
238	0xbaf731c3	-0.0018859435
239	0x3bd091bb	0.0063650287
240	0xbcc2d002	-0.023780826
241	0xbc9e1a7f	-0.019299744
242	0x3d0f2fd1	0.03495771
243	0xbc41938d	-0.011814964
244	0x3c45f8bb	0.012083228
245	0x3c7f7591	0.015591995
246	0x3c0370b7	0.008022479
247	0xbc192c83	-0.009348991
248	0xbb70311c	-0.0036650365
249	0xbc4643ad	-0.012101096
250	0xbaaef1f7	-0.0013347258
251	0x3ca8c66b	0.020602426
252	0xbb235798	-0.0024924036
253	0xbad35852	-0.0016124344
254	0xbbed2be9	-0.0072379005
255	0xbc3dfbd3	-0.011595684

bias f4 [80]
0	0xbbc2862a	-0.0059364038
1	0xbac48d9e	-0.0014995818
2	0xbc241a62	-0.010016056
3	0x3d94ff30	0.07275236
4	0xbce377c2	-0.027767066
5	0x3d94f18c	0.07272634
6	0xbd2e5141	-0.04255796
7	0x3c3f8e56	0.01169165
8	0xbc516168	-0.012779571
9	0xbd5b892e	-0.05359762
10	0x3bd6b25e	0.0065520247
11	0x3db4d7ca	0.08830221
12	0x3d41e7d1	0.047340218
13	0xbd8a9c55	-0.06768099
14	0xbb71439f	-0.0036813987
15	0xbcbc48ef	-0.022983996
16	0xbd60714f	-0.05479556
17	0x3d21043b	0.039310675
18	0xbc9cf6bc	-0.01916062
19	0xbd64e219	-0.055879686
20	0x3d92f1e7	0.071750455
21	0x3d1179b9	0.035516474
22	0x3cb10be8	0.021612123
23	0x3d89f346	0.06735854
24	0xbd780f24	-0.060561314
25	0x3d03daa9	0.032190952
26	0xbd91d809	-0.071212836
27	0x3d49748a	0.049183406
28	0xbd5d31d0	-0.054002583
29	0xbd6099ef	-0.054834303
30	0xbd33dfd5	-0.043914635
31	0x3d28ea9f	0.041239377
32	0x3d559e72	0.05215306
33	0x3cfbe008	0.030746475
34	0xbd68800d	-0.056762744
35	0xbc94aace	-0.018147852
36	0x3d599bcc	0.053127095
37	0xbd8b31c7	-0.06796604
38	0xbd1e9718	-0.038718313
39	0x3cb19626	0.021678042
40	0xbd845a11	-0.06462491
41	0xbd57a340	-0.05264592
42	0xbd470a3c	-0.048593745
43	0x3d80dcbe	0.06292103
44	0x3d6b874d	0.05750208
45	0xbc9f0ac3	-0.019414311
46	0x3d0d93f9	0.034564946
47	0x3c578e9c	0.013156559
48	0xbd0cb016	-0.034347616
49	0x3d92947d	0.07157228
50	0x3d5a9655	0.053366024
51	0xbc307153	-0.010769206
52	0xbd9323b6	-0.07184546
53	0xbba99091	-0.0051747044
54	0xbd4155bd	-0.047200907
55	0x3d6ae839	0.05735037
56	0x3d88e8ec	0.06685051
57	0x3c99bde8	0.018767312
58	0xbd76575e	-0.060141914
59	0x3cf3608f	0.029709129
60	0xbd8f2ec5	-0.069913425
61	0xbd955a04	-0.0729256
62	0xbcbac415	-0.022798577
63	0xbd6be919	-0.057595346
64	0x3d6430d9	0.055710647
65	0x3d963af3	0.073354624
66	0x3bececd0	0.0072303787
67	0x3bc1135a	0.0058921995
68	0x3ca6af75	0.020347336
69	0x3d640f71	0.05567879
70	0x3b95e8aa	0.004574855
71	0x3d1db738	0.03850481
72	0xbd3e8930	-0.04651755
73	0xbc5ef47c	-0.013608094
74	0x3d9ac504	0.07557109
75	0x3da33811	0.07969678
76	0x3c1dfa54	0.009642202
77	0xbd48129c	-0.048845872
78	0x3d768132	0.060181804
79	0xbd1d1f06	-0.038359664

weight f4 [80, 80, 2]
0	0x3c86ec96	0.016470235
1	0x3d022c7e	0.031780712
2	0xbc39db45	-0.011343782
3	0xbcb2680a	-0.021778125
4	0xbcc9e9f5	-0.024647692
5	0xbd22debe	-0.039763205
6	0xbb1b5450	-0.0023701377
7	0xbc8b12bf	-0.016976712
8	0xbcab04cf	-0.020876316
9	0xbc23ba96	-0.009993216
10	0xbb252a0f	-0.002520207
11	0xbb6980b0	-0.0035629682
12	0x3c10c24c	0.0088353865
13	0x3b656958	0.0035005417
14	0xbc397f62	-0.011321874
15	0xbcab5ab3	-0.020917272
16	0xbc2b4bf9	-0.010455125
17	0xbbe2b9dc	-0.006919129
18	0x3c17c8b3	0.009264159
19	0x3c93e8d4	0.018055357
20	0xbc06689c	-0.008203652
21	0x3bc4f5c1	0.0060107415
22	0xba1c5b35	-0.00059645186
23	0xbca818a1	-0.020519556
24	0x3b8d12dd	0.004305227
25	0x3cbb61bd	0.022873754
26	0xbbf399d9	-0.0074341116
27	0x3cd99886	0.026561987
28	0x3b65d543	0.003506974
29	0x3b521070	0.0032053255
30	0x3c95c493	0.01828221
31	0xbb38e1e6	-0.0028210818
32	0x3b6991ec	0.0035639955
33	0xbc4068f4	-0.011743773
34	0xbc35ca42	-0.011095585
35	0xbcb96af0	-0.022634
36	0xbbda4575	-0.006661112
37	0xbbf13ade	-0.007361754
38	0xbcb94c53	-0.022619402
39	0xbcb47080	-0.0220263
40	0xbb915d70	-0.0044361874
41	0xbbb7aa50	-0.0056050196
42	0x3c2f8435	0.010712673
43	0x3b9be947	0.0047580334
44	0xbb7e0fc8	-0.003876673
45	0xbc14c4c4	-0.009080116
46	0x3cdd1a09	0.026989954
47	0x3bd35bc7	0.0064501497
48	0x3aef12ac	0.0018239818
49	0x3a901793	0.0010993354
50	0x3c8325b3	0.016009187
51	0xbc091aa8	-0.008368172
52	0xbc7df156	-0.0154994335
53	0xbc86c87d	-0.016453022
54	0x3a8600f6	0.0010223675
55	0x3c99a390	0.01875475
56	0x3c54b1ee	0.012981875
57	0x3c62fd57	0.013854346
58	0x3c90899e	0.017643746
59	0xbc289737	-0.010289959
60	0xbd01943b	-0.031635504
61	0x3b5872e2	0.003302746
62	0xbb0bb946	-0.0021320148
63	0x3c7ae0f1	0.015312419
64	0xbc668d86	-0.014071828
65	0x3c220093	0.009887832
66	0x3bd16c2d	0.0063910694
67	0xbce42dbe	-0.027853843
68	0x3cb0ef1d	0.021598393
69	0x3c828f31	0.01593742
70	0x3cb73534	0.022364236
71	0x3c466ce0	0.012110919
72	0x3c5df8e1	0.013548107
73	0xba8aaee2	-0.0010580684
74	0x39294612	0.00016143199
75	0x3c7c1a3a	0.015387112
76	0xb933bfaf	-0.00017142178
77	0xbc1830a1	-0.009288938
78	0xbbdbb81a	-0.006705296
79	0x3c9139ed	0.017727816
80	0x3c2c51e0	0.010517567
81	0xbbcbd69f	-0.006220653
82	0xbc9f158d	-0.019419456
83	0xbbeb54bf	-0.0071817334
84	0x3bb44513	0.0055013984
85	0xbc8a83a6	-0.016908478
86	0x3aa6803c	0.0012703012
87	0xbc980b34	-0.01856003
88	0x3b9b75ec	0.004744282
89	0xbc6bd61a	-0.0143943075
90	0x3c73c66e	0.014878852
91	0x3b81ba29	0.0039589596
92	0x3cdf589c	0.027263932
93	0xba1278ec	-0.0005587477
94	0x3a7a7b9b	0.0009555162
95	0xbbfa872e	-0.007645509
96	0xbcb03a83	-0.021512276
97	0xbc4ce0d8	-0.012504779
98	0x3ba93763	0.0051640733
99	0x3ac7cca2	0.001524348
100	0xbba08bff	-0.0048995013
101	0x3a26f1d2	0.00063684315
102	0x3c1bf3b6	0.009518554
103	0x3c955065	0.018226812
104	0x3bad4118	0.005287301
105	0xbc39c6f1	-0.011338935
106	0xbad1d9a4	-0.0016010297
107	0x3c2a5f70	0.010398731
108	0x3cbce69a	0.023059178
109	0xbcb06651	-0.021533163
110	0x39dce7ba	0.0004213432
111	0xbc86fe3f	-0.016478656
112	0x3ba6f040	0.005094558
113	0x3bf59cf1	0.0074955155
114	0x3c9b1de2	0.018935148
115	0x3d0a51ac	0.033769295
116	0x3c96a36a	0.018388469
117	0xbba147f4	-0.0049219076
118	0xbca28773	-0.019839978
119	0xbb17b56f	-0.0023148914
120	0x3a8d2f7d	0.0010771599
121	0x3c18e92e	0.009332938
122	0xbc2d99bc	-0.010595735
123	0xbc312aea	-0.010813454
124	0x3c81c0e6	0.015839051
125	0xbbabf169	-0.005247284
126	0xbb4b982d	-0.0031066046
127	0xbca05bcc	-0.019575022
128	0x3b8d9e7b	0.004321871
129	0x3cac4adf	0.021031795
130	0xbbabbd52	-0.0052410746
131	0xbc5f0a87	-0.01361335
132	0xbb1ae824	-0.0023636902
133	0xbc66a429	-0.014077225
134	0x3c39fc68	0.011351682
135	0x38ee991d	0.00011377244
136	0xbc750934	-0.0149558075
137	0xbb823391	-0.0039734324
138	0xbb499c21	-0.0030763226
139	0xba9294ff	-0.001118332
140	0xbb20deac	-0.0024546785
141	0xbc97007d	-0.01843285
142	0x3b9df4d2	0.0048204446
143	0x3bafe164	0.005367445
144	0x3ad6c50c	0.0016385629
145	0x3c3080cd	0.010772896
146	0x3cbb4ccd	0.02286377
147	0x3c56b970	0.013105735
148	0xbc46b7c3	-0.012128773
149	0xba88b42b	-0.0010429671
150	0x3a4b1d96	0.0007748244
151	0xbc396abb	-0.01131695
152	0x3cfd6de6	0.030936193
153	0x3d0e0cb0	0.03468007
154	0xbb978edb	-0.004625184
155	0x3c8067f4	0.015674569
156	0xbb985ca9	-0.004649718
157	0x3bb18941	0.0054179733
158	0xbb64c310	-0.0034906305
159	0x3c2e1d6c	0.010627132
160	0xbc37a3eb	-0.011208515
161	0x3d122fa9	0.035689984
162	0xbc22f8b4	-0.009946991
163	0xbbdfe216	-0.0068323715
164	0xbb55fe38	-0.0032652747
165	0xbb6fa6fd	-0.0036568039
166	0xba9109a6	-0.0011065498
167	0xbca82334	-0.020524599
168	0xbc6ff880	-0.014646649
169	0xbcaed48d	-0.021341586
170	0xbc0d942a	-0.008641282
171	0x3c685d25	0.014182364
172	0xbc2997cb	-0.010351132
173	0x3c88993c	0.01667463
174	0xba899e6f	-0.0010499487
175	0xbc21a412	-0.009865778
176	0xbba6947d	-0.005083619
177	0x3a499d15	0.00076909486
178	0x3bb59ea3	0.0055425926
179	0xbbb256c5	-0.0054424726
180	0x3c690215	0.014221688
181	0x3a1afbc6	0.0005912151
182	0x3c46fd52	0.012145357
183	0x3c344a0d	0.011003983
184	0x3c2c6983	0.010523203
185	0x3cbdf72e	0.023189154
186	0x3bbba8d7	0.0057269144
187	0x3ce6ea6e	0.028187957
188	0xbc427f19	-0.011871123
189	0xbc8348f1	-0.016025992
190	0x3b13dd5e	0.0022562365
191	0xbc94c652	-0.018160973
192	0x3c8dcf14	0.017310657
193	0x3c86c54c	0.0164515
194	0xbc928b87	-0.017888797
195	0xbc18aa62	-0.009317966
196	0xbc52c180	-0.012863517
197	0xbb95abd7	-0.004567604
198	0x3aa9391b	0.0012910696
199	0xbc6e2350	-0.014534786
200	0x3c3f1164	0.011661861
201	0x3c57c97b	0.013170595
202	0x3ca1e2b9	0.01976143
203	0x3d3c6851	0.04599792
204	0xbc17997c	-0.009252902
205	0xbc23c69a	-0.009996081
206	0xbc40e319	-0.011772894
207	0x3beb8848	0.007187877
208	0xbcc21ae3	-0.023694461
209	0x3ca7ba8c	0.020474695
210	0x3c857d29	0.016295033
211	0x3c2444f4	0.010026205
212	0xbc6c1a80	-0.014410615
213	0xbbe75987	-0.007060233
214	0x3c49ed9e	0.012324719
215	0x3cae32d9	0.02126448
216	0xbc28fa63	-0.010313603
217	0x3cc84515	0.024447003
218	0x3c1c3369	0.0095337415
219	0x3c3052cb	0.010761927
220	0x3b02bea7	0.0019950063
221	0xbc0aa607	-0.008462436
222	0x3c59096b	0.013246874
223	0x3ca70632	0.020388696
224	0xbbe2cbc7	-0.006921265
225	0x3bfb9188	0.007677261
226	0xbc7dda72	-0.015493976
227	0xbce3eee1	-0.027823867
228	0xbc01f83f	-0.007932722
229	0x3c592769	0.013254025
230	0x3b733697	0.0037111396
231	0x3cd0cf27	0.025489403
232	0x3bee12c9	0.007265423
233	0x3b5b23d5	0.0033438106
234	0xbb7e4a10	-0.003880147
235	0x3ca0ea72	0.019643042
236	0x3c81c5ce	0.015841391
237	0x3bc8ea64	0.006131457
238	0x3b8d43d3	0.004311064
239	0x3cfbdb48	0.03074421
240	0xbaf781cb	-0.0018883286
241	0x3a5f5680	0.00085196644
242	0x3984e802	0.0002534986
243	0x3c052d52	0.008128481
244	0x3c067b0b	0.008208047
245	0x3c964639	0.018344032
246	0xbc394700	-0.011308432
247	0xba1f5a85	-0.0006078857
248	0x3b8b1bfe	0.0042452803
249	0xbc636563	-0.013879153
250	0x3a8306f6	0.0009996581
251	0xbbc50d7c	-0.0060135704
252	0x3a82d0f8	0.000998049
253	0x3cd495d0	0.025950342
254	0xbbaedd13	-0.0053364127
255	0xbcd7635f	-0.026292501

bias f4 [80]
0	0xbb74ddeb	-0.0037363719
1	0x3d887580	0.06663036
2	0xbd80440d	-0.0626298
3	0xbd89ec32	-0.06734504
4	0xbd10f39b	-0.03538857
5	0x3d2c1bf7	0.042018857
6	0x3aa093dd	0.0012251098
7	0x3ce4fc04	0.027952202
8	0xbd642ab2	-0.05570478
9	0x3c77d118	0.015125535
10	0xbcb4c880	-0.022068262
11	0xbd22ee0b	-0.039777797
12	0x3cd032cd	0.025414849
13	0x3d4fe553	0.05075581
14	0x3d05d325	0.032672066
15	0x3c33fc35	0.010985424
16	0xbc202aee	-0.00977586
17	0x3d02c672	0.031927533
18	0x3cfa8672	0.030581687
19	0x3d326af7	0.04355904
20	0xbd8f4848	-0.069962084
21	0x3c8ec40b	0.017427465
22	0x3b36c576	0.0027888692
23	0x3d00afd3	0.03141768
24	0xbe039dda	-0.12853184
25	0x3c2120ab	0.009834449
26	0x3cbb7bbe	0.022886153
27	0xbc696a1e	-0.014246492
28	0xbd27cddb	-0.040967803
29	0xbd81194d	-0.06303654
30	0x3cea10f7	0.028572543
31	0xbc494dcf	-0.012286617
32	0xbd198215	-0.03747757
33	0x3d8623e6	0.06549816
34	0x3b9989fc	0.0046856385
35	0xbdcc687f	-0.099808685
36	0x3b1135e3	0.0022157363
37	0xbdaefbac	-0.08544096
38	0x3d50ee75	0.05100866
39	0x3d36d560	0.044637084
40	0x3d6789fd	0.05652808
41	0x3da31b42	0.079641834
42	0xbd662625	-0.05618872
43	0xbcd4f093	-0.025993621
44	0x3bef03b8	0.0072941445
45	0xbdb10f5f	-0.0864551
46	0xbd57357a	-0.052541234
47	0xbd1c66f4	-0.03818412
48	0xbdb17beb	-0.086662136
49	0x3a9f0465	0.0012132047
50	0x3d550b91	0.052012984
51	0xbd8eccf3	-0.06972685
52	0xbc4d5878	-0.0125333
53	0x3bca3e60	0.0061719865
54	0xbcedb38c	-0.029016279
55	0x3c847b66	0.016172122
56	0xbc56deed	-0.013114673
57	0xbbd5cc19	-0.0065245745
58	0xbd3e8791	-0.046516005
59	0xbd065b64	-0.032802
60	0xbce80977	-0.028324826
61	0xbd5a8ea6	-0.053358696
62	0xbda69ca7	-0.08135348
63	0xbd98701c	-0.07443258
64	0x3d1b9cc5	0.037991304
65	0xbc02babb	-0.00797909
66	0x3cdc53d9	0.02689545
67	0x3cf6b44b	0.030115267
68	0xbd69c078	-0.057068318
69	0xbd7ba61b	-0.061437707
70	0xbc6ddec3	-0.014518443
71	0xbd670641	-0.05640245
72	0xbd4d2953	-0.050088238
73	0xbd6651db	-0.056230407
74	0xbce395a1	-0.02778131
75	0xbd5bdbac	-0.053676292
76	0x3d423c14	0.047420576
77	0x3d11fd38	0.03564188
78	0xbca417ff	-0.020030973
79	0xbd560874	-0.052254155
