GAN/PM Generator/PM_epochs=1000_seq=75_batch=16.pth (torch, 675018 bytes, 31 tensors)

weight f4 [1, 80, 1]
0	0xbc9e0a8f	-0.019292144
1	0x3d115500	0.035481453
2	0xbca71640	-0.020396352
3	0xbb4854a2	-0.0030568023
4	0x3cfdabd8	0.03096573
5	0x3d160b9c	0.036632165
6	0xbc9eecea	-0.019400079
7	0xbc20b8c3	-0.009809676
8	0xbc31bf41	-0.010848821
9	0x3c376af5	0.011194934
10	0xbc00fd6d	-0.007872921
11	0x3c4b7d9e	0.012420086
12	0x3c352b6b	0.011057715
13	0x3c861e95	0.016372005
14	0x3c7ae591	0.015313522
15	0x3cb9bc8e	0.022672918
16	0xbbe34961	-0.0069362377
17	0x3d49aa46	0.04923465
18	0xbca26f9f	-0.019828616
19	0xbc2504f3	-0.010071981
20	0xbc196ede	-0.009364812
21	0x3adc6e1d	0.0016817484
22	0xbcb42cf1	-0.021994086
23	0x3c94fcdc	0.018186979
24	0xbbefe55d	-0.0073210434
25	0xbc64d3cb	-0.013966511
26	0x3d1be515	0.038060267
27	0x3cbe6d82	0.023245577
28	0x3cc5e01d	0.024154717
29	0xbc361ffc	-0.011116024
30	0x3c873d31	0.01650867
31	0xbbf292c0	-0.007402748
32	0xbc9c9a49	-0.019116538
33	0xbc6d7872	-0.014494048
34	0x3caff86b	0.02148076
35	0x3d38c180	0.04510641
36	0x3d056995	0.032571394
37	0x3cd67a71	0.026181431
38	0x3ce55c21	0.027998032
39	0xbc1c82f7	-0.009552709
40	0xbcd47418	-0.025934264
41	0xbca657f5	-0.020305613
42	0x3c9d47c4	0.01919926
43	0xbcafbb81	-0.021451714
44	0xbcb1521f	-0.021645604
45	0xbca586e8	-0.02020593
46	0xbcaec4b4	-0.02133403
47	0x3cc3f151	0.02391878
48	0xbbfc3ee1	-0.0076979254
49	0xbbbdcef9	-0.0057924953
50	0xbc135b79	-0.008993977
51	0xbc561f1c	-0.0130689405
52	0xbca7edcc	-0.020499133
53	0xbc5bbde1	-0.01341197
54	0x3c081de0	0.008307904
55	0xbcac3906	-0.021023285
56	0x3938eb83	0.00017635342
57	0xbc78f974	-0.015196193
58	0xbcc86ba3	-0.024465388
59	0xbd0301d5	-0.03198417
60	0x3d0ce990	0.03440243
61	0xbc9d3370	-0.019189566
62	0x3cb7b984	0.022427328
63	0x3d0e5527	0.034749176
64	0x3d085375	0.033282716
65	0x3ce5cf04	0.028052814
66	0xbc192c2d	-0.009348911
67	0xbc9c4f74	-0.019080855
68	0x3cbd1b31	0.023084255
69	0xbba55925	-0.0050460272
70	0xbcf5a1a3	-0.029984301
71	0xbc20e998	-0.009821318
72	0xbbc4a49e	-0.006001069
73	0xbc96638a	-0.01835801
74	0x3c81cb13	0.015843904
75	0xbc6a2f94	-0.01429357
76	0xbc99c733	-0.018771743
77	0x3d417a11	0.047235552
78	0xbca1b1fd	-0.019738192
79	0xbc941e00	-0.018080711

weight f4 [80, 3, 1]
0	0xbd01b802	-0.031669624
1	0x3d53c6a9	0.05170313
2	0xbd751c6e	-0.059841566
3	0x3c145b43	0.009054962
4	0xbb764548	-0.0037577916
5	0xbc065f3b	-0.008201416
6	0xbd1c4e46	-0.038160585
7	0x3d8cac1a	0.06868763
8	0xbd78fbe2	-0.06078709
9	0xbc554b2d	-0.013018412
10	0xbc10059f	-0.008790403
11	0x3c056c64	0.008143518
12	0xbd990cd4	-0.0747315
13	0x3de776f4	0.113019854
14	0xbdcc6026	-0.09979276
15	0x3cafca80	0.021458864
16	0xbcccd98a	-0.025006074
17	0x3d28832c	0.04114072
18	0x3ce7ce0b	0.028296491
19	0xbd72160e	-0.059103064
20	0x3d8206e6	0.06348972
21	0xbdc5fd55	-0.0966746
22	0x3dce65cc	0.1007801
23	0xbdbd9b65	-0.09258155
24	0xbd9a1942	-0.07524349
25	0x3de1d382	0.1102667
26	0xbdd544fb	-0.104135476
27	0xbdc22d34	-0.09481278
28	0x3ddcf9ad	0.107898094
29	0xbdd990d9	-0.106233306
30	0x3b954b5d	0.004556103
31	0x3cd89152	0.026436482
32	0xbd37907e	-0.044815533
33	0x3dcf9459	0.10135717
34	0xbe11ade0	-0.14226484
35	0x3e195958	0.14975488
36	0xbd799ec3	-0.060942423
37	0x3db8c63c	0.09022185
38	0xbd9b5802	-0.075851455
39	0x3d3a935d	0.045550693
40	0xbc4a9122	-0.012363704
41	0x3c95057c	0.018191092
42	0xbd1424a9	-0.036167774
43	0x3d444bb7	0.04792377
44	0xbd5dc3fe	-0.05414199
45	0x3cf747a9	0.030185537
46	0x3abe53c0	0.0014520809
47	0x3b3ea9ef	0.0029092988
48	0x3cea9703	0.028636461
49	0xbcf75122	-0.030190054
50	0x3d89842e	0.067146644
51	0xbccb1aa8	-0.024792984
52	0x3d96bc82	0.07360174
53	0xbd7728c9	-0.06034163
54	0xbd830cce	-0.06398927
55	0x3de8946d	0.11356435
56	0xbda44040	-0.08020067
57	0xbcaa5900	-0.020794392
58	0x3d5b12c5	0.053484697
59	0xbd3ad99b	-0.04561768
60	0xbc85adfe	-0.016318318
61	0x3d8427bc	0.06452891
62	0xbd04d9d5	-0.032434303
63	0x3bf89ef3	0.0075873076
64	0x3bbb9200	0.0057241917
65	0xbd11724e	-0.0355094
66	0xbd5e5876	-0.05428358
67	0x3da5162a	0.08060868
68	0xbd938b56	-0.072043106
69	0x3dd6f2f9	0.10495562
70	0xbe171561	-0.14754249
71	0x3e1fa43f	0.15589999
72	0xbd327f55	-0.043578465
73	0xbb4b146f	-0.0030987521
74	0x3c175697	0.009236953
75	0xbbe34625	-0.006935852
76	0x3d0b2f32	0.033980556
77	0xbd5cbda1	-0.05389178
78	0x3d178123	0.03698839
79	0xbd926d10	-0.07149708
80	0x3d909700	0.07060051
81	0x3db2d156	0.08731334
82	0xbdf5cbff	-0.120018
83	0x3e0dac91	0.1383536
84	0xbd235c69	-0.03988305
85	0x3d86c85c	0.06581184
86	0xbd68fa90	-0.05687958
87	0xbca6c4fd	-0.020357603
88	0x3d0a42ab	0.033754986
89	0xbd2be4d3	-0.04196627
90	0xbdb09600	-0.0862236
91	0x3dcec3a8	0.10095912
92	0xbdb68eb2	-0.08913936
93	0x3dcd9ffd	0.10040281
94	0xbe140d49	-0.14458193
95	0x3e1ca2f9	0.15296544
96	0x3d2153dc	0.039386615
97	0xbcb9a49c	-0.0226615
98	0x3bcd6eb2	0.0062692994
99	0x3cdcb3c8	0.026941195
100	0xba73d2df	-0.00093011366
101	0xbc44d06d	-0.012012583
102	0xbd3bef9b	-0.045882802
103	0x3d91ea07	0.07124715
104	0xbd8680aa	-0.065675095
105	0xbd0e24de	-0.034703128
106	0x3be12542	0.0068708966
107	0xbc06f345	-0.008236711
108	0x3d7f8512	0.062382765
109	0xbd12a71c	-0.0358039
110	0x3c3ac570	0.011399612
111	0xbdc5cf9a	-0.096587375
112	0x3ddcb26e	0.1077622
113	0xbdd697d4	-0.10478178
114	0x3d539fb2	0.05166597
115	0xbd9aff04	-0.075681716
116	0x3dae8cda	0.08522959
117	0xbdb4c037	-0.088257246
118	0x3df3f5b4	0.119120985
119	0xbdcb70fd	-0.0993366
120	0xbce983e6	-0.028505277
121	0x3d3fc034	0.04681416
122	0xbd610a6a	-0.054941572
123	0x3cf41b4e	0.029798176
124	0xbc43dbb2	-0.011954235
125	0x3b119bb9	0.0022218062
126	0xbd2b0729	-0.041754875
127	0x3dd2cf70	0.10293472
128	0xbd6920c4	-0.056916013
129	0xbd89657f	-0.06708812
130	0x3dbb4026	0.09143095
131	0xbd911896	-0.070847675
132	0xbcfb7fe2	-0.030700628
133	0x3a4256c2	0.00074134406
134	0x3ca8f83e	0.020626184
135	0xbc85a09d	-0.016311938
136	0xbbfb46e4	-0.007668363
137	0xbbd0c7c3	-0.0063714697
138	0x3c23436a	0.009964803
139	0x3ad71354	0.0016408958
140	0x3d692bcf	0.056926545
141	0xbc37a475	-0.011208643
142	0x3cc1ce59	0.023657965
143	0xbcb7bd91	-0.02242926
144	0x3cb123bb	0.021623483
145	0xbd5ab9a2	-0.05339969
146	0x3d4a7994	0.049432352
147	0xbdb509d0	-0.08839762
148	0x3dc3d279	0.09561629
149	0xbdb3b9ef	-0.087756984
150	0xbd82c8cf	-0.063859574
151	0x3dc10dc8	0.09426457
152	0xbdacba9e	-0.08434032
153	0x3b949641	0.004534513
154	0x3cf64247	0.0300609
155	0xbc57f3de	-0.013180701
156	0x3c757ee2	0.0149838645
157	0xbc84892c	-0.01617869
158	0x3c303370	0.010754451
159	0xbd8e011b	-0.069338046
160	0x3ded2299	0.115788646
161	0xbdac55b9	-0.08414788
162	0xbc14e320	-0.009087354
163	0x3cc909ef	0.02454087
164	0xbcc59240	-0.024117589
165	0xbcb14ea9	-0.021643953
166	0x3d334afd	0.043772686
167	0xbc96cff1	-0.018409701
168	0xbd9a1b27	-0.0752471
169	0x3de24b3c	0.11049506
170	0xbdbe7614	-0.09299865
171	0x3dbd0de2	0.092311636
172	0xbdebac5d	-0.11507485
173	0x3e059b5c	0.13047546
174	0xbdabb96b	-0.08384975
175	0x3dee1585	0.11625198
176	0xbdc95bb9	-0.09831948
177	0x3d9ad5b7	0.07560294
178	0xbddee665	-0.10883788
179	0x3dafd5a9	0.08585674
180	0x3b7b5488	0.0038349945
181	0xbca69574	-0.020334937
182	0x3d1af272	0.03782887
183	0x3d854291	0.06506837
184	0xbdcf5c22	-0.10124995
185	0x3daac337	0.083380155
186	0xbd1a01e3	-0.037599456
187	0x3da35f4a	0.07977159
188	0xbd56e832	-0.052467532
189	0xbc985652	-0.018595848
190	0x3d435049	0.047683988
191	0xbd431493	-0.047627043
192	0xbd91e4d3	-0.07123723
193	0x3de44b0a	0.11147125
194	0xbdbd1f8b	-0.09234532
195	0xbda7cd7b	-0.08193489
196	0x3dcc07df	0.09962439
197	0xbdb3302a	-0.08749421
198	0x3dae8d5a	0.085230544
199	0xbdd8bb64	-0.10582617
200	0x3de850c2	0.11343528
201	0xbd842df4	-0.06454077
202	0x3db78ad5	0.08962027
203	0xbdbfdb16	-0.09367959
204	0x3d98fed6	0.07470481
205	0xbde6046b	-0.112313114
206	0x3db67b2c	0.08910212
207	0x3d314611	0.04327971
208	0xbd949b7f	-0.07256221
209	0x3d977150	0.073946595
210	0xbb9541b2	-0.0045549506
211	0x3d081de3	0.033231627
212	0xbd2f9d8e	-0.042874865
213	0xbd97d534	-0.07413712
214	0x3dc928a1	0.098222025
215	0xbda43edd	-0.08019803
216	0x3c06a663	0.008218381
217	0x3d0db9a8	0.034600884
218	0xbd194c3b	-0.037426215
219	0x3b0d6d1b	0.0021579925
220	0x3c23cdba	0.0099977795
221	0xbd062c4a	-0.03275708
222	0xbd61072c	-0.05493848
223	0x3da42f94	0.08016887
224	0xbd957d2f	-0.072992675
225	0xbc919900	-0.017773151
226	0x3d3f6023	0.046722542
227	0xbc2c8c2f	-0.010531469
228	0x3dce1b31	0.1006378
229	0xbe0cf48f	-0.13765167
230	0x3e15e2bf	0.14637278
231	0xbbbcef92	-0.0057658637
232	0x3cf31b8f	0.029676227
233	0xbc9bfbfe	-0.019041058
234	0x3de1ed24	0.11031559
235	0xbdde2452	-0.10846771
236	0x3df239f3	0.11827459
237	0x3dc728a3	0.09724548
238	0xbe0a2fe4	-0.13494831
239	0x3e1685cb	0.14699475

bias f4 [80]
0	0xbece0f03	-0.40245828
1	0xbee2d3f9	-0.44302347
2	0xbbc7bb42	-0.006095321
3	0x3ed8c525	0.4233791
4	0x3e483d6b	0.19554679
5	0x3eedc72e	0.46441025
6	0x3e62df4c	0.22155493
7	0x3e09cec0	0.13457775
8	0x3e439186	0.19098482
9	0x3e7f419d	0.24927373
10	0xbf08eec3	-0.5348932
11	0xbbbd8e5a	-0.005784792
12	0x3d8a1009	0.0674134
13	0xbeb53027	-0.353883
14	0x3e5db062	0.21649316
15	0xbef722a6	-0.48268622
16	0x3f0271cb	0.50954884
17	0xbef3e3c8	-0.4763472
18	0x3e61d42e	0.22053596
19	0xbf026abd	-0.5094412
20	0x3e1e9540	0.15486622
21	0xbe8f5be8	-0.27999806
22	0x3d210388	0.03931001
23	0xbb7c2a3d	-0.0038477324
24	0x3efd0840	0.49420357
25	0xbeeb07dd	-0.45904437
26	0x3e40852b	0.188008
27	0xbe2778d4	-0.16354686
28	0xbc0532a3	-0.0081297485
29	0xbe844e57	-0.2584102
30	0x3ddaf402	0.10691072
31	0xbb9e59d1	-0.0048324843
32	0xbeca17fe	-0.3947143
33	0xbe9e2ec6	-0.3089506
34	0xbbcb1314	-0.0061973426
35	0x3eb37e44	0.3505727
36	0xbedd5871	-0.43231538
37	0x3edb0bf9	0.42782572
38	0x3e47f05e	0.19525287
39	0x3e1604c5	0.14650257
40	0xbe6fe689	-0.23427786
41	0xbe8c35e1	-0.27384856
42	0x3e45e50c	0.19325656
43	0xbecd4df9	-0.4009855
44	0x3edfbeda	0.43700296
45	0xbe5e06a0	-0.21682215
46	0x3f0717f7	0.5277094
47	0xbed0e80a	-0.40802032
48	0x3ee34428	0.44387937
49	0x3df6c679	0.120495744
50	0x3e4b6263	0.1986175
51	0x3e455268	0.19269717
52	0x3e558639	0.20851983
53	0x3e25e960	0.16202307
54	0xbef3eb8a	-0.4764064
55	0xbe263329	-0.16230454
56	0x3db2137a	0.08695121
57	0xbe521491	-0.20515658
58	0x3e6f9c69	0.2339951
59	0xbe6199e4	-0.22031361
60	0x3f03854d	0.51375276
61	0xbe723154	-0.2365163
62	0xbe860ffa	-0.26184064
63	0xbea9d5d4	-0.3317095
64	0x3e0ae287	0.13562976
65	0x3dbaa1eb	0.09112915
66	0xbd8fdafe	-0.07024191
67	0xbe9da6be	-0.30791277
68	0xbeab0d3d	-0.33408538
69	0x3efa902d	0.48938122
70	0xbe9bb73a	-0.30413228
71	0x3dab4961	0.08363605
72	0xbec1e648	-0.37871003
73	0xbea268f9	-0.31720713
74	0xbccd9101	-0.025093557
75	0x3ed193c5	0.40933052
76	0xbce1f335	-0.02758179
77	0x3e7db85e	0.24777362
78	0xbddecb08	-0.10878569
79	0xbe338f89	-0.17535223

weight f4 [80, 80, 1]
0	0x3d095726	0.033530377
1	0x3d5dd6ca	0.054159917
2	0xbc2799c4	-0.010229532
3	0xbd40cf18	-0.0470725
4	0xbd2a19a1	-0.041528348
5	0xbd535526	-0.051594876
6	0xbd3a2ef5	-0.045454938
7	0xbce5a094	-0.028030671
8	0xbd172cd7	-0.036907997
9	0xbd447f09	-0.047972713
10	0x3d7a4850	0.06110412
11	0xbd8b5c56	-0.06804721
12	0xbce83391	-0.028344901
13	0x3d1f3382	0.03886748
14	0xbd5de22d	-0.054170776
15	0x3d83b4b6	0.06430952
16	0xbd48744d	-0.048939038
17	0x3d4961b5	0.049165446
18	0xbd7f9a93	-0.062403273
19	0x3d4e656c	0.050389692
20	0xbd422577	-0.04739901
21	0x3cb41947	0.02198471
22	0xbd1d1493	-0.0383497
23	0xbdabfc40	-0.08397722
24	0xbd374544	-0.04474379
25	0x3d427998	0.047479242
26	0xbd518ac9	-0.051157746
27	0x3d2b9e02	0.041898735
28	0xbc30a537	-0.010781578
29	0x3d176297	0.036959257
30	0xbd54ac8d	-0.05192237
31	0xbd876251	-0.06610549
32	0x3d4bbecb	0.0497425
33	0x3d22c417	0.039737787
34	0xbc4b35f2	-0.012402998
35	0xbcf78356	-0.030213993
36	0x3d8b7768	0.06809884
37	0xbd745782	-0.059653766
38	0xbcfcd6c2	-0.030864123
39	0xbd519fef	-0.051177915
40	0x3d3447c0	0.04401374
41	0x3d316582	0.043309696
42	0xbd515b47	-0.05111244
43	0x3d876941	0.066118725
44	0xbd14d12f	-0.036332306
45	0x3cd84e05	0.02640439
46	0xbd6bb29c	-0.057543382
47	0x3d316e22	0.04331792
48	0xbcfc9f0a	-0.030837554
49	0xbd80a629	-0.062816925
50	0xbd824bc9	-0.06362111
51	0xbd639f56	-0.055571876
52	0xbd3f2c30	-0.046673
53	0xbd547959	-0.05187354
54	0x3d70ebd0	0.05881864
55	0x3ce11c45	0.0274793
56	0xbd5263d9	-0.051364753
57	0x3d31f2ac	0.04344432
58	0xbd2036b5	-0.039114673
59	0x3ce9f841	0.02856076
60	0xbcf30de6	-0.029669713
61	0x3d4099fa	0.047021843
62	0x3d7f414c	0.06231813
63	0x3d16376c	0.03667395
64	0xbd0f81d1	-0.035035912
65	0xbd4e93a5	-0.050433774
66	0xbc20d88c	-0.009817254
67	0x3d221262	0.039568312
68	0x3d61ae6c	0.055097982
69	0xbcfa2710	-0.030536205
70	0x3d7b7411	0.061389986
71	0xbd291b07	-0.04128554
72	0x3d267bac	0.040645286
73	0x3d4794c4	0.04872586
74	0xbb859a15	-0.004077206
75	0xbd61b001	-0.05509949
76	0xbd80d1a6	-0.06289987
77	0xbd211afb	-0.03933237
78	0x3d2d5f0b	0.04232697
79	0x3d8ea56b	0.06965145
80	0xbc6f050b	-0.014588605
81	0x3b34b77e	0.002757519
82	0xbd554bd8	-0.052074283
83	0xbafd7429	-0.0019336987
84	0xbcf222ce	-0.029557612
85	0xbbe37cf4	-0.006942386
86	0xbb3a4e5f	-0.002842806
87	0xbd076dd3	-0.03306372
88	0xbcee22ab	-0.029069265
89	0xbcccb8c9	-0.024990456
90	0x3bf3962c	0.0074336734
91	0x3dcdc39e	0.10047077
92	0xbc9a094a	-0.018803257
93	0x3c30381c	0.010755565
94	0xbc57a48f	-0.013161792
95	0x3cbef8e2	0.023312036
96	0xbbaebbfa	-0.005332467
97	0xbca5a304	-0.020219333
98	0xbc8554a4	-0.016275711
99	0xbc6efa1f	-0.014586001
100	0xbc2d215f	-0.010567038
101	0x3c25c0d1	0.010116772
102	0xbcaa01ae	-0.020752754
103	0x3dbea17a	0.09308143
104	0xbb644ca3	-0.0034835718
105	0xba6248c2	-0.00086320576
106	0xbae5d5c7	-0.0017535024
107	0x3d231279	0.03981254
108	0xbd594d33	-0.05305214
109	0x3c19b9b7	0.009382657
110	0xbd1abf9d	-0.037780393
111	0x3def845c	0.116951674
112	0x3b882e82	0.004155935
113	0x3c8a4100	0.016876698
114	0xbd68ad70	-0.056806028
115	0xbc695a79	-0.014242762
116	0x3cef2f51	0.029197367
117	0xbc0afd91	-0.0084833065
118	0xbc0591c1	-0.008152426
119	0xbd1c65cc	-0.03818302
120	0x3c7b17c1	0.015325488
121	0x3b79d992	0.0038124067
122	0xbc89b484	-0.01680971
123	0xbc5395a0	-0.012914091
124	0xbc5cac34	-0.013468791
125	0x3c4c048d	0.012452257
126	0xbc099088	-0.008396275
127	0x3c52fb16	0.012877246
128	0xbb1a7813	-0.0023570105
129	0xbd113e4c	-0.0354598
130	0xbce91349	-0.028451579
131	0xbc877d6e	-0.016539302
132	0xbba018af	-0.004885755
133	0xbd07e4f9	-0.03317735
134	0x3bdd27af	0.0067491154
135	0x3c1fd8b2	0.009756254
136	0xbd091ffc	-0.03347777
137	0x3c540d0f	0.012942567
138	0xbc69c8d8	-0.014269076
139	0x3c43ed01	0.011958362
140	0xbbb4f825	-0.005522745
141	0x3bfa43e2	0.007637487
142	0x3a8fdff2	0.0010976775
143	0x3bcfdf14	0.0063437317
144	0xbca74c37	-0.020422084
145	0xbd19ea9b	-0.037577253
146	0x3d5bd99b	0.05367432
147	0x3b6eec7f	0.003645688
148	0x3cc4a127	0.024002625
149	0x3c102d51	0.008799867
150	0x3c111fce	0.0088576805
151	0xbd023bc5	-0.031795282
152	0x3c9800bf	0.018555043
153	0x3ca65412	0.02030376
154	0xbddbf066	-0.10739212
155	0x3bda46c8	0.00666127
156	0x3e079d74	0.13243657
157	0xbc5172d1	-0.012783722
158	0x3d8ff582	0.07029249
159	0x3d024b6e	0.031810217
160	0x3cae1e3c	0.021254651
161	0x3c98950d	0.01862576
162	0x3c2e48e4	0.010637496
163	0xbd357867	-0.044304278
164	0xbb61b8bb	-0.0034442383
165	0xbd6092bc	-0.054827437
166	0xbcd51a42	-0.026013497
167	0x3c096309	0.008385428
168	0xbccc4e72	-0.02493975
169	0xbc9f730c	-0.019464038
170	0x3d01edbd	0.031720866
171	0xbd63b549	-0.05559281
172	0xbd0e13c1	-0.034686808
173	0x3ca600d3	0.020264065
174	0xbca12ba7	-0.019674135
175	0x3ce759b7	0.028241022
176	0xbd1fa3fc	-0.038974747
177	0x3d15fa33	0.03661556
178	0x3b0535d0	0.0020326264
179	0x3ce24559	0.027620958
180	0xbd0f9472	-0.035053678
181	0x3cd0be7c	0.025481455
182	0xbc9e26af	-0.019305555
183	0xbd9bd23b	-0.07608458
184	0xbd2ead11	-0.042645518
185	0x3d43a65d	0.04776608
186	0xbcb2792a	-0.021786291
187	0x3cc8ca3d	0.024510497
188	0x3c119a41	0.008886875
189	0x3c4d107f	0.01251614
190	0xbb0a7edd	-0.0021132745
191	0xbd383b27	-0.044978287
192	0x3d0204dd	0.03174292
193	0x3c8a2e98	0.01686792
194	0x3b0f038a	0.0021822178
195	0xbcc08d25	-0.023504803
196	0x3cb4884f	0.022037653
197	0xbcab25a1	-0.020891966
198	0xbc96553b	-0.018351188
199	0xbac295f9	-0.0014845721
200	0x3cd860f7	0.026413424
201	0x3ca2a726	0.019855093
202	0xbd27c37a	-0.040957905
203	0x3d106302	0.03525067
204	0xbd1c1d7f	-0.038114067
205	0x3c8c066a	0.017092902
206	0xbc7babaa	-0.015360752
207	0x3d236ff8	0.039901704
208	0xbc99708d	-0.018730426
209	0xbd0b303e	-0.033981554
210	0xbd08e7cc	-0.033424184
211	0x38ed2df0	0.00011309597
212	0xbd29c2a7	-0.0414454
213	0xbc1eed1e	-0.009700088
214	0x3cb83ee5	0.022490928
215	0x3ceda213	0.029007947
216	0xbcb988d7	-0.022648258
217	0x3c72fff7	0.014831535
218	0xbc33bf24	-0.010970864
219	0x3c96d60c	0.018412612
220	0xbd1de392	-0.038547106
221	0x3c8de65b	0.017321756
222	0x3d12ea7a	0.035868146
223	0x3d0202c6	0.031740926
224	0xbb22ae88	-0.0024823267
225	0xbc946058	-0.018112347
226	0xbc606b35	-0.013697435
227	0x3d8340c4	0.064088374
228	0x3cea7f4a	0.02862515
229	0xbd222027	-0.039581444
230	0x3d1d3d03	0.038388263
231	0xbd108d69	-0.03529111
232	0x3d28394b	0.041070264
233	0x3ce02c15	0.02736477
234	0x3d321443	0.043476354
235	0xbd03aa90	-0.032145083
236	0xbd999e1f	-0.07500862
237	0xbcea374c	-0.02859082
238	0x3cb49597	0.022043986
239	0x3d02e37a	0.03195522
240	0x3d8334ba	0.06406541
241	0x3d85da25	0.065357484
242	0xbca28f66	-0.019843768
243	0xbd82bae1	-0.063833006
244	0xbd7c816b	-0.06164686
245	0xbd67a8cb	-0.056557458
246	0xbd7bafe9	-0.061447058
247	0xbd404c34	-0.046947673
248	0xbd2466ac	-0.040136978
249	0xbd726991	-0.059182707
250	0x3d828269	0.0637253
251	0xbda3ccfb	-0.07998081
252	0xbd347556	-0.044057213
253	0x3d895ede	0.067075476
254	0xbd69d01b	-0.05708323
255	0x3d9466a7	0.07246142

bias f4 [80]
0	0xbd529129	-0.051407967
1	0x3d9a7ca2	0.07543303
2	0x3d287922	0.041131146
3	0xbd8ada00	-0.067798615
4	0x3dc1bce6	0.09459858
5	0x3dbef2f4	0.093236834
6	0x3d5c7b2c	0.053828403
7	0xbc16bf01	-0.009200812
8	0xbe0826f1	-0.13296105
9	0x3dd794d8	0.105264366
10	0xbd95d439	-0.07315869
11	0x3dd2edc3	0.10299256
12	0xbde24338	-0.11047977
13	0xbcf92c3c	-0.0304166
14	0x3c6c4f72	0.014423238
15	0x3d7a58ed	0.061119962
16	0xbd9af255	-0.075657524
17	0x3d5e7110	0.054307044
18	0xbbf09b7f	-0.0073427553
19	0xbc2ac0c1	-0.010421933
20	0xbd39eff2	-0.045394845
21	0xbd275c84	-0.040859714
22	0xbd3d18e8	-0.04616633
23	0x3d243cb9	0.040096972
24	0x3d2ba66b	0.041906755
25	0xbd84cbf9	-0.06484217
26	0xbdcf0414	-0.101082
27	0x3c231c53	0.0099554835
28	0xbd8085dd	-0.062755324
29	0xbd717584	-0.058949962
30	0x3dbae7a5	0.09126214
31	0xbd8fec61	-0.070275076
32	0x3c18313d	0.009289083
33	0x3b526b9d	0.00321076
34	0x3cd2bec1	0.025725724
35	0x3d7ce34d	0.06174021
36	0x3db2eba4	0.08736351
37	0x3c50dc1d	0.012747792
38	0xbd1fa1ec	-0.03897278
39	0xbe00965f	-0.12557362
40	0x3c51d114	0.012806196
41	0xbe0715fb	-0.13191979
42	0x3d0c4a4b	0.03425054
43	0x3d46a768	0.048499495
44	0xbc7e4ed2	-0.015521722
45	0xbd133a23	-0.035944115
46	0xbe16b50a	-0.14717498
47	0x3c7c2ae7	0.015391088
48	0xbd982c18	-0.07430285
49	0x3d817b8a	0.06322391
50	0x3d200360	0.03906572
51	0xbd6e7455	-0.05821641
52	0x3d0cb62c	0.03435342
53	0x3c81b15f	0.015831647
54	0xbabf4faf	-0.0014595891
55	0xbd3f193d	-0.04665493
56	0xbbe2f393	-0.006926009
57	0xbd88f8ef	-0.06688105
58	0xbddf3ddd	-0.10900471
59	0x3cc168f3	0.023609614
60	0xbd3b664e	-0.045751862
61	0x3db434f6	0.08799164
62	0x3d930883	0.07179358
63	0x3d6fea79	0.05857322
64	0x3ba5eb1f	0.005063429
65	0xbe103d50	-0.14085889
66	0x3ca8db5f	0.020612417
67	0xbe1db0d7	-0.1539949
68	0x3df42616	0.11921327
69	0xbca37b84	-0.019956358
70	0xbdec7a9d	-0.11546824
71	0xbcf6e485	-0.030138263
72	0x3d5f0764	0.054450408
73	0xbe03a9a3	-0.1285768
74	0x3d79c98a	0.06098322
75	0x3d83e22c	0.06439623
76	0xbdd0d8b2	-0.10197581
77	0xbd9299bf	-0.07158231
78	0x3c815d04	0.015791424
79	0x3cfa6fb8	0.03057085

weight f4 [80, 3, 1]
0	0xbd2c2b3c	-0.04203342
1	0x3d3bab15	0.045817453
2	0xbcf0686a	-0.029346664
3	0x3df8d989	0.121508665
4	0xbe242215	-0.16028626
5	0x3e124a5c	0.14286178
6	0xbd8c876d	-0.06861768
7	0x3dad9135	0.08474962
8	0xbdba0bc2	-0.09084274
9	0xbd2e3355	-0.042529423
10	0x3d5f28f4	0.054482415
11	0xbd2565be	-0.040380232
12	0x3d99b1d4	0.07504621
13	0xbd889e0c	-0.0667077
14	0x3d39d2b8	0.045366973
15	0x3d917600	0.07102585
16	0xbdc5025c	-0.09619591
17	0x3db56b26	0.088583276
18	0xbe08406d	-0.13305826
19	0x3e26bd74	0.16283208
20	0xbe25cb66	-0.16190872
21	0xbde88dd8	-0.113551795
22	0x3e239efa	0.15978613
23	0xbdf16ba9	-0.11788113
24	0xbdd3bbd2	-0.10338558
25	0x3dfbb452	0.12290253
26	0xbdc758b4	-0.09733716
27	0x3dd5609e	0.10418819
28	0xbde6ef9f	-0.11276173
29	0x3db332e0	0.08749938
30	0xbde4edb3	-0.1117815
31	0x3df126ef	0.11775004
32	0xbde9491e	-0.11390899
33	0x3df8ac0a	0.12142189
34	0xbe2840b0	-0.16430926
35	0x3e13273b	0.14370434
36	0xbd015df1	-0.03158373
37	0x3d4edd77	0.050504174
38	0xbd7581ef	-0.059938367
39	0xbd2d1843	-0.042259466
40	0x3c4de98c	0.012567889
41	0xbd3c6744	-0.04599692
42	0x3d0961c0	0.033540487
43	0xbd69f93e	-0.05712246
44	0x3d622ef1	0.055220548
45	0x3d1d78b0	0.038445175
46	0xbc9951fc	-0.018715851
47	0x3d0bdff5	0.03414913
48	0xbdb34aed	-0.08754525
49	0x3df6daf4	0.12053481
50	0xbdfbe060	-0.122986555
51	0x3e01fbee	0.1269376
52	0xbe3901bf	-0.18067072
53	0x3e1533cb	0.14570539
54	0xbda1a991	-0.0789367
55	0x3df64eec	0.12026772
56	0xbdcfe279	-0.10150618
57	0x3bb659a6	0.005564886
58	0xbccf2eaf	-0.025290815
59	0x3d0e692a	0.03476826
60	0xbda80e78	-0.08205885
61	0x3e096b6f	0.13419889
62	0xbdd00b82	-0.10158445
63	0x3d865ff5	0.06561271
64	0xbdc846e9	-0.0977915
65	0x3db351cd	0.08755837
66	0xbe07aa6a	-0.13248602
67	0x3e23b353	0.15986376
68	0xbe2488c2	-0.16067794
69	0x3e04715f	0.12933873
70	0xbe35e035	-0.1776131
71	0x3e0104d2	0.12599495
72	0xbdc00b98	-0.09377211
73	0x3e1310f7	0.1436194
74	0xbe03412b	-0.12817828
75	0xbd3c4617	-0.04596528
76	0x3dba686f	0.091019504
77	0xbd95b81c	-0.07310507
78	0x3dbad5a0	0.09122777
79	0xbe16253c	-0.14662641
80	0x3df8ae12	0.12142576
81	0x3d84240e	0.064521894
82	0xbdd8c1fc	-0.105838746
83	0x3da946c8	0.082654536
84	0x3d1ed821	0.038780335
85	0xbd6a0cfa	-0.05714128
86	0x3d7cf922	0.06176103
87	0xbd1b5605	-0.03792383
88	0x3d47e7a9	0.048804913
89	0xbd383457	-0.04497179
90	0x3de286b8	0.11060852
91	0xbe0fb5ab	-0.14034145
92	0x3e06ded5	0.13170941
93	0xbd5f2234	-0.054475978
94	0x3dcf94e9	0.10135824
95	0xbdb957c9	-0.09049947
96	0xbd577ad4	-0.052607372
97	0x3d9cba47	0.07652717
98	0xbd791734	-0.060813144
99	0xbd1cd43c	-0.03828834
100	0x3d67a2ba	0.056551673
101	0xbd28ba25	-0.041193146
102	0x3d3ca447	0.046055105
103	0xbd59c501	-0.053166393
104	0x3d16ed07	0.03684714
105	0x3d9f9308	0.07791716
106	0xbdd32163	-0.103091024
107	0x3df20e9d	0.118191935
108	0x3d086528	0.033299595
109	0xbd9088e9	-0.070573635
110	0x3d70a3be	0.058749907
111	0x3c960925	0.018314907
112	0xbd96cb2b	-0.0736297
113	0x3d6589db	0.056039672
114	0xbdc31da4	-0.09527138
115	0x3e0b5b1a	0.13608971
116	0xbdf45612	-0.11930479
117	0xbdaec80f	-0.08534252
118	0x3dd1fd96	0.10253446
119	0xbde9e78c	-0.11421117
120	0xbd906822	-0.07051112
121	0x3d962d5d	0.07332871
122	0xbd70bc07	-0.058773067
123	0xbd9d22b8	-0.07672638
124	0x3ddafa32	0.10692252
125	0xbdbca685	-0.092114486
126	0x3d7c31cf	0.06157094
127	0xbdbd5a94	-0.09245792
128	0x3dae8568	0.08521539
129	0xbd8509ea	-0.064960316
130	0x3d8a361f	0.06748604
131	0xbd76de75	-0.060270745
132	0x3ca18ca1	0.019720377
133	0xbcb6e240	-0.022324681
134	0x3d1b03ee	0.037845545
135	0xbdd1e288	-0.102482855
136	0x3e0e4160	0.13892126
137	0xbdef1fe5	-0.11676005
138	0xbca3c5e5	-0.019991824
139	0x3b4944d4	0.003071119
140	0x3b63a7b2	0.0034737405
141	0x3cff5c3a	0.031171907
142	0xbd856053	-0.06512513
143	0x3da28582	0.07935621
144	0xbd130958	-0.035897583
145	0x3d1c030f	0.038088854
146	0xbd6dcf8d	-0.058059264
147	0xbdb977e8	-0.090560734
148	0x3e0b2a5f	0.13590382
149	0xbde35839	-0.111008115
150	0xbda72469	-0.081612416
151	0x3e00d4d9	0.12581195
152	0xbde78410	-0.11304486
153	0xbd12af6c	-0.035811827
154	0x3d2b5dad	0.041837383
155	0xbd3d46f3	-0.04621024
156	0xbe156ce4	-0.1459232
157	0x3e2ff1b7	0.1718205
158	0xbe1b4e13	-0.15166502
159	0xbdbdcd4d	-0.09267674
160	0x3e0ea5cd	0.13930435
161	0xbdf6200b	-0.120178305
162	0xbd80be89	-0.06286342
163	0x3d96b551	0.07358802
164	0xbdbd6ebf	-0.09249639
165	0xbd0237d8	-0.031791538
166	0x3d59a5fa	0.053136803
167	0xbd477708	-0.0486975
168	0x3c8220e7	0.01588483
169	0xbc9157fe	-0.017742153
170	0x3ca56042	0.0201875
171	0xbcd3c244	-0.025849469
172	0x3d46dff6	0.04855343
173	0xbd5f127c	-0.054460987
174	0xbdd69ae2	-0.1047876
175	0x3df44ebc	0.1192908
176	0xbe0060bc	-0.12536901
177	0xbd07db26	-0.03316798
178	0x3d509361	0.0509218
179	0xbd4d16a3	-0.050070416
180	0x3e000f77	0.125059
181	0xbe2f7cca	-0.17137447
182	0x3e20d824	0.15707451
183	0xbd0ed456	-0.034870468
184	0x3da86013	0.0822145
185	0xbd6f7521	-0.058461312
186	0x3b5bb1ce	0.0033522728
187	0xbc95f8ec	-0.018307172
188	0x3d2824fe	0.041050903
189	0x3d8934ed	0.06699548
190	0xbdbb5263	-0.091465734
191	0x3db27ed3	0.08715596
192	0x3d00c5a3	0.03143848
193	0xbda5c600	-0.08094406
194	0x3d664fdb	0.0562285
195	0xbd54928e	-0.051897578
196	0x3df49fa7	0.11944514
197	0xbdcd1c10	-0.10015118
198	0xbe2efde1	-0.17089035
199	0x3e6065db	0.21913855
200	0xbe3e559d	-0.18587346
201	0xbbbdf95e	-0.005797549
202	0xbc59075b	-0.013246383
203	0x3c644f0e	0.013934864
204	0x3ca21f2f	0.01979026
205	0x3b6291b8	0.0034571718
206	0xbd17e4e4	-0.03708352
207	0xbd4d1f07	-0.050078418
208	0x3d8b1245	0.06790594
209	0xbd6fb976	-0.05852648
210	0xbdc4bf51	-0.09606803
211	0x3dfedffd	0.12445066
212	0xbde77686	-0.113019034
213	0xbdfdbee9	-0.12389929
214	0x3e2f27dd	0.1710505
215	0xbe1d8993	-0.15384512
216	0xbd9b3111	-0.07577718
217	0x3de698fa	0.11259647
218	0xbde0ce8d	-0.109768964
219	0xbd3cbf4a	-0.046080865
220	0x3c82dd66	0.015974712
221	0xbb402661	-0.002931975
222	0x3d5dc720	0.05414498
223	0xbcc61147	-0.02417816
224	0x3ca217df	0.019786773
225	0xbdc62e1a	-0.09676762
226	0x3df4f5f2	0.11960973
227	0xbdebccb8	-0.115136564
228	0xbd2506eb	-0.0402898
229	0x3d54a8aa	0.051918663
230	0xbc8a8685	-0.016909847
231	0x3d1f2bb6	0.038860045
232	0xbdc0f26e	-0.0942124
233	0x3dd90f85	0.10598663
234	0xbe09e8c4	-0.134677
235	0x3e3a1fd1	0.181762
236	0xbe0fb4d9	-0.14033832
237	0xbddbed4a	-0.10738619
238	0x3dff5644	0.12467626
239	0xbdf2b7b6	-0.11851446

bias f4 [80]
0	0x3e523b4b	0.20530431
1	0xbe1b9a4f	-0.15195583
2	0x3e5dae91	0.21648623
3	0x3edf0ae9	0.4356301
4	0xbef78cfc	-0.4834975
5	0xbaf15545	-0.0018412253
6	0x3e1ad55f	0.15120457
7	0x3d8b939d	0.068152644
8	0x3e6da0db	0.23205893
9	0xbf0530b6	-0.5202745
10	0xbdc5ef84	-0.096648246
11	0xbebffb38	-0.37496352
12	0x3e342611	0.17592646
13	0x3e635835	0.22201617
14	0x3f041f40	0.51610184
15	0xbe69fdfb	-0.22850792
16	0xbe2c2ccf	-0.16813968
17	0xbf034445	-0.51276046
18	0xbedd412f	-0.43213794
19	0x3efa4ff9	0.4888914
20	0xbd05e746	-0.032691263
21	0x3ed8863a	0.42289907
22	0xbe1fc0f0	-0.15600944
23	0xbeb92818	-0.36163402
24	0xbe077982	-0.13229945
25	0xbeea4646	-0.4575674
26	0xbebe870a	-0.37212402
27	0xbe4b735d	-0.19868226
28	0x3e8e0a74	0.2774235
29	0x3efbda69	0.4919007
30	0xbea8480d	-0.3286747
31	0x3e28cf73	0.16485386
32	0x3ec72990	0.38898897
33	0x3e73b292	0.23798588
34	0xbf05df49	-0.5229383
35	0xbeb396b4	-0.35075915
36	0x3d875dfb	0.06609722
37	0x3e16b393	0.1471694
38	0x3e2a1880	0.16610909
39	0x3e085c65	0.13316496
40	0x3ed94305	0.42433944
41	0x3ece4558	0.4028728
42	0x3ebe629c	0.37184608
43	0x3ed488ee	0.4151072
44	0x3ed68f89	0.41906384
45	0xbdaf9cca	-0.08574827
46	0x3eeac9ed	0.45857182
47	0x3e2ca130	0.16858363
48	0x3e91ad6b	0.2845262
49	0xbc062234	-0.008186866
50	0xbe531d13	-0.2061656
51	0x3e975e99	0.2956436
52	0x3d062383	0.03274871
53	0xbd713d1e	-0.058896177
54	0x3e6754d5	0.22590955
55	0x3ebaaaff	0.36458585
56	0x3ec58b0b	0.38582644
57	0xbe790311	-0.24317576
58	0xbe02a09c	-0.1275658
59	0xbe69c7a1	-0.22830059
60	0xbe8ac8c6	-0.27106303
61	0xbf0acd63	-0.54219645
62	0xbf02b259	-0.51053387
63	0x3e59da76	0.21274742
64	0xbda78601	-0.08179856
65	0x3e37e458	0.179582
66	0x3db6efa1	0.08932424
67	0x3ef773a2	0.48330408
68	0xbede54f6	-0.43424195
69	0x3e7efc26	0.24900874
70	0x3e1453a1	0.14485027
71	0xbcb0178e	-0.021495607
72	0x3da7003d	0.08154342
73	0x3ee85686	0.45378512
74	0xbef19e55	-0.4719111
75	0xbe639229	-0.22223724
76	0x3eeaae89	0.45836285
77	0x3ee4630b	0.44606814
78	0x3d8a93ef	0.06766497
79	0xbe3b9f55	-0.18322499

weight f4 [80, 80, 2]
0	0xbcd3058f	-0.025759486
1	0x3b55fddf	0.003265254
2	0x3d346176	0.04403826
3	0x3cb54a44	0.02213014
4	0xbc96d3f2	-0.01841161
5	0xbc0f4faf	-0.008747025
6	0x3ac19684	0.0014769589
7	0xbc835e4b	-0.016036173
8	0x3cdbd1c5	0.026833424
9	0x3c292ed5	0.010326107
10	0x3dba32e1	0.09091736
11	0x3b0d9196	0.0021601669
12	0xbd1fbefa	-0.03900049
13	0x3c634fd7	0.013874016
14	0xbd384fde	-0.044998042
15	0xbb967168	-0.004591156
16	0xbd11de89	-0.035612617
17	0x3904f2e4	0.00012678985
18	0x3d46b45c	0.048511848
19	0x3c87ab79	0.016561257
20	0xbd5094d1	-0.050923172
21	0xbc8f4719	-0.017489957
22	0x3d255c05	0.04037096
23	0x3c84f9a7	0.016232325
24	0xbccac4c8	-0.024752036
25	0xbb965941	-0.0045882766
26	0xbc7dcd29	-0.0154908085
27	0xbc10c8dd	-0.008836952
28	0x3c93fe15	0.018065492
29	0xbb29d95f	-0.0025916917
30	0x3cd37508	0.02581264
31	0x3ccf5ef6	0.025313836
32	0xbd27624d	-0.04086523
33	0xbbd03f7e	-0.006355225
34	0x3c0a8a1c	0.008455779
35	0x3bebc900	0.007195592
36	0xbcadb2fb	-0.021203509
37	0xbb2c7d49	-0.0026319793
38	0x3c0cedf4	0.008601654
39	0xbaed9597	-0.0018126246
40	0xbd8556b7	-0.0651068
41	0xbc9fecc7	-0.019522084
42	0xbc094113	-0.008377331
43	0xbc1028f4	-0.0087988265
44	0xbd9d6ee2	-0.07687165
45	0xbce19c4c	-0.027540348
46	0x3cf497c1	0.029857518
47	0x3c937d9d	0.018004233
48	0xbd0c27fe	-0.034217827
49	0xbc6971ea	-0.014248351
50	0x3bc5b5e5	0.0060336464
51	0xbbe6f449	-0.007048164
52	0x3cf2f72e	0.02965888
53	0x3ca2c7ce	0.019870665
54	0x3d3bb8e2	0.045830615
55	0xbbe00108	-0.0068360604
56	0x3c150871	0.009096251
57	0xbce8751d	-0.028376156
58	0xbb898a2b	-0.004197379
59	0xbc342c67	-0.0109969145
60	0x3c3df29d	0.011593488
61	0x3aa96681	0.0012924225
62	0xbc9768f7	-0.018482668
63	0xbb5bfcbe	-0.0033567394
64	0xb9a3a5f4	-0.00031213427
65	0x3a8fe23d	0.0010977458
66	0xba543f52	-0.00080965937
67	0x3bd5939b	0.00651784
68	0x3c8aab96	0.016927522
69	0x3bccc6ef	0.0062493007
70	0x3bf64622	0.0075156847
71	0x3a9c7a51	0.0011938309
72	0x3d0ea5c5	0.03482606
73	0x3a759704	0.00093685114
74	0x3d26be24	0.040708676
75	0x3aa0c7cf	0.0012266579
76	0xbd05680e	-0.032569937
77	0x3abba1a0	0.0014315136
78	0xbd234daf	-0.039869007
79	0xbb9cf3ac	-0.00478979
80	0xbcbff3f3	-0.023431754
81	0xbc87ca65	-0.016576001
82	0xbced16ef	-0.0289416
83	0x3bcc3485	0.0062318468
84	0x3ac20074	0.001480116
85	0x3ba4cc69	0.0050292504
86	0xbb6500cc	-0.0034943102
87	0xbcaf4c4f	-0.021398691
88	0x3af3fb7d	0.0018614378
89	0xbba2ff6d	-0.004974297
90	0xbd5890f4	-0.052872613
91	0xbc0dc2b7	-0.008652381
92	0xbc686f88	-0.014186747
93	0x3ab8cae3	0.0014098551
94	0x3cc34d53	0.023840582
95	0x3c6bbdff	0.01438856
96	0xbc004992	-0.0078300405
97	0x3bc21ef1	0.0059240987
98	0xbc0a54c2	-0.008443059
99	0xbb0ca5f2	-0.0021461216
100	0xbb341b0b	-0.002748194
101	0x3c4b6c59	0.012415969
102	0xbc3e2ba4	-0.011607084
103	0x3c211c70	0.00983344
104	0xbcc21edb	-0.023696354
105	0xbc11bd6e	-0.008895261
106	0xbd51b5f2	-0.051198907
107	0x3c893af3	0.016751742
108	0xbafc32a5	-0.0019241167
109	0xbc5e5b03	-0.013571504
110	0xbc9a238c	-0.018815778
111	0xbcadd75e	-0.02122086
112	0x3b927c54	0.0044703875
113	0xbc363338	-0.01112061
114	0xbc27deee	-0.010246022
115	0xbccd4616	-0.025057834
116	0xbd1c388c	-0.038139865
117	0xbc025690	-0.007955208
118	0xbcab18ab	-0.020885786
119	0x3c50bffe	0.012741087
120	0x3d429ac4	0.047510877
121	0x3beea5a1	0.007282928
122	0xbceb47e2	-0.0287208
123	0xbb57eceb	-0.003294761
124	0x3d04efbb	0.032455187
125	0x3cf06a8d	0.029347682
126	0x3d0ed9d3	0.034875702
127	0x3c58521d	0.013203171
128	0x3c5c5716	0.013448497
129	0xbc2f1426	-0.010685956
130	0xbd218ba7	-0.039439823
131	0xbbf18be7	-0.007371414
132	0xbd1fcf05	-0.03901579
133	0xbc83b97b	-0.016079655
134	0x3b3d15f8	0.0028852206
135	0xbc550623	-0.013001951
136	0x393664c2	0.00017394408
137	0x3c5d8fd8	0.013523065
138	0xbc6fa7c1	-0.014627398
139	0xbc62362a	-0.013806859
140	0xbce0c30c	-0.027436756
141	0xbc78ac2f	-0.0151777705
142	0xbdc4c14f	-0.09607183
143	0xbc85ea09	-0.016346948
144	0xbca93a86	-0.020657789
145	0xbc922ee6	-0.017844629
146	0xbbfb5730	-0.0076703057
147	0x3ce48b14	0.027898349
148	0x3d0ffb23	0.035151612
149	0x3d1c58ed	0.038170744
150	0xbc3c10ce	-0.011478616
151	0xbc1756fb	-0.009237046
152	0xbb85959f	-0.004076674
153	0xbbefa92b	-0.0073138676
154	0x3c875aac	0.016522728
155	0xbccaa795	-0.024738112
156	0xbcccfe27	-0.025023533
157	0x3c1dba3c	0.009626921
158	0xbd6e3029	-0.058151398
159	0xbb5e80a8	-0.0033951197
160	0x3b973e82	0.004615606
161	0xbc0f233a	-0.008736426
162	0xbd17684b	-0.036964696
163	0xbd258d8a	-0.040418185
164	0xbc124129	-0.008926668
165	0xbb9ec597	-0.004845332
166	0xbbfd9be7	-0.0077395323
167	0xbc13a905	-0.009012465
168	0x3bc3e020	0.0059776455
169	0xba24f72f	-0.0006292937
170	0xbd901027	-0.07034331
171	0xbda20d36	-0.07912676
172	0x3c8cac98	0.017172143
173	0x3cd94962	0.02652425
174	0x3d37e8ba	0.04489968
175	0x3d1a54dc	0.037678584
176	0x3b77d815	0.0037818004
177	0x3b3163a4	0.0027067447
178	0xbc26dc82	-0.010184409
179	0x3c8fe68a	0.017565984
180	0x3e15b126	0.14618358
181	0x3e1bd194	0.15216666
182	0xbb5cd015	-0.0033693362
183	0xbccd12b8	-0.02503334
184	0x3c9b70d6	0.018974703
185	0x3be1c805	0.0068902993
186	0x3c6e4712	0.014543312
187	0xbb938d89	-0.0045029563
188	0xbc9761eb	-0.018479308
189	0xbc9aab70	-0.018880576
190	0x3c5649c6	0.013079112
191	0xbc13259b	-0.008981134
192	0x3daad1c1	0.08340789
193	0x3dbcbeee	0.092161044
194	0xbbe2402b	-0.006904622
195	0x3bffff0d	0.007812387
196	0x3d300d25	0.042981286
197	0x3ca28826	0.019840311
198	0xbbe62f9b	-0.007024718
199	0xbcf56a5d	-0.029957945
200	0x3e13fa21	0.14450885
201	0x3e2e59c5	0.17026432
202	0xbc9c10d2	-0.01905099
203	0xbd2507ca	-0.04029063
204	0x3dc5cf5c	0.09658691
205	0x3dd8dd4f	0.10589086
206	0xbc404ceb	-0.011737089
207	0xbc9c08e8	-0.019047216
208	0x3e3045f3	0.17214184
209	0x3e1f2d2d	0.15544577
210	0x3c8c8e2b	0.017157635
211	0x3d152645	0.03641345
212	0xbca4520c	-0.020058654
213	0xbb32c63d	-0.0027278804
214	0xbc65ddd6	-0.014029941
215	0xbcbefef4	-0.02331493
216	0xbd1329fc	-0.03592871
217	0xbd18d263	-0.037310015
218	0x3bdc00df	0.006713971
219	0xbb867ab8	-0.0041039847
220	0x39d6268d	0.00040845983
221	0x3b2ab39a	0.0026046992
222	0x3aa8d88b	0.0012881918
223	0x3c740296	0.014893195
224	0x3c10ed91	0.008845703
225	0xba5ca654	-0.0008417119
226	0x3c2e724e	0.01064737
227	0xbc73e665	-0.014886473
228	0x3ca7807f	0.020447014
229	0xbab37a0a	-0.0013692987
230	0x3ba3b815	0.0049963095
231	0x3b1cf04d	0.0023946941
232	0xbd03a691	-0.032141272
233	0xbd4e72dd	-0.05040251
234	0xbcbc5a9f	-0.02299243
235	0xbd90b1f2	-0.070651904
236	0x3b77e117	0.0037823373
237	0x3c92721c	0.017876677
238	0x3d01e8ca	0.031716146
239	0x3ccff5b7	0.02538572
240	0x3baaaedd	0.0052088336
241	0x3a828872	0.0009958877
242	0x3c0835f0	0.008313641
243	0x3c5cc5b2	0.013474869
244	0xbcfaef0c	-0.030631565
245	0xbc51c4ad	-0.012803239
246	0xbc240b7c	-0.010012504
247	0x3c251e9f	0.010078101
248	0xbb8c4926	-0.004281181
249	0xbca9e77c	-0.020740263
250	0x3e1afa46	0.15134534
251	0x3e5e05b6	0.21681866
252	0xbc590ba1	-0.013247401
253	0xbc3a6651	-0.011376933
254	0xbd2ece46	-0.042677186
255	0xbd4a2c5f	-0.04935872

bias f4 [80]
0	0xbd53c0f9	-0.051697705
1	0x3ca0f29d	0.019646937
2	0xbd86d31a	-0.06583233
3	0xbd20733e	-0.039172404
4	0x3cf058ea	0.029339273
5	0xbd01dbbc	-0.031703696
6	0xbd84cc5c	-0.06484291
7	0x3c86b06f	0.016441552
8	0xbc84959c	-0.01618462
9	0x3c9f1680	0.019419909
10	0xbd5e1518	-0.054219335
11	0xbd6f629d	-0.058443654
12	0x3c42b05a	0.011882866
13	0xb984f84e	-0.00025362003
14	0xbd052732	-0.032508083
15	0xbccab3c6	-0.024743926
16	0x3d7615b6	0.0600793
17	0xbd8ff1cd	-0.07028542
18	0xbd4b3a45	-0.049616117
19	0x3d002ce9	0.03129283
20	0x3d5e7f36	0.054320537
21	0xbbfeb79b	-0.0077733523
22	0x3d6a9902	0.057274826
23	0x3d027d83	0.03185798
24	0x3d0a2b93	0.033732962
25	0x3d1465e4	0.036229983
26	0x3d330727	0.043707993
27	0xba4c7a25	-0.00078001834
28	0xbda48263	-0.08032682
29	0x3d2ba501	0.041905407
30	0x3d156f4c	0.036483094
31	0x3d64642b	0.05575959
32	0xbbcd03b3	-0.0062565445
33	0xbd920086	-0.07129006
34	0xbc9a7f82	-0.018859629
35	0x3caf5cef	0.021406619
36	0xbd822575	-0.063548006
37	0xbb8d952b	-0.0043207607
38	0xbce26596	-0.02763633
39	0xbd2be4fe	-0.04196643
40	0xbce77331	-0.02825317
41	0x3d6ed12d	0.058304954
42	0xbcf209d7	-0.029545708
43	0xbd829da4	-0.06377724
44	0xbd204b68	-0.039134413
45	0x3d763f0c	0.06011872
46	0x3d772c07	0.060344722
47	0xbd85aa62	-0.065266386
48	0xbcc148de	-0.023594316
49	0x3cedab04	0.02901221
50	0x3d4a597a	0.049401738
51	0xbc6d8939	-0.014498048
52	0x3bc3688b	0.00596339
53	0xbc2046bd	-0.00978249
54	0x3cbc385e	0.022976097
55	0xbd68e0ad	-0.056854893
56	0xbd66397f	-0.056207176
57	0x3d1fcacb	0.039011758
58	0x3d5f3d18	0.054501623
59	0xbd525107	-0.051346805
60	0xbcebb19f	-0.02877122
61	0xbd0ad677	-0.033895936
62	0x3d90ad64	0.07064322
63	0xbd606d5c	-0.054791793
64	0x3d2f66b1	0.042822544
65	0xbba780db	-0.0051117963
66	0xbcbe9039	-0.02326213
67	0x3c9ec037	0.019378765
68	0xbc6940f9	-0.014236682
69	0xbc6ed9c0	-0.014578283
70	0xbbf459b5	-0.007456983
71	0x3d9c7f2f	0.07641446
72	0xbd79f08a	-0.06102041
73	0x3d632742	0.05545736
74	0x3d377484	0.044788852
75	0x3c044173	0.008072245
76	0x3bdb359b	0.00668974
77	0x3cc61098	0.024177834
78	0xbcd174b3	-0.025568342
79	0x3cdd6f12	0.027030502

weight f4 [80, 80, 2]
0	0x3c8fa5dd	0.017535144
1	0xbbabc1aa	-0.0052415924
2	0xbb8cb367	-0.0042938474
3	0xbafda84b	-0.0019352523
4	0x3bf1f2e3	0.0073836907
5	0x3c4b3562	0.012402864
6	0x3a53248e	0.00080544583
7	0x3c468b23	0.012118134
8	0xbc57828b	-0.013153682
9	0x3b900540	0.004395157
10	0x3cd5b3fd	0.026086802
11	0xbcacc947	-0.02109207
12	0xbcfeb290	-0.031091005
13	0xbc48728e	-0.012234343
14	0x3c572c89	0.013133177
15	0xbc943c32	-0.01809511
16	0xbc7ac22c	-0.015305083
17	0xbb198ee1	-0.002343111
18	0x3cc0a2f6	0.023515206
19	0xbbe53141	-0.006994397
20	0xbc8d2f17	-0.017234368
21	0xbcc63cdf	-0.024198947
22	0x3b27a30a	0.0025579357
23	0xbc4d69bd	-0.012537417
24	0x3c904f4d	0.017615939
25	0xbc89caa3	-0.016820258
26	0xbced17a7	-0.028941942
27	0xbc93fcb0	-0.018064827
28	0xb9b77d51	-0.00034997848
29	0x3c5f4e8c	0.013629567
30	0x3be2cebf	0.0069216187
31	0xba7b0ee4	-0.0009577109
32	0x3c210685	0.0098282145
33	0xbb86faa3	-0.0041192337
34	0x3c09490a	0.00837923
35	0x3c9c50d4	0.01908151
36	0xbc90029e	-0.017579373
37	0x3c0b9112	0.008518474
38	0xbb06ca72	-0.0020567444
39	0xbba6a6c1	-0.0050857966
40	0x3bd657c5	0.0065412247
41	0x3a9b1857	0.0011832815
42	0x3ba8d717	0.005152594
43	0x3c0e686c	0.008691888
44	0x3bde3bac	0.006782016
45	0x3cc26f2d	0.023734653
46	0xbb0b9658	-0.0021299329
47	0xbd209c99	-0.039211843
48	0x3b9c4258	0.004768651
49	0x3b8999de	0.0041992506
50	0xbc685a68	-0.014181711
51	0xbd359bf2	-0.044338174
52	0xbc709d9c	-0.0146860145
53	0xbc275371	-0.010212765
54	0xbcfb2d35	-0.030661205
55	0xbcd5ff2d	-0.026122654
56	0xbca19cbb	-0.019728055
57	0xbbda941a	-0.006670487
58	0xbc94c3a2	-0.018159691
59	0xbc0ae337	-0.008477024
60	0xbccf85c7	-0.025332345
61	0xbcc3657f	-0.023852108
62	0x3c8a948f	0.016916541
63	0xbc68257b	-0.014169092
64	0xbc8a7ce0	-0.016905248
65	0xbd2e4de6	-0.04255476
66	0xbcbf3d3b	-0.023344627
67	0xbc73067b	-0.014833088
68	0x3c0506fb	0.00811934
69	0x3c6b52a8	0.0143629685
70	0xbc72f460	-0.014828771
71	0xbd061c03	-0.032741558
72	0x3d0726fc	0.032996163
73	0x3cdcc3e3	0.026948875
74	0x3ce73e3a	0.028227914
75	0xbc6c4822	-0.014421495
76	0xbc634b76	-0.013872972
77	0xbc8b96d7	-0.0170397
78	0x3d09d8ba	0.033653952
79	0x3bb9a3b8	0.0056652687
80	0xbc603643	-0.013684812
81	0xbd14014c	-0.03613405
82	0x3682e36c	3.9007773e-06
83	0x3b0a2621	0.0021079856
84	0xbc6ebc01	-0.014571191
85	0xbb67d881	-0.003537685
86	0xbc4ec0fb	-0.012619252
87	0xbcadcdc6	-0.021216284
88	0x3c738e8f	0.014865532
89	0x3bfe3cc7	0.00775871
90	0xbcbd4c4c	-0.02310767
91	0x3c91e9e8	0.01781173
92	0xbc9176b5	-0.0177568
93	0x3cb9a19b	0.022660067
94	0x3b8aa8af	0.0042315344
95	0x3c558d47	0.013034171
96	0x3c379e08	0.011207111
97	0xbc9d3be6	-0.0191936
98	0xbbd9feb6	-0.0066526784
99	0x3b6d014a	0.0036164098
100	0xbc8d676b	-0.017261228
101	0x3c92b230	0.017907232
102	0xbbb98f0a	-0.0056628035
103	0xbb23710c	-0.0024939207
104	0x3c8e2753	0.017352736
105	0x3b4f42f3	0.0031625598
106	0x3cd6decc	0.026229285
107	0xbb650f72	-0.0034951833
108	0xbca72516	-0.020403426
109	0xbd00e9d1	-0.031472985
110	0xbd047bfb	-0.0323448
111	0xbbebe719	-0.00719918
112	0xbcd7b25d	-0.026330167
113	0x3c8634e4	0.016382642
114	0x3a492b12	0.00076739595
115	0xbcc33397	-0.02382831
116	0xb8b2d338	-8.527044e-05
117	0x3b200b79	0.00244209
118	0xbbb0cb89	-0.005395357
119	0x3ac97f26	0.0015372976
120	0xba09988a	-0.00052488653
121	0x3c18a072	0.009315597
122	0x3c731201	0.014835835
123	0x3bf69263	0.007524775
124	0xbc5d71b6	-0.01351588
125	0xbac8bd98	-0.0015315292
126	0xbc7b2171	-0.015327797
127	0xbc8f9bb6	-0.017530303
128	0x3bdd27b1	0.0067491163
129	0xbc499b7c	-0.012305137
130	0x3b9f2b30	0.0048574433
131	0xbc8adc28	-0.016950682
132	0xbd00f89f	-0.031487104
133	0xbc2131a1	-0.009838493
134	0xbc95e692	-0.018298421
135	0xbd10a8ba	-0.03531716
136	0xbc3d4441	-0.0115519175
137	0xbc177416	-0.009243986
138	0xbbbda083	-0.0057869568
139	0x3c1e83b4	0.009674955
140	0x3cdd22f5	0.026994208
141	0xbbdce2ee	-0.0067409193
142	0x3c0df802	0.008665087
143	0x3c8255f4	0.015910126
144	0x3c2cc1d5	0.01054426
145	0xbb3f829b	-0.0029222134
146	0xbc5f6dc3	-0.013637009
147	0x3cf303a9	0.029664831
148	0xbd11088c	-0.03540854
149	0xbd1f6520	-0.0389148
150	0x3b6d7de0	0.0036238357
151	0xbc7dbba6	-0.015486633
152	0x3ce03ad4	0.027371801
153	0x3ad7345c	0.0016418803
154	0xbc8453a0	-0.016153157
155	0x3b23eae0	0.0025011823
156	0xbc6acfa4	-0.014331732
157	0xbcbc0bdb	-0.022954872
158	0xbc4f3af2	-0.012648331
159	0xba7a91d5	-0.0009558474
160	0xbc99c3f1	-0.01877019
161	0x3cb585d6	0.022158545
162	0xbc9178cb	-0.017757794
163	0xbc7fbec5	-0.015609448
164	0x3c6fa6fb	0.014627214
165	0x3c20523c	0.009785231
166	0xbc726ad2	-0.014795976
167	0x3b7ae7e8	0.00382852
168	0x3b89bd4e	0.004203475
169	0xbb8a1225	-0.004213589
170	0x3d2f3811	0.04277808
171	0xbd816969	-0.063189335
172	0xbd40a86c	-0.04703562
173	0xbc8310a9	-0.015999155
174	0x3cd37a16	0.025815051
175	0xbca17646	-0.019709717
176	0xbcc75d20	-0.024336398
177	0x3b86688d	0.004101819
178	0x3c9f8c16	0.019475978
179	0x3ca67811	0.020320924
180	0xbccad726	-0.024760794
181	0xbcefcb68	-0.029271796
182	0xbd12da21	-0.035852555
183	0xbcd288da	-0.025700022
184	0x3d0a8aa6	0.03382363
185	0xbd2b9ecd	-0.04189949
186	0xbbc56d25	-0.006024974
187	0xbd4d1c69	-0.050075922
188	0xbc4ee8ef	-0.012628778
189	0x3c0bc808	0.008531578
190	0xbdb8cda9	-0.090236016
191	0x3cde7f04	0.027160175
192	0x3b6128a1	0.0034356492
193	0xbbe84e76	-0.0070894314
194	0xbda3e0a4	-0.08001831
195	0x3cc0e1f6	0.023545247
196	0x3d04643c	0.032322153
197	0xbc2701f7	-0.01019334
198	0xbd08f5a7	-0.033437397
199	0xbd0d2977	-0.034463372
200	0x3d5716ad	0.05251186
201	0xbd545ad1	-0.05184442
202	0x3d2cde8f	0.042204436
203	0xbd937a0d	-0.07201014
204	0x3d043ad0	0.03228265
205	0x3c34de1c	0.011039283
206	0xbbe0494b	-0.0068446747
207	0xbc14431a	-0.009049201
208	0xbd729a0b	-0.059228938
209	0xbc646b1d	-0.013941553
210	0xbb470c38	-0.0030372273
211	0xbc325155	-0.010883649
212	0xbb392d03	-0.002825559
213	0x3bda8b66	0.0066694496
214	0xbcc66067	-0.02421589
215	0xbc8f7b7f	-0.017514942
216	0xbd129776	-0.035788976
217	0xbd02a512	-0.031895705
218	0x3b862f29	0.0040949774
219	0xbc135c12	-0.008994119
220	0xba9ad04c	-0.0011811345
221	0xbbd6a0d6	-0.006549935
222	0xbaab5e21	-0.0013074317
223	0x3c52208d	0.0128251435
224	0xbcd548c0	-0.026035666
225	0xbd7455e4	-0.059652224
226	0xbc628f08	-0.013828047
227	0xbc7eae05	-0.015544419
228	0x3c7d51db	0.01546141
229	0x3c194d97	0.009356878
230	0xbd06e62e	-0.03293436
231	0xbcd5ddf2	-0.026106808
232	0xbdada772	-0.08479203
233	0x3d326374	0.043551877
234	0xbc67f417	-0.014157317
235	0x3b80448b	0.003914421
236	0xbc73fe15	-0.014892121
237	0x3bc5466e	0.0060203588
238	0x3ce28da2	0.027655426
239	0xbd820936	-0.06349413
240	0xbbc26f7b	-0.0059336997
241	0xbb358fba	-0.0027704076
242	0x3b94f5c8	0.004545901
243	0x3c0fb3cd	0.008770895
244	0xbcabefe2	-0.020988408
245	0xbd34e1a2	-0.044160493
246	0xbb86fb03	-0.0041192784
247	0x3bcfb7e3	0.0063390597
248	0x3c8c99fe	0.017163273
249	0x3b8a5667	0.0042217257
250	0x3c524645	0.012834136
251	0xbcb6956d	-0.022288049
252	0x3b87c21d	0.004143013
253	0x3c13d338	0.009022526
254	0x3c54fb3c	0.012999352
255	0x3c1cb1b2	0.00956385

bias f4 [80]
0	0xbdc1a83d	-0.09455917
1	0xbd54059d	-0.051763166
2	0xbd18f901	-0.037346844
3	0xbc102da5	-0.008799945
4	0xb9d1ec2a	-0.00040039542
5	0xbd160e66	-0.036634825
6	0xbd558daa	-0.052137055
7	0x3c8060cc	0.015671156
8	0xbb754c49	-0.0037429503
9	0x3d4e9196	0.05043181
10	0x3a84aa93	0.0010121636
11	0x3cf83127	0.030296875
12	0xbbc4bbe6	-0.0060038446
13	0x3c2ea6ce	0.0106598865
14	0xbc026576	-0.0079587605
15	0x3d515b3d	0.051112402
16	0x3c891746	0.01673473
17	0x3c94d216	0.018166583
18	0xbd152b22	-0.036418088
19	0x3ca62a15	0.020283738
20	0x3d505145	0.050858755
21	0xbde04bae	-0.10951935
22	0x3d3a4ac3	0.045481455
23	0xbcbf46ce	-0.023349192
24	0x3d344643	0.04401232
25	0x3d2910cc	0.041275784
26	0x3d66b7fb	0.0563278
27	0x3c202cb7	0.009776286
28	0xbdabc1fd	-0.0838661
29	0xbd775fbb	-0.06039403
30	0x3cf6310b	0.030052682
31	0x3bf82856	0.007573168
32	0xbd7c49c4	-0.061593786
33	0xbdd662ad	-0.1046804
34	0x3cc39a07	0.023877157
35	0xbd96cf22	-0.07363726
36	0xbd0946bc	-0.033514723
37	0x3a212ebb	0.0006148626
38	0xbd246f7f	-0.040145393
39	0xbd1e5215	-0.0386525
40	0xbbfc5da7	-0.007701594
41	0xbca56bca	-0.020193
42	0x3b350c40	0.002762571
43	0xbd999885	-0.07499794
44	0x3ba3bce5	0.004996883
45	0xbd211e72	-0.039335676
46	0xbd91ed1b	-0.071253024
47	0xbd55de54	-0.05221398
48	0xbcc58b49	-0.024114268
49	0xbd240ca7	-0.04005113
50	0xbda2d651	-0.07951034
51	0xbd979ad9	-0.07402582
52	0x3d26747e	0.04063844
53	0xbd85a43a	-0.06525464
54	0xbcb714f8	-0.022348866
55	0xbd746da0	-0.05967486
56	0xbdebd92d	-0.11516032
57	0xbc3161ac	-0.010826509
58	0xbd987455	-0.074440636
59	0x3d0f762c	0.035024807
60	0x3cf63cff	0.030058382
61	0x3dbff68b	0.09373196
62	0xbd1c4826	-0.038154744
63	0xbde11187	-0.10989671
64	0x3d41a159	0.047273014
65	0xbcfc717c	-0.030815832
66	0xbcb4294a	-0.021992344
67	0xbddc57f3	-0.107589625
68	0xbd2480be	-0.04016184
69	0x3c96a5e6	0.018389653
70	0xbdb48fcf	-0.08816492
71	0x3cbdbb01	0.02316046
72	0x3d147338	0.036242694
73	0xbd875f51	-0.06609977
74	0x3d3334cc	0.043751523
75	0x3ce4f3dd	0.027948314
76	0xbdce82ad	-0.10083518
77	0xbad50724	-0.0016252738
78	0xbd3741e1	-0.04474056
79	0xbd2bc7cf	-0.0419386
