GAN/PM Generator/PM_epochs=5_seq=127_batch=29.pth (torch, 674918 bytes, 31 tensors)

weight f4 [1, 80, 1]
-0.007406524 0.02023367 -0.006570784 -0.0035308315 -0.011425355 -0.0042601014 0.012927053 -0.026536688
-0.008790046 0.0018662082 -0.0071167704 -0.01461027 -0.018477025 -0.015279551 0.025572268 -0.0016501603
-0.02007142 -0.0013557886 -0.008889616 -0.006106553 0.024498606 -0.009656692 -0.0041951444 -0.00034296984
-0.025464725 -0.008345805 -0.006032893 0.004372747 -0.0019295603 -0.0021728298 -0.011390388 -0.0009676718
-0.009594126 0.0007608653 -0.0017022123 -0.012981396 -0.00062058365 -0.020102838 0.003496405 -0.005804486
-0.01322743 -0.0015094053 0.011699704 -0.017725447 -0.008330428 0.010650501 0.01247506 -0.013273182
-0.0070252856 0.013946251 -0.00926634 -0.008773264 0.011913786 0.023772404 -0.011410911 0.010784397
-0.007535008 0.0001153059 -0.010877857 -0.008385161 -0.02190721 -0.0038642485 0.013453095 -0.0036843787
-0.0049846102 -0.012399432 0.007993897 -0.0011501746 0.017054612 -0.0029705765 -0.00393683 -0.008690593
0.01950865 -0.011885136 0.00836288 0.010958068 -0.007060245 0.007221477 0.020432966 -0.0010860323
00000000: 6db2 f2bb 15c1 a53c bb4f d7bb 8665 67bb
00000010: 6a31 3bbc 5298 8bbb fdcb 533c 7863 d9bc
00000020: 2004 10bc 8e9b f43a cc33 e9bb ea5f 6fbc
00000030: 215d 97bc 1557 7abc ef7c d13c 314a d8ba
00000040: d26c a4bc b7b4 b1ba c0a5 11bc 7b19 c8bb
00000050: 4db1 c83c 1a37 1ebc 6c77 89bb a2d0 b3b9
00000060: 669b d0bc d8bc 08bc 93af c5bb 4349 8f3b
00000070: 4de9 fcba 0966 0ebb c09e 3abc 5bab 7dba
00000080: ae30 1dbc ce74 473a c41c dfba ecaf 54bc
00000090: aaae 22ba b5ae a4bc f123 653b 8f33 bebb
000000a0: ddb7 58bc 3dd7 c5ba 1eb0 3f3c f534 91bc
000000b0: 597c 08bc 707f 2e3c 3264 4c3c c377 59bc
000000c0: 5e34 e6bb d17e 643c d9d1 17bc bcbd 0fbc
000000d0: 0a32 433c 58be c23c d4f4 3abc 0ab1 303c
000000e0: 3ae8 f6bb 62d0 f138 0a39 32bc ea61 09bc
000000f0: c076 b3bc 553f 7dbb 5f6a 5c3c 9e75 71bb
00000100: f155 a3bb fd26 4bbc d6f8 023c 75c1 96ba
00000110: 1db6 8b3c 01ae 42bb 8600 81bb fd62 0ebc
00000120: 9bd0 9f3c e0b9 42bc 7604 093c 7889 333c
00000130: a159 e7bb 24a2 ec3b 0963 a73c 3259 8eba

weight f4 [80, 3, 1]
0.00977646 0.009895536 -0.025732279 0.002888287 -0.004989841 0.02202056 -0.010349685 0.0039925813
0.017016834 -0.004186563 0.015382277 -0.000994879 0.0026697484 0.018947294 0.005878874 -0.014155868
-0.022263894 0.012694198 -0.011151987 -0.003438594 0.0028154578 0.006545942 0.012719921 -0.0049241898
0.0107604405 0.011414821 -0.012094489 -0.014438497 -0.0073046884 0.013408129 0.008022812 -0.0025327287
-0.0058429013 -0.01662319 -0.0004254235 -0.0065597678 0.0019028134 0.008036614 0.009773743 0.00012987279
0.017181808 -0.00931531 0.0022608684 -0.008873312 -0.0030848773 -0.0074937637 -0.0023123084 0.005207684
-0.014697172 -0.009983159 -5.260755e-05 -0.001775438 -0.008045885 -0.002693205 0.0120893875 -0.005890273
-0.011110228 0.0015409512 -0.011769718 0.016964134 -0.0072869933 0.009463082 0.0026755831 0.00071593345
-0.0062444326 -0.0024147031 0.016346002 -0.004086198 0.004715214 0.00022303722 0.004418503 0.004247143
-0.01251702 -0.00063456444 0.0029200877 -0.010286826 0.015129493 -0.003490003 -0.006162381 -0.010419303
-0.0035201402 0.007628125 -0.023188056 -0.013400738 -0.0033900654 0.00067122385 -0.022852683 -0.0060626348
0.001397949 -0.016552703 0.005343515 -0.008565769 0.013539208 0.011326665 0.013036317 0.0029997
0.00087719917 0.0054099984 -0.00038392184 0.011968933 -0.012063243 0.009573139 -0.0105922595 0.014322101
-0.019470565 -0.0135689825 0.0020326278 -0.0013965071 -0.02040595 0.00034166835 -0.012104233 0.008393129
0.0026681526 -0.008484899 0.010927149 0.00020629333 0.022487292 -0.0007125524 0.030312415 0.0052280817
0.0012099121 0.017306078 -0.0077258074 0.010962218 -0.0064255246 -0.004778435 0.016894182 -0.0008756517
0.0049521583 0.0022017255 0.02520829 0.0023215453 0.02848279 0.004284938 -0.0038962616 0.009777279
-0.01996349 0.018227782 0.018626718 -0.009946496 0.008088243 0.008437039 0.015408756 -0.0049732593
-0.013300932 -0.012511843 0.009529718 -0.0019797527 -0.016293636 -0.00730432 0.010823675 0.014283026
-0.012422042 0.0041278536 -0.01154516 0.021556715 0.002415246 0.0068817837 -0.006000792 0.01764717
-0.005608967 0.017658575 0.00490453 0.012597845 0.012935681 -0.005854876 0.0033153298 0.0004871969
0.014336923 -0.002094135 0.008136197 0.0025406652 -0.0053297104 0.00041098916 -0.0126444 -0.00641902
0.0053722523 -0.0007277534 0.02114905 -0.011862875 -0.010876598 -0.0040377555 -0.01490281 0.0061025727
0.0013171759 0.003358292 -0.0010375322 0.006508229 0.010739575 0.01265208 0.007875239 -0.013791562
0.00039374936 -0.013978222 0.0004728516 -0.0012309079 -6.5851644e-05 -0.0033152532 0.0029217862 0.014545248
0.0041880524 -0.006882925 0.0152668385 -0.0171072 -0.011408957 -0.004626667 0.0025396147 0.002961867
-0.008330478 -0.007950741 0.013756745 -0.0038951624 0.015482497 0.017605972 0.0037502944 -0.006145464
0.014758622 0.0042058006 -0.011075175 0.003939518 0.00069665536 0.007974627 -0.012526823 6.023636e-05
-0.034349766 0.0046547214 -0.01007958 -0.0025596102 -0.005651502 -0.011528714 0.01851983 0.01713857
0.014998223 -0.00052521715 0.013836158 0.000830715 0.014819956 0.004528014 0.018090054 0.015563703
00000000: 722d 203c e320 223c 80cc d2bc 6a49 3d3b
00000010: d281 a3bb 7664 b43c ba91 29bc 33d4 823b
00000020: e366 8b3c 702f 89bb f205 7c3c 9a66 82ba
00000030: f2f6 2e3b 5b37 9b3c 92a3 c03b 04ee 67bc
00000040: c562 b6bc 53fb 4f3c d3b6 36bc 095a 61bb
00000050: 8b83 383b 577f d63b 3767 503c 195b a1bb
00000060: 8f4c 303c 3b05 3b3c f727 46bc 728f 6cbc
00000070: 2b5c efbb c5ad 5b3c 1d72 033c 23fc 25bb
00000080: cf75 bfbb 5b2d 88bc 600b dfb9 52f3 d6bb
00000090: d367 f93a 01ac 033c 0d22 203c 762e 0839
000000a0: ddc0 8c3c 3e9f 18bc 142b 143b 5e61 11bc
000000b0: a72b 4abb 3f8e f5bb 198a 17bb 38a5 aa3b
000000c0: 68cc 70bc 6790 23bc eda6 5cb8 d0b5 e8ba
000000d0: e3d2 03bc 7b80 30bb 9112 463c 3103 c1bb
000000e0: ac07 36bc bef9 c93a c6d5 40bc 5ef8 8a3c
000000f0: bbc7 eebb 0b0b 1b3c d658 2f3b 7bad 3b3a
00000100: 199e ccbb ff3f 1ebb 0de8 853c 83e5 85bb
00000110: 1582 9a3b 19df 6939 17c9 903b 9e2b 8b3b
00000120: 3014 4dbc e658 26ba f15e 3f3b 138a 28bc
00000130: b1e1 773c 89b8 64bb cced c9bb b9b5 2abc
00000140: 27b2 66bb 5af5 f93b e1f4 bdbc c58e 5bbc
00000150: dc2b 5ebb 12f5 2f3a 8d35 bbbc 11a9 c6bb
00000160: 623b b73a 8999 87bc a718 af3b 7057 0cbc
00000170: 8ed3 5d3c 7a93 393c 4796 553c 9d96 443b
00000180: d7f3 653a 5b46 b13b 1e49 c9b9 5819 443c
00000190: e9a4 45bc a8d8 1c3c 288b 2dbc 3fa7 6a3c
000001a0: bc80 9fbc 7050 5ebc d635 053b 010b b7ba
000001b0: 612a a7bc f321 b339 d550 46bc 5683 093c
000001c0: 2cdc 2e3b 3f04 0bbc c907 333c 7250 5839
000001d0: 4537 b83c 95ca 3aba be51 f83c 5450 ab3b
000001e0: ea95 9e3a 7ac5 8d3c c528 fdbb e09a 333c
000001f0: 358d d2bb 6b94 9cbb ab65 8a3c fe8b 65ba
00000200: b745 a23b d34a 103b 9e81 ce3c 1125 183b
00000210: bd54 e93c aa68 8c3b 6c58 7fbb e130 203c
00000220: 798a a3bc 6e52 953c 0f97 983c a1f6 22bc
00000230: 8d84 043c 823b 0a3c 0275 7c3c b9f6 a2bb
00000240: 27ec 59bc 79fe 4cbc 8922 1c3c bdbe 01bb
00000250: 3b7a 85bc 1459 efbb c955 313c 5a03 6a3c
00000260: d285 4bbc f242 873b e927 3dbc b597 b03c
00000270: 1b49 1e3b 9680 e13b 4ba2 c4bb cc90 903c
00000280: 6dcb b7bb b7a8 903c 2eb6 a03b 3167 4e3c
00000290: 2ef0 533c 42da bfbb 0146 593b 766e ff39
000002a0: 6ae5 6a3c c13d 09bb af4d 053c 4a81 263b
000002b0: daa4 aebb 087a d739 752a 4fbc a456 d2bb
000002c0: b809 b03b b4c6 3eba c640 ad3c 815c 42bc
000002d0: c233 32bc 264f 84bb ea2a 74bc 17f8 c73b
000002e0: 17a5 ac3a ca16 5c3b cefd 87ba fb42 d53b
000002f0: 0bf5 2f3c ab4a 4f3c 2507 013c 01f6 61bc
00000300: 2570 ce39 ea04 65bc 11e9 f739 6a56 a1ba
00000310: d519 8ab8 b844 59bb 707b 3f3b 314f 6e3c
00000320: ee3b 893b 298a e1bb c321 7a3c 6624 8cbc
00000330: a2ec 3abc 4c9b 97bb aa6f 263b e21b 423b
00000340: 8f7c 08bc d343 02bc f863 613c fb45 7fbb
00000350: 4daa 7d3c 663a 903c 80c7 753b e35f c9bb
00000360: 26ce 713c d0d0 893b a774 35bc 1217 813b
00000370: c09f 363a 03a8 023c 4e3d 4dbc 4da6 7c38
00000380: 57b2 0cbd a286 983b d324 25bc 22bf 27bb
00000390: 3c30 b9bb eee2 3cbc e6b6 973c 3066 8c3c
000003a0: 1bbb 753c baae 09ba 0eb1 623c 57c4 593a
000003b0: 67cf 723c bc5f 943b 9831 943c e7fe 7e3c

bias f4 [80]
0.28050634 -0.4706687 -0.43044826 0.5334448 -0.34488052 -0.49284318 -0.07678417 0.29581782
0.11825572 -0.5136639 -0.43448713 -0.070441395 0.4773534 -0.3788958 0.38528457 0.35948524
-0.37420967 -0.021486795 0.12658162 -0.4351046 -0.20475423 0.15946227 -0.14845784 0.31091115
-0.50369704 -0.462237 -0.2876766 -0.46594578 0.5487141 0.5079886 -0.5387093 0.29391754
-0.18565452 0.21603057 0.22659037 0.4340569 -0.5259738 0.19973253 -0.41340756 0.07374195
-0.2057213 -0.21811481 -0.4075055 0.5826348 0.4875936 -0.5708504 0.0067937276 0.15628862
-0.36100826 -0.17386107 0.5800484 0.008520171 0.45934588 -0.39037716 -0.33809116 -0.45704868
0.18708183 0.4537275 -0.047933742 0.11707762 -0.045750573 -0.511217 0.47430897 0.4888037
-0.16180721 -0.5569454 0.24297242 0.16898923 0.4054223 0.28171167 -0.041524194 0.014766847
0.3360446 -0.1329688 0.18175477 -0.13085543 -0.47912002 0.0671783 0.1602678 -0.46495733
00000000: 879e 8f3e 7dfb f0be b763 dcbe d78f 083f
00000010: 2e94 b0be f155 fcbe 0541 9dbd 6f75 973e
00000020: 0e30 f23d 7a7f 03bf 1975 debe 9443 90bd
00000030: aa67 f43e a1fe c1be 0544 c53e 730e b83e
00000040: 6998 bfbe 1305 b0bc 9d9e 013e 08c6 debe
00000050: 18ab 51be 144a 233e 5505 18be bf2f 9f3e
00000060: 4af2 00bf 54aa ecbe 594a 93be 7290 eebe
00000070: 8778 0c3f 8a0b 023f dae8 09bf 5c7c 963e
00000080: 381c 3ebe 1e37 5d3e 4e07 683e b53c de3e
00000090: 38a6 06bf af86 4c3e 28aa d3be 0506 973d
000000a0: 9ba8 52be 7d59 5fbe 90a4 d0be 8e27 153f
000000b0: dea5 f93e 4023 12bf eb9d de3b 200a 203e
000000c0: 13d6 b8be a308 32be 0d7e 143f 3098 0b3c
000000d0: 622f eb3e 84df c7be 491a adbe 4902 eabe
000000e0: 6192 3f3e f94e e83e 2c56 44bd 64c6 ef3d
000000f0: f464 3bbd 1edf 02bf a0d8 f23e 7b44 fa3e
00000100: cab0 25be f993 0ebf c3cd 783e 830b 2d3e
00000110: 8393 cf3e 833c 903e 4615 2abd a5f0 713c
00000120: 0a0e ac3e f928 08be ec1d 3a3e f7fe 05be
00000130: 384f f5be c794 893d 3e1d 243e e30e eebe

weight f4 [80, 80, 1]
0.019657506 -0.0064839623 -0.009925854 0.020961545 -0.020340448 -0.011379485 0.002217393 0.0012482775
0.009279968 -0.0132963 -0.0033060568 0.0070672724 -0.0037904892 -0.022866925 -0.0025858085 -0.0089552365
0.007953722 -0.000290598 -0.0043105036 -0.012090453 0.0022695512 0.019213416 -0.0026307597 0.007696912
0.020487579 -0.01927775 0.007016129 -0.0008346021 0.008719865 0.0014980325 -0.009829196 0.019565282
-0.002512322 -0.0031583554 0.0019318317 0.019761136 -0.014347816 -0.008206359 -0.0015639807 0.016500525
-0.011050244 0.0046400116 -0.008791545 0.018323103 0.0077478467 0.00042818332 -0.0020940884 0.01421001
0.0010949989 -0.014831569 0.005601967 0.009751525 -0.002733773 0.012395494 -0.0026467007 -0.004105355
-0.011468027 -0.002159938 -0.0022354664 0.0124976 0.00011216153 0.008320154 0.0045577292 -0.00019210945
-0.0071507012 -0.0074443873 0.018739557 0.0053845877 0.013184003 0.0058098515 -0.014459517 -0.011508979
-0.012982005 -0.008776906 -0.0147556905 -0.014945045 0.0074831867 0.006176416 0.024457978 -0.0010637321
-0.011182137 0.017111463 -0.011636619 -0.023617864 0.013593199 0.0091541875 0.016321214 -0.023257732
-0.016454712 0.0071322112 -0.0015087159 0.013753866 0.0027393536 0.01832068 -0.025214199 0.0026335805
0.0018528787 0.011146241 -0.016222907 0.017984971 -0.013142599 -0.01647428 -0.005253973 -0.012961695
-0.0034727887 0.002806249 0.014012576 0.025454232 -0.018323738 -0.0127622485 0.002484847 -0.0036050337
0.006895053 -0.003046598 -0.0027248205 0.0040861242 0.0079168705 0.0033735207 0.009559864 -0.007963963
0.019719899 0.019196749 7.334513e-05 -0.0069743036 -0.029403616 0.01918585 -0.0012955167 0.0037893716
-0.021734154 0.01781846 7.790442e-05 0.0020745434 -0.013379925 0.01400963 -0.0017984178 -0.0007170196
-0.013907882 -0.0016597147 0.0020127862 0.014978806 0.0041041793 0.02407758 -0.010102652 0.015708469
-0.011928116 0.011223781 -0.01989597 -0.02975433 -0.017951988 -0.012544035 -0.0037578226 0.0057571265
-0.008951784 0.012971801 -0.007932914 -0.00023582843 0.0032555498 -0.00855556 0.011872846 -0.0046114763
0.011198546 -3.2987817e-05 -0.014718045 0.0046446137 -0.008248897 -0.008689051 0.0021999818 -0.0044104313
0.01107921 -0.01295152 -0.008682195 -0.013556534 -0.0048426515 -0.019819262 0.008381834 0.017091911
0.0032024682 -0.031078923 -0.021043846 -0.0065777334 -0.018253554 0.010136695 -0.008327113 0.0065278695
0.0006748807 -0.008687057 -0.01569965 -0.020296616 0.009102005 -0.0039455383 -0.021774424 0.024745032
-0.016026901 -0.0028608586 0.020571776 0.005597385 -0.015928624 -0.0043212953 0.0044685593 0.0033839303
-0.024806798 0.0013122355 -0.0016165002 0.012302222 0.015025977 -0.006152191 -0.011164049 -0.0033823878
-0.0011268914 0.0050334367 -0.004611166 0.014691622 0.010218952 -0.0101487115 -0.022713402 -0.008747436
-0.0073384675 -0.0044425055 -0.02577109 0.024752809 0.0025650866 -0.010610804 0.01005556 0.0060602445
-0.0049235625 -0.005086374 0.011345926 0.00942674 0.009777748 -0.00078386976 0.0011801679 0.013034684
0.0058487244 -0.0005108317 0.007060185 -0.00069483643 -0.01670604 0.0034455033 0.0018642653 -0.01411334
0.012463163 0.020629255 -0.0029026275 -0.002108653 -0.0039037382 -0.009228513 -0.015786894 0.007971061
0.0060239495 -0.003739576 -0.00081428763 -0.0019089817 -0.0007990754 -0.0037397642 -0.002136045 0.0027968907
00000000: c708 a13c 6b77 d4bb 0da0 22bc 8cb7 ab3c
00000010: 03a1 a6bc 0571 3abc ae51 113b 3e9d a33a
00000020: 020b 183c b9d8 59bc 6eaa 58bb 9494 e73b
00000030: db69 78bb 6b53 bbbc ab76 29bb fcb8 12bc
00000040: 5450 023c 675b 98b9 203f 8dbb 0917 46bc
00000050: c0bc 143b 7465 9d3c d368 2cbb 6136 fc3b
00000060: 91d5 a73c 5fec 9dbc 8ee7 e53b 33c9 5aba
00000070: c4dd 0e3c a159 c43a a30a 21bc 5f47 a03c
00000080: c5a5 24bb 69fc 4ebb 8435 fd3a 1be2 a13c
00000090: 1a13 6bbc f773 06bc 7cfe ccba 1c2c 873c
000000a0: 150c 35bc 3d0b 983b 6a0a 10bc 551a 963c
000000b0: a6e1 fd3b cb7d e039 f93c 09bb 1ad1 683c
000000c0: 1186 8f3a 1c00 73bc b590 b73b dcc4 1f3c
000000d0: 1a29 33bb 7816 4b3c 4574 2dbb 3786 86bb
000000e0: 64e4 3bbc bf8d 0dbb e780 12bb bcc2 4c3c
000000f0: 4338 eb38 4151 083c 0159 953b fd70 49b9
00000100: 6e50 eabb 0cf0 f3bb b383 993c 3271 b03b
00000110: b701 583c 9160 be3b 9ce7 6cbc 2890 3cbc
00000120: 7ab2 54bc 03cd 0fbc dac1 71bc 10dc 74bc
00000130: 8535 f53b 8863 ca3b 195c c83c ed6c 8bba
00000140: 4835 37bc 572d 8c3c 85a7 3ebc 407a c1bc
00000150: 02b6 5e3c 72fb 153c 11b4 853c 0087 bebc
00000160: 08cc 86bc 53b5 e93b 1bc0 c5ba e557 613c
00000170: ba86 333b 4015 963c 028e cebc 2698 2c3b
00000180: 4bdc f23a b99e 363c e7e5 84bc 3855 933c
00000190: 0e54 57bc 12f5 86bc 8529 acbb 4a5d 54bc
000001a0: ba97 63bb 0ce9 373b 0195 653c 6585 d03c
000001b0: aa1b 96bc c018 51bc d1d8 223b 6e42 6cbb
000001c0: e6ef e13b 6fa9 47bb e792 32bb e5e4 853b
000001d0: c3b5 013c 4916 5d3b faa0 1c3c 487b 02bc
000001e0: a08b a13c 8042 9d3c ded0 9938 b388 e4bb
000001f0: dadf f0bc a52b 9d3c 54ce a9ba 1b57 783b
00000200: d30b b2bc 05f8 913c 9e60 a338 10f5 073b
00000210: 7937 5bbc a688 653c e3b8 ebba 5ff6 3bba
00000220: e3dd 63bc c98a d9ba f3e8 033b aa69 753c
00000230: 5a7c 863b 583e c53c 9885 25bc 0caf 803c
00000240: 256e 43bc f3e3 373c e0fc a2bc 5abf f3bc
00000250: 0c10 93bc 7f85 4dbc cd45 76bb 47a6 bc3b
00000260: 81aa 12bc ad87 543c 0ef9 01bc b648 77b9
00000270: 105b 553b 9f2c 0cbc 5386 423c de1b 97bb
00000280: 1b7a 373c 665c 0ab8 f423 71bc d831 983b
00000290: 6226 07bc 855c 0ebc 922d 103b 6185 90bb
000002a0: 9385 353c 9d32 54bc c43f 0ebc 3a1c 5ebc
000002b0: 1baf 9ebb 015c a2bc f653 093c 5604 8c3c
000002c0: 80e0 513b 3a99 febc 2564 acbc 078a d7bb
000002d0: 7a88 95bc 6114 263c 726e 08bc bde7 d53b
000002e0: 7aea 303a 2854 0ebc 8d9c 80bc 1745 a6bc
000002f0: 9320 153c 9349 81bb 4760 b2bc 18b6 ca3c
00000300: d94a 83bc 3e7d 3bbb 2486 a83c 456a b73b
00000310: bf7c 82bc a799 8dbb fe6c 923b eec4 5d3b
00000320: a037 cbbc 51ff ab3a bfe0 d3ba 428f 493c
00000330: 842f 763c 5298 c9bb 6ae9 36bc 0dab 5dbb
00000340: 33b4 93ba 87ef a43b 4419 97bb 21b5 703c
00000350: 646d 273c c846 26bc 7511 babc 6851 0fbc
00000360: 8777 f0bb 7092 91bb e51d d3bc 67c6 ca3c
00000370: 031b 283b f0d8 2dbc 13c0 243c 0495 c63b
00000380: d655 a1bb 99ab a6bb 43e4 393c 9d72 1a3c
00000390: d932 203c 9c7c 4dba ddaf 9a3a 6d8f 553c
000003a0: a8a6 bf3b 56e9 05ba 2059 e73b af25 36ba
000003b0: 1bdb 88bc f4cd 613b 5d5a f43a a33b 67bc
000003c0: 4b32 4c3c affe a83c 023a 3ebb 5431 0abb
000003d0: dcd5 7fbb 3033 17bc 8453 81bc 0e99 023c
000003e0: 8d64 c53b ad13 75bb eb75 55ba cc36 faba
000003f0: 0b79 51ba d516 75bb e3fc 0bbb 0a4c 373b

bias f4 [80]
0.030669777 0.10406047 0.023320215 -0.049920816 -0.07598133 -0.054530624 -0.119701676 0.00096360623
-0.05244017 -0.022791944 -0.002066496 0.10559555 0.10986287 -0.0066961916 0.030486764 0.04726223
-0.031175196 0.08471992 -0.053571615 -0.01647357 0.04246058 0.09218234 0.03208085 0.10203908
0.015324029 -0.036616724 0.10550534 0.029428165 -0.07478912 0.08978431 -0.030089216 -0.059019346
-0.03996132 0.07254577 -0.06264963 -0.021339638 0.09935474 -0.061542265 0.08938358 -0.0027735673
-0.06736379 0.10508979 -0.10711516 0.08786553 -0.048838843 -0.10887936 0.080971956 0.078339465
0.049413268 0.05664452 -0.028938698 0.016455404 -0.01823344 0.00042889593 -0.0143531645 0.08291752
-0.010323118 -0.050524313 -0.06483688 0.109866604 -0.07832632 -0.040426288 0.06920946 -0.095888816
0.058876876 -0.02861817 -0.10446143 0.057869364 0.019024651 0.04444651 0.028063113 0.09592268
0.040531743 0.110307515 -0.090931736 -0.04297639 -0.0823815 -0.023730613 0.020740164 0.0072867647
00000000: 2f3f fb3c a81d d53d 090a bf3c c579 4cbd
00000010: 199c 9bbd 815b 5fbd 2726 f5bd 859a 7c3a
00000020: 81cb 56bd 2cb6 babc 0d6e 07bb 7b42 d83d
00000030: c9ff e03d ba6b dbbb 61bf f93c 0a96 413d
00000040: 2063 ffbc a381 ad3d e96d 5bbd 95f3 86bc
00000050: 25eb 2d3d 18ca bc3d 3667 033d ddf9 d03d
00000060: a311 7b3c 6bfb 15bd 2f13 d83d 5613 f13c
00000070: 0a2b 99bd d6e0 b73d a97d f6bc 45be 71bd
00000080: 7bae 23bd e092 943d 734e 80bd 77d0 aebc
00000090: 7f7a cb3d be13 7cbd bd0e b73d bdc4 35bb
000000a0: 07f6 89bd 5139 d73d 315f dbbd d8f2 b33d
000000b0: 3d0b 48bd 24fc debd a0d4 a53d 7170 a03d
000000c0: 9165 4a3d 1604 683d d910 edbc 7ccd 863c
000000d0: 4c5e 95bc 70dd e039 8929 6bbc a9d0 a93d
000000e0: 4c22 29bc 95f2 4ebd 33c9 84bd be01 e13d
000000f0: 8d69 a0bd 0996 25bd b0bd 8d3d 5b61 c4bd
00000100: e128 713d a770 eabc e0ef d5bd 6d08 6d3d
00000110: 96d9 9b3c 8b0d 363d 9de4 e53c 1c73 c43d
00000120: 9d04 263d e8e8 e13d 6b3a babd 0308 30bd
00000130: a2b7 a8bd b466 c2bc 47e7 a93c d0c5 ee3b

weight f4 [80, 3, 1]
0.026478084 0.011518797 -0.01397667 -0.011550098 -0.005471634 -0.0038993764 -0.015787704 0.01962173
-0.031989567 -0.0053709806 0.0068996884 -0.013153807 -0.0023961344 -0.010701393 -0.023676543 0.004703775
0.018738642 -0.0033703323 -0.010961919 -0.017019363 0.03598688 -0.022065591 0.008972272 -0.014349552
-0.002909519 -0.008790897 -0.026511703 0.0025615876 -0.012261517 0.0028141052 0.012241423 0.013031219
-0.004255945 -0.02238717 0.009693475 -0.002364257 -0.002549182 0.0047154087 -0.0028575175 -0.008197553
0.0063098725 -0.021815022 0.001324669 -0.022166174 0.0085831145 0.010883672 -0.00066608295 -0.010854552
0.011305556 -0.0031113704 -0.02081549 0.005303973 -0.00034612484 -0.028755505 0.021277985 0.0015030598
0.011393558 0.010798928 0.009288825 0.00038783922 -0.005462443 -0.01863886 0.012674157 -0.0015443267
0.010086786 0.011459251 0.0006132929 -0.010677547 0.008686381 -0.0036915094 -0.007897266 0.00802638
-0.01048273 0.006182776 -0.0031121909 0.008176358 0.0018423848 -0.014628258 0.016807027 0.004321125
-0.013734127 0.003348276 -0.012163073 0.007337044 0.0060424446 0.0012229332 -0.014544962 0.006339277
0.0015821252 0.0043270607 0.017606404 0.0044262744 -0.0046042856 0.0045760064 0.0060099997 0.0029128657
-0.008088352 0.01806288 -0.0036574574 0.0053737345 -0.00036353804 0.00045560897 -0.003818584 0.016103733
0.011003674 -0.002863746 0.0047371006 0.004334385 -0.0004937174 -0.017135443 0.009206757 -0.0041630045
0.00070723484 0.002857894 -0.006290936 0.007236328 -0.0021519854 0.0049231756 -0.00019823648 -0.0013133984
0.0071033025 0.014806477 -0.012105141 -0.0076132407 -0.012749831 -0.017968778 0.009987897 -0.00411495
0.003920791 -0.008321761 0.00016424558 -0.0074956915 0.0070019206 0.01856764 -0.0035499048 0.006947008
-0.0185139 -0.0012592792 -0.0014352966 0.004420489 0.005636052 -0.013071122 0.008355889 -0.0036137037
0.011432665 0.0022816465 -0.011750749 -0.00018318486 -0.0072621964 0.007092407 0.008746604 0.011260078
0.011371739 0.005631638 -0.012589349 -0.020221485 0.0055804 -0.002340417 0.021003194 0.0020690293
-0.013564088 -0.0006602426 -0.009588336 0.011075568 -0.0039263 0.0007609962 -0.0068894452 -0.0061457735
0.019030066 0.010330652 -0.01894064 -0.00878001 0.005722465 0.009105321 0.0043509724 0.011596951
-0.021538299 0.006391111 0.003343585 -0.0233457 0.0058783023 -0.00062044815 -0.016864303 -0.008587208
0.0014831563 -0.002588135 -0.0103726 -0.0153191555 0.023655932 0.012113536 0.007579785 -0.0015072979
0.031274185 0.0076857973 -0.0035131664 -0.0052545792 0.0253952 -0.021665579 -0.0069225184 -0.0013670936
0.0022619008 0.0039982432 -0.00055595115 -0.0094092 -0.009245984 0.007765347 0.005384557 -0.01714568
-0.001955053 0.0069839205 -0.027130844 0.0052577453 -0.0047896854 0.016907606 0.0086145215 -0.016088974
-0.0023000953 -0.009800597 0.0079950215 0.006843493 -0.0065301936 -0.02970028 -0.0021448887 -0.010544568
-0.005784106 -0.0221179 -0.018170847 0.02192723 0.0029555664 0.028653713 -0.011308399 0.0032760696
-0.0175836 0.007837988 0.010669855 -0.01196427 0.030712726 0.006663292 -0.0045075617 -0.0061228573
00000000: 91e8 d83c 56b9 3c3c 67fe 64bc 9f3c 3dbc
00000010: 654b b3bb ae8c 7fbb 3755 81bc c0bd a03c
00000020: 7e07 03bd 0dff afbb c816 e23b 1183 57bc
00000030: 7708 1dbb e554 2fbc 4ff5 c1bc 2022 9a3b
00000040: c881 993c cbe0 5cbb 9f99 33bc 316c 8bbc
00000050: fb66 133d e6c2 b4bc 7000 133c 621a 6bbc
00000060: a1ad 3ebb b207 10bc 122f d9bc 4fe0 273b
00000070: 88e4 48bc da6c 383b 4090 483c e580 553c
00000080: 7475 8bbb 4c65 b7bc 62d1 1e3c a6f1 1abb
00000090: 2d10 27bb b783 9a3b 3045 3bbb 084f 06bc
000000a0: 0cc3 ce3b 6bb5 b2bc 84a0 ad3a d695 b5bc
000000b0: 31a0 0c3c 6e51 323c 129c 2eba 4ad7 31bc
000000c0: f03a 393c 22e8 4bbb 3f85 aabc f3cc ad3b
000000d0: 1778 b5b9 aa90 ebbc 2b4f ae3c 5102 c53a
000000e0: 0cac 3a3c fded 303c 2830 183c e656 cb39
000000f0: 4bfe b2bb 86b0 98bc 44a7 4f3c 016b caba
00000100: 0c43 253c 95bf 3b3c 64c5 203a e1f0 2ebc
00000110: 5351 0e3c 40ed 71bb 8963 01bc 1481 033c
00000120: c2bf 2bbc e298 ca3b e6f5 4bbb 22f6 053c
00000130: 2d7c f13a 5cab 6fbc e4ae 893c 3998 8d3b
00000140: 1b05 61bc c06e 5b3b a047 47bc 966b f03b
00000150: b3ff c53b d44a a03a fe4d 6ebc b6b9 cf3b
00000160: 505f cf3a 04ca 8d3b 4e3b 903c 480a 913b
00000170: 8cdf 96bb 53f2 953b 88ef c43b c7e5 3e3b
00000180: 0285 04bc 9bf8 933c f4b1 6fbb 2716 b03b
00000190: 4099 beb9 cdde ee39 3541 7abb faeb 833c
000001a0: c148 343c afad 3bbb ae39 9b3b 7507 8e3b
000001b0: d06c 01ba a15f 8cbc f0d7 163c d069 88bb
000001c0: ba65 393a 814b 3b3b 3224 cebb b81e ed3b
000001d0: 5308 0dbb 9752 a13b b3dd 4fb9 5626 acba
000001e0: d2c2 e83b de96 723c a454 46bc 7e78 f9bb
000001f0: abe4 50bc 4233 93bc 47a4 233c b4d6 86bb
00000200: fb79 803b ff57 08bc 5639 2c39 6b9e f5bb
00000210: 5e70 e53b 2a1b 983c 85a5 68bb baa3 e33b
00000220: 76aa 97bc 660e a5ba 9020 bcba c0d9 903b
00000230: a2ae b83b 4228 56bc 23e7 083c e3d3 6cbb
00000240: 1350 3b3c ad87 153b 3786 40bc 5015 40b9
00000250: b8f7 edbb 6c67 e83b eb4d 0f3c 317c 383c
00000260: 8850 3a3c 9b89 b83b 8f43 4ebc 87a7 a5bc
00000270: cadb b63b ae61 19bb e40e ac3c 8d98 073b
00000280: e93b 5ebc 2114 2dba 6518 1dbc 4d76 353c
00000290: 31a8 80bb 977d 473a dbc0 e1bb 7c62 c9bb
000002a0: f1e4 9b3c e541 293c 6729 9bbc 08da 0fbc
000002b0: 8483 bb3b 7c2e 153c 9a92 8e3b 2301 3e3c
000002c0: 1671 b0bc 866c d13b 0c20 5b3b 7b3f bfbc
000002d0: c69e c03b 92a5 22ba 0227 8abc 5cb1 0cbc
000002e0: 7866 c23a b39d 29bb d6f1 29bc 32fd 7abc
000002f0: 16ca c13c da77 463c d85f f83b 8690 c5ba
00000300: 5c19 003d 24d9 fb3b 273d 66bb 9b2e acbb
00000310: 9809 d03c 037c b1bc 4bd6 e2bb 0d30 b3ba
00000320: 663c 143b b203 833b 40bd 11ba 0c29 1abc
00000330: 787c 17bc 7474 fe3b f070 b03b 1975 8cbc
00000340: 5920 00bb 5fd9 e43b 8141 debc 2a49 ac3b
00000350: cbf2 9cbb d281 8a3c ec23 0d3c 06cd 83bc
00000360: 32bd 16bb af92 20bc 8dfd 023c 613f e03b
00000370: 3cfb d5bb 004e f3bc 4391 0cbb 20c3 2cbc
00000380: 9988 bdbb 9930 b5bc 07db 94bc bca0 b33c
00000390: 2db2 413b 31bb ea3c dd46 39bc 54b3 563b
000003a0: 7b0b 90bc e86a 003c 9ed0 2e3c c905 44bc
000003b0: 4199 fb3c bf57 da3b 2bb4 93bb 40a2 c8bb

bias f4 [80]
-0.19056489 -0.25549066 -0.49281815 -0.056645397 0.024815647 -0.08223064 0.2324583 0.27132353
-0.45095497 -0.34577087 0.41460395 0.03472151 0.14431874 0.18861277 -0.21912432 0.02480875
-0.11289617 0.08359539 0.003674867 0.4701315 -0.36739567 -0.026371313 0.06926157 -0.29872006
0.08724748 -0.11074901 -0.012316132 0.45926046 0.26491866 -0.23068728 -0.53733975 0.44166604
0.3584252 -0.50213087 -0.45283252 -0.34143403 0.5431745 0.16443096 0.1816888 0.14192519
0.44406348 -0.37184688 -0.073598675 -0.16210383 -0.032240894 -0.34733814 -0.4111551 0.2999789
0.2557131 -0.39408386 0.016380144 -0.30932373 -0.2762961 -0.15064585 0.2238168 -0.28696808
0.5554776 -0.03283995 0.48471832 0.21014348 -0.19419754 -0.11393587 -0.20841359 -0.18910216
-0.4459233 0.47455648 -0.052838497 -0.2303648 -0.31942666 -0.38821992 0.5451314 -0.21195617
-0.39143312 0.39910817 -0.2987245 -0.07422813 -0.19596784 -0.30973256 -0.10598801 -0.49614543
00000000: 7123 43be accf 82be a952 fcbe 0105 68bd
00000010: 2f4a cb3c 8a68 a8bd 8c09 6e3e ebea 8a3e
00000020: 92e3 e6be e108 b1be f846 d43e 2438 0e3d
00000030: 4bc8 133e b523 413e 2062 60be b83b cb3c
00000040: 1b36 e7bd 0f34 ab3d 0ad6 703b 13b5 f03e
00000050: 491b bcbe a708 d8bc 03d9 8d3d d6f1 98be
00000060: cfae b23d 61d0 e2bd 9ac9 49bc 3024 eb3e
00000070: 6ba3 873e 4939 6cbe 198f 09bf 0d22 e23e
00000080: 8283 b73e a68b 00bf aad9 e7be 71d0 aebe
00000090: 7c0d 0b3f 9760 283e a10c 3a3e d654 113e
000000a0: 4a5c e33e b762 bebe e7ba 96bd 8cfe 25be
000000b0: 070f 04bd 4ed6 b1be ec82 d2be d696 993e
000000c0: d4ec 823e 5cc5 c9be a72f 863c ae5f 9ebe
000000d0: af76 8dbe e842 1abe 3b30 653e 7bed 92be
000000e0: c833 0e3f 2f83 06bd 002d f83e da2f 573e
000000f0: b8db 46be 3657 e9bd 5f6a 55be ffa3 41be
00000100: 0f50 e4be 11f9 f23e 2e6d 58bd c0e4 6bbe
00000110: e48b a3be c3c4 c6be bb8d 0b3f 0a0b 59be
00000120: ec69 c8be e857 cc3e 6bf2 98be eb04 98bd
00000130: cbab 48be 4495 9ebe 3e10 d9bd c606 febe

weight f4 [80, 80, 2]
0.005691031 -0.008944749 -0.010986503 -0.0070231766 0.0069094216 0.010138365 0.020866197 0.019348834
-0.006361495 0.007891718 0.01788035 -0.0047898944 -0.0021870423 0.00043687047 0.015619297 0.0055040894
-0.011516069 5.1252423e-06 0.011941668 0.0014260925 -0.0069351643 -0.0009363458 -0.02461529 -0.021289086
0.0069551724 0.004153883 -0.0010129379 -0.0006349617 0.0030984737 0.027940374 -0.006669171 0.004900018
-0.01072194 0.005307886 0.008577703 -0.004509062 0.023580747 0.018070849 -0.0082715405 -0.009227962
0.0035276175 -0.02920144 0.015786478 -0.004216423 -0.01316305 0.0008913019 -0.009959541 -0.009197317
0.0064770766 0.0035576278 0.009689227 0.018317504 -0.009654777 0.007744855 0.017783355 0.00438941
-3.9507344e-05 0.0016420172 -0.0041831806 -0.016221477 0.0035862045 0.010545651 -0.0076234913 0.009952954
-0.010647246 0.02780642 0.013850671 -0.02381578 -0.008026415 -0.012420795 0.0026373798 0.0032089672
0.0094562415 0.010683109 -0.0029583946 -0.00048235318 0.012517084 0.0089307185 -0.0084780175 -0.0148020955
0.005876632 -0.00466629 0.01176401 0.0041569965 -0.001129699 -0.010173101 -0.0027815788 0.012250878
-0.019523203 0.0064285398 0.016921535 0.01220796 -0.016628206 -0.006319141 -0.01396732 -0.0017007317
-0.009593427 -0.012967671 -0.020154715 0.00095153664 0.0038358069 0.0044219247 0.010587514 0.0062423055
-0.005842321 0.0031194275 -0.0036756706 0.0016770458 0.01105163 -0.011782568 0.016647233 0.018850777
-0.0013995311 0.0051566334 0.010468578 -0.0011845581 0.00463846 -0.0068039233 -0.0024402777 0.0073749563
-0.0034258796 -0.00085275265 0.007894372 0.0052078227 0.011021124 -0.0094181625 0.006640461 -0.0059130155
0.015485406 0.008407132 -0.0076636774 -0.018502014 -0.0075189965 -0.00054319866 0.008251054 -0.009769489
-0.026550638 -0.0015842239 0.0023473566 0.0026789894 -0.0048086196 -0.023366151 0.029241726 0.0010580086
0.0088940095 0.015111967 0.017931243 -0.0056660837 0.010163533 -0.0057048243 -0.0032344048 0.012995871
0.0064721056 0.008965856 0.00069913134 0.015418634 -0.014697211 0.0043408354 0.004909823 -0.0014852363
0.003144546 -0.0033798914 0.004975983 -0.009464152 0.0047970912 -0.00027493364 -0.0011565619 0.0063443603
-0.016536642 0.0038320413 0.009585389 0.0022316307 0.0010412226 0.011994698 0.0042058243 -0.011426558
-0.006624946 0.015471435 0.0065576914 -0.024818456 -0.00017082115 0.002517679 0.0055288365 0.0074157063
0.014115479 0.003913969 -0.006191366 0.016714524 -0.012909076 -0.00782462 0.007885782 -0.0017920115
-0.0046272455 -0.012236516 0.009619171 0.0113593405 -0.0038994383 -0.014586743 -0.021976428 -0.014940776
0.014269378 0.012505653 -0.002835905 -0.0039010507 0.008296168 0.013533959 0.003069026 -0.007355699
-0.007852381 -0.010779651 -0.016249383 -0.0122481845 -0.00422259 0.01203387 -0.0069669387 0.009798898
0.004861055 -0.006907023 -0.004529993 -0.011163273 0.013189328 0.020425007 0.00957854 -0.024683801
-0.026852746 0.008491199 0.015791114 -0.0031922662 0.0011245668 0.0029360668 -0.00066763477 -0.0032819684
0.0021623252 -0.0015632545 -0.012436103 0.023964165 0.005384108 -2.2626431e-05 -0.0007932842 -0.005411947
-0.0048238835 0.004913692 -0.027110685 -0.0005091077 0.0074146655 0.0022199836 0.0029406308 -0.01331613
-0.030186752 -0.0059464863 0.030192144 -0.012205194 0.0068052476 0.0022065379 -0.018441994 -0.005929885
00000000: d47b ba3b ff8c 12bc bc00 34bc ad22 e6bb
00000010: 6e68 e23b 631b 263c 96ef aa3c 7281 9e3c
00000020: 1674 d0bb 444c 013c d079 923c 8cf4 9cbb
00000030: 7b54 0fbb c30b e539 14e8 7f3c a65b b43b
00000040: e5ad 3cbc 7ff9 ab36 fca6 433c b9eb ba3a
00000050: 6040 e3bb 1a75 75ba 01a6 c9bc 7366 aebc
00000060: 37e8 e33b 4c1d 883b 8ec4 84ba 8f73 26ba
00000070: c30f 4b3b 36e3 e43c 1089 dabb 5590 a03b
00000080: 13ab 2fbc c6ed ad3b 7e89 0c3c c1c0 93bb
00000090: 692c c13c 5109 943c 5b85 07bc e130 17bc
000000a0: 9a2f 673b dc37 efbc a552 813c eb29 8abb
000000b0: d5a9 57bc 42a6 693a 582d 23bc 58b0 16bc
000000c0: a83d d43b 1727 693b 90bf 1e3c 970e 963c
000000d0: 122f 1ebc 8dc8 fd3b 66ae 913c 0ad5 8f3b
000000e0: b0b4 25b8 f438 d73a 1013 89bb e7e2 84bc
000000f0: 8706 6b3b abc7 2c3c 7bce f9bb b711 233c
00000100: c971 2ebc 4aca e33c eded 623c 5019 c3bc
00000110: 3981 03bc 9780 4bbc e4d7 2c3b 894d 523b
00000120: 5aee 1a3c 3508 2f3c a0e1 41bb 59e4 fcb9
00000130: 7514 4d3c 2652 123c 62e7 0abc 7d84 72bc
00000140: c390 c03b ade7 98bb d6bd 403c 6a37 883b
00000150: 6912 94ba 14ad 26bc 264b 36bb e8b7 483c
00000160: 20ef 9fbc 80a6 d23b 089f 8a3c e503 483c
00000170: e037 88bc cc10 cfbb 30d7 64bc 16eb deba
00000180: c02d 1dbc 5b76 54bc 801b a5bc 8b70 793a
00000190: 2962 7b3b cbe5 903b 4177 2d3c 418c cc3b
000001a0: f170 bfbb 4f6f 4c3b 85e3 70bb 52d0 db3a
000001b0: e511 353c ac0b 41bc c75f 883c f26c 9a3c
000001c0: 7970 b7ba faf8 a83b 6684 2b3c 2d43 9bba
000001d0: 39fe 973b 72f3 debb 11ed 1fbb 9ea9 f13b
000001e0: b984 60bb 438b 5fba 6557 013c 62a6 aa3b
000001f0: f291 343c a34e 1abc 3998 d93b f8c1 c1bb
00000200: 80b6 7d3c 11be 093c 961f fbbb 8991 97bc
00000210: ea61 f6bb 7265 0eba 6e2f 073c 3510 20bc
00000220: b980 d9bc bca5 cfba 1cd6 193b fc91 2f3b
00000230: a091 9dbb 5f6a bfbc 588c ef3c e1ac 8a3a
00000240: 2eb8 113c 2f98 773c 8be4 923c 8eaa b9bb
00000250: f284 263c 89ef babb 4ff8 53bb a2ec 543c
00000260: f513 d43b 87e5 123c e945 373a 709e 7c3c
00000270: 92cc 70bc 913d 8e3b 95e2 a03b 43ac c2ba
00000280: ba14 4e3b 2b81 5dbb 920d a33b 880f 1bbc
00000290: eb30 9d3b f824 90b9 c797 97ba 5ae4 cf3b
000002a0: da77 87bc fc22 7b3b 090c 1d3c 8d40 123b
000002b0: a279 883a 6985 443c 03d1 893b 7536 3bbc
000002c0: 1316 d9bb e77b 7d3c e7e1 d63b 1350 cbbc
000002d0: 741e 33b9 a5ff 243b 3e2b b53b 74ff f23b
000002e0: 9c44 673c c040 803b f1e0 cabb e6ec 883c
000002f0: 9780 53bc d632 00bc 5e33 013c eee1 eaba
00000300: 26a0 97bb ab7b 48bc ba99 1d3c 871c 3a3c
00000310: b88d 7fbb 3cfd 6ebc e907 b4bc 28ca 74bc
00000320: 1cca 693c 83e4 4c3c 97da 39bb c5a8 7fbb
00000330: a7ec 073c 8abd 5d3c b621 493b 1308 f1bb
00000340: 46a7 00bc 229d 30bc 6d1d 85bc 9cac 48bc
00000350: a75d 8abb b629 453c eb4a e4bb 8f8b 203c
00000360: 7c49 9f3b 4f54 e2bb 5670 94bb 29e6 36bc
00000370: 0d18 583c 5852 a73c 4fef 1c3c af35 cabc
00000380: 4afa dbbc ac1e 0b3c 5e5c 813c 5735 51bb
00000390: 3366 933a 076b 403b 3604 2fba 4b16 57bb
000003a0: ccb5 0d3b 1ee6 ccba ccc0 4bbc 7f50 c43c
000003b0: 2c6d b03b e4cd bdb7 67f4 4fba b456 b1bb
000003c0: ab11 9ebb 0903 a13b 3a17 debc a475 05ba
000003d0: b9f6 f23b 257d 113b 99b7 403b e62b 5abc
000003e0: 354a f7bc beda c2bb 8455 f73c 4bf8 47bc
000003f0: 8efe de3b 909b 103b aa13 97bc 7b4f c2bb

bias f4 [80]
0.001805909 0.0031504265 0.019372215 -0.034406908 0.079146355 -0.020865353 0.06959129 0.018851409
0.06627452 0.0051213056 -0.004712822 -0.0037959141 -0.050360158 -0.033393465 -0.042833883 0.00071318384
-0.06604643 0.08315416 0.034860592 -0.041898865 0.063517846 -0.053211354 -0.052051786 0.07695913
-0.037703447 -0.021300118 -0.0049661947 0.020926036 -0.06125996 0.005959554 0.0044311667 -0.030267647
-0.0052882712 0.07031627 0.03907638 -0.03228989 0.0015083333 -0.013819843 0.018033471 0.045900602
0.029813081 0.05798223 -0.06753711 -0.001328275 -0.07729552 0.075113535 0.055177685 0.052817605
0.05202101 -0.02077208 0.070668176 -0.006248042 -0.064906426 -0.03127956 0.06934975 0.009322465
0.043234326 -0.035579227 -0.004328599 -0.025788913 -0.008261944 0.04526665 -0.048647657 -0.07682665
-0.011106593 -0.024050752 0.0317167 0.011283936 -0.040418692 -0.023788199 -0.015713695 0.06268658
0.04910464 0.035341967 0.017522078 0.010839192 -0.03196634 0.00951851 -0.017557027 -0.03360648
00000000: 40b4 ec3a 6377 4e3b 7bb2 9e3c 42ee 0cbd
00000010: 7c17 a23d d1ed aabc e185 8e3d 456e 9a3c
00000020: efba 873d a0d0 a73b 046e 9abb dfc4 78bb
00000030: 7446 4ebd 96c7 08bd 9572 2fbd f5f4 3a3a
00000040: 5a43 87bd ba4c aa3d fbc9 0e3d 259e 2bbd
00000050: a515 823d 26f4 59bd 4134 55bd c09c 9d3d
00000060: ee6e 1abd 967d aebc 76bb a2bb 146d ab3c
00000070: b9eb 7abd 5d48 c33b 5233 913b dbf3 f7bc
00000080: 3c49 adbb fa01 903d 8e0e 203d 6742 04bd
00000090: 44b3 c53a 9f6c 62bc eeba 933c 4502 3c3d
000000a0: 903a f43c c67e 6d3d e550 8abd 8319 aeba
000000b0: 1d4d 9ebd 20d5 993d ff01 623d 4657 583d
000000c0: fc13 553d 362a aabc 7aba 903d 60bc ccbb
000000d0: a9ed 84bd ff1e 00bd 3e07 8e3d 41bd 183c
000000e0: 7a16 313d 86bb 11bd ecd6 8dbb 4543 d3bc
000000f0: 1b5d 07bc 8669 393d c442 47bd 4a57 9dbd
00000100: 6df8 35bc 1506 c5bc 5fe9 013d 42e0 383c
00000110: 128e 25bd 78df c2bc 02ba 80bc d261 803d
00000120: f221 493d bdc2 103d 768a 8f3c de96 313c
00000130: 23ef 02bd 86f3 1b3c c1d3 8fbc f3a6 09bd

weight f4 [80, 80, 2]
0.0037698443 0.0067643444 -0.0020954967 0.0028349939 0.0055642813 0.0069220182 0.012454124 -0.0066642915
-0.009087594 0.014735358 0.0038412071 0.007994321 0.01409116 0.01695614 0.03561274 -0.0043107257
0.022147551 0.010764575 0.00042759534 -0.019169766 -0.008409657 0.017371189 -0.0049223346 0.00958972
0.0028577135 0.0064638667 -0.0033294747 0.004474313 -0.012796063 -0.008788993 -0.014136601 0.009490109
-0.0075777858 0.002722532 0.0051723174 0.016682921 0.0029386766 0.019183738 0.011695081 0.018498871
0.0045807143 -0.003995428 0.0047547007 0.007714416 0.00024630243 -0.0059521305 0.008047805 0.0018704452
-0.004671459 0.0009020016 -0.0021715998 -0.008439632 -0.0012586553 -0.0041577243 0.0015046434 0.0150952535
0.016369453 -0.016097933 0.01353671 -0.012882356 -0.012039404 -0.0050344905 0.0015322745 0.012379638
0.012272962 0.009683375 0.017139284 -3.9205872e-05 0.010093685 0.0038484677 0.0061969603 -0.0072633247
0.0074932934 -0.0036885112 -0.0049079615 -0.0038394236 0.002102328 0.007954713 0.00018223975 0.008913427
0.0058039674 0.0024637352 0.0094256895 0.0045680637 -0.0071815904 0.010536457 -0.012074888 0.016218763
-8.786103e-05 -0.009398724 0.012932402 -0.0020040562 0.002572182 -0.009451771 0.0022982182 0.006892548
0.006248283 0.009899718 -0.013269472 0.0007065464 -0.00096124056 -0.005916594 -0.0059712334 0.00513666
-0.0020641563 -0.020543508 -0.018226368 -0.0071779075 0.005701464 0.0060296864 0.009979895 -0.0028751134
0.019421268 -0.0038821655 -0.0032059664 -0.005902198 0.0016855128 0.004549039 0.012564386 -0.009290609
-0.007521226 0.008402902 0.0008504623 -0.0003644217 0.008670637 0.0028011485 7.988279e-05 -0.0035255086
0.0033259315 0.001604479 0.015950236 0.006414481 0.013298433 -0.0003590538 0.023743747 0.013658608
0.012256685 -0.00021011141 0.0050264904 -0.0018718234 -0.0062193624 -0.0070016943 -0.002604261 -0.022657298
0.009073004 -8.804119e-05 -0.012095914 0.008034128 -0.014894885 0.0034418416 0.030437829 0.004411819
0.0041892966 -0.008954049 0.0045915074 -0.0070956144 0.012332766 -0.0060470053 0.0032700794 -0.01640849
-0.007047984 -0.004851006 0.010994513 0.0045023034 0.01434514 -0.011103272 -0.00084808434 0.021773115
-0.00753918 -0.029951975 -0.014926599 0.0009600124 -0.0025766054 -0.010301397 -0.006731914 0.010203834
0.00014804243 -0.004104677 0.007546548 0.006766524 0.01122332 0.00614532 0.0023461527 -0.014594427
0.006311149 0.020173552 -0.01416728 -1.848503e-05 0.005562739 0.004963852 0.006172569 0.0012191817
-0.0210485 -0.0094155725 -0.015082868 0.0054029487 -0.012344052 -0.0077313753 -0.00981555 0.010891903
-0.01988957 -0.012028434 -0.011346301 0.011067287 -0.011007167 -0.005517893 -0.0025537154 -0.0013433722
0.008985977 0.0007033621 -0.008500317 0.020487932 0.00030193495 -0.001610022 -0.01351357 0.008267121
0.013404027 -0.017843712 0.0002364388 0.016896226 -0.0016564815 -0.00025945445 0.009670993 -0.0074941176
-0.001525675 -0.011627168 -0.014459406 0.0015120722 -0.0043934877 -0.0054257554 0.015582755 -0.000787738
-0.017272951 0.0053599263 0.0037395987 -0.0024589037 -0.0041931197 -0.014333348 0.0010556502 -0.033738397
-0.02140751 0.002292483 -0.011474369 -0.002199733 0.015716644 0.017143406 -0.013791579 -0.017151672
0.0083925435 0.01420097 -0.0022045672 -0.010845064 0.008439587 0.022442011 -0.014566472 -0.0032251517
00000000: 7e0f 773b 6fa7 dd3b 9a54 09bb 4ecb 393b
00000010: 9354 b63b 19d2 e23b 620c 4c3c 2160 dabb
00000020: 22e4 14bc 926c 713c c3bc 7b3b 9dfa 023c
00000030: 9cde 663c 9ae7 8a3c aade 113d fd40 8dbb
00000040: c86e b53c e65d 303c e02e e039 ea09 9dbc
00000050: a8c8 09bc 064e 8e3c 894b a1bb 331e 1d3c
00000060: 7a48 3b3b d8ce d33b 5133 5abb 429d 923b
00000070: 94a6 51bc b5ff 0fbc 349d 67bc 677c 1b3c
00000080: 134f f8bb 826c 323b 8b7c a93b 9faa 883c
00000090: d096 403b 3727 9d3c ba9c 3f3c f28a 973c
000000a0: d119 963b 14ec 82bb 52cd 9b3b 36c9 fc3b
000000b0: 2722 8139 170a c3bb f1da 033c ba29 f53a
000000c0: 0a13 99bb 4d74 6c3a 6651 0ebb 6246 0abc
000000d0: 77f9 a4ba 853d 88bb 7437 c53a 1552 773c
000000e0: 3b19 863c d0df 83bc 14c9 5d3c 8410 53bc
000000f0: ec40 45bc 5ef8 a4bb 9ad6 c83a f7d3 4a3c
00000100: 8914 493c 05a7 1e3c af67 8c3c fc70 24b8
00000110: fc5f 253c 9336 7c3b df0f cb3b 2f01 eebb
00000120: 4d8a f53b f3ba 71bb f7d2 a0bb d79e 7bbb
00000130: 36c7 093b 7c54 023c 9c17 3f39 9f09 123c
00000140: 352f be3b 9e76 213b 356e 1a3c b2af 953b
00000150: 8c53 ebbb 1ba1 2c3c c0d5 45bc 36dd 843c
00000160: 0842 b8b8 1bfd 19bc 6de2 533c 7c56 03bb
00000170: 0e92 283b 9adb 1abc b49d 163b e2da e13b
00000180: 66be cc3b 6d32 223c 3368 59bc 8737 393a
00000190: c3fb 7bba fddf c1bb 56aa c3bb 6d51 a83b
000001a0: cc46 07bb dc4a a8bc 774f 95bc a734 ebbb
000001b0: 59d3 ba3b ad94 c53b b782 233c 666c 3cbb
000001c0: 5a19 9f3c ee6b 7ebb 311b 52bb 3a67 c1bb
000001d0: 6dec dc3a 1b10 953b dbda 4d3c a337 18bc
000001e0: 9e74 f6bb 53ac 093c 8ff1 5e3a da0f bfb9
000001f0: 4a0f 0e3c 7993 373b bf86 a738 380c 67bb
00000200: dff7 593b 624d d23a 12aa 823c 9130 d23b
00000210: ace1 593c 633f bcb9 3f82 c23c 5bc8 5f3c
00000220: 43d0 483c 5a51 5cb9 42b5 a43b f957 f5ba
00000230: cbcb cbbb 786e e5bb 40ac 2abb cc9b b9bc
00000240: f0a6 143c c1a2 b8b8 f12d 46bc 93a1 033c
00000250: ad09 74bc 8590 613b c158 f93c 0591 903b
00000260: 5e46 893b 01b4 12bc 5b74 963b 5482 e8bb
00000270: 5f0f 4a3c f525 c6bb d44e 563b 196b 86bc
00000280: c6f2 e6bb 30f5 9ebb 5422 343c 0f88 933b
00000290: e107 6b3c 80ea 35bc fa51 5eba 885d b23c
000002a0: 3a0b f7bb d85d f5bc b28e 74bc 57a9 7b3a
000002b0: 44dc 28bb 31c7 28bc 6397 dcbb fb2d 273c
000002c0: d63b 1b39 8780 86bb 0849 f73b b8b9 dd3b
000002d0: 04e2 373c ae5e c93b e9c1 193b 771d 6fbc
000002e0: c1cd ce3b 0143 a53c e11d 68bc 4d10 9bb7
000002f0: a347 b63b cfa7 a23b 4343 ca3b f3cc 9f3a
00000300: e76d acbc c643 1abc 221e 77bc 380b b13b
00000310: b53e 4abc 7a57 fdbb 67d1 20bc f473 323c
00000320: 74ef a2bc e912 45bc d6e5 39bc 9153 353c
00000330: 6857 34bc 71cf b4bb 3c5c 27bb 1714 b0ba
00000340: eb39 133c d561 383a ea44 0bbc 4fd6 a73c
00000350: 064d 9e39 6007 d3ba 0568 5dbc d272 073c
00000360: 909c 5b3c fa2c 92bc 8fec 7739 f469 8a3c
00000370: 4c1e d9ba 6307 88b9 1673 1e3c 3791 f5bb
00000380: 28f9 c7ba e17f 3ebc 25e7 6cbc b930 c63a
00000390: 3ff7 8fbb 89ca b1bb d04e 7f3c 3480 4eba
000003a0: 0180 8dbc 52a2 af3b 0e14 753b 8f25 21bb
000003b0: 7066 89bb 6bd6 6abc be5d 8a3a 4631 0abd
000003c0: cd5e afbc 7c3d 163b fefe 3bbc 6529 10bb
000003d0: 31c0 803c 5470 8c3c 13f6 61bc aa81 8cbc
000003e0: e180 093c 2fab 683c 807a 10bb 7faf 31bc
000003f0: 3246 0a3c 4fd8 b73c 36a8 6ebc 115d 53bb

bias f4 [80]
0.054668818 -0.0719414 0.014305296 -0.0057127094 0.028269907 0.058323976 -0.06451426 0.01379696
-0.015341184 -0.047861345 0.05659554 -0.039890606 0.022324348 -0.05680481 -0.079532124 0.07151798
0.027880514 -0.050989762 0.054085314 0.039124817 -0.051104095 0.073749825 -0.041962385 0.050453614
0.027114887 0.045052852 0.050432943 0.029700452 0.011831398 -0.05640477 0.063666716 0.07080768
-0.04704757 0.044783026 0.029652126 0.085237026 0.04736171 0.02780436 0.017293504 0.07076275
0.015026238 -0.039581437 0.00713402 0.03917057 -0.073495455 -0.015178526 -0.004106223 0.0045989887
0.057367273 0.002064699 0.04351098 0.058025386 0.02545514 0.0097307125 -0.0068119955 -0.003984673
-0.028258348 -0.01778175 0.080471285 -0.056096274 0.032489095 -0.023099294 -0.016620027 0.028006172
0.012336998 0.062208552 0.06357755 0.030185783 -0.023527458 0.025119765 0.07308553 -0.039722968
0.01218251 0.07794721 -0.052945722 -0.021346271 0.07609958 0.009832742 -0.014147655 -0.010692382
00000000: 69ec 5f3d 0356 93bd c360 6a3c ae31 bbbb
00000010: 4b96 e73c 1fe5 6e3d 0d20 84bd a50c 623c
00000020: 9759 7bbc 420a 44bd bad0 673d 5564 23bd
00000030: 8de1 b63c 29ac 68bd bde1 a2bd 0578 923d
00000040: ad65 e43c a4da 50bd 9088 5d3d 5841 203d
00000050: 8752 51bd 260a 973d c0e0 2bbd 73a8 4e3d
00000060: 0a20 de3c 5789 383d c692 4e3d 5d4e f33c
00000070: 7bd8 413c b008 67bd b263 823d 9e03 913d
00000080: f4b4 40bd 686e 373d 04e9 f23c c090 ae3d
00000090: 5afe 413d f8c5 e33c 1bab 8d3c 10ec 903d
000000a0: 9c30 763c 2520 22bd 7fc4 e93b 5271 203d
000000b0: c984 96bd 5aaf 78bc 7f8d 86bb 1db3 963b
000000c0: f2f9 6a3d e74f 073b 9238 323d 07ac 6d3d
000000d0: 4c87 d03c 916d 1f3c 2937 dfbb dc91 82bb
000000e0: 0d7e e7bc 08ab 91bc 21ce a43d 35c5 65bd
000000f0: 4913 053d bb3a bdbc b926 88bc 336d e53c
00000100: 1f21 4a3c 65ce 7e3d f234 823d 2d48 f73c
00000110: a8bc c0bc f7c7 cd3c dead 953d 8db4 22bd
00000120: 2799 473c c9a2 9f3d 9ddd 58bd 60de aebc
00000130: 19da 9b3d 8219 213c 91cb 67bc 1a2f 2fbc

weight f4 [80, 80, 2]
-0.0029441454 -0.0050627417 0.00632593 0.0039062232 0.014502794 0.0076422584 4.321815e-05 0.0029100233
-0.015335333 0.008838698 -0.016987735 0.009414803 0.019095326 0.0022186465 -0.00788183 0.0037027462
-0.004085789 -0.010650815 -0.017284857 -0.009796829 0.0057658865 0.002139984 0.003517568 -0.017372433
0.0129705565 -0.0060952404 0.020009933 0.010013713 0.0039809975 0.0023466786 0.013698015 0.0075843744
-0.011069682 -0.0067109587 -0.013727708 -0.020809943 -0.00348835 0.0015401037 0.009186256 0.01650476
-0.01705549 -0.007578894 0.022437498 0.0011263384 -0.023512406 -0.010535481 -0.014279697 0.007899483
-0.013644968 0.015206541 -0.011645035 -0.014867109 -0.00080428715 -0.0009338976 0.0031411238 0.008445578
-0.014426047 -0.0075025926 -0.00670623 0.011281958 0.0012774655 -0.013078742 0.0006400143 0.0019813525
-0.00119074 -0.0050992225 -0.0018917031 0.0075341165 0.009711699 -0.02183112 -0.01023265 -0.014025748
0.00054455444 -0.00762181 0.00937556 0.00058670744 -0.0056177387 0.016727637 0.015127701 0.009306507
-0.0068493146 -0.009277779 0.004004517 0.0031036597 -0.014285282 0.0031215453 -0.007720753 0.009914965
-0.002345016 0.002025655 -0.0075120567 0.014849369 -0.012122473 -0.012981838 -0.018402195 0.0015006645
-0.0055184886 -0.0070871767 -0.014942764 -0.0044062706 -0.0009214604 -0.022133237 -0.019910112 -0.0058136415
0.003925747 -0.01737937 -0.002240895 -0.010173197 -0.0050224247 -0.007582683 0.0024493781 0.0016162466
-0.000778999 0.018746553 -0.00038705766 -0.019351143 0.009323243 -0.0040678177 0.0017924558 -0.0060249004
-0.0049800123 -0.0144644575 -0.0133242 0.0011200052 0.007792293 0.0119194025 -0.0033187286 0.016215788
-0.0019164209 0.012663667 -0.0034140865 0.020216782 0.0010907933 0.0025479968 0.0013450688 0.017617317
0.0019482535 0.0061017065 -0.0111761 -0.01905787 0.001097129 0.0020752074 0.014737305 -0.007867809
0.0009834307 -0.0030558242 0.005977787 0.011407868 -0.0012497439 0.0017634942 -0.015084821 -0.01990483
0.012779189 0.001269798 0.00059074175 0.00070107094 -0.0070667057 0.0122066 -0.0027137417 -3.0897296e-05
-0.011083916 0.0004790482 -0.0060864016 -7.916276e-05 -0.0024949755 -0.020968627 -0.013921155 -0.014145791
-0.0049628518 0.013423656 -0.00055455096 0.0014115912 -0.011208032 -0.008668438 0.006643649 0.0073292493
-0.006963392 -0.0069412612 -0.014319372 -0.011467174 -0.0067354944 0.0013852865 -0.010664576 -0.0007024326
-0.013102798 0.01321326 0.01685566 -0.008612704 0.006688952 0.019017825 0.00070500065 0.005260625
-0.019805621 -0.008326601 0.0047640945 -0.0073681874 0.021263594 -0.014126609 0.00974332 -0.012524648
-0.0064384923 -0.017479353 -0.0065397867 0.0031606317 0.016888125 0.027401783 0.012942427 0.017192636
0.0059202723 0.018133987 -0.018775657 -0.020539125 -0.0061610816 0.012234131 0.004521298 -0.0011740862
0.015078486 -0.0012460772 0.007404893 0.016606718 -0.004344763 -0.019552676 -0.009792107 0.00054842705
0.017358167 0.01215035 -0.008961605 0.011711959 -0.006554052 -0.012551014 0.0003388682 -0.00081172975
-0.00072106445 0.008292453 0.004107583 0.010247195 -0.02720418 -7.987662e-05 0.0035682889 0.003050223
-0.003621547 -0.009424109 -0.0025803074 -0.016060293 -0.009716709 0.0017295446 0.004278795 0.010672491
-0.0046499292 -0.002682913 -0.0043670535 -0.008076009 -0.012506131 -0.0044001075 0.008309996 0.004717139
00000000: 90f2 40bb 5be5 a5bb bf49 cf3b 8dff 7f3b
00000010: 209d 6d3c e96b fa3b 2345 3538 17b6 3e3b
00000020: 0c41 7bbc 30d0 103c dd29 8bbc 8c40 1a3c
00000030: cd6d 9c3c b666 113b cb22 01bc c6a9 723b
00000040: 15e2 85bb c280 2ebc f998 8dbc e182 20bc
00000050: c3ef bc3b f93e 0c3b 0087 663b a250 8ebc
00000060: 7582 543c 95ba c7bb dfeb a33c 8e10 243c
00000070: 0773 823b bcca 193b a46d 603c 5886 f83b
00000080: 9d5d 35bc 9ae7 dbbb 2eea 60bc 9d79 aabc
00000090: cd9c 64bb 4edd c93a f381 163c fe34 873c
000000a0: f4b7 8bbc 5f58 f8bb d8ce b73c a5a1 933a
000000b0: 179d c0bc 039d 2cbc 64f5 69bc d56c 013c
000000c0: 258f 5fbc db24 793c d1ca 3ebc 2d95 73bc
000000d0: ccd6 52ba cfd0 74ba 50db 4d3b 525f 0a3c
000000e0: 3a5b 6cbc 4fd8 f5bb efbf dbbb f6d7 383c
000000f0: a170 a73a 3848 56bc a2c6 273a 94d9 013b
00000100: 9b12 9cba 6117 a7bb 06f3 f7ba c0e0 f63b
00000110: d11d 1f3c 2dd7 b2bc d8a6 27bc 40cc 65bc
00000120: 6ec0 0e3a 60c0 f9bb f39b 193c 45cd 193a
00000130: 0215 b8bb 6608 893c 2dda 773c 527a 183c
00000140: 3770 e0bb d301 18bc 5338 833b c566 4b3b
00000150: d10c 6abc d792 4c3b 5ffe fcbb 6172 223c
00000160: d7ae 19bb dac0 043b b327 f6bb c54a 733c
00000170: 569d 46bc c6b1 54bc 33c0 96bc f2b1 c43a
00000180: 70d4 b4bb 8c3b e8bb 7fd2 74bc 7a62 90bb
00000190: 298e 71ba c350 b5bc 881a a3bc 5c80 bebb
000001a0: 8da3 803b 2e5f 8ebc fbdb 12bb 7bad 26bc
000001b0: 2793 a4bb 2878 f8bb bf85 203b 3dd8 d33a
000001c0: bd35 4cba 5f92 993c 00ee cab9 4a86 9ebc
000001d0: 84c0 183c 544b 85bb d6f0 ea3a 876c c5bb
000001e0: 5f2f a3bb 55fc 6cbc bf4d 5abc 23cd 923a
000001f0: 7e56 ff3b 9949 433c 077f 59bb f9d6 843c
00000200: 6a30 fbba 457b 4f3c debe 5fbb aa9d a53c
00000210: f3f8 8e3a 4bfc 263b 054d b03a 3152 903c
00000220: 8a5c ff3a d3f0 c73b f61b 37bc 401f 9cbc
00000230: 8acd 8f3a 3400 083b bd74 713c fce7 00bc
00000240: 75e6 803a 3944 48bb 50e1 c33b 11e8 3a3c
00000250: 72ce a3ba 0c25 e73a 5326 77bc 740f a3bc
00000260: ce5f 513c 5a6f a63a 02dc 1a3a 13c8 373a
00000270: d38f e7bb 31fe 473c 08d9 31bb b897 01b8
00000280: 5099 35bc c328 fb39 7070 c7bb 2f04 a6b8
00000290: be82 23bb 66c6 abbc 8e15 64bc bfc3 67bc
000002a0: 6b9f a2bb e5ee 5b3c 495f 11ba 2405 b93a
000002b0: e5a1 37bc 1006 0ebc f8b2 d93b 332a f03b
000002c0: 2a2d e4bb 8573 e3bb cd9b 6abc d0e0 3bbc
000002d0: 6cb5 dcbb 8092 b53a 79ba 2ebc 7423 38ba
000002e0: 1ead 56bc 6e7c 583c e214 8a3c 4d1c 0dbc
000002f0: ff2e db3b 45cb 9b3c cbcf 383a 5261 ac3b
00000300: 663f a2bc 4c6c 08bc 1f1c 9c3b d670 f1bb
00000310: fd30 ae3c 4b73 67bc 72a2 1f3c 2e34 4dbc
00000320: fdf9 d2bb dc30 8fbc b54b d6bb 9a22 4f3b
00000330: f758 8a3c b479 e03c 790c 543c 92d7 8c3c
00000340: d8fe c13b ba8d 943c 68cf 99bc ab41 a8bc
00000350: e6e2 c9bb aa71 483c 6627 943b cce3 99ba
00000360: c10b 773c 6a53 a3ba bfa4 f23b d00a 883c
00000370: 835e 8ebb ef2c a0bc 136f 20bc 51c4 0f3a
00000380: b732 8e3c 4312 473c b2d3 12bc 84e3 3f3c
00000390: 5fc3 d6bb c5a2 4dbc 1faa b139 43ca 54ba
000003a0: d105 3dba 12dd 073c e798 863b dae3 273c
000003b0: 4ddb debc 6f83 a7b8 f4d9 693b 40e6 473b
000003c0: 7a57 6dbb 9467 1abc 601a 29bb e090 83bc
000003d0: d532 1fbc e3b1 e23a 2235 8c3b acdb 2e3c
000003e0: 6f5e 98bb d0d3 2fbb 8019 8fbb 3d51 04bc
000003f0: 84e6 4cbc c72e 90bb a626 083c 3b92 9a3b
