GAN/PM Generator/PM_epochs=500_seq=80_batch=10.pth (torch, 674968 bytes, 31 tensors)

weight f4 [1, 80, 1]
00000000: 3023 0bbc 8ae3 953c 12a3 15bc 91a1 11bc
00000010: d580 ff38 c11e ba3c 1c25 22bc 62db 09bb
00000020: 9db9 2b3c 9df0 67bb b59d 93ba 5040 a4bb
00000030: 3f77 723c f102 42bb 6d1b afbc 3aad afbb
00000040: 82c9 af3c 1ba2 46bc 9125 8cbb 75bc a23c
00000050: c314 8d3c 063f 7a3c c39e 50bc bc11 8ebc
00000060: b23f b239 141d 773c bbdd 1dbc 0e4a 9a3c
00000070: cab5 02bc 32c9 b43c 48c7 9f3b 59aa eb3c
00000080: a9b7 ddbb b028 1e3c c2d7 3e3c fd43 b63a
00000090: bb9c 833c 6a95 b33b b7cd 8abc 2d10 f33c
000000a0: fe04 063b 89ee 96bb 6b20 09bc d3c7 413c
000000b0: a71c 613c 797b 333b f97c 9aba a11c d4bb
000000c0: ef0e ed3b d72b 59bc a5ee 8d3a a332 7fbc
000000d0: ec11 f9bc 5f24 403c 3412 553c db17 f33c
000000e0: 63cf 50bc f0fe db3c eaef 70bc 873f 2b3c
000000f0: 1051 4b3c 4ed6 28bc 2873 f0bb f565 a4bc
00000100: dde2 3cbc df31 033d 0521 b3ba afa6 253c
00000110: 9c05 1e3c e138 cb3b 1b23 24bc e98f b93c
00000120: 7e6c 04bc 26ad 2cbc 5123 373c f470 f6bb
00000130: b834 59b9 dfcc 3f3a 4c97 903c 3373 b8bb
-0.008492276 0.018296976 -0.009133117 -0.008888618 0.000121833444 0.022719743 -0.009896543 -0.0021035303
0.010481265 -0.003539122 -0.001126221 -0.0050125495 0.014798938 -0.0029603804 -0.021375382 -0.0053612264
0.021458391 -0.01212361 -0.004276939 0.019865254 0.017221814 0.015273815 -0.012733164 -0.01734244
0.00033998262 0.015082616 -0.009635384 0.01883414 -0.007977912 0.022068594 0.004876051 0.028767752
-0.0067662788 0.009653255 0.01164812 0.001390576 0.016065946 0.005480458 -0.016943796 0.0296708
0.0020449753 -0.0046060723 -0.008369545 0.011827427 0.013739741 0.0027386828 -0.0011786512 -0.0064731394
0.0072344462 -0.013255081 0.0010828568 -0.015576038 -0.030404054 0.011727422 0.013004828 0.029674461
-0.012744757 0.026854962 -0.0147056375 0.010452158 0.0124094635 -0.0103050005 -0.0073379464 -0.020068148
-0.011528698 0.032029983 -0.0013666457 0.010110541 0.009644892 0.006201849 -0.010018135 0.02265163
-0.008082507 -0.010539329 0.011177854 -0.0075207893 -0.00020714372 0.00073166 0.017650269 -0.005628967

weight f4 [80, 3, 1]
00000000: ac74 e23d e31c d33d 5151 dbbd 0879 75bd
00000010: e038 96bd a66b a03d 4900 8abd 1ae3 afbd
00000020: f436 903d ac53 a4bd 5f14 f5bd ccdf bc3d
00000030: ce28 e23d f6a8 e33d fd83 fcbd a6c1 9c3d
00000040: 8116 b43d 7ad9 bfbd e71b a83d d64a bd3d
00000050: 0019 b1bd 9b5e dfbd 6360 fcbd 9642 f83d
00000060: 72ca c7bd 9d89 d0bd 55b5 cc3d ca10 ea3d
00000070: b784 e63d 76ea febd 7e33 ae3d 39a7 df3d
00000080: 2367 adbd ff74 9c3d 9d8e be3d a8be c2bd
00000090: feb0 a7bd 217e c0bd b9e5 8b3d 4fcb c4bd
000000a0: 3e79 bdbd f952 f13d d4c4 8a3d 6e21 d73d
000000b0: a123 a1bd 93b1 b53d 9df9 ea3d 4343 d4bd
000000c0: b329 ae3d fbf6 d23d 2f59 cfbd 11a5 d63d
000000d0: 79df d73d dc95 e6bd 7ef7 bd3d e04d b83d
000000e0: 0a2a a1bd 178d d43d 3fe1 fe3d c8da e6bd
000000f0: 40c4 d4bd b798 cdbd 95b6 cf3d 7a75 d4bd
00000100: 89f3 aebd 08aa ba3d aa75 d73d bb65 e53d
00000110: 0fff efbd baa9 9ebd cd3f 99bd e52b 9e3d
00000120: 9eca 07be ece0 10be 3f62 073e c48e c83d
00000130: 1d4d ca3d 0cd2 c6bd 8793 b43d 8c8b bb3d
00000140: cdc0 d1bd e68f b6bd 3881 d3bd 58b2 b43d
00000150: 4553 ae3d d8e5 c93d 6b7a abbd 0442 00be
00000160: fe8a f4bd 1059 c73d cb29 95bd a0e7 c2bd
00000170: 03df 9b3d f135 fcbd 5c70 fcbd 6934 fb3d
00000180: 704f a8bd 4cdb d0bd 52d3 c43d 5584 c1bd
00000190: 2c20 e6bd 2983 ef3d 22fc c53d 9b09 963d
000001a0: 67e7 c0bd 66a0 d7bd 67e8 f0bd 4846 ea3d
000001b0: 51d9 923d 6532 aa3d 3e49 acbd 1ae2 a8bd
000001c0: c157 c1bd a556 b13d b868 963d 7b54 943d
000001d0: 9eaa 82bd 2bc8 e5bd a83f eabd 91a2 d93d
000001e0: 03d0 85bd 0336 82bd 8fb4 883d 3a1f da3d
000001f0: 377d 033e b914 d2bd e244 9f3d 6a37 ba3d
00000200: f431 babd 2578 d33d 4a8f c73d 1417 dabd
00000210: 45fb c2bd 77c6 c0bd 453d ec3d 85d0 853d
00000220: 8209 cf3d bf48 afbd 2ad7 c2bd 9f9c a6bd
00000230: 4cdb a73d f6c8 b4bd f88f ddbd 64c8 cb3d
00000240: 9e37 c1bd f5c9 c7bd 2e36 a83d 45ab 9abd
00000250: 0d3c 67bd 374a 7b3d 42a6 dc3d 4c2a d33d
00000260: d612 ebbd 2541 bc3d 36be f63d d741 dabd
00000270: aed4 b0bd 16e6 97bd 7365 ac3d f587 b6bd
00000280: 0a73 e7bd 94c2 bf3d fe26 a4bd ae4d a3bd
00000290: ecb3 983d dd7a 98bd 5bae b0bd 35f3 8d3d
000002a0: f851 e3bd 43cd 16be 2de0 dd3d dffb afbd
000002b0: 80ee ebbd a009 c53d 4deb a93d 0d5b bb3d
000002c0: 15b9 b4bd 42cf cc3d 5c69 e03d e8ba 92bd
000002d0: 9314 afbd a4d1 c5bd 0ac7 8c3d facf db3d
000002e0: 1604 b73d 650c b7bd aa71 b93d 1c14 9e3d
000002f0: f6a7 cbbd daff b5bd c9a7 adbd 9239 b43d
00000300: 6a98 f43d 0e0a f73d b464 f8bd 3bc7 d53d
00000310: 2565 be3d 203f b3bd 96bc 66bd f478 84bd
00000320: b49f 4a3d c87e cb3d c494 b73d 76c0 c3bd
00000330: 862d ac3d b339 cd3d 47d7 cdbd f739 dcbd
00000340: db4a d1bd 86ac e93d 830d 973d 485e ad3d
00000350: ac24 b5bd 50f4 bbbd 9e6f f6bd d0e5 9c3d
00000360: ebb3 ddbd 7b81 05be c633 1e3e cc7a c13d
00000370: 79e6 c43d f75f c6bd 5e97 c83d 4fa7 cc3d
00000380: 96a2 dbbd b26a d5bd 053e d7bd 1105 e83d
00000390: 688a 88bd ee20 79bd b632 823d 8f92 8d3d
000003a0: 958c d53d ef67 b0bd a3c1 cabd 521f d2bd
000003b0: 6cf0 a03d 5f0f bd3d 22fd ad3d 0fc9 a9bd
0.1105741 0.10308244 -0.10708869 -0.059929878 -0.07335067 0.07833032 -0.06738336 -0.08588238
0.070417315 -0.08023772 -0.11966776 0.09222373 0.11042939 0.11116211 -0.12329862 0.07654123
0.08793355 -0.09367652 0.08208447 0.092427894 -0.086473465 -0.109067164 -0.12323072 0.12122075
-0.0975541 -0.10182498 0.09995524 0.114289835 0.11255782 -0.124470636 0.08505915 0.10920567
-0.084669374 0.07639503 0.09304545 -0.09509021 -0.081880555 -0.09399057 0.068309255 -0.096090905
-0.09251641 0.11783404 0.06775823 0.10504423 -0.07868124 0.0887176 0.11473391 -0.10364392
0.08504047 0.10301014 -0.10124432 0.10480703 0.10540671 -0.11259052 0.09275721 0.089992285
-0.078693464 0.10378473 0.12445306 -0.11272198 -0.10388994 -0.10038894 0.10142247 -0.103739694
-0.085425444 0.09114462 0.105204895 0.11201044 -0.117185704 -0.077472165 -0.07482872 0.07723216
-0.13260886 -0.14148301 0.13221072 0.097928554 0.098779894 -0.09708032 0.08817201 0.09157476
-0.10241852 -0.08914165 -0.10327381 0.08823079 0.08511976 0.09858292 -0.08372959 -0.12525183
-0.11940573 0.09733784 -0.07283362 -0.09516835 0.076108955 -0.12314976 -0.12326118 0.12265856
-0.082182765 -0.101980776 0.09610619 -0.094490685 -0.11236605 0.11694939 0.09667231 0.07326051
-0.094191365 -0.105286404 -0.11763077 0.11439186 0.07170356 0.08310393 -0.08412407 -0.082462505
-0.09440566 0.08659104 0.07344192 0.07242676 -0.06380199 -0.1121982 -0.11437923 0.1062671
-0.06533816 -0.06357958 0.06675064 0.10650487 0.12840734 -0.10257859 0.0777681 0.09092601
-0.09091559 0.1032565 0.09744127 -0.10648933 -0.09520582 -0.09412854 0.11535124 0.065339126
0.10109235 -0.08558797 -0.095136955 -0.08135342 0.081961244 -0.08827393 -0.108184755 0.09950331
-0.09434436 -0.09755317 0.08213459 -0.07552198 -0.056453753 0.061350074 0.10773899 0.10310802
-0.11478202 0.09192113 0.120479986 -0.10657089 -0.086343154 -0.07416932 0.084177874 -0.089126505
-0.11301239 0.09363285 -0.0801525 -0.079738006 0.074561924 -0.07445309 -0.08627006 0.06931154
-0.11099619 -0.14726739 0.10833774 -0.085929625 -0.115201 0.096209764 0.08296833 0.09148226
-0.08824364 0.10000469 0.10957596 -0.07164556 -0.08548846 -0.096591264 0.06873901 0.10733028
0.08936326 -0.08937911 0.09054883 0.07718679 -0.099441454 -0.088866904 -0.08479268 0.08800043
0.11943133 0.12062465 -0.121285826 0.10438391 0.092966355 -0.087522745 -0.056332193 -0.064683825
0.04946871 0.09936291 0.08963922 -0.095581934 0.084071204 0.10020771 -0.100508265 -0.107532434
-0.10219356 0.11409859 0.07375624 0.08465248 -0.08844885 -0.09177458 -0.12033008 0.07661021
-0.10825332 -0.13037674 0.15449437 0.0944725 0.09614272 -0.096862726 0.09794496 0.09992849
-0.1072437 -0.10420741 -0.10509876 0.11329091 -0.06667024 -0.06082242 0.063573286 0.069127195
0.104272045 -0.08613574 -0.099002145 -0.1025988 0.07858357 0.092314474 0.08495547 -0.08290302

bias f4 [80]
00000000: a878 c63e 984a 37bd 91c4 83bd 6eaf b1be
00000010: 3884 d73e f73f 173d e71e 533e db0a dbbe
00000020: 9073 91be 38db d73e a96d 543e 4195 303d
00000030: 0dce 6cbe 405f babe 8ca4 0c3e d1ad de3e
00000040: 945a 543e c7a1 013f 0567 013f db9a ff3e
00000050: f56c a3be 3133 83be ad40 e63e 2050 60be
00000060: a536 09bf fc2e 8c3e 127d fa3e ef1c 8fbe
00000070: c2f7 813d 2b68 eebe 0366 63be dfcb efbe
00000080: 38f9 86be 5634 f2be ef6d c73d e921 00bf
00000090: 916a a43b 3ea0 a9bd 6082 f53d be59 f1be
000000a0: 8228 1fbe 0ce1 0b3f 7c7f c23b 0829 b93e
000000b0: de45 f0be a0af 503e dd93 5abe faab 6abe
000000c0: eb79 81be 1625 dabc de59 0b3f 9f2d c13e
000000d0: f51d 2fbe 76d8 8dbe 242d 05be 5fbe 80bd
000000e0: 3398 07bf bc65 9cbe f17c ee3d 3901 863e
000000f0: d3a0 22be fa9f 5b3e c2bd 813e b3f1 6ebe
00000100: 9dbe 043f 085a 913e 8eee 27be 7cb7 ad3e
00000110: e686 983e aa2c e6be 412b 213d 38f8 a8be
00000120: b7d6 06bf 147f 843e 1f23 b53e 0c42 e2be
00000130: d5c9 fabc b613 9f3d b1a6 81be 28b0 8e3e
0.38763928 -0.044748873 -0.064339764 -0.34704155 0.42093062 0.036926236 0.20617257 -0.4278172
-0.2840848 0.42159438 0.20744957 0.04311109 -0.23125477 -0.36400795 0.13734645 0.43491986
0.20737678 0.5063748 0.5054782 0.49922833 -0.31919065 -0.25624993 0.4497122 -0.21905565
-0.53599006 0.27379596 0.48923546 -0.27951762 0.06346084 -0.4656385 -0.22206883 -0.4683523
-0.26362014 -0.47305554 0.09737765 -0.5005174 0.0050175865 -0.08282517 0.11987758 -0.4713878
-0.15542796 0.5464027 0.0059356075 0.36164117 -0.46928304 0.20379496 -0.21345468 -0.22917166
-0.2528833 -0.026629012 0.54434 0.3773012 -0.17101271 -0.2770421 -0.13005501 -0.062863104
-0.5296661 -0.30546367 0.116449244 0.26172808 -0.15881662 0.21447745 0.25340086 -0.23334388
0.5185335 0.28389 -0.16399595 0.3392905 0.2979042 -0.4495595 0.03934789 -0.33001876
-0.5267138 0.25878203 0.35378358 -0.44191015 -0.03061382 0.077674314 -0.25322488 0.27868772

weight f4 [80, 80, 1]
00000000: 43d4 fbba 6ebe 1abd 5b1d e9bc ede0 6bbb
00000010: 9b60 323b 32bb 81bc 14f7 513c 8818 87bc
00000020: cdd6 5c39 56f6 093c a4c9 c23a c71c abbc
00000030: 43ec 163c 9e61 d5bc e135 653c da5f 553c
00000040: 34a4 f83c 3018 8ebc c949 da3a 57fa b63b
00000050: b16b 8eba d750 00bc 21df af39 4a6a 16bb
00000060: 3685 f2ba 3510 5c3c c016 0bbc fbdb 94bb
00000070: 2dfd 0fbc f229 febb cf18 8abc 411d fd39
00000080: 481d 83bc 0139 263c 4642 e23a c6ed 34bb
00000090: 520f 5f3d 1c54 91bc 68e4 3a3c 2c9c 4f3b
000000a0: 0847 8cbb a881 333c d7d9 883d 0a19 b6bb
000000b0: 460a 0e38 8d24 b1b8 849b aebc c775 94bc
000000c0: 9206 27bc 2e5d 04bd 721a 1bbb 6c8c 473c
000000d0: 5873 09bd dc29 273a d158 98bd 7165 33bd
000000e0: 6b7a 21bc 09b9 ec3b eb2e af3c 7d5d f63b
000000f0: 9472 89bd 1fda 22bb bff0 a33a a9e1 8dbb
00000100: 2969 0a3c 59ff 0dbc 6956 6d3a 411e b13a
00000110: b250 a1bc 3476 643c 0178 7ebc 7697 3fbc
00000120: 0f6f e3bb 41cd 2a3b 8c69 733c 0e54 ae3a
00000130: 76b2 27bd f3b1 523c 8269 1abc 7f52 3b3b
00000140: 8f0f cdba 325c 133d b322 da3c e81f 743d
00000150: 0ef6 d8bc a1d7 25bd d59b f1bc a69f c83c
00000160: 6f4c 883d c60c afbc 9a14 08bd 60b1 61bd
00000170: a69c a53d 550a 693c 4ec5 29bd 452e 27bd
00000180: 006f 10bd ec85 adbb fb77 afbc f62a 19bd
00000190: af6f a93d fabc 8e3d 9d6d 28bc 1a47 8a3d
000001a0: 591e 6f3c d167 09bd f2cf 1ebd d467 6e3d
000001b0: 45c7 82bd 1b9b ad3c 6d5e 9b3d 704f cd3c
000001c0: 793b 9d3d 716d d53c 135c bcbd 7608 043d
000001d0: 6f3e 4abd cfa6 813b 0f81 68bd 26d0 bf3c
000001e0: c464 793d ae6c 77bc 6f5f 5abd 769d 16bd
000001f0: e085 633c bd07 46bd fd72 b53d fe67 773d
00000200: 5a65 633d 4a47 e53c de63 cdbc 26d0 60bc
00000210: 00c7 0f3d dc30 933d 5854 ba3c ff98 dc3c
00000220: 6f4e 163d 047a a33d aa9c b8bd 0e3e 94bc
00000230: 86a7 453d 0329 16bd 9689 24bd ac5d 963d
00000240: 3586 63bc 03a2 fbbc beee 633d c08e 24bd
00000250: 9e4d 19bd 14ed fb3c 097e 60bd 2da1 2c3d
00000260: ba72 983c d64b a6bc 3270 a2bc 1002 2f3d
00000270: c44d 6c3c 6bf4 aabd b540 9b3d 736d b5bc
00000280: 638b 8b3c baca 1fbd 6db2 2dbd e65b 23bc
00000290: 6620 08bb 3e4c 28bd c119 59bb 507a ac3b
000002a0: 0cbb 133c 06c5 a4ba d2f8 d1ba 23f8 2bbd
000002b0: 7079 783b dd2c b0bc 4546 76bc a540 4a3b
000002c0: 570c d8ba 8622 563c ce74 b3ba 8673 fb3b
000002d0: 08e8 783b e005 16bd 4596 e73a 5b13 bfbc
000002e0: cc55 86ba d40c 9d3b 3691 5e3c 57e0 cebb
000002f0: 5ba8 89bc d768 0bbc 244b d2bb 1e10 29bc
00000300: 4caf b4bc 903a 9f3c 887d 4ebc 219d 01bc
00000310: e7ca 00bd b1a3 05bd fbc4 28bb 29d2 7cbb
00000320: 8512 03bc c7c5 973c b0b7 fdbc 867a 103c
00000330: 3858 31bb 7ac9 eebb 2f91 5fbc c71f 09bd
00000340: 3058 aabb 1261 a4bc c398 c0bb 2b38 503a
00000350: b5ce a5bc 3594 0abc 8347 66bc a5ea bebc
00000360: 1808 bbba 4812 c5bb 297b d73b a0f4 fa3b
00000370: 7724 0ebd 5fda 57ba 3f95 1f3b 7329 febc
00000380: 50ad b93c d3b0 803c a8cc d8bb e222 d03b
00000390: fcd2 023a 2057 00bc 6480 8cbd f367 d1bb
000003a0: f981 1fbc dc09 90bb f2b9 8bbc cea3 3abb
000003b0: 51a7 04bd 7a6a 34bc c5ec bebc edc1 4d3c
000003c0: a3bb 94bb 54fc 07bd d50a 21bd f885 9cbc
000003d0: 2fda b4bb 14de eabc ca05 e439 fe25 9eb9
000003e0: 9316 183a 24c1 123c 5ee6 e6ba e2fd 94bc
000003f0: 19f5 d13b 2e36 e5ba 2a02 20bb 8589 8bbb
-0.0019213039 -0.037779264 -0.02845638 -0.003599222 0.0027218226 -0.015836332 0.012815256 -0.01649119
0.00021060854 0.0084205475 0.0014861119 -0.020887746 0.009211603 -0.026047524 0.0139898965 0.013023341
0.030351736 -0.017345518 0.001665407 0.005584042 -0.0010865835 -0.007831774 0.00033544845 -0.0022951537
-0.0018502835 0.013431598 -0.008489311 -0.0045428253 -0.008788389 -0.007756465 -0.016857533 0.00048277716
-0.016005173 0.010145427 0.0017262183 -0.0027607544 0.05445797 -0.017740302 0.011406995 0.003167878
-0.0042809285 0.010956205 0.06682175 -0.005557184 3.3865006e-05 -8.446826e-05 -0.02131439 -0.018122567
-0.010194438 -0.032315426 -0.0023666886 0.012179475 -0.033557266 0.0006376782 -0.074388154 -0.043797914
-0.009855847 0.0072242063 0.021384677 0.007518469 -0.06711307 -0.0024849249 0.0012507661 -0.0043298793
0.008447924 -0.008666837 0.00090537086 0.0013513045 -0.019691799 0.013944197 -0.015531541 -0.011693826
-0.0069407295 0.0026062282 0.014856707 0.0013300197 -0.040941678 0.012859809 -0.009424569 0.0028583107
-0.0015644896 0.035976596 0.026627874 0.05960074 -0.026484516 -0.040488843 -0.029493252 0.024490189
0.066552036 -0.021368396 -0.033222772 -0.0551008 0.08086519 0.014223655 -0.04144793 -0.04081561
-0.035262108 -0.0052955057 -0.021419516 -0.037394486 0.08273255 0.06969638 -0.01028004 0.06751843
0.014594638 -0.033546273 -0.03877253 0.058204487 -0.06385664 0.021192124 0.0758637 0.025062293
0.07677359 0.026053162 -0.09197249 0.03223463 -0.049375948 0.0039566527 -0.056763705 0.023414683
0.060887113 -0.015101595 -0.05331367 -0.03677126 0.013886899 -0.048347224 0.08859823 0.06040191
0.05551658 0.027988095 -0.025072034 -0.013721501 0.03510189 0.071870536 0.022745296 0.026928423
0.036695894 0.07982257 -0.09014256 -0.018095996 0.048255466 -0.036660206 -0.040170275 0.07342085
-0.013886978 -0.030716902 0.055647604 -0.0401752 -0.037427537 0.030752696 -0.054807696 0.042145897
0.018609393 -0.020299833 -0.01982889 0.042726576 0.014422838 -0.083474 0.07580701 -0.022146916
0.017034238 -0.039011694 -0.04240649 -0.009970641 -0.0020771264 -0.041088335 -0.0033126923 0.005263604
0.009016763 -0.0012570925 -0.0016019589 -0.04198469 0.003791418 -0.021505767 -0.015031402 0.0030861285
-0.001648317 0.0130697545 -0.0013691427 0.0076736836 0.0037980098 -0.036626697 0.0017668685 -0.02332466
-0.0010248958 0.004792789 0.013584426 -0.0063133645 -0.016803911 -0.0085088825 -0.006417649 -0.010318784
-0.022056244 0.019437104 -0.012603171 -0.007910998 -0.031443503 -0.03262681 -0.0025752175 -0.0038577414
-0.008000021 0.018526925 -0.030971378 0.008818274 -0.002706064 -0.0072872015 -0.013645454 -0.03347757
-0.005198501 -0.020065818 -0.0058775856 0.000794294 -0.020240167 -0.008458187 -0.014055136 -0.023305247
-0.001426938 -0.006014142 0.006575961 0.007658556 -0.034702744 -0.0008234139 0.0024350432 -0.031025624
0.02266565 0.015709316 -0.006616194 0.0063518146 0.00049905456 -0.007833272 -0.06860426 -0.0063905655
-0.009735578 -0.0043957066 -0.01705644 -0.0028478983 -0.032386128 -0.011011714 -0.02330626 0.012558443
-0.0045389696 -0.033199623 -0.03931697 -0.01910685 -0.0055191736 -0.028670348 0.00043491862 -0.00030164415
0.00058017037 0.008957181 -0.0017616262 -0.018187467 0.0064073917 -0.001748746 -0.0024415352 -0.004258337

bias f4 [80]
00000000: 72dd 923d ce2a 863d 1255 d0bd 63cd afbd
00000010: 846a b83d 15fd 1f3d b457 893c 1e13 863d
00000020: 6443 b5bd fd67 b2bd 5c60 b8bd 32f3 373d
00000030: 0322 dabd f3ec 043d f2b4 4f3d 9a6f 383c
00000040: 506a 0ebc 21d6 0cbd 8157 243d 55bf 853b
00000050: 84e3 27bd cffc 84bd 6ed5 cabd d095 063b
00000060: 8f83 1939 e3fd 2c3d f590 82bd 6787 9ebd
00000070: a265 963b 663e ce3d dc15 3abd fe3f 9d3d
00000080: 14cb 293d bd33 783d da9c a03c 946a 92bd
00000090: 5070 c93c a129 93bd 122e a13d f843 bd3d
000000a0: 0cdc 6d3d c02a b1bd 63ae 2bbd 60ad 66ba
000000b0: f1da 3ebc 2607 eabd fe72 c3bd ed6f 72bd
000000c0: a6dc bbbc e8dd fcbc 056b 743d f576 18bc
000000d0: 075e 2ebb d252 6ebd 04d6 d2bd 6984 ee3b
000000e0: 93df 82bd d9c5 e4bc 9683 c13d e93f c3bd
000000f0: 2469 96bd 40af c7bd 8e19 b3bb 7e7c cd3b
00000100: 61df e7bd dd04 213d 8c7a ec3c 3385 863d
00000110: 2cce c43d 9063 13bd 7df0 033d 82c8 afbd
00000120: c565 1ebd 583e 96bd c06e 1d3d 1406 013c
00000130: e0a8 13bd ca91 c2bd 808a bbbc 1b3d e7bd
0.071711436 0.06551133 -0.10172476 -0.08584096 0.09004691 0.039059717 0.016765453 0.06546615
-0.08850744 -0.087112404 -0.09002754 0.044909663 -0.106510185 0.032452535 0.050709672 0.011257077
-0.008692339 -0.034383897 0.040122513 0.0040816464 -0.04098846 -0.06493532 -0.0990399 0.0020536073
0.00014640226 0.042234313 -0.063753046 -0.0774067 0.0045897523 0.10070495 -0.045431003 0.07678221
0.041453436 0.060596216 0.019606043 -0.071492344 0.024589688 -0.071856745 0.07870115 0.0924148
0.05807118 -0.08650732 -0.041914355 -0.00087996386 -0.011648879 -0.11427145 -0.095434174 -0.059188772
-0.022932362 -0.030867532 0.059672374 -0.009305705 -0.0026606338 -0.058184452 -0.102947265 0.007278968
-0.063903 -0.027926372 0.09448926 -0.09533674 -0.07344273 -0.09750223 -0.005465693 0.006270944
-0.11321903 0.03931128 0.028867029 0.065683745 0.09609637 -0.035983622 0.03221177 -0.08583166
-0.038671274 -0.0733611 0.038435698 0.007874984 -0.036049724 -0.09500463 -0.02289319 -0.11290952

weight f4 [80, 3, 1]
00000000: af76 603d b0a8 8f3d bc54 8cbd a5c6 87bd
00000010: c32d 8dbd b62d 803d 10ac d23d 0351 c33d
00000020: 36ba cbbd e5c7 9f3d 0c14 913d 0ec2 8dbd
00000030: 5ac9 853d c2a5 e23d 9562 9ebd 3e7f a7bd
00000040: df8d babd 421f ad3d d59c c63d da4c bf3d
00000050: e2f3 bbbd ba27 093e 6f3d 023e ed7d fdbd
00000060: 8191 bebd 8c50 cebd 2213 b73d 4776 d43d
00000070: ee43 f03d b8c2 b7bd 02b5 993d 6f4e a33d
00000080: 6336 bcbd c18e b93d 6b42 d13d a8de d3bd
00000090: 393d 9abd e50f c2bd 4d94 9a3d c3ca b53d
000000a0: e369 953d bf6c adbd cb1c c23d 1656 a73d
000000b0: d3dd b0bd a974 713d f553 9c3d eb58 a7bd
000000c0: 9f01 acbd ec56 b3bd e07e 9c3d fa44 ecbd
000000d0: b267 00be cb17 c33d 9bfc 183e d42e 0d3e
000000e0: c8d3 04be c213 b9bd d65f babd ebd1 a83d
000000f0: 0f43 bebd aba4 ccbd 3032 ca3d 363d 95bd
00000100: 4b83 80bd 78a3 7f3d a10b c83d 63bf e73d
00000110: 34a4 e6bd e58d f43d 041a f23d 1734 eebd
00000120: 12a1 c03d fdde e03d ad82 bebd ac21 92bc
00000130: ee04 93bc ad69 e03c cca7 f53d c295 e83d
00000140: 046d cabd 3f39 a4bd c3e6 d0bd 9c3c dd3d
00000150: 8fde a03d 122f 8f3d fed2 aabd 8f74 cebd
00000160: ecdf d9bd 6419 953d 80bf b13d de6b a13d
00000170: 7dc4 a7bd 679a c6bd ea1e febd 4198 ca3d
00000180: 2c88 c53d 28e3 bf3d 2d44 bbbd 1380 c2bd
00000190: b82f bfbd ddf2 c93d 4e1e d3bd 78c0 c8bd
000001a0: 58fc ba3d ab60 98bd 998d 3dbd 0c2a 503d
000001b0: 1a0c b6bd fd78 c0bd b063 c93d 6b6a ccbd
000001c0: 6502 d8bd ec4d bd3d 437d a53d 6dcb d63d
000001d0: eea9 b4bd 172b cfbd 232f e2bd 7305 e13d
000001e0: c8fd d43d f65d ee3d 1bc8 f1bd acb4 c7bd
000001f0: df57 f6bd ccef ed3d 3b82 d33d 9856 e83d
00000200: 9699 cabd 6ee3 bdbd bb86 ccbd 2f65 ee3d
00000210: b12e 84bd da0a a1bd 59eb 633d 9fc2 b73d
00000220: a941 f93d 80b5 d4bd 60cf df3d fb53 0c3e
00000230: 3329 babd 8b1d da3d 4357 f53d 36c9 bebd
00000240: ad84 babd 7da3 c9bd 2159 af3d 5bdd e43d
00000250: fc13 de3d ada1 ebbd 666f a03d 4b78 9f3d
00000260: d7e1 8dbd fed1 df3d d279 d13d cf9a aebd
00000270: 4a88 993d 7981 9a3d f25d 8dbd 2764 c33c
00000280: 5a1f 62bc a7f7 a9bc 8b31 bbbd 44a3 cdbd
00000290: 8b48 e93d afbd bcbd e794 dcbd 4559 be3d
000002a0: a899 e73c 2c11 c53c 0443 60bc c4ad a0bd
000002b0: a53a 96bd 0764 813d dff1 863d 52ab 863d
000002c0: 1b2c 9fbd 0856 bfbd af8d d8bd 02a6 c93d
000002d0: 20e3 953d 5978 ae3d 6b29 abbd fd21 9d3d
000002e0: 3d35 c43d f294 b2bd b9cb 9b3d 75a0 943d
000002f0: 53be a4bd bf9c 833d e68f 9e3d 6c53 90bd
00000300: 29e6 9b3d 94cf b33d b941 92bd ac99 dbbd
00000310: 94b7 c0bd 2387 e23d 3892 ae3d f800 cb3d
00000320: 01a5 adbd c6de d3bd 3efb a8bd 7f82 a33d
00000330: 47b9 8ebd f446 80bd 4b66 4d3d cc46 9c3d
00000340: 6ff3 b43d 55f5 b1bd 422a e63d f80c e43d
00000350: d95e bcbd fa65 c8bd 0843 dbbd 1d6a b03d
00000360: a6e3 a73d feae e33d f887 adbd 1a40 bd3d
00000370: f5ff c03d b47c bdbd c13f 1ebd 14ac 5abd
00000380: f908 dd3c 4179 9a3d 87db d43d 9fa3 d1bd
00000390: 0422 a83d ed1e cc3d 544b c0bd 8adc 073e
000003a0: e438 e43d b90e c0bd cd46 b0bd aa2b c6bd
000003b0: d0c2 953d ae67 df3d 4921 e43d 545d cdbd
0.054800685 0.070145965 -0.06852099 -0.06629685 -0.06893494 0.06258719 0.102867246 0.09536936
-0.09947626 0.07801799 0.07083902 -0.069217786 0.065325454 0.11066772 -0.07733647 -0.081785664
-0.09109091 0.084532276 0.09697882 0.0934083 -0.09177376 0.1339406 0.12718748 -0.12377534
-0.093050964 -0.10073957 0.08939196 0.10374122 0.117317066 -0.089726865 0.075052276 0.079739444
-0.09190061 0.09060431 0.10217746 -0.10345203 -0.075312085 -0.09475688 0.075478174 0.08876564
0.07295587 -0.08468007 0.09478148 0.081707165 -0.086360596 0.058949146 0.07633201 -0.08171257
-0.08398747 -0.087568134 0.07641387 -0.11536594 -0.12539557 0.095260225 0.14940111 0.13787395
-0.12971413 -0.09036972 -0.091003105 0.08243164 -0.09290134 -0.099923454 0.09872854 -0.07287066
-0.06275042 0.062411755 0.09767843 0.11315801 -0.11261788 0.11941127 0.11821368 -0.11631029
0.09405722 0.10980032 -0.09302268 -0.017838322 -0.017946687 0.02739414 0.11994895 0.11356689
-0.09884074 -0.08018731 -0.10200264 0.10802576 0.0785495 0.069914 -0.08341025 -0.100808255
-0.10638413 0.072802335 0.08679104 0.07881902 -0.08191774 -0.09697419 -0.1240824 0.098923214
0.09645113 0.093694985 -0.09143863 -0.094970845 -0.093352735 0.098607756 -0.103085145 -0.098023355
0.09130162 -0.07440313 -0.046277616 0.05082135 -0.08889027 -0.09398077 0.09833467 -0.09981235
-0.10547332 0.09243378 0.080805324 0.10488019 -0.08821474 -0.101156406 -0.11044147 0.109873675
0.103999674 0.116390154 -0.11805745 -0.09751257 -0.12028479 0.11618003 0.10327574 0.113446414
-0.098925754 -0.092718944 -0.09986635 0.11640393 -0.06454218 -0.07863398 0.055644367 0.08972668
0.12170727 -0.10386181 0.109282255 0.13703911 -0.090898894 0.10650166 0.119795345 -0.09315722
-0.09107337 -0.09845636 0.08561922 0.11175033 0.108436555 -0.115054466 0.078337476 0.07786616
-0.06927841 0.10928725 0.102283135 -0.08525621 0.07496698 0.07544226 -0.06902684 0.023851467
-0.01380142 -0.020747973 -0.09140309 -0.10040906 0.113907896 -0.09215867 -0.10770588 0.092943706
0.028271511 0.02405604 -0.013687853 -0.07845643 -0.07335404 0.06317907 0.06589102 0.065756455
-0.07772084 -0.09342581 -0.10573899 0.098461166 0.07318711 0.08519048 -0.08357509 0.076724984
0.09580467 -0.08719815 0.076072164 0.07257167 -0.08044114 0.06426381 0.0774229 -0.070471615
0.07612259 0.08779827 -0.07141442 -0.1072267 -0.09410015 0.110609315 0.08523983 0.09912294
-0.084787376 -0.10345225 -0.08251046 0.079838745 -0.069689326 -0.06263533 0.050146382 0.07630691
0.08835494 -0.086893715 0.11238529 0.11135286 -0.09197778 -0.097850755 -0.107061446 0.086139895
0.08197717 0.111173615 -0.084731996 0.09240742 0.0942382 -0.09252301 -0.03863502 -0.053386763
0.026981818 0.075426586 0.10393434 -0.10236286 0.08209613 0.09966836 -0.09389368 0.13267723
0.111436635 -0.09377808 -0.08607254 -0.09676297 0.07312548 0.10908447 0.11139161 -0.100275666

bias f4 [80]
00000000: 72c9 6c3d a133 fd3d 802d a63d 8356 2a3e
00000010: 332f 4d3e afc2 c0be 5bae 893e ee76 b13e
00000020: e8e9 debe 59f7 46bd 851f 523e 54e9 c83e
00000030: c114 dabd 2697 7fbd 116a a2bd 4cf9 143e
00000040: 4cbc 98be 8b3f f6be 5475 073f 1f8e cbbe
00000050: eb4b b4be be64 083e d941 ae3e c419 e13e
00000060: 372a a03e 3bd0 ab3e 681a d83e f379 e6bc
00000070: 09d6 603e 5518 f0be 8ac6 6a3e d3f7 4fbe
00000080: 8515 af3e 77cc 55be 3396 b8be e5e8 c8bd
00000090: c440 d2be 092c f4be d799 68bd 3544 3ebe
000000a0: f21a b83e 5694 0cbf 4b44 f63e 0120 ecbe
000000b0: 3b29 7fbd 3d7b eb3e f4be 25be d1a0 fe3e
000000c0: c998 a4be f84a fc3e 9ca5 053e cb2a e43e
000000d0: 82b7 573c 3f89 a13e d217 0cbe 94ad 093d
000000e0: 7368 78be befa 1fbe e4c8 aebe a4a4 b8be
000000f0: 7d19 9c3e 35c0 8f3e 8b78 2e3e 47f6 83be
00000100: 2a33 6c3e 9836 f4bc 43de 863e 9279 aabe
00000110: 8d65 1f3d 9159 a33e 821b f3bd a62f 05bf
00000120: cf20 05be a762 eb3d b0a0 a33e 64f8 8ebd
00000130: c561 8b3e e4b9 003f 6a04 dfbe d749 1e3e
0.0578093 0.12363363 0.08114147 0.16634564 0.20037536 -0.37648532 0.26890835 0.3466105
-0.4353783 -0.048575733 0.20519836 0.39240515 -0.1064849 -0.062400006 -0.07930387 0.14548224
-0.2983116 -0.48095354 0.52913404 -0.39756867 -0.3521417 0.1331968 0.34034613 0.4396497
0.31282207 0.33557305 0.42207646 -0.028134322 0.21956648 -0.46893564 0.22927299 -0.20309381
0.34196106 -0.20878778 -0.36052093 -0.09810046 -0.41065037 -0.47689846 -0.056787338 -0.18580706
0.35958058 -0.5491384 0.48098978 -0.46118167 -0.06229518 0.4599246 -0.16186124 0.49732068
-0.32147816 0.49275947 0.13051456 0.44563898 0.01316631 0.31550023 -0.13680962 0.033612803
-0.24258594 -0.15622994 -0.34137642 -0.3606311 0.30488196 0.2807633 0.17038171 -0.25773832
0.23066393 -0.029811189 0.26341447 -0.33295876 0.038915206 0.3190427 -0.11870481 -0.5202583
-0.13000797 0.11493426 0.31958532 -0.069809705 0.2722303 0.50283647 -0.43558055 0.15457855

weight f4 [80, 80, 2]
00000000: 13eb 533c ce27 c5bc b83b 053d afa1 c73c
00000010: 0072 12bd b792 81bd 87ed 0ebd ace6 72bd
00000020: 2011 7dbc b5b9 53bc 53c5 803c a1c8 223d
00000030: b5bd f0bc a886 2dbc f3c3 94bc 7b79 54bc
00000040: 3ec4 963c 4540 e03c c118 debc 4c46 16bd
00000050: 362b f6bc 2d6d 6cbd 9c60 88bc 28c3 15bc
00000060: 7748 963d 9767 d93d 6617 03bd 24b5 f4bc
00000070: 0af8 27bd 34f7 41bd b7c6 21bd 30e0 95bd
00000080: c5a6 e93b 0f58 f93c 28e2 83bc 8bd0 7a3a
00000090: 2d66 5ebb 3e3b 43bc de81 cb3c 356c 6a3c
000000a0: 4190 433b a254 ba3c 3f25 a43c 8f20 ae3c
000000b0: d4f2 b0bc 1f7e ddbc 2baf 6dbc 4c8a 1bbd
000000c0: 2390 41bc 9d55 debc fda2 ea3a 6f43 16bc
000000d0: 9353 73bc 17bb c2bc 49e7 823d 54d1 573d
000000e0: 28fe 6dbc 4344 22bc 52e2 063d f0dd 303d
000000f0: 6936 b2bc 61e5 dabc ebc8 e03d 700e c23d
00000100: 1289 42bc 8c8e 30bc 7dae a63d f4cb e13d
00000110: 9723 9e3c 6a71 283d b150 833d 1793 a83d
00000120: 9a25 d43b 5939 df3c d32b 353c 789f 103c
00000130: 4fe8 83bd 9ada 8bbd be8e 8b3d 96c9 603d
00000140: 958f b5bc a242 10bd 608b 943c f623 c93c
00000150: 70bb 93bc d152 a3bb 0c4a 3e3c 8157 493c
00000160: 8db9 1e3d 80c9 403d 2820 d0ba 5462 87bc
00000170: be3d bbbc 1536 a3bc 3889 553c 9e89 02bd
00000180: f854 4b3c 51ea dd3c 8a75 2ebc c9b4 a0bc
00000190: ce84 89bb c0c1 efbb 529c 6cbb c836 9bbc
000001a0: e7c2 92bd a15c 55bd 7478 e03c 3543 3b3b
000001b0: 57b8 a73d 8867 bb3d e1a2 533d 719c 033d
000001c0: 9fa7 a7b9 f3fa 853b 5c78 2f3d 76e2 093d
000001d0: 9f92 4dbc 896a b0bc 09cc b23b 4617 e73c
000001e0: 09fd 5fba e25b aabc 4fb7 a2bc 1bec b3bc
000001f0: 4c38 11bd 8e4b 21bd 3b45 41bc ab1b 44bc
00000200: 3b4b efbc 5f7c 1bbd 64da 123d 767b 353d
00000210: 4e18 82bc f7de 0dbd 0234 ad3c 8396 be3c
00000220: 0959 cd3c 8266 873b 73f0 4bbc d22b b1ba
00000230: 247d 1dbd 9103 74bc 6876 2c3c dce0 013d
00000240: e07c fcbc 31dc e3bc f718 38bd ddfd 81bd
00000250: 9603 12bb fb4e f7bb 39e8 3cbd 18b6 22bd
00000260: 4ea8 58bc 69ce dfbc 0bc2 7ebb d8e9 d3bc
00000270: 736b 7d3b 180a c93c d76d 9dbd 1ed1 71bd
00000280: c99f 83bb 6f00 253c 5de1 b13c b620 843c
00000290: b1c8 b4bd f056 8dbd 7add 4fbd 19d9 afbc
000002a0: ce04 a9bc d570 babb 5fb3 7e3c 19b0 d83c
000002b0: 0759 5cbc 9b69 7ebc 25c9 a2bc fec8 a4bc
000002c0: c185 d63b 5c85 af3c 6fd1 1bbd 7bb3 2fbd
000002d0: 1abf 3fbd 2405 e1bc 73e4 0c3c 3172 3dbc
000002e0: f907 b03d f306 b63d b8a6 53bd 2145 5dbd
000002f0: 38d5 a2bd 2747 59bd ed50 5bbd e651 adbc
00000300: dea8 133d ccbd 863c d426 0f3c 710a bc3b
00000310: 7b10 f4bb 24b0 313c ed42 a03c 012c a53c
00000320: 10d5 e43c 13e9 8b3c fc7c f03c ffdd f43c
00000330: 8cad a9ba 7a67 d3bc d8b9 1d3a e764 a1bb
00000340: 04bf d6bc 3ac3 a6bc 0278 d73c bbdd 813c
00000350: 0b03 5fbb 0e52 fdbc 04d0 803d c3a2 b83d
00000360: a34c a0bc 048a 8abc 4349 d83c b648 7e3c
00000370: bd77 1fbd 199e 11bd d19b b73d e4e9 d03d
00000380: d4e0 4bbc 5753 0bbc 3518 e53d a3ac dd3d
00000390: 0934 003d 0b69 863c 2180 9e3d 3208 583d
000003a0: c577 b53b c97e 953b 3ee8 663c c79e 6e3c
000003b0: a733 a0bd 39b6 97bd d889 693d 04ae 923d
000003c0: 12a6 f53b bba1 21bc b437 eb3b 6b57 5c3b
000003d0: 8648 7238 375f c83b b9f0 cd3c a592 923a
000003e0: d056 a63d 6938 a63d 915d 8ebc eee6 b0bc
000003f0: bb03 19bd 0514 fcbc 2f64 ecbc 8cf5 9bbc
0.012934464 -0.024066832 0.032527655 0.024369089 -0.03575325 -0.06326812 -0.034894492 -0.059302017
-0.015445977 -0.012922694 0.015719092 0.039742116 -0.029387334 -0.010591187 -0.018159842 -0.012968416
0.018404122 0.027374396 -0.027111413 -0.036688134 -0.030049901 -0.057721306 -0.01664763 -0.009140767
0.0733804 0.10615461 -0.032004736 -0.02987153 -0.041008033 -0.047354892 -0.03949615 -0.07318151
0.007130476 0.030437497 -0.01609905 0.00095678185 -0.0033935413 -0.01191598 0.024842199 0.014308025
0.002984062 0.022745434 0.020037292 0.02125576 -0.021600164 -0.027037678 -0.014507095 -0.037973687
-0.01181415 -0.027140433 0.0017901357 -0.009171351 -0.014851469 -0.023770852 0.063917704 0.052689865
-0.014525928 -0.00990397 0.03293068 0.043180406 -0.02175446 -0.026720705 0.10975822 0.0947541
-0.0118735 -0.010776173 0.0813875 0.11025229 0.01930408 0.041123785 0.06411875 0.0823118
0.006474209 0.027249025 0.011057812 0.008827083 -0.06440794 -0.06828804 0.06814335 0.054879747
-0.022163192 -0.035219796 0.018132865 0.02455328 -0.018033713 -0.0049842377 0.011614334 0.012288929
0.038751174 0.047067165 -0.0015878724 -0.016526379 -0.02285659 -0.01992325 0.013033204 -0.031869523
0.012410395 0.02708927 -0.010648141 -0.019617455 -0.0041967398 -0.007316798 -0.0036103916 -0.01894702
-0.07166081 -0.05209029 0.027401187 0.0028573994 0.08189457 0.091506064 0.051669005 0.032131616
-0.0003197761 0.0040887534 0.042839393 0.033663236 -0.012547164 -0.021535175 0.005456452 0.02820934
-0.000854448 -0.020795766 -0.019862799 -0.02196317 -0.03545408 -0.039378695 -0.011796291 -0.011969487
-0.029210677 -0.037960406 0.035852805 0.044307195 -0.01588073 -0.034636464 0.021142963 0.023265129
0.02506687 0.004132093 -0.012447464 -0.0013517088 -0.03844942 -0.014893428 0.010526277 0.031708583
-0.030821264 -0.027814956 -0.044945683 -0.06347249 -0.002227997 -0.007547257 -0.046119902 -0.03972444
-0.013223721 -0.027320104 -0.0038872983 -0.025868341 0.003866878 0.024540946 -0.07686966 -0.05903732
-0.0040168506 0.010070904 0.021713907 0.016128879 -0.08827341 -0.06901348 -0.050748326 -0.021465825
-0.020632174 -0.00568972 0.015545695 0.026451157 -0.01344896 -0.015528108 -0.019871304 -0.020115372
0.0065467064 0.021425895 -0.03804153 -0.042895775 -0.046813108 -0.027468272 0.008599388 -0.01156287
0.08595271 0.08888044 -0.051672667 -0.054021005 -0.079508245 -0.05304637 -0.053543974 -0.021157216
0.036049716 0.016447924 0.008737285 0.0057385494 -0.0074482537 0.010845218 0.019563163 0.020162584
0.027933627 0.017078912 0.029356472 0.029891012 -0.0012945398 -0.025806177 0.00060167676 -0.0049253586
-0.02621413 -0.020356763 0.026302341 0.0158528 -0.0034028913 -0.030922916 0.06289676 0.09015419
-0.019567793 -0.016911514 0.026402121 0.015520265 -0.03893255 -0.035551164 0.089652665 0.10200861
-0.01244374 -0.0085037565 0.11186258 0.108239435 0.031299625 0.01640751 0.077392824 0.05274219
0.0055379593 0.004562233 0.014093457 0.014564223 -0.07822352 -0.07407803 0.057016224 0.07162097
0.0074966038 -0.00986522 0.007178271 0.003362144 5.776484e-05 0.006114866 0.0251392 0.001118262
0.08122027 0.08116228 -0.0173786 -0.02159449 -0.037357073 -0.030771265 -0.028856365 -0.019037984

bias f4 [80]
00000000: cb9f f5bc 9844 82bd 83ac 21bd 7d96 843d
00000010: d04a 113d 1942 913c f44b f23b 57b3 2ebc
00000020: 6d69 83bc 24c0 273d c195 50bd 0fc6 7d3d
00000030: 5360 823d e629 bcbd b568 fb3c 9cba 88bd
00000040: 6fd7 073d aa37 573d b5cf 07bd 7d93 19bd
00000050: 28e0 9bbc 7da2 0fbd a65e 7b3d 9ba0 eeb8
00000060: 8914 363c 10d9 b5bc 8988 623d 69f0 0e3c
00000070: 6d85 073d e8f2 79bd bbe4 6bbd 4e7c b23c
00000080: f468 3fbd b534 413c 22cd c1bd 4b0b 2c3d
00000090: 7916 7c3d 00f6 6b3d defe 9fbc 8c40 343c
000000a0: 8b45 80bd d496 89bb acb0 60bd f287 16bc
000000b0: 0431 bc3c 47ec 473d f8d5 31bd 6d21 0a3d
000000c0: 1783 bd3b 83b2 70bd 21dd 333d 1a46 b0bd
000000d0: 47c7 da3b 7d70 22bd 2fd4 95bd cddd 20bd
000000e0: 1c14 213d 9b98 9dbc 1054 4fbd 36f1 5a3d
000000f0: ffdc 8ebd 3b5b abbc 0013 3b3c b660 b0bc
00000100: 4b8e c63c 01c6 a7bd 3887 95bd 949f 243c
00000110: 40b7 8abc 0775 4fbd 7dc7 623d bd2a aebd
00000120: dd8c 06bd 4bff 773c 677b b6bd 8d93 143d
00000130: c9b7 72bd f5c1 d7bb 900a e3bc 45e1 cabc
-0.029983422 -0.063607395 -0.03947116 0.06474016 0.035471737 0.017731713 0.007394308 -0.010662875
-0.016041482 0.040954724 -0.050924066 0.06195646 0.06366029 -0.09187679 0.030689577 -0.06676218
0.033164438 0.05254332 -0.03315707 -0.03749417 -0.019027784 -0.03506707 0.06136956 -0.000113786395
0.011113294 -0.02219823 0.05530599 0.00872431 0.03308623 -0.06102267 -0.05759118 0.021787789
-0.04673095 0.0117923515 -0.09462954 0.042002957 0.06154487 0.05760765 -0.01953071 0.011001717
-0.06263264 -0.0041988883 -0.054855987 -0.009187685 0.022972591 0.048809316 -0.043416947 0.033723284
0.0057834494 -0.058763992 0.043912057 -0.08607121 0.0066765877 -0.03965806 -0.073158614 -0.039274026
0.03932582 -0.019237807 -0.050617278 0.053452693 -0.069757454 -0.020917526 0.011418104 -0.02153049
0.024237772 -0.08192063 -0.073011816 0.010047812 -0.016933084 -0.050648715 0.055366028 -0.085042454
-0.03284918 0.01513655 -0.08910256 0.036273528 -0.059257302 -0.006584401 -0.027714998 -0.02476562

weight f4 [80, 80, 2]
00000000: b0ab 0dbc 927c bb3c 5afa 4cbc a700 23bd
00000010: 0457 cdbb 1ce1 b4bc cded e5bc e427 98bc
00000020: e26f 41bd 526b b3bc bc1c 44bc 50db 9ebc
00000030: 2ea0 54bd 6b64 d13b e9df 693b 0c05 06bc
00000040: 5ca4 7dbd 533a 11bd 8c08 e0bc 8af7 f7bc
00000050: 7ed0 1e3d c148 553c 3d7f 6ebd a239 0cbd
00000060: 9297 86bd 7f42 ecbc 902e 2ebd 9493 45bc
00000070: 3a82 883b 99ee aabc c47b 4fbd 51d4 68bc
00000080: 407d 71bc 2897 fdbc 7e2b 58bd 7370 0dbd
00000090: 2454 91bb 8685 10bd 7ab0 dabb 74cd 2bbc
000000a0: bb52 58bd 5ed1 c5bc ebec 52bd f5aa fbbc
000000b0: 856b f3ba 3392 c0bc 2bac daba 7888 3dbc
000000c0: b9a5 9bbc 03c3 42bc 1517 89bd 94f7 b7bc
000000d0: 602a 933b 496f e8bc dc06 44bd 62c6 2bbd
000000e0: bb3d 2bbd 3f1c 0fbd 5538 ea3b 0752 d5bc
000000f0: d3a8 b93b a9e2 13bc 83a1 a93b 51f2 77bc
00000100: f6a6 8ebc 6d5e 5bba f6c4 44bb 6c41 5fbc
00000110: 8dac 68ba 4c64 aa3b c395 efbc f9ed 69bc
00000120: c49f aebb 7bee 97bc 847f 95bc 7344 93bb
00000130: 75fd 4cbc 3219 b6bc fcf7 a3bd 3c20 dbbc
00000140: ba84 99bc 167f 07bd 28e5 c837 41d5 2f3c
00000150: 3685 9339 c87e acbc fabc f4bc c3f0 9bbb
00000160: 103b 55bc 5d4e 0abd e316 b8bd 22e0 0dbb
00000170: 0636 8dbd 9814 e3bc 5575 c4bc 5cd1 f4bc
00000180: b6d4 12bd 7d8b a1bc 2bfd 283a cdc6 a03c
00000190: 5350 82bd 7be8 c2bc 9559 423b aefb 043c
000001a0: 51ba 1dbd 16ba 7bbc 8de6 2ebc 317c eebb
000001b0: c8fb 43bd 3093 9ebc 3bdb 973c 411f c1bc
000001c0: 4926 99bd 2500 1bbd 62df 48bd 0615 02bc
000001d0: 5444 79bd 1b2b 48bd e31d c23b 131e 9dbc
000001e0: 629e 89bd 348e 9cbc c42c 33bd f615 cbbc
000001f0: 8e05 4ebd a69f 08bd af88 a6bc fd97 eeb9
00000200: c690 59ba 436c ddbc 441b 2d38 2725 9abb
00000210: 5028 ee3c a27b 1e3d 9f56 32bd caa1 69bc
00000220: 3dea babb 6c92 66bc 49bf 5c3d 2a5d 353d
00000230: c790 89bd 90c6 12bd 7715 6b3c 203b 12ba
00000240: 6de5 77bb a43a aabc 1746 36bd 18d9 2ebd
00000250: 987a 61bd ee8d 97bc 23a0 66bd eecf 37bd
00000260: 9c60 a0bd e8e7 21bd 785f 3cbd 5ddf acbc
00000270: 7026 533d 653f f63c f050 57bd ec4a e2bc
00000280: f2f3 283d 42cf ca3c df7a 14ba 5566 f43c
00000290: 0896 0d3c 1807 5a3c 613b bdbc 444e 2abd
000002a0: 6bc5 28bc e88a 1abd f414 243d f797 193d
000002b0: 411e 823b 92b5 fcbc ac83 973c 4ef6 d33c
000002c0: a90c 0ebd e12c 87bd 5a6b edbb 9906 ee3a
000002d0: f8c9 17bc ceed 2f3d 6e4a bebb c961 6ebd
000002e0: 19f3 2dbd b849 07bd 4a38 92bc 913a afbc
000002f0: a063 193c c657 fb3c 065a 2fbd f147 18bd
00000300: 5ff6 5e3c 5ea3 3a3d 4ff1 93bc 83eb 1bbd
00000310: 0650 8d3c 65f2 3c3d 9b61 483c cafa 163d
00000320: 27cb c4bc 7961 34bd d50d ed3b a13c 4cbd
00000330: 2a46 103d ed62 f13c ffe3 c83a 173a 33bc
00000340: b43d b6bc 8486 d4bc a579 22bc 6377 49bd
00000350: 3661 4d3c d3fc 6f3c a849 10bc 836c 5fbd
00000360: 0a12 98bc 9ff8 67bd dc55 2dbc eabc ac3b
00000370: 7b2c d73b a0f7 a13c 726f e83c af66 243d
00000380: 2909 8a3c 43ae a23c 13db d83c 3fc3 2f3d
00000390: 9f1b f9bc 165b d9bc ae63 d7bc 7145 05bd
000003a0: 2e04 1a3c 4f7c bb3c 7fa9 233c 9e3e 5f3b
000003b0: 7541 a13c d8d4 0a3d d48b af3b 8ea2 5abd
000003c0: 58b8 0dbd 3d50 e5bc 883d 1cbd e67f 03bd
000003d0: 8cbd ec3c cd9b 253d 3a71 63bc 96dd 90bc
000003e0: 82e6 0a3d 15d7 813c 5e73 1a3c 5b66 3ebd
000003f0: 5178 e43a 23ed e7bc 0b2c 143d 11c2 173c
-0.0086468905 0.022886548 -0.01251086 -0.039795544 -0.0062664766 -0.022079997 -0.028067494 -0.018573709
-0.04722584 -0.02190176 -0.011969741 -0.019391686 -0.05191057 0.0063901446 0.003568644 -0.008179914
-0.061924323 -0.035456013 -0.027347825 -0.030269403 0.038773052 0.013017834 -0.058226813 -0.03423465
-0.065718785 -0.028840302 -0.042524874 -0.012059111 0.004165915 -0.020865725 -0.05065514 -0.014210776
-0.014739335 -0.030955866 -0.052775852 -0.034531068 -0.004435079 -0.035283588 -0.0066738697 -0.010485996
-0.052813273 -0.024147686 -0.051495474 -0.030721167 -0.0018571472 -0.023507213 -0.001668339 -0.011568181
-0.018999921 -0.011887315 -0.06693856 -0.022456922 0.0044911355 -0.028373377 -0.047858104 -0.04193724
-0.041806918 -0.034939047 0.0071478286 -0.02604009 0.0056658774 -0.009026208 0.0051767244 -0.015133456
-0.017413598 -0.00083682575 -0.0030024624 -0.013626438 -0.000887581 0.0051999446 -0.029246217 -0.0142779285
-0.005329104 -0.018546334 -0.01824928 -0.0044942438 -0.012511601 -0.022228811 -0.08006284 -0.026748769
-0.018740047 -0.033080183 2.3948567e-05 0.010731996 0.00028137275 -0.021056548 -0.029875267 -0.0047589256
-0.01301457 -0.03376614 -0.0898874 -0.0021648486 -0.0689507 -0.02771978 -0.02398173 -0.029884987
-0.03584739 -0.019719834 0.00064464164 0.019626046 -0.06362977 -0.023792496 0.0029655446 0.008116646
-0.038507763 -0.015364191 -0.010675085 -0.0072779884 -0.04784754 -0.019357294 0.018537154 -0.023574473
-0.074780054 -0.037841935 -0.04904116 -0.007939583 -0.06085618 -0.048869234 0.005923973 -0.01917938
-0.06719662 -0.019110776 -0.043743864 -0.024790745 -0.050298266 -0.033355378 -0.020328848 -0.00045508138
-0.0008299466 -0.027029162 4.1271807e-05 -0.004704136 0.029071957 0.038692124 -0.04353964 -0.014259765
-0.005704193 -0.014072996 0.05389336 0.0442783 -0.06717067 -0.035833895 0.014348379 -0.00055782683
-0.0037825957 -0.020779915 -0.044500437 -0.042687505 -0.055048555 -0.018500295 -0.056305062 -0.04487603
-0.07830927 -0.039527804 -0.045989484 -0.021102602 0.05155033 0.030059526 -0.052567422 -0.027623616
0.04124827 0.024757031 -0.0005664061 0.029833952 0.008641727 0.013307355 -0.023099603 -0.041578546
-0.010300974 -0.037730128 0.040059045 0.03749844 0.0039708917 -0.030848298 0.018495403 0.025874283
-0.034680042 -0.06600357 -0.0072454633 0.0018159925 -0.009264462 0.042951398 -0.0058072126 -0.058198724
-0.042468164 -0.033029288 -0.017849106 -0.021390231 0.009362131 0.030681502 -0.042810462 -0.037177984
0.013608544 0.045565955 -0.0180594 -0.0380664 0.017250072 0.046129603 0.012230302 0.036860265
-0.024022652 -0.04403827 0.007234315 -0.049862508 0.035223164 0.029466117 0.0015326737 -0.010939143
-0.02224622 -0.025943048 -0.009916698 -0.04918612 0.012535384 0.01464768 -0.0088066235 -0.054546844
-0.01856329 -0.056633588 -0.0105795525 0.0052715437 0.006566582 0.019771397 0.028373454 0.04013699
0.016850071 0.019858485 0.02647165 0.04291081 -0.030408679 -0.026532691 -0.026292648 -0.032536928
0.009400411 0.022886423 0.0099891415 0.0034064422 0.019684533 0.03389439 0.005357245 -0.05337768
-0.034599632 -0.027992362 -0.03814462 -0.032104395 0.028898977 0.040431786 -0.013881976 -0.017683785
0.033911236 0.01584963 0.00942692 -0.046484333 0.0017430877 -0.028311318 0.036174815 0.009262578

bias f4 [80]
00000000: 5255 42bd d7e5 243a cec8 8e3d 68ca 3dbd
00000010: fb1c e83b 068f d63c 17b3 99bd 1768 453a
00000020: 0811 2c3d f7f8 ab3c 4006 813d 70bd 9ebd
00000030: 310e a2bc 3d7e 2a3d cb7e 90bd 6158 2d3d
00000040: b8b5 223d 4565 80bd 7b24 5a3c 0cbd 88bd
00000050: 0f43 e2bc 11d5 d63c c29c 4b3c 933e febc
00000060: 60c1 2b3d af06 7dbc 0c9f 4dbd bd6e f6bb
00000070: 3f2a 353d 0645 413d c391 45bd c2a2 6bbd
00000080: a59d f6bc 7bf2 3ebd 3fa0 7e3d 1464 333d
00000090: ae97 d9bc f942 f93c 4f08 1fbd 81c3 393d
000000a0: b1c0 353d e000 733c 7cfd 42bd 63b6 873d
000000b0: 5de3 8a3c 6461 b43c 2996 d73c ed54 e3bc
000000c0: 69c4 8dbc 0ce0 8bbd 2791 593d 0f62 5a3d
000000d0: d890 593d c5a1 cabb 8f04 15bd 42cf 57bd
000000e0: b8e9 c1bc 6ef1 b6bc a117 89bd bc3d 14bd
000000f0: be3d a73a aac4 1bbc 7408 75bd 264f fd3c
00000100: 8897 adbb 04eb f43c 0f7a 5a3c b1e7 93bd
00000110: f241 8dbb 4227 5bbd 1fa7 8b3d 70d6 29bd
00000120: 9343 88bd 9a54 60bb a1c5 01bd d3ac 3d3d
00000130: 37ea 0f3d ac67 8ebd c278 913d d7f3 99bd
-0.04744465 0.00062903523 0.06971894 -0.046335608 0.007083533 0.026191246 -0.07504862 0.0007530464
0.04200843 0.02099274 0.0630002 -0.07750976 -0.019782158 0.041624296 -0.07055434 0.042320613
0.03972408 -0.06269316 0.013314362 -0.06676683 -0.027619867 0.026224645 0.012427511 -0.031035697
0.041932464 -0.015443488 -0.050200507 -0.0075205253 0.044229742 0.047184967 -0.048234712 -0.057528265
-0.030104468 -0.046617966 0.06216454 0.043796614 -0.026561584 0.030427443 -0.038826283 0.045352463
0.044373218 0.014831752 -0.047605023 0.066265844 0.016954118 0.022019096 0.02631672 -0.027750457
-0.01730557 -0.06829843 0.053116944 0.053316172 0.05311665 -0.006183835 -0.0363813 -0.05268789
-0.023671016 -0.02233192 -0.0669396 -0.036191687 0.001275949 -0.009507338 -0.059822515 0.03092153
-0.005297605 0.02989722 0.013334765 -0.07221926 -0.00431084 -0.053504236 0.06818985 -0.04146427
-0.06653514 -0.0034230114 -0.031682614 0.046307396 0.035135474 -0.069533676 0.07103111 -0.07517212

weight f4 [80, 80, 2]
00000000: 04a3 f63c e31d 1fbd 22cb 2dbc 789b 17bc
00000010: ca4c 7e3c 8bee ccbc 0e46 043c 703a 0ebb
00000020: c7f7 89bc ded1 07bb 269b d13c d20d 913c
00000030: 1617 98bc 2ff4 65bc 2d57 49bc bbd4 243b
00000040: 20aa 7839 3159 d33c dfeb 0d3d d876 e2bc
00000050: 1b2f aebc 5bbf 98bb 4406 bdbc 2506 5fbc
00000060: fe4f 0ebc 1a25 ebbc 83be f13c 37d3 0abd
00000070: 9b02 e33c b8d5 edbc 880e dbbb 486d 9aba
00000080: d066 203c 30e9 823a 07c1 a5bb 4e84 c4bc
00000090: a81a 35bc 2aaa c8bc 67f2 1e3d 971e 1b3b
000000a0: 136b c13b 9498 6d3c 4926 d2bc 11b1 213c
000000b0: 59eb c2bc 7911 94bc e7a1 14bb aa21 27bc
000000c0: 37eb b2bc 0f36 9b3c 46bf e8bc fe8e 3cbc
000000d0: 3a6a 2dbc 608e a0bc 4959 10bd 7a62 6d3c
000000e0: 3498 8ebc 59db 32bc ffb4 f83b 7374 4b3c
000000f0: db07 ff3b cec8 b6bb 4d43 3fbc e0ec debb
00000100: 866b d83a ebcf b1bc 5c29 e1bc f8bc 40bc
00000110: e53a d0bb 4e3b ecbb 2698 15bd 4470 bb3c
00000120: b482 dd3c bf92 e9bb fabf ca3c 4b70 283b
00000130: 8a3c fb3b 9a1a 80bc e659 5fbc 11d2 193c
00000140: 876c 2abb 79df a4bc 57c9 c3bb fb0e c03c
00000150: 46ce 4cbc 9e35 a2bc afe3 9e3b 47ba d03c
00000160: 0614 3ebd 765f bebc cca6 23bc 7e55 cdbb
00000170: 9b04 e93c 29ea d5bc 501b 4ebc 796a 62bc
00000180: 7793 b0bc 1c3f 9f3c 5e46 44bc 6a7b 67bc
00000190: e7b2 3e3b 3b8a 4d3a 2c4a d6bb b557 47bc
000001a0: 62fe 033d f09b 46bc ab81 5abc 5365 7e3c
000001b0: d0e7 4a3b 1763 bfbb 512f 66bd d9dc 81bc
000001c0: 9642 95bb 159f 14bc fdc6 85bb f33a 403c
000001d0: ebce 643d b5b3 0bbc f27e 283c d541 4b3b
000001e0: b1ea 5c3c e9b0 b3bb 0735 893b c638 9dbc
000001f0: 7ff3 a03b dfd2 80bc 6b62 1b3d 6fee f2bc
00000200: 86e6 7abb bec1 a3bc 4e23 08bd 495d 86bc
00000210: 6b67 463b 29f4 79bc 7b7a 82bc 2f50 7b3c
00000220: c1ac 85bc 5760 963b 70bd 45bb 9062 c83c
00000230: f7e8 a23c 8623 95bc 36bf a73c 7157 ad3b
00000240: fc50 933d 6aaa 603b f407 fa3c 99e0 aabc
00000250: f444 61bd 0dbb c43b c5bd 593d 91ba e5bc
00000260: 9524 dcbb 380e 73bb 9282 5abc db3e e83b
00000270: 558d 713c 69ae 563c 34d0 ee3c 8e5b f1bc
00000280: e88e 303c 34a0 ae3c 395a 06bd d412 e4bc
00000290: 0d5c 183b 5137 ac3c d8e1 5e3a 0802 763c
000002a0: b20c 57bb 73cf a13c 8f35 ae3a f242 593c
000002b0: 867c a6bc 87cc 8abc 9a20 b1bc 286a 473a
000002c0: 7fad a43c 996b d73b 2e33 a33b be3f d33c
000002d0: 5288 aabc e37e 7ebc b93a b3bc 206c 1dbc
000002e0: 8001 20bc 0cb5 7cbc febe 423c f7ce c13c
000002f0: be16 643a 9407 cd3c 7767 073c 30e3 993c
00000300: fd1b aeba dd0e 1fbb 274d 803b b218 2f3c
00000310: 41be 3cbb 4a13 c0bc f4da 673c 8fc3 ad3c
00000320: 2f95 a0bb bf80 b33b 8508 26bd 5600 fbbc
00000330: 17d5 23bc 4b83 26bc b913 84bc 7024 31bb
00000340: bd6d b3bc e900 03bd 5fe7 eabc a63c dbbc
00000350: ad2a 4ebc 27e2 3a3b 0e48 05bd f8f1 3dbd
00000360: 7fad 85bc 2bb6 b4ba 5800 69bc f5ff e43b
00000370: 7b41 c53a 2606 87bb 22c5 5cbc 8bbe 42bc
00000380: 8ac7 abbc 392c 6dbc 9746 24bc 7005 39bd
00000390: bed3 7cbc c4a0 6dbc 5804 f9bb 6d94 8abc
000003a0: d495 b33c 5da3 483c eb8f 303c 9914 b43b
000003b0: 60c0 743c 361b e93c 9b14 323b cead 55bd
000003c0: 69ee e1bc 939f cebc 3962 33bc 8ac8 063c
000003d0: 14c2 03bc 9053 80bc 730c 8c3c c654 b5bc
000003e0: 796e 93bc 77ed 22bd b41c 83bc 5248 64bc
000003f0: 034d 0f3d a094 353d dacc a3bc e34c 6bbc
0.030107029 -0.03884686 -0.010607513 -0.009253375 0.015521238 -0.02501609 0.008073343 -0.0021702312
-0.016841782 -0.0020724456 0.025586676 0.017706785 -0.018565696 -0.014035269 -0.012288851 0.0025151211
0.000237145 0.025799366 0.034648772 -0.02764456 -0.021262696 -0.004661483 -0.023074277 -0.013612305
-0.008686064 -0.028704215 0.029509788 -0.033892836 0.027711203 -0.029032573 -0.006685082 -0.0011781836
0.009790137 0.0009987708 -0.005058411 -0.023988869 -0.011053719 -0.024495203 0.03880539 0.0023669356
0.005902657 0.0145017095 -0.025653021 0.009868876 -0.023793863 -0.018074738 -0.002267951 -0.010200897
-0.021840675 0.018946676 -0.028411519 -0.011508701 -0.010584408 -0.01959914 -0.0352414 0.014488811
-0.01740656 -0.010916554 0.007589936 0.0124179 0.007782919 -0.005578137 -0.011673761 -0.00680314
0.0016511537 -0.021705588 -0.027485542 -0.011763804 -0.006354677 -0.007209218 -0.036522053 0.02288068
0.027039863 -0.007128089 0.024749745 0.0025701697 0.007667129 -0.015637685 -0.013632273 0.009388463
-0.0026004629 -0.020126091 -0.0059749293 0.023444643 -0.012500351 -0.019800957 0.0048489193 0.025479449
-0.046405815 -0.023238879 -0.009988498 -0.006266295 0.028444579 -0.026112633 -0.012579754 -0.01381933
-0.021554692 0.019439273 -0.0119796675 -0.014128545 0.0029098333 0.00078407273 -0.0065396037 -0.012166907
0.03222502 -0.012122139 -0.013336579 0.015527087 0.0030960925 -0.00584067 -0.05619747 -0.015852379
-0.004555057 -0.009071131 -0.004082559 0.011732805 0.055861395 -0.008526732 0.010284172 0.003101458
0.013483689 -0.005483736 0.0041872296 -0.01919211 0.0049118395 -0.015725551 0.037935656 -0.02965471
-0.0038284375 -0.019989844 -0.033236794 -0.016401904 0.0030274044 -0.015255966 -0.015927544 0.0153389415
-0.016317727 0.0045891213 -0.0030172728 0.02446106 0.019886477 -0.018205415 0.020476919 0.005289965
0.07193181 0.0034281262 0.03052137 -0.02085905 -0.0549974 0.0060037435 0.053159494 -0.028043063
-0.006718228 -0.0037087332 -0.013336794 0.007087571 0.014743169 0.013103106 0.029152013 -0.029462602
0.010776259 0.021316625 -0.032800887 -0.02784101 0.0023248226 0.02102247 0.0008502281 0.015015133
-0.0032813963 0.01975224 0.0013291108 0.01326059 -0.02032305 -0.01694323 -0.021621991 0.0007607066
0.02010226 0.006574106 0.0049804663 0.02578723 -0.020816956 -0.015533182 -0.021878587 -0.009608299
-0.009765983 -0.015424024 0.011886356 0.023658259 0.00087008986 0.025028028 0.008264414 0.01878509
-0.0013283488 -0.0024270334 0.0039154473 0.01068704 -0.0028799924 -0.023446698 0.014151324 0.021211414
-0.0049005966 0.005477994 -0.04053547 -0.030639809 -0.009999535 -0.010163139 -0.016122686 -0.0027029775
-0.021902913 -0.03198329 -0.02867478 -0.026762318 -0.012583417 0.0028516145 -0.03253942 -0.046373338
-0.016318081 -0.00137872 -0.014221273 0.0069885203 0.0015049422 -0.004120606 -0.0134747345 -0.011886249
-0.020969171 -0.0144758755 -0.010026596 -0.0451712 -0.015431343 -0.014503662 -0.007599395 -0.016916478
0.02192203 0.01224598 0.0107765 0.0054956195 0.014938444 0.028455358 0.0027172926 -0.052167706
-0.027579503 -0.025222575 -0.010948711 0.008226523 -0.008041877 -0.015664846 0.01709578 -0.02213515
-0.017997013 -0.039777245 -0.016004898 -0.013933258 0.034985553 0.044331193 -0.019995142 -0.014361593
