GAN/urban_demand_GAN_gen_250_epochs.pth (torch, 674454 bytes, 31 tensors)

weight f4 [1, 80, 1]
0	0xbc68a153	-0.014198619
1	0xbcfb510c	-0.030678295
2	0x3c8edec9	0.017440217
3	0x3cc7d8cc	0.024395369
4	0xbb29bbfd	-0.0025899403
5	0x3c574387	0.013138658
6	0xbb4e21bd	-0.0031453215
7	0xbb69a45c	-0.0035650944
8	0xbbfa88e1	-0.007645712
9	0x3c13bf89	0.0090178335
10	0x3cafef64	0.021476455
11	0x3c966ebf	0.018363355
12	0xbbd2198e	-0.0064117378
13	0x3c481a9c	0.012213375
14	0xbc4226dd	-0.011850086
15	0xbc2a62ad	-0.010399503
16	0xbc526ee8	-0.012843825
17	0x3c0bebb7	0.0085400855
18	0xbcaab874	-0.020839907
19	0x3ca873e9	0.020563083
20	0x3c06ebd0	0.008234933
21	0xbb04b42a	-0.0020248988
22	0x3c9a44db	0.018831661
23	0xbbc50175	-0.0060121366
24	0x3c436b0c	0.011927377
25	0x3bce258a	0.006291096
26	0xbc0bc381	-0.0085304985
27	0x3b8dc03a	0.0043258937
28	0xbc155f1a	-0.009116912
29	0xbb3d8a9a	-0.0028921724
30	0xbc7326a4	-0.014840756
31	0x3c707d21	0.014678271
32	0x3bdb3a42	0.0066902945
33	0x3cca37d2	0.02468482
34	0xbaedfe3f	-0.0018157436
35	0xbc82bdf3	-0.015959715
36	0x3c907243	0.01763261
37	0x3c1c697e	0.009546636
38	0x3c29b4ba	0.01035803
39	0x3c1dc540	0.009629548
40	0xbc212fd2	-0.009838061
41	0xb9968db7	-0.00028715815
42	0x3c895f93	0.016769206
43	0x3c39339e	0.01130381
44	0x3b10b433	0.0022080063
45	0xbbd438d7	-0.0064765024
46	0x3c9ac668	0.018893436
47	0xbc23c034	-0.009994555
48	0xbc067c47	-0.008208341
49	0x3bd89720	0.0066098124
50	0xbc13d34f	-0.009022548
51	0xba2f5865	-0.0006688892
52	0xbcadd18d	-0.021218086
53	0x3c28b1cd	0.010296297
54	0xbb6d465c	-0.0036205268
55	0xbb7b5fdc	-0.0038356697
56	0x3be9dfd3	0.0071372776
57	0xbb7052dc	-0.0036670482
58	0x3c58256b	0.013192515
59	0xbc423b63	-0.011854979
60	0x3ca3177b	0.019908657
61	0x3c35eb91	0.011103527
62	0x3c65713c	0.014004048
63	0x3c79bc61	0.015242667
64	0x3c3bfbcc	0.011473607
65	0x3c84dbf0	0.016218156
66	0xbc791dab	-0.015204827
67	0xbbd373bb	-0.006453005
68	0x3c294918	0.010332368
69	0xbad7cace	-0.0016463639
70	0xbbfc95a3	-0.007708268
71	0xbbf43678	-0.0074527822
72	0xbb8cd234	-0.004297519
73	0xbc94c448	-0.01816
74	0xbc6c6b88	-0.014429934
75	0xbcae61ba	-0.021286834
76	0x3c94451e	0.018099364
77	0x3ac69443	0.0015150387
78	0x3c1c7909	0.009550341
79	0x3c4da54d	0.012551618

weight f4 [80, 3, 1]
0	0x3ba69be0	0.0050844997
1	0xbb6f5b6a	-0.0036522993
2	0xbc145655	-0.009053786
3	0xbcfddd81	-0.03098941
4	0xbc59ddc7	-0.013297505
5	0xbd45256f	-0.048131403
6	0x3cb885a1	0.022524657
7	0x3c8c8475	0.017153004
8	0x3cef090c	0.029179119
9	0xbc30342f	-0.010754629
10	0x3c4f5eb7	0.012656859
11	0x3cb5e7e3	0.022205299
12	0x3b8040af	0.003913961
13	0x3bee1654	0.0072658453
14	0xbc0654f3	-0.008198964
15	0xbb391cb9	-0.002824588
16	0x3b3ae5ac	0.0028518243
17	0xbd4fa463	-0.05069388
18	0xbd23bb97	-0.03997382
19	0xbd193db9	-0.03741238
20	0xbcdd036a	-0.026979167
21	0x3ca7ef4e	0.020499852
22	0x3ccf0a95	0.0252736
23	0x3c100204	0.008789543
24	0xbcd91966	-0.026501369
25	0xbb24cc62	-0.0025146236
26	0xbce967b3	-0.02849183
27	0xbb408e10	-0.002938155
28	0xb8576d76	-5.1361938e-05
29	0xbc330878	-0.010927312
30	0xbd3f5331	-0.046710197
31	0xbd30dbb0	-0.04317826
32	0xbccf24b6	-0.02528606
33	0x3c0cc4df	0.00859186
34	0x3c43f357	0.011959872
35	0x3ce70128	0.028198794
36	0xbcefa9b7	-0.029255731
37	0xbd060ba2	-0.032725938
38	0xbcaa7e50	-0.020812184
39	0xbd2eb6de	-0.042654864
40	0xbceb5905	-0.028728971
41	0xbceeb014	-0.029136695
42	0x3cde5d64	0.027144141
43	0x3d09fe44	0.033689752
44	0x3cfbed48	0.030752793
45	0xbc30ab34	-0.0107830055
46	0xbc7574c2	-0.0149814505
47	0xbc0cd94f	-0.008596732
48	0x3c53301a	0.012889886
49	0x3d3a22ad	0.045443226
50	0x3cf0ed8a	0.029410142
51	0xbcfcdd36	-0.0308672
52	0xbc4b853a	-0.0124219
53	0xbd1e3c80	-0.038631916
54	0xbc817ca2	-0.0158065
55	0xbd0720bf	-0.032990213
56	0xbc313e51	-0.01081808
57	0xbd172c2d	-0.036907364
58	0xbd20893f	-0.039193388
59	0xbd3226c0	-0.043493986
60	0x3cd808e1	0.026371421
61	0x3ce9ab6b	0.028524121
62	0x3c911b18	0.017713115
63	0xbd190063	-0.037353884
64	0xbba88886	-0.005143228
65	0xbd30093c	-0.042977557
66	0x3cd7d340	0.026345849
67	0x3beb10e1	0.007173643
68	0x3c8dadb0	0.017294735
69	0xbc116b84	-0.008875731
70	0xbc4a75f2	-0.012357222
71	0xbc816f1a	-0.015800048
72	0x3d04b5dc	0.032399997
73	0x3cead605	0.028666506
74	0x3ce19828	0.027538374
75	0x3c972aba	0.01845299
76	0x3d1e9171	0.038712922
77	0x3d0ab94a	0.03386811
78	0xbcef0358	-0.0291764
79	0xbc83f4fa	-0.016108025
80	0xbce1335d	-0.027490312
81	0xbb847ed9	-0.0040434417
82	0xbcd9e802	-0.026599888
83	0xbba7955d	-0.005114241
84	0x3c952aa2	0.018208805
85	0x3c9a6cbc	0.018850677
86	0x3cf0f1ac	0.029412113
87	0xbd080244	-0.033205286
88	0xbcb7fadd	-0.022458488
89	0xbcdad719	-0.026713895
90	0x3d39b27b	0.045336228
91	0x3b5ec3ed	0.0033991293
92	0x3ce933d7	0.028467102
93	0xbd463d1c	-0.048398122
94	0xbc07609e	-0.008262781
95	0xbd1f0801	-0.038825992
96	0x3d10483f	0.03522515
97	0x3c5c6b68	0.013453342
98	0xba8fd8b2	-0.0010974614
99	0x3ca8e730	0.020618051
100	0x3cc4d6aa	0.024028141
101	0x3cf00ca8	0.02930291
102	0x3c37e685	0.011224394
103	0x3ca010b5	0.019539217
104	0x3c56f2e3	0.013119432
105	0xbd25ef9e	-0.04051172
106	0xbcbd7a9d	-0.023129756
107	0xbd02831e	-0.031863324
108	0x3c679f50	0.014137104
109	0x3bc8c29f	0.0061267163
110	0x3c868d5a	0.016424824
111	0xbc7748a2	-0.015093001
112	0xbd1b5faf	-0.037933048
113	0xbd357195	-0.044297773
114	0xbd0f9547	-0.03505447
115	0xbd1c6b39	-0.038188193
116	0xbd3c9c17	-0.046047296
117	0xbd27ad52	-0.040936776
118	0xbcf01260	-0.029305637
119	0xbc9b54fb	-0.01896142
120	0x3c71cbd2	0.014758067
121	0xbbe335a6	-0.0069338856
122	0x3cba6084	0.0227511
123	0x3ce42765	0.027850816
124	0x3d341a74	0.04397054
125	0x3ce41fde	0.027847227
126	0xbd1f8a1b	-0.038950067
127	0xbccb266b	-0.024798593
128	0xbca4ce24	-0.020117827
129	0xbd08a857	-0.033363666
130	0xbcf5e509	-0.030016439
131	0xbce31900	-0.027721882
132	0x3cfb2a8a	0.030659933
133	0x3c26bedf	0.010177343
134	0x3d0ee8dc	0.03489004
135	0xbcdd0348	-0.026979104
136	0xbc940536	-0.018068891
137	0xbce9a1f6	-0.028519612
138	0x3ca6b5bf	0.020350335
139	0x3c9ea4dd	0.019365722
140	0x3cf0a60b	0.02937605
141	0x3c30163d	0.0107474895
142	0x3cde59b4	0.027142383
143	0x3ca7996d	0.020458901
144	0xbd2e02aa	-0.04248301
145	0xbcb37cfb	-0.021910181
146	0xbc9ccd13	-0.019140756
147	0xbcc95e60	-0.024581134
148	0xbd00940a	-0.03139118
149	0xbc9c2349	-0.019059794
150	0xbd15e49e	-0.03659498
151	0xbd308912	-0.04309947
152	0xbcb1b0df	-0.021690784
153	0xbbeecc16	-0.0072875125
154	0xbac16967	-0.0014756144
155	0xbaf5f185	-0.0018763995
156	0x3ca03726	0.019557547
157	0x3cfb14ab	0.030649504
158	0x3cba1425	0.022714684
159	0xbd13d212	-0.03608901
160	0xbcd5ac29	-0.026083069
161	0xbc9924fa	-0.01869439
162	0xbba47fcf	-0.005020119
163	0x3bf4e6d8	0.007473808
164	0xbc9bdb3d	-0.01902544
165	0xbcf75ce0	-0.030195653
166	0xbd1a1bc0	-0.03762412
167	0xbd119f2e	-0.035552196
168	0xbc1e5055	-0.009662707
169	0xbb9b8cb6	-0.0047469987
170	0xbbe65b3f	-0.0070299204
171	0x3cdde660	0.02708739
172	0x3ccaf7a0	0.02477628
173	0x3c3cdbc5	0.0115270065
174	0xbd5dd823	-0.054161202
175	0xbce27a89	-0.02764632
176	0xbcf47abc	-0.02984368
177	0x3ce5a816	0.028034251
178	0x3d214173	0.039369058
179	0x3d23562a	0.039877094
180	0xbd34da43	-0.044153463
181	0xbd003ae4	-0.031306162
182	0xbd4c0b94	-0.04981573
183	0x3c3b5a5d	0.0114351185
184	0x3c12b307	0.008953816
185	0x3d1ae78a	0.03781847
186	0xbd0f7531	-0.03502387
187	0xbd1b67c6	-0.037940763
188	0xbcacb65c	-0.02108305
189	0xbd174b1c	-0.036936864
190	0xbcfc3d15	-0.030790845
191	0xbcfc3fe7	-0.03079219
192	0xbd188435	-0.037235457
193	0xbd157732	-0.036490627
194	0xbd02a7f9	-0.031898472
195	0x3ce5478b	0.027988216
196	0x3cf39fa2	0.029739205
197	0x3ce538fc	0.027981274
198	0x3cc94bbc	0.024572246
199	0x3d08c894	0.03339441
200	0x3cb4eb3d	0.022084827
201	0x3d1b4699	0.037909124
202	0x3c0d7f7e	0.008636354
203	0x3bc040ed	0.0058671148
204	0x3d572d96	0.05253371
205	0x3d25d45d	0.04048573
206	0x3d3a21db	0.045442443
207	0xbd459c77	-0.04824492
208	0xbd1d4eb1	-0.038405124
209	0xbd25c426	-0.040470265
210	0x3c6ea765	0.014566277
211	0x3c7b1257	0.015324197
212	0x3cf6a93f	0.03011
213	0xbd375533	-0.044758987
214	0xbbe1e242	-0.006893427
215	0xbcb27d16	-0.021788161
216	0x3cbf99c6	0.023388755
217	0x3bfee89b	0.0077791936
218	0x3a0a2e84	0.00052712136
219	0xbcb8504f	-0.022499232
220	0xbc4c85ff	-0.012483119
221	0xbc83a656	-0.016070526
222	0x3d2b9a3b	0.041895133
223	0x3d2e05d5	0.04248603
224	0x3cfca826	0.030841898
225	0x3bd45e7d	0.0064809904
226	0xbc339e7a	-0.010963077
227	0xbade732a	-0.0016971577
228	0x3cc1c799	0.023654746
229	0x3bbbacb2	0.005727374
230	0x3c853004	0.016258247
231	0x3c533354	0.012890656
232	0x3c9e5a67	0.019330217
233	0x3d012d3b	0.031537276
234	0xbd157ceb	-0.036496084
235	0xbcb679d7	-0.022274895
236	0xbcfdc8cf	-0.030979542
237	0xbd2241b2	-0.039613433
238	0xbd2ff2a1	-0.042956
239	0xbd62bb63	-0.055354487

bias f4 [80]
0	0xbed86856	-0.42267102
1	0x3ea45863	0.32098684
2	0x3e485bc0	0.1956625
3	0x3bf0b5eb	0.007345905
4	0x3ec6b811	0.38812307
5	0xbf04e4af	-0.51911443
6	0x3e1c0ef9	0.15240087
7	0xbe3946d9	-0.18093432
8	0x3ee9a38f	0.45632598
9	0x3ecdb376	0.4017598
10	0x3e8882ef	0.26662394
11	0x3d61134e	0.05495005
12	0xbe92cb1a	-0.2867058
13	0xbee1f034	-0.44128573
14	0xbefaf8b9	-0.49017885
15	0xbeb66753	-0.35625705
16	0x3e9b4428	0.30325437
17	0xbeb1c381	-0.3471947
18	0xbeb5e72d	-0.35527936
19	0x3ce65354	0.028115906
20	0x3d82f4b3	0.06394329
21	0xbe5e35a2	-0.21700147
22	0xbef837ea	-0.4848016
23	0xbe1cb53f	-0.15303515
24	0x3eb02e36	0.34410256
25	0xbeab142b	-0.33413824
26	0x3ed99c66	0.42502135
27	0x3f0d9fd7	0.5532202
28	0x3c8e0bb9	0.017339574
29	0xbe7f07fd	-0.24905391
30	0x3e94ffc2	0.29101378
31	0xbec1f22f	-0.37880084
32	0xbe202d73	-0.15642338
33	0xbe8b8ac6	-0.27254313
34	0xbe529f9c	-0.20568699
35	0xbe8de3ae	-0.27712768
36	0xbd4ec893	-0.05048425
37	0x3eaa2068	0.3322785
38	0x3ede3e2b	0.43406805
39	0xbe2b6857	-0.16739021
40	0x3eb20526	0.34769553
41	0xbdc5d7d3	-0.09660306
42	0xbf0daeca	-0.5534483
43	0x3e36a8e6	0.17837867
44	0x3e02a5ab	0.1275851
45	0x3e8475cc	0.25871122
46	0xbedb5f9b	-0.4284638
47	0xbe567fd2	-0.20947197
48	0x3dd4c4e2	0.10389115
49	0x3e980135	0.2968842
50	0x3ee7b324	0.4525386
51	0xbe9e42a8	-0.3091023
52	0xbd876fff	-0.066131584
53	0x3e1406da	0.14455739
54	0xbe43d539	-0.19124307
55	0x3ef8dda8	0.4860661
56	0xbf0cc210	-0.54983616
57	0x3eb97e8a	0.36229354
58	0x3e6a2651	0.22866179
59	0x3ec93707	0.39299795
60	0x3ce3b5d7	0.027796669
61	0x3d52de02	0.051481254
62	0xbf0e212b	-0.5551936
63	0xbe83e931	-0.25763848
64	0xbccd0418	-0.025026366
65	0x3e128d2e	0.14311668
66	0x3d67aba7	0.056560185
67	0xbedef38b	-0.43545184
68	0x3eff0028	0.49804807
69	0xbb9aa667	-0.0047195437
70	0xbf0e3f3e	-0.5556525
71	0xbef89a8d	-0.48555413
72	0xbe2bdb31	-0.16782834
73	0xbe8f7476	-0.2801854
74	0xbe49393d	-0.19650741
75	0xbeda3dee	-0.42625374
76	0xbf063b5e	-0.5243434
77	0x3be47fb0	0.0069732293
78	0x3bd208f3	0.0064097582
79	0x3d84b6ab	0.06480154

weight f4 [80, 80, 1]
0	0xbc092b5f	-0.008372157
1	0xbba3bdd1	-0.004996993
2	0x3c40e823	0.011774096
3	0xbbd721a7	-0.006565291
4	0xbc12a40d	-0.008950246
5	0xbbb48293	-0.0055087297
6	0xbc17f113	-0.009273785
7	0x3ca2f0ad	0.019890154
8	0xbc99da71	-0.018780919
9	0xbc061aac	-0.00818507
10	0x3a63b4d9	0.0008686311
11	0xb8c8ef96	-9.5813695e-05
12	0xbbf18651	-0.007370748
13	0x3c7466b1	0.014917062
14	0xbc1cb7d3	-0.0095653115
15	0xbba274ca	-0.00495777
16	0xbc84c3d4	-0.01620666
17	0x3bb93feb	0.0056533716
18	0x3b809287	0.0039237174
19	0x3ba3cfd9	0.0049991426
20	0xbcafb78e	-0.02144983
21	0x3a02dd5b	0.0004992091
22	0xba5bb3a2	-0.00083809544
23	0x3bf6f255	0.0075362124
24	0x3ae94880	0.0017798096
25	0x3c4e4592	0.012589829
26	0x3bcff96e	0.006346873
27	0xbb8c5944	-0.004283102
28	0xbc6af930	-0.0143416375
29	0x3ca7be8b	0.0204766
30	0xbc8122e7	-0.015763713
31	0x3a863d7a	0.001024171
32	0xbb840d69	-0.004029919
33	0x3c04664f	0.008081033
34	0x3c923352	0.017846737
35	0x3bfacd48	0.007653866
36	0x3c43ce1f	0.011950999
37	0x3a8e1728	0.0010840641
38	0x3be92a3f	0.007115632
39	0xbbda3a2b	-0.006659766
40	0xbc545419	-0.012959504
41	0x3ca1de89	0.019759433
42	0x3c133fc9	0.008987376
43	0xbb8cd633	-0.0042979955
44	0xbbf58f00	-0.0074938536
45	0x3b6638bc	0.0035129031
46	0xbac6e889	-0.0015175502
47	0xbc2fc8e0	-0.010729045
48	0x3a97b5c4	0.0011574556
49	0xbc1fb7d6	-0.00974842
50	0xb9f410c4	-0.00046551798
51	0x3c2fc4ae	0.010728044
52	0xbc41c069	-0.011825659
53	0x3b9065eb	0.004406681
54	0xbb856417	-0.0040707695
55	0x3ad3393b	0.0016115078
56	0x3c369a46	0.01114518
57	0xbc7d6804	-0.015466694
58	0xbb818fd3	-0.0039539128
59	0xbad78df5	-0.0016445505
60	0x3c159ea9	0.009132066
61	0xbce5e880	-0.028064966
62	0x3b718099	0.0036850332
63	0x3c1c1284	0.009525899
64	0x3cfde9e6	0.03099532
65	0xb9d41ffe	-0.00040459627
66	0xbcbf2bad	-0.023336256
67	0xbb9d819e	-0.0048067113
68	0x3c03f4cf	0.008053972
69	0x3c82ad21	0.015951695
70	0x3c6ef448	0.014584608
71	0x3c3dee3e	0.011592446
72	0xbbc96226	-0.0061457334
73	0x3ca4127b	0.020028343
74	0xba9741a4	-0.0011539948
75	0x3c1c486d	0.009538752
76	0xbc8fca2b	-0.017552456
77	0xbc9cb3f8	-0.019128785
78	0x3cceb568	0.025232986
79	0x3a86a1e7	0.0010271639
80	0x3b82fd14	0.0039974544
81	0x3ada81de	0.0016670784
82	0x3bb8bd8c	0.00563783
83	0xbc2534a3	-0.01008335
84	0xbc1847ef	-0.009294494
85	0xbac7ef39	-0.0015253789
86	0xbbb4dac4	-0.005519243
87	0xbb69311c	-0.003558225
88	0xbc8e67f9	-0.017383562
89	0x3b9001c3	0.0043947413
90	0x3bbc1968	0.0057403333
91	0x3c08a265	0.008339499
92	0xbb91ca70	-0.0044491813
93	0x3ba4d91e	0.005030765
94	0x3ba55420	0.005045429
95	0x3c2b2306	0.010445362
96	0xbc708130	-0.014679238
97	0x3bf2296a	0.007390191
98	0x3c369181	0.011143089
99	0x3c6a9b3a	0.014319235
100	0xbcdf2d04	-0.027243145
101	0x3cb55085	0.022133121
102	0xbc0f9bcc	-0.008765172
103	0x3c39916e	0.011326177
104	0xbb1ab056	-0.002360364
105	0x3bd76574	0.0065733735
106	0x3b1469df	0.0022646112
107	0xbb9a9edb	-0.004718644
108	0xbcbeb35d	-0.023278886
109	0x3bd31252	0.006441393
110	0xbbaa62e0	-0.005199775
111	0x3ca903b5	0.02063165
112	0x3bb5cf73	0.0055484115
113	0xbba292d2	-0.00496135
114	0x3afc021b	0.0019226702
115	0x3cc2a42a	0.02375992
116	0x3c1e64ca	0.009667585
117	0x3ab717c7	0.0013968878
118	0xbb35083e	-0.002762332
119	0x3c90f9db	0.017697265
120	0xbcb21f77	-0.02174352
121	0xbc201e7c	-0.009772893
122	0x3b017039	0.0019750728
123	0x3c92cf27	0.017921044
124	0xbbeab84b	-0.0071630827
125	0xb9843220	-0.00025214348
126	0xbbac3252	-0.005255022
127	0x3b15932c	0.0022823317
128	0xbb8176e5	-0.003950941
129	0x3ce0a0ee	0.027420487
130	0xbb99d484	-0.0046945233
131	0xbc78f9f0	-0.0151963085
132	0xbba75578	-0.005106624
133	0xbc44b3fd	-0.012005803
134	0x3caba4d2	0.020952616
135	0xbb65eaca	-0.0035082572
136	0xbb78a97c	-0.0037942817
137	0xbcd27b74	-0.025693633
138	0x373241d2	1.0624952e-05
139	0xbccad532	-0.024759863
140	0x3ca59d66	0.020216655
141	0xbc9ae7e8	-0.01890941
142	0x3cce9a86	0.025220167
143	0x3a845729	0.0010096777
144	0x3c787e8b	0.015166889
145	0xbcdc7844	-0.026912816
146	0xbced04da	-0.028932977
147	0x3cce905c	0.02521532
148	0xbcd577ac	-0.02605804
149	0x3ca5ef96	0.020255845
150	0x3c53a5b6	0.012917927
151	0xbbff5e6f	-0.00779324
152	0x3b35132e	0.002762984
153	0xbb3fc0e7	-0.0029259266
154	0xbbb61c70	-0.0055575892
155	0xbc0a4974	-0.008440364
156	0x3be04209	0.0068438095
157	0xbbfd76f8	-0.0077351294
158	0x3ca6eea5	0.020377466
159	0x3b459758	0.0030150022
160	0xbb84d8e2	-0.0040541748
161	0xbc34029a	-0.010986948
162	0x3bc0ff39	0.0058898
163	0xbc4fed72	-0.012690889
164	0x3bbb7509	0.005720739
165	0xbc57f25d	-0.0131803425
166	0xbc477f08	-0.012176283
167	0x3c40313f	0.011730491
168	0xbac5532d	-0.0015054696
169	0x3ca393ed	0.019967997
170	0xbbb68e30	-0.0055711493
171	0x3cda0b1c	0.026616625
172	0xbc063ad4	-0.008192737
173	0x3b64d0e9	0.003491456
174	0x3cccf400	0.025018692
175	0xbbe08e2c	-0.0068528857
176	0x3c39b2d8	0.011334144
177	0x3b95a173	0.0045663654
178	0xb9b06c70	-0.00033650128
179	0xbc7ff2f4	-0.015621889
180	0x3c96f1cd	0.018425846
181	0x39fbb2de	0.00048007717
182	0xbb4c6954	-0.003119071
183	0xbbf53482	-0.007483066
184	0xbbacf656	-0.005278389
185	0x3c3bffef	0.011474594
186	0x3b073056	0.0020628176
187	0xbc931047	-0.017952098
188	0x3cc623b5	0.024186948
189	0xbbe4f862	-0.0069876174
190	0x3bd1e2e2	0.0064052204
191	0xba4ea46e	-0.00078827783
192	0xbaf9a4da	-0.0019046322
193	0x3c50e037	0.0127487695
194	0xba6142cc	-0.00085930224
195	0xbb0065e8	-0.001959199
196	0x3bd33087	0.006444994
197	0x3ba0cfae	0.00490757
198	0x3c1679e7	0.009184337
199	0xbca26a6e	-0.01982614
200	0xbbd84ed5	-0.0066011944
201	0x3a89052c	0.0010453812
202	0xbad045c9	-0.0015889938
203	0xbc012592	-0.007882493
204	0x3cbae2a1	0.022813143
205	0xbb17e65f	-0.0023178083
206	0xb7fd2cce	-3.0180814e-05
207	0xbc0d0798	-0.0086077675
208	0xbc00ff72	-0.007873403
209	0x3bbe8c0a	0.005815034
210	0xbb5700d3	-0.0032806888
211	0xbc8fc8fb	-0.01755189
212	0x3b621afc	0.0034500947
213	0x3bed3873	0.0072393953
214	0xbc85c7fc	-0.016330712
215	0x3ba27a79	0.0049584475
216	0xba8148f3	-0.000986366
217	0x3c352d5b	0.011058177
218	0xbcaf3d0c	-0.021391414
219	0x3cc2ce61	0.02378005
220	0xbd0f3110	-0.0349589
221	0x3a7610f7	0.0009386683
222	0xbc1f02c3	-0.009705248
223	0xbb7594df	-0.0037472767
224	0xbce26d8f	-0.027640132
225	0xbaa49ef7	-0.0012559582
226	0x3c74dc72	0.014945136
227	0xbc9c12b0	-0.01905188
228	0x3c858a2a	0.016301233
229	0xbcbf8535	-0.023378948
230	0x3c3dba63	0.011580083
231	0xbb2df8fd	-0.0026546114
232	0xbb5c9cf7	-0.0033662894
233	0x3a27a251	0.00063947315
234	0xbb9502bb	-0.0045474446
235	0x3c8a8c58	0.016912624
236	0x3bb614e2	0.0055566886
237	0x3c0dadfa	0.008647436
238	0xbd150ef7	-0.036391225
239	0xbcf7b0f6	-0.030235749
240	0x3bf64ddd	0.0075166062
241	0xbbf68e5c	-0.007524295
242	0x3bfa6b69	0.007642199
243	0x3a0520b5	0.0005078421
244	0xbb4a4338	-0.003086282
245	0xbb0459ac	-0.002019505
246	0x3b92b8ca	0.004477595
247	0x3c8e06d8	0.017337248
248	0x3cbaa064	0.022781558
249	0xb9b2d018	-0.00034105848
250	0xbb98599e	-0.004649355
251	0x3b4fec16	0.0031726412
252	0xbb703ecc	-0.0036658524
253	0xb9bc44e0	-0.0003590947
254	0xbb9280f5	-0.0044709393
255	0xbb96bf0a	-0.0046004103

bias f4 [80]
0	0xbbc82b44	-0.0061086733
1	0x3d711619	0.058858965
2	0x3d854955	0.065081276
3	0xbd46c19f	-0.048524495
4	0x3c5ccb8d	0.013476265
5	0xbc6d0ade	-0.014467923
6	0x3d84a085	0.06475929
7	0xbdb2152a	-0.08695443
8	0x3d6d7f54	0.057982758
9	0xbd03e142	-0.032197244
10	0x3daa1e08	0.08306509
11	0x3d46df5e	0.048552863
12	0x3cd004f5	0.025392989
13	0xbdcb200f	-0.09918224
14	0xbd9178db	-0.071031295
15	0xb96c8ad0	-0.00022558426
16	0xbd071f2f	-0.032988723
17	0x3b685696	0.0035452
18	0x3d0dc5a7	0.034612324
19	0xbdbb9f61	-0.091612585
20	0xbda4a45d	-0.08039162
21	0xbbfb55df	-0.0076701487
22	0x3d17e934	0.037087634
23	0xbde8917a	-0.113558725
24	0x3db14229	0.08655197
25	0x3d1f6733	0.038916778
26	0xbbcecf98	-0.006311368
27	0x3d8d70d4	0.06906286
28	0xbd67e456	-0.056614242
29	0x3d8d5495	0.06900898
30	0xbd4744ca	-0.048649587
31	0xbc526ce1	-0.012843342
32	0xbd6dc9b7	-0.0580537
33	0xbc8b1ad0	-0.016980559
34	0x3c81d79f	0.015849886
35	0x3d552fa6	0.052047394
36	0xbddaf6f0	-0.10691631
37	0xbd0762c7	-0.033053186
38	0x3c908754	0.017642654
39	0xbd861b4a	-0.06548174
40	0x3cb8ce79	0.022559391
41	0xbd4f30de	-0.050583713
42	0x3d06e2ad	0.03293102
43	0x3d86427e	0.06555651
44	0xbd0db705	-0.03459837
45	0xbc3a54cc	-0.011372756
46	0xbc7269da	-0.014795745
47	0x3d77651d	0.060399164
48	0x3c4c0747	0.012452907
49	0xbd835653	-0.064129494
50	0xbd7af30d	-0.061266948
51	0xbd713858	-0.058891624
52	0xbdbf8fa4	-0.09353569
53	0xbd2d75e2	-0.04234875
54	0xbcbb3aad	-0.022855127
55	0x3d922356	0.07135646
56	0xbdc1423f	-0.094364636
57	0x3dc43200	0.09579849
58	0xbd9936ef	-0.07481181
59	0xbdcc7ab3	-0.099843405
60	0xbca8eba8	-0.020620182
61	0x3db731a6	0.089450166
62	0x3d9c7433	0.07639351
63	0x3d999ece	0.07500993
64	0xbcb66f55	-0.022269884
65	0x3b7dff8a	0.003875705
66	0x3d06c452	0.03290207
67	0xbdb733d8	-0.08945435
68	0xbdbdefa4	-0.092742234
69	0xbd9d5bee	-0.0768355
70	0x3d58a91d	0.052895654
71	0xbca59997	-0.020214839
72	0x3d0d4a7e	0.03449487
73	0x3c8fdb28	0.017560557
74	0xbda5b928	-0.080919564
75	0xbd8d359d	-0.068949915
76	0xbdc60b1f	-0.0967009
77	0xbcb42ee4	-0.021995015
78	0x3debd039	0.11514325
79	0x3dd99c11	0.106254704

weight f4 [80, 3, 1]
0	0xbd439249	-0.04774693
1	0xbd3a2ca5	-0.045452733
2	0xbcd85bcb	-0.026410958
3	0xbcfce79b	-0.030872157
4	0xbc77c370	-0.0151222795
5	0xbcdfade5	-0.027304599
6	0x3d693d78	0.056943387
7	0x3d240cdf	0.040051337
8	0x3d47f739	0.048819754
9	0x3d371d44	0.044705644
10	0x3cf98c2b	0.030462345
11	0x3d36c89b	0.044624906
12	0xbbc1c16b	-0.00591295
13	0xbca312fa	-0.01990651
14	0xbcad56de	-0.021159586
15	0x3d5c4760	0.053779006
16	0x3d2b501a	0.041824438
17	0x3cf2c480	0.029634714
18	0xbd0f6e5a	-0.03501735
19	0xbd1c82a5	-0.03821053
20	0xbd11396e	-0.03545516
21	0xbd22272e	-0.039588146
22	0xbd0422da	-0.0322598
23	0xbd04b9aa	-0.032403626
24	0xbcd8f403	-0.026483541
25	0xbcf14d87	-0.029455913
26	0xbc9b1a03	-0.018933302
27	0x3d575141	0.052567724
28	0x3d0dff27	0.03466716
29	0x3d4a726d	0.04942553
30	0x3d20b604	0.039236084
31	0x3d5bb1c0	0.053636312
32	0x3d559f26	0.05215373
33	0x3d03be83	0.032164108
34	0x3d5d2a80	0.05399561
35	0x3d163e0d	0.03668027
36	0xbd22567e	-0.039633267
37	0xbcc0e6b8	-0.023547515
38	0xbcc0f16c	-0.023552619
39	0x3cfb5fdf	0.030685363
40	0x3ce0ea2a	0.027455408
41	0x3cc31098	0.023811623
42	0xbd244bc0	-0.040111303
43	0xbc169ff8	-0.009193413
44	0xbd02bb24	-0.031916752
45	0xbd51505e	-0.051102035
46	0xbd4483e3	-0.04797734
47	0xbcca3796	-0.024684709
48	0xbd45a84d	-0.048256207
49	0xbd53089f	-0.051521894
50	0xbd77e6f5	-0.060522992
51	0x3c952209	0.018204706
52	0x3d027d1c	0.031857595
53	0x3d604e52	0.054762192
54	0x3cbc184e	0.022960808
55	0x3ca66da0	0.020315945
56	0x3cf3b8e4	0.029751249
57	0x3ce573af	0.028009264
58	0x3ce6a4f8	0.028154835
59	0x3ca5bc5e	0.020231422
60	0x3cf4a8af	0.02986559
61	0x3d254f1d	0.04035865
62	0x3d005b59	0.031337116
63	0xbd4fad7e	-0.050702564
64	0xbce72235	-0.028214553
65	0xbd5dfaa5	-0.05419411
66	0x3d677570	0.05650848
67	0x3d2255b3	0.03963251
68	0x3d23c351	0.03998119
69	0xbccce82d	-0.025013054
70	0xb9f1720d	-0.00046052077
71	0xbc6174fa	-0.0137608
72	0x3d83ccef	0.06435572
73	0x3d4c44b7	0.04987022
74	0x3d0d75c0	0.034536123
75	0x3d1974d7	0.037464943
76	0x3d12e07f	0.035858627
77	0x3d301b8a	0.042995013
78	0xbd178de5	-0.037000556
79	0xbd0395cc	-0.03212528
80	0xbd3c7fff	-0.046020504
81	0x3cf36b2b	0.029714188
82	0x3c8c3c49	0.01711859
83	0x3cdc48e4	0.026890226
84	0xbd274033	-0.04083271
85	0xbd681ee2	-0.056670077
86	0xbd41968d	-0.047262717
87	0xbcfe16f9	-0.031016814
88	0xbd4ed685	-0.05049755
89	0xbd27decf	-0.04098397
90	0xbd494c05	-0.049144763
91	0xbd11a97e	-0.03556203
92	0xbd0aa2e7	-0.033846762
93	0x3d08ea25	0.033426423
94	0x3d2394f6	0.039936982
95	0x3d187b94	0.03722723
96	0x3d334a02	0.04377175
97	0x3ce3a518	0.027788684
98	0x3d443c02	0.04790879
99	0x3d1ae043	0.03781153
100	0x3d3631ed	0.044481207
101	0x3ce836d0	0.02834645
102	0xbcf8f413	-0.030389821
103	0xbd225453	-0.0396312
104	0xbce1e95a	-0.027577091
105	0xbd050ba3	-0.0324818
106	0xbcd0b7ea	-0.025478322
107	0xbd124ad6	-0.0357159
108	0x3d0cf80c	0.034416243
109	0x3cb5d200	0.022194862
110	0x3cd82eca	0.026389498
111	0x3d078001	0.03308106
112	0x3d184993	0.03717954
113	0x3d043d4c	0.03228502
114	0x3cd05c3c	0.025434606
115	0x3d0cad78	0.03434512
116	0x3d16e0b4	0.036835387
117	0x3d3c1f14	0.045928076
118	0x3cd3b8ee	0.025845017
119	0x3ceef8bc	0.02917134
120	0xbbc44660	-0.0059898347
121	0xbb955acc	-0.004557943
122	0xbaf28637	-0.0018503134
123	0xbcfaf94f	-0.030636458
124	0xbd36fef1	-0.044676725
125	0xbcc06a64	-0.023488231
126	0x3d63bca8	0.05559984
127	0x3d8d3fd6	0.06896941
128	0x3d1b7043	0.037948858
129	0x3d672074	0.056427434
130	0x3cd6f1f0	0.026238412
131	0x3d32bebe	0.043638937
132	0xbd38ae19	-0.045087907
133	0xbcec9697	-0.0288804
134	0xbcba52fc	-0.022744648
135	0xbce2317d	-0.027611488
136	0xbcbc650d	-0.022997404
137	0xbd184902	-0.037179
138	0x3d561da8	0.052274376
139	0x3d2e176c	0.042502806
140	0x3d1aa679	0.037756417
141	0xbcef90e7	-0.0292439
142	0xbd0a105e	-0.033707015
143	0xbd174222	-0.036928304
144	0xbce5e19a	-0.028061677
145	0xbc8fd6c9	-0.017558472
146	0xbd1fe7da	-0.03903947
147	0x3cd2bb3c	0.025724046
148	0x3c85c1c7	0.016327752
149	0x3d4f762c	0.050649807
150	0xbd205c30	-0.039150417
151	0xbd3bf37a	-0.045886494
152	0xbcea2e09	-0.028586404
153	0xbc914ba1	-0.017736258
154	0xbc968c0e	-0.01837733
155	0x3aa04d18	0.0012230007
156	0xbd0a6149	-0.033784185
157	0xbcd22805	-0.025653848
158	0xbc42cfa3	-0.011890325
159	0x3cf154c8	0.029459372
160	0x3d04b45c	0.032398567
161	0x3d694676	0.056951962
162	0xbd0045e9	-0.03131667
163	0xbcbd40c4	-0.023102172
164	0xbd085d59	-0.03329215
165	0xbcf63ffb	-0.030059805
166	0xbcfc6ba3	-0.030813044
167	0xbce92a17	-0.028462453
168	0x3cd0253f	0.025408385
169	0x3c502ac9	0.012705513
170	0x3cd3fb53	0.025876677
171	0xbd0fbccf	-0.03509217
172	0xbd1f03b4	-0.03882189
173	0xbd2b544b	-0.041828435
174	0x3cf9d524	0.030497141
175	0x3cbbe8a3	0.022938078
176	0x3d009409	0.031391177
177	0xbd142e10	-0.03617674
178	0xbd4e2253	-0.050325703
179	0xbd21920e	-0.03944593
180	0x3cf10f65	0.029426286
181	0x3cb7ac8f	0.02242115
182	0x3cab815a	0.020935703
183	0x3d02d993	0.031945776
184	0x3d0a62e4	0.033785716
185	0x3c80b30b	0.015710374
186	0x3d439315	0.04774769
187	0x3d29f314	0.041491583
188	0x3d40a7dc	0.047035083
189	0x3d0f2306	0.03494551
190	0x3c9ca462	0.019121353
191	0x3d1b1f91	0.0378719
192	0x3d1992e5	0.037493605
193	0x3d06e487	0.032932784
194	0x3d0fd451	0.03511459
195	0x3d22ba2d	0.039728332
196	0x3cd42a17	0.025898976
197	0x3d01f999	0.031732175
198	0xbd059ee9	-0.03262225
199	0xbd15c9ce	-0.03656941
200	0xbcb2ff9f	-0.021850405
201	0xbd070ea4	-0.032972947
202	0xbd09ad4c	-0.033612534
203	0xbd246bc5	-0.04014184
204	0x3d767263	0.06016768
205	0x3d44d252	0.04805214
206	0x3cfc9fa6	0.030837845
207	0xbc98b0d8	-0.018639013
208	0xbd015f61	-0.0315851
209	0xbd3192d8	-0.04335293
210	0xbd661fea	-0.05618278
211	0xbcee294f	-0.029072432
212	0xbd2ebaa3	-0.04265846
213	0xbd0292c9	-0.031878266
214	0xbd12642f	-0.035740074
215	0xbcef3c96	-0.029203694
216	0xbd03a901	-0.032143597
217	0x3b0c022c	0.00213636
218	0xbcc63bd3	-0.024198448
219	0xbd395815	-0.045250017
220	0xbd241fd3	-0.040069412
221	0xbd4152d2	-0.047198124
222	0xbccc1f83	-0.02491737
223	0xbd26df4e	-0.040740304
224	0xbd0df853	-0.03466065
225	0xbcdb308b	-0.026756546
226	0xbd0867fc	-0.033302292
227	0xbcaa9034	-0.020820715
228	0x3d2596e6	0.04042711
229	0x3c848097	0.016174598
230	0x3d2b0c59	0.041759823
231	0xbd0b854c	-0.03406267
232	0xbd3bb55b	-0.04582725
233	0xbcd0445c	-0.025423221
234	0x3d061eeb	0.03274433
235	0x3cd61fb4	0.026138164
236	0x3d326dbc	0.043561682
237	0x3d0c793c	0.034295306
238	0x3d108863	0.03528632
239	0x3d34ed6a	0.04417173

bias f4 [80]
0	0x3d663113	0.056199145
1	0x3e98ced8	0.2984531
2	0xbe867e61	-0.26268294
3	0xbe9d45d5	-0.3071734
4	0x3e877981	0.26459888
5	0x3f0eb664	0.55747056
6	0x3dcbed6c	0.09957394
7	0x3e1ba00c	0.15197772
8	0x3e90a2bb	0.28249153
9	0x3ece8807	0.40338156
10	0xbe1873d6	-0.14887938
11	0xbe052c4d	-0.1300518
12	0x3eec326f	0.46132228
13	0x3ed53eb4	0.416494
14	0x3e9564e0	0.29178524
15	0x3e1ee8d0	0.15518498
16	0xbcf4afce	-0.029868986
17	0x3ef52c75	0.4788548
18	0xbedecc28	-0.43515134
19	0x3edf7b9a	0.43648988
20	0x3f08b751	0.5340472
21	0x3ce61342	0.028085355
22	0xbec25f8a	-0.37963516
23	0xbdb4026c	-0.087895244
24	0xbe9fe5a4	-0.3122989
25	0xbf02958a	-0.5100943
26	0xbd502e3f	-0.050825354
27	0x3e28c228	0.16480315
28	0x3e0b304f	0.13592647
29	0x3e96b016	0.29431218
30	0x3d75549e	0.05989515
31	0x3e1889ab	0.14896266
32	0x3eab2dfe	0.33433527
33	0xbe2f7ed3	-0.17138223
34	0x3eff5805	0.4987184
35	0x3e736cdf	0.23772
36	0xbe9f1aa5	-0.31075016
37	0xbe965390	-0.29360628
38	0x3ed35cb9	0.4128168
39	0x3e5549ca	0.2082893
40	0x3e7c97ff	0.24667357
41	0x3f0acc73	0.54218215
42	0x3dcc18a6	0.09965639
43	0x3ab39624	0.0013701362
44	0xbee66336	-0.44997567
45	0x3ecfc2b5	0.40578237
46	0xbc251b43	-0.0100773005
47	0xbeeffa9f	-0.46870896
48	0x3eec268d	0.46123162
49	0xbdfd4f5c	-0.12368652
50	0xbe6e6a1f	-0.2328267
51	0x3e4467bc	0.19180197
52	0xbf0da4e4	-0.5532973
53	0x3e70dcbc	0.23521703
54	0xbf0f732e	-0.56035125
55	0xbed2fdc0	-0.4120922
56	0xbd755977	-0.059899773
57	0x3ed79f04	0.42113507
58	0x3ea9b4c1	0.33145717
59	0xbf00a4a5	-0.5025123
60	0xbe92005c	-0.285159
61	0xbf10ec19	-0.56610256
62	0x3ebf8728	0.37407804
63	0xbe4a582a	-0.19760194
64	0x3e824680	0.25444412
65	0x3ead4e4c	0.33848798
66	0xbb975f78	-0.004619535
67	0xbed96423	-0.4245921
68	0xbea09089	-0.31360272
69	0xbe67eeec	-0.22649735
70	0xbe068da8	-0.13139975
71	0x3e40e483	0.1883717
72	0xbf0f50ff	-0.55982965
73	0xbc57349f	-0.013135104
74	0xbe1402bc	-0.14454168
75	0x3ea481f6	0.32130402
76	0x3e56962b	0.20955722
77	0xbefb7ce4	-0.4911872
78	0xbf00c635	-0.5030244
79	0xbe9d3bb7	-0.3070962

weight f4 [80, 80, 2]
0	0xbc012729	-0.007882872
1	0x3cbc81a7	0.023011042
2	0x3c0e8a3b	0.008699949
3	0x3c25004b	0.010070871
4	0xbb10f614	-0.002211933
5	0xbb870978	-0.004121002
6	0xbbd2ddbc	-0.006435124
7	0xbc60d81e	-0.013723401
8	0x3b63328c	0.003466758
9	0x3c515ef3	0.012778985
10	0x3c800003	0.015625006
11	0xbbf5ae32	-0.0074975723
12	0x3b69d9d5	0.0035682817
13	0x3d1ebde0	0.038755298
14	0xbbca33b6	-0.006170715
15	0x3cf95f90	0.030441076
16	0xbb75f5c0	-0.0037530512
17	0x3bbecc37	0.005822684
18	0x3b9a425e	0.0047076186
19	0xbc42b0b9	-0.011882954
20	0xbb93876e	-0.0045022285
21	0xbd49b0ac	-0.049240753
22	0x3b209d5e	0.002450786
23	0xbd093c87	-0.03350499
24	0xbbf3d892	-0.0074415887
25	0x3b8d7fcd	0.0043182136
26	0xbc156896	-0.0091191735
27	0xbb40b96b	-0.0029407393
28	0x3b0494d8	0.002023032
29	0x3c1ecced	0.009692413
30	0xbbe52a46	-0.006993565
31	0x3c5af8d9	0.013364994
32	0x3b96e6c5	0.0046051466
33	0x3d5312e5	0.05153169
34	0x3b7d5639	0.003865613
35	0xbcf13d83	-0.029448276
36	0xba9332d1	-0.0011230354
37	0xbc300cba	-0.010745222
38	0xbc22969c	-0.009923603
39	0xbb47dc7c	-0.003049641
40	0xbc485ebe	-0.01222962
41	0xbc8eeb2c	-0.017446123
42	0xbc5918b7	-0.013250521
43	0x3d3b9f35	0.04580613
44	0xb95fd5a5	-0.00021346526
45	0xbc446588	-0.011987098
46	0xbb5fdbfe	-0.0034158225
47	0x3c76f99d	0.015074161
48	0xbc3ba4fd	-0.0114529105
49	0xbcc7d25d	-0.024392301
50	0xbc3283e5	-0.010895704
51	0xbb50e265	-0.0031873223
52	0x3bc0fcd2	0.0058895135
53	0x3d05ea9a	0.032694437
54	0x3ca93931	0.020657154
55	0xbc920a40	-0.017827153
56	0x3b70a6c2	0.003672049
57	0x3cb2050d	0.021730924
58	0xbb87990d	-0.004138118
59	0xbc93a8eb	-0.018024882
60	0xbc61c0d2	-0.013778882
61	0x3d368115	0.044556696
62	0x3b238a7e	0.0024954374
63	0xbb609f4f	-0.0034274643
64	0x3bb2d520	0.0054575354
65	0xbc5cb99c	-0.013471987
66	0xbc442268	-0.011971094
67	0xbc5047ab	-0.0127123995
68	0x3b67620c	0.0035306243
69	0xb8e72b19	-0.00011022966
70	0x3c457215	0.012051125
71	0x3b7bc715	0.0038418223
72	0xbc80cf50	-0.015723854
73	0xbc9e3566	-0.019312572
74	0xb6bb9669	-5.5905443e-06
75	0x39fa8dd1	0.00047789377
76	0xbb7a6367	-0.003820622
77	0xbc703c86	-0.014662867
78	0xbc0df5f1	-0.008664594
79	0xbc8e2bfe	-0.017354961
80	0xba623d45	-0.00086303457
81	0xbc2b06f2	-0.010438668
82	0x3c2426df	0.010019033
83	0x3c645bd5	0.01393791
84	0xbc8a0399	-0.016847419
85	0xbd12b67c	-0.035818562
86	0xbc35468a	-0.011064181
87	0xbd3a775a	-0.04552398
88	0x3b6b836a	0.0035936483
89	0x3b453f80	0.0030097663
90	0x3bc06a50	0.0058720484
91	0xbb0ad26a	-0.0021182545
92	0xbc139b3f	-0.0090091815
93	0xbd61daa2	-0.055140145
94	0xbc112f5a	-0.008861387
95	0x3cdff816	0.027339976
96	0x3bf2f1d0	0.00741408
97	0xbab15785	-0.0013530111
98	0xbca3642c	-0.019945227
99	0xbcafe428	-0.021471098
100	0xbc212b22	-0.009836944
101	0x3caf9ac9	0.021436112
102	0xbc6964ca	-0.014245221
103	0x3cddba1c	0.027066283
104	0xbb332df7	-0.002734063
105	0xb9bbe43c	-0.00035837467
106	0x3b3fe287	0.0029279308
107	0xbc42b224	-0.011883292
108	0xbb7386a1	-0.0037159103
109	0x3c81fbac	0.015867077
110	0x3c02e8f2	0.007990109
111	0x3c110254	0.008850653
112	0x3c33dd59	0.010978066
113	0xbcc6b940	-0.024258256
114	0xbca9ba59	-0.02071874
115	0x3b59dbed	0.0033242658
116	0x3b2768f8	0.0025544744
117	0x38c5fae7	9.440426e-05
118	0x39c2062f	0.0003700717
119	0xbbf27796	-0.0073995097
120	0xbc3b9081	-0.011448027
121	0x3b97ebad	0.004636249
122	0x3bb0ea42	0.0053990195
123	0xbca302c8	-0.019898787
124	0x3c54582f	0.012960478
125	0xbc979b5f	-0.018506704
126	0x3c31bf46	0.010848826
127	0xbcefc82a	-0.02927025
128	0x3c28aaab	0.010294597
129	0x3a93a2cf	0.0011263731
130	0x3c17e71e	0.009271411
131	0x3a0292d8	0.0004980988
132	0xbb9db909	-0.0048133177
133	0x3ca5e7eb	0.020252189
134	0x3c798083	0.0152283935
135	0x3bdf6d33	0.0068184375
136	0xbac3ed63	-0.0014948066
137	0xbc6a37e5	-0.014295553
138	0xbc1eec9b	-0.009699966
139	0xbb19cd76	-0.0023468412
140	0x3c5d4194	0.013504405
141	0x3d25f8fa	0.040520646
142	0x3b32c57d	0.0027278357
143	0x3aa8760f	0.0012852567
144	0xbbf657de	-0.007517799
145	0xbbe40838	-0.0069589876
146	0x3c8f3944	0.017483361
147	0x3d417b5a	0.047236778
148	0x3c723da7	0.014785207
149	0x3cffed3d	0.031241054
150	0x3c64c717	0.013963482
151	0x3c453a56	0.012037834
152	0x3bea4030	0.007148765
153	0x3b2a44c9	0.002598094
154	0x3bf72eb0	0.0075434074
155	0x3b9aff48	0.004730139
156	0x3b3a60f5	0.0028439139
157	0xbd27a51e	-0.040928952
158	0x3c9e0f50	0.019294411
159	0xbb997faf	-0.0046844105
160	0x3c520201	0.012817861
161	0x3d168cd4	0.036755398
162	0x3c8f511d	0.017494733
163	0x3b285adf	0.002568893
164	0xbc09ad19	-0.008403086
165	0xbcb2ce92	-0.021827016
166	0xbbb1d747	-0.0054272744
167	0xbbc18ca5	-0.0059066587
168	0xbc098406	-0.008393293
169	0x3c1f5d4d	0.0097268345
170	0xbc86ee7f	-0.016471146
171	0xbcf84237	-0.030305011
172	0x39484041	0.00019097423
173	0x3ccaabb5	0.02474008
174	0x3b6bfcb1	0.003600877
175	0x3ccb3899	0.024807261
176	0x3cce2166	0.02516241
177	0x3caad51d	0.020853573
178	0xbcab5291	-0.020913394
179	0xbc8032d6	-0.01564924
180	0xbbf6384a	-0.0075140344
181	0xbd37d38f	-0.044879492
182	0xbbe659c7	-0.0070297453
183	0xbcd0093b	-0.025395026
184	0xbc100544	-0.008790318
185	0x3be4e952	0.0069858218
186	0xbb75628d	-0.0037442774
187	0xbbfb3663	-0.0076663955
188	0xbba62058	-0.0050697736
189	0x3950311d	0.00019854722
190	0x3cb83ec6	0.02249087
191	0xbb7063c6	-0.0036680563
192	0x3b8f686c	0.0043764617
193	0x3d6beb59	0.057597492
194	0x3bbe92a3	0.0058158203
195	0xbc95e963	-0.018299764
196	0x3b4e983b	0.0031523842
197	0xbc2a2509	-0.010384806
198	0xbc524ec8	-0.012836166
199	0x3bd131d8	0.0063841157
200	0xbc2ce908	-0.010553606
201	0xbb93da91	-0.004512139
202	0x3c582afe	0.013193844
203	0x3d354499	0.044254873
204	0xb9c973f2	-0.00038424094
205	0xbca18479	-0.019716488
206	0x39ce2df1	0.0003932561
207	0x3b710729	0.003677795
208	0xbc9bf4dc	-0.019037656
209	0xbc9e706d	-0.019340718
210	0xbbcdc2c0	-0.0062793195
211	0xbb4fa9f6	-0.0031686998
212	0x3c7d64a1	0.015465886
213	0x3d52f9a7	0.05150762
214	0xbbe7c69a	-0.0070732357
215	0xbbd22c92	-0.0064140046
216	0x3cd440ba	0.02590977
217	0x3cf251c1	0.029579999
218	0xbcabb140	-0.020958543
219	0x3c0d89e9	0.008638837
220	0x3b91f3bc	0.004454104
221	0x3d2e07eb	0.04248802
222	0xbc9df201	-0.019280436
223	0xbc693fbd	-0.014236388
224	0xbc3e797f	-0.011625647
225	0xbc6b1081	-0.014347197
226	0xbc203048	-0.009777136
227	0xbc153a20	-0.009108096
228	0x3bdc5170	0.0067235753
229	0x3c3603f4	0.011109341
230	0x3b333153	0.0027342632
231	0x3c93e4d0	0.018053442
232	0xbbfb5fa8	-0.007671315
233	0xbcd82de7	-0.026389075
234	0xba18e2b8	-0.00058321236
235	0xbbb7b582	-0.005606354
236	0x3a5b748f	0.00083715556
237	0xbcb45b99	-0.022016333
238	0xbc466e63	-0.012111279
239	0xbc70de15	-0.014701386
240	0x3c0c6f89	0.008571514
241	0x3c31a8ae	0.010843439
242	0x3a3eb540	0.0007274933
243	0xbc07bc32	-0.008284615
244	0x3c1fca4f	0.009752824
245	0xbd490b5e	-0.049083106
246	0xbb4b4d84	-0.0031021545
247	0xbd020a98	-0.031748384
248	0xb944ffea	-0.00018787352
249	0x3aed3cbd	0.0018099766
250	0x3cc3a38f	0.023881702
251	0xbb25840b	-0.0025255706
252	0xbba34b0f	-0.004983313
253	0xbd2f944d	-0.04286604
254	0xbc036213	-0.008018988
255	0x3cdccc3f	0.02695286

bias f4 [80]
0	0xbd92fada	-0.071767524
1	0x3da003bc	0.07813212
2	0x3ce94b50	0.028478295
3	0xbd8ccd2c	-0.06875071
4	0xbd6c0577	-0.0576224
5	0xbcf3536e	-0.029702868
6	0x3d0e2f59	0.034713123
7	0x3d06b14a	0.03288392
8	0x3d803bb7	0.0626139
9	0x3cbed312	0.023294006
10	0xba68aba9	-0.0008875677
11	0x3c34dbb7	0.011038712
12	0xbc0800a8	-0.008300938
13	0x3d2ec3cc	0.042667195
14	0x3d51afaa	0.051192917
15	0x3d944353	0.072394036
16	0x3c8c8532	0.017153356
17	0xbd8c181b	-0.06840535
18	0x3d6437ec	0.055717394
19	0x3d06bbc2	0.032893904
20	0x3d03010b	0.031983417
21	0xbd36a2df	-0.04458892
22	0x3d51bd08	0.051205665
23	0x3b4550d5	0.0030107994
24	0xbd727312	-0.05919177
25	0xbd8f1794	-0.06986919
26	0xbd6ef692	-0.058340617
27	0xbcd3322b	-0.025780758
28	0x3a991245	0.0011678418
29	0xbd8bb33d	-0.06821296
30	0xbd919eb2	-0.07110347
31	0x3d8a7bce	0.06761895
32	0xbd3b6ea2	-0.045759805
33	0x3d312088	0.043243915
34	0xbcd720af	-0.026260702
35	0xbce4f9aa	-0.02795108
36	0x3d864a2f	0.06557118
37	0x3b1859c7	0.002324687
38	0x3d2713f6	0.04079052
39	0x3d86db08	0.06584746
40	0x3da96949	0.08272035
41	0x3d7476b8	0.05968353
42	0x3d7bac50	0.061443627
43	0x3d372189	0.044709716
44	0x3d6fab1d	0.058512796
45	0x3c85280c	0.016254447
46	0x3da38914	0.0798513
47	0x3d6abc9a	0.05730877
48	0xbb7f4da6	-0.0038956194
49	0xbc8a4ce7	-0.016882373
50	0xbcc0a1c9	-0.023514645
51	0x3ca36555	0.01994578
52	0xbd452ee2	-0.048140414
53	0xbd209ec8	-0.039213926
54	0xbd1b8be7	-0.03797522
55	0x3d612c04	0.054973617
56	0x3c88239c	0.016618542
57	0xbc88e4b0	-0.01671061
58	0x3d54d18d	0.051957656
59	0xbc9e2013	-0.019302404
60	0x3d5a0337	0.053225722
61	0xbcb601a9	-0.022217588
62	0x3d4c8c08	0.04993823
63	0xbd46b06a	-0.048508085
64	0x3cc03eeb	0.023467502
65	0x3c7e9230	0.0155377835
66	0xbd19268f	-0.037390288
67	0x3cc29d2a	0.023756582
68	0xbd6c2078	-0.057648152
69	0xbd856802	-0.065139785
70	0x3d8e72d5	0.06955496
71	0xbce1d486	-0.02756716
72	0x3d8f2456	0.069893524
73	0x3d8c5789	0.068526335
74	0x3d5c80fd	0.05383395
75	0x3d6a1d6d	0.05715697
76	0xbd56ed16	-0.052472197
77	0xbca6a442	-0.020341996
78	0x3c39a1d7	0.0113300895
79	0xbcbb63b8	-0.022874698

weight f4 [80, 80, 2]
0	0xbad6e2cf	-0.0016394499
1	0xbbe262bc	-0.0069087427
2	0xbbb5b79b	-0.005545569
3	0x3c9ad7d9	0.018901752
4	0x3c256c38	0.010096602
5	0xbb089b70	-0.00208446
6	0xbbf1bfa1	-0.0073775803
7	0x3c164d55	0.009173711
8	0x3c977dfa	0.018492687
9	0xbc8124b2	-0.015764568
10	0x3a4832a3	0.000763694
11	0x3b019c9b	0.0019777182
12	0x3cc26384	0.023729093
13	0xbc6c0c39	-0.014407211
14	0xba59b85f	-0.00083053665
15	0x3c84d54e	0.016214993
16	0x3baf0160	0.00534074
17	0x3c9b1227	0.018929554
18	0xbd0d878b	-0.034553092
19	0x3ba9e466	0.005184698
20	0xbc7932b8	-0.015209846
21	0x3b5f7720	0.0034098104
22	0x3b73ca24	0.0037199343
23	0xbbc04df7	-0.005868669
24	0xbcaeff42	-0.02136195
25	0x3a501419	0.0007937565
26	0x3bd57ec3	0.0065153553
27	0xbc382c39	-0.011241012
28	0x3bf154ab	0.0073648295
29	0x3c8e8d9d	0.01740151
30	0xba91bdc2	-0.0011119174
31	0xbb2efd2d	-0.0026701197
32	0x3bcc49fa	0.0062344046
33	0x3bc9f78c	0.006163543
34	0xba3a1655	-0.00070986646
35	0xba88890d	-0.0010416821
36	0x3c319935	0.01083975
37	0xbbbf19ba	-0.0058319243
38	0x3bb7c469	0.0056081307
39	0x3c8ebba2	0.017423455
40	0xbd17da66	-0.037073515
41	0xbbac3e21	-0.00525643
42	0xbba9d029	-0.0051822853
43	0xbcc0248f	-0.023454932
44	0xbc02e7ab	-0.007989804
45	0x3cd05d6e	0.025435176
46	0xbc7abedb	-0.015304293
47	0xba6592c3	-0.0008757526
48	0xbb355411	-0.0027668516
49	0x3bae73df	0.0053238715
50	0x3bc7164c	0.006075656
51	0x3c8c9a39	0.017163383
52	0xbc12fb5c	-0.008971062
53	0x3ca7e135	0.02049313
54	0xbb41c5ed	-0.0029567436
55	0x3b221bdc	0.0024735844
56	0xbc3f463a	-0.011674458
57	0x3c0b71ff	0.0085110655
58	0x3bcba106	0.006214264
59	0x3b63bc80	0.0034749806
60	0xbc8805d1	-0.016604336
61	0x3b995c46	0.0046801893
62	0x3a5e99ca	0.0008491544
63	0xbcd12277	-0.02552913
64	0x3cf515c7	0.02991761
65	0x3c1a7ea5	0.0094296085
66	0x3bf4cd0a	0.0074707316
67	0xbc5925da	-0.013253653
68	0x3c2994ae	0.010350389
69	0x3bdab6d2	0.006674626
70	0x3cb5d2dc	0.022195272
71	0x3c9ad0b5	0.018898347
72	0x3c382c4f	0.011241033
73	0x3c18e5af	0.009332105
74	0x3c56ac1e	0.013102559
75	0x3b6adc7b	0.0035836983
76	0x3c67efcf	0.014156296
77	0xbc20712b	-0.009792606
78	0xbb955475	-0.004557187
79	0xbc9d5c81	-0.019209148
80	0x3cc010e8	0.023445562
81	0x39c33ab9	0.0003723705
82	0xbcbd4304	-0.023103245
83	0x3caa7377	0.020807011
84	0xbcc1d7f7	-0.02366255
85	0x3cb5db27	0.022199227
86	0x3b45312e	0.0030089128
87	0x3ca58230	0.02020368
88	0x3b51c866	0.0032010316
89	0xbca3bd7a	-0.01998781
90	0x3caaee5d	0.020865614
91	0x3c2e081d	0.010622052
92	0xbc1faa88	-0.009745248
93	0xbbe888d2	-0.0070963884
94	0x3c4d1fd5	0.012519796
95	0xba3d0b52	-0.00072114647
96	0x3baa14c0	0.005190462
97	0xbca6a44c	-0.020342015
98	0xbb482eef	-0.0030545553
99	0xbbbaf4a8	-0.005705435
100	0xbcc34463	-0.02383632
101	0xb5488cf2	-7.471091e-07
102	0xbc3c39cf	-0.011488392
103	0x3c833585	0.016016731
104	0xbb5282d5	-0.003212144
105	0xbb0cce5b	-0.0021485302
106	0x3c3106eb	0.010804872
107	0x3d1a01a8	0.037599236
108	0x3c2d3f69	0.0105742
109	0x3d096162	0.033540137
110	0xbb19d523	-0.0023472987
111	0xbc117e77	-0.008880249
112	0x3ae99185	0.0017819857
113	0xbbdc6df2	-0.0067269737
114	0x3c0873ca	0.0083283875
115	0x3c3bb3e3	0.011456463
116	0x3be7c58a	0.007073109
117	0x3cfb9735	0.03071175
118	0xbb90df86	-0.0044211773
119	0xbb3e82aa	-0.002906958
120	0x399ac640	0.00029520877
121	0xbbd876eb	-0.006605973
122	0xbc36f2e4	-0.011166308
123	0x3c566ff7	0.013088218
124	0x3b1a578f	0.0023550724
125	0xbbcc49e4	-0.0062343944
126	0x3bf34a7b	0.0074246502
127	0x3bd96064	0.006633805
128	0xbcb5d67c	-0.022197
129	0x3c97455d	0.018465692
130	0x3b46d516	0.0030339411
131	0x3bb3611c	0.005474223
132	0x3cbbbb12	0.02291635
133	0xbb07a5eb	-0.002069826
134	0xbc0a4b62	-0.008440824
135	0xbc2559d6	-0.010092219
136	0x3cbc306d	0.02297231
137	0x3c0ec4e9	0.008713939
138	0x3c301226	0.010746514
139	0x3c8ea5d0	0.01741305
140	0x3b945a7e	0.004527389
141	0x3c17ea59	0.009272181
142	0x39c377ea	0.0003728264
143	0x3c2517cc	0.010076474
144	0x3bce12a7	0.0062888446
145	0x3bde685d	0.0067873434
146	0x3be67dfa	0.0070340605
147	0xbb1d92a4	-0.0024043703
148	0x3b83c529	0.004021306
149	0x3cdaba1c	0.026700072
150	0x3c40bd49	0.011763879
151	0xbc5b002d	-0.013366741
152	0xbc508882	-0.0127278585
153	0x3c86804f	0.016418604
154	0x3c77a56b	0.015115122
155	0xbaa989d5	-0.0012934754
156	0x3ba3cafc	0.004998563
157	0x3ca065c4	0.019579776
158	0x3ae5bc13	0.0017527364
159	0xbc3a0fa6	-0.01135627
160	0x3b8848fb	0.0041590906
161	0x3aad9379	0.0013242803
162	0x3c6cfe7a	0.014464969
163	0xba733876	-0.00092781277
164	0xb8e89bb4	-0.00011091624
165	0xbc243331	-0.010021971
166	0xbbc3cf5e	-0.005975648
167	0xbc3b228c	-0.011421811
168	0xbbc31181	-0.0059530144
169	0xbc28422b	-0.010269682
170	0xbb7e1bbb	-0.0038773853
171	0x3badf248	0.005308423
172	0xba8236d9	-0.0009934559
173	0xbb009de0	-0.001962535
174	0xbaade4f9	-0.0013267092
175	0xbc1b0d96	-0.009463688
176	0xbbdbb5eb	-0.006705036
177	0xbabd8f02	-0.0014462175
178	0xbb74b381	-0.0037338438
179	0x3ba7580e	0.0051069325
180	0x3c35dbcb	0.011099766
181	0xb986e5fc	-0.00025729823
182	0x3a32f0a5	0.000682602
183	0xbb7f73e4	-0.0038978988
184	0x3aa632ff	0.0012679993
185	0xbc741c63	-0.014899346
186	0xbb9d655d	-0.004803343
187	0xbbc6a903	-0.0060626282
188	0xbbe2a0c4	-0.0069161374
189	0xbc500057	-0.0126953935
190	0xbc9701fa	-0.01843356
191	0xbc5f8e61	-0.013644786
192	0xba58908c	-0.0008261285
193	0xbbb28d8c	-0.0054490026
194	0xbbc5c403	-0.0060353293
195	0x3b02cf2c	0.001995991
196	0x3cd254ae	0.025675144
197	0x3ad9e674	0.0016624467
198	0xbb70a7ce	-0.0036721113
199	0xb9f685da	-0.00047020504
200	0xbc058dee	-0.008151514
201	0x3c28edf7	0.0103106415
202	0xbcb6c8f8	-0.022312626
203	0xbbecfa12	-0.007231959
204	0xbc4e4cbf	-0.01259154
205	0x3b2d1f33	0.0026416301
206	0xbc762231	-0.0150228
207	0x3baa6294	0.0051997397
208	0xbaee7244	-0.0018192013
209	0x3a1cb856	0.0005978396
210	0xbb8a6844	-0.004223855
211	0x3c160cc6	0.009158319
212	0xbbe1def8	-0.006893035
213	0x3c4be98a	0.012445817
214	0xbc70a89e	-0.014688639
215	0xbbeba205	-0.007190945
216	0xbc6bbcc7	-0.01438827
217	0xbc33b30f	-0.010967984
218	0x3c260d8c	0.010135066
219	0x3c32d56d	0.0109151425
220	0xbc6d2c2c	-0.014475863
221	0xbb84c3ce	-0.004051662
222	0x3be19038	0.0068836473
223	0x3c304b60	0.010760158
224	0x3beacae6	0.0071653007
225	0xbc1d5944	-0.009603802
226	0xbb2e90c1	-0.0026636573
227	0xbb1d792b	-0.002402852
228	0x3c12548a	0.0089312885
229	0x3c1aa5cc	0.009438943
230	0x3c322f1d	0.0108754905
231	0x3abab82b	0.001424556
232	0x3c75b9d3	0.014997917
233	0x3b0fcdab	0.0021942656
234	0xbaa16bbd	-0.0012315434
235	0xbc1fda0f	-0.009756579
236	0xbc84cd5f	-0.01621121
237	0xbc2fbc68	-0.010726072
238	0xbbec502d	-0.007211706
239	0xbcbb9472	-0.022897933
240	0x3cc2fd18	0.023802325
241	0xbc7ef731	-0.015561865
242	0xbd26a37a	-0.040683247
243	0x3c7dcedf	0.015491216
244	0xbadf09a0	-0.0017016418
245	0x3c2d3d6b	0.010573725
246	0xbc075f5f	-0.008262484
247	0x3b2e0ccf	0.0026557927
248	0xbb3c7b3f	-0.0028759984
249	0xbbf438d6	-0.0074530644
250	0xbb7488e7	-0.0037313045
251	0x3bb023af	0.0053753476
252	0xbcaf10e0	-0.021370351
253	0xbc55e488	-0.013054974
254	0xbb34671c	-0.0027527278
255	0xbcaa8768	-0.02081652

bias f4 [80]
0	0x3b023c4d	0.0019872368
1	0x3d89c410	0.06726849
2	0x3d079c38	0.033107966
3	0x3c0515ac	0.008122843
4	0xbc668bbd	-0.014071402
5	0xbc6fc702	-0.0146348495
6	0x3ce13f77	0.027496083
7	0xbd16ae55	-0.03678735
8	0xbb71e7fd	-0.0036911957
9	0xbccf47a1	-0.02530271
10	0xbbdf1c89	-0.0068088216
11	0x3d96cbd0	0.07363093
12	0x3d7fcd4b	0.062451642
13	0x3c27e552	0.010247545
14	0x3943d3b4	0.00018675515
15	0x3d716e7a	0.05894325
16	0xbcf339d7	-0.029690666
17	0xbd52d76b	-0.05147497
18	0x3cc19649	0.023631232
19	0xbcb9a504	-0.022661693
20	0xbd3276f4	-0.043570474
21	0x3d5b20d8	0.05349812
22	0x3d07c449	0.033146176
23	0x3d69530f	0.056963976
24	0xbd4320b3	-0.047638606
25	0xbd647d52	-0.055783577
26	0x3cc9e414	0.024644889
27	0xbd4f5acf	-0.05062371
28	0x3cd49a1e	0.025952395
29	0x3a41ccfb	0.000739291
30	0x3c662778	0.014047496
31	0xbcf0c192	-0.029389177
32	0x3cd4138f	0.025888233
33	0x3d6a89ab	0.057260197
34	0xbd237421	-0.03990567
35	0xbda6d394	-0.08145824
36	0x3d81d3ab	0.063392006
37	0x3d4de0d6	0.05026325
38	0xbd10af36	-0.035323344
39	0xbd42d9f4	-0.047571138
40	0x3d610f17	0.05494603
41	0x3b3aab00	0.0028483272
42	0x3d4fb3a2	0.05070842
43	0x3cf681a7	0.03009112
44	0x3d884a88	0.06654841
45	0xbd1b830f	-0.037966784
46	0xbbfb55d1	-0.007670142
47	0x3cb25eda	0.021773744
48	0xbc8a078b	-0.0168493
49	0x3c2bc040	0.010482848
50	0xbc188d36	-0.009311011
51	0xbd37ee7d	-0.044905175
52	0x3ca2a314	0.019853152
53	0x3cd0ed81	0.025503876
54	0x3d79ca5f	0.06098401
55	0xbcc9df56	-0.024642628
56	0x3cada61f	0.021197377
57	0x3d3e08da	0.04639516
58	0xbc93de5c	-0.018050365
59	0xbc648690	-0.013948098
60	0x3c1cb995	0.009565731
61	0xbd4b25db	-0.04959665
62	0x3d6def55	0.058089573
63	0x3d935ebf	0.07195806
64	0x3d634cd7	0.055493202
65	0xbc776205	-0.015099053
66	0x3cc8ed86	0.024527323
67	0x3d305e9d	0.04305898
68	0x37a8a5b3	2.010432e-05
69	0x3dbba99d	0.091632105
70	0x3d998f70	0.07498062
71	0xbd265f58	-0.04061827
72	0xbd4b2e44	-0.04960467
73	0x3d6eb2db	0.05827604
74	0x3c86d583	0.016459232
75	0xbd9bbe3b	-0.07604643
76	0xbd2afeea	-0.04174701
77	0x3da99886	0.08281045
78	0xbcd0d451	-0.025491865
79	0x3d9db7d6	0.077010795
