GAN/urban_demand_GAN_gen_150_epochs.pth (torch, 673814 bytes, 31 tensors)

weight f4 [1, 80, 1]
000000 a4 d9 bb bb f5 08 39 bc e8 15 d9 3b d7 4a 69 3c
       -0.005732732 -0.011293639 0.006624926 0.014239035
000010 9f 93 86 bc 1e c2 31 3c 19 8b a1 bb 3c 36 32 3c
       -0.016427813 0.010849504 -0.004929912 0.010877188
000020 a9 63 1d bc e4 de 57 bc 1d 75 9e 3b 38 3d d2 bb
       -0.00960628 -0.0131757 0.0048357383 -0.0064159892
000030 b3 85 a8 3c 35 cf 40 3c 77 b3 93 3c a0 83 7f bc
       0.020571565 0.011768152 0.018029911 -0.015595347
000040 16 90 94 bc c4 dc 4c 3c 5a bb 7f bc 73 f7 74 3b
       -0.018135112 0.0125038065 -0.015608633 0.0037378937
000050 be bc 4c bc 77 2e 62 3b 92 6c 4f bc c5 6c 24 3c
       -0.0124961715 0.0034512558 -0.0126601625 0.010035698
000060 eb 28 62 bc d9 84 9b 3c 7e 64 9e 3c 83 e3 04 3c
       -0.013803701 0.018984245 0.019335028 0.008110884
000070 00 b7 69 3c 49 61 91 3c d1 39 80 bc d7 32 75 bc
       0.014264822 0.017746584 -0.015652569 -0.014965734
000080 25 ba 2b bc 91 1a 92 bc a7 12 bd bc bb b8 5a 3c
       -0.010481392 -0.017834933 -0.023080183 0.013349707
000090 50 93 16 bc 01 c3 0c 3c 89 38 ec bb 85 ce c8 3b
       -0.0091903955 0.008591414 -0.007208888 0.0061281347
0000a0 16 ad 61 bb 77 da 03 bc b7 10 3e bc 42 7e 4c bb
       -0.0034435443 -0.008047692 -0.011600665 -0.0031203185
0000b0 a2 df 56 3c b6 e8 8e 3b 53 c9 18 bc 17 e7 84 bc
       0.013114842 0.0043612374 -0.009325343 -0.016223473
0000c0 38 d2 3d bc dd a7 9d 3c 7b 80 f0 bb 78 ef 57 bc
       -0.011585765 0.019245083 -0.007339535 -0.013179652
0000d0 0b 35 7e 3c d6 d1 1f 3c 0a bd 01 3c 25 ca 49 3c
       0.015515576 0.009754619 0.007918606 0.012316261
0000e0 e1 c8 de bb 89 e6 d8 bb 41 39 23 bc 51 8f 4c 3c
       -0.006798849 -0.006619279 -0.009962381 0.012485341
0000f0 87 4c 06 bc 4f 21 ca bb 3e d8 96 3b 11 2e 60 bc
       -0.0081969565 -0.0061685215 0.004603415 -0.013682858
000100 d3 89 b6 bb a7 72 09 bc a1 b8 b1 3c bb a4 0c bc
       -0.005570629 -0.008389152 0.021694483 -0.008584197
000110 60 6b b1 bb e0 d0 4b bc e5 a5 a9 3c 20 78 12 3c
       -0.0054144114 -0.012439936 0.020708987 0.008939773
000120 22 e6 fd 3b c5 ee bf 3b 03 97 1d bc 5a cf 97 b8
       0.0077483812 0.005857321 -0.0096185235 -7.238863e-05
000130 99 ab c5 3c b7 dd 9a bc 94 73 66 3c be 0f 20 3b
       0.024129676 -0.01890455 0.014065642 0.0024423446

weight f4 [80, 3, 1]
000000 8b e8 32 bd 8f dd 0a bd b2 57 09 3d 4c f4 00 3d
       -0.0436788 -0.0339027 0.0335309 0.03148298
000010 76 36 31 3d 28 fb e6 bc 18 09 fc 3c c2 ac 08 3d
       0.04326483 -0.028195933 0.030766055 0.03336788
000020 a8 30 c4 bc b1 c7 97 3c 37 96 9c 3c 45 da 03 bd
       -0.023948982 0.018527837 0.019114597 -0.03219058
000030 8d 04 df 3c fe 75 01 3d b6 22 17 bd fd f4 86 3c
       0.02722385 0.031606667 -0.036898337 0.016474241
000040 8b 61 2a 3d 89 e0 a5 bc 20 c7 d8 3c 6e e9 05 3d
       0.04159693 -0.020248668 0.026462138 0.03269332
000050 e3 56 13 bd 84 6a 1e bd 33 2d d5 bc 45 94 53 3d
       -0.035971534 -0.0386758 -0.02602253 0.051655073
000060 fa 3a 66 bc 96 d9 d6 bc e6 2a 37 3d ea a7 0b bd
       -0.014052147 -0.0262268 0.044718646 -0.034095682
000070 68 86 2f bd 8b 53 d7 3c 8a 26 19 3d ee d0 03 3d
       -0.04285279 0.026284954 0.03739027 0.032181673
000080 e3 43 2f bd 34 75 38 3d 8e 4f d2 3c 35 67 45 bd
       -0.04278935 0.04503365 0.0256727 -0.04819413
000090 cc fb 2c 3c 11 ba 4f 3d ad de e5 bc 2a 27 3a bb
       0.01055808 0.050714556 -0.028060282 -0.0028404691
0000a0 88 ea eb bc af e1 a2 bb c0 6e e8 3c be 16 14 3d
       -0.028798357 -0.0049707512 0.028373122 0.0361545
0000b0 88 01 1d bd d1 3d 09 3c 7e 52 67 3c 73 33 91 bc
       -0.03833154 0.008376555 0.014118789 -0.017724728
0000c0 c1 d8 24 bd b1 c1 20 bd 56 e7 2a 3d d6 2c 0d 3d
       -0.040245775 -0.03924722 0.041724525 0.034466587
0000d0 95 70 b4 3c f1 86 22 bd 00 be f6 bc 2a 9c 3d bd
       0.02202634 -0.03967947 -0.030119896 -0.046291508
0000e0 1c 40 38 3d 94 bc db bc 58 20 10 bd 37 65 ba 3c
       0.044983014 -0.02682332 -0.035187095 0.022753341
0000f0 92 b0 17 bd d0 a6 cd bc 3f 2f 0b 3d c5 5b 9e 3c
       -0.037033625 -0.025103956 0.033980604 0.019330868
000100 b1 98 02 3d 02 ea 1e bd 94 e4 40 bd e8 10 2d bd
       0.0318839 -0.038797386 -0.04709299 -0.04225245
000110 e5 24 2a 3d 50 e3 1e 3d da 9b eb 3c 91 75 20 bd
       0.04153909 0.038791 0.02876084 -0.03917462
000120 d6 1d 40 bd 6f a7 00 bd a7 83 34 3d cf a8 2b bd
       -0.046903454 -0.031409677 0.044070866 -0.041909035
000130 d5 98 ce bc f4 6f df 3c 93 10 eb 3c 9c 02 e4 3c
       -0.02521936 0.027275063 0.028694427 0.027833275
000140 b7 cd cc bc 70 d8 2b bd 8a 41 1b bd 16 57 47 3d
       -0.025000436 -0.041954458 -0.0379043 0.048667036
000150 2d 38 be 3c 0d 5f 05 3d e7 4d e9 bc f3 a8 7e bb
       0.023220146 0.03256135 -0.02847953 -0.0038858026
000160 9d 7e fb 3b 95 fe a8 bc 0c 6d 2a bd 35 01 ef bc
       0.0076750056 -0.020629207 -0.0416079 -0.02917538
000170 f7 62 45 3d 60 41 1d 3d f5 b0 16 3d 3e 6c 25 bd
       0.048190083 0.038392425 0.036789853 -0.04038643
000180 58 b6 cf bc c5 37 13 bd 2d 67 1e 3d 59 36 23 bd
       -0.025355503 -0.035941858 0.038672615 -0.03984675
000190 1e cc f3 bc cc 21 27 3d 6b 67 f7 3c 8f 8e ed 3c
       -0.029760417 0.040803716 0.03020068 0.028998641
0001a0 92 42 28 bd dc a1 8e 3c 92 34 1d 3d 34 e7 f8 bc
       -0.04107911 0.017411165 0.038380213 -0.030383684
0001b0 19 95 b9 3c a1 2a 80 3c eb 24 e8 ba cc bc 09 bd
       0.022654103 0.015645327 -0.0017711198 -0.033627316
0001c0 53 7d 19 bd e8 60 c6 3c d1 44 3b bd 74 a5 2e bd
       -0.037473034 0.02421613 -0.045719925 -0.042638257
0001d0 08 1e 4e 3d ea 0b 29 3d cd f1 0d 3d 67 a4 1f bd
       0.05032161 0.041271128 0.034654427 -0.038975146
0001e0 e6 5c 01 3d 3c 39 bb 3c 50 58 99 bc 51 aa 52 3c
       0.031582735 0.02285444 -0.018718868 0.012857989
0001f0 1d 59 71 3c f5 e7 ae bc 04 03 05 3c 95 42 b0 3c
       0.014730719 -0.02135084 0.008118395 0.021516124
000200 6a 28 3b bc cc 7e de 3c be 6a c5 3c 7f 68 32 bd
       -0.01142321 0.02716007 0.02409875 -0.043556686
000210 c3 62 15 3d 7c ac a5 3c ed a7 87 bc 91 6b 39 3d
       0.03647114 0.020223849 -0.016559565 0.0452686
000220 b9 8a aa 3c 28 1a 52 bd 3d e4 cf 3c 55 cc 1e 3d
       0.020818101 -0.051294476 0.025377387 0.038769085
000230 69 6b 08 bd 4a 5e ee bc eb 0c 3f bd e3 7c 0b 3d
       -0.03330556 -0.029097695 -0.04664318 0.034054648
000240 7f 6b 25 bd 16 df eb bc 82 eb 27 3d 1b cd de 3c
       -0.04038572 -0.0287929 0.040996082 0.027197411
000250 e2 aa d5 3c b2 f5 cd bc 42 cb f3 3c 49 38 95 3c
       0.02608246 -0.02514157 0.029760007 0.018215315
000260 e2 75 10 bd fa 14 4d 3c 81 38 5e 3d d0 6f 1f bd
       -0.03526867 0.012517208 0.054253105 -0.038924992
000270 ce e8 f9 3c 5c 93 18 3d c6 27 df bc 02 de bc ba
       0.030506518 0.037249908 -0.027240645 -0.0014409425
000280 24 76 34 3b 3c fb 7b bb 89 37 58 bd ca c9 2e bd
       0.0027536238 -0.0038449308 -0.052787337 -0.04267291
000290 1b f2 29 3d 5a 49 d0 3c 0b 15 28 3d f0 c3 25 bd
       0.041490655 0.025425602 0.041035693 -0.040470064
0002a0 5a 46 b7 3b 68 5c d2 3c a1 72 1b bd 7d cf dc 3c
       0.0055931034 0.025678828 -0.037951116 0.026954407
0002b0 ba 1f b6 3b 32 6f 2d bd ed a6 0c 3d 1a ee 3b 3d
       0.0055579813 -0.042342372 0.03433888 0.04588137
0002c0 f9 d5 b1 bc b8 65 0d 3d e9 51 e3 3c 25 d6 2e bd
       -0.021708475 0.034520835 0.027749019 -0.042684693
0002d0 ca 89 e9 bc 01 9c 1d bd fb 5c fa 3c 91 1a cf 3c
       -0.028508086 -0.038478855 0.030561915 0.025281223
0002e0 e5 1e 93 3c 38 a1 28 bd 2e 15 70 3b 5b 08 86 3c
       0.017959068 -0.041169375 0.0036633718 0.016361406
0002f0 83 b6 5d bd cb 44 1a 3d c8 2b 46 3d a1 30 2a bd
       -0.054129135 0.037663262 0.048381597 -0.041550282
000300 19 6a a8 3c 3f 4a 19 3d 18 39 0f bd db d1 21 bd
       0.020558404 0.037424322 -0.03496656 -0.039506774
000310 3f 55 e8 bc bc cc 08 3d 35 86 13 3d f6 db e2 3c
       -0.028360961 0.033398375 0.03601666 0.027692776
000320 f5 7f 16 bd 19 d1 17 bd 45 b9 c6 bc f6 43 26 3d
       -0.036743123 -0.037064645 -0.024258265 0.040592156
000330 a1 a8 b5 3c 00 2f 2a 3d 19 9f 14 bd 27 e2 b6 bc
       0.022175135 0.04154873 -0.03628454 -0.022324635
000340 5c 80 3e bd ea 58 5e 3d c8 b3 d5 bc ae c6 b2 bc
       -0.04650913 0.054284014 -0.026086703 -0.021823253
000350 1b cc 16 3d f5 53 05 bd fe f9 16 bd a6 34 2d 3d
       0.036815744 -0.03255077 -0.036859505 0.042286538
000360 b6 de 06 3d f6 f1 e9 3c f8 56 11 bd 2c cc c2 bc
       0.032927237 0.028557759 -0.03548333 -0.023778997
000370 e0 f9 59 bd 17 60 12 3d 49 6f 40 bd 28 40 c9 bc
       -0.053216815 0.03573617 -0.04698113 -0.024566725
000380 0d 1c 05 3d 9a 90 6c bc 00 e1 1f bd 62 53 1d 3d
       0.032497454 -0.014438773 -0.039032936 0.0384096
000390 41 68 dd bc 9a 6f f2 bc b7 bc b4 3c e5 1f 6f bc
       -0.027027251 -0.029594231 0.022062642 -0.014595007
0003a0 d4 56 76 bb a8 47 ba 3c d4 29 11 3d 63 76 01 3d
       -0.0037588375 0.022739246 0.03544028 0.031607043
0003b0 3d e5 81 bc e2 9a 02 bd 52 42 c6 bc ec 88 44 3d
       -0.01585638 -0.03188599 -0.024201546 0.04798214

bias f4 [80]
000000 b6 04 6e 3e 13 9b 8d be d8 8d df bd ee 4c a3 be
       0.23243985 -0.27657375 -0.109157264 -0.3189463
000010 c0 ab d0 bd a2 ee c2 be 0c 20 bd be 5c 4b 3e 3e
       -0.10189009 -0.38072687 -0.36938512 0.18583435
000020 89 54 2c be 70 4f b3 3e a9 03 32 be 3f 11 d5 be
       -0.16829123 0.35021544 -0.17384209 -0.4161472
000030 ac 99 c9 bd 6d 98 87 be 37 3f 2e be ad 65 06 bf
       -0.09843764 -0.2648348 -0.17016302 -0.52498895
000040 dd e4 a1 3e 81 56 c8 be a6 a0 8f 3e fa 0c 83 3e
       0.3161992 -0.39128497 0.28052253 0.25595838
000050 9f e1 cd 3e 19 15 df be f0 77 d2 3e 56 0b 89 be
       0.40211198 -0.43570784 0.4110713 -0.2676646
000060 69 4a 55 3e 47 ee 09 3f c4 3b a0 bd e7 b8 b2 3b
       0.20829166 0.5387921 -0.078238994 0.005454171
000070 bf cb 04 be a1 9d e6 be 46 dc 88 3e 08 22 11 bf
       -0.12968348 -0.45042136 0.26730555 -0.5669255
000080 38 6b b1 3e 1d b6 da 3e d7 d9 0a 3f 43 b5 03 be
       0.34652114 0.42717066 0.5423865 -0.12862115
000090 91 ec e5 be 72 b3 f3 3d ed c6 9e 3e b5 02 11 bf
       -0.44907048 0.11899461 0.31011143 -0.56644756
0000a0 26 a8 e1 bd e6 d1 a9 be b1 0a 45 bd a0 e6 8c be
       -0.110184 -0.33167952 -0.0481059 -0.27519703
0000b0 f8 cf 6a be 48 bd 37 be 82 2e 0b bf 9a 06 f1 3e
       -0.22930896 -0.17943299 -0.5436784 0.4707535
0000c0 c8 36 f3 3e c5 dd ab bd a1 7e 43 bd 5f 12 6c be
       0.47502732 -0.083919086 -0.047728185 -0.23053883
0000d0 65 7f 03 bf 4f b4 0c bf 75 8f 56 3e 4b 69 9e be
       -0.51366264 -0.5496263 0.20953162 -0.30939707
0000e0 c0 45 b9 be 53 f9 19 bd 19 40 3b be b3 09 39 be
       -0.36186028 -0.03759129 -0.1828617 -0.18070106
0000f0 b6 b2 9a 3c fb 2e f5 bd 01 ba 34 be 3b 8d 89 be
       0.018884044 -0.119718514 -0.1764908 -0.26865563
000100 1b b1 e4 be 74 04 f2 3e 91 c4 64 be 5c 55 18 3e
       -0.4466637 0.47269022 -0.22340609 0.14876312
000110 1a 31 45 be 58 a5 43 3d fb f4 05 3f 08 f8 81 3e
       -0.19257012 0.047765106 0.52326936 0.25384545
000120 64 9a fb be 12 d1 5a 3e b0 ff 09 3f 2f 29 18 3e
       -0.49141228 0.21368816 0.53905773 0.1485946
000130 3f 77 c2 3e da c7 06 3f d7 c1 a3 bd 57 47 eb 3d
       0.37981603 0.526487 -0.079959564 0.11488216

weight f4 [80, 80, 1]
000000 29 64 32 bc 35 2a 89 3b e2 30 ef 3b c0 0a 15 3c
       -0.010888138 0.0041859397 0.0072995285 0.009096801
000010 eb cf 86 3c 1f 1d 6a bc 75 12 69 3c de 3e 21 bc
       0.016456565 -0.01428917 0.014225592 -0.009841649
000020 44 3b 63 3c 3c c7 cb 3b e6 52 12 b9 80 6a 3d bc
       0.0138691105 0.006218819 -0.00013954527 -0.011561036
000030 76 03 22 bc b8 9e b3 3c cb 8f 88 3c 00 5a 35 bb
       -0.00988852 0.021926269 0.016670128 -0.0027672052
000040 32 ad ec bc f0 b2 19 bb 62 73 87 3c 8c 48 86 3b
       -0.02889118 -0.0023452602 0.016534511 0.0040980037
000050 c6 80 70 bc a7 32 5a 3c 9e dc 07 bc fb ef 73 3c
       -0.0146791395 0.0133177405 -0.008292345 0.014888759
000060 7d b4 6d 3a 32 b8 22 ba db e0 e2 3b 78 c6 03 3d
       0.00090677274 -0.0006207257 0.0069237775 0.032171696
000070 6c 42 8e 3c 5f 59 0d 39 3f 94 61 bc 8b 72 13 3c
       0.017365657 0.00013480101 -0.013768255 0.008999477
000080 07 1e 3d bc a9 5f e5 bb c5 04 9a bc 48 e6 e4 3b
       -0.011542804 -0.006999929 -0.018801102 0.0069854595
000090 ae 03 ad 3a 75 76 d6 bb 83 35 71 3c 20 0c 15 bc
       0.0013199949 -0.006544883 0.014722231 -0.009097129
0000a0 07 0b 87 3b 30 2c 65 3c 75 08 95 bc ba d1 a0 3c
       0.0041211876 0.013987586 -0.01819251 0.019631255
0000b0 ab b6 dc 3c 97 be ca b9 16 a0 c5 3c c0 08 b1 bc
       0.026942572 -0.00038670443 0.024124186 -0.021610618
0000c0 18 07 35 3b 26 95 84 3c e5 9c 2f 3a cb a5 89 bb
       0.0027622636 0.0161844 0.00066990993 -0.0042006723
0000d0 78 d0 0e 3b 9c f4 a5 bb 46 c1 a5 bb 0f c8 ad 3c
       0.0021791738 -0.00506456 -0.0050584404 0.02121356
0000e0 83 19 55 3c 7e 69 14 3c ee 56 72 bb 7c cd bd bb
       0.013006571 0.009058354 -0.0036978084 -0.005792318
0000f0 07 b6 e8 ba 62 f6 8a bb b1 80 10 3c 56 a9 c0 3b
       -0.0017754444 -0.004240797 0.008819745 0.0058795614
000100 c2 29 c5 3c 79 f0 b7 bc 4c f4 00 3c b4 bd bc 3a
       0.024067763 -0.022453533 0.007870745 0.0014399798
000110 a7 98 0a bb 20 d4 ef bb cd 24 0e 3b 00 fb 89 bb
       -0.0021148117 -0.0073189884 0.0021689415 -0.0042108297
000120 0c 6e 27 3c b0 50 83 3b 5e fd 2a 3b f0 ae ad 3b
       0.010219108 0.0040074214 0.002609096 0.005300395
000130 01 5b e8 3a 01 61 b2 bb cb db 36 bc e8 4f 2b bc
       0.0017727317 -0.0054436927 -0.011160801 -0.010456063
000140 f3 6a 0f bc d0 16 65 3c 8b 2d 07 bc 62 33 1d 3b
       -0.008753526 0.01398249 -0.008250604 0.0023986925
000150 8d fd 12 bb 21 4d 29 ba 35 3e 29 bc 7d 46 20 bb
       -0.002242896 -0.00064583315 -0.010329773 -0.0024456077
000160 1c 45 d2 3c 5e 7b ba bb 28 dc a4 bc 88 79 61 bc
       0.02566772 -0.005690976 -0.02012451 -0.013761885
000170 59 df 8f bc 59 19 d7 3b b8 47 75 bc 47 47 19 3b
       -0.017562555 0.006564301 -0.014970712 0.0023388432
000180 a0 43 a7 bb 46 63 cf 3a dc 99 fb ba d6 12 8c bc
       -0.005104497 0.0015822432 -0.0019195634 -0.017098825
000190 e3 92 2f 3c 05 20 95 bb 3d 68 52 bc 3f be a1 bc
       0.010716173 -0.004550936 -0.012842235 -0.019744037
0001a0 71 2d 93 3c 37 1e 6f bc f3 a0 9e ba 05 c3 f0 3c
       0.017966004 -0.014594606 -0.001210241 0.029389868
0001b0 fd 01 93 3b 56 5c 09 3c b1 d2 09 bb 49 ef 39 3c
       0.004486321 0.008383831 -0.0021030123 0.011348554
0001c0 c0 6f e7 bb d5 f5 57 bb eb 8a 5c bb bc 52 8f bc
       -0.007062882 -0.0032952924 -0.0033652137 -0.017495506
0001d0 e0 3d 17 3c 1a 61 e2 3c 78 a4 05 3c 41 97 c5 ba
       0.009231061 0.027634192 0.008156888 -0.0015074984
0001e0 cc 04 be bb 27 e9 3b 3c 22 97 84 3b 97 b7 03 3c
       -0.0057989117 0.011469162 0.0040463367 0.008039377
0001f0 8f 5b fe bc 90 b0 fc ba 7c f9 b3 3c 71 30 ca bb
       -0.031049518 -0.0019278694 0.02196955 -0.0061703254
000200 8f 72 a3 3c 98 5b 36 bb 5e d3 89 bc fa 90 1e bc
       0.019952087 -0.002782559 -0.01682442 -0.00967812
000210 60 62 63 bb b3 cd 8c 3c cf 02 e8 3b b2 46 84 bc
       -0.0034696087 0.017187929 0.007080413 -0.016146991
000220 9d fa bd 39 1c df 9a 3a db 84 13 bb 53 29 93 3b
       0.0003623561 0.0011815759 -0.0022509608 0.00449101
000230 38 99 13 3d 1c 95 82 bc fb 75 21 bc 38 e2 03 bc
       0.036034793 -0.015940242 -0.009854789 -0.00804954
000240 49 1f 39 bb e5 ce 87 ba 79 f5 bd bc 7d 84 28 bb
       -0.0028247407 -0.0010361342 -0.02318834 -0.0025713735
000250 cd 6e dd 3b e4 40 ee 3c 16 a4 c1 b9 f1 31 44 bc
       0.0067575932 0.029083677 -0.00036934082 -0.011974798
000260 51 36 f2 3b 67 44 b0 bb 43 ca 06 bc d7 ad 59 3a
       0.007391729 -0.005379248 -0.008226934 0.0008303797
000270 50 9b fc 3b bf 15 0b ba 28 94 cc bc 0f bd 82 3a
       0.0077089444 -0.00053056696 -0.02497299 0.0009974557
000280 ca 4c d5 3c 0d 8c 4f bc fe 25 8f bc b2 8d 15 bc
       0.026037592 -0.012667668 -0.01747417 -0.009128021
000290 eb d6 b0 bc 07 e8 93 ba 0d df 28 bb b6 eb d6 3c
       -0.021586856 -0.001128436 -0.0025767714 0.026235443
0002a0 72 54 22 3b 4d ea d6 3c cb 4d bb bc 99 d9 3f bc
       0.0024769572 0.02623477 -0.022864243 -0.011709594
0002b0 dd 47 ac bc 44 22 00 bd ec 4f 3b bc 7c 53 e8 bc
       -0.02103036 -0.03128268 -0.011432629 -0.028360121
0002c0 f2 94 b4 3c e6 f1 73 bc 0e 2e c2 3b 22 e4 09 3d
       0.022043679 -0.014889216 0.0059259003 0.03366483
0002d0 0f 0f 4e ba 94 28 9e bb 8a d9 7f 3c a7 ea cd bb
       -0.000786052 -0.0048266146 0.01561583 -0.0062840763
0002e0 a3 a2 9d 3c 3d 12 f7 3b ab 75 11 bd 5b ad 5d bc
       0.01924259 0.007540016 -0.035512608 -0.013530101
0002f0 c0 fd 0d bd 7e a7 0f bd bc 4a 92 3c 92 f9 17 bc
       -0.034665823 -0.035071842 0.017857902 -0.009275811
000300 c7 00 88 3c 92 37 bf 3b e6 3e 6c 3c 55 99 e8 bc
       0.016601933 0.005835482 0.014419293 -0.028393427
000310 87 82 85 bc 3f 0f ae 3c 1d 1e df bb 65 55 34 bc
       -0.016297592 0.021247504 -0.0068090097 -0.011006688
000320 bf 43 51 bc b4 66 94 bc 6b 1c c4 bc a0 9b 52 3b
       -0.0127725 -0.018115379 -0.023939332 0.0032136217
000330 80 df c7 bc 75 c1 4c bc 83 b0 0b bd fb 32 92 3c
       -0.024398565 -0.012497296 -0.03410388 0.017846575
000340 70 f9 76 3c 33 18 00 bd e7 9e 18 bc 3c b1 7f bc
       0.015074119 -0.03127308 -0.009315229 -0.015606221
000350 c7 31 2e bb 49 6e 07 bc a8 4a b3 3c 91 5f ac bc
       -0.0026579963 -0.00826604 0.021886185 -0.021041663
000360 a9 22 78 bc be 1c 0e bd 39 b2 76 bc ad c1 d1 bc
       -0.015144982 -0.03469538 -0.01505714 -0.025605047
000370 62 c4 13 3c a2 66 b7 bc 70 d9 94 ba 66 7c a2 bb
       0.009018989 -0.022387806 -0.0011356305 -0.004958677
000380 d9 fc 94 bc cf 7b e5 3c 0a 30 ba bc fb 4a 54 3c
       -0.018186973 0.028013138 -0.022727985 0.01295733
000390 fa ac 57 bc c5 ca ff 3c ad dd c1 3b 84 e4 73 3c
       -0.013163799 0.031224618 0.0059163184 0.014886025
0003a0 d5 3a 16 bc 84 44 d4 3c 1b 75 a4 3c 36 58 94 3c
       -0.0091693 0.025911577 0.020075371 0.018108469
0003b0 16 b1 ce 3c d1 a0 03 3d 6d a7 4f bc c0 50 8f 3c
       0.025230926 0.03213579 -0.012674195 0.01749456
0003c0 5d cc 92 bc ad 60 04 3c 7e 87 51 3a 7c 67 3a bb
       -0.017919714 0.00807969 0.0007992907 -0.002844303
0003d0 c1 85 18 bc 45 c0 6c bc 63 2b 64 3c da 42 c8 3b
       -0.009309233 -0.0144501375 0.01392636 0.006111485
0003e0 5a 52 fe bb 38 c9 70 3c 2b 45 e4 3b 8e 01 f2 b9
       -0.007761282 0.014696412 0.0069662533 -0.00046158995
0003f0 46 bb 1a 3c 4e 43 65 bb 9e ed 8b bb a9 19 e5 bb
       0.0094440635 -0.0034982744 -0.0042702695 -0.0069915843

bias f4 [80]
000000 4a 0f 89 3d fa 31 02 bd 19 c1 32 3d 02 dc 17 3d
       0.06692369 -0.031785943 0.043641184 0.03707505
000010 2e 2f 6a bd c6 bb 64 3c 67 4c 5b 3c 94 df db bd
       -0.0571739 0.013960784 0.013384915 -0.107360035
000020 af 27 d0 bc ea 94 5e 3c 28 5d b6 3d cd 1e 7b 3c
       -0.025409548 0.013585309 0.08904487 0.015327168
000030 d8 b9 c4 bd 8b 87 03 bd 76 87 e6 3d 3d 47 89 bc
       -0.096057594 -0.032111686 0.11256306 -0.016757602
000040 6e 41 ae 3d 85 0e 59 3c c5 34 79 3d e1 0d 22 bd
       0.085085735 0.013248091 0.06084134 -0.039564017
000050 6e 76 e3 3d 80 95 74 3c 5a e0 ac bc 5e aa bd 3d
       0.11106573 0.014928222 -0.021103073 0.092610106
000060 cf f8 27 3d d4 0a 9d bd d4 c3 49 bc 94 77 ab 3d
       0.041008767 -0.07668081 -0.0123147555 0.08372417
000070 2a 9e fb 3c 9a 64 18 bd bb 42 9a bd 39 ac b9 bd
       0.030715067 -0.037205316 -0.07532259 -0.09066052
000080 7a a2 78 3d 8a c7 53 3d f4 a6 c6 bd 6a 5a c4 bc
       0.060701825 0.051703967 -0.096998125 -0.023968894
000090 b8 15 bb 3c ae 6e c4 bd 02 0a ce 3d c6 ff 8b bc
       0.022837505 -0.09591423 0.100605026 -0.017089736
0000a0 32 03 84 bd b1 64 23 3c 64 7d 37 3d fb 71 26 3b
       -0.06445922 0.009972737 0.044797316 0.0025397527
0000b0 0d cd d2 3d 2e 9f 56 3d 2d f8 87 bc e1 e8 97 3c
       0.102930166 0.0523979 -0.016597832 0.018543663
0000c0 86 16 eb 3c 0b b0 43 bd 2c 10 cc bd 18 f8 a0 bc
       0.028697263 -0.04777531 -0.09964022 -0.01964955
0000d0 e0 0f 2c bd ea 5c cf bd 96 cb 54 3d 1d 41 41 bd
       -0.042007327 -0.10125144 0.051951967 -0.047181237
0000e0 f0 6a cd 3d a7 35 11 3d 5e d1 4c 3d 0a f4 f5 3c
       0.10030162 0.035451557 0.050004356 0.030023593
0000f0 cf 01 18 3d 4b d9 7d 3d 75 e0 bd 3d 25 d7 0c bc
       0.0371111 0.061974805 0.092713274 -0.008596216
000100 3d 71 53 bd d5 a4 d7 3c 01 69 52 bd fa a6 6e bc
       -0.051621664 0.026323715 -0.05136967 -0.0145661775
000110 58 79 af 3c 39 3c 3f 3d 31 e6 e7 bd 2d 59 10 3d
       0.021420166 0.046688292 -0.113232024 0.035241295
000120 a4 07 22 bd 48 54 a9 bd fe 37 5a bd 38 be ec 3a
       -0.039558068 -0.082680285 -0.053276055 0.0018062061
000130 7a 3c 62 3d 30 10 c8 bd c3 1f cf 3c 3e 6f c3 3d
       0.055233456 -0.097687125 0.0252837 0.09542702

weight f4 [80, 3, 1]
000000 52 50 13 bd ad a6 d9 bc 40 91 77 3c 8f ff 12 bd
       -0.03596527 -0.026568735 0.015110314 -0.03588825
000010 c2 2e e9 bc 45 75 33 3d ba ff a5 3b fb bb 10 bc
       -0.028464679 0.04381301 0.0050658854 -0.008833881
000020 4c 16 14 bc 77 f1 3d 3d 70 7d 0c 3d 18 37 2c bd
       -0.009038519 0.046372857 0.034299314 -0.04204473
000030 3d 0b d1 bc 71 63 9a bc f1 75 bf 3c b3 97 c6 3c
       -0.025518054 -0.018846245 0.023371669 0.024242258
000040 15 f8 16 3d de 6b 02 bd f7 83 0f bd da 2e 68 bd
       0.036857683 -0.03184115 -0.03503796 -0.056685306
000050 d6 d4 6f 3d f1 0b e0 3c be 67 73 3c 03 04 13 bd
       0.058552586 0.027349444 0.014856277 -0.035892498
000060 a0 1c 0f bd 38 de 53 bd 72 68 5b 3d a1 46 0e bd
       -0.03493941 -0.051725596 0.053566404 -0.034735326
000070 ee 0b 4d bd 89 f6 ca 3c 90 35 31 3d 9d 3f 1c 3d
       -0.050060205 0.02477576 0.04326397 0.038146604
000080 a6 17 2b bd 4a 75 e5 bc e4 00 30 bc dc 89 1c 3d
       -0.0417706 -0.02801003 -0.0107424 0.03821741
000090 09 52 a8 3c 9d ab 31 3d 0f 7e 2c bd 68 1c bc 3c
       0.02054693 0.043376554 -0.042112406 0.022962764
0000a0 a8 ec 6f 3c 7b e2 6d bc ce 14 6f 3d 5f 30 23 3d
       0.014643826 -0.014519329 0.05836945 0.039841052
0000b0 0b 0e 8e bd f5 c0 47 bd 1c 65 96 bd 3b 27 76 3d
       -0.06936272 -0.048768003 -0.07343504 0.060096007
0000c0 ad 98 90 bc a5 6a 3a bd d7 83 c5 3c 9e 03 05 3d
       -0.017650926 -0.04551186 0.024110718 0.032474153
0000d0 87 26 e9 3c df ad 04 bd cf a3 06 bd 64 10 e1 bc
       0.028460754 -0.03239238 -0.032871064 -0.027473636
0000e0 40 01 f5 3c f3 67 66 3d cd f5 36 3d f5 0a 40 bd
       0.029907823 0.056251477 0.044668008 -0.04688545
0000f0 8d 72 2d bd a8 e8 47 bd 03 98 65 3d cc 3c 12 3d
       -0.042345572 -0.048805863 0.056053173 0.03570251
000100 99 14 46 3d 04 82 22 bd f1 84 22 bd f1 71 2a bd
       0.048359487 -0.039674774 -0.039677564 -0.04161257
000110 48 41 03 3d f2 f4 ef 3c 9d 46 be 3c 5d 38 d1 bc
       0.03204468 0.029291604 0.02322703 -0.025539571
000120 6e 2b 0c bd fb 14 17 bd 28 c9 35 3d 13 52 11 3d
       -0.034221105 -0.036885243 0.04438129 0.035478663
000130 92 9e 04 3d 53 97 0d bd 6e fe 1b 3d 2b 8e 05 3d
       0.032377787 -0.034568142 0.03808444 0.032606285
000140 6c d7 44 bd 7a 8d fb 3c 0a 6c 3e 3d ea d5 1f bd
       -0.048057005 0.03070711 0.046489753 -0.039022364
000150 73 c4 54 3d 40 b2 63 3d 91 08 2e bd 22 49 28 3d
       0.05194516 0.055589914 -0.04248864 0.04108537
000160 5d a0 de 3c 2b 38 43 bd ab 83 b7 bc 13 e1 fc bc
       0.027176077 -0.047660988 -0.022401651 -0.030869043
000170 f1 27 5a 3d a6 66 3d bd 5f 76 8e bc 74 4a 3e 3d
       0.053260747 -0.04624047 -0.017390428 0.046457723
000180 ed be 36 bd 92 21 31 bd 9a e8 4b 3d 56 40 2f bd
       -0.044615675 -0.043244906 0.049782373 -0.042785965
000190 4b 4c 24 bd 05 e8 4e 3d f8 4d 09 bd 2b 86 17 bd
       -0.04011182 0.05051424 -0.033521622 -0.036993187
0001a0 3b 4b 15 3d 8a a4 f9 3c 27 2e 42 3d 40 c4 88 bd
       0.0364487 0.030473966 0.047407296 -0.06678057
0001b0 e5 fc 26 bd e0 46 08 bd 78 0d d0 3c 19 b0 a0 3c
       -0.040768523 -0.033270717 0.025397047 0.01961522
0001c0 43 31 32 3d 5d a6 1b bd f8 de f1 bc ff 69 5e bd
       0.04350401 -0.038000453 -0.029525265 -0.054300305
0001d0 ac 90 25 3d 7f ea 39 3d 24 72 59 3d 48 c1 63 bd
       0.040421173 0.04538965 0.05308737 -0.05560425
0001e0 7e 66 2b bd 09 d8 58 bd 0e d3 10 3d 47 a8 83 bd
       -0.04184579 -0.052940402 0.035357527 -0.06428581
0001f0 13 48 fc bc c1 86 84 3d e5 f9 08 bd b1 df 18 bd
       -0.030796086 0.06471015 -0.033441443 -0.037322704
000200 2e 86 86 3d df f4 68 bd 3a 10 51 bd d6 e7 1b 3d
       0.065685615 -0.056874152 -0.051040865 0.038062893
000210 20 08 00 3d f8 3e 38 3d ae 49 45 bd 12 eb 5c 3c
       0.03125775 0.044981927 -0.04816597 0.0134837795
000220 f1 6b ff 3c 1b 31 28 bd 16 4d 3e bb 0f 70 3e 3a
       0.0311794 -0.041062456 -0.0029037646 0.0007264623
000230 54 f8 a8 bb 3d cb 99 bb fb c1 e2 bb 17 04 8b 3c
       -0.005156556 -0.0046934173 -0.006920097 0.016969724
000240 36 44 50 bd 4f 16 ea bc 5a 48 0c 3d 37 78 72 3d
       -0.0508463 -0.02857509 0.034248687 0.059196677
000250 53 4d 59 3d 2a 1a 22 bd e6 61 1d bd ad 03 21 bd
       0.053052258 -0.039575733 -0.03842344 -0.039310146
000260 69 44 3b 3d fc 25 49 bd 41 d3 de bc 3e af 15 3d
       0.045719538 -0.04910849 -0.027200343 0.036544077
000270 18 e4 d7 3c 5a ed 21 3d 7d 0d 34 bd f3 81 4a 3d
       0.02635388 0.039532997 -0.043958176 0.049440335
000280 6c 3b 25 3d 4b ce f6 bc 6a b0 1a 3d 00 d0 21 3d
       0.040339872 -0.030127665 0.037765898 0.039505005
000290 27 00 21 bd ff 0f 6e 3d 2b 6e 27 3d 30 2e 55 bd
       -0.039306786 0.058120724 0.04087655 -0.052046
0002a0 86 70 25 bd be 83 33 bd 76 ea 58 3d 30 31 19 bd
       -0.040390514 -0.04382681 0.052957974 -0.037400424
0002b0 b7 d5 27 bd 9b fd 5b 3d 24 85 2b bd 29 25 66 bd
       -0.0409753 0.053708654 -0.04187502 -0.056187782
0002c0 3f a8 20 3d 97 bc e5 3c 27 0c 18 3d 23 3f 4c bd
       0.039222952 0.028044028 0.037120964 -0.0498649
0002d0 6c 20 98 3b f3 38 2c bc 01 26 97 3c 77 5c d7 ba
       0.004642537 -0.010511625 0.018450739 -0.0016430755
0002e0 2b 93 75 bc 5d 6b 8b 3c 2d b5 5b 3d 95 8c 4f 3d
       -0.014988701 0.017018968 0.05363958 0.05067118
0002f0 68 05 88 bd f6 97 25 bd 4e 16 21 bd f0 32 f6 3c
       -0.06641656 -0.040428124 -0.039327912 0.030053586
000300 6d 8d a3 bc b0 73 95 bc 4f de 4a 3a aa 68 fc bc
       -0.019964898 -0.01824364 0.0007738815 -0.030811626
000310 eb de cf bc be 8d ad 3c 4d 78 2b 3d 78 a6 1b 3d
       -0.02537485 0.021185752 0.041862775 0.038000554
000320 ae 3e 73 bd 3a 3b 19 3c 3b 27 d9 3c fc ad c1 bc
       -0.059385948 0.0093525 0.026507964 -0.023642533
000330 c9 3c 2b 3c b5 a9 93 3c 8f cc 92 bc 71 19 b2 bb
       0.010451504 0.018025259 -0.017919807 -0.0054351618
000340 e1 05 50 bc 26 f1 69 bc 27 23 51 3d 4a ca 28 3d
       -0.012696714 -0.014278686 0.051058915 0.041208543
000350 d6 db 80 bd 2f 98 fe 3c 05 7a ef 3c 50 f2 30 bd
       -0.062919304 0.031078426 0.029232988 -0.043199837
000360 61 c3 6f 3d 2f 35 4a 3d a8 b5 49 bd a9 7d cc 3c
       0.058535937 0.049367126 -0.049245507 0.024962263
000370 ca f0 5e 3d da 79 24 bd ef 92 ed bc d2 dc 95 bc
       0.054428853 -0.04015527 -0.029000727 -0.018293772
000380 ab 4e db 3c 1a 84 35 bd de 28 30 bd 69 72 0a 3d
       0.02677091 -0.044315435 -0.043007724 0.033800516
000390 8d ff 19 3c a1 76 08 3d c1 c1 a7 bc f7 11 22 bd
       0.009399307 0.03331626 -0.020478131 -0.039567914
0003a0 47 e4 1c bd 5c c5 bb 3c 0f 62 49 3d 94 51 cf 3c
       -0.03830364 0.022921257 0.04916578 0.025307454
0003b0 50 f7 3b bd 50 c0 47 3d d7 05 4d 3d f4 52 46 bd
       -0.045890152 0.048767388 0.050054397 -0.048418954

bias f4 [80]
000000 d2 80 77 3e a2 d0 cd 3d 44 f5 e8 be cb b9 d2 be
       0.24170235 0.10049559 -0.45499623 -0.41157374
000010 2c e7 94 3e ee 36 8e be f6 ab ca 3e f9 87 cb be
       0.2908262 -0.27776283 0.3958432 -0.39752176
000020 75 46 de 3e ab 4c 95 be 4f f4 69 3e 37 73 27 3e
       0.4341313 -0.29160056 0.22847103 0.16352545
000030 b6 8e e8 be 63 43 95 be cf 43 10 be 15 f8 40 3b
       -0.4542138 -0.29152974 -0.14088367 0.0029444743
000040 62 5e 92 3e 12 df 68 be 08 77 91 3d b2 10 9a be
       0.28587633 -0.22741345 0.071027815 -0.30090863
000050 6a e1 8b be 4b 4d bc 3e f1 d8 1f be 46 dd ff be
       -0.27320415 0.3677772 -0.156101 -0.49973506
000060 88 5b 5f 3c ea 0f ac bd 02 00 23 3e 8a 09 95 be
       0.013632663 -0.08401473 0.15917972 -0.2910884
000070 22 0e bf 3c 7e db 92 be 1b 44 b0 be c4 7a f4 3d
       0.023322169 -0.28683084 -0.3442696 0.11937478
000080 7c 40 35 3e f4 06 dd 3d 47 f5 08 3f 3b fd 55 3d
       0.1770038 0.10792342 0.53499264 0.052243453
000090 82 34 3f 3d e3 cb 95 bd 52 ce 0d bf ad a0 61 3e
       0.046680935 -0.07314279 -0.55392945 0.22033949
0000a0 2e 78 dc 3e ac 76 60 3d d8 48 e4 be f3 ac fc 3e
       0.4306044 0.054800674 -0.44586825 0.493507
0000b0 27 25 ff 3d 40 c0 d0 3e 84 07 7c 3e 65 cb ba 3d
       0.12458258 0.40771675 0.24612242 0.09120826
0000c0 73 8b 2c be d5 59 eb 3d 7a 30 3b 3e 6a b7 30 bd
       -0.1685007 0.114917435 0.18280211 -0.043143667
0000d0 53 a1 bc be 45 52 99 be 53 ff 03 bf 6e c3 67 be
       -0.3684183 -0.2994558 -0.5156147 -0.22633144
0000e0 d6 6b cc bd 10 8d ef 3e 17 e6 9c be 14 cf 10 bf
       -0.099815056 0.4678731 -0.30644295 -0.56565976
0000f0 f8 e6 9e 3e 56 07 f7 3e d0 24 e1 be a9 3c 05 bc
       0.3103559 0.48247784 -0.43973398 -0.008132138
000100 e6 35 27 3e 5e b0 bc 3e 77 8c d6 bd 14 d4 81 3e
       0.16329154 0.36853307 -0.1047601 0.25357115
000110 0f 8c db 3e 7c 8e ab 3e 31 57 8d 3e c8 2f b0 3e
       0.42880294 0.33507144 0.27605584 0.34411454
000120 35 85 03 bf c5 c0 f2 3d cb 22 e2 3e c6 94 e7 be
       -0.5137513 0.11853174 0.4416717 -0.45230693
000130 e8 06 02 bf df 39 f1 be 0f 6e 30 3e 12 cb 06 3f
       -0.5079179 -0.47114465 0.17229484 0.5265361

weight f4 [80, 80, 2]
000000 11 4b 54 38 a5 d5 92 3b 65 1c d0 3a 7f 39 78 3c
       5.061465e-05 0.004481035 0.0015877603 0.015150427
000010 8e cb f2 bb 8a fa 05 3c 3d d6 74 bc 4a 33 c3 3b
       -0.0074095195 0.008177409 -0.0149436565 0.005957042
000020 c6 e7 a4 3b 87 75 96 3c 47 ba ae bc 00 cb 84 b9
       0.0050325124 0.018366588 -0.021329058 -0.0002532825
000030 f6 8b 03 3c 1a 08 82 3b 94 8c dc ba 95 ac 8c 3b
       0.008028975 0.003968251 -0.0016826564 0.0042930343
000040 ff 1e a3 3b 0a b4 c7 3c 6d fb f3 3c 5e a2 db 3c
       0.0049780603 0.024377842 0.029782975 0.026810821
000050 d7 c0 07 bd eb 3c c4 bc d5 e4 33 bb ae a9 1a 3c
       -0.03314289 -0.02395483 -0.0027449627 0.009439869
000060 25 89 82 bc 75 0b c5 bb 3c 45 1e 3c 30 12 00 bb
       -0.015934536 -0.0060133287 0.009660061 -0.001954209
000070 c3 76 da bc 07 ed fc bc 99 81 94 3c 72 83 20 3d
       -0.026667958 -0.030874742 0.018128203 0.039187856
000080 c4 68 7d 3a 79 d4 57 bc 9f 72 65 bc 76 4c 12 3c
       0.00096667954 -0.013173216 -0.014004379 0.0089293625
000090 32 39 25 3b f9 e4 b2 3c 82 40 b5 bb 64 24 c5 bb
       0.0025211093 0.021837698 -0.0055313716 -0.006016301
0000a0 cf 73 1b 3d 3e 96 49 3d 61 00 d9 3b 67 44 d7 bb
       0.03795224 0.049215548 0.0066223596 -0.0065694335
0000b0 bb 35 24 3d 8b 0b 57 3d 14 57 c9 bb 00 0e 3d bc
       0.040090304 0.052501243 -0.0061444137 -0.011538982
0000c0 13 86 0d 3d b4 e2 1b 3d ca 87 ab bb 78 a5 78 bc
       0.03455169 0.038057998 -0.005234693 -0.01517617
0000d0 5c db a6 bc 54 5b 15 bd 1c 4d f5 bb b8 17 85 bc
       -0.02036827 -0.03646405 -0.007485999 -0.016246662
0000e0 c7 83 49 bd 1c b0 1b bd 10 bf 94 bc 10 a0 3b bb
       -0.04919794 -0.038009748 -0.018157512 -0.002862934
0000f0 a1 a2 4d 3c b1 83 f7 3c 51 1d 1f 3d 42 cf 88 3c
       0.012550981 0.030214163 0.038846318 0.01670039
000100 cc b9 14 bb 3e 81 95 3c 6f 61 df 3c 28 ec 5e 3c
       -0.0022693751 0.018250104 0.02726814 0.013606109
000110 9c 52 dc 3c 44 2c 81 3b 5f 1e fd bc 35 c4 5b bd
       0.02689486 0.0039420445 -0.030898271 -0.053653914
000120 e3 8d 67 3c 1b a3 0d 3d 4a e5 ff bc 9a 43 8d bc
       0.0141329495 0.034579378 -0.031237263 -0.017244149
000130 62 f0 fe 3c 86 d3 bd 3c 5b 22 e3 bc 0b d5 34 bd
       0.031120483 0.023172151 -0.027726343 -0.044148486
000140 f8 5b 7c 3c 4f 04 15 3b ef 64 12 3d c7 74 b1 3c
       0.015402786 0.0022738164 0.03574079 0.02166213
000150 ba 12 e7 3c 36 4f a1 3c d9 b3 82 3c c6 63 66 3c
       0.028207172 0.019691091 0.015954899 0.014061874
000160 8d dd db bb 92 0f 13 bd a3 20 bf bc c4 94 bc bb
       -0.0067097605 -0.03590352 -0.023330992 -0.005755039
000170 a8 e8 bb 39 bf 11 80 bb 08 b3 a4 3c 4a 7c e7 3b
       0.00035840762 -0.0039083655 0.0201049 0.007064377
000180 4e ce 46 3d 38 2a 3f 3d 31 76 00 bd 11 db 4d bd
       0.04853659 0.046671122 -0.031362716 -0.050257746
000190 a7 5b e9 3c c6 1a d8 3c 05 1c 15 3d 52 07 18 3d
       0.028486086 0.026379954 0.036403675 0.037116356
0001a0 d1 de 65 3b 50 fc 24 bc 8e 2d 67 bc f9 db 98 bb
       0.0035075436 -0.010069922 -0.014109982 -0.0046648947
0001b0 a1 e4 3a 3c e7 8c 41 bc ba ef 0b bc a3 a5 92 bc
       0.011407048 -0.011813379 -0.008541042 -0.017901247
0001c0 fb 1b 9a 3c 77 f1 0b 3d f1 51 5d 39 80 33 09 3c
       0.01881217 0.034165826 0.00021106728 0.008374095
0001d0 c4 fc 32 3c 9b 33 59 3d ce a5 85 bc a8 1e a3 3a
       0.010924522 0.05302773 -0.016314413 0.0012445049
0001e0 eb af 2f 3b 07 de 0c 3c 1b 4e c8 3c 83 39 80 bc
       0.0026807736 0.008597857 0.024451306 -0.015652424
0001f0 43 c3 74 3b 91 b8 8a bc 90 5d 97 3b 98 02 95 3c
       0.003734783 -0.016933711 0.004619308 0.018189713
000200 67 f3 7f bb 12 bd 7a 3c 5b 3b 14 3b 6c c5 84 bb
       -0.0039054991 0.015303867 0.0022618386 -0.004051855
000210 8e 5e dc bc 70 39 96 bc ad be cc 3a 97 b3 2d bc
       -0.026900556 -0.018337935 0.0015620791 -0.0106019
000220 d8 12 05 3c fc c2 71 3a a7 ec 4f bb e1 10 65 bc
       0.0081221685 0.00092224753 -0.003172675 -0.013981075
000230 83 db fa bc 59 22 14 bd 0d d8 c5 bc 51 27 c5 bc
       -0.03062225 -0.03616557 -0.024150873 -0.0240666
000240 32 46 99 3a 4e 05 ed 3b 4f 13 1c bd ad ce 46 bd
       0.0011693893 0.0072332984 -0.03810435 -0.048536945
000250 5c e0 b8 3c 77 59 94 3b 85 c3 3e 3c 7d 26 1a 3c
       0.02256792 0.0045272666 0.011643295 0.00940859
000260 4b 74 82 bc ec 74 23 bc fa 5f 67 3c 6f f7 84 3c
       -0.015924593 -0.009976607 0.014122004 0.016231267
000270 00 42 7b bc 9d 0b 83 bc 28 dc 82 bc 3e 60 09 bc
       -0.01533556 -0.015996749 -0.01597412 -0.008384762
000280 d4 8e b1 3c 32 ec 8f bc 7b 19 fe 3c 76 2c 32 3c
       0.021674551 -0.017568681 0.03101801 0.010874858
000290 7e 6c e4 3b 53 d4 88 bc cd 90 9c bb d0 bf 1a 3c
       0.006970941 -0.016702807 -0.004778004 0.009445146
0002a0 48 bf 1b 3b dc bc 33 3a da 9d a3 ba 75 1f 8f 3a
       0.0023765136 0.00068564503 -0.0012482957 0.0010919409
0002b0 27 03 11 3c 87 d3 60 bc b3 86 25 bc 26 ee 75 bc
       0.008850849 -0.013722307 -0.010102916 -0.015010392
0002c0 9f ff 6b 3c 39 4a f9 3b 45 4a 4c 3c c9 78 f1 3c
       0.014404207 0.007607725 0.012468879 0.02947654
0002d0 94 cf a4 bc 6b be a7 bb 80 5d 55 3b 52 94 4a 3b
       -0.020118512 -0.005119135 0.003255695 0.003091116
0002e0 00 98 be bc 63 82 a8 bc b7 19 f6 bb d8 a9 d9 3b
       -0.023265839 -0.020569986 -0.0075103897 0.0066425614
0002f0 e9 ca 84 bc 10 9e fa bc 50 74 1f 3d 3b da b1 3c
       -0.016210036 -0.030592948 0.038929284 0.021710506
000300 c1 f7 45 3c 1c 4b 9e 39 82 ac 76 bc 21 90 4c 3c
       0.012082995 0.0003019207 -0.0150557775 0.012485535
000310 b7 c2 88 3c 02 1b 4f 3c db 51 17 bc 88 84 70 3b
       0.01669441 0.0126407165 -0.009235824 0.0036700089
000320 e5 9c 2a 3d 8d a5 c6 3c 7e 7b 90 bc 9a 78 31 bc
       0.041653533 0.024248863 -0.01763701 -0.010831976
000330 84 db ee 3c 62 01 66 3c 58 45 60 bc 65 4d 59 bb
       0.029157408 0.014038416 -0.013688408 -0.0033157703
000340 af 89 71 3c a3 9d 06 3d 5f 31 2f bc b8 0e 0c bc
       0.014742299 0.032865178 -0.010692923 -0.008548431
000350 84 0c 8d bc 0f f7 bf bc 2c d3 8c bc b3 ea 46 3b
       -0.017217882 -0.023433236 -0.017190538 0.0030352294
000360 ad 37 47 bd 0f de 24 bd ee 57 86 bc 7d ad f3 bb
       -0.04863708 -0.040250834 -0.01639935 -0.007436453
000370 5a 33 3d 3c d8 a2 e8 ba 4e ae be 3c 82 0b b5 3c
       0.011547888 -0.0017748727 0.023276474 0.022100214
000380 72 7a 0d 3d 5b 36 8c bb 69 ec 62 3c 35 26 04 3d
       0.0345406 -0.0042789406 0.01385031 0.032263
000390 3f 79 b7 bb 2a b7 b0 3c db 76 1e bd 03 be 30 bd
       -0.0055991705 0.021571714 -0.03868757 -0.04314996
0003a0 d4 a7 b1 3c 12 24 ae 3c ea 5d b8 bc 69 0f 76 bc
       0.021686472 0.021257434 -0.02250572 -0.0150183225
0003b0 b3 cc 69 3c 54 75 2e 3c e0 21 32 bc 37 47 0c bc
       0.0142699955 0.01064809 -0.010872334 -0.008561901
0003c0 87 31 12 bc 09 52 96 3c 22 f3 db 3c 16 bc 89 3c
       -0.008922941 0.018349664 0.026849333 0.01681332
0003d0 04 a4 ea 3c e6 6b 82 3c 01 f3 66 3c ab ab d8 bc
       0.028642662 0.01592059 0.014096023 -0.026449045
0003e0 1c 00 d3 bb 7b bc 04 bd 1c 16 11 bb 74 58 7e bc
       -0.006439222 -0.03240631 -0.0022138422 -0.015524019
0003f0 1e 97 63 3c 33 a9 9d 3c 3a 79 76 bb 3c b3 13 3b
       0.01389101 0.01924572 -0.0037608878 0.0022537252

bias f4 [80]
000000 34 45 8a 3d 16 e0 80 3c 6e 95 b6 3c 6b e0 6c bd
       0.06751481 0.015731853 0.02228805 -0.05783121
000010 c2 3d a7 3b f6 36 3f 3d 03 8a 24 bb 14 83 5a 3d
       0.0051037977 0.046683274 -0.0025106675 0.053347662
000020 e4 15 35 bd 60 e4 44 3d b6 8d 13 bd 13 a5 dc 3c
       -0.04421033 0.048069358 -0.036023818 0.026934182
000030 36 1f 58 bd ab 80 d7 3b 85 87 9c 3d 09 48 07 bd
       -0.05276414 0.0065766177 0.07643036 -0.033027682
000040 4e e6 69 bd bc b6 25 3d 34 33 4d bd 83 02 a8 3c
       -0.0571044 0.040457472 -0.05009766 0.02050901
000050 5f 54 77 bd 25 d4 5c bd f5 b8 84 bd c3 fe ca 3c
       -0.060383197 -0.053913254 -0.0648059 0.024779683
000060 42 aa c2 3b 22 77 4e bd e6 8e 83 bd 23 9e 96 3c
       0.0059407065 -0.050406583 -0.0642374 0.018385952
000070 59 61 6c 3d 43 9f bd bc 21 f1 b6 3c ea 53 8f 3d
       0.057710025 -0.023147231 0.022331776 0.06998427
000080 29 2c 83 3d a4 7f 56 3d 27 02 cc 3c b9 60 17 3d
       0.06404907 0.05236782 0.02490337 0.036957476
000090 3b 81 9a bd ad 6e 88 bd 4f d3 1e bd c1 a4 8b 3d
       -0.0754418 -0.06661735 -0.03877574 0.06818534
0000a0 d1 eb 98 3d bd ae 90 3d dc 88 c8 bc 2c 8c 97 bd
       0.074668534 0.07064579 -0.024479322 -0.073997825
0000b0 a6 db 68 bd b6 f5 63 3d ce 8f ee 3c 70 43 8c 3d
       -0.056850098 0.05565425 0.029121306 0.068488
0000c0 6e 19 b6 3c 14 aa e9 bc c5 cb 91 bd 53 3b 8a bc
       0.022228923 -0.028523482 -0.07118944 -0.016873991
0000d0 c6 e0 1e 3d ff 5f f3 3b 35 eb 27 bd 4e 24 89 3b
       0.03878858 0.007427215 -0.040995795 0.004185236
0000e0 6f 11 42 bd fb 5a cd 3c 0c 35 6f bd ab cc 08 bc
       -0.047379907 0.025067797 -0.0584002 -0.008349578
0000f0 46 32 e5 3c 88 4c 3e bd fc 49 a6 bc d4 c9 5a bd
       0.027978074 -0.046459705 -0.02029895 -0.053415135
000100 a4 bf e7 ba d7 fe ab 3c fe df 11 bd 90 1a 4f 3d
       -0.0017681015 0.02099554 -0.035614006 0.05056244
000110 07 bb 4a bd b2 b7 4c 3d 25 cb 11 3d e2 f6 8a bc
       -0.04949477 0.049979873 0.035594124 -0.016963426
000120 1a 39 30 3d 51 4e 73 3d 19 6f f0 bc 81 38 22 3c
       0.043023206 0.05940086 -0.02934985 0.009901167
000130 69 ea 9e 3d 29 28 6d 3d 20 7f ea 3b 96 4a 57 3d
       0.07759554 0.057899628 0.0071562678 0.052561365

weight f4 [80, 80, 2]
000000 3b 10 6f 3c f5 22 e0 3c fb d0 74 3c d8 5b ba 3a
       0.014591272 0.027360419 0.014942403 0.0014218045
000010 9b ba 7a 3c 7f 03 db 3c 43 92 1a 3c b3 7c 97 bc
       0.015303279 0.026735066 0.009434286 -0.018492078
000020 53 ff ff bb 89 71 ae 3c dc 5b 8d 3c cb 34 c2 3c
       -0.0078124194 0.021294372 0.017255716 0.023706814
000030 ca 4f 0d bc 7a 52 de bc e5 a5 3e 3d 66 77 00 bd
       -0.00862498 -0.027138937 0.046544928 -0.031363867
000040 a1 ac 71 bc ef de 4b bb 97 cd 88 bb 39 a6 88 bb
       -0.014750631 -0.003110822 -0.004174899 -0.004170206
000050 d7 ac fa 3b f9 d6 63 3c 22 96 46 3c be 0a f4 3c
       0.0076499986 0.013906234 0.012120755 0.029790279
000060 f1 95 55 3c 76 ae 21 3c d0 83 6e b9 2e 10 e9 3b
       0.013036237 0.009868255 -0.00022746553 0.0071125245
000070 57 a5 05 3c 72 7a e0 3c 72 1b 9e bc 3e f2 37 bc
       0.008157096 0.027402136 -0.019300196 -0.011227189
000080 6c 57 a2 3b 85 79 7c 3c 91 f8 62 3c 77 2e 03 3d
       0.004954269 0.015409832 0.013853208 0.032026734
000090 76 e5 76 3b 2f e9 ac bc fc 83 92 bc 6e c9 18 ba
       0.003767339 -0.021107284 -0.0178852 -0.0005828355
0000a0 b9 c3 7e 3c 08 51 5c 3c d3 6f d7 3c bf 35 78 bb
       0.015549594 0.013447054 0.02629844 -0.0037873832
0000b0 8a 7c f3 b9 c6 9b e7 bc 4b 45 24 ba de b9 d1 3c
       -0.0004644136 -0.02827252 -0.0006266429 0.025601324
0000c0 f9 0f b6 3b 20 c3 ca 3c b8 ae a4 bb a6 1f 86 bc
       0.0055561033 0.024751246 -0.005025711 -0.016372513
0000d0 ef 03 09 39 99 c2 e9 3b 57 0c 94 3b 40 e4 80 3c
       0.00013066804 0.0071337936 0.0045180726 0.015733838
0000e0 20 03 9f bc b7 b9 a2 bb 8d 28 7d bb 7e 48 29 bb
       -0.01941067 -0.0049659866 -0.0038628906 -0.0025830562
0000f0 1c 84 a4 3b 59 ba 9d bc 1d 49 fb bb 8c 19 a6 bc
       0.0050206315 -0.019253897 -0.007668628 -0.020275854
000100 8e 93 ef bb c2 3d 5b b9 b0 77 ce 3b 9a 89 32 bc
       -0.007311291 -0.00020908474 0.006300889 -0.010897065
000110 69 59 c0 3b 16 49 0c 3d bb fe 75 3b b5 05 16 3d
       0.0058700335 0.034249388 0.0037535864 0.036626536
000120 d3 af 50 bb dc 86 b6 bc 16 a4 99 3c 43 5b d6 bb
       -0.003184308 -0.022281103 0.018755 -0.006541641
000130 e4 dc c2 bb 2a 72 21 bd 77 95 18 3c ea e4 46 3c
       -0.0059467424 -0.039415516 0.009312979 0.012139538
000140 59 f9 1b bb 9a ee 0f bd 53 f1 9c 3c af 0c c4 3c
       -0.0023799746 -0.035139658 0.019158041 0.02393183
000150 54 fe 99 3b 0f 4c 88 bb 57 ed fa bb 79 b3 1f bc
       0.0046995077 -0.0041594575 -0.0076576876 -0.009747379
000160 26 6d c3 3c a6 c4 5a 3c 4c 19 2f bc a5 7a 38 3d
       0.023855757 0.013352549 -0.010687184 0.045038838
000170 f5 82 db bc 9a 42 92 bc f4 4e e1 3b 6b 36 80 3b
       -0.026795844 -0.017854024 0.006875867 0.003912737
000180 9e f5 4a 38 7a 52 b7 3c f6 2f 65 3c 44 f3 a3 3b
       4.83893e-05 0.022378195 0.013988486 0.0050033648
000190 49 11 fe ba 43 c0 fc bc 05 c2 a2 3b ac f4 cb bc
       -0.0019383813 -0.030853396 0.0049669766 -0.024896942
0001a0 2c f3 2c bc 67 2c 07 bd 1e 7f 7e bc 12 3e 37 3c
       -0.010556024 -0.03300133 -0.015533237 0.011184232
0001b0 20 89 19 3c ea 34 aa 3c 65 62 df bb 21 b6 35 bc
       0.009371072 0.020777185 -0.0068171495 -0.011090786
0001c0 d2 26 71 bb a7 2e d2 3c 88 bc a5 bc 66 bc 05 bc
       -0.003679682 0.025657011 -0.0202315 -0.0081625935
0001d0 43 68 81 3c 4e 31 bd 3c f1 e5 24 bb 86 e3 61 bc
       0.015796786 0.0230948 -0.002516147 -0.013787156
0001e0 5f 6c b6 bc 16 14 86 bc 1c 9e 55 39 ac 02 be bc
       -0.022268472 -0.016367 0.00020372163 -0.023194633
0001f0 c0 b5 3d 3c 9d ab eb 3b 6d 4d 8b bb 80 41 b3 3b
       0.011578977 0.0071920888 -0.004251173 0.0054704547
000200 fc dc 66 3b d2 fd 02 3b 66 ba 45 3c e7 92 db 3c
       0.0035226932 0.0019987714 0.012068367 0.026803447
000210 bf 3a 3a 3c e4 80 84 3c ae 12 eb bc c4 f4 02 3c
       0.011366545 0.016174741 -0.02869543 0.007992927
000220 ab c4 9a 3c 5e 79 26 3d 51 67 02 bb 8c 52 83 bc
       0.018892607 0.04064309 -0.0019898007 -0.016030572
000230 18 03 16 3b 0d c6 23 3d 80 b2 dd bb 24 48 0c bd
       0.0022890028 0.039983798 -0.0067656636 -0.034248486
000240 00 5c 31 3c b2 c1 e4 bb ac ce e6 bc 31 ca d6 bc
       0.010825157 -0.006981098 -0.02817472 -0.02621946
000250 16 aa ca 3a 14 6a ad 3b 74 6d 84 bb 66 ca fa 3c
       0.0015462067 0.0052921865 -0.004041368 0.03061409
000260 c9 54 68 bc 11 b7 b1 3c e4 d1 89 bb fe e3 0c 3c
       -0.014180371 0.021693738 -0.004205929 0.008599279
000270 dd a7 9d 3c 72 19 12 3c cc 03 15 3c bc 92 96 3c
       0.019245083 0.008917199 0.0090951435 0.018380515
000280 e5 a1 05 3c 9d 02 49 3c 80 98 e2 3a ff 2a b0 3c
       0.008156274 0.012268689 0.001728788 0.021504877
000290 50 63 35 3c 09 76 1a 3c b9 08 63 bc 95 07 cd bb
       0.011071041 0.009427556 -0.01385706 -0.0062570074
0002a0 a8 2e f3 3a 86 5c ab ba 16 c6 8d b9 c7 60 ec 3c
       0.0018553333 -0.0013073839 -0.000270412 0.02885474
0002b0 a6 91 f8 bb 4d 7f 03 bd c6 24 d2 3c 49 43 9f bc
       -0.007585722 -0.032103825 0.0256523 -0.019441264
0002c0 6b 39 ab bb f9 5d 26 bc 5c c4 93 3b 0a d4 11 bc
       -0.0052253506 -0.010154241 0.004509492 -0.008900652
0002d0 72 92 7b 3c b5 4a b8 3c 23 07 81 3c 82 33 d1 3c
       0.0153547395 0.02249656 0.015750473 0.025537256
0002e0 99 07 86 3a 5a 38 cd 3c 46 0c c3 bb a1 27 5f 3c
       0.0010225653 0.025051285 -0.005952391 0.013620288
0002f0 18 b8 87 3c f4 a9 fc 3c 47 df 07 bc 0f 52 9d bc
       0.016567275 0.030842759 -0.00829298 -0.019204168
000300 96 55 f6 bb 5d da d2 bc 53 b1 9d 3b 93 23 4c 3c
       -0.007517527 -0.02573889 0.0048123985 0.012459653
000310 a7 37 7c bc 1d f4 e3 bb 06 2c 28 3c 95 db e0 bb
       -0.015394128 -0.006956591 0.010264402 -0.0068621137
000320 45 d1 6d 3c f2 05 0b 3d 6f 87 9c bb bf e6 b1 bc
       0.014515226 0.033941217 -0.004776887 -0.021716474
000330 e0 0c 19 3c 3e eb 26 bc cc 00 90 bc a9 af 54 3c
       0.009341449 -0.010187922 -0.017578505 0.012981334
000340 ce 9e 56 3c 41 37 9b 3b 44 db b5 bc e3 36 f2 3b
       0.013099385 0.0047368114 -0.02219928 0.007391797
000350 5f ac 2c bb b6 02 2d bc c2 de ec ba 82 cc 81 3c
       -0.0026347858 -0.010559728 -0.0018071758 0.015844587
000360 5f 30 f7 bc ef ef 12 3c 7f 7f 7b bb 45 09 2e bc
       -0.030174432 0.008968337 -0.0038375554 -0.010622327
000370 30 08 99 3c 0e 52 0c bc fa f5 cd bb c0 84 b9 bc
       0.018680662 -0.008564485 -0.006285426 -0.022646308
000380 d6 0e eb 39 72 4c b8 bc 6e 44 1a bb 7d c1 3d bc
       0.00044833747 -0.02249739 -0.0023539322 -0.011581776
000390 2d 8f 20 3c 4f ca 5d 3c b2 90 d1 3c 62 a7 ae 3c
       0.009799761 0.013537004 0.025581691 0.021320049
0003a0 f3 dc 77 bc 3c 58 02 bc d2 64 c2 3b 32 f3 0d bd
       -0.015128362 -0.007955607 0.005932429 -0.034655757
0003b0 78 20 8a 3c 65 63 37 bc 55 80 a1 3b c5 38 fd 3b
       0.016861185 -0.011193131 0.0049286284 0.0077277147
0003c0 e2 77 2b 3c e1 15 aa bc f1 05 c8 3a 22 3d c9 3c
       0.010465594 -0.020762386 0.001526056 0.024565283
0003d0 c0 eb ec 3b 4a 1f 6d 3a 29 9b cc 3b c3 35 8b ba
       0.007230252 0.0009045495 0.0062440825 -0.0010620881
0003e0 c9 08 fb 3b 71 68 e8 3c f8 f4 3f 3c 57 5b 7b 3c
       0.0076609594 0.028370114 0.01171612 0.015341601
0003f0 1e 88 9a bb 55 92 2c 3b fc 44 4c 3c c3 0c 58 3c
       -0.0047159335 0.0026332338 0.012467619 0.013186636

bias f4 [80]
000000 0e 33 8b 3c 42 76 5b 3c 40 d2 bc 3c 3b 0e 3f bd
       0.016992118 0.013394894 0.023049474 -0.04664443
000010 a0 e2 d6 bc 8a af 85 bd f4 09 6e 3d 55 39 e8 3c
       -0.02623111 -0.06527622 0.05811496 0.02834765
000020 cc 4f d1 bb 17 1d c1 3c e6 34 f9 bc 7c 62 43 3d
       -0.0063876864 0.023573441 -0.030420732 0.047701344
000030 67 5a d0 bc 76 75 06 3d 48 8f 6f bd 23 43 8c 3d
       -0.025433732 0.032826863 -0.058486253 0.06848743
000040 b1 3e b2 3b 17 da f5 bb 65 0d fa bc 13 2c b9 3b
       0.0054396023 -0.007502805 -0.030523965 0.005651006
000050 f3 96 18 bb 9c 2d 24 bd 31 84 1c 3d bb 66 a4 3d
       -0.0023283332 -0.04008256 0.038212005 0.08027407
000060 f6 ef c5 3b fe 44 97 3c ab 65 a2 3c da 0e 9e bd
       0.0060405685 0.018465515 0.01982387 -0.077176765
000070 8b 0e 98 3d 74 1e c0 3c 89 41 51 3d 83 05 0e bd
       0.07424649 0.023452021 0.05108789 -0.034673225
000080 9a a3 79 bd 79 dd 1a bd e2 31 ec 3c d9 49 45 bd
       -0.06094704 -0.03780887 0.02883238 -0.04816613
000090 6e e3 98 bb 60 66 60 3a 5b aa 3a bc 5e 82 84 bd
       -0.0046657836 0.0008560177 -0.011393155 -0.06470178
0000a0 d2 fa 1d 3d 69 35 eb 3c 29 15 a9 3d f2 a1 46 3d
       0.03856928 0.028711991 0.08255989 0.048494287
0000b0 cd 5b 0f 3b f3 c8 5e bd bc 87 96 3c 07 a0 1f b9
       0.0021874786 -0.05439086 0.01837527 -0.00015223036
0000c0 46 10 83 bd ac a4 c3 3c f5 ec 8c bd e2 d9 9a 3d
       -0.06399588 0.023882233 -0.068811335 0.07561089
0000d0 4f 28 80 bc 8e 42 d9 bb 7c 53 40 3d 81 f1 e0 3c
       -0.01564422 -0.0066302484 0.046954617 0.027458908
0000e0 47 46 2c bc cf 69 12 bd 60 f4 58 3d f4 95 0a bd
       -0.010514802 -0.03574544 0.05296743 -0.033834413
0000f0 9f 73 89 bb 7f 55 79 3b f0 3a 39 bd 97 0f 84 bd
       -0.0041946913 0.0038045344 -0.045222223 -0.06448286
000100 d3 bd a1 bd af b8 75 bd 90 f1 87 bd 4f 97 8d 3d
       -0.07897534 -0.05999058 -0.06637871 0.069136254
000110 c5 fe da 3c eb b1 98 bd a4 c8 61 bd c4 da 99 3c
       0.026732812 -0.0745581 -0.055122986 0.018781073
000120 97 70 39 3c e5 01 8e 3d 00 dc 44 3d 2f 7d 6e bc
       0.011318347 0.06933955 0.04806137 -0.014556213
000130 51 ca 12 bd 7b 34 26 bd 77 d3 80 bd 8f 3b 27 3d
       -0.035837475 -0.040577393 -0.06290334 0.040828284
