GAN/NO Generator/NO_epochs=500_seq=60_batch=5.pth (torch, 674918 bytes, 31 tensors)

weight f4 [1, 80, 1]
00000000: d262 ad3b e510 1abb 8713 ac3c 99a6 bf3a
00000010: 4594 05bc 4a7e 313c fdfc 1cbc 4978 80bb
00000020: 3c47 b33a 6bc1 5b3b 52b4 053a 0c99 02bb
00000030: c7aa 773b dfb6 8cbc 92bc 4dbc 9098 6dbc
00000040: 1954 99bb ee2a f23b 8373 34b9 7b01 2f3c
00000050: 4aa2 bfb9 b078 d8ba 8792 4cbb ee07 523c
00000060: fd0e 4c3c b4e7 2fbb 18cb b3b7 ec0b 05bc
00000070: 493b 3e3c 55ac 15bc 453a d03b 728f 753b
00000080: c0f7 1739 a4be c4ba 395b cb39 21da 13bc
00000090: 9936 f1ba 0873 ae3c 66f8 ba3b a71f d9ba
000000a0: f4fe 3cbc 2604 5abc c4dd 8abc 2dbe 28b9
000000b0: 8234 dcbb 1703 32bc 6e01 e838 811e 87b9
000000c0: bbcb 1f3b b4d1 df3a 2cc8 fcbb 9cf3 10b9
000000d0: 6139 07bc be6c cb3b 98bc c93c 4feb 1eba
000000e0: b531 51bc 4df0 4e39 922d e4ba 9cc2 bf37
000000f0: 160f cdbc 6bc6 14bb 67c1 44ba fb4e c93c
00000100: 15dd 94bc abae 2fbc 2ac6 81bc a568 24b9
00000110: 4e87 9b3b e6e0 b63b d35d 43ba 9fdd 413c
00000120: 1590 f23b 0608 9b3c 6162 253b 86b9 6d39
00000130: 9a39 56ba d0ff 5dbc ac1d f83b a02b 493b
0.0052913213 -0.0023508605 0.021005405 0.0014621794 -0.008153026 0.010833332 -0.0095818015 -0.003920589
0.0013677846 0.0033532034 0.0005100417 -0.0019927649 0.0037791 -0.017177043 -0.012557166 -0.014501706
-0.0046792147 0.0073903715 -0.00017209169 0.010681505 -0.00036551274 -0.001651546 -0.0031215267 0.012819273
0.012454745 -0.0026840987 -2.1433036e-05 -0.008120518 0.011610814 -0.009135325 0.0063546025 0.0037469533
0.00014492776 -0.0015010429 0.00038787143 -0.009024174 -0.0018403112 0.021295086 0.005705881 -0.0016565219
-0.011535395 -0.013306653 -0.01695145 -0.00016092575 -0.0067201266 -0.0108649945 0.000110628884 -0.00025771934
0.0024382907 0.0017076046 -0.007714292 -0.00013823662 -0.008253426 0.0062080314 0.024626061 -0.00060622854
-0.012768199 0.0001973521 -0.00174086 2.2859596e-05 -0.025031608 -0.0022701274 -0.0007505626 0.024573794
-0.018171826 -0.010722796 -0.015841562 -0.00015679242 0.004746354 0.005581009 -0.00074526406 0.011832624
0.00740243 0.018924724 0.002523564 0.00022671194 -0.00081720355 -0.01354976 0.0075718965 0.0030696169

weight f4 [80, 3, 1]
00000000: 47a3 b1bb fcd7 3e3b 1e7e 0f3c 7c5d 9f39
00000010: 2e6d bf39 66da 98bb 0369 b03b 5119 873b
00000020: b611 c23b 8e7d 013b 2136 013b 21ae 3e3c
00000030: bd67 bfbc cea2 5f3c cf44 4cbc 668c 6c3b
00000040: ed4a 213c cfab a4bb 9176 763b 559e 4fbb
00000050: f950 2cbb 2385 5dbc e616 17bc 2ad4 223c
00000060: 56c5 09bc 6294 0cbc 42e9 fe3b 8bab 163c
00000070: 5121 21bc a836 c33b aca7 b13b 37ff c5ba
00000080: 3f17 e43b 1723 7a3b 929f 393c d33c ef3b
00000090: fccf 99bc 83bc 5c3b d366 243b adeb afbb
000000a0: 7fdf 03bc 1af1 be3c 9b47 a1bc 6fbd 8e3b
000000b0: 158d 32bc ffe6 bfbb c463 9639 9dd9 eeba
000000c0: e477 9dbc 7d64 36bb 57e1 bebb 7364 953b
000000d0: e4bc 9039 2731 8e3c 1e1a ca3a 0146 9d3b
000000e0: e6d9 413c 5bf2 08bc bf60 773c ce73 b73b
000000f0: 5419 953a 1101 41bc 720a 603c c06c fdbb
00000100: e635 083c 355e 1d3c 5956 4fbc 1b11 49bc
00000110: a45f 20bc 851b 893b ee61 eab9 1f7e 7a3b
00000120: 2db4 36bc 8449 d53b df4f 2ebc adbc 27bc
00000130: 975d 55b9 4479 b73b 07d1 b7ba 4c40 813c
00000140: 15f2 cfbb 5bdf 45bc bda8 7f3c c234 3dbc
00000150: a5c9 233c bc38 7939 2036 03bc 7c08 053a
00000160: 4ca4 2839 881b aabb 90fb 80bc 8e61 1c3c
00000170: 00d1 70bb e8ae f1bb 5929 7c3c 00ec 15bc
00000180: ee7e 5ebc df55 9039 25ac b9bb 4dca 23bc
00000190: 8949 363c a17a 4cbb 50ff 323c a39f 10ba
000001a0: 4048 49bc 0934 52b9 4df3 e13b 24f8 bcbc
000001b0: 5a53 d03a bba8 52ba 310c 9bbb dfd7 103c
000001c0: b76a 63bc 80e2 e5bb ce31 93bc eab6 e53b
000001d0: 84c9 92ba c132 41bc 083a 40bc 7fdf 983b
000001e0: 2f62 48bb 4654 6dbc 1d00 9d3b b290 a7b9
000001f0: 43b4 dabb f0ca 373b ff62 85bc 2f12 ab3c
00000200: c7b3 4fbb 45f8 883c d6e5 1fbc b567 133c
00000210: 262b e63a 86db f1ba c173 cc39 a266 18bc
00000220: 8f7c 553b 7d1c 20bc ce9d 1c3c 95c8 36ba
00000230: bd1b 3abc 5be4 683c 6f12 583c ef21 493c
00000240: 4ef3 8fbb 2051 2bbb 7912 43ba 955b 4bbb
00000250: 0ad6 353c 89fd 8ebb 50bb 973c c4c7 163b
00000260: b311 fdbb 7beb e53b 3390 113b 54e1 413b
00000270: d3c2 58bb 571c efb9 8dac 4f3c 36aa 74bc
00000280: 3d9e 613b e435 8aba a809 dcba c675 2c3c
00000290: 64ff b3bb 4db0 4fbb 27fd 7639 eaa1 12ba
000002a0: beec a13a d6bc 4cbc bf64 643b 67cd 56bc
000002b0: 13a5 06bc 6789 b33b 170f 783c 674b b23b
000002c0: c2b5 eb3b 3c1b da3b 7fde 3e3c 8720 f639
000002d0: ed97 49bc 87bb 8ebc 83ac 9ebc 810a 113c
000002e0: 18c0 ec39 abec 94ba 927c feba bd97 2f3c
000002f0: d4e4 093c b02a d33c 66fa 7dbc 4558 0b3c
00000300: dc17 0cbb 5602 a53c 0f2b ce3c ae16 363c
00000310: 0ddb 263a 48a2 4bbb bce6 4abb 81ad 333c
00000320: dca9 d2ba 1a39 833b 3132 20ba ff1d be39
00000330: 825c 693c bd2f 063b 0852 293a f4e7 f03a
00000340: efee 283c aed9 3fbc 4238 323b 8d8e 1dbb
00000350: 0527 173c ae67 67bc 9666 193c eaf1 8abb
00000360: 7b34 993c 80f0 c93b 8c7e 393c 0dc8 153c
00000370: 15c9 0abb 20a0 c83c f072 9ebb 811e 18b9
00000380: 46e9 79bb 6213 e9bb df65 313c bab2 0ebc
00000390: 6605 fd39 271e eabc 981b e039 8d00 9ebc
000003a0: 539e 033c afb7 de3b c923 55bc 8b59 3bba
000003b0: 701a a1bc 9695 8cbb 419b 14bb fae7 303c
-0.0054210755 0.0029120436 0.008758096 0.00030396495 0.00036511704 -0.004664707 0.005383612 0.004122891
0.0059225215 0.0019758674 0.0019716101 0.011638195 -0.023364896 0.0136496555 -0.012467577 0.0036094426
0.009844524 -0.005025364 0.0037607292 -0.0031680067 -0.002629338 -0.013520512 -0.009221768 0.009938279
-0.008408865 -0.008580299 0.0077792713 0.0091961725 -0.009834603 0.0059574433 0.0054215994 -0.0015105967
0.006960779 0.0038167888 0.011329548 0.007300952 -0.018775932 0.0033681698 0.0025085702 -0.005368671
-0.008048891 0.023308326 -0.019687464 0.0043560783 -0.010897894 -0.0058563943 0.0002868456 -0.0018222813
-0.019222207 -0.0027830892 -0.0058252024 0.0045590936 0.00027606555 0.017357422 0.001541916 0.004799605
0.011831736 -0.008358563 0.01509875 0.005598522 0.0011375346 -0.011780039 0.013674365 -0.0077339113
0.008313632 0.00960498 -0.012654864 -0.012272145 -0.0097884275 0.004184189 -0.0004470492 0.0038222147
-0.011151356 0.006509008 -0.01063916 -0.010237855 -0.00020348128 0.005599173 -0.0014024087 0.01577773
-0.006345997 -0.012077178 0.015604195 -0.011548223 0.009996806 0.00023767626 -0.00800851 0.00050748116
0.00016082934 -0.0051912703 -0.015744954 0.009544743 -0.0036745667 -0.007375587 0.015390717 -0.009150505
-0.013580067 0.000275298 -0.005666273 -0.009996963 0.011125931 -0.0031201022 0.010925129 -0.0005516952
-0.012285292 -0.00020046545 0.006895459 -0.023067541 0.0015893981 -0.0008036007 -0.004731678 0.00884053
-0.013880423 -0.0070155263 -0.017968085 0.0070103304 -0.0011198972 -0.011791886 -0.011732586 0.0046653147
-0.00305761 -0.014485424 0.0047912733 -0.0003196053 -0.006674321 0.0028044544 -0.016282557 0.020882694
-0.003169285 0.016719947 -0.009759387 0.008996894 0.0017560467 -0.0018452264 0.00038996155 -0.009301813
0.0032575463 -0.009772417 0.009559108 -0.0006972638 -0.011359152 0.0142146 0.013187989 0.012276157
-0.004393018 -0.0026140884 -0.00074414123 -0.003102993 0.011098394 -0.00436372 0.018521935 0.0023007253
-0.007723057 0.007016597 0.0022211194 0.002958377 -0.0033075109 -0.00045606747 0.012675417 -0.01493316
0.0034426593 -0.0010544625 -0.0016787546 0.010526126 -0.0054930914 -0.0031690777 0.00023554695 -0.0005593585
0.001235388 -0.012496194 0.0034850088 -0.013110495 -0.008218068 0.005479026 0.015140316 0.0054411176
0.007193298 0.0066560786 0.011649727 0.0004694501 -0.012304288 -0.017423404 -0.01936937 0.008852602
0.0004515655 -0.0011362036 -0.0019415787 0.01071733 0.008416373 0.02577719 -0.015501594 0.008504932
-0.0021376526 0.020142715 0.025167016 0.011113806 0.00063650386 -0.003107207 -0.0030960282 0.0109666595
-0.001607235 0.00400461 -0.0006110995 0.00036261973 0.014243247 0.0020475232 0.0006459062 0.0018379674
0.010310872 -0.011709614 0.0027194177 -0.0024041266 0.009225612 -0.01412384 0.009362837 -0.004240264
0.018701782 0.006162703 0.011321675 0.009141934 -0.0021176983 0.024490416 -0.004835479 -0.00014507213
-0.0038133427 -0.0071129063 0.010827511 -0.008709604 0.00048259943 -0.02857883 0.00042745168 -0.019287372
0.008033353 0.006796799 -0.01300902 -0.0007146827 -0.019665927 -0.004290293 -0.0022675546 0.010797495

bias f4 [80]
00000000: 57d6 a83e 9a75 ca3e 2d69 f8bd 2785 3ebe
00000010: d5d7 9d3e 1f56 aebe a66f f2be d9e1 a73e
00000020: b29e a9be 6ff9 44be 4d5c 3d3e d694 0d3d
00000030: 05bd 953e edaf 213e 9108 6b3e bdad e93e
00000040: 8054 a43e d66c e7be dbdc f6be eef5 aa3e
00000050: 579b 7f3e f14f cebe 1622 653e 52c7 813b
00000060: fad6 40be 4fae 213e df8f 1dbc c823 003f
00000070: d9ba 9b3c 25c0 10be c76a 813e 13ff 12be
00000080: f686 de3e aa8f 913e 101b aa3d b06a 753e
00000090: bedb 6e3e 754f 10bf 4903 d9be e1f3 af3e
000000a0: f6b0 e0be 5031 05bd 4732 04bf 8b55 96be
000000b0: 6109 623a c9b3 00bf 0b7e 36be 2157 0bbf
000000c0: f6e9 2f3e fc6e 26be a193 c5be 2388 6bbe
000000d0: 7431 d1be 6c78 0e3f c35a 323e 8519 283e
000000e0: ed17 08bf ed98 843e b41c a3be 4b62 d53e
000000f0: f4b4 853d 01e5 bbbe 9c6d 04bf d512 aebd
00000100: 16ac 2b3e 05a8 a03e 3c78 bbbe fc62 f0be
00000110: e26b 00be 3d08 f73d e53a 84be 2051 073f
00000120: 864f 5d3e 6838 0fbf a881 663b 4f55 413e
00000130: dfaa ae3e ae00 6a3e c349 74bd 6fe8 32bd
0.32976028 0.39542848 -0.12129436 -0.18605481 0.3082873 -0.3405008 -0.47350806 0.32789496
-0.33128887 -0.19235776 0.18492241 0.03456577 0.29245773 0.15789767 0.22952487 0.45640364
0.32095718 -0.45200223 -0.48215374 0.33390754 0.24961601 -0.40295365 0.22376284 0.0039605284
-0.18832007 0.1578915 -0.009616821 0.500546 0.019009994 -0.14135797 0.25276777 -0.14355116
0.43462342 0.2842992 0.08305943 0.2396648 0.23326012 -0.5637124 -0.4238532 0.34365752
-0.4388501 -0.03251773 -0.5163922 -0.2936214 0.00086226134 -0.5027433 -0.17821519 -0.54429823
0.17179093 -0.16253275 -0.38589194 -0.23001151 -0.40858042 0.556525 0.17417435 0.16415985
-0.5316151 0.25897923 -0.31857836 0.41676554 0.06528655 -0.36698154 -0.5172975 -0.08499686
0.16764864 0.3137819 -0.3661517 -0.4695052 -0.12541154 0.12062118 -0.25826183 0.5285816
0.21612367 -0.55945444 0.0035172496 0.18880199 0.3411474 0.22851822 -0.059640657 -0.043678697

weight f4 [80, 80, 1]
00000000: 53e6 a2bc d292 20bc 2237 c03a 2d46 a8ba
00000010: ca4e 6cbc d852 283b b76b 37bc 6e5c 79bb
00000020: ea3b 693b 8cfe 5d3b 7a85 86bb 10b8 0b3c
00000030: bdfb 3abc 6eaa 383b 2c7f c8bb bcbc 033c
00000040: 977b 1bbc 7e72 8e3b d61a 5fbb 06c9 d73b
00000050: 065f 563b cae6 4d3c dcdb a2bb 99af fa3b
00000060: 427d 763c bf66 183b 3820 623b 532c ccbb
00000070: 533a 373c 40ec 54bc 0c62 5bbc 2234 b5bc
00000080: a48c a93b 92d1 343c 487d 33bc 26f8 7a3a
00000090: d052 4dbb a27b 76bc b725 f9bb 3d8a babb
000000a0: 3ba9 0bbb 55bc 20bc 0429 f0bb 40ba 1d3c
000000b0: ff8c ad3b af03 b9ba b4df 543a d139 fc3b
000000c0: f703 3bbb d43b 6e3c 79f9 243c 22b2 11bc
000000d0: 67b2 193c 900a 023a 950e d6bb 0da0 d03b
000000e0: 6694 17bc 1687 b7b9 9dad c6bb 85c4 933a
000000f0: c804 15bb 9388 84bc 464b 2a3c b1ba 0e3c
00000100: cf28 b4bb c30e 8a3c 54a0 c03b c653 39bc
00000110: 2154 f73b df14 a7bc b55d bd3c 1b1e 343b
00000120: 0f53 e9ba 3aec 3f3c 1d8e 453c 4d06 523b
00000130: 2b3d bf3b 7381 a23b 3791 423b f098 c33b
00000140: 30ae fcbc 4f2d 21bc 74a9 133c 70fb da3a
00000150: 7c84 7fbc 8711 d83c 4ea4 873c 593e bfbc
00000160: 1a05 903c a09a 03bc a410 abbc a066 37bb
00000170: 8c06 b6bc 3c45 8cbc 7ba1 9fbb 3229 833b
00000180: ed7a 8cbc 9350 a33a 6ba5 b03c 7144 80bc
00000190: c4ee bf3b 6ca1 8d3c 7a86 47bb c485 123c
000001a0: fb33 8abb 3338 b9bc 7386 1ebc 8a75 58bc
000001b0: e4d2 153c 73cf 8e3a 5227 cbbc 0c95 a13c
000001c0: f204 d4bc 9db9 cfbc 16f3 d3bc e92b 623b
000001d0: 8685 58bc 2a77 08bb 490b 8b3c a162 59bc
000001e0: 624d 933c 73c6 9cbb 64ac b5bb bdf8 11b9
000001f0: 4acf 693c d467 fa3b 0e7f d43c f05d 863c
00000200: e099 d7bc ef17 0f3c bf7c ab3a fe9e 143c
00000210: b3f3 f83c 808d c6bc 6674 d4bb 4233 f2b9
00000220: 7c4a 913c 7bc7 6bbc 1027 e53b 64d4 6fbc
00000230: 4d27 acbc 22fa f83b d957 893c c19a 57bb
00000240: 8815 adbc 29f0 98ba 04e0 a539 da6a d9bb
00000250: 77c4 243c 11db bbbc 35bf c43b bb8c b8bc
00000260: c730 8dbb 30b9 7c3c 14b3 ed3b 8ae4 10ba
00000270: fd4d c0bc ec82 81bc ea61 443a faa2 8d3c
00000280: 309b 553b f242 a1bb bc88 58bc 8a14 cf3a
00000290: b35f b33b fef3 c1bb 66ef 15bc 8b6a 74bc
000002a0: 6ab3 e83a 050b c9bb a1c7 22bc 6575 c0bb
000002b0: f987 273c b751 37bc ddf5 493c 3d55 983c
000002c0: 4079 a63b 2bd6 35bc b979 afbb 255c 30bc
000002d0: 379f fb39 9f09 7a3c 7511 88bc 8339 75bb
000002e0: f118 a3ba a342 423b dc3b dfb9 e271 b5bc
000002f0: eaff aa3c adcd 62ba 89b3 7439 5f6f d5bb
00000300: a552 c23a 25ad 53bc 5a62 7e3c 8f07 b13c
00000310: a15f 8b3b b9ed 42bc 019a 00bc 0622 f7bb
00000320: ac5a 5bbc b3c5 3f3c abe7 993c 1f8b 5c3b
00000330: 8a6a dbbb 3cd4 63bc 1dc3 c7bc 3b5a 693a
00000340: b7e7 1a3c bcd7 72bc 3bd1 74ba 7f47 29bc
00000350: 50a5 15bc bd6c 493b 6ee3 39bb 1615 183c
00000360: c77b cdb9 b493 133c 2f3d e9bb bec9 d7bb
00000370: 1353 6fbc 2fd1 9f3b f00d 63ba a3d7 c8bb
00000380: e83e c7bc 372f ad3c 3a77 92bc 2283 8d3b
00000390: ef49 6b3a 596a 5bbc ec2e c63a 43c5 513c
000003a0: 9e6e 6dbc 3f91 133c 37f9 21bb 373d 88b9
000003b0: 34cb 97bb 73f3 8bbc 5bf6 623c 3664 7a3c
000003c0: 8020 c2bc c39a 88bc e71d 903c 8b7f 0d3b
000003d0: 97c7 aabc 81ae d439 cf95 52bb 8fa3 9fbc
000003e0: 926d 393a 261d 893c b8a1 f0bb 1742 88bc
000003f0: fe04 d1bc b91d e5bb 5f07 0cbc d44b e1bc
-0.019885218 -0.00980063 0.0014664868 -0.0012838297 -0.014423082 0.0025684144 -0.011195115 -0.0038049477
0.003558869 0.0033873646 -0.004105267 0.008527771 -0.011412558 0.0028177756 -0.0061186757 0.008040603
-0.009489915 0.0043471446 -0.0034043095 0.006585243 0.0032710447 0.012567231 -0.004970057 0.0076503274
0.015044512 0.00232546 0.0034504067 -0.00623087 0.011183339 -0.0129957795 -0.013390075 -0.022119585
0.0051742364 0.011036294 -0.010955162 0.000957372 -0.0031329878 -0.015044125 -0.007603373 -0.005692749
-0.0021310586 -0.009810527 -0.007329108 0.009626925 0.005296349 -0.0014115478 0.00081204926 0.007697322
-0.0028536299 0.014540631 0.010069245 -0.008892568 0.009380913 0.00049606804 -0.0065325 0.006366736
-0.00925169 -0.00035005127 -0.006063177 0.0011273777 -0.0022738446 -0.016178405 0.010393923 0.008711503
-0.005498029 0.016852742 0.0058784876 -0.011311477 0.0075478707 -0.020395694 0.023115972 0.0027483765
-0.0017801243 0.011714036 0.012057808 0.0032047213 0.005836149 0.004959279 0.0029688606 0.0059691593
-0.030844778 -0.009837463 0.009012569 0.0016707014 -0.015595552 0.026375545 0.016557839 -0.02334516
0.017580558 -0.008032471 -0.020881958 -0.0027984753 -0.022219919 -0.017122857 -0.004871545 0.0040027136
-0.01714846 0.0012459926 0.021563252 -0.015657635 0.0058573205 0.017288886 -0.0030445145 0.008943025
-0.0042176223 -0.022609806 -0.00967561 -0.013211617 0.0091445185 0.0010895565 -0.024799023 0.019724391
-0.025881264 -0.025357062 -0.025872748 0.0034511036 -0.013215428 -0.002082298 0.016973155 -0.013268144
0.017981235 -0.004784399 -0.005544232 -0.0001392094 0.014270613 0.007641772 0.02593949 0.016402215
-0.02631849 0.008733734 0.0013083442 0.00907111 0.030389642 -0.024237394 -0.0064836023 -0.00046196027
0.017735712 -0.014390822 0.006993182 -0.01463804 -0.021014834 0.0075981775 0.016765522 -0.0032898637
-0.021128431 -0.0011668253 0.00031638157 -0.006635052 0.0100566065 -0.022931607 0.006004239 -0.022528043
-0.004308793 0.0154250115 0.007254014 -0.0005527219 -0.023474688 -0.015809499 0.0007491397 0.017289627
0.003259372 -0.0049213106 -0.013216194 0.0015798968 0.0054740547 -0.0059189787 -0.009151315 -0.01491798
0.0017753665 -0.006135347 -0.009935291 -0.0058733695 0.0102252895 -0.011188916 0.012326685 0.018595332
0.005080372 -0.011098425 -0.0053550866 -0.0107641565 0.00047993075 0.015261083 -0.016609887 -0.0037418313
-0.0012443346 0.002964177 -0.00042578473 -0.02214903 0.020873982 -0.0008651864 0.00023336535 -0.0065135206
0.0014825655 -0.012919699 0.0155263785 0.02161005 0.004253343 -0.011897498 -0.007849217 -0.0075418977
-0.013388317 0.01170485 0.018787226 0.0033652259 -0.00669605 -0.013905581 -0.02438503 0.000890169
0.009454659 -0.014821943 -0.0009339039 -0.010331987 -0.009133652 0.003073498 -0.0028364318 0.009282371
-0.00039192868 0.009007383 -0.0071178894 -0.006585329 -0.014607209 0.0048772315 -0.00086614396 -0.0061292215
-0.024321988 0.021140678 -0.017879117 0.0043186108 0.00089755555 -0.0133920545 0.0015120185 0.0128033785
-0.014491705 0.009006797 -0.0024715194 -0.0002598555 -0.004632378 -0.01708386 0.013852681 0.015282681
-0.023697138 -0.016675359 0.017592384 0.0021590914 -0.020847125 0.00040565807 -0.003213275 -0.01948717
0.0007073517 0.016737532 -0.007343497 -0.016633077 -0.025515076 -0.0069920686 -0.008546679 -0.027501978

bias f4 [80]
00000000: 2665 c03c 95b1 adbb fa73 12bd 1a72 1b3d
00000010: 5354 c8bd eebb db3d b6e7 a0bc 01af b13d
00000020: 88d5 4fbd 2fbf 90bd f92d 09be 3571 c53d
00000030: 3ede 2ebd 235e cbbc ed86 d43d 508e cbbd
00000040: 8096 c73d f282 023d 6ce7 dbbd 916b 013c
00000050: 7558 8bbc a2dc 42bd 0a7b 58bb 9ac5 943d
00000060: e273 15bb e16d 9ebd 750d d53d de03 d33d
00000070: 8426 07bd 65e5 b23c 593e 123c 7e7d 4a3d
00000080: 1460 5bbd acf3 edbd 8638 15bd 5466 a1bb
00000090: c814 7abc efaa 92bc ec9c 16bd cd97 af3d
000000a0: 6746 d7bc c140 14bc 0fde 833d a533 a4bc
000000b0: a07e e6bd 6b2f 8a3d b520 1fbd c8c3 c63b
000000c0: eaaa 59bc 007e a7bc 57c6 a1bb a53e 4f3d
000000d0: 74ab 173d 2c38 cb3d d6f7 92bc 9a58 61bd
000000e0: 3c48 2cbd e4d8 99bd 0775 583d a68a dc3d
000000f0: d741 dfbd eb83 94bc 9644 a83d b784 cdbd
00000100: 3910 f43c ca0f 7ebd 6229 77bc a936 5a3d
00000110: f9e8 bc3d 0751 b9bd b770 613d fcc9 3bbd
00000120: b320 aa3d cc5d 823c def4 9fbd 026a babd
00000130: de3e 8c3d 6e65 8fbd 6b67 93bd 5b6e 9bbc
0.023485731 -0.0053007104 -0.035755135 0.037950613 -0.097817086 0.10729204 -0.019641738 0.086759575
-0.05074075 -0.070677154 -0.13396443 0.09640733 -0.042692415 -0.024825161 0.103772976 -0.09939253
0.097455025 0.03186316 -0.107374996 0.007899181 -0.017009953 -0.047573693 -0.0033032321 0.07264252
-0.0022804667 -0.077358015 0.10402957 0.10303472 -0.032995716 0.0218379 0.008925998 0.049436085
-0.053558424 -0.11618742 -0.036430858 -0.0049255285 -0.015263744 -0.017903773 -0.036770746 0.085738756
-0.026278688 -0.009048642 0.06438839 -0.020044157 -0.112546206 0.067473255 -0.03884955 0.0060658194
-0.013285378 -0.020445824 -0.004936974 0.05059685 0.037028745 0.09922823 -0.017940443 -0.055016138
-0.042061076 -0.07512072 0.05284598 0.107686326 -0.1090123 -0.01812931 0.08216207 -0.10035079
0.029792892 -0.062026776 -0.01508555 0.053274784 0.092241235 -0.09048658 0.055039134 -0.045846924
0.08307018 0.015913866 -0.078103766 -0.09102251 0.068479285 -0.07001768 -0.0719746 -0.01897352

weight f4 [80, 3, 1]
00000000: 4c09 62bc 498a a03c d972 ae38 207f 4dbb
00000010: a0af 8dbc ad37 37bc 76c4 0fbb cc1e 523a
00000020: 72fd 82bc 7f05 673b 4d76 5a39 00c8 54bc
00000030: e9c1 123c 1a95 2bbc c770 363c 21d4 b13a
00000040: 0663 fdba 56b6 a3bc 1954 543c d4c4 d3bc
00000050: 5867 5c3c 2f03 973c fe4f 623b 1fb0 e83a
00000060: 43cc 69bc cad0 d2bb 87d4 92bc 54bc 5d39
00000070: 68af b53c 16a6 66bc af6a 053a 1c5b de3b
00000080: 0e63 823b 811e 853b 4777 94bc 0a09 daba
00000090: 5626 dabb 7b81 5a3c 5636 f0bc 307c cc3c
000000a0: 1f0f 78bc ab55 23bc 67e6 50bc 7bdb cdbb
000000b0: 4982 b43b e0e8 91b9 2457 813c 0019 e8bb
000000c0: 7358 603c 0934 4b3b c8fd d73c 714f 60bc
000000d0: dcef 7f3b 7298 68bc 7d7d d63b 6fa2 9638
000000e0: 9fcf 7ebc 1414 87bc e14f 793c 3f6e a4bb
000000f0: 13c7 c2bc 9aec cf3a 180d 313b 9a83 663b
00000100: e898 80ba f084 793c 174f 9b3b 1161 3ebc
00000110: bc25 ecbb 7f07 dbbc 4b09 0bbc ea68 20bb
00000120: 6cb2 73bc e892 c3bb ae37 fabb e275 1d3d
00000130: 5b4a 73bb b116 90bc 0ec0 763c 60c7 74bb
00000140: b02c 91bb 1aaa 9bb9 9333 81bc 3a1d 02bb
00000150: 6c8b 003b 1d8c 4c3c e582 2bbc 88d9 363c
00000160: 0b8a d73b 5ec4 5abb 2a37 19bd 1009 20bb
00000170: da9a dc3a 866e 29bb 56b3 41bc cba2 d8bb
00000180: e39e 86bb 04fc 31bc 7ce1 ab3c d1ee 70bc
00000190: 5e36 79ba e20d a73b e6bd a93c 10f7 eb3b
000001a0: 7b63 b83b a128 ab3c 0d85 54bc 2ba3 043c
000001b0: 275f d1ba 157d 4b3c ef10 c93b c774 ecbb
000001c0: eab8 183c 2e3c 84bb 2f56 843b 58ad 083c
000001d0: 5573 9abb ed3c 0abc 7b6b 81bc 9ada ec3b
000001e0: 3742 003c 3e85 36bc 492a 8c3c 749c fc3b
000001f0: fb02 87bc a9ed 48bb 7c57 513c 91e1 8ebc
00000200: ec4e 473c 5c13 57bc 7d2b 0a3c 3db8 ffbc
00000210: 1f86 413c 21a4 0d3c ce04 a73b 625c e63c
00000220: 2d74 81bc a157 2f3c 8cee 543b 815b 4b3b
00000230: 9f35 c0ba 7e4f d53c 2ec2 783c c596 e8bb
00000240: f62e e2ba bc6e 223c 1219 3a3c 7351 d4ba
00000250: 8938 373c 5a88 253c 04b4 803c fd45 7ebc
00000260: c9bc 333c 2c6e b7bb 2025 fcbb bde1 8b3c
00000270: 46d6 563b 7c53 143c f05b be3b 3049 fdbb
00000280: 0154 d63b c55b 3ebb d61a 7bbb 249d ba3c
00000290: 4a0d 87bb c573 1f3c 9e25 8b3b 59ed 66bc
000002a0: fe12 bb39 3034 91bc 4dd5 70bb 06f7 45bc
000002b0: 62b2 3cbc 88a8 c23c d19e 8e3c 85ea 713a
000002c0: eda5 67bc d341 553b 0b75 783b 1110 2e3b
000002d0: a12c 883b 2fb8 c5bb 0b29 863c dea0 c83c
000002e0: 1f28 48bc 7fd1 c73c 18d1 6ebc 1173 c23b
000002f0: 469c c73a adde 753c 2c37 9c3a 8641 8cbc
00000300: ad21 8c3c aec7 b339 2350 1e3c 920e 2b3c
00000310: 95e8 36bb 4f7a 9b3c 6961 323b 91bb 46bc
00000320: ddf7 1439 3d80 2bbc 129f 503c acd8 05bc
00000330: 8b2e 3abc c301 b13c c617 a3bc c0a4 74bc
00000340: ae1f d6bb 0872 0d3c 3e7e 223c dc4b c2ba
00000350: d4a7 31bc ab51 f83a bf7c 963b 195e 52bb
00000360: b5de b6bb 6ced 86bb f9e0 c2bb e8f9 ce39
00000370: ba66 a43c 3073 4fbc a297 88bb a228 323b
00000380: 790e 853b 3e84 c03b 1ec4 1d3c ca49 033c
00000390: e009 883b 91de 8dbc 6f61 37bc cebc f539
000003a0: b256 61bb ea93 a13c f21b 8dba 376b 79bc
000003b0: ab53 c9bc 8f14 e3bb 4bd8 50bc 4833 1abc
-0.013796162 0.01959719 8.3183586e-05 -0.003135629 -0.017295659 -0.011182708 -0.0021937168 0.00080154533
-0.015989993 0.0035251079 0.0002083417 -0.012987137 0.008957365 -0.01047256 0.011135287 0.0013567248
-0.001933188 -0.019984405 0.012959504 -0.02585069 0.013452373 0.018434135 0.0034532542 0.0017752683
-0.014269891 -0.006433581 -0.017923607 0.0002114636 0.022178367 -0.014077684 0.00050894445 0.0067857634
0.0039790934 0.0040624742 -0.018123282 -0.0016634774 -0.006657402 0.013336535 -0.029322784 0.024961561
-0.015140324 -0.009969155 -0.012750245 -0.0062822676 0.0055086953 -0.0002783006 0.015788622 -0.0070830584
0.013692963 0.0031006357 0.02636613 -0.013690815 0.003905288 -0.014196502 0.006545721 7.182813e-05
-0.01555243 -0.016489066 0.0152167985 -0.005018025 -0.023776567 0.001586336 0.002701586 0.0035173655
-0.0009811195 0.015229449 0.004739653 -0.011619822 -0.0072066467 -0.026736973 -0.008486102 -0.0024476596
-0.014874082 -0.0059684403 -0.007636032 0.0384425 -0.0037123177 -0.017588945 0.015060438 -0.0037350282
-0.004430376 -0.0002969064 -0.015771663 -0.0019853846 0.0019614352 0.0124845775 -0.010468219 0.011160262
0.0065777353 -0.0033381204 -0.037406124 -0.0024419464 0.0016830817 -0.002585323 -0.011822542 -0.0066112033
-0.0041082962 -0.010863308 0.020981543 -0.014705376 -0.00095066975 0.0050980905 0.020720433 0.007201083
0.0056270934 0.020893397 -0.012971175 0.008095543 -0.0015973792 0.012419959 0.006136052 -0.0072160694
0.009321431 -0.0040354943 0.004038594 0.00834211 -0.0047134557 -0.008437377 -0.015798321 0.007228208
0.007828287 -0.011140166 0.017110007 0.0077090804 -0.016480913 -0.0030659235 0.012777206 -0.017441543
0.012164813 -0.013127174 0.00843322 -0.031215781 0.011811762 0.008645088 0.0050970083 0.028120223
-0.015802467 0.010702045 0.0032490818 0.0031029882 -0.0014664418 0.026038881 0.015183015 -0.0070980513
-0.0017256427 0.009914096 0.011358516 -0.001619859 0.011182913 0.0101033095 0.015710838 -0.015519616
0.010970303 -0.0055978503 -0.0076948553 0.017075414 0.0032781526 0.009053107 0.0058092996 -0.007729672
0.0065407758 -0.0029046398 -0.0038315556 0.022780009 -0.004121457 0.009732191 0.0042464277 -0.014094674
0.0003568157 -0.01772508 -0.003674823 -0.012082821 -0.011517139 0.023762003 0.017409714 0.00092283665
-0.014138681 0.0032540455 0.003791156 0.002655987 0.004155711 -0.0060339193 0.016376993 0.02449077
-0.012216597 0.024391888 -0.014576219 0.005934127 0.0015229068 0.015006703 0.0011918298 -0.017121088
0.017105902 0.00034290313 0.009662661 0.010440486 -0.0027909626 0.01897922 0.0027218706 -0.01212968
0.00014206716 -0.010467586 0.012733238 -0.008169334 -0.011363636 0.021607285 -0.019908797 -0.014931858
-0.006534538 0.008633144 0.009917794 -0.0014823633 -0.010843236 0.0018945237 0.0045925076 -0.0032099544
-0.005580748 -0.0041176584 -0.005947229 0.00039477577 0.020068515 -0.01266174 -0.0041684667 0.0027184864
0.004060563 0.0058751395 0.0096292775 0.008013198 0.004151568 -0.017318042 -0.011192664 0.00046870712
-0.003438395 0.019723851 -0.0010765775 -0.015223316 -0.024576029 -0.006929941 -0.012746881 -0.00941164

bias f4 [80]
00000000: caeb 263e 6f93 d43e fda7 db3e 5bd6 063e
00000010: 39e2 febe 612f f63e d9ef e1bd b48b ac3e
00000020: 6826 373d ba60 f03e 5186 a23e ade1 cabe
00000030: 5463 b23e b234 53be 78b2 ffbe 9ba4 c4be
00000040: 8ffb 10bf 1db7 6e3e 855a 203d 840d 0c3f
00000050: c522 b13c 64d7 03bf 3238 033e 6e63 a33e
00000060: d910 9d3e ea31 debe 4be2 98be 555a aabe
00000070: 8c51 843e aade f6be b7fd ce3d 6daf e23d
00000080: 9601 3ebe 7667 253e 7296 53bd 91c4 eebe
00000090: 807d ecbe 6145 803e 3d02 ccbe f435 f03d
000000a0: 74eb 1d3c e92b f3be 4319 0b3f dac2 d0bd
000000b0: 71e3 babd 3173 77be c712 2b3e c6cf ddbc
000000c0: c975 a83d f527 dfbe 77ed e1be 5d94 03bd
000000d0: cd88 0dbf e3de 6a3d 57ca e83e c375 ebbe
000000e0: 6ed6 8fbe f0e4 043f 656d d2be d40f 75be
000000f0: 7abc 51be dc94 f03d 9c6c e2bb 607b fc3e
00000100: 39f8 edbe 8207 65be c552 36be f42f 043d
00000110: 7970 24bc 8ba1 8c3c fa2e 703e e46a 123f
00000120: 6f23 813e 1f08 573e 6ab8 083f ff41 83be
00000130: 74a9 c43e 5224 e7be 2577 833d 82e8 ea3e
0.16300884 0.41518733 0.42901602 0.13167708 -0.4978197 0.48083022 -0.110320754 0.33700335
0.04471436 0.46948797 0.317431 -0.39625302 0.34841406 -0.2062557 -0.49940848 -0.38406834
-0.5663385 0.2331204 0.039148826 0.54708123 0.021623025 -0.51500535 0.12814406 0.31911796
0.30676916 -0.43397456 -0.29860148 -0.33272043 0.25843465 -0.48216754 0.10106986 0.11068616
-0.18555292 0.16152748 -0.051657148 -0.46634343 -0.461895 0.25052932 -0.39845458 0.11729041
0.009638656 -0.47494438 0.5433542 -0.10193415 -0.09125412 -0.24165036 0.16706382 -0.027076613
0.08225591 -0.43585172 -0.44126484 -0.032123912 -0.55286866 0.057341468 0.45466873 -0.45988283
-0.28093284 0.5191183 -0.41099086 -0.23931819 -0.20482054 0.11747143 -0.00690992 0.49312878
-0.4647844 -0.22366145 -0.17805012 0.032272294 -0.010036581 0.017166873 0.2345542 0.5719435
0.25222346 0.20999192 0.53406394 -0.2563629 0.38410532 -0.45144898 0.064192094 0.45880514

weight f4 [80, 80, 2]
00000000: 80b0 433b 644c beba adf1 693c 3bf8 2cbc
00000010: 4461 64bb 2680 8a3a 1d96 a23b a63a cbba
00000020: c4a1 d3b9 e0e9 893a 03c8 213c 07d6 a73c
00000030: fd7a 1a39 2fa7 953c a8c4 303c 4c7b fdbb
00000040: 5eb9 63bc c297 283b 4a93 80bc 3e0a 04bc
00000050: bbf1 2b3b 2ffb 273b fc05 d9bc 9e4f 4a3c
00000060: 69a0 fcbb f0bd 453b f2c2 f93b feab 7a39
00000070: c598 2fbc 8cd0 fabb 3f1b d6ba 7cc4 32bc
00000080: 7ff0 8a3a 8c64 053b 96f7 3d3b 03bd 1e3c
00000090: e0e4 7fbb e19b 91b9 4259 a0bc 03b9 9dbb
000000a0: cc31 c33b d169 383c 000c 783b e92a 1c3c
000000b0: 54ff 73bb bf68 29bc 6d6d 1cbc 7fde 0ebb
000000c0: 1746 cb3b 7f85 833a d1d3 36bb d31a 59bc
000000d0: cb6c c23b c035 1fbc a730 0eba 806e 8b3c
000000e0: ad2f b4bb 8930 8e3b ae7e 4f3a abd8 f4bb
000000f0: a3fb d43b 1559 00bc cdd9 4c3b 788a 59bc
00000100: 34fe 33bc 735c 0fbc 2108 243b 8c61 5d39
00000110: 60ee 273c b4d6 9e3b fb3b 0fbc 510e 0dbc
00000120: 7d38 cbb9 5110 813b e586 1fbb a558 d0bb
00000130: 2c10 ff3b 43dd a3bb fa77 193c 71fa 833b
00000140: ab3d d83b 8c98 adba 6e27 ce3a 570a f03c
00000150: ee80 45bc 5b1f e33b 172d a6bc f807 d0bb
00000160: 5ea6 d8ba 56b6 96bc 2f38 89bb a4db abbb
00000170: acef 583b f5fa f5ba 0db3 02bc 8e96 46bc
00000180: 4d34 c5ba 86f8 d13b 031d 3a3c c67d 7cbb
00000190: 3f9f 72bc 2844 6c3c c706 7f3b d7fd d23b
000001a0: a1cb f539 4b1c a03a 32e1 973c f943 a93b
000001b0: b0ec 113c 81d2 a83b a1f7 77bc dfd2 cc3b
000001c0: ec82 dcba ef1a c13b 4a50 a93c a485 bfbc
000001d0: a577 d2bb 34fd 493c 6586 903c e16f 1dbc
000001e0: b5d7 a6bb 6f80 b7bc 248f 513b 647d eb3b
000001f0: 56cc 933c 7b92 23bc 6f57 5b3c 0b11 483b
00000200: 48e6 10ba 94e3 c2bb edfd eb3b 24ac c9ba
00000210: fef7 633c cc1d 4c3b 58ec 883b 452c 91bb
00000220: 6e8b 1d3c b8d3 053c b868 8abc c413 943b
00000230: b2af 20bb 7ad1 8abb 3dfc 67b9 70ed 54bb
00000240: 1239 963c f27c bebb af23 433a 584a 123c
00000250: afa1 f3ba 19d4 523b 28f9 0cbb b7aa 84bc
00000260: b57c 743b ff6f 53bb d21c 133c 95ff 72bb
00000270: 9554 0a3b 66f7 4ebc 5e74 463c 0c5c 41bb
00000280: a0ba 3fbc 7a8b 653b f6c3 a2bb 5e0e 233c
00000290: b389 2d3b d19c 88bb 0df9 323c f49c ccbb
000002a0: ce8a bbba f5a7 00bc 949e 9abc 626b 603b
000002b0: 195c a23b 9758 87bc bd30 dc3b 821d ccbb
000002c0: 7343 363b 3f1d 2539 ed6e 7bbc 0f92 4d3c
000002d0: 55d9 90bb b2c0 a7ba d51f 293c 6ce6 b2bb
000002e0: 9f62 c33a 57b0 cb3b 01fa ddbb 6cb3 b8bc
000002f0: 20dc 6e3c f666 7bbb 91e6 633c 61f6 f1bb
00000300: 327b 8b3b 94e5 54bc 3d93 783a 304c 813c
00000310: 2a36 a239 a41d cebb 4cf1 dbba 154b 6abc
00000320: 6aec 4d3b 7000 19bc de66 54bb bdda 5d3b
00000330: 147b a63c afe7 943a dd1a 0dbc 7d73 78bb
00000340: 982e c0bb 742a 123c c833 053c 5e91 86bc
00000350: 9d84 b2bb 088c 86ba 2be0 94bb 134e 2d3c
00000360: 5563 573c 2fdb a439 083c 4f3b 3e52 cabb
00000370: 5c56 e7bb 52d1 483c ed87 1b3c a605 99bc
00000380: b65c d03c 65ec 873a d0fa ed3b d4f5 873b
00000390: 83ee 8f3b 8215 e53a 0509 4b3c 0753 cc3b
000003a0: 90e2 06ba a6ad 203c 2f91 8cbb 79b2 f83a
000003b0: e15a eab9 068d 6bba e8c8 2bbb fae3 43ba
000003c0: aa4f 5e3c cb96 cc39 3cc8 95bc 9339 9c3b
000003d0: 6ccc 393c 91c6 05ba 6aca 80bb a82b de39
000003e0: 4b91 5bbc d123 7bbc c579 073b 1853 6dbc
000003f0: 8437 0a3b bbf3 cdbb 1830 b73b f817 22bc
0.002985984 -0.0014518616 0.014278811 -0.01055723 -0.0034848014 0.0010566756 0.0049617426 -0.001550515
-0.0004036558 0.0010521971 0.009874347 0.020487798 0.00014732401 0.018268196 0.010789074 -0.0077356454
-0.013899175 0.002572522 -0.015695233 -0.008059083 0.0026236612 0.0025631895 -0.026492111 0.012348084
-0.007709552 0.0030173026 0.0076221162 0.0002390593 -0.010717575 -0.0076542553 -0.0016335024 -0.010911103
0.0010600238 0.002035412 0.0028986684 0.009688619 -0.0039046332 -0.00027772694 -0.019573811 -0.004813315
0.005956864 0.011255697 0.003784895 0.009531715 -0.0037231045 -0.010339915 -0.0095475735 -0.0021800098
0.0062034237 0.0010034292 -0.0027897249 -0.013251024 0.0059333793 -0.009717405 -0.000542412 0.017020464
-0.0054988475 0.004339282 0.00079153 -0.007472118 0.006499724 -0.007833739 0.003125775 -0.013277642
-0.0109859 -0.008750069 0.002502926 0.00021112541 0.010249704 0.004847372 -0.008742328 -0.00860937
-0.00038761264 0.0039387126 -0.0024341878 -0.0063582235 0.0077839103 -0.0050007417 0.009366984 0.0040276577
0.0065991483 -0.0013244315 0.0015728304 0.029301805 -0.012054665 0.006931228 -0.020285172 -0.006348606
-0.0016529073 -0.018397491 -0.004187606 -0.005244689 0.003310184 -0.0018766808 -0.007977259 -0.012120856
-0.0015045494 0.0064078 0.011359456 -0.0038527115 -0.014808475 0.014420547 0.0038913952 0.0064389515
0.00046881757 0.0012215463 0.018539999 0.0051655737 0.008906528 0.005152047 -0.015134723 0.0062507237
-0.0016823686 0.0058931033 0.020668168 -0.023379155 -0.006422954 0.012328435 0.01764221 -0.009609194
-0.0050916323 -0.02240011 0.0031976188 0.0071865786 0.01804177 -0.009983654 0.013387545 0.0030527737
-0.00055274786 -0.0059475396 0.007201901 -0.0015386385 0.013914106 0.003114569 0.004178565 -0.004430326
0.009615762 0.008168153 -0.016895637 0.004518958 -0.0024518785 -0.0042363973 -0.00022123843 -0.0032490157
0.01833776 -0.0058132345 0.0007443977 0.008928858 -0.0018587614 0.0032169877 -0.0021510813 -0.016194684
0.0037305776 -0.00322628 0.008979039 -0.0037078608 0.0021107544 -0.012632227 0.012112705 -0.0029504327
-0.01170221 0.0035025761 -0.004967208 0.009952156 0.002647978 -0.0041690846 0.010923636 -0.006244296
-0.0014308335 -0.007852544 -0.018874444 0.0034243693 0.0049548266 -0.016521735 0.0067196772 -0.0062291035
0.00278112 0.00015746521 -0.015346271 0.01254703 -0.0044204392 -0.0012798517 0.010322531 -0.0054595973
0.0014906711 0.0062160897 -0.0067741876 -0.022546493 0.014578849 -0.003836093 0.013909952 -0.007384107
0.0042566294 -0.012994189 0.00094823894 0.0157834 0.00030939403 -0.0062901545 -0.0016780286 -0.0143001275
0.0031421431 -0.009338483 -0.0032409946 0.0033852302 0.02032236 0.0011360551 -0.008612362 -0.0037910633
-0.0058649294 0.008921254 0.008130021 -0.016426738 -0.0054479376 -0.0010265121 -0.0045433245 0.010577696
0.013146241 0.00031443822 0.0031621475 -0.006174355 -0.0070598554 0.012256937 0.009492856 -0.018679451
0.025434833 0.0010370134 0.007262565 0.004149178 0.0043924465 0.0017477723 0.012392287 0.0062354836
-0.0005145455 0.009807026 -0.004289768 0.0018974087 -0.00044699668 -0.00089855527 -0.0026212279 -0.0007472631
0.013568798 0.00039022262 -0.018283956 0.0047676056 0.011340242 -0.0005103136 -0.0039303796 0.00042375666
-0.01340134 -0.0153283635 0.0020671946 -0.014485143 0.0021090219 -0.0062851585 0.00559045 -0.00989341

bias f4 [80]
00000000: 9cab 193d a861 22bc bd39 5bbb d070 e63c
00000010: fcde c23b 82f0 d8bc 6407 0e3d de49 823c
00000020: beb7 7d3d 1478 8a3c e465 903d 9e2c 58bd
00000030: 0750 87bc 4fd6 2ebd e693 08bd 1e40 c43c
00000040: dde4 303d 5621 90bd f6ad 3dbd daca 10bd
00000050: 9047 24bd e921 463d 93fa 9cbd a86e 553d
00000060: 86e6 9f3d 3fc4 83bc 7bf8 a0bc 9bf0 483c
00000070: c4fd 1c3d e436 9a3d 9ca4 11bd 1a01 6cbd
00000080: f417 1f3d 44d9 8f3d 7b38 b73c 28c7 93bd
00000090: 1404 80bd b3e9 b23a 9dc1 81bd cc69 5d3d
000000a0: b324 023d d034 ecbc ec57 ecbc c2de 2e3d
000000b0: 7bd0 88bd 47da 9b3c a300 083d e03c 0dbd
000000c0: 6b83 e73c a800 3ebd 668f 92bd 08ac d13c
000000d0: 1a47 b2bb a365 263d 382f 353d 2132 8bbc
000000e0: 256a 3c3d 4da3 6a3d ceed 843d 22eb 8bbd
000000f0: e25d bebc e2a3 863c 934a 8ebc 608d 28bc
00000100: e53c 0c3d 9522 2a3d b92e 72bd bd10 99bd
00000110: 3c16 90bd 9ab2 8b3c 3f10 8fbd c9cc 9ebd
00000120: aa54 403d 676d 42bd df2a 8dbd 6ec8 b23c
00000130: 299a 9f3d 2be1 333b bb23 57bc 24a9 50bd
0.037517175 -0.009910978 -0.0033451163 0.028129965 0.005946992 -0.02648187 0.034675017 0.015904363
0.06194281 0.01690296 0.07050684 -0.052776925 -0.016517652 -0.04268485 -0.033344172 0.023956355
0.04318701 -0.07037608 -0.04630848 -0.035349704 -0.04010731 0.048372183 -0.07664981 0.052107483
0.07807641 -0.016084788 -0.019649735 0.012264396 0.038327947 0.07530001 -0.035557374 -0.057618238
0.038841203 0.07023862 0.0223658 -0.072157204 -0.06250778 0.001364997 -0.06335757 0.054055974
0.03177328 -0.028833777 -0.028850518 0.042692907 -0.066803895 0.019024981 0.033203732 -0.034481883
0.028260907 -0.046387345 -0.07156257 0.025594726 -0.005440605 0.040624272 0.044234484 -0.016991677
0.045999665 0.057284642 0.0649067 -0.068319574 -0.023238126 0.016435567 -0.017369544 -0.010287613
0.03423776 0.041536886 -0.05912659 -0.07473896 -0.07035491 0.017052937 -0.069855206 -0.077539034
0.046955742 -0.047467615 -0.06892943 0.021824088 0.077930756 0.0027447443 -0.013131077 -0.050942555

weight f4 [80, 80, 2]
00000000: ab63 0fbc dc84 d1bb a801 e43b 7e48 4639
00000010: de5b 2bbc c036 b0ba 8b61 613b e248 b73b
00000020: a76c e9bb cd5e 4a3c 4104 cc3b d964 573b
00000030: 3e12 4ebb 7096 7a3c 06e5 e33b 94a9 0e3c
00000040: 39ce 4f3a 7107 873a 14f2 f0ba 3bb7 d1bb
00000050: 424c 2cbc 244e 17bc f268 68bc 4823 1ebc
00000060: 6367 c63b efe2 c3bb 4b95 323a 4072 843c
00000070: dcc4 d0bb 8b25 9b3b f5a0 f83b 09dd a9bc
00000080: c15f 9bbc 625b 01bc dc37 da3b 286a c4bb
00000090: 18a2 ce3b c395 483b e05d 98bc ab46 d63c
000000a0: 34a8 7a3b 3ce7 4e3b c952 e6ba e129 163c
000000b0: 89ec 2bbc 2965 4d3b 46a3 803c 4704 ddb8
000000c0: 118a 1d3c 1e19 af3b 1fcd 473b 4635 243c
000000d0: ea8a 6e3c 8730 4abc 8c1b 493c f1e1 4e3b
000000e0: 96d9 573a 01b7 913c 6e33 553c fd33 11bc
000000f0: df9c ad3b dcc8 153c 35ed 8d3a 85b6 95bb
00000100: a03a 343c 3262 133c a8ba 29bc 0644 cdbb
00000110: 6f48 533c e45b bd3a 1f9e 0c3c ce08 533b
00000120: 1434 a03b 6711 a4bb b5ea aa3b be53 25ba
00000130: 4ee2 f73b 52a0 f23c 93e1 423c 24c4 71bc
00000140: 6fbf 763c c5b2 3c3b 830d 8d3a 8870 1239
00000150: 73ee 0fbb 7790 5d3c cb3f 783a c845 2abc
00000160: 136b 97ba 6c85 f03b 3a9b 343c 2273 433c
00000170: 45b6 f9ba a030 4a3c d0ef f5bb 3bbe ba3b
00000180: 0d58 c93b d84d 643c 7a1c 3e3b ca86 76bc
00000190: e9ab e5ba 55fb 84bb cd66 083c f641 efbb
000001a0: 5820 b83a 9b7f 2db9 e797 473c 0364 27bb
000001b0: 1bad da3b a7b6 9d3c a076 353c c015 20bc
000001c0: e2fe a43c b851 95bb bb30 dd39 56b0 1d3b
000001d0: 708e 1bbc 5f53 f33c 8e30 a53c 3388 223c
000001e0: ba85 cbbb bde0 47bb cf0b 3bbb b133 6e3c
000001f0: 4645 143c a38c 75bb deee b33a 4e98 a13c
00000200: 4cf0 06bc f569 db3b 0c36 f9bb 4e72 473c
00000210: c27d a13c 9633 eebb 7c5b a93b 6b64 25bc
00000220: 6b96 2a3c c233 8a3b aa2a 1cbc 57b5 a93a
00000230: 85c0 fa3a 141d 91bc ddf0 7c3b 6ce0 bd3b
00000240: f6ac 12bc 2e7c 91bb 437e d4bb ad8f 30bc
00000250: a7c3 5c3c bd59 2e3c 220a 363a ee3c 89ba
00000260: 1052 d13b b4cb cdba 5957 403c b833 503c
00000270: b8af fb3b 26ec 0b3c 7de0 b73a 8ee7 853b
00000280: 90ed 5a3c 9bc2 60bc ba52 aa3b 192f ac3c
00000290: 568e 6e3a 4363 8ebc d957 1fbc 1168 34bb
000002a0: 7092 0dbb 267b eebb 9dd2 653b 4bd3 033c
000002b0: a285 05bc b84d d33b 797e 5cbc 82dc 9a39
000002c0: f1d4 2cbc 24bf 36bc bccf d5bb 264a d4ba
000002d0: ddce a33b 33fa ad3c 566a 31bc fd5c 313c
000002e0: ad37 81bb face 2bbc 2597 d43b 97e2 c4ba
000002f0: 3adc fb3a 5295 edbb ae19 58bc 9293 98bc
00000300: eecb 3bbb 327a beba ac26 9bbb 807c 2cbc
00000310: 1117 833c 2921 7ebb cc22 503c 40da 9a3c
00000320: 03fe 8c3b 210a 53bc ae72 2ebc 67c1 8b3c
00000330: b1af 603c 1962 613b f5d0 1a3b d914 dbba
00000340: a15d c3ba 50f2 f5bb 89b2 643b d6cf eebb
00000350: c806 46bc 3041 2cbc 00ba a73b 25f0 54bc
00000360: 3223 d338 a90a 8b3b 57eb 86ba a6ef 2dbc
00000370: 037e 0e3d 80e5 653a a972 5fbb 8e80 f73a
00000380: fb9d d43b 8060 e53b 4c59 423b 3e42 8d3b
00000390: 964d b23b f43f 953b fa50 a93a e86f 60bb
000003a0: 414d 6d3c 2590 9a3c 07ae 37bc 2194 463b
000003b0: d8af 0c3d ccac 3e3c af5e ccbc 9f68 193b
000003c0: a110 d63b 7f2a 1d3c 75fa 8d3b 6d02 d9b9
000003d0: 46db 9cb9 6916 e03a aab2 9e3b 0d80 adba
000003e0: 0fb3 da3c 21c3 053c fe71 0bbc 21ce 7eb9
000003f0: e5eb 183b 256f 643b a548 be3a b7a0 14bc
-0.00875179 -0.006394012 0.0069582053 0.00018909757 -0.010458915 -0.0013444051 0.0034390416 0.005593405
-0.007123548 0.012351704 0.006226093 0.0032866506 -0.0031443979 0.015294656 0.006954792 0.008707423
0.0007927153 0.00103019 -0.0018382692 -0.0064000166 -0.010516228 -0.009234939 -0.014185177 -0.009651966
0.006054805 -0.0059779803 0.00068124075 0.01616776 -0.0063711237 0.0047347 0.007587547 -0.02073528
-0.018966557 -0.0078953225 0.006659491 -0.0059941 0.006305944 0.0030606843 -0.01859945 0.026156744
0.003824723 0.0031570932 -0.0017572279 0.009165258 -0.010493406 0.0031340814 0.015702855 -0.00010538898
0.009615437 0.0053435704 0.0030487252 0.010022467 0.014559487 -0.012340671 0.012274634 0.0031567777
0.0008234022 0.017787458 0.01301275 -0.008862493 0.0052982415 0.009142127 0.001082814 -0.004568877
0.011000305 0.00899558 -0.010359444 -0.0062642125 0.0128956875 0.0014446941 0.008582621 0.0032201293
0.0048890207 -0.0050069573 0.0052159675 -0.0006306729 0.0075648194 0.029617462 0.011894601 -0.014756236
0.01506029 0.0028793078 0.0010761473 0.00013965566 -0.0021962195 0.013523213 0.0009469955 -0.010392614
-0.0011552296 0.007340124 0.011023337 0.011929305 -0.0019051513 0.012340695 -0.0075053945 0.005698947
0.0061445297 0.013934575 0.0029008673 -0.015046785 -0.0017522547 -0.0040582814 0.008325291 -0.0073015643
0.0014047725 -0.00016546102 0.012182212 -0.002554179 0.006673468 0.019252134 0.011075646 -0.009770811
0.020141069 -0.004556861 0.00042188712 0.0024061403 -0.009494409 0.02970284 0.020164754 0.009920168
-0.00621101 -0.0030498945 -0.0028540974 0.014538691 0.009049719 -0.003746786 0.0013727804 0.019725945
-0.008236002 0.0066959807 -0.00760532 0.012173248 0.019713286 -0.007269333 0.0051683765 -0.010094742
0.010411839 0.004217596 -0.009531656 0.001294772 0.0019130862 -0.01771406 0.0038595714 0.0057945754
-0.00895237 -0.004439852 -0.006484778 -0.0107764425 0.0134743815 0.010641512 0.0006944259 -0.0010470429
0.0063879564 -0.0015700967 0.011739575 0.012707643 0.0076808594 0.008540189 0.0014028695 0.0040864414
0.013362303 -0.013718273 0.00519785 0.021018552 0.0009100189 -0.017381316 -0.009725534 -0.0027527849
-0.0021602176 -0.007277864 0.0035068162 0.008045982 -0.008149536 0.006448474 -0.013457888 0.0002953746
-0.010548816 -0.01115397 -0.006525008 -0.0016196414 0.0049990253 0.021237468 -0.010828575 0.010825393
-0.0039434046 -0.010486359 0.0064877444 -0.0015021142 0.0019215413 -0.0072504664 -0.013189716 -0.018625055
-0.0028655487 -0.0014532267 -0.0047348347 -0.01052773 0.01600221 -0.003877709 0.012703609 0.018902898
0.0043027415 -0.012880833 -0.010647459 0.017059995 0.013713763 0.0034390746 0.0023623083 -0.0016714587
-0.0014905223 -0.0075056925 0.0034896454 -0.0072879596 -0.012086578 -0.010513589 0.0051186085 -0.012996708
0.0001006782 0.004243214 -0.0010293525 -0.010616219 0.034788143 0.0008769855 -0.0034095442 0.0018882917
0.0064885593 0.007000029 0.0029655276 0.004310875 0.005441378 0.004554743 0.001291781 -0.0034246389
0.014483751 0.018867562 -0.011210925 0.0030300694 0.034347385 0.011637878 -0.024947492 0.0023408306
0.006532744 0.009592651 0.0043328353 -0.00041391273 -0.0002991801 0.0017096522 0.0048430758 -0.0013237015
0.02669671 0.008164198 -0.008511065 -0.00024300117 0.0023333963 0.0034856286 0.0014517499 -0.0090715205

bias f4 [80]
00000000: 7ced 31bd 697d 523d 5ad6 04bd 0527 ab3c
00000010: cf65 44bd 9965 683c a28a 883d bb2b 623d
00000020: 8aa7 d838 99b3 9b3b ac7c 32bd ae07 5dbc
00000030: 81b2 92bd 4fc8 3fba 4c0a 2ebd 13b9 babc
00000040: febd 0f3c ef85 1c3c f9d1 363c 027f 91bd
00000050: 08ed e43c 6c9c 483c 45af 023c 7e8f 6f3d
00000060: b3d3 f33c 1a5a 32bd 34b4 0dbd f271 9bbd
00000070: b192 c83c 2d86 c5bc 3844 5ebc 0122 9b3d
00000080: 0038 2c3d 915b 913c fadd 533d 64eb 19bd
00000090: a370 b43d b4e9 753d 7bd3 a73b 3d9f e2ba
000000a0: 54af f03b 0c01 443d f8a5 61bb 27e8 61bd
000000b0: ec14 6eba 773b 02bd 109d 8dbd 0d26 8fbb
000000c0: bcb9 4abc ce5c 283d d11d 90bd 66c1 833c
000000d0: 19b2 9cbb 595d 34bd eb2a 223c 17b6 663d
000000e0: eb46 2fbc 5ab1 abbb 1782 a1bc b690 8dbd
000000f0: 788e a7bc ad87 78bd 8bff 2d3c bccf 93bd
00000100: 29c2 f0bc fd52 49bd dfae 7bbd c91b a6bd
00000110: d4e7 163b 16cd 883d 38da d0bc 3142 05bd
00000120: 9f31 d93c 96b6 43bd f2dd 273d 5784 6b3d
00000130: ef57 0b3d e0f0 2ebd 6310 34bd cbbf 05bc
-0.043439373 0.05138913 -0.032430984 0.02089263 -0.047948655 0.014184379 0.06667067 0.055217486
0.00010330889 0.0047516343 -0.043575928 -0.0134906005 -0.07162953 -0.000731592 -0.04249029 -0.022793328
0.008773325 0.009553417 0.01115846 -0.07104303 0.027945057 0.012244325 0.007976358 0.058486454
0.029764032 -0.04354296 -0.034595683 -0.07590093 0.02448401 -0.024111832 -0.013566069 0.07574845
0.042045593 0.017743858 0.051725365 -0.037578 0.08810546 0.06003733 0.005121646 -0.0017289888
0.0073451195 0.04785256 -0.00344312 -0.05515304 -0.0009082097 -0.03179499 -0.06914723 -0.0043685497
-0.012373384 0.04110413 -0.07036937 0.01608343 -0.004781973 -0.044034336 0.009897928 0.056326
-0.0106980605 -0.005239648 -0.019715352 -0.06912367 -0.020453677 -0.060676266 0.010620008 -0.072173566
-0.029389458 -0.04915141 -0.061446067 -0.08110768 0.0023026364 0.06679742 -0.02549468 -0.03253383
0.026512919 -0.04778155 0.040983148 0.057499256 0.034019407 -0.042710185 -0.04396094 -0.008163403

weight f4 [80, 80, 2]
00000000: 48d2 89bc fcaf 85ba 4152 403c e0b3 ac3a
00000010: 5d0f cdbb 315e 3c3a 722c 313b 3323 ce3a
00000020: 3144 b8bb 3701 7abb 9de1 3939 5214 fcba
00000030: 6446 6dbc 40eb 133c eb49 af38 9517 7d3b
00000040: 75f4 a8bc a574 8dbb 6731 a13a 5d1c 433c
00000050: dad5 223c 2ef8 b33b 9012 6a3c a073 5c3b
00000060: 0344 27bc d5cf b93b 1cdb 7bbc 8532 babc
00000070: bf43 e43b 83f7 1a3c 706c a0ba 49c3 c23b
00000080: d277 fcbb be2f 803c def3 50ba f783 6fbb
00000090: d9f2 f9ba 80e1 423b 2807 baba 4ff9 e33b
000000a0: 902c 293c e37c f6bb d60c 9db9 b275 98ba
000000b0: 48a8 d9bb 1cae fe3b e4c9 bfbb e521 763b
000000c0: c2c1 853c 83cc 673c 9746 35bc f8f5 c83a
000000d0: bdfd 7bbc 9673 52bc a5fb 2ebc d776 a03a
000000e0: c15e 97ba cb40 193c 0811 64bc c8ed 6fbb
000000f0: e96d 30bb 812d 0a3c ab78 79bb 58a0 d03a
00000100: 5702 89bb 7e45 85bc ba92 353c 0cf4 573c
00000110: c233 873c f142 563b 6e4e 8d3b 14a5 04bc
00000120: 6db8 f23b d7aa adbb dab9 ab3c 2de6 df3a
00000130: 443f 8d3c c6c5 583b a4c3 a53b fead 3dbc
00000140: b35c 40bb 9e1d 00bc cffb 583b 094b b3bb
00000150: f9da c5bc 2816 123b b1e2 e43b 04cc 1ebc
00000160: c2d2 3bbb 0645 1ebc 489d ce3a fda6 6c3c
00000170: 77e4 693b 50ba 64bc d61a 223c 3957 453c
00000180: c28a f43b aefe a5bb 446d 503c 1f37 243b
00000190: fb27 e437 c471 a3bb 62e2 f038 c2e4 13bb
000001a0: 3b45 7739 1420 ae3a e48a ce3b 2167 84bb
000001b0: a0fe 93ba 251c e03b b2c6 0c3c 79bb 3cbc
000001c0: 932f 54bb 45f9 183c 1eca 7e3c 8fb7 13bc
000001d0: 9b67 1eba 737f a83b 57ac a0ba d300 9cbb
000001e0: 4b4c 65bc 8b75 783a 41aa 32bc 0f4a 89ba
000001f0: 5eac 23bc 38bc c1bc fd91 0c3c fdd0 bcbc
00000200: 5db6 86bb 64e5 8d3c abef 9b39 db2c f93a
00000210: 060f 263c 2b74 12bc 65e6 c7bb 1939 2dbb
00000220: 6b6c cb3b 740c 5cbb 5f2d f0ba 9979 fd39
00000230: eff5 c2bb 12d1 77bc 93af ee3b c2c1 b2bc
00000240: c388 98bb f950 39bc d670 623b 053e 433b
00000250: 3f93 01bc 1347 54bb 8b5d 2fbc 35ba 133c
00000260: 1aa3 46bb b0d3 13bc 9fd4 b7bb a9c1 293c
00000270: 9111 eebb 5e30 74bb ea8f 0cbc 75ac e939
00000280: 8505 8ebc 5fc3 47bb 3690 3d3c 64fb 0bbb
00000290: 9c54 2a3b 14be a03b d02e 583a f824 ae3b
000002a0: f6b2 09bb 8e2b e1bb 9d6e 9abb 7382 d93b
000002b0: 1c7e 153c 2548 1c3c aeb1 cdbb 0159 03bc
000002c0: 910e 21bc 8912 cc3a 51fa 313c 59f5 d63b
000002d0: 6e65 08bb 7350 1fbb 0288 42bc cef5 253b
000002e0: 1581 2539 fc6f 0abc c11d b23a 797c 8fbc
000002f0: 925d 8fbc 7dff c43a 5f64 173c b810 f03a
00000300: 0ab7 873c 95c1 473b 599b 3cbc 3912 eebb
00000310: d83f f33a 08d1 123c 0ad0 943c c81f 293c
00000320: e1f9 943a b1f5 6a3c 60eb 4dbc 90bd f1bb
00000330: 0849 44bc a242 063c af0f 003c 32b5 ed3a
00000340: 1503 12bb 7cd1 573c 0597 c5bb 662c 80ba
00000350: a6d9 d5bb 937f 493c 8919 8bbc 295e b5bb
00000360: 053e e13b 1c68 343c b712 00bc 5e7f a6bb
00000370: 47a5 233c 94c7 bfbb 487a 6abb 24e6 59bc
00000380: 3c9f 283c 7f12 0a3c f5b0 a8ba fdf3 81bb
00000390: d972 973b e02b 553c 13da 133c 26d0 12bc
000003a0: ee10 fcbb e41a dbbb b17b 123c a571 2cbb
000003b0: 8b42 9e3b 3023 1c3a 8288 ec3b 4214 6a3c
000003c0: f37e b339 6895 903c b7ba 3e3b 439e deba
000003d0: c9db 843b 4a6d a43b 6790 0a3c 3f12 9ab7
000003e0: 10bc 1abb ea11 1dba 754b 2e3c b2ea 403b
000003f0: 3d4e d13b 36d0 86bc 5ffe bbbb 58b3 2fbb
-0.016823903 -0.0010199542 0.011738361 0.0013176166 -0.006257935 0.00071856665 0.0027034548 0.0015727043
-0.0056233634 -0.0038147697 0.00017727022 -0.001923213 -0.014482114 0.009028256 8.3584186e-05 0.0038618792
-0.020624379 -0.0043168836 0.0012298048 0.011908618 0.0099386815 0.005492232 0.014286652 0.0033638254
-0.010209086 0.0056705275 -0.015372064 -0.022729168 0.006966084 0.009458425 -0.0012239348 0.00594369
-0.0077047134 0.015647765 -0.00079709094 -0.0036547163 -0.0019069567 0.002973646 -0.0014192807 0.00695721
0.010325566 -0.007522212 -0.00029954937 -0.0011631756 -0.006642375 0.0077722203 -0.0058529247 0.0037556824
0.016327742 0.0141478805 -0.011064193 0.0015332093 -0.01538032 -0.012844941 -0.010680114 0.0012242448
-0.0011548625 0.009353827 -0.013920076 -0.0036610235 -0.002692098 0.008433701 -0.0038066308 0.0015916927
-0.004181187 -0.016268488 0.011082346 0.013180744 0.016504172 0.0032693709 0.004312328 -0.008095998
0.007407239 -0.0052999067 0.020962644 0.0017082148 0.017242081 0.0033076867 0.0050587226 -0.0115771275
-0.0029352128 -0.007819561 0.0033109074 -0.0054715914 -0.024152266 0.0022291038 0.0069850315 -0.009692196
-0.0028659557 -0.009660011 0.0015763426 0.01444411 0.0035689154 -0.013960436 0.0098940935 0.012044721
0.0074628303 -0.0050657606 0.012721363 0.0025057269 2.7198335e-05 -0.004987927 0.00011486259 -0.002256677
0.00023581546 0.0013284707 0.006303178 -0.0040406142 -0.0011291094 0.0068392926 0.0085922945 -0.011519306
-0.003237699 0.009336774 0.015551118 -0.009015932 -0.000604266 0.0051421463 -0.0012258393 -0.0047608404
-0.01399524 0.00094779645 -0.0109048495 -0.0010474342 -0.009989826 -0.02364932 0.008579728 -0.023048872
-0.004111095 0.017321296 0.0002974247 0.001901056 0.010135418 -0.008938829 -0.006100463 -0.0026431738
0.006207993 -0.0033576759 -0.0018324069 0.00048346518 -0.0059497277 -0.01512553 0.0072841137 -0.021820907
-0.004654975 -0.011310809 0.0034552119 0.0029791605 -0.007908641 -0.0032390996 -0.010703455 0.009016563
-0.0030309618 -0.009022638 -0.005610063 0.010361114 -0.0072652777 -0.0037260274 -0.008579234 0.00044569714
-0.017336616 -0.003048144 0.011570027 -0.0021359557 0.0025990373 0.0049054716 0.00082467217 0.0053144656
-0.002101121 -0.006871647 -0.004712893 0.006637865 0.009124305 0.009538685 -0.0062772846 -0.008016826
-0.009830133 0.0015569489 0.010862903 0.0065600094 -0.002081241 -0.0024309426 -0.011873247 0.0025323513
0.00015783713 -0.008449551 0.001358919 -0.017515408 -0.017500672 0.0015029755 0.009240239 0.001831553
0.016566772 0.0030480374 -0.011511647 -0.007265356 0.0018558456 0.00896097 0.018165607 0.010322519
0.0011365974 0.014340804 -0.012568325 -0.007377334 -0.011980303 0.008194597 0.007816239 0.0018135665
-0.002227967 0.013172504 -0.006029966 -0.0009778857 -0.00652619 0.0122984825 -0.01697995 -0.0055349064
0.0068738484 0.01101115 -0.007816962 -0.0050811013 0.009988136 -0.005852649 -0.0035778452 -0.013299499
0.010291871 0.008427261 -0.001287012 -0.0039658532 0.004621845 0.013010949 0.009024161 -0.008960759
-0.007692448 -0.006686555 0.008940623 -0.0026312855 0.00482971 0.0005956171 0.0072184214 0.014287056
0.00034236125 0.017649367 0.002910299 -0.0016984422 0.0040545207 0.005017911 0.00845728 -1.8366727e-05
-0.002361063 -0.0005991744 0.010638108 0.0029436764 0.0063875006 -0.016456705 -0.0057371105 -0.0026809778
