GAN/NO Generator/NO_epochs=1000_seq=80_batch=5.pth (torch, 674968 bytes, 31 tensors)

weight f4 [1, 80, 1]
00000000: 574a 803c a3b5 e53a 616b 053c c3fc 363b
00000010: 4a02 c93b f38c 95bb 5bd4 a2bc e9ee 193c
00000020: dec4 a13b 12cf 0d3c a82d b9bc b070 d03c
00000030: bd03 a63b fba9 29bc 4ebb 703c 85f1 d93c
00000040: 5363 23bb 581f 09bc ef4d 753c 82a9 78b9
00000050: 4061 013c 6789 b639 444f 3dbc 5635 ab3c
00000060: a16c c0ba 3fdb 24bc a816 9b3b ea60 c0ba
00000070: 90d3 253a ce58 8ebb fb18 fcba a618 31ba
00000080: dd26 01bb 3935 25bb 2945 f8bb a704 2d3c
00000090: 189b 593c 80b5 24bb 28fc f7ba f084 10bb
000000a0: 30c4 89bb 2130 f83b 0887 2d39 d6c3 7c3c
000000b0: 0cee 96ba 814d d83b c4db 12bc f683 fd38
000000c0: 8db5 78b9 cbcd c9bb 0776 543c 7f70 86bb
000000d0: 3f89 a03b 4a62 00ba b0b8 fdba 27ca 88b8
000000e0: 7f61 03ba 4fb7 4fbb a15f f7bb deb7 6abc
000000f0: 634b a93c 4d49 423b 5de5 1ebc 4f87 d43b
00000100: 37b6 99b8 4738 66ba dfac 403c dbe1 783c
00000110: acb7 93bc 5089 823b 9c03 dfbc 8841 403a
00000120: a9ce 1aba a676 61b9 ad8f 903c 55b0 feb8
00000130: 29f1 153b c84d 0f3c 1a1a ecba 9904 61bb
0.015660448 0.0017525445 0.008143277 0.0027921654 0.006134306 -0.0045639216 -0.01987665 0.0093953395
0.0049367985 0.008655326 -0.022604778 0.025444359 0.0050663636 -0.010355468 0.014693094 0.026604423
-0.0024931028 -0.008369289 0.014972194 -0.0002371427 0.007896721 0.00034816118 -0.011554543 0.020899456
-0.0014680811 -0.010062038 0.0047329254 -0.001467732 0.0006325776 -0.0043440824 -0.0019233519 -0.0006755687
-0.0019707002 -0.0025208725 -0.007576604 0.010560191 0.013281606 -0.0025132596 -0.0018919753 -0.0022051893
-0.0042042956 0.007574097 0.00016548869 0.01542755 -0.0011515035 0.006601036 -0.008963529 0.0001208856
-0.00023718756 -0.0061585656 0.012967593 -0.004102766 0.0048991735 -0.0004897459 -0.0019357409 -6.522639e-05
-0.00050117815 -0.0031694954 -0.0075492417 -0.014326064 0.02066583 0.0029645741 -0.009698239 0.0064858566
-7.329549e-05 -0.00087821897 0.011759966 0.015190567 -0.018031918 0.003983654 -0.0272234 0.00073339837
-0.00059054286 -0.00021501872 0.017646635 -0.00012144508 0.0022879338 0.008746572 -0.001801315 -0.0034335016

weight f4 [80, 3, 1]
00000000: 46fd a2bc 217f 39bc e9e0 d9bb dc90 e43c
00000010: 185b 0c3d a61d 2abc 05da 6b3d 46df b83d
00000020: 0d1b 95bb 1da8 093d 1056 ad3c 9430 fcbc
00000030: f89a f0bb 011b 5c39 e95e 09bc cc8a 06bd
00000040: 99c0 86bd 4562 b33c 3fe5 323d 7f9b 723d
00000050: a42e a5bb c810 9ebb 7007 a93c e667 1ebb
00000060: 11c5 143c 2fff 823b 91e3 3cbc 8508 f8b9
00000070: d960 d13b 48d5 a53b 1d67 36bc 5844 10bc
00000080: 68a9 593b 85d8 2fba be7f fd3b 417e 943c
00000090: d2db 5bbd 1063 7bbd 756d 5b3b 4183 eebc
000000a0: ce59 96bc bcba 6fbb bee0 5f3a e325 bf3b
000000b0: e41f 75bc e10e 77bc 344a cabc c34f bfbb
000000c0: 94c5 fe3a 9c55 6dbc c1b4 10bc b5d4 103c
000000d0: e7e9 f43a 30b6 a43c bb0a 153a c750 08bc
000000e0: 0f36 9f3b 8f51 953c 73f4 7c3c c611 64b9
000000f0: 2a77 793c a54d b03c eade b4bc 6a57 fb3b
00000100: df70 5b3d 4f62 68bc ecc7 27bd 4e3c 85bd
00000110: c8a4 49bb a8f1 6e3b 63ae 99bb e855 01bc
00000120: 5c4d de3b af49 30bb 32ac 8d3c bd98 eebb
00000130: a477 f5bc a15b 12bb 7f12 3f3d f91b 3d3d
00000140: 3394 51bc 9fe2 283d 8c99 2f3d 380d 72bc
00000150: 10db c1bc d150 11bd 6944 b33b 8576 7f3c
00000160: d715 b33c 9139 1dbc 4106 a9bc 1ba5 0ebd
00000170: 12f7 d63c 3f7a 1e3d a0f8 e43c 5c66 2c3c
00000180: ecc7 a5bc 93f7 f0bb 31b6 983c 95ac ebbb
00000190: f641 c1bc cc51 983c a305 32bb 23f3 493b
000001a0: d897 ec39 33c1 373c fb75 5c3c 6993 94bb
000001b0: 11b6 ddbb c9ec 323b d888 cabc db9b 89bc
000001c0: f065 a73b b061 df3b dfef 3fbc 8999 2dbd
000001d0: 471a 9ebb b365 b63b af5d b6ba c349 9f3b
000001e0: 6088 82bb d7a7 c5bb 4405 6b39 5027 66bc
000001f0: e123 6abc a412 fcbb 86bd e5bb b3df 78bc
00000200: 500d 803a f090 b1bb 727e c4bc c90d a93c
00000210: b98d 8f3b 11e3 8f3b bc6b d8bb 41f5 213c
00000220: f2e8 c83c d3f1 36bb a741 68bb 7525 a0ba
00000230: 162a 6dbb 884b 883a 2055 2b3c 3de4 f8bb
00000240: 3051 97bc 8b28 9abc c506 a4bb 656f fdbc
00000250: 5ea6 35bd da6f ca3b ea58 3cbd 49db 7cbd
00000260: 64d7 b63c 51fe 99bc 9ecf e2bc c1d1 c8bb
00000270: ce6c 0fbc 3ba2 b5bc 5158 a9bb 7868 d83c
00000280: c439 023d d770 3cbc 1130 cabb 71be d5bc
00000290: beec 443c ecff d83c 7073 583d 13b5 c13b
000002a0: 236a 3cbd 4950 1fbd f383 d13c e714 a138
000002b0: d73f 1d3d a3e9 813c 6e67 0b3c 1e02 e03c
000002c0: 404f 4bbc c0df 69bc ee45 03bc fe5e 6fba
000002d0: 66d5 9fbb 5890 cebc cc3c 4d3b 7f87 e7bc
000002e0: f1f4 b3bc a69f c53b 0006 6a3c 01f4 f43c
000002f0: c31f 42bb 2420 a1bc 5d6a b93c 2d68 a23c
00000300: eed0 a93b 65d7 9f3b 9c86 8bbc 74ff 633c
00000310: f514 ef3a f4cb 7dbc d23d dbbb 307f cebc
00000320: 5afd cb3b 75ec 44bc baa3 6abb a1aa 29bb
00000330: 400c 32bc df92 28bd d7cb 833b e78d 32bc
00000340: 33fd 4cbc 2573 6fbc 2bcf 63bb 1505 f23b
00000350: 5c26 fbbb 355a 143d f3fc 823b bc28 863c
00000360: 9d15 983c b704 a1bc 5352 33bc a3e4 74bb
00000370: 15dc ec3c 6b35 573a 1c49 a7bc abaa 1bbd
00000380: 2d04 203c efc7 723b cc5e 13bc ed2a 53bb
00000390: afa1 133d 4b2e fa3c 691c 033c 944b 6b3c
000003a0: 666a fb3b d503 d43b 3470 ab3c 5c6f 723c
000003b0: 02e2 1dbb f6c8 3d3c c6eb d13a d0a2 1cbc
-0.01989616 -0.011321814 -0.006649126 0.027901106 0.03426656 -0.010383045 0.057580967 0.09026961
-0.004550344 0.03360759 0.021159202 -0.030784883 -0.0073426925 0.00020990895 -0.008384445 -0.03284721
-0.06579704 0.021897445 0.043675657 0.059230324 -0.0050409604 -0.004823778 0.02063343 -0.0024170815
0.009080187 0.0039977054 -0.011528865 -0.00047308594 0.006389719 0.0050608255 -0.011132983 -0.008805357
0.0033212546 -0.0006707984 0.0077361753 0.018126609 -0.053676434 -0.06137377 0.003348199 -0.029115321
-0.01835337 -0.0036579808 0.0008540264 0.005833374 -0.014961217 -0.015079231 -0.024693586 -0.0058383658
0.0019437545 -0.014485743 -0.008832158 0.008839776 0.0018685431 0.020106405 0.0005685498 -0.00832004
0.004858739 0.018227367 0.015439141 -0.00021750396 0.015226165 0.021521399 -0.02207895 0.0076703327
0.05357444 -0.014183595 -0.040962145 -0.06505643 -0.0030768383 0.0036459956 -0.004689978 -0.007894017
0.0067841243 -0.0026899388 0.017294023 -0.0072813914 -0.029964276 -0.0022332447 0.0466485 0.046169255
-0.012791681 0.041231748 0.042871043 -0.014773659 -0.023664027 -0.035477463 0.0054708016 0.015592222
0.021861 -0.009596244 -0.020632865 -0.034825426 0.02624086 0.0386908 0.027950585 0.010522451
-0.020236932 -0.007353732 0.018641563 -0.0071922042 -0.023591023 0.018593691 -0.0027164004 0.0030815087
0.0004512656 0.011215496 0.013455863 -0.004534174 -0.006766089 0.002730178 -0.024723455 -0.01679795
0.0051085874 0.006817065 -0.011714905 -0.04238275 -0.00482491 0.0055663227 -0.0013913418 0.004861088
-0.0039835423 -0.006031971 0.00022413308 -0.014047459 -0.014290781 -0.007692652 -0.0070111183 -0.015190053
0.0009769592 -0.005418889 -0.023986075 0.020636456 0.0043809083 0.004391082 -0.00660464 0.009885133
0.02452514 -0.0027915135 -0.0035439522 -0.0012218194 -0.0036188415 0.0010398487 0.010457307 -0.0075955675
-0.01847133 -0.01881816 -0.00500569 -0.030936906 -0.044348113 0.0061778845 -0.045983233 -0.061732564
0.022319503 -0.018798025 -0.02768689 -0.0061285202 -0.008753968 -0.022172084 -0.005167999 0.026417002
0.03179337 -0.0115015125 -0.0061702807 -0.026091786 0.012019334 0.02648922 0.052844465 0.0059114783
-0.045999657 -0.038894925 0.025575614 7.6809716e-05 0.03839096 0.015858477 0.008508546 0.02734476
-0.012409031 -0.014274538 -0.008012278 -0.00091312814 -0.004877734 -0.025215313 0.0031316755 -0.028262852
-0.021967383 0.0060309945 0.014283657 0.029901506 -0.0029620982 -0.019668646 0.022633726 0.019825066
0.005182377 0.004877972 -0.01703196 0.013915885 0.0018240499 -0.015490521 -0.006690719 -0.025207132
0.00622527 -0.012019266 -0.0035803155 -0.0025889056 -0.010867178 -0.041155692 0.0040221023 -0.01089809
-0.012511539 -0.014614855 -0.0034760933 0.0073858597 -0.007664485 0.03621884 0.003997439 0.016376846
0.018564994 -0.019655569 -0.010944921 -0.0037367723 0.028913537 0.0008209559 -0.020420603 -0.03800456
0.009766621 0.003704544 -0.008994769 -0.003222163 0.036042865 0.030539652 0.008002379 0.014361281
0.007672596 0.0064701834 0.020927526 0.014797058 -0.002409101 0.011583557 0.00160157 -0.009560302

bias f4 [80]
00000000: 4371 fcbe ec51 6e3d a7d7 f33e 492e 30bd
00000010: 1655 0dbc 1d7e c83e 4a0b f1bd d2cd e3be
00000020: ee77 4e3e 2ea5 0ebd 4f62 b3bc e2fe 0abf
00000030: ac55 0d3f bc06 83bd 281d 07bf cbeb 2e3e
00000040: 127b ff3d 3b14 dfbe 9f72 99be 9ea2 f03e
00000050: a981 2e3e d158 c03e 0b4a 503e a87d b3bd
00000060: a029 bb3e 6ac5 893e f92d b13d 0a88 bc3e
00000070: 135e 193e 1d03 49be ae3a 153e e1c4 e43e
00000080: 7c7d eabe 9e59 0ebe 0796 88be 9b80 6ebc
00000090: f86d 95be 8447 a7be de8c edbe 9625 9cbe
000000a0: 870c 74bc adc3 b7be 8759 93be 493b f5bd
000000b0: a582 b7be 3f02 a4bc fdd4 07bf 9cc3 083f
000000c0: fe2c a4bd 0108 fd3e f438 9b3e d03d 753e
000000d0: 9c14 673d 6cc2 063d d6ee abbe e651 d8be
000000e0: 3d94 833e 9d72 1bbe fb76 fd3e 338f 533a
000000f0: df68 f0bd 642b 93be 6e9d 283e 4a40 0abf
00000100: 3a0c 38be 1d7f afbe 4daa b0be 1001 debe
00000110: 6344 e6be f500 4bbc 85f8 01bf 4bbd fd3d
00000120: 477d d6be 899a c43e 9cc3 093f cbf4 3f3e
00000130: 2725 9e3e 936a 99be 4115 c83e 413a ed3e
-0.49305162 0.058183596 0.47625467 -0.04301289 -0.008626243 0.39158717 -0.11769731 -0.44492966
0.20162937 -0.034825496 -0.021897463 -0.5429517 0.5520885 -0.06397769 -0.52778864 0.17082135
0.12474646 -0.43570122 -0.2997026 0.46999067 0.17041649 0.37567762 0.20340745 -0.087642014
0.36555195 0.26908427 0.08651347 0.3682254 0.14977293 -0.19630094 0.14573166 0.44681457
-0.45798862 -0.13901374 -0.26676962 -0.014557029 -0.29185462 -0.3267175 -0.46396536 -0.30497426
-0.014895565 -0.35891476 -0.2877924 -0.11974198 -0.3584186 -0.020020602 -0.5305937 0.53423476
-0.08016394 0.4942017 0.3031689 0.23949361 0.05641614 0.03290026 -0.33580655 -0.42249984
0.25699034 -0.1518044 0.49504837 0.00080703496 -0.117387526 -0.28744042 0.16466305 -0.5400435
-0.17973414 -0.34276667 -0.3450493 -0.43360186 -0.4497405 -0.012390365 -0.50769836 0.123896204
-0.41892454 0.3839915 0.538141 0.18745725 0.3088772 -0.29964122 0.39078715 0.46333507

weight f4 [80, 80, 1]
00000000: de41 2f3c e0e5 12bb 7f5f a7bb e1a5 783c
00000010: 084f ab3c 9daf cc39 2a20 c3bb 96d7 823c
00000020: 1bbb e0bb efe0 573c eb7a 7abc 3108 fb3b
00000030: 3c23 95bc 0b23 9539 edb5 7a3c 165b 733b
00000040: 453a 043c 4353 2cbc e65a 953c 8c94 88bc
00000050: 9686 44bc 86a5 543c d3ff de3b fcee ad3b
00000060: bad7 bfbc c462 f6bb 2702 3ebc 51e4 2cbb
00000070: 0cca 2abc 40e9 21bc 0652 50bc 94af 43bc
00000080: 4f12 45bb f7b3 6a3c aae6 053c 5486 9a3b
00000090: eacd 923c 696d 803c 7209 103c fdbf 693c
000000a0: ccd5 0fba 66f0 bf3a 742e 913c 76b0 1b3c
000000b0: 30b8 d73b 72b6 353c 7c50 503c 04e3 8a3c
000000c0: c83b 7abc e9f4 82bc 75b5 8c39 386f 8bbc
000000d0: 4d3e 3c3a 812f 653c b0c0 15bb 69c4 1f3b
000000e0: b6c6 73bc 2b95 623b ba26 90bc b9bb bf3b
000000f0: 637f 60bb 9075 0dbc 7584 78bc 75f4 4f3c
00000100: 05e1 93bc 88b4 60bc af81 1fbb 2004 1cbc
00000110: 09ea 49bb 2e2e d7ba 3681 fd3b b0dd c9bb
00000120: cad1 86bc ef4b 84bb e6e8 8ebb 7147 3abc
00000130: b6de 943a 18eb 65bc 3cd2 88bb b577 023b
00000140: 8616 873a bef0 b0bb b89a 3c3b 819b 31bc
00000150: 598c 9d3b f395 bfbb 3152 93bc 1cb9 763a
00000160: 6912 89bc 79ac ec3a 7970 373b adb5 ccbb
00000170: 3132 45bc 81e3 18bc 8d96 863c 8d29 553b
00000180: 4063 3f3c 94e2 7fbc 510c 193c 76bf 643b
00000190: ab3c 36bc d015 07ba 78de 703c b7e6 f2bb
000001a0: 3619 12bc a2c7 c0ba b027 1a3b 0d9e 52bc
000001b0: 2558 9fbc c890 7fbb 5ab9 88bc 31d2 943c
000001c0: f77c a83b 54d2 1fbb 8b68 92bb c28c 2bbc
000001d0: d6b1 60bb 410b 043c b810 fd3b 7eb8 9b3b
000001e0: 99d4 2dbc 7697 423c 9b83 8839 d41f 76bb
000001f0: b9ba 8abb c2d9 9c3c 8962 e03b e663 aabc
00000200: c37a 1c3c 5d77 123b e03e 443c abf6 56bc
00000210: 5991 0a3c deb3 99bb 6580 b23b d18d 2b3b
00000220: 71b6 53bb b864 1a3c e3ee 2e3a 1ccb 2a3c
00000230: acfc 2ebc 3210 8a3b d2c8 a03b b803 933b
00000240: 949b 393c a30e adbb 398f 283c 7a3b 5a3c
00000250: 7875 563c 761b 6dbb b45b 8a3b c1b7 e1ba
00000260: 34f6 bb3b 047a aa3b 8a1b 213c 2031 3fbc
00000270: 3065 043c 0a19 60bb 4a73 c2bb 649e 043c
00000280: 37d5 f0bb cb7a d53b d086 d33c cdc0 dabb
00000290: 4bdb 14bc f61f 393c 2b8a 50ba 4361 2c3a
000002a0: f9c8 573a 573e 463c 3c40 b53c 4dbe 31bc
000002b0: 8dc2 283b d467 3f3c a08c c3ba f4eb 6d3c
000002c0: cc23 afba 7a71 233b dcbc 48bb 78f2 fb3b
000002d0: 69ef f1bc 728b 083c 9225 403c 98a3 9339
000002e0: 8070 80bc 15b9 f5bb 6a2a 873c 25fa 603b
000002f0: c613 31bb 2aac a0bb 5b6d 93bb 632f e739
00000300: f739 d5bb 6e71 f8ba 0fe6 7bbb 4fbd b5bc
00000310: 6010 8d3b 79fb 00bb 9075 4b3c a3ce fb3b
00000320: 4472 a43c 2e19 803c cf2f c13a 265d e83b
00000330: 4a9f af3b f4ea 5c3c 2c68 543b 621b d53b
00000340: 2296 693b ef2e db3a 4821 393b 05ea bcbb
00000350: 1bc2 02bb 9014 7639 9e03 f23a ac1a c5bb
00000360: b28a 2fbc 8774 fbbb 0d58 8ebb 4411 c9bb
00000370: c74a bebb f0dd 15bc 8b2d 10bc bb49 71bb
00000380: 9b41 883a 2c49 e2bb 0d39 a73a 45f2 a33b
00000390: 66ab ecbb 4121 9a3c 8594 89bb 786b 653a
000003a0: a618 0e3c 45ff 93ba 06ab 2d3c b2d8 7cbc
000003b0: 6ddf cf3b 2e2d 47bb afb7 55bc f8bf 8b3b
000003c0: e801 943c 5363 9bbc 7ad4 64bb d2ec 393c
000003d0: 6469 08bc 552d 01bc 7333 ba3c aa68 7e3c
000003e0: 9305 59bb 9f29 b9ba 5b9c c13c c48b f13b
000003f0: db6d b1bb dd8e 81ba 6041 903b b4d9 e7bc
0.010696856 -0.0022414848 -0.0051078196 0.015176267 0.020911708 0.00039040754 -0.005954762 0.01597194
-0.006858242 0.013176187 -0.015288095 0.0076608886 -0.018205278 0.00028445604 0.015302164 0.003713315
0.008070533 -0.010517898 0.01823182 -0.016672395 -0.011994978 0.012978917 0.006805399 0.00530803
-0.023418296 -0.007519098 -0.011597193 -0.0026381204 -0.010424148 -0.009882271 -0.012714868 -0.011943717
-0.0030070727 0.0143251335 0.00817267 0.00471572 0.017920453 0.01567717 0.008791314 0.014266965
-0.00054868753 0.0014643788 0.017722346 0.009502521 0.006583236 0.011090862 0.0127145015 0.016953953
-0.015273042 -0.015985923 0.00026838077 -0.017020807 0.00071809144 0.013988377 -0.0022850446 0.0024378544
-0.014878919 0.0034573774 -0.017596591 0.0058512357 -0.0034255616 -0.008633986 -0.015168299 0.01269256
-0.018051634 -0.013714917 -0.0024338772 -0.009522468 -0.0030809662 -0.0016416961 0.0077363504 -0.0061604604
-0.016457457 -0.0040373723 -0.0043612598 -0.011369572 0.0011357877 -0.0140331015 -0.0041754525 0.0019907777
0.0010306395 -0.0053997925 0.0028778743 -0.010840298 0.0048079905 -0.0058467328 -0.017983528 0.0009411739
-0.016732411 0.0018056772 0.0027990623 -0.0062472434 -0.012035892 -0.009331585 0.01642921 0.0032525987
0.011681378 -0.015617985 0.009341315 0.0034904159 -0.011122863 -0.00051530916 0.014701478 -0.0074127573
-0.008917144 -0.0014707933 0.002352219 -0.012855065 -0.01945121 -0.0038996208 -0.016689945 0.018166633
0.00514185 -0.002438684 -0.004468029 -0.010470571 -0.0034285686 0.008059324 0.0077229403 0.004752218
-0.010609769 0.011876931 0.00026037995 -0.0037555592 -0.004233685 0.019146804 0.006847684 -0.020799588
0.009550753 0.0022348978 0.011977881 -0.013120334 0.008457505 -0.0046906313 0.0054474347 0.0026177058
-0.0032304788 0.009423427 0.000667317 0.010424402 -0.010680359 0.0042133564 0.004906752 0.0044865273
0.011328597 -0.005281286 0.010288053 0.013319844 0.01308953 -0.0036179698 0.0042223576 -0.0017220901
0.005736137 0.0052025337 0.009833226 -0.011669427 0.008080766 -0.0034194612 -0.0059341537 0.008094404
-0.007349636 0.006514882 0.02582112 -0.0066758157 -0.009085487 0.011299124 -0.0007955159 0.00065757724
0.00082315464 0.012099824 0.022125356 -0.010848594 0.0025750727 0.011682469 -0.0014919229 0.014521588
-0.0013362109 0.0024939463 -0.0030630147 0.0076888166 -0.029533105 0.008334028 0.011727707 0.00028159912
-0.015678644 -0.00749887 0.016499717 0.0034328785 -0.0027019843 -0.004903336 -0.00449912 0.0004409506
-0.006507154 -0.0018954703 -0.0038436686 -0.022184996 0.0043049306 -0.001968114 0.012418166 0.007684545
0.020074017 0.015637007 0.001473898 0.0070911823 0.005359565 0.013483752 0.0032410724 0.0065035084
0.0035642465 0.0016722361 0.0028248597 -0.005765202 -0.0019952122 0.00023468048 0.0018464213 -0.0060151424
-0.01071422 -0.0076738033 -0.0043439926 -0.0061360914 -0.005807254 -0.009147152 -0.008799921 -0.0036817628
0.0010395529 -0.0069056954 0.0012758091 0.005003246 -0.0072225807 0.018814685 -0.004198613 0.0008751671
0.008672869 -0.0011291286 0.010599857 -0.015432524 0.006343773 -0.003039192 -0.013044282 0.004264828
0.018067315 -0.01896826 -0.0034916685 0.011347966 -0.008325908 -0.007884343 0.022729611 0.015527884
-0.0033114895 -0.0014126784 0.023634126 0.0073713977 -0.005414707 -0.0009884496 0.0044023246 -0.028302051

bias f4 [80]
00000000: a01d b53c 5b0c 30bd 5e56 f8bc 1e91 503d
00000010: 6888 d1bd 0232 42bd aad8 e13c 2a7d a43c
00000020: b64c d63d c38a b0bd 410f d6bd 4343 dc39
00000030: c8a4 9c3c 8f91 d6bd 5ed1 413d bfd3 a63d
00000040: cf20 ccbc f576 c7bd 1bd4 7dbd bcf6 cf3d
00000050: 598d b3bd dc93 8dbc 6497 a3bd 561d 4dbd
00000060: 839c a3bd a25b 23bc 90d1 473d 2f46 b3bc
00000070: 6838 f6bd 2a9e bb3c 5b77 d63c ecda d23d
00000080: f366 1e3d b371 903d a331 c4bc 28f0 9fbd
00000090: daa2 aabc 9e5e 29bc 63a7 bf3d f475 eabd
000000a0: 70a1 2bbd 00ce 453d fe97 673d 7da3 933b
000000b0: 93b1 f6bd baab b4bd cd13 f6bc 6fe3 91bd
000000c0: de98 873d e4f0 42bc 312d 213d 582b ca3d
000000d0: 5bce aa3d 4c0e bebd cdb4 cd3d 4bfa 8fbb
000000e0: 2867 a63d 431d cbbd f9a8 723d 0434 d93c
000000f0: 59ed d4bd 8cba aabd 26dd 86bd c585 a33d
00000100: 9886 23bc 669c 95bd 39de c7bb 5c8d 3abc
00000110: 8926 44bd dc4d b4bd 349f aa3d b9a1 a6bc
00000120: 862b aabd 43e1 953c 1040 aebb 67cb a0bd
00000130: be99 8bbd 3a74 3abd 86a6 bcbd 0a3a 9fbd
0.022108853 -0.042980533 -0.03031462 0.050919645 -0.102310956 -0.047410972 0.027569134 0.020079214
0.1046385 -0.08620217 -0.10452128 0.00042011784 0.019121543 -0.10476982 0.04731881 0.08145856
-0.024917988 -0.09739486 -0.061969858 0.10154483 -0.08767194 -0.017282419 -0.0798786 -0.050076805
-0.079888366 -0.009970577 0.04878384 -0.021884052 -0.120224774 0.022902567 0.02617996 0.10295662
0.0386724 0.070529364 -0.02394945 -0.07809478 -0.020829607 -0.0103375 0.09358098 -0.11448279
-0.041902006 0.04829216 0.056541435 0.0045055733 -0.12045588 -0.08821817 -0.030038739 -0.07123458
0.06620954 -0.011898253 0.03934974 0.098715484 0.083401404 -0.09280071 0.10044251 -0.004393851
0.08125144 -0.099176906 0.059243176 0.02651406 -0.10396833 -0.08336362 -0.065851495 0.07984499
-0.00998082 -0.07305221 -0.006099489 -0.011386242 -0.047888312 -0.08803913 0.08331147 -0.020340787
-0.08309083 0.01829589 -0.0053176954 -0.07851296 -0.06816433 -0.045521 -0.09211449 -0.07774742

weight f4 [80, 3, 1]
00000000: ff34 b53d f93a ec3d e8ef 00bc 245a b8bd
00000010: d98d 0bbe 542f 323c 8255 de3d 5f56 1f3e
00000020: 93c0 d9bc ec65 b73d aebe 033e 7ac1 89bc
00000030: 652f ec3d 2985 1e3e 1eec 6fbc 6939 c7bd
00000040: 6800 23be af74 803c 257e a1bd 4057 09be
00000050: 697f 253c 7658 5bbd 0f67 7abd 6ebf f23b
00000060: 83e3 cbbd 9ee0 c4bd 0f06 043c 9b69 ba3d
00000070: cfd9 013e a275 c4bb 3045 d5bd e6ee 00be
00000080: e13a b73c ebbf c1bd 7bd6 b8bd 3ae5 793c
00000090: 1b20 e33d 44bc 103e 8eb4 97bc c27b dfbd
000000a0: df5f 0abe f258 9f3c ab8e a33d 8bf8 ee3d
000000b0: 5915 b3bc ab9e c53d 8411 fc3d 20b7 4abc
000000c0: c7f6 c9bd 12d3 d1bd 9bd5 57bb c4ee e5bd
000000d0: e823 1bbe 79e1 cebb 3754 c13d e53c 0c3e
000000e0: 0270 5a3a a723 563c 5372 9cb9 3d85 fd3a
000000f0: 077a 0dbd 0f42 6abd a364 d63b 8bfc 71bd
00000100: ce05 d0bd a474 9a3c 57c3 cf3d a3b9 ee3d
00000110: 0075 00bd 6137 b6bd 7373 08be a29b 173d
00000120: 14c4 aebd dfcd c1bd fe0a 7e3c 2cc3 be3d
00000130: cab0 e43d 3616 ccbc 45aa cabd cc82 00be
00000140: 32c9 403c 35cb b1bd 78da e3bd 6692 fb3b
00000150: 5a4d b33d 2719 da3d 15d0 cdbc 6bea f4bd
00000160: e8ce f4bd ec8c 833c 7162 8a3d c913 b93d
00000170: 3487 41bc d7bf cb3c 07f8 5a3d c342 81bc
00000180: d72c fc3d ba8a 273e d861 a1bc 0e26 673d
00000190: 8a8f a63d 10be a6bc 6a6d 2a3d 5afd 323d
000001a0: 985d 06bd 6569 c53d 8d5e 0f3e 69b1 57bb
000001b0: ce65 c2bd 3174 ebbd 3c62 723c 84c7 c13d
000001c0: 3187 013e a444 1ebd f7a2 8f3d 6d33 a33d
000001d0: f51b 75bc 6852 de3d a2be e23d 81a8 06bc
000001e0: 5de7 163d c728 5e3d 77c1 3bbc 6276 63bd
000001f0: 6d2a a4bd 33cd 413b 1d3f 61bc 4e03 99bc
00000200: 3e4d 953b eeee be3d c9c8 fe3d 2016 03bc
00000210: 3c1c 423d 1752 7d3d 4a30 6abc 43ac bf3d
00000220: 2163 0d3e 2eb5 acbc d887 efbd 2da9 22be
00000230: 0a99 a73c 5022 15bc 4744 96bc 9ebd 16bc
00000240: 2b77 95bd c358 cfbd 432f 7a3c bf68 95bd
00000250: 17af fdbd f265 ec3c 69cb be3d 4fa9 0b3e
00000260: 2fd7 51bc edb0 d1bd 8219 0cbe a2ac 4e3d
00000270: 89d8 ebbd fdce 21be a46f ad3c 4264 a13c
00000280: c549 b23c 261d 463b 75eb 723d bb15 853d
00000290: b05c d8bc ac9f 9ebc c212 95bc d939 903a
000002a0: 96b2 943c 4136 e63c ab61 d93b a981 063e
000002b0: 0023 183e c4b6 c0bc 5c2b c2bd 33d5 11be
000002c0: c071 943c 3e9f b8bd 9c4a d5bd da8a f1b9
000002d0: 61cd c53d eb4a fe3d 0054 0bba 0ed0 d43d
000002e0: 259a fb3d f683 87bc c3e9 bebd fcb9 fbbd
000002f0: 2ee7 133d 5927 e73d 6a55 e73d 320e c4b9
00000300: fa9f 0ebd 7a37 f7bc 399d 253c 2a8d 213d
00000310: d98f 653d 60e0 85bb 5668 c83d f01f 013e
00000320: 507c eebb 10a9 d5bd f3d7 c7bd f897 1f3d
00000330: fd4a 88bd 5ddb 00be 4216 e33c 3c9a ce3d
00000340: 24bb 003e 8222 37bc ccd0 fd3d c4ba 0d3e
00000350: cc48 abbc d8be b23d 0f0d c83d 858c 09bc
00000360: b25c b6bd a3d1 05be 47f0 713c bed0 1bbc
00000370: d687 8bbb d1a2 733c 96f9 bc3d 3ef9 103e
00000380: 39ef 07bc c53e b4bc b39c a1bc 1e0e b63b
00000390: f36f 9e3d 5dc1 053e c862 02bc 7efa a23d
000003a0: 285e ee3d 321d a1bc 6323 aabd 7ecf febd
000003b0: b9fe dd3a c06f d5bd 3de7 f7bd 9a39 f0ba
0.08847999 0.11534686 -0.007869698 -0.09001568 -0.1362833 0.010875542 0.10856153 0.15560292
-0.026581084 0.08954987 0.12865707 -0.01681589 0.11532477 0.15480484 -0.014643697 -0.09727747
-0.15918124 0.01568064 -0.07885388 -0.1341219 0.010101178 -0.05355116 -0.06113344 0.007408074
-0.09955504 -0.09613155 0.008058085 0.09102174 0.12680744 -0.0059954682 -0.10413587 -0.12591133
0.022366943 -0.094604336 -0.09025284 0.015252406 0.11090108 0.14134318 -0.018518712 -0.10912277
-0.13513134 0.019451592 0.07986196 0.116684996 -0.021860765 0.09649404 0.12308028 -0.012372762
-0.09861522 -0.102453366 -0.0032933715 -0.112271816 -0.15150416 -0.0063134995 0.09439891 0.13695104
0.00083327305 0.013070024 -0.00029839817 0.0019342076 -0.034540202 -0.057191905 0.0065427586 -0.059078734
-0.10157357 0.018854447 0.1014468 0.11656501 -0.03136158 -0.088972814 -0.1332529 0.037013657
-0.08533493 -0.09463095 0.01550555 0.0931457 0.11166532 -0.024912935 -0.098957576 -0.12549895
0.011766719 -0.08681337 -0.11125654 0.007677364 0.08754988 0.10649329 -0.025123635 -0.11958774
-0.11953527 0.016058408 0.067570575 0.09036977 -0.01181202 0.02487175 0.053459194 -0.015778905
0.1231324 0.16361514 -0.019699976 0.056432776 0.08132847 -0.0203543 0.04160825 0.043698646
-0.0328041 0.09639243 0.14000912 -0.0032912141 -0.09492074 -0.11496771 0.014793929 0.09461883
0.12649228 -0.03863968 0.07013505 0.07968793 -0.014960279 0.108555615 0.110715166 -0.008218885
0.03684174 0.054238107 -0.0114597 -0.05553282 -0.080159046 0.002957177 -0.013747958 -0.018678334
0.004556327 0.09322916 0.124406405 -0.0080008805 0.047390208 0.061845865 -0.01429374 0.09359028
0.13807346 -0.021082487 -0.11695832 -0.15884848 0.020458717 -0.009102419 -0.018343104 -0.009200482
-0.0729812 -0.10124352 0.015270057 -0.07295369 -0.12386911 0.028857205 0.09316141 0.13638805
-0.012807651 -0.10238824 -0.13681605 0.050457604 -0.1151591 -0.15801616 0.021171398 0.019701127
0.021763692 0.0030229776 0.05930658 0.064982854 -0.026411384 -0.019363247 -0.018197421 0.0011003568
0.018151563 0.028102042 0.0066339574 0.13135399 0.14857101 -0.02352465 -0.094809264 -0.14241485
0.018120646 -0.09014748 -0.10414621 -0.00046070555 0.096583135 0.12416633 -0.0005314946 0.10391246
0.1228526 -0.016542416 -0.0932193 -0.12291333 0.036109142 0.11286802 0.11295588 -0.0003739461
-0.034820534 -0.03017782 0.010108286 0.039441265 0.056045387 -0.0040855855 0.097855255 0.1260984
-0.007278003 -0.10432637 -0.09757986 0.038963288 -0.06654928 -0.1258368 0.027720574 0.100880116
0.12571388 -0.011177661 0.123933405 0.13840777 -0.020908736 0.08727807 0.09768116 -0.008395319
-0.08904399 -0.13068251 0.014766759 -0.009510217 -0.0042581363 0.014870361 0.09227292 0.14157578
-0.008296781 -0.022002587 -0.01972804 0.005555882 0.07736196 0.13062043 -0.007958122 0.07957934
0.11639053 -0.019667242 -0.08307531 -0.1244192 0.0016936875 -0.10421705 -0.12104652 -0.0018327713

bias f4 [80]
00000000: 6889 073f 92b3 81bd 0d33 b5be bdee ed3e
00000010: ddba a4be 1d58 80bd 5a79 dabe 6ae1 683e
00000020: c217 81be 7146 e7be a2be ee3e 5b85 e53a
00000030: c40b f33e 75b5 353e 172e 053f c483 b43e
00000040: 25e3 f13e f283 1f3e c103 86bd 6d26 4cbe
00000050: 3e1c a83d fce8 a7be ca7e 4ebe fa39 c8bc
00000060: be40 d63e 9bcb 0cbe bab6 00bd 56a6 a43d
00000070: 82b6 ed3e 6c2c 0f3f ea56 31bd afce e4be
00000080: 7784 fdbd 23c6 83be 7ea9 19be 7edd aabd
00000090: 0e5b ab3d 9c91 00be a871 a1be 69eb 5e3e
000000a0: fa30 c1bd b8f0 79be de37 0dbe 477b 823e
000000b0: d149 703e 2058 18be 4bb8 fd3e f203 00be
000000c0: 1289 953e 8629 46be 4cf7 70be b544 b13e
000000d0: 80c9 f7be 3011 c7be 2c1b 9dbe 3c7e 0ebf
000000e0: 6bc4 9abe e3df 38be 7393 d53e 958b e53e
000000f0: 5d9f 073f 37f8 0b3f f25a 11bf cb1e a63e
00000100: 879a f33e d529 42be 8fdd 33bd 99e3 3ebe
00000110: e3c3 63be 80d5 0d3f 9eda bc3d 5e87 813e
00000120: 8f89 88be 9c9f 5abe d794 dcbe 61a4 9dbe
00000130: a391 993e d8e0 003f feae de3e 5eec ecbe
0.5294404 -0.063330784 -0.3539051 0.46471205 -0.32173815 -0.06266806 -0.4267071 0.22742239
-0.25213438 -0.4517093 0.46629816 0.0017511057 0.47469914 0.17745002 0.5202345 0.3525678
0.4724361 0.15577677 -0.06543685 -0.19936533 0.08208512 -0.3279494 -0.20165554 -0.024441708
0.4184627 -0.13749544 -0.03142426 0.080395386 0.46428305 0.5592716 -0.04329578 -0.44688937
-0.12378781 -0.25737104 -0.15006062 -0.083430275 0.08366977 -0.12555546 -0.31532025 0.2176949
-0.0943317 -0.24408233 -0.13790843 0.25484678 0.23465659 -0.14877367 0.49554667 -0.12501505
0.2920614 -0.19351777 -0.23531836 0.34622732 -0.4839592 -0.388803 -0.30684793 -0.5566137
-0.3022798 -0.18054156 0.41714057 0.44833055 0.52977544 0.5467562 -0.56779397 0.32445368
0.47578833 -0.1896127 -0.043912467 -0.18641509 -0.22242694 0.554039 0.092213854 0.2529859
-0.2666745 -0.21349949 -0.43082306 -0.30789474 0.29993924 0.50343084 0.43492883 -0.46274084

weight f4 [80, 80, 2]
00000000: ab07 e53b 1bea a3bb 13fa 80bc 8031 503c
00000010: 13d1 323c e8c0 3dbc 1fbf 9d3c 192f 213c
00000020: bd15 8c3c 3757 533c 44d3 fcb9 c305 f9bb
00000030: 4f52 88bb 6a77 243b a045 41bc cce8 803b
00000040: 0369 dd39 2430 36bb 3c51 413c bf9d e03b
00000050: 044a 04bc 3db0 bc3b 4e09 823b 80cf 2bbb
00000060: 817e 5c3c 918d f73a 8fa9 a1bc e705 50bc
00000070: 4632 feba 369c 81bb ac37 653c b1eb 413c
00000080: a72e 6ebc d0a9 1c3c 6833 06bc 3386 b13b
00000090: e937 de3b bcf8 54bc d67b 7cbb 2592 6dba
000000a0: 42b6 493c fa8e 10bc e5a8 543c 7c12 043c
000000b0: ff36 ab3b c0c8 dcbb 92a0 15bc b05c 833c
000000c0: b64a 04bc f6a8 6f3b 8c73 333b c469 1abc
000000d0: 1b1c b1bc d559 cfbb 80b0 48bc 30de d33a
000000e0: 8a8c 233c d077 b5ba a088 0dbd 814b acbc
000000f0: 8ff2 bd3b 0181 feb8 0dbb 95bc a400 c33b
00000100: 41c5 723a f57e 87bc 0da0 6cba 15bb 01bb
00000110: c3ef 8eba adc9 893c fb76 613c 3c6b 203c
00000120: 2746 793a 73cb 39bc 37cb 343c 438a 103c
00000130: c296 c43c 5754 163c b739 20bb 67f9 01bb
00000140: f201 d13c 775d edbc 3816 ea3b 50d9 7d3c
00000150: b685 ee3c e8cc c43b e674 70bc 6dd2 8bbc
00000160: 79c2 733b a8b4 473c 8fa6 db3b 8243 83bc
00000170: 73fb e6bc ad33 a9bc 5d1a e43b 9b55 29bc
00000180: cab1 5fbc c1eb abbc 2deb aa3c 05be e5bb
00000190: 513d ed3b b202 7dbb d50f 0ebc 0e7e 9f3b
000001a0: f9f9 653c f68f 033c 3b07 563b 7821 53bc
000001b0: 52d4 693c d8b2 a9bb 8081 71bc 9c9b 063b
000001c0: 25de 25bc cee7 dd3b 0ed2 53bc 75c1 fc3b
000001d0: 89ae 20bc 8672 3f3c 45c1 8cbc ce74 acbc
000001e0: 966e c63b a336 f3ba ca7f 493c a4fc 47bc
000001f0: 220a 3039 dc45 1cbc bff3 953a e41f 733b
00000200: 2456 e33b 785a 8f3c 13d4 23bc 4584 983c
00000210: 07a6 603c 710c 223b bca5 853b 58cc 2e3c
00000220: 7785 60bc 16e6 feba cbeb 54bc 2141 e5ba
00000230: f2fe f63b 6446 86bc 4080 d43c 557c 2a3c
00000240: 375e 8dbb b469 943c 7067 13bc 9805 d6bb
00000250: 849f fb3b 214f 723c 2b8d 053c a964 61bb
00000260: 311f 8fbc b211 34bb 9d26 b63a 137f 993b
00000270: ec6b 0dbc 3281 2bbb b4d1 1bbc 3890 923c
00000280: cc1b 893b fb2d f93b e029 bbbb 3121 ea3b
00000290: 1a2d b03b 497f 8cbb dc6a 273c 2e67 f4bb
000002a0: c7e4 013c b11b 3d3c 078c 5cbb c9a4 983b
000002b0: dc0a 49bc 35a6 98bc 7cd8 80ba 467d 0a3a
000002c0: d2c8 5e3c 6437 343b 4ec8 b73b e0e4 2bbc
000002d0: 034c d8bb 8db4 f9ba 3ad6 aebc 05bd eebb
000002e0: a02f a13a fca1 09bb f142 753b 5f5c 9a3c
000002f0: 25d5 49bb f350 0bbc 2cb8 583c a84f 10bc
00000300: 8fa1 703b 304e acbb 2f20 97bb fc87 a53b
00000310: 3ad8 f5bb 7b0f 293c 9594 1cbb ffef e43a
00000320: 1b01 9ebb b6fd a4bc 233e f5bc 3d59 47bc
00000330: 760c 723c a049 333b 5b05 bcbb 8d5e a63b
00000340: 1b4d 993b 4f37 1abc e632 703c fb5e 1bbb
00000350: 1dd3 15bc c3af 203c bbda b938 9996 833a
00000360: 2780 8dbc 07fb 03ba 3290 e8bb acf3 28bb
00000370: ca8e 58ba 629f 0cbc 1f70 683c c2e0 593b
00000380: 3a85 59ba 3a7e 4dbc d7a9 2fba 5013 acbb
00000390: 0887 e73b ba19 343c 97c2 f83b 8033 c8ba
000003a0: c2de 98bb 9e4d f5bb 7d7a 693b 9eee 5b3c
000003b0: c3e2 ba3c d3f4 033c a397 a43b a033 ba39
000003c0: fcb9 c63b 0fe1 0c3c 1ab4 c43b 0299 e23b
000003d0: 6561 0a3c b5b4 ea3b a99b 983c 1203 083c
000003e0: 228f ad3b c7ca 673c 9a5a 9a3b 0ca7 9439
000003f0: e1b1 f7bb e12b a2bb a6c0 9bbb 6057 513b
0.0069894395 -0.005002273 -0.015744245 0.012707114 0.010914105 -0.011581637 0.019256173 0.009837889
0.01710021 0.012899212 -0.0004822259 -0.007599564 -0.0041602026 0.002509559 -0.011796385 0.0039340016
0.00042230645 -0.002779969 0.011799153 0.0068547423 -0.008074287 0.005758314 0.0039683944 -0.002621621
0.013457895 0.0018886795 -0.019734172 -0.01269672 -0.0019393645 -0.0039553894 0.013990324 0.011835978
-0.01453749 0.009561971 -0.008190967 0.005417609 0.0067815674 -0.012998756 -0.003852596 -0.000906261
0.01231152 -0.008823151 0.012979721 0.008061048 0.005225062 -0.0067377985 -0.009132521 0.016035408
-0.008074453 0.0036569214 0.0027382104 -0.009424631 -0.021619847 -0.0063278475 -0.012249112 0.001616424
0.009982238 -0.0013844911 -0.034554124 -0.021032097 0.0057967375 -0.00012135693 -0.01827767 0.005951004
0.00092609605 -0.01654003 -0.0009026535 -0.0019795347 -0.0010905195 0.0168198 0.013761277 0.009791192
0.00095090497 -0.01134001 0.011034778 0.008822027 0.023997668 0.009175382 -0.0024448463 -0.0019832493
0.025513623 -0.028975232 0.007143762 0.015493706 0.029116493 0.006005872 -0.014676308 -0.017068112
0.0037194772 0.012189068 0.006703205 -0.016023401 -0.028196072 -0.020654524 0.0069611506 -0.010335351
-0.013653228 -0.02098644 0.020864094 -0.0070111775 0.0072399755 -0.0038606343 -0.008670767 0.004867322
0.014036649 0.008029928 0.0032658118 -0.012886398 0.0142718125 -0.0051787905 -0.014740348 0.0020539528
-0.010123764 0.006772018 -0.012928499 0.0077134916 -0.009807237 0.011685019 -0.017182002 -0.02105179
0.0060556633 -0.0018555712 0.012298534 -0.01220623 0.00016788443 -0.00953814 0.001144044 0.0037097866
0.006937759 0.017499194 -0.009999293 0.018617759 0.013711459 0.0024726654 0.004078595 0.0106688365
-0.0137036955 -0.0019447233 -0.012995671 -0.0017490723 0.007537716 -0.016390987 0.02594006 0.01040562
-0.00431421 0.01811681 -0.008996829 -0.0065314285 0.007678928 0.014789374 0.008151333 -0.0034392274
-0.017470928 -0.0027476368 0.0013897006 0.004684338 -0.008631688 -0.0026169536 -0.009510446 0.017891034
0.004184222 0.0076043583 -0.005711779 0.00714507 0.0053764703 -0.0042876345 0.010218348 -0.007458589
0.00792808 0.011542247 -0.0033652799 0.004658316 -0.0122706555 -0.018633941 -0.0009830142 0.00052829494
0.013597684 0.0027498836 0.005608595 -0.01049158 -0.006600858 -0.0019051001 -0.021342386 -0.0072857165
0.0012297519 -0.0021001091 0.0037423933 0.018842874 -0.003079721 -0.0085031865 0.013227504 -0.008808054
0.003671739 -0.005258344 -0.004611991 0.005051611 -0.007502583 0.010318632 -0.0023892273 0.0017466544
-0.004821909 -0.02014051 -0.029936856 -0.012167272 0.014773479 0.0027357116 -0.005737943 0.0050771893
0.004678381 -0.009412601 0.014660573 -0.0023707736 -0.009144572 0.00980753 8.862229e-05 0.0010039388
-0.017273022 -0.00050346594 -0.0070972675 -0.0025780005 -0.00082610233 -0.008582922 0.014186888 0.0033245538
-0.00082977454 -0.012542302 -0.00067010283 -0.0052513257 0.0070656575 0.010992462 0.0075915563 -0.0015274137
-0.0046652267 -0.0074860593 0.0035625987 0.01342359 0.022813207 0.008053976 0.0050229593 0.00035515148
0.0060646515 0.00859858 0.006002915 0.0069152126 0.008446072 0.0071626552 0.018628912 0.008301513
0.005296604 0.014147467 0.0047105076 0.0002835322 -0.0075590466 -0.0049490784 -0.00475319 0.0031942949

bias f4 [80]
00000000: 96cc 8e3d d812 933d d3f8 8c3d 792d 8d3d
00000010: 3d84 043d e76a 17bd 70da 853d b124 253c
00000020: 1012 393d a4a7 07bd de29 19bc 75b7 7f3d
00000030: c382 a6bc d995 9f3c e456 173d ce4b 393b
00000040: 15ae b23c 84bf 88bd 96e6 8a3d bf04 70bd
00000050: 48b1 97bc 5bca 113d ee5d 22bd 9577 983d
00000060: 44e1 6fbd e3d7 ea39 5422 38bd 4dd6 9ebd
00000070: abb8 523d b23a 41bd 2710 4ebc e0a3 6dbd
00000080: c374 29bc de77 85bd 9240 373a eadb 5cbd
00000090: a248 69bd c64d 82bd aa33 0fbd aa1f 9d3b
000000a0: e2d8 3d3b b158 5e3d d121 51bd e9e4 8ebd
000000b0: 96a7 4c3d 21e6 323d d99f 83bd 7147 9f3d
000000c0: 176d 4bbd 33da e23b 99ac 94bd a1ac 873c
000000d0: f219 5fbd ca68 763b 7b62 68bd cc64 6bbd
000000e0: 5100 813d ea7c c93c 3f74 66bb d4b0 43bd
000000f0: ab19 4b3d 0bc5 5e3d a1f5 873d e1a1 74bd
00000100: 68ee b7bc 350b 5ebd 5c0f 40bd c73d 933c
00000110: 6ada 8f3d fa7d 703d 001b a43d ba2f 50bc
00000120: 1024 073d 52de e7bc da57 9eba 8194 b53c
00000130: ac50 9ebc 19a9 8f3b 8d50 133d 0251 8a3b
0.069726154 0.071813285 0.06883397 0.06893439 0.032352675 -0.036967184 0.06535804 0.010079549
0.04518324 -0.03311886 -0.009348361 0.062430818 -0.020326024 0.019480633 0.0369481 0.0028273943
0.021811524 -0.06677154 0.06782262 -0.058598276 -0.018517151 0.03559337 -0.03964036 0.074446835
-0.05856444 0.00044792806 -0.044954613 -0.077557184 0.051445644 -0.047175117 -0.012577093 -0.05801761
-0.01034278 -0.065170035 0.0006990518 -0.053920664 -0.056954034 -0.0636249 -0.03496138 0.0047950344
0.0028968384 0.0542838 -0.05105764 -0.06977255 0.04996451 0.0436765 -0.06426973 0.07777298
-0.049664583 0.006922984 -0.07259483 0.016561808 -0.054468103 0.003759908 -0.056734543 -0.057469174
0.062988885 0.024595696 -0.0035164503 -0.04777606 0.049585026 0.054387134 0.06638647 -0.059724692
-0.022452548 -0.054209907 -0.046889648 0.017973794 0.07024081 0.05871389 0.08012962 -0.012706691
0.032993376 -0.028304253 -0.0012080625 0.022165539 -0.019325577 0.0043841717 0.03596549 0.0042210827

weight f4 [80, 80, 2]
00000000: fb98 2f3b 2246 34bc b96c b23b 95d6 4bb8
00000010: 58aa 443c 544a 0f3c d6f3 01bb d2a8 d83a
00000020: ab77 a4bb a833 0eba d168 15bc 99fb 833c
00000030: e24d 6f3b 0213 8bbb 6cb6 49bc a287 64bc
00000040: 40b1 903c 57f5 41bc 1340 25bc 77b3 043a
00000050: afa6 78bb 268d ef3b ec2b 173c dba1 543b
00000060: b7e8 373c 8bf4 ffbc 3328 613b 3cac d53b
00000070: 67f8 143c df9a 943b bef4 423c 3077 b8bc
00000080: d807 f2ba 5e57 943a 5b2a ea3c 0213 26bc
00000090: bac0 d43a 307a 383b d043 253c c18f cc3a
000000a0: d874 913a 3ee9 e73b f6b4 953c 7c6a 65bc
000000b0: f982 bebc 4513 733b 9e55 b43a 12ed b5bc
000000c0: d9a6 f03a 1485 a03c d99e c6bb 2928 03bb
000000d0: c0d2 d7bb 114e 0f3a 46de 95bb 9a3a 923c
000000e0: 312a 83bb 688a 523b 07f8 e3bb 0d39 533b
000000f0: 1866 b83b e9bf 6abb ba31 8c3c eea0 bebc
00000100: bceb d63b 933e 253c ba1b 6e3c 66b9 8cbb
00000110: d054 0ebc d94b d33b c6d5 ef3b a557 193c
00000120: 009c 0cbc f043 833a edee 8abc 8ca7 393c
00000130: 6da2 273b 1b10 783c 7382 043d c3d8 9ebc
00000140: 03c0 903b 2582 6a3b ea2c 99ba d58e 3bbc
00000150: 858c 453c 5484 69bc 69d2 643c 15cc b2bb
00000160: 4a83 2fbb 6436 32bb 4988 cabb b8ce 03bc
00000170: 701f 61bb 27a3 873b 90c8 24ba ed16 253c
00000180: a245 2cbb e638 a03c 7ebe 50bb d2c9 1b3c
00000190: 3576 113c a413 60bc 7c37 b4ba ebe0 edb9
000001a0: e80b ab3a aa8d 80bc a2a2 5bbb 8e7c 8b3c
000001b0: 25cf 6b3c d225 083b 86fd e1bc 1053 633b
000001c0: 900e d53a fdd7 7e3b ff71 c13b 820d 19bc
000001d0: 11bd d2bb d020 b23b dbcd 863b 5733 213c
000001e0: b762 7cbb 1385 2c3c 76f0 e6ba faed f7bb
000001f0: f6c1 20bb 4074 793c acff eaba e4b2 57bc
00000200: abff 723c f9ff 2dbc 621b 7e3c 61e6 b53c
00000210: dd6c 8e3b 593b 62bc 0c22 a3bb e2bd 36bb
00000220: f9f1 0a3c 25ba 39bc 6a44 bc3c bcd8 82bc
00000230: 3149 50bc 6a00 933b e6d7 9f3c 333e 78bc
00000240: 668c 7e3c 9c04 163c a56e b539 2f05 a33b
00000250: acbb a1ba 9c1c b0bb 7309 07bc 1165 39bc
00000260: 2f41 7bbb d673 43bc ddd7 293c eec2 313c
00000270: e1d2 72bc dfa0 543b 85a5 a53c be46 aebc
00000280: 84b4 88bb de7a d63b 986f 98bc 8ddd 3eba
00000290: 65ea 6bba 0f20 8ebc 8a32 6c3c 996d c43b
000002a0: 03ed 99bc 19a1 9cbb f5d1 183c 4557 583b
000002b0: 89f9 233c 2a9c 083c 0961 1dbc a910 533b
000002c0: 601d 5dbc aab9 56bb bc76 ae3b bcda 31bb
000002d0: 44b8 85ba 26ca e3bb 636a 9ebc 1771 93bc
000002e0: 5d6f 373b 3e35 f23b e675 d4bb 9902 da38
000002f0: d2c2 1fba 1e07 72bc 4485 5abc acb8 c23c
00000300: 8612 133c e50a 573b c44d b83b 42db fa3b
00000310: 2460 dd3b e256 e1bb 88fb 96bb c855 733a
00000320: c346 18bb caef c839 1e95 f4bc 609b af3b
00000330: 5ddf 623c 5902 c0ba 751d 7fbc 9f4c 3e3c
00000340: 14a4 493c 8d5d b33b 6f24 04ba 11b9 13bc
00000350: ac6c 02bc 615f e0bb 2029 033c beb7 85bc
00000360: b50d 62ba 145c 9d3b 6dcf 683c 848e 923c
00000370: 0ed1 803b 748e f9bb 8bb3 c739 c6b8 543c
00000380: 4db7 8f3c e49a b63a 6c98 3bbc 538f b4bb
00000390: 2731 dcbb 6374 f3ba 2c61 343c 340d e03b
000003a0: 58c1 bf3b 40b0 973c 948a 6f3b e3ab 8f3c
000003b0: 4860 333b 9a31 7d3c 0d75 c1bc e836 ac3b
000003c0: 0b1a dd3b 617d 033c bbce 083b 5ad1 c63b
000003d0: b53a 8fbb 28a6 d83b 788a 8dbc 6feb 053c
000003e0: 27d6 a33c 555e d23b 7713 acbc 7f04 1a3c
000003f0: 3478 b93b 3d8f 4fbc caae f0bc 2088 243a
0.0026794064 -0.011003049 0.0054450897 -4.8598817e-05 0.012003504 0.008745749 -0.0019829175 0.0016529805
-0.0050191483 -0.00054245675 -0.009119228 0.016111182 0.0036514928 -0.0042442093 -0.012311559 -0.013948353
0.017662644 -0.011838279 -0.010086077 0.0005062143 -0.0037941148 0.0073105274 0.00922678 0.0032445106
0.011224917 -0.031244537 0.0034356236 0.006520776 0.009092427 0.0045350636 0.011899171 -0.02251777
-0.0018465472 0.0011317541 0.02858465 -0.010136368 0.0016231753 0.0028149001 0.010086969 0.0015606807
0.0011097444 0.007077365 0.018274765 -0.014002439 -0.023255812 0.0037090343 0.0013758426 -0.02220777
0.0018360271 0.019594707 -0.0060614166 -0.002001295 -0.0065864027 0.000546665 -0.004573616 0.017850209
-0.0040028323 0.0032125954 -0.0069570574 0.003223005 0.005627405 -0.0035819954 0.017113555 -0.023270097
0.0065588634 0.01008572 0.014532978 -0.004294562 -0.008687213 0.0064482507 0.007319185 0.009359275
-0.008582115 0.0010014754 -0.016959632 0.01133145 0.002557899 0.015140559 0.03235097 -0.01939047
0.004417421 0.0035783139 -0.0011686359 -0.011447628 0.012057428 -0.014252741 0.013966181 -0.0054564574
-0.0026781135 -0.0027193064 -0.0061807972 -0.008044891 -0.0034351014 0.0041393223 -0.00062859897 0.010076267
-0.0026286622 0.019558381 -0.0031851823 0.009508567 0.00887828 -0.013676558 -0.0013749446 -0.0004537174
0.0013049813 -0.01569255 -0.0033513685 0.017027166 0.014392649 0.0020774496 -0.02758671 0.003468696
0.001625495 0.0038886063 0.005903482 -0.009341599 -0.00643123 0.0054360405 0.0041138954 0.0098389005
-0.0038510987 0.010529774 -0.001761927 -0.007566211 -0.0024529672 0.01522547 -0.0017928979 -0.013165209
0.014831464 -0.010620111 0.015509458 0.02220458 0.0043464736 -0.013808095 -0.004978424 -0.0027884175
0.008480542 -0.011335884 0.022981841 -0.015972488 -0.012712763 0.0044861333 0.019512128 -0.015151548
0.015536403 0.009156372 0.00034605447 0.004974983 -0.0012339256 -0.0053745043 -0.008241999 -0.0113156
-0.0038338413 -0.011929473 0.010366407 0.0108496975 -0.014820785 0.003244452 0.020220527 -0.021273967
-0.0041719098 0.0065454086 -0.0186079 -0.00072809384 -0.0008999466 -0.017349271 0.014416346 0.0059945104
-0.018789774 -0.0047799465 0.009327401 0.0033011 0.010008224 0.008338014 -0.0096056545 0.0032205975
-0.013495773 -0.0032764473 0.005324213 -0.0027138432 -0.001020201 -0.006951588 -0.019337839 -0.017998261
0.0027989962 0.007391601 -0.006483781 0.00010395534 -0.0006094399 -0.014772205 -0.013337437 0.023769699
0.008976584 0.003281289 0.0056245048 0.007655532 0.0067558456 -0.0068768123 -0.0046076216 0.0009282497
-0.0023235537 0.0003832563 -0.02985626 0.0053590983 0.013847199 -0.0014649137 -0.015570988 0.011614948
0.012307186 0.0054737986 -0.00050408294 -0.009016291 -0.00796048 -0.0068473076 0.00800541 -0.016322967
-0.00086232583 0.0048022363 0.01420961 0.017890222 0.0039311713 -0.0076158587 0.00038090008 0.012983507
0.01754346 0.0013931659 -0.011449914 -0.0055102496 -0.0067197266 -0.0018574115 0.011009496 0.0068375114
0.005851906 0.01851666 0.0036551105 0.017538017 0.002737062 0.01545372 -0.023615384 0.005255569
0.0067474893 0.008025498 0.0020875174 0.006067437 -0.004371012 0.0066116042 -0.017277941 0.0081738075
0.019999577 0.0064199367 -0.021005375 0.009400486 0.0056600813 -0.012668428 -0.02938022 0.0006276388

bias f4 [80]
00000000: ffd6 d33c fab0 b2bc 4b95 023d 2984 783d
00000010: 4231 af3d b21f 8dbd a2c7 983d 5223 e8bd
00000020: dc58 313d 1f59 33bc 128a 80bb c731 d23c
00000030: 0a49 9bbd b42b 343d 1a5c b1bb 3770 2cbc
00000040: e723 66bb ff12 63bd 57c3 14bc 18a8 15bd
00000050: d2bb 78bc 8ced b43d d54f 62bd bf9d c43b
00000060: 07f9 98bd 7324 27bc 8df5 2b3d 5d4f 773d
00000070: 04ae ddbd a082 2ebd 7b35 aebc 50b6 39bc
00000080: afd0 643d 0759 06bd 1d56 8a3d 3b7c 0dbd
00000090: f217 09bc 562c 85bb 5ae6 81bb 8b4e 0bbd
000000a0: 4bfd 183d 459c 793d 403e 83bb 3109 d73c
000000b0: f2e0 cebc a8af 2c3d d5f6 4f3d 531b 86bb
000000c0: a672 89bd c782 7ebd a07e 4cbd e74a 4dbd
000000d0: f17a 223d cca8 8e3d e68f 293c fcda ab3c
000000e0: 8368 1c3d 96eb 073d 0933 af3c a2c8 3bbd
000000f0: 69fa 10bd 39c2 103d 1390 793d 5b4e 103d
00000100: f947 92bc 2d98 20bd dbe9 503d 80d9 8d3c
00000110: 9cd3 febc 4874 6e3d 754f 89bd a5db c8bd
00000120: 5a70 873d f375 0fbd 8d3a 64bd c489 bb3c
00000130: d6aa 433d f693 273d 73ae 303d fc6d 8eba
0.025859354 -0.021812905 0.031880658 0.060672913 0.08554317 -0.06890811 0.07459952 -0.11334862
0.043297634 -0.010946541 -0.0039227093 0.025658501 -0.075822905 0.04398699 -0.0054125907 -0.010524801
-0.0035116614 -0.055438038 -0.009079776 -0.03653726 -0.015181499 0.08834371 -0.055251915 0.00600025
-0.07469373 -0.010201561 0.041982222 0.06037842 -0.108242065 -0.042605042 -0.021265736 -0.011334971
0.05586308 -0.032799747 0.06754706 -0.034542304 -0.008367525 -0.004064123 -0.0039642276 -0.03401045
0.037350934 0.060940046 -0.0040052235 0.0262495 -0.025253747 0.042159706 0.050772507 -0.004092613
-0.067113206 -0.062136438 -0.049925447 -0.05012026 0.039668027 0.06965789 0.0103492495 0.020978443
0.038185608 0.033183657 0.02138664 -0.045845635 -0.03539506 0.035341475 0.060928416 0.035230976
-0.017856585 -0.039207626 0.051004272 0.017315626 -0.031106763 0.058216363 -0.06704608 -0.09807519
0.06613226 -0.035024595 -0.0557199 0.02289284 0.047770344 0.04091259 0.043135118 -0.0010866518

weight f4 [80, 80, 2]
00000000: 8dd2 b13c 9187 a0bb 5139 f8bb 19d3 74bc
00000010: 4906 db3c bfe2 b33a c4fa 653c 4747 99bc
00000020: 4687 ee3b 7720 bc3b 3b7e f2bc c9ee 08bc
00000030: 1173 3fbb f70b 813c 13f9 b4bc 1fcd ceba
00000040: 734c c1bc 04ed a93c 1d54 4c3c c727 3fbc
00000050: 0245 e5bc 7fae 783c cceb 943b b558 cf3b
00000060: 4be2 103c 7580 9f3b 869e 8abc 1723 113b
00000070: ef60 863c 2c75 05bc 6726 113d 07bd 333b
00000080: 9a58 53bc 1b0b d4bb 5fc4 0cbd b42e 773b
00000090: 09a2 223c 7371 7c3b 7f25 b13a 70de 33bc
000000a0: 831e 4f3a 1b23 543b 0b3e a13b e75b 753c
000000b0: 386c 983c 3cad 89bb 16f6 e7bb 4188 8c3c
000000c0: 7618 c3bc ca7e 9abc 8293 773c ec4c cd3a
000000d0: bb6d cbbb 8184 99bc 3154 46bc c7cf 85bc
000000e0: 2349 1cbc fc9e e1bb e160 e4bb 487c 9b3b
000000f0: 3829 ba3b 084f 513c ce35 973c 7b5d cd3c
00000100: e562 983c 3dcf b2bb db87 acbc b1c4 293c
00000110: acf2 b23b 9d84 01bc 51e1 1b3d 6b66 533c
00000120: 77d0 80bc 85c9 003b 5b46 d33c 67e6 293b
00000130: 2f85 213c dfa4 27ba 5533 2d3b 67fc 4fbc
00000140: f171 c43c 124e 6fbc 7e80 c8bb 788b c73b
00000150: 9f13 5abb 1594 2ebc 0ab9 4e3c ef91 7cbc
00000160: 63fb 083c b1fe b83b 51f9 843c 5c5e 9a3c
00000170: e1aa adbc c630 bebb 2fc5 bf3a 1e2e 5c3c
00000180: e5a1 acbc 712e 833b 2e9d fabc 8ad5 be3b
00000190: 8133 973c 7fb7 6c3b b68f 2fbc edae b1bc
000001a0: d844 cbbc aa37 8e3a 3abb 863c a0b3 a9ba
000001b0: e5c2 f23a 66ef 20bb 6d73 793c e97a 7f3b
000001c0: ba71 873c 5e9d 733c 3ca6 b93c 41cd 823b
000001d0: 2367 8abc 951b 92bc 8fc9 03bd 2356 cc3b
000001e0: b3a0 5c3c fea3 a0bc 803e a23c 6287 84bc
000001f0: 390b c3bb 08eb c4bb 1d9a fa3c 9c9d 93bc
00000200: 5289 0bbc 247c 90bb 8857 d23b 7941 3b3b
00000210: d5a1 c23c d93b 1d3c 7261 11bc 648b a6bb
00000220: 071a 72bc d46c a3bb 2e54 863c 2ffd 01bc
00000230: 5ce4 563c 3873 4e3c 5751 293c 133a 91bb
00000240: bfd4 83bc 2f49 c039 147a 14bc fcaf 1ebc
00000250: 22e1 903c 54f0 923c 2b70 873c 39c2 993b
00000260: 784e c83b ae8f 93bc 7b9c 293c 8832 11bc
00000270: 7659 79bc 70cd 34bc 0b8c 313b e368 743c
00000280: a8b2 7f3b 6eca 823c c16d 5dbb 54b1 f0bb
00000290: 27dd c239 589e 013d a0a9 a0bc 657c 10bb
000002a0: 786f c03c 5cd4 f63c 467f e3b8 2c02 dfbb
000002b0: abf7 b3bb c7f0 74bc d94a 49bc 6cae 6eb8
000002c0: 5e54 6d3c 6bc3 eebb 1f02 23bc c4eb 8f3c
000002d0: 2344 73bc 4fb6 29bc e41a 47bc 7efb 77bb
000002e0: 8cc0 223c 1024 b0bb f3ec c23a eb1f 96bc
000002f0: 733f dabc 9e65 f73a c478 93bc c9ce 1a3c
00000300: 0fdd c3bb 8bab aebc f62e 933b 4c5c e9bc
00000310: 027c 2a3c 06e2 383c 9630 213b a92c 5fba
00000320: cc7d 3e3b bb93 22bc 5389 b7bb 66a2 d5bb
00000330: b9e1 183b d580 1f3c 5ed1 9ebc e3c2 9cbc
00000340: 3c03 e4bb 3043 47bc 9f33 e0bb 4fec 153c
00000350: 0fcc ae3c 801b b4bc bdc7 98bc 8586 28bc
00000360: 33d8 f9bc 5ff9 843c d7f6 543c 599b b1bb
00000370: 110c 15bc 6fee 6e3c 1c97 213c a401 d7b9
00000380: 0307 72bc 5996 023c 47d2 193c 5cd8 793c
00000390: 2adc aaba db64 2bbb 62d4 6cbc e62c 373b
000003a0: e5f2 a7bb e547 3ebc d567 bc3c 9b67 8a3c
000003b0: 0b11 94ba bd0b 1c3d 7fb7 91bb 5ae1 29bc
000003c0: 8e21 853b 3b26 353c b7e4 493b 2798 e4bb
000003d0: 7dfb 00bc 2173 263c 240d 193b 48c5 3d3c
000003e0: 955f d63c 6e17 9dbb b6c9 0e3c f7f3 b53c
000003f0: 6410 06bb 3dca 61bc cc20 c03b 26ff 0b3b
0.021706844 -0.0048989733 -0.007575192 -0.014942908 0.026736395 0.0013724192 0.014036838 -0.018710745
0.0072793094 0.005741175 -0.029601207 -0.008357712 -0.0029212872 0.015752776 -0.022091424 -0.0015777684
-0.023596024 0.0207429 0.012471226 -0.0116671985 -0.027987007 0.015178322 0.0045447107 0.0063277134
0.008843015 0.004867608 -0.016921293 0.002214616 0.016403643 -0.008145612 0.035437014 0.0027425901
-0.012899542 -0.0064710504 -0.03436696 0.0037717046 0.0099263275 0.003851977 0.0013515203 -0.010978326
0.000790097 0.0032369557 0.004920726 0.0149755245 0.01860629 -0.0042015593 -0.0070788963 0.017154815
-0.023815375 -0.018859286 0.015110852 0.0015663183 -0.0062081493 -0.01873994 -0.012105034 -0.016334428
-0.0095389215 -0.0068854075 -0.0069695567 0.00474504 0.005681183 0.01277519 0.018458273 0.025068989
0.018601844 -0.0054568336 -0.021060875 0.010361836 0.0054610576 -0.007905153 0.038056675 0.012902836
-0.015724404 0.0019651365 0.025790384 0.0025924684 0.009858414 -0.0006395112 0.0026428301 -0.012694455
0.023980113 -0.014606016 -0.006118833 0.006089624 -0.0033275855 -0.010655423 0.012617359 -0.015415653
0.0083607165 0.005645596 0.016232165 0.018843822 -0.021199645 -0.005804154 0.0014630909 0.01343873
-0.021073291 0.004003339 -0.030592527 0.0058237957 0.018457176 0.0036120114 -0.010715416 -0.021689856
-0.0248131 0.0010850329 0.016446698 -0.0012947209 0.0018521218 -0.0024556755 0.015225274 0.0038983172
0.016533721 0.014869062 0.022662275 0.0039917533 -0.016894883 -0.017835418 -0.032174643 0.0062358542
0.013466048 -0.019609448 0.019805193 -0.016177837 -0.0059522656 -0.006009463 0.030591065 -0.01801949
-0.008516626 -0.00440933 0.006419126 0.002857296 0.023758808 0.009596788 -0.00887333 -0.0050825346
-0.014776713 -0.0049873386 0.016397562 -0.007933899 0.013115969 0.0126007125 0.010334334 -0.004431972
-0.016092656 0.0003667562 -0.009062309 -0.009685513 0.017685477 0.017936863 0.016532978 0.0046923426
0.00611287 -0.018012848 0.010352249 -0.008862145 -0.015219083 -0.011035308 0.0027091529 0.014917585
0.00390164 0.015965667 -0.0033787342 -0.007345358 0.00037167335 0.03164515 -0.019612134 -0.0022046801
0.023490652 0.030130558 -0.0001084791 -0.006805679 -0.005492171 -0.014949984 -0.0122859115 -5.6906065e-05
0.014485447 -0.007286479 -0.009949236 0.017568476 -0.014847788 -0.010358407 -0.012152407 -0.003783911
0.009933602 -0.0053753927 0.0014871642 -0.018325767 -0.026641583 0.0018874889 -0.018001921 0.0094487155
-0.00597728 -0.021322032 0.004491682 -0.028486393 0.010405542 0.011284357 0.002459561 -0.000851343
0.002906668 -0.009922917 -0.005601087 -0.0065196035 0.00233279 0.009735306 -0.019386943 -0.019135898
-0.0069583934 -0.012162015 -0.006842091 0.009150579 0.021337537 -0.02198577 -0.01864993 -0.010285978
-0.0304986 0.01623219 0.012998304 -0.00542013 -0.009097115 0.014583214 0.009862687 -0.00041009218
-0.01477218 0.007970416 0.009388513 0.015249338 -0.0013035585 -0.0026152644 -0.014454933 0.0027950346
-0.005125391 -0.011613821 0.02299873 0.016895106 -0.0011296583 0.038097132 -0.0044469233 -0.010368669
0.004062838 0.011056478 0.003080649 -0.006976146 -0.0078724595 0.010159285 0.002335378 0.01158268
0.026168624 -0.004794053 0.008715084 0.022211058 -0.0020456547 -0.0137811275 0.0058632847 0.0021361797
