GAN/NO Generator/NO_epochs=1000_seq=60_batch=5.pth (torch, 674968 bytes, 31 tensors)

weight f4 [1, 80, 1]
0	0x3c3b983e	0.011449872
1	0x3c19403a	0.009353692
2	0x3afc7394	0.0019260519
3	0xbbbd507a	-0.005777416
4	0xbbda8200	-0.0066683292
5	0x3b275bfe	0.002553701
6	0xbc017383	-0.007901075
7	0xbb0cb6dd	-0.00214713
8	0xbc8ca765	-0.017169664
9	0x3b1bed84	0.0023792693
10	0x3c112fa2	0.008861454
11	0x3bb6c4ef	0.0055776755
12	0x3aa35f54	0.0012464323
13	0xbc422d63	-0.011851641
14	0xbc4c36b2	-0.012464212
15	0x3a2acd30	0.00065155607
16	0xbc517ddb	-0.012786354
17	0xb8c94dbf	-9.598908e-05
18	0x3bcf4e38	0.006326463
19	0xbbf3ff17	-0.0074461806
20	0x3c30852c	0.010773938
21	0x3c26fa67	0.0101915365
22	0x3bdc0ffa	0.0067157717
23	0xbb3021f0	-0.0026875697
24	0x3b8b52c8	0.0042518117
25	0x3c01e7c3	0.007928791
26	0xbc8591ec	-0.016304933
27	0xbc0fd116	-0.008777877
28	0x3c10d693	0.008840221
29	0xbc866c17	-0.016408963
30	0x3c87a110	0.016556293
31	0x3a0b087d	0.0005303694
32	0x3b1d110a	0.0023966455
33	0xbb39caa9	-0.0028349555
34	0xbba93c65	-0.0051646703
35	0xbc2ba8a8	-0.0104772225
36	0xba034d3c	-0.0005008762
37	0xbc1ea6b2	-0.009683298
38	0xbc2b3937	-0.010450653
39	0xbbc8b2d9	-0.006124836
40	0xbbb680c2	-0.0055695483
41	0xbbeb2cc7	-0.0071769687
42	0x3c5ad6f6	0.013356915
43	0xbc051032	-0.008121537
44	0xbad2e5c2	-0.0016090202
45	0x3b0a0c53	0.0021064475
46	0x3c250c6a	0.0100737605
47	0x3b602cff	0.0034206507
48	0xbc810bd6	-0.015752714
49	0xbb304290	-0.0026895143
50	0xbc90e2c1	-0.01768625
51	0xbc226c74	-0.009913553
52	0x3b9bb36a	0.0047516124
53	0xbb9d0ebd	-0.0047930167
54	0xbc2b314c	-0.010448765
55	0xbba8d476	-0.0051522804
56	0x3b9bc26e	0.0047534024
57	0x3c619fe1	0.013771028
58	0xbab50933	-0.0013811946
59	0x3b8d2974	0.00430792
60	0xbaea0f39	-0.001785732
61	0x3c55634d	0.013024163
62	0xbb6c43d0	-0.0036051162
63	0xbb87c5b9	-0.0041434434
64	0x3b2a6989	0.0026002845
65	0x3b8a6df8	0.004224535
66	0x3bc23d13	0.005927691
67	0xbc1b0995	-0.009462734
68	0xbaa71259	-0.0012746557
69	0xbbd53e00	-0.006507635
70	0x3ac97636	0.0015370313
71	0xbabfd76d	-0.0014636345
72	0xba5612d2	-0.00081662566
73	0xbc690105	-0.0142214345
74	0xbbeac164	-0.0071641672
75	0x3a7fea6b	0.0009762409
76	0x3b81f62c	0.0039661136
77	0x3c09ec6d	0.008418185
78	0x3ba8fd27	0.0051571312
79	0x3b807a92	0.0039208615

weight f4 [80, 3, 1]
0	0x3b18ab8a	0.0023295605
1	0x3cb2ff08	0.021850124
2	0x3bb48bf2	0.005509847
3	0x3a8b69a8	0.0010636346
4	0xbc8e64ad	-0.01738199
5	0x3bc89102	0.006120802
6	0x3bf966b1	0.0076111187
7	0xbd09c23a	-0.033632495
8	0x3cdcdfba	0.02696215
9	0xbc2f433d	-0.010697183
10	0x3c435611	0.011922375
11	0xbc6cdb7b	-0.014456625
12	0xbc5ee061	-0.013603301
13	0xbcf59984	-0.029980429
14	0x3c9a8346	0.018861424
15	0xbb8b0db8	-0.0042435788
16	0x3c2fe095	0.010734697
17	0x3c7a1eda	0.015266145
18	0xbba2f0a6	-0.004972535
19	0x3c9d265b	0.019183328
20	0xbc0ee962	-0.008722635
21	0xbc400f5f	-0.011722415
22	0xbbe3c000	-0.0069503784
23	0xbae27740	-0.0017277971
24	0x3c3b5f13	0.011436242
25	0x3c885310	0.01664117
26	0x39ab695d	0.00032694163
27	0x3b09a985	0.0021005583
28	0x3b71b2db	0.0036880288
29	0xbba9beaa	-0.0051801996
30	0xbb7c2d09	-0.0038478991
31	0x3c4fade4	0.012675736
32	0xbc8b7510	-0.017023593
33	0xbb028ba9	-0.001991967
34	0xbba7ae4d	-0.005117214
35	0x3b3b32ba	0.002856417
36	0xbc7864c9	-0.015160748
37	0x3be21aa0	0.0069001466
38	0xbbb2e849	-0.0054598195
39	0xbb217a84	-0.0024639675
40	0x395f8b20	0.00021318765
41	0xb8bdc654	-9.049164e-05
42	0xbbab1f45	-0.0052222335
43	0xbd175fc7	-0.036956575
44	0x3d1f7c03	0.038936626
45	0xbbbd1e8b	-0.0057714633
46	0xbc4ac813	-0.012376803
47	0xbbb74cd8	-0.0055938773
48	0xbba1c1d4	-0.004936436
49	0xbd1c0080	-0.038086414
50	0x3c959d99	0.018263625
51	0xbb99928d	-0.0046866597
52	0x3bb3bbde	0.005485042
53	0x3b478228	0.003044257
54	0xbbd8d3f6	-0.0066170646
55	0x3c673d38	0.014113717
56	0xbc53475c	-0.012895431
57	0x3a40d083	0.00073552894
58	0xbcb703a3	-0.022340601
59	0x3ac519b5	0.0015037569
60	0xbc8e291b	-0.017353585
61	0xbb87018a	-0.0041200565
62	0xbada8a41	-0.0016673283
63	0x3c430d89	0.0119050825
64	0xbcea4775	-0.028598526
65	0x3b796544	0.0038054744
66	0x3b7c5ed4	0.003850867
67	0x3d01da56	0.031702362
68	0xbc8b7aeb	-0.017026385
69	0x3c36a575	0.0111478465
70	0xbbf0f717	-0.007353674
71	0x3b4870a0	0.0030584708
72	0x3b2a06aa	0.0025943913
73	0x3b9c8570	0.004776649
74	0xbc4095a1	-0.011754424
75	0xbbb6eb68	-0.005582262
76	0x3c7ccb80	0.015429378
77	0xb9fc43bc	-0.00048115652
78	0x3c319540	0.010838807
79	0xbb1700bc	-0.002304121
80	0x3c817ddb	0.015807083
81	0x3c8884c8	0.016664878
82	0xbc874f41	-0.016517283
83	0x3cd1ba25	0.025601456
84	0x3c66988b	0.014074455
85	0x3c918dbe	0.017767783
86	0xbbf0ae3b	-0.0073449886
87	0x3ba5a3db	0.0050549335
88	0x3d0174bf	0.03160548
89	0xbcdc25eb	-0.02687355
90	0xbc282cf3	-0.010264623
91	0x3cdf1150	0.027229935
92	0xbc6553e0	-0.013997048
93	0xbbe06166	-0.0068475483
94	0xbbeb4d6c	-0.0071808603
95	0x3b205a90	0.0024468042
96	0xbbb0bc2f	-0.005393527
97	0x3bd5ed95	0.006528566
98	0xbc10e143	-0.008842769
99	0x3c3a4a52	0.011370258
100	0xbc916ed7	-0.017753048
101	0x3c14ae53	0.009074765
102	0x3c65f30e	0.014035
103	0xbbb28d60	-0.005448982
104	0x3a80fd93	0.0009841196
105	0xbb961912	-0.0045806253
106	0xbccdcf6b	-0.025123319
107	0x3ba9b291	0.0051787575
108	0x3bf47634	0.00746038
109	0xbb064b29	-0.0020491576
110	0x3b6e8a3d	0.0036398314
111	0xbbf44510	-0.007454522
112	0x3957f645	0.0002059574
113	0xbb7715c4	-0.0037702182
114	0x3bad5a79	0.005290326
115	0xbd2eac52	-0.042644806
116	0x3cf8fc56	0.03039376
117	0x3a3eb183	0.0007274376
118	0x3a93f8ea	0.0011289392
119	0xbb29f272	-0.0025931862
120	0x3cb5cb3e	0.02219164
121	0xbd41723f	-0.047228094
122	0x3d191e1b	0.037382226
123	0xbc2654ca	-0.010152051
124	0xbcfdf715	-0.031001607
125	0xbba03489	-0.004889075
126	0xbb6d098f	-0.0036169027
127	0xbc85f9e0	-0.016354501
128	0x3ac35656	0.001490305
129	0x3bf70fef	0.007539741
130	0x3a8af7da	0.001060243
131	0xb9d601b4	-0.0004081853
132	0xbc26ec75	-0.010188212
133	0x3c3fd711	0.011708991
134	0x3aa28882	0.0012400302
135	0x3801123e	3.0772986e-05
136	0xbba293cc	-0.0049614664
137	0x3c6a7028	0.014308967
138	0xbaa66145	-0.0012693784
139	0xbcd5a2cf	-0.02607861
140	0x3cada603	0.021197325
141	0x3b6aadf4	0.003580925
142	0x3b459a9b	0.0030151966
143	0xbbf54d23	-0.007486002
144	0xbb29ebfc	-0.002592801
145	0xbcdb3229	-0.026757317
146	0x3c9ee592	0.019396577
147	0x3be376a6	0.006941634
148	0xbb664a86	-0.0035139634
149	0xbb53521f	-0.0032244993
150	0x393d0fac	0.00018030283
151	0xbd2fa92b	-0.04288594
152	0x3c24efe0	0.010066956
153	0x3c6b29f2	0.014353262
154	0x3ae32d5a	0.0017332241
155	0x3cb5ff4a	0.022216458
156	0xbb7012ca	-0.0036632293
157	0xbcc32c09	-0.023824709
158	0x3ca040df	0.019562183
159	0x3bb00756	0.0053719683
160	0xbab1a785	-0.0013553953
161	0xbbd8d9e4	-0.0066177715
162	0x3ae8c7f0	0.0017759781
163	0x3b8756ab	0.0041302047
164	0xbab5326d	-0.0013824232
165	0xbba82a0c	-0.0051319655
166	0x3b8a6f49	0.004224692
167	0xb9fff208	-0.00048817717
168	0x3ca1d473	0.019754624
169	0xbd1bd816	-0.038047872
170	0x3cac3eff	0.021026133
171	0x3af96e5b	0.0019030081
172	0x3c03da0e	0.008047594
173	0x3c589d8c	0.013221156
174	0x3b3a210f	0.0028401052
175	0xbd04f81d	-0.03246318
176	0xbb4f93fc	-0.00316739
177	0x3aace05c	0.0013189423
178	0xbbb76745	-0.0055970275
179	0x3a7d2d79	0.000965796
180	0x3c7a20ca	0.015266607
181	0xbcc0540d	-0.023477579
182	0x3c84dc1e	0.016218241
183	0xbc6add9f	-0.014335065
184	0x3c0e1ca4	0.008673821
185	0xbc86480a	-0.016391773
186	0xbbae9a4b	-0.0053284517
187	0x3c5f0d78	0.013614051
188	0xbc3ce5b5	-0.011529376
189	0xbc49b601	-0.0123114595
190	0xb957229c	-0.00020516891
191	0x3b894f9a	0.0041903974
192	0xba586cbe	-0.000825595
193	0x3c1b6dc9	0.009486624
194	0x39788d76	0.00023703821
195	0x3bc4ae48	0.0060022213
196	0x3b8f3972	0.0043708617
197	0xbb88fb05	-0.0041803145
198	0xbc08df49	-0.008354017
199	0xbc8003f8	-0.015626892
200	0x3a71637e	0.0009208246
201	0xbb548325	-0.00324268
202	0x3b9f0ceb	0.004853835
203	0xbc514dfd	-0.0127749415
204	0xba594876	-0.00082886906
205	0xbbc1ea53	-0.005917826
206	0xbbf6c6af	-0.007531009
207	0xbb852500	-0.0040632486
208	0x3c2dbe4f	0.010604455
209	0x3c28c367	0.010300494
210	0x3b8e6c2b	0.0043463907
211	0x3c9d6814	0.019214667
212	0xbbbcb9ee	-0.0057594692
213	0xbc88f68f	-0.01671913
214	0xbcc262ae	-0.023728695
215	0x3b79882f	0.0038075557
216	0xbbcc6c5f	-0.006238505
217	0x3a98673a	0.0011627444
218	0xbb4bc574	-0.0031093033
219	0x3b9ea64c	0.0048416015
220	0xbb9a0474	-0.004700238
221	0x3b49988e	0.0030761096
222	0xbadb4fbf	-0.001673214
223	0x3ce13ab9	0.027493821
224	0xbc9f6d8a	-0.019461412
225	0x3cb417e5	0.02198405
226	0x3bfa8554	0.0076452885
227	0x3c38c2d0	0.011276916
228	0xbb3e1655	-0.002900501
229	0x3ab64d88	0.0013908604
230	0x3b732509	0.0037100932
231	0x3c3b6dfc	0.011439797
232	0xbb13b3b4	-0.0022537531
233	0x3bee3d35	0.00727048
234	0xbc3fb2c5	-0.011700337
235	0xbc813cff	-0.015776156
236	0xbb67624a	-0.0035306388
237	0x3b911b39	0.004428294
238	0xbbe529ca	-0.006993507
239	0xbc96fc41	-0.01843083

bias f4 [80]
0	0x3f01a06f	0.5063543
1	0xbf09967a	-0.53745234
2	0x3eb9c22d	0.36280957
3	0xbe222937	-0.15836035
4	0x3f019b99	0.5062805
5	0xbdb92efe	-0.09042166
6	0xbe100560	-0.1406455
7	0x3f066931	0.5250426
8	0xbe820619	-0.25395277
9	0xbdaa2c9d	-0.083092906
10	0x3efed3fa	0.497711
11	0x3a726af0	0.00092475023
12	0xbea1d790	-0.31609774
13	0xbeafbcad	-0.34323636
14	0x3eb9f845	0.36322227
15	0xbd41bc32	-0.047298618
16	0x3e6865f7	0.22695147
17	0x3e639f1b	0.22228663
18	0xbe30d5c6	-0.17269048
19	0x3da33ceb	0.079706036
20	0x3f033b23	0.5126211
21	0x3e774dec	0.24150819
22	0x3d4206b7	0.047369685
23	0xbe527908	-0.20553982
24	0xbe932560	-0.28739452
25	0xbee3459d	-0.44389048
26	0x3e08bd89	0.13353552
27	0xbe452bff	-0.19255064
28	0xbf0b165d	-0.54331
29	0x3e64c114	0.22339278
30	0xbf102095	-0.56299716
31	0x3df203ae	0.11817108
32	0x3eb3eda0	0.3514223
33	0x3e7a5af8	0.24448764
34	0x3e913bba	0.2836588
35	0x3e0dc74c	0.13845557
36	0xbe8cd3b0	-0.27505255
37	0xbe0a0636	-0.13478932
38	0x3e5ceb1f	0.21574067
39	0xbe053d4b	-0.13011663
40	0x3e93b9d4	0.28852713
41	0xbda72df9	-0.081630655
42	0x3e55126f	0.20807813
43	0x3e1c78bf	0.15280436
44	0xbefd8638	-0.49516463
45	0x3f0cedfb	0.5505063
46	0x3e58677e	0.21133229
47	0xbebe7593	-0.37199077
48	0x3f08c220	0.5342121
49	0xbc6a53fc	-0.01430225
50	0x3eeb7045	0.45984092
51	0xbd475d40	-0.048672915
52	0xbbcfbab8	-0.0063393973
53	0xbea75885	-0.32684723
54	0x3a6e632f	0.0009093759
55	0x3ecb9de1	0.3976889
56	0x3f056a8b	0.52115697
57	0xbef1ffd6	-0.472655
58	0xbef0b27d	-0.47011176
59	0xbe8dea05	-0.27717605
60	0x3e0bb18d	0.13641949
61	0x3eb46288	0.35231423
62	0xbef2a9c6	-0.47395152
63	0x3ce7ef35	0.028312305
64	0x3ec97309	0.39345577
65	0xbe5512e6	-0.2080799
66	0xbe01d7d5	-0.1267999
67	0xbe5cff6a	-0.21581808
68	0xbee420da	-0.44556314
69	0x3e7af960	0.24509192
70	0xbeb70ae4	-0.35750496
71	0x3f0335a2	0.5125371
72	0xbeae8df8	-0.3409269
73	0xba00f421	-0.00049191905
74	0x3da39ff7	0.07989495
75	0xbe555d89	-0.20836462
76	0xbf03eda9	-0.51534516
77	0xbeabc31e	-0.335473
78	0xbe9b67d6	-0.30352658
79	0xbed944d5	-0.42435327

weight f4 [80, 80, 1]
0	0xbc7df783	-0.015500906
1	0xbb7d803c	-0.003868117
2	0xbc915fbf	-0.01774585
3	0x3af89baa	0.001896729
4	0xbc81a0e7	-0.015823795
5	0x3b435c4d	0.0029809654
6	0x3c2100dc	0.009826865
7	0xbc843d1a	-0.016142417
8	0x3c52e0d1	0.012870983
9	0x3c9f7c3d	0.019468421
10	0xbc5d6f24	-0.0135152675
11	0xbbdf151d	-0.006807937
12	0xbb58fa05	-0.0033108008
13	0xbac434f4	-0.0014969395
14	0xbc3bef69	-0.011470654
15	0x3bfaf44c	0.007658517
16	0x3b05d695	0.002042209
17	0xbc02ead1	-0.007990555
18	0x3bd44e49	0.006479059
19	0xbca08b49	-0.019597666
20	0xbc824abe	-0.01590478
21	0xb9bf4807	-0.00036484023
22	0xbccad325	-0.024758885
23	0x3c5b973d	0.013402757
24	0x3c1eaaf8	0.009684317
25	0xbb0cb4e3	-0.0021470122
26	0xbbdaccbe	-0.006677239
27	0xbc19f8b3	-0.009397673
28	0x3bacb58d	0.005270666
29	0xbc22cb4b	-0.009936164
30	0x3b45a657	0.003015896
31	0xbccec21d	-0.025239045
32	0xbb9a9c73	-0.004718357
33	0x3b0ef364	0.0021812553
34	0xbb5eda1b	-0.0034004513
35	0x3b5957f3	0.0033163994
36	0x3bccac4f	0.0062461267
37	0xbc09bd76	-0.008406987
38	0xbbd747df	-0.006569847
39	0x3c3e9ea8	0.011634506
40	0xbc51d67d	-0.012807486
41	0x3a368cad	0.00069637113
42	0xbc96aba4	-0.018392392
43	0xbc0a90b2	-0.00845735
44	0x3c8ea647	0.017413272
45	0x3ba29628	0.0049617477
46	0xbb13187e	-0.0022445018
47	0x3c0e283d	0.008676586
48	0xbc12fc82	-0.008971335
49	0x3bb65437	0.0055642384
50	0x3c675025	0.014118229
51	0x3c90524e	0.017617371
52	0xbaf41fd8	-0.0018625213
53	0xbbf642e0	-0.0075152963
54	0xbbe50986	-0.0069896607
55	0xbc603734	-0.013685036
56	0x3a412226	0.0007367454
57	0xbaf4065d	-0.0018617619
58	0x3b853bcb	0.004065966
59	0x3c956a4d	0.018239165
60	0x3bc1049d	0.0058904425
61	0xb9915b90	-0.00027724775
62	0x3c9239fb	0.017849913
63	0xbad86bae	-0.0016511583
64	0xbc18ce07	-0.0093264645
65	0xbc02509d	-0.00795379
66	0x3ba9be7e	0.005180179
67	0x3c8d1984	0.01722408
68	0xbafd5b70	-0.0019329619
69	0xbc3ae426	-0.011406934
70	0x3bd21b40	0.00641194
71	0x3c0785ab	0.008271615
72	0xb9373466	-0.0001747176
73	0x3cb3a3a4	0.021928616
74	0x3a1eaeed	0.00060532877
75	0x3c1f0077	0.009704701
76	0xbc93b6cf	-0.018031506
77	0x3c8894ea	0.01667257
78	0x3bee7684	0.0072773118
79	0x3c6f26f5	0.01459669
80	0xbc1d80a9	-0.0096131945
81	0xba9076a5	-0.0011021687
82	0xbc045849	-0.008077689
83	0xbb1691e1	-0.0022975134
84	0x3b88ae27	0.004171151
85	0xbbca3b7f	-0.0061716433
86	0xb9f2294e	-0.0004618861
87	0x3b989c87	0.0046573314
88	0xbc38d34f	-0.011280849
89	0xbbd03d86	-0.0063549904
90	0xbc832076	-0.01600669
91	0x3c4d0dcf	0.012515499
92	0xbcac31ef	-0.021019904
93	0x3c1adaed	0.00945161
94	0x3bf6f1b8	0.0075361393
95	0xbc7d5429	-0.01546196
96	0xb9904ccd	-0.0002752304
97	0xbbc0940d	-0.005877024
98	0x3aa7fa61	0.0012815708
99	0x3c357b1a	0.011076713
100	0xbb45543c	-0.0030110022
101	0x3c37ad88	0.011210807
102	0x3c29fab4	0.010374714
103	0xbc3d3549	-0.011548349
104	0xbc1d88a2	-0.009615095
105	0x3c3fa170	0.011696205
106	0xbb9ea85c	-0.0048418473
107	0x3c6e8d3e	0.014560042
108	0x3c36bbd0	0.011153176
109	0x3c0ef963	0.008726451
110	0xbcaa613f	-0.020798324
111	0xba8c2c1b	-0.0010694297
112	0xb8fd2daa	-0.00012072486
113	0x3b98458a	0.0046469616
114	0x3bdab980	0.0066749454
115	0x3d2b8e49	0.04188374
116	0xbafe0add	-0.00193819
117	0x3bdc06b1	0.006714665
118	0x3cb22209	0.021744745
119	0xba0ac2d3	-0.00052933133
120	0x3c91ddb3	0.01780591
121	0xbb01e575	-0.0019820605
122	0x39751186	0.00023371549
123	0xbbefae64	-0.00731449
124	0xbc38bc9f	-0.0112754395
125	0x3b9a2b4c	0.0047048684
126	0x3b627c29	0.0034558869
127	0x3b9d9ec6	0.004810187
128	0xbc066d2b	-0.008204739
129	0xbb8f3a0d	-0.004370934
130	0x3c302b48	0.010752507
131	0x3b574b96	0.003285145
132	0xbc1e6bae	-0.0096692275
133	0x3c709998	0.014685057
134	0xbbd733b4	-0.006567443
135	0x3bcf76d8	0.006331306
136	0x3c5ec2d0	0.013596252
137	0x3c2a5e74	0.010398496
138	0x3b102785	0.0021996212
139	0xba999c7f	-0.0011719613
140	0x3c10bace	0.0088336
141	0x3c554ef8	0.013019316
142	0xba373976	-0.00069894583
143	0xbc916f69	-0.01775332
144	0xbc5769b8	-0.013147764
145	0xbba28a98	-0.0049603693
146	0x3ab326ba	0.0013668158
147	0x3c0638c8	0.008192249
148	0x3c14782e	0.009061856
149	0xbb57fc64	-0.0032956833
150	0xbc7e449b	-0.0155192865
151	0xbc07ba95	-0.008284231
152	0x3bda14d2	0.006655314
153	0xbb1b970f	-0.002374116
154	0x3a1b2c17	0.00059193507
155	0x3b2de9fd	0.0026537173
156	0xbba851b0	-0.005136691
157	0xbbeed1a8	-0.0072881766
158	0x3b876c2b	0.0041327677
159	0xbbb28c0b	-0.0054488233
160	0x3c9edeb6	0.019393306
161	0xbc7b99a6	-0.015356457
162	0xbbca2bcc	-0.006169772
163	0x3c093e37	0.00837665
164	0x3c1bdd47	0.009513206
165	0xbbfa0892	-0.007630416
166	0x3c2deae0	0.010615081
167	0x3c5ec70d	0.013597262
168	0xbac48642	-0.0014993625
169	0xbcc30da2	-0.023810212
170	0x3be75684	0.007059874
171	0x3c97313f	0.0184561
172	0x3cc59015	0.024116555
173	0xbc8a122b	-0.016854366
174	0x3c3d83c3	0.011567059
175	0xbc266475	-0.010155787
176	0x3c455a00	0.012045383
177	0x3c35526c	0.011067014
178	0xba994213	-0.0011692665
179	0x3c62bd12	0.013839023
180	0x3c91cb2b	0.017797073
181	0x3d1f2936	0.03885766
182	0x3c148690	0.009065285
183	0xbca4b2d1	-0.020104798
184	0xbc0c6a45	-0.0085702585
185	0xbd01f632	-0.03172893
186	0x3cac8c7c	0.021063082
187	0xbca54641	-0.020175101
188	0x3ca11190	0.019661695
189	0xbbc1d4c3	-0.0059152558
190	0xbbdd216f	-0.0067483704
191	0x3bddce57	0.0067689824
192	0x3c1d7903	0.009611371
193	0x399fb357	0.00030460462
194	0x3cab4080	0.02090478
195	0x3c085e3e	0.00832325
196	0xbc532440	-0.012887061
197	0x39bc6e06	0.00035940128
198	0x3c1cc6b8	0.009568863
199	0xbb648aaf	-0.00348727
200	0x3c246b69	0.010035374
201	0xbba42524	-0.0050093103
202	0x3c65d023	0.014026674
203	0xb8ee88ca	-0.00011374203
204	0xbb54c8bc	-0.003246828
205	0x3c5aa5e6	0.013345217
206	0x3cc2a59a	0.023760606
207	0x3bd8c1ad	0.006614885
208	0x3c215f4d	0.009849382
209	0xbc310c54	-0.010806162
210	0x3c8963b9	0.016771184
211	0xbc02d9c5	-0.007986491
212	0x3c360a54	0.011110861
213	0x3c351900	0.011053324
214	0x3c82ee7a	0.015982855
215	0x3c546e01	0.01296568
216	0x3ba66709	0.0050782007
217	0xbc2995cd	-0.010350657
218	0x3b4747ab	0.0030407708
219	0xbc0dd086	-0.008655673
220	0x3bd92ca9	0.0066276384
221	0x3c996408	0.018724456
222	0xbc857459	-0.01629083
223	0x3cc313d5	0.023813168
224	0x3ac8ae2e	0.0015310699
225	0xbcb26c48	-0.021780148
226	0xbcbdbeb2	-0.02316222
227	0xbc077119	-0.008266711
228	0xbc3a1b1d	-0.011359003
229	0x3ca927f2	0.02064893
230	0xbc9b28b0	-0.0189403
231	0x3bbd32d6	0.0057738824
232	0xbccca8a3	-0.024982756
233	0x3c3330f2	0.010936962
234	0x39cebbb9	0.00039431246
235	0x3b6c3efd	0.0036048286
236	0xbbd2f94f	-0.0064384113
237	0xbc0cbee9	-0.008590438
238	0x3c335cfa	0.01094746
239	0xbc1facd3	-0.009745794
240	0x3b5957f5	0.0033163999
241	0x3b5dc6af	0.0033840348
242	0xbbca9a97	-0.0061829793
243	0xbc6555d4	-0.013997514
244	0xbb825b9a	-0.003978205
245	0x3cdb23aa	0.026750404
246	0x3ab6c8c0	0.0013945326
247	0xbcba05ef	-0.022707907
248	0xbc3ab84d	-0.01139648
249	0xbc35a7e1	-0.011087389
250	0xbb9e9ef7	-0.0048407274
251	0x3cae434a	0.02127232
252	0x3c3ebd04	0.0116417445
253	0x3c020e09	0.007937917
254	0xbb248132	-0.002510142
255	0x3ca390f1	0.019966574

bias f4 [80]
0	0x3c460d04	0.012088064
1	0xbced7516	-0.028986495
2	0x3d9c826f	0.07642066
3	0xbd5b3df0	-0.053525865
4	0xbd979dd1	-0.07403148
5	0xbc9dd60e	-0.019267108
6	0xbc72a964	-0.014810894
7	0xba55f858	-0.0008162311
8	0xbde16547	-0.11005645
9	0xbdcc006c	-0.09961018
10	0xbd9f1086	-0.077668235
11	0xbda88b67	-0.08229714
12	0x3dbcdd1d	0.092218615
13	0x3d96ed69	0.07369501
14	0x3da8fccd	0.08251343
15	0xbd5fa962	-0.054604895
16	0xbc92465c	-0.017855816
17	0xbd3a2ed7	-0.045454826
18	0x3c0410ee	0.008060677
19	0x3db08a5b	0.08620139
20	0x3d1f6503	0.03891469
21	0xbd8ee4be	-0.06977223
22	0xbd8429cd	-0.06453285
23	0xbc822e69	-0.01589127
24	0xbcc7ce31	-0.024390312
25	0xbc4ebb67	-0.012617922
26	0xbde97990	-0.11400139
27	0xbd217048	-0.03941372
28	0xbd9e8c5c	-0.07741615
29	0x3c5d308f	0.013500347
30	0xbd83fec2	-0.064450756
31	0x3cc33ee0	0.023833692
32	0xbd79e156	-0.061005913
33	0xbd8c9e20	-0.068660975
34	0x3db93ba0	0.09044576
35	0x3d7ac79b	0.061225515
36	0xbe1f30e2	-0.15545991
37	0xbd7f1369	-0.06227437
38	0x3d5164dd	0.05112158
39	0xbde1dec1	-0.11028815
40	0x3b2a0ce8	0.0025947634
41	0xbd55a558	-0.052159637
42	0x3d67d3c1	0.05659843
43	0xbc8e8210	-0.017396003
44	0xbd51f50d	-0.05125909
45	0x3ded262b	0.115795456
46	0x3ccf1789	0.025279777
47	0xbdc98bda	-0.09841128
48	0xbdb364d1	-0.087594636
49	0x3ddbf8f8	0.107408464
50	0x3dd1ebd6	0.1025006
51	0xbc14188a	-0.009039054
52	0xbd34030f	-0.04394823
53	0xbcf3332d	-0.029687488
54	0xbdd5d35c	-0.10440704
55	0x3d2d7348	0.04234627
56	0x3d96ec0f	0.07369243
57	0xb6518634	-3.1221543e-06
58	0x3db4167f	0.08793353
59	0x3d821f75	0.06353656
60	0x3c666ba4	0.014063749
61	0x3d57047d	0.052494515
62	0x3d72be87	0.059263732
63	0x3dbe03d7	0.09278076
64	0xbcf24be1	-0.029577198
65	0x3d1a1efe	0.037627213
66	0x3c236bbe	0.009974418
67	0xbdba8a02	-0.09108354
68	0xbc2ef111	-0.010677592
69	0xbc8305aa	-0.015993912
70	0xbcdebdb5	-0.027190069
71	0xbd9cd33a	-0.07657476
72	0x3a81b1b7	0.0009894882
73	0x3d16d82a	0.036827244
74	0x3cd9dddf	0.026595054
75	0x3c7bcea1	0.015369088
76	0xbd34168a	-0.043966807
77	0x3cdbe7d6	0.026843946
78	0xbda327bb	-0.07966562
79	0xbdb74fa7	-0.08950739

weight f4 [80, 3, 1]
0	0x3c1e9fc8	0.0096816495
1	0xbdbdd646	-0.09269385
2	0x3d87269d	0.06599162
3	0x3c79c0a3	0.015243682
4	0xbdc86345	-0.09784559
5	0x3d839fff	0.06427001
6	0x3c609659	0.013707721
7	0xbd1ad58e	-0.037801318
8	0x3cca2393	0.024675166
9	0xbc142893	-0.009042877
10	0x3d990965	0.07472495
11	0xbd626de9	-0.0552806
12	0xbcb4284a	-0.021991868
13	0x3d9b6d66	0.075892255
14	0xbd7be175	-0.06149431
15	0x3b77ee58	0.0037831273
16	0xbd7c0687	-0.061529662
17	0x3cfe31aa	0.031029541
18	0xbbc0572f	-0.005869768
19	0x3db87111	0.09005941
20	0xbd8bab77	-0.06819814
21	0xbcaf6433	-0.021410083
22	0x3d66a699	0.056311224
23	0xbd2e4f45	-0.042556066
24	0xbc25b626	-0.010114228
25	0x3d800cb2	0.062524214
26	0xbd70f45e	-0.058826797
27	0xbba7aa71	-0.0051167537
28	0xbcd4e2d9	-0.025987076
29	0x3cd72902	0.026264671
30	0x3acf4b28	0.0015815245
31	0xbdb42b41	-0.087973125
32	0x3d879de7	0.06621914
33	0x3ba0b751	0.0049046655
34	0xbd993384	-0.07480529
35	0x3d958fc5	0.073028125
36	0x39ec06db	0.00045018535
37	0xbd008083	-0.03137256
38	0x3c927935	0.017880062
39	0xbb2aff1b	-0.0026091996
40	0x3d90444e	0.07044278
41	0xbd3c2870	-0.045937
42	0xbbef26ce	-0.007298327
43	0x3da07597	0.078349285
44	0xbd3d9c48	-0.04629162
45	0x3b921d0a	0.004459028
46	0xbc6a0a06	-0.014284616
47	0x3b821d68	0.0039707907
48	0xbbea4cc2	-0.0071502635
49	0x3da6ec15	0.08150498
50	0xbd73f793	-0.059562277
51	0x3b765512	0.0037587327
52	0x3b8d9c84	0.0043216366
53	0xbc39ac7f	-0.01133263
54	0x3c3e442f	0.011612936
55	0xbd80dd93	-0.06292262
56	0x3d3a3a8b	0.045465987
57	0xbbc9a833	-0.006154084
58	0x3d8f6b13	0.07002845
59	0xbd1c2035	-0.038116653
60	0x3c9ecb65	0.019384095
61	0xbdb59471	-0.088662036
62	0x3d715c09	0.058925662
63	0x3be939e8	0.0071174987
64	0xbdb4a85a	-0.08821173
65	0x3d55cd54	0.05219777
66	0x3b147c87	0.0022657232
67	0xbd974070	-0.07385337
68	0x3d4e4f99	0.05036888
69	0xbc2210d5	-0.009891708
70	0x3d4d61ce	0.050142102
71	0xbd160fa5	-0.036636014
72	0x3c66b3d3	0.014080959
73	0xbcecf243	-0.028924113
74	0x3d45a720	0.048255086
75	0x3c31e23e	0.010857163
76	0xbd84d50e	-0.064859495
77	0x3d80580e	0.06266795
78	0xbcc7ee24	-0.024405546
79	0x3d8eaba3	0.06966331
80	0xbd1306ca	-0.035895146
81	0xb9761365	-0.00023467613
82	0x3d7a24d6	0.061070286
83	0xbd24cfc8	-0.04023722
84	0x3be0f860	0.006865546
85	0xbd93621c	-0.07196447
86	0x3d815650	0.06315291
87	0x3bfe1565	0.0077540153
88	0x3d9c4099	0.076295085
89	0xbd598cf8	-0.053112954
90	0x3c380a08	0.01123286
91	0xbd792f09	-0.06083587
92	0x3d6b171f	0.057395097
93	0x3bc4882d	0.0059976787
94	0x3b178adb	0.0023123536
95	0x3b85f529	0.0040880633
96	0x3c3fdc69	0.011710265
97	0xbd51f7af	-0.0512616
98	0x3d12d8dc	0.035851344
99	0xbc54808d	-0.012970102
100	0x3ce8dbff	0.028425215
101	0xbd0ec38f	-0.034854468
102	0x3933c88f	0.00017145484
103	0x3d89f893	0.06736865
104	0xbd5031e9	-0.050828848
105	0xbbcf36ce	-0.006323672
106	0x3db3dd73	0.087824725
107	0xbd19217a	-0.03738544
108	0xbc337d17	-0.010955117
109	0x3caa6b3d	0.020803088
110	0xbc029118	-0.007969163
111	0xba870a60	-0.0010302775
112	0x3d8825dd	0.06647847
113	0xbd25fee2	-0.04052628
114	0xbc3d7b39	-0.011565023
115	0x3d9300c6	0.07177882
116	0xbd488190	-0.048951685
117	0xbc1c0334	-0.009522248
118	0x3d22049b	0.039555173
119	0xbd150180	-0.036378384
120	0xbc10c374	-0.008835662
121	0x3d9fc25a	0.078007415
122	0xbd4e3d24	-0.050351277
123	0x3c525044	0.01283652
124	0x3d8fc8bc	0.07020709
125	0xbd35c5b4	-0.044377998
126	0x3c83ca36	0.016087633
127	0xbda1d111	-0.079012044
128	0x3d480fea	0.0488433
129	0xbc26a8d9	-0.010172092
130	0x3d88aeb7	0.06673949
131	0xbd8bff9b	-0.06835862
132	0x3b5040d4	0.0031776922
133	0x3ca91feb	0.020645102
134	0xbbe91f1f	-0.0071143056
135	0xb9f9ff0d	-0.0004768301
136	0xbd18561e	-0.037191503
137	0x3d035c6f	0.032070573
138	0xbb9d5b9d	-0.004802181
139	0xbdbf7d6f	-0.093500964
140	0x3d744e79	0.05964515
141	0xbbfd9589	-0.0077387732
142	0xbd96fcda	-0.07372446
143	0x3d46b4c2	0.048512228
144	0xbc323f65	-0.010879372
145	0x3da5c653	0.08094468
146	0xbd5b7486	-0.053577922
147	0x3aeff8fc	0.0018308456
148	0x3dba15f3	0.09086218
149	0xbd19f42a	-0.03758637
150	0x3c41bd14	0.011824865
151	0x3d96e6da	0.0736825
152	0xbd7b0fc9	-0.06129435
153	0xbcbf58a0	-0.02335769
154	0x3dc40e21	0.095730074
155	0xbd5f2cac	-0.05448596
156	0xbaff9de3	-0.001950201
157	0xbd33769d	-0.04381429
158	0x3cb6d75c	0.022319488
159	0xbc14d324	-0.009083543
160	0x3d974af9	0.07387347
161	0xbd68294e	-0.056680016
162	0xbb9c7969	-0.0047752154
163	0x3d92bf62	0.071654096
164	0xbd2165b8	-0.039403647
165	0xbc1e9a89	-0.009680399
166	0x3cebaaa1	0.028767886
167	0xbd225423	-0.03963102
168	0xbb045ed1	-0.0020198117
169	0xbd376793	-0.04477651
170	0x3cd0c4d5	0.025484482
171	0x3b82dca7	0.003993589
172	0xbd4c6445	-0.049900312
173	0x3d39e536	0.04538461
174	0xbbde2e20	-0.006780401
175	0x3c88df74	0.016708113
176	0xbcedcbba	-0.029027808
177	0xbb91babc	-0.0044473093
178	0xbda1d106	-0.07901196
179	0x3d6a95ab	0.05727164
180	0x3b053bbe	0.0020329799
181	0x3d464390	0.048404276
182	0xbd0e900d	-0.034805346
183	0x3a79d2b2	0.0009529992
184	0xbdae51ed	-0.0851172
185	0x3d6f4151	0.0584119
186	0xbc8644ba	-0.016390193
187	0x3da8ad2c	0.08236155
188	0xbd019eca	-0.031645574
189	0xbc87d52e	-0.016581144
190	0x3d00a224	0.03140463
191	0xbc9f2f82	-0.019431833
192	0xbbe7a95c	-0.0070697498
193	0xbcfa1803	-0.030529028
194	0x3ca5f548	0.02025856
195	0x3b944665	0.0045249932
196	0xbd8e95d1	-0.06962169
197	0x3d22e680	0.039770603
198	0x3c741eda	0.014899934
199	0xbda5a0bd	-0.08087299
200	0x3d737d6c	0.059445783
201	0xbbb59806	-0.0055418042
202	0x3d9ecb65	0.07753638
203	0xbd55733d	-0.052111853
204	0xbca8f002	-0.020622257
205	0x3d6ac8f5	0.057320554
206	0xbd0b9614	-0.034078673
207	0xbae176b0	-0.0017201509
208	0x3d77dfe3	0.06051625
209	0xbd6525b2	-0.055944152
210	0x3c972934	0.018452264
211	0xbcb652d7	-0.022256298
212	0x3ca95257	0.020669146
213	0xbb181df9	-0.0023211224
214	0x3c8c3fe7	0.017120315
215	0xbc8c2b55	-0.017110506
216	0x3b7e00ec	0.0038757874
217	0x3d0344b6	0.03204795
218	0xbcf8cbca	-0.030370612
219	0xbb60548e	-0.0034230086
220	0x3dbb3844	0.09141591
221	0xbd4e2d44	-0.050336137
222	0xbc345963	-0.01100764
223	0x3da3ccf2	0.079980746
224	0xbd406e99	-0.046980474
225	0x3bc50900	0.006013036
226	0xbd042f20	-0.032271504
227	0x3baabd13	0.0052105277
228	0x3c85cdf0	0.01633355
229	0xbd05ee7b	-0.032698136
230	0x3ca4c725	0.02011449
231	0xbc7a92ac	-0.015293758
232	0xbd983fd6	-0.07434051
233	0x3d00d977	0.03145739
234	0xba9ab0aa	-0.0011801918
235	0xbcecb850	-0.02889648
236	0x3d32e7d7	0.04367813
237	0xbbbb1894	-0.005709717
238	0xbd8d3cd7	-0.0689637
239	0x3d6041b8	0.054750174

bias f4 [80]
0	0x3e6d75a6	0.2318941
1	0xbf0d43cd	-0.5518158
2	0xbec0985b	-0.37616238
3	0x3e87d0e0	0.26526546
4	0xbe8a80d8	-0.27051425
5	0xbea1e4e6	-0.31619948
6	0xbf082f36	-0.5319704
7	0x3e8e2764	0.27764428
8	0x3f0fd930	0.56190777
9	0x3d317773	0.043326806
10	0xbe0fc162	-0.14038613
11	0x3f045040	0.5168495
12	0xbec3d85b	-0.38251004
13	0x3ea826fb	0.3284224
14	0x3cdc4142	0.026886586
15	0xbe945c18	-0.28976512
16	0xbd08033f	-0.03320622
17	0xbe4c4cc9	-0.19951166
18	0x3eb34c19	0.35018995
19	0xbf0395ba	-0.5140034
20	0x3e048246	0.1294032
21	0xbe3b81ac	-0.18311185
22	0x3ee6e4ea	0.45096523
23	0xbeb0eb19	-0.34554365
24	0xbcb2d730	-0.021831125
25	0x3e73f721	0.23824741
26	0x3e8443f6	0.258331
27	0xbcbabc46	-0.022794854
28	0x3ef5c7fd	0.4800414
29	0x3e1596a4	0.14608246
30	0x3d83d5e9	0.064372845
31	0xbd7a612d	-0.06112783
32	0xbe6ff895	-0.2343467
33	0xbdfdff80	-0.124022484
34	0x3efe22f4	0.49636042
35	0x3ec303f2	0.38088948
36	0x3e990ed9	0.2989414
37	0xbdaade68	-0.08343202
38	0xbda2a354	-0.079413086
39	0x3d0236f1	0.031790677
40	0xbeacfd63	-0.3378707
41	0x3ef11ae1	0.4709082
42	0xbd8eec52	-0.06978668
43	0xbec3a3ea	-0.38210994
44	0x3d548e13	0.051893305
45	0xbe783c57	-0.24241768
46	0x3e1deae1	0.1542163
47	0xbeb4bde6	-0.3530113
48	0xbe8393b5	-0.2569863
49	0xbf066126	-0.52491987
50	0x3e0824a9	0.13295235
51	0xbd4157ba	-0.047202803
52	0xbd146725	-0.03623118
53	0xbe682200	-0.2266922
54	0xbd3c76bf	-0.046011683
55	0x3db87f92	0.09008707
56	0xbd4542b4	-0.048159316
57	0x3e4d83f6	0.2006987
58	0xbe993e54	-0.29930365
59	0xbf03e27d	-0.5151747
60	0x3e707f8f	0.2348616
61	0x3ec872b0	0.3915
62	0xbed60a0c	-0.4180454
63	0x3d9095f9	0.07059855
64	0xbd7bfdf9	-0.061521504
65	0xbe643c73	-0.22288685
66	0x3eacafd6	0.33727902
67	0x3e4ca30e	0.19984075
68	0x3ef7d53a	0.48404866
69	0xbedd00f1	-0.4316478
70	0xbe834acf	-0.25643012
71	0xbe0c3ccd	-0.13695069
72	0x3eaad20e	0.33363384
73	0x3ed782ab	0.4209188
74	0xbe7b1f53	-0.24523668
75	0xbeee8f36	-0.46593636
76	0x3e724a9d	0.23661275
77	0xbde21d39	-0.1104073
78	0xba3ec9ae	-0.00072779774
79	0x3ec041d7	0.37550232

weight f4 [80, 80, 2]
0	0x3b50e7aa	0.0031876364
1	0x3c8ef0f9	0.01744889
2	0x3bd59a8c	0.0065186676
3	0xbc51f347	-0.0128143495
4	0xbc7ea705	-0.01554275
5	0x3c371854	0.011175234
6	0xbc7c882d	-0.015413326
7	0x3bc03e9f	0.00586684
8	0x3c46d936	0.012136748
9	0x3b453ebd	0.003009721
10	0x3bc49983	0.0059997453
11	0x3be0b677	0.006857689
12	0xbbe8397b	-0.0070869303
13	0x3bf9d0f6	0.007623787
14	0x3c64f773	0.013975012
15	0xbb61346a	-0.0034363517
16	0x3bd8007d	0.006591855
17	0x3c3ac0e3	0.011398527
18	0xba0c61ca	-0.0005355148
19	0x3c50cc7a	0.0127440635
20	0xbb9a8841	-0.0047159498
21	0x3be394be	0.0069452217
22	0x3c73908a	0.014866004
23	0x3c139fff	0.009010314
24	0xbcca58a2	-0.024700467
25	0x3b2ea6d7	0.0026649737
26	0xbb7576fb	-0.003745495
27	0xbc1b17db	-0.009466137
28	0x3b2802fb	0.0025636542
29	0xbc259b93	-0.010107893
30	0xbbe2dcd0	-0.0069232956
31	0x3aa7a227	0.0012789414
32	0x3b9c238a	0.004764979
33	0xba8c70ba	-0.0010714747
34	0xba7c4529	-0.0009623343
35	0x397a5738	0.0002387435
36	0x3aa7467e	0.0012762097
37	0x3c71b89a	0.014753485
38	0x3c796ac0	0.015223205
39	0xbc9ea07c	-0.019363634
40	0xba350d7c	-0.00069066114
41	0xbacffdc7	-0.0015868478
42	0xba18e186	-0.00058319455
43	0x3c385196	0.01124992
44	0x3c7ad01e	0.015308408
45	0x3b963546	0.0045839874
46	0x3ba1d896	0.004939149
47	0x3c3a1a9b	0.011358882
48	0xbc59bfc2	-0.0132903475
49	0xbb83d68a	-0.004023378
50	0x3c88548d	0.01664188
51	0xbbc5c209	-0.0060350937
52	0xbaf7d36f	-0.0018907617
53	0x3c7a24d1	0.015267567
54	0xbc56d71e	-0.013112811
55	0xbc6a8324	-0.014313493
56	0xbbcfdb3b	-0.006343273
57	0xbccee49a	-0.02525549
58	0xbc48b32e	-0.012249751
59	0xbc07a359	-0.008278691
60	0x3bb2df06	0.0054587154
61	0x3c64e6ac	0.013971012
62	0x3c0e44b1	0.0086833695
63	0xbba1e1f4	-0.004940266
64	0x3bb30946	0.005463752
65	0xbbda7064	-0.00666623
66	0x3c9555dc	0.018229418
67	0xbc8eaf26	-0.017417502
68	0xb9a6b77e	-0.000317987
69	0x3bd86bde	0.0066046556
70	0xbab13e06	-0.0013522513
71	0x3a9bed62	0.0011896307
72	0x3b1c232b	0.0023824673
73	0x3b54e76a	0.0032486566
74	0x3c0d656d	0.008630139
75	0xbb7d014a	-0.0038605505
76	0x3c9d8186	0.0192268
77	0xbb9cd05e	-0.0047855815
78	0xba435543	-0.00074513647
79	0x3c507571	0.012723313
80	0xbc5b1a55	-0.013372977
81	0xbbc4831b	-0.0059970743
82	0x3be23a6a	0.006903936
83	0x3b9477de	0.004530891
84	0x3c29704b	0.010341714
85	0xbb4e95c8	-0.0031522382
86	0xbbd05818	-0.006358158
87	0xbb28e865	-0.0025773284
88	0x3c2bb71a	0.0104806665
89	0xbc6a702a	-0.014308969
90	0x3bc7e001	0.0060997014
91	0xbb0f82de	-0.0021898071
92	0xbb598054	-0.0033188062
93	0x3b6f3e2b	0.003650556
94	0x3be5d479	0.007013854
95	0x3c6c2b0c	0.01441456
96	0x3b23c187	0.0024987177
97	0x3c61b443	0.013775888
98	0x3ba02372	0.004887038
99	0x3c7ca564	0.015420292
100	0x3ca6be6e	0.020354476
101	0x3ab2af31	0.0013632533
102	0x3cb80b30	0.022466272
103	0xbc0891fa	-0.008335585
104	0x3b1ca3df	0.0023901386
105	0xbb940e55	-0.00451831
106	0xbabdcf62	-0.001448136
107	0xbc7b87f8	-0.015352242
108	0xbbe0ef11	-0.0068644364
109	0x3c9e8b85	0.019353637
110	0x3c9764e3	0.018480724
111	0x3ae528bd	0.0017483454
112	0x3a8a09fa	0.0010531538
113	0x3c971ae3	0.018445438
114	0x3c3bd159	0.011463487
115	0x3c27c73a	0.01024037
116	0xb9edadff	-0.000453338
117	0x3c0e680c	0.008691799
118	0xb9e1eb4f	-0.00043090663
119	0x3b9f0f66	0.0048541306
120	0x3bd34e71	0.00644856
121	0x3c1aa2cf	0.009438231
122	0xbc0d688f	-0.008630886
123	0xbca0a93e	-0.019611951
124	0xbc3abc58	-0.011397444
125	0xbbf27ae6	-0.0073999045
126	0xba8c16e0	-0.001068797
127	0x3bf327ca	0.0074205147
128	0xbbab6dae	-0.0052315807
129	0x3b87614e	0.0041314727
130	0xbcd69ae2	-0.0261969
131	0x3ba16d2c	0.0049263444
132	0x3c9c7cd2	0.019102488
133	0xba7e90a0	-0.0009710882
134	0x3c828247	0.015931262
135	0x3b4c2cd8	0.0031154659
136	0x3bec81a8	0.0072176047
137	0xbcc35647	-0.023844851
138	0x3b57ce6c	0.0032929434
139	0x3c44f670	0.012021646
140	0x3b19d0d3	0.0023470416
141	0x3b33f0dc	0.0027456796
142	0x3c2c9905	0.01053453
143	0xbc563469	-0.013074019
144	0xbc2b9bd9	-0.010474169
145	0x3bd44f78	0.0064792
146	0x3c8106b2	0.015750263
147	0xbba09f4f	-0.0049018036
148	0x3c93bd98	0.018034741
149	0x3c5d9e65	0.013526534
150	0xbc3f0738	-0.011659436
151	0xbb5094c0	-0.0031826943
152	0x3c62cceb	0.013842802
153	0x3b6157d9	0.0034384637
154	0xbc0b6219	-0.008507275
155	0x3bc6c556	0.0060660047
156	0xbab9a64e	-0.0014163943
157	0x3b3d4303	0.0028879053
158	0x3c56babe	0.013106046
159	0xbc742df7	-0.014903537
160	0x3b12af5d	0.0022382357
161	0xbcc5e5f4	-0.024157502
162	0x3c525d3c	0.012839612
163	0xbbd044fa	-0.006355879
164	0xbc8a6344	-0.016893037
165	0x3b89927d	0.004198371
166	0x3b8e6c55	0.0043464103
167	0xbb52e26c	-0.0032178415
168	0x3b9cbe51	0.0047834297
169	0x3a63d888	0.00086916285
170	0xbc87696a	-0.016529758
171	0x3b962694	0.0045822356
172	0xba81aa28	-0.000989263
173	0xbbb737c4	-0.0055913646
174	0x3b0568f3	0.0020356744
175	0xbc0d7434	-0.008633662
176	0xbb32b767	-0.002726996
177	0xbb040756	-0.0020145974
178	0xbc21493e	-0.009844122
179	0x3a911b02	0.0011070671
180	0x3adb7799	0.0016744017
181	0xba35db11	-0.00069372455
182	0x3b4d6cbd	0.003134533
183	0x3ac26634	0.0014831484
184	0x3c67b63d	0.01414257
185	0x3c49b276	0.012310615
186	0x3c3d68da	0.011560643
187	0x3c1920e1	0.009346218
188	0xbc901b33	-0.017591095
189	0x3c77d9e8	0.0151276365
190	0xbbf7674b	-0.0075501553
191	0x3a846807	0.0010101803
192	0xbc96cfc5	-0.01840962
193	0xbc2348f8	-0.009966128
194	0x3c45819b	0.012054826
195	0xbc20e75e	-0.009820787
196	0xbbe9db42	-0.0071367333
197	0x3b97c8d3	0.0046320944
198	0xbc26b0cc	-0.010173988
199	0xbc040afd	-0.00805926
200	0x39c9c034	0.0003848091
201	0xbbd14cc1	-0.0063873236
202	0xbc4ebb67	-0.012617922
203	0xba87711b	-0.0010333391
204	0xbc7852d4	-0.0151564665
205	0xbab8bcef	-0.0014094393
206	0x3bf7d494	0.007563183
207	0x3bcd77fd	0.0062704072
208	0x3c1afc97	0.009459636
209	0xbc1e2672	-0.009652721
210	0xbb19db11	-0.002347652
211	0xbc489f76	-0.01224505
212	0xbc954773	-0.018222546
213	0x39ff3080	0.00048673525
214	0x3c04a721	0.008096487
215	0xbc52dc9b	-0.012869979
216	0xbc15cce4	-0.009143088
217	0xbb3e88bd	-0.0029073202
218	0x3c0011ea	0.007816771
219	0xbbebe66d	-0.0071990998
220	0x3ab901c4	0.0014114906
221	0x3bd25df1	0.00641989
222	0xbb503cf8	-0.0031774621
223	0x3af01ee3	0.0018319752
224	0xb980d636	-0.00024573662
225	0xbb56ea95	-0.003279363
226	0x3b0280eb	0.0019913267
227	0x3c5a1dda	0.013312781
228	0xb897b672	-7.234224e-05
229	0x3c36b7d9	0.011152231
230	0x3ca74d64	0.020422645
231	0x3bf6c6f0	0.0075310394
232	0xbc82c1dd	-0.015961582
233	0x3c0407dc	0.008058514
234	0xbbf376de	-0.0074299416
235	0x3b81599c	0.00394745
236	0x3ab98f5d	0.0014157105
237	0xbbf996e7	-0.007616866
238	0xbce1e289	-0.02757384
239	0x3aa32872	0.0012447967
240	0x3c9c76ab	0.019099554
241	0xbba69796	-0.0050839884
242	0x3c3e77ce	0.011625243
243	0xba3a5f32	-0.0007109522
244	0xbc07c7cf	-0.008287384
245	0x3bfa469d	0.0076378123
246	0x3ae5651a	0.0017501444
247	0x3b777364	0.0037757987
248	0x3be23caf	0.0069042067
249	0x3adaf525	0.0016705139
250	0x3c0b3cdf	0.0084983995
251	0x3c0e4896	0.008684298
252	0x3b6bffad	0.003601055
253	0xbb92ded0	-0.0044821277
254	0xbc9dd62e	-0.019267168
255	0xbc1a19a1	-0.0094055245

bias f4 [80]
0	0xbc6d5913	-0.014486569
1	0xbd1c8db7	-0.038221087
2	0x3cf628d6	0.030048769
3	0xbd4a3e0e	-0.049375586
4	0xbcbe69f7	-0.023243887
5	0x3d1e5092	0.038651057
6	0x3d26f90f	0.040764865
7	0xbc7bb6ac	-0.015363377
8	0xbd3db5db	-0.04631601
9	0x3d5a6352	0.053317375
10	0x3c099704	0.008397821
11	0x3d49e3a9	0.04928938
12	0xbd4a36e3	-0.04936875
13	0x3d712cfa	0.058880784
14	0x3cb3576e	0.021892276
15	0x3d5b3d38	0.05352518
16	0x3d57353f	0.052541014
17	0x3c19ae2f	0.0093799075
18	0xbcceb901	-0.025234701
19	0x3d72623c	0.059175715
20	0x3c8a1fc3	0.016860848
21	0xbd67ad72	-0.056561895
22	0x3ba94e47	0.005166802
23	0xbd4d1aea	-0.050074495
24	0x3d0a436f	0.033755716
25	0x3d8e3436	0.06943552
26	0x3d3970a7	0.04527345
27	0x3cfb78d4	0.030697264
28	0x3d590283	0.05298091
29	0x3cad82ff	0.021180628
30	0xbcbc30e7	-0.022972537
31	0x3c9fad42	0.019491795
32	0xbd8996af	-0.06718194
33	0x3d8377df	0.06419348
34	0x3c687332	0.014187621
35	0xbd3b8547	-0.0457814
36	0x39402efb	0.00018328048
37	0x3c23a3f3	0.009987819
38	0x3d966793	0.07343974
39	0xbd0d1f07	-0.034453418
40	0xbbc8d37c	-0.0061287265
41	0xbc6a4d5c	-0.0143006705
42	0x3d32493e	0.04352688
43	0x3d3119e8	0.043237597
44	0x3ccf5ca2	0.025312725
45	0xbd8bcf9d	-0.068267085
46	0x3c78c00f	0.015182509
47	0xbd0a61e0	-0.033784747
48	0xbcb99be4	-0.022657342
49	0xbd075d19	-0.03304777
50	0xbd8a38d0	-0.067491174
51	0xbc88a070	-0.016678065
52	0xbd8cc2a1	-0.0687306
53	0xbd86a6e6	-0.06574802
54	0xbcc00d6c	-0.0234439
55	0x3d51a6af	0.051184352
56	0xbce3e247	-0.027817858
57	0x3d14ed2e	0.036359005
58	0xbca72482	-0.02040315
59	0xbd03243d	-0.03201698
60	0xbd406a3a	-0.046976306
61	0xbc6d01e1	-0.01446578
62	0x3d7222f5	0.05911537
63	0x3d129102	0.03578282
64	0x3d3e98e4	0.046532527
65	0xbd4f53e2	-0.050617106
66	0x3da924f4	0.082590014
67	0x3d8e3bea	0.069450215
68	0xbd92b62c	-0.07163653
69	0xbc8da809	-0.01729204
70	0x3b89290c	0.0041858014
71	0x3d4c88cf	0.04993516
72	0xbcd9a029	-0.026565628
73	0x3d99038a	0.07471378
74	0xbaa8177e	-0.0012824384
75	0x3cd4ee3b	0.025992503
76	0xbd285b10	-0.04110247
77	0x3d86b48b	0.065774046
78	0xbc0d29dc	-0.008615937
79	0xbccd15dc	-0.025034837

weight f4 [80, 80, 2]
0	0xbbbdd564	-0.0057932604
1	0x3b4c0e88	0.003113659
2	0xbb661d87	-0.0035112815
3	0x3c204496	0.009781977
4	0xba65d22d	-0.00087669754
5	0xbb88fa19	-0.0041802046
6	0x3c12751b	0.008939053
7	0x3c1361a1	0.0089954445
8	0x3c814c5a	0.015783478
9	0x3b19d18e	0.0023470852
10	0x3a77b352	0.0009449023
11	0x3bfb46c0	0.007668346
12	0xbb75ecec	-0.003752525
13	0xbbec56e6	-0.0072125075
14	0x3b9c4d6d	0.004769972
15	0xbbdc5cab	-0.006724914
16	0xbc3c3b3c	-0.011488732
17	0x3bc89680	0.0061214566
18	0xbc719b19	-0.014746451
19	0xbc27b297	-0.01023545
20	0x3cbf7e61	0.023375692
21	0x3af25653	0.0018488861
22	0xbcbbc23b	-0.022919765
23	0x3b2ad067	0.002606416
24	0x3c914a95	0.017735759
25	0xbc2e4c9e	-0.010638384
26	0xbc4a8c64	-0.012362573
27	0xbc0671ae	-0.008205814
28	0xbc0284f2	-0.007966267
29	0x3c0ffe2b	0.008788626
30	0x3c0547dc	0.008134808
31	0xbc04fc5d	-0.008116809
32	0xba0bb36e	-0.00053291663
33	0x3bfc2bb8	0.0076956414
34	0xbc260d01	-0.010134936
35	0x3c79d344	0.015248124
36	0xbb887cc2	-0.004165263
37	0x3baf3d2c	0.0053478684
38	0x3a59b66e	0.0008305077
39	0x3c7d4753	0.0154589
40	0x3c2e462b	0.010636847
41	0xbc00862f	-0.007844492
42	0x3b2c2069	0.0026264435
43	0xbbd005a6	-0.0063483296
44	0xbc4a21de	-0.012337176
45	0xbaa8df12	-0.0012883863
46	0xbc2980ad	-0.01034562
47	0xba14cb76	-0.000567607
48	0x3c8146b1	0.015780779
49	0xbcd6b066	-0.02620716
50	0xbc6666d6	-0.014062604
51	0xbc46ac2b	-0.012126009
52	0xbc861d68	-0.016371444
53	0x3c34e26f	0.011040314
54	0x3a8ef000	0.0010905266
55	0x3c13a06c	0.0090104155
56	0x3bcf4921	0.0063258563
57	0x3bec4b4e	0.0072111255
58	0xbb0a132d	-0.0021068559
59	0x3c7b31f8	0.015331738
60	0x3c028dd1	0.007968382
61	0x3c2919fc	0.010321137
62	0x3c1f9692	0.009740489
63	0x3bfe9943	0.007769735
64	0x3c41f63d	0.011838493
65	0x3bc3ae0c	0.0059716757
66	0x3ce0488d	0.027378345
67	0xbbee570d	-0.007273561
68	0x3af7b373	0.0018898085
69	0x3ca964be	0.02067792
70	0x3c783251	0.015148715
71	0x3cc67629	0.024226265
72	0xbb4a2f25	-0.0030850854
73	0xbc7cf466	-0.0154391285
74	0x3c5c66c1	0.013452233
75	0x3b9b230b	0.004734402
76	0xbc8882a1	-0.016663851
77	0xbc23e1d5	-0.010002573
78	0x3b5937ce	0.0033144834
79	0xbbeaab02	-0.007161499
80	0xbb2b0c29	-0.0026099777
81	0xbc0b85d7	-0.008515797
82	0xbbf368c5	-0.007428261
83	0x3aa821af	0.0012827421
84	0x3c29852b	0.010346691
85	0x3c664b2d	0.014056009
86	0xbbd10fe5	-0.0063800686
87	0xbbd33b02	-0.0064462433
88	0x3cb94acc	0.022618674
89	0x3c8fc40c	0.017549537
90	0xbc0a6c31	-0.008448646
91	0xbadf2284	-0.0017023836
92	0xbc71ee42	-0.014766278
93	0xb9bc76a4	-0.00035946548
94	0x3a3560c5	0.0006919022
95	0x3aaac4b6	0.0013028595
96	0x3ba1d792	0.004939028
97	0xbc6c21cb	-0.014412354
98	0x3a4f898c	0.00079169194
99	0x3bc9dbcf	0.0061602364
100	0xbc3daca9	-0.01157681
101	0xbc6e7c74	-0.014556039
102	0xbc157df1	-0.009124265
103	0x39ba8a7f	0.00035579872
104	0x3b0a538f	0.0021106934
105	0xbc71f9ad	-0.014769
106	0xbc291563	-0.01032004
107	0x3c1692a2	0.009190233
108	0xbb112401	-0.0022146704
109	0xbc1c9b79	-0.009558552
110	0x3c53b130	0.012920663
111	0x39854de4	0.0002542577
112	0xbbc4c6a1	-0.0060051237
113	0xbc59ddbb	-0.013297494
114	0xbcf215f5	-0.029551486
115	0xbb690c63	-0.0035560362
116	0xbbc93a96	-0.006141017
117	0x38b89dae	8.803174e-05
118	0xbc5474ed	-0.01296733
119	0x3be18956	0.006882827
120	0xbb25dd77	-0.0025309005
121	0xbc8f600c	-0.017501853
122	0xbb2aee9a	-0.002608216
123	0x3c73eff0	0.0148887485
124	0xbbe1473c	-0.006874947
125	0xbb48a059	-0.0030613153
126	0xbbcaffd0	-0.006195046
127	0x3c50dfd2	0.012748675
128	0xbc740300	-0.014893293
129	0x3c65c68d	0.014024389
130	0xbbeef2d0	-0.007292129
131	0xbbb8bcf6	-0.0056377603
132	0xbc6102cd	-0.013733578
133	0xbc782537	-0.015145591
134	0xbbe80a28	-0.007081289
135	0xbbf6244e	-0.007511652
136	0xbc615a9d	-0.013754514
137	0x3b497d6b	0.003074492
138	0x3bda8f3e	0.006669908
139	0xbc392dac	-0.011302393
140	0x3aca6da0	0.0015444048
141	0x3c17b808	0.009260185
142	0xbbb51499	-0.005526137
143	0xbc77fcc2	-0.015135946
144	0xbb11e973	-0.002226439
145	0x3b920f81	0.0044574146
146	0xbc367305	-0.011135821
147	0x3aa60362	0.0012665803
148	0x3b4bb991	0.0031085948
149	0xbb61fd16	-0.0034483126
150	0x3c6b6652	0.014367657
151	0x3ba97886	0.005171838
152	0xbc2ed15d	-0.010670033
153	0xbc3f6daf	-0.011683865
154	0xbc887dba	-0.016661514
155	0xba8e1a71	-0.001084162
156	0xbc40c546	-0.011765784
157	0xbc2f99ff	-0.010717868
158	0xbb96f7eb	-0.004607191
159	0x3c01e181	0.0079272995
160	0x3c371ffa	0.011177057
161	0xbc421292	-0.011845248
162	0xbc4ca666	-0.012490844
163	0xbc833d21	-0.01602036
164	0x3c2c5950	0.010519341
165	0x3bc754cb	0.006083106
166	0xbc048d9c	-0.008090403
167	0x3b1e3706	0.0024141683
168	0xba81307b	-0.0009856367
169	0x3b4d2d13	0.0031307384
170	0x3c02ccaf	0.007983371
171	0xbb5e8d98	-0.0033958908
172	0x3c35b643	0.011090818
173	0x3987c872	0.0002589855
174	0x3bf4eaea	0.007474293
175	0xbc968454	-0.018373646
176	0x3c90ac0d	0.017660165
177	0x3c5af4b1	0.013364003
178	0x3b75e5f0	0.0037521087
179	0xbc21a6bd	-0.009866414
180	0xbb2354f2	-0.0024922458
181	0x3c06096d	0.008180958
182	0x3b22155d	0.0024731972
183	0xbb9cf409	-0.0047898334
184	0xbbdf6684	-0.0068176407
185	0x3c3f68c1	0.01168269
186	0xbbfa1ca2	-0.007632808
187	0x3c7ee795	0.015558143
188	0x3c8a12fd	0.016854757
189	0xbc190c98	-0.0093413815
190	0xbba2d980	-0.0049697757
191	0xbb2582ac	-0.0025254888
192	0x391e3e42	0.00015091247
193	0xbc425092	-0.01186003
194	0x3b18ee18	0.0023335274
195	0xbc2538c7	-0.010084338
196	0x3c1efe8f	0.009704246
197	0xba4842e2	-0.0007639361
198	0xbbfe5625	-0.007761734
199	0xbc027421	-0.007962258
200	0xbac9f616	-0.0015408422
201	0xbc1a6142	-0.009422602
202	0x3b837558	0.004011791
203	0x3c170d1f	0.009219437
204	0x3aedcdce	0.0018143
205	0x3bbd74bd	0.0057817386
206	0x3b85a67c	0.0040786844
207	0xba61322d	-0.00085905456
208	0x3c149e6a	0.009070972
209	0x3af5325a	0.0018707023
210	0x3c03ed3c	0.008052167
211	0x3cd70ff8	0.026252732
212	0x3c9450c4	0.018104918
213	0x3caa1190	0.020760328
214	0xbc0ae3be	-0.0084771495
215	0xbbb6f153	-0.0055829673
216	0x3ba98d72	0.0051743323
217	0xbb809aa8	-0.0039246865
218	0x3c3c42d5	0.011490543
219	0x3c3d5b95	0.011557479
220	0xbc66e6ea	-0.01409314
221	0x3c23f55a	0.010007227
222	0xbc6042f4	-0.013687838
223	0xbc0c5ae1	-0.008566589
224	0xbb099e88	-0.0020999033
225	0x3c58d716	0.013234874
226	0xba8cd29a	-0.0010743917
227	0xbad9a3b4	-0.0016604573
228	0x3cae412a	0.021271307
229	0x3c5615de	0.013066737
230	0xbbc14dc3	-0.0058991625
231	0xbc82e80c	-0.01597979
232	0x3b7d70be	0.0038671936
233	0x3c0012bf	0.007816969
234	0xbc62e8a9	-0.013849416
235	0xbb8171fe	-0.0039503565
236	0x3c46f96d	0.012144429
237	0xbbc82d1f	-0.0061088945
238	0xbc6ca103	-0.014442685
239	0x3aac606e	0.0013151297
240	0x3c65177f	0.013982653
241	0x3c588c2b	0.013217012
242	0xbb0bea67	-0.0021349431
243	0x3ba92783	0.005162181
244	0xbb0fad69	-0.002192343
245	0x3bae0bfc	0.0053114872
246	0x3c96d823	0.018413609
247	0xbb8e5148	-0.0043431856
248	0xbb871441	-0.0041222875
249	0xbc163a05	-0.009169106
250	0xbbdbfa8f	-0.0067132185
251	0x3c1eec60	0.009699911
252	0x3c69936a	0.014256338
253	0xbc19d4c6	-0.009389108
254	0x3c71fecd	0.014770222
255	0xbb47b07f	-0.003047019

bias f4 [80]
0	0x3c88b779	0.01668905
1	0xbc533c62	-0.012892814
2	0x3d7f6d4d	0.062360097
3	0xbd399eac	-0.045317337
4	0x3cb37d70	0.0219104
5	0x3d8cfcc1	0.068841465
6	0xbc4cbc21	-0.012496025
7	0x3cf0dc5c	0.02940195
8	0x3d3f2f9b	0.04667626
9	0xbd95d47c	-0.07315919
10	0x3cc58822	0.024112765
11	0x3c8b9aa0	0.017041504
12	0xbce6e436	-0.028184991
13	0xbab254a1	-0.0013605544
14	0xbccbc777	-0.024875386
15	0x3d65591c	0.055993184
16	0x3d61aa48	0.055094033
17	0x3db8a2fc	0.09015462
18	0x3c96a58e	0.01838949
19	0xbcb3ec81	-0.02196336
20	0x3d1103f8	0.035404176
21	0xbae53883	-0.0017488155
22	0xbc9ee9ab	-0.019398531
23	0xbca70c9d	-0.020391757
24	0x3cc11210	0.023568183
25	0xbcf03bb5	-0.029325346
26	0xbd6e753a	-0.058217265
27	0xbbbbc0cb	-0.00572977
28	0x3d82b5f0	0.06382358
29	0xbb2cf146	-0.0026388927
30	0x3c8782d0	0.016541868
31	0xbd082a7d	-0.033243645
32	0x3dab78c3	0.08372643
33	0xbd85a870	-0.065262675
34	0xbd602974	-0.054727033
35	0xbd2fbc2f	-0.042904075
36	0xbc6af341	-0.014340223
37	0x3d67311c	0.05644332
38	0xbcacab62	-0.021077815
39	0x3d0b1552	0.03395588
40	0xbc7e7cba	-0.015532667
41	0x3c97acb1	0.018514963
42	0x3c26139e	0.010136513
43	0x3d6aa799	0.05728874
44	0xbd9178fb	-0.07103153
45	0xbd43314f	-0.047654446
46	0xbd027af1	-0.031855527
47	0xbd13bd17	-0.036069002
48	0x3d2a11a5	0.041520733
49	0xbd80bc12	-0.062858716
50	0x3ce7b835	0.028286079
51	0x3d440246	0.04785373
52	0xbb9d16d1	-0.0047939797
53	0xbccf8a9a	-0.025334645
54	0x3d2bfa0a	0.041986503
55	0xbd77ba15	-0.060480196
56	0x3a96cd08	0.0011505196
57	0xbd9ce1c0	-0.07660246
58	0x3ccddcfb	0.025129786
59	0x3b2d7712	0.0026468677
60	0xbc5e389f	-0.013563304
61	0xbaa52589	-0.0012599687
62	0x3d8c4b3f	0.068502896
63	0x3d25c05e	0.04046666
64	0xbb13f37b	-0.0022575546
65	0xbb9ee728	-0.0048493333
66	0xbd94752a	-0.0724891
67	0xbd2e7bed	-0.042598654
68	0xbdb8fb86	-0.09032349
69	0x3c8b7156	0.017021816
70	0x3cb589e7	0.022160484
71	0x3cff306a	0.031151015
72	0xbdaaba70	-0.083363414
73	0xbd9bf689	-0.07615382
74	0xbd899e77	-0.06719678
75	0xbcc33fef	-0.023834197
76	0xbdbf19b8	-0.09331077
77	0x3d288481	0.04114199
78	0xbcc64d72	-0.02420685
79	0xbcb32f1a	-0.021873046
