GAN/NO Generator/NO_epochs=500_seq=127_batch=28.pth (torch, 675018 bytes, 31 tensors)

weight f4 [1, 80, 1]
00000000: 691f 0c3c c00f f13b 9147 1c3c 7ab8 b5bb
00000010: d4a0 04bc f9ad 653b c704 3fbc 2698 4d39
00000020: a1cf 843c 111d 6abc cc8f 163c 8d98 6bbb
00000030: a7da 0537 1a69 7abb 6725 daba 38aa 91bb
00000040: a602 95b8 073b c9bc 1b26 ed3b 02b3 7b3c
00000050: 2a32 b73c ee09 e03a 918d 783b 809a a6ba
00000060: b191 4db7 e303 d93b 740c c0bc 63fb cd39
00000070: 0b53 8439 d1fc 1d39 61c8 bfba b55b e6ba
00000080: 4e10 d13b efaf 8eba d23a ed3b d303 113c
00000090: 0682 13bb 3181 69bc b61d 8b39 15a4 23bc
000000a0: 80c3 2cbb 6437 bf3c a3a8 bf3b 3da3 55bc
000000b0: cdf4 12bb 9521 7c3c 959b 1ab7 4125 21bb
000000c0: c316 4ebc ef4f d4bc 2741 a9bb ae62 d13a
000000d0: 583b 8d38 7e7f 9ab8 ef86 113c 946d e5bb
000000e0: 4d1f e237 c0de a6bb 4511 07bc 3156 c0bb
000000f0: b026 9fbc b4be 473a c8b4 df3b 7456 8e3c
00000100: 54d5 febb bf92 b23a 31db d936 6fc9 53bb
00000110: 4bc9 61bb 00fa 033b 3f9a bd38 18d5 93bc
00000120: faba cb3a 6034 9cbc 6635 7b38 d81f d438
00000130: a2ef 7b3b 71cc e4ba b685 0db8 74a8 e4ba
0.008552411 0.007356614 0.009538547 -0.005545673 -0.008094985 0.0035046323 -0.011658854 0.00019607003
0.016212286 -0.0142891565 0.009189557 -0.0035949082 7.978327e-06 -0.0038209618 -0.0016643227 -0.0044453405
-7.105367e-05 -0.02456428 0.0072372085 0.015362503 0.022362787 0.0017092803 0.0037926177 -0.001271084
-1.2252874e-05 0.006622778 -0.023443438 0.00039287945 0.00025238874 0.00015066868 -0.0014631861 -0.0017574938
0.0063801175 -0.0010886173 0.007239678 0.008851009 -0.002250792 -0.014251993 0.00026534282 -0.009987851
-0.0026361644 0.023341842 0.0058489605 -0.013039407 -0.0022423745 0.015388866 -9.21534e-06 -0.0024588855
-0.012578669 -0.025917022 -0.0051652375 0.0015974843 6.7344576e-05 -7.3670395e-05 0.008882268 -0.007001588
2.6955875e-05 -0.005092472 -0.0082438635 -0.00586965 -0.019427627 0.00076196645 0.0068269707 0.017375208
-0.0077768955 0.0013624056 6.492621e-06 -0.0032316109 -0.0034452255 0.0020138025 9.040953e-05 -0.018045947
0.0015543394 -0.019067943 5.9892795e-05 0.00010114879 0.0038442393 -0.0017455948 -3.3741548e-05 -0.0017445222

weight f4 [80, 3, 1]
00000000: 66bd 303c 9c41 a03c dd39 33bc 1055 53bc
00000010: 1cea 9bbb fe7e 1a3b a3ad 6a3b 0d18 3e3c
00000020: fa0e 8d3c b73b a33a ff05 76b9 371c 88bb
00000030: 880e ccbb 1e2f 8bbc b0dc 9c3b 7298 a7bc
00000040: b79c c238 b27b 8a3b 7bde 12bc a444 d0bb
00000050: d672 e0bb 040b 12bc 8db0 57bc 7a98 30bb
00000060: 3f50 a4bc 9d6b dabb 458e d03b 774f 31bc
00000070: 114d 92bb 5aed f2bb 5862 bdbb 6995 193c
00000080: f250 12bb ffe6 223c 6884 3bbc 9a46 a3ba
00000090: d8cc 68bc 58f9 02bc 530d 0abc 28d0 803b
000000a0: 79cb 2f3b fb10 d5bb 4664 bdba a1f7 34bc
000000b0: b11a 313a 2ab5 c1bc c789 63bc b1c1 6d3b
000000c0: 7b83 9fba f5eb 343b 9d8e a3bb ff61 38bb
000000d0: 0795 a43b f581 ea39 062a f2bb 56b5 85bc
000000e0: ee46 853b c25d 6abc 43ce a8bc a970 8d3c
000000f0: 87b0 40bb 7520 19bc 39d7 133c fd4b 823c
00000100: 148e d73b 7d62 6cbc 217c 91bc fb66 a83b
00000110: 6795 203b f079 cbbb 462b 6bbb 31ed d0ba
00000120: ad26 8e3c bd24 0ebc a602 2abc d913 d83b
00000130: bc93 45bb 6d48 acbc a75b 37bb ca93 de3b
00000140: ab10 c2bb b7cb 7ebc 0fc3 8abc 4722 34bc
00000150: 35c5 93bb 7b7a 9ebc 57c3 493a 72b6 81bb
00000160: 1b90 603c c95a 083b 2e8c 98bc 4220 43bb
00000170: a74a aabc aa2e 02bc 67b3 adbb be9f c93a
00000180: 23d6 d0ba 1a28 0f3b 6b48 0e3c 3e5c bb3b
00000190: 745d 133b e948 ac3a 1869 0dbb 7250 a8bc
000001a0: c24e 6cba 7b45 243c 226e c73a 4f89 453b
000001b0: 553f 14bc 3b59 62bb 205b 733c ace0 383c
000001c0: 8a7c a0bc adee 21bc 77f8 9a3c 5e38 c7ba
000001d0: 7ca2 81bc 0b23 bd3c 5df7 6b3c 1ab4 fb39
000001e0: bf49 5b3c 17e2 063c 04c3 a0bc 4b2e 90bb
000001f0: 98fb 02bc 33f6 45bc 4658 25bb 473c b9bb
00000200: 6ba1 1ebb 64de acbb 1216 8cbb 1679 b93b
00000210: 256e 733c 4b97 fdbb 5b09 77bc 8d5f 5a3c
00000220: 1864 3bbb f7ff f83b d087 263c 600d 24bc
00000230: f037 1d3b 7734 483c efbc 783b 17d0 ad3c
00000240: a15e 61bc 0461 77bb d6a0 323c db22 c5b7
00000250: c98c d13b 21fc 4b3c fdc9 34b8 68f7 49bc
00000260: 922c b7bb 9cf4 00bc b31e 8d3c 5569 68bc
00000270: bb12 c3bb 38c3 03bc 9c31 f2bb 6966 8a3b
00000280: 1365 093c 5344 5f3c 71fb 3dbc 0b46 06bc
00000290: 48bd 84bc 42fd 87bc 8c01 37bc b88f 0cbc
000002a0: 643a 7d3c 9ec5 473c bcc6 a93b c721 19bc
000002b0: dd8a 2abc 20be f7bb 8265 fb3b 6256 1abc
000002c0: aab5 63bc 1e92 59bb f066 03bc f002 34bc
000002d0: 9dd5 ac3b 6f75 733c b970 06bc 068b 19bb
000002e0: c36e ffbb 2a0d 38b9 6df2 88bc 09c2 bcbc
000002f0: ad70 1ebc 134c 9d3c 2774 e23b 24ee b6bb
00000300: b8cb ca3b c41b f53b d729 9fbb 42d7 7fbc
00000310: b393 07bc 2764 033c b86c 753c 540e 28bb
00000320: 01a9 053c 0dbe 8cba 1829 35ba c59f 893b
00000330: d272 b8bb a2b1 e13b dc79 1cbc 21df 95ba
00000340: 6f5f 57bb 73a7 e3bc ab7b bbbb b9ab 39bb
00000350: b1fc a2bb f73b 4abc e30c 2e3b 6418 223c
00000360: 9664 263c 3950 e43b d7fa 5bbb eec0 bdbb
00000370: 571e 7fbc ee8d 7f3c 98df 5fbc fb17 4339
00000380: 5ffe bebb e9bb 3239 b668 b5bc e1e1 12bc
00000390: 31f1 86bc 6ef6 9bbc d6ec 82bc d6c7 4f3c
000003a0: 6cf8 a5ba 668e 2bbb 22f4 463c f8f6 7b3b
000003b0: 7547 e5bb 5d39 b43c a64e 15bc 1a61 46bc
0.010787344 0.019562535 -0.010939089 -0.012898698 -0.0047581326 0.0023574228 0.0035809062 0.011602414
0.017219055 0.001245371 -0.00023462622 -0.004153754 -0.006227318 -0.01699024 0.00478705 -0.020458434
9.279831e-05 0.0042261714 -0.008964176 -0.006355839 -0.006849627 -0.008913759 -0.013164652 -0.0026946352
-0.020057796 -0.0066656605 0.006364616 -0.010822169 -0.0044647534 -0.0074135484 -0.0057795458 0.009374001
-0.002232608 0.009942769 -0.011445142 -0.0012456954 -0.014208995 -0.0079940185 -0.008426028 0.003931064
0.002682416 -0.0065022684 -0.001444944 -0.011045367 0.00067559915 -0.023645956 -0.013887829 0.003627878
-0.0012169922 0.0027606462 -0.004991366 -0.0028134582 0.0050226483 0.00044728784 -0.0073902635 -0.01632182
0.0040672934 -0.01430458 -0.020606166 0.017265635 -0.0029402093 -0.009346117 0.009023481 0.015905375
0.0065782163 -0.014427778 -0.017759385 0.0051392294 0.0024503113 -0.0062096044 -0.0035883947 -0.0015939829
0.017352426 -0.008675751 -0.010376608 0.006594163 -0.003014787 -0.021030629 -0.0027978213 0.00679252
-0.005922397 -0.015551499 -0.016938714 -0.0109945005 -0.004509593 -0.019345513 0.00076966494 -0.0039585168
0.013706232 0.0020806065 -0.01862153 -0.0029773866 -0.02078755 -0.007945696 -0.0053009274 0.001538269
-0.0015932958 0.002184397 0.008684258 0.0057177832 0.0022486122 0.0013144288 -0.0021577533 -0.020546172
-0.00090144214 0.010026331 0.0015215317 0.0030141657 -0.009048303 -0.0034538049 0.014853269 0.011284035
-0.019590635 -0.009883565 0.018917305 -0.0015199294 -0.015824549 0.023087999 0.014402238 0.00048008637
0.013384282 0.008232615 -0.01962424 -0.00440005 -0.007994555 -0.012082624 -0.0025229617 -0.0056529376
-0.00242051 -0.0052755345 -0.004275092 0.0056601865 0.0148578035 -0.007738983 -0.015077914 0.013328445
-0.0028593596 0.0075988728 0.010164216 -0.0100129545 0.002398964 0.01221954 0.003795441 0.021217389
-0.013755471 -0.0037747035 0.010902604 -2.350046e-05 0.0063949567 0.012450249 -4.310346e-05 -0.012327053
-0.00559003 -0.007870819 0.017226553 -0.014185269 -0.0059531606 -0.008042149 -0.007391168 0.004223634
0.008385914 0.01362713 -0.011595593 -0.0081954105 -0.016203538 -0.016600255 -0.011169802 -0.008579187
0.015455816 0.012193112 0.0051811617 -0.009346432 -0.010409084 -0.0075605065 0.007672013 -0.009420009
-0.013898293 -0.0033198665 -0.008020148 -0.0109870285 0.005274488 0.014859541 -0.008205586 -0.0023428812
-0.0077951862 -0.00017552511 -0.01671716 -0.023041742 -0.009670419 0.019201314 0.006910819 -0.005582588
0.006188836 0.0074801166 -0.0048572826 -0.015615286 -0.00827496 0.008019484 0.014979534 -0.0025643306
0.008157969 -0.0010737792 -0.00069107255 0.004199954 -0.005628922 0.0068876306 -0.009550538 -0.0011434295
-0.003286328 -0.027789807 -0.0057215295 -0.0028331114 -0.004973971 -0.012343398 0.0026557974 0.0098935105
0.0101558175 0.006967571 -0.003356626 -0.0057908213 -0.015571198 0.0155978035 -0.013664149 0.00018605583
-0.0058286632 0.00017045405 -0.022144657 -0.008964987 -0.01647243 -0.019038405 -0.015982073 0.012681922
-0.0012662536 -0.0026177405 0.012143167 0.0038446765 -0.0069970437 0.02200001 -0.0091129895 -0.012108112

bias f4 [80]
00000000: daa8 62bc d97e 853e 2cb7 fcbe de91 1abe
00000010: 68a2 d03e a714 023e aa9b d13e 917d e93e
00000020: b610 f83e c67e 943e ca34 f1be 2a21 c1be
00000030: bb92 8dbb 7e50 cabe da02 0dbf e26b 253e
00000040: d3ca 0abf 7981 0fbf 878a c73e 0b50 e23e
00000050: a4fd 553e 3b78 c8be 82b0 fd3e c359 c63e
00000060: 11d5 93be 6781 c1be 0916 0c3e 31f2 063e
00000070: 3c18 8d3e b621 973b 06bb 58bd 8c8b 923e
00000080: ed74 183d 69a5 2dbe 72a1 9d3d e1c2 033f
00000090: 0c6b ec3e 8ac6 bebd 04b0 d43e 35f5 ef3e
000000a0: 0c56 f73e 3fac da3c f7f8 f33e a8ab 013f
000000b0: 7342 bd3b a294 7dbe b7eb e73e 4db8 fdbe
000000c0: 117a a3bd a4a8 bcbe 1e75 6f3e 5104 a7be
000000d0: 69c7 e03e c265 05bf d974 943d 861d 093f
000000e0: ce37 9dbe a905 dabe fc4b d03e a947 0c3e
000000f0: 2301 d0be 6326 45be 4802 b03d 82f4 613e
00000100: d718 13be eb78 013f 715c ba3e ac85 bf3e
00000110: c1a8 973e c66c 933e 23e8 363e 047e e0bc
00000120: ba62 72bd 970b a83e feab db3e 4ccd 06bd
00000130: 8fda 98bd d0e6 ab3e e018 00bf ac6c c7bd
-0.013834203 0.2607334 -0.493585 -0.15094706 0.40748906 0.1270319 0.40939075 0.45603612
0.4845025 0.2900297 -0.47110587 -0.37720615 -0.00432047 -0.39514536 -0.55082476 0.16154435
-0.54215735 -0.56056935 0.38972875 0.44201693 0.20897537 -0.3915423 0.49548727 0.38740358
-0.28873494 -0.3779404 0.1368028 0.13178326 0.27557552 0.004612173 -0.052912734 0.2862209
0.037220884 -0.1695763 0.07696809 0.51469237 0.4617542 -0.09315212 0.4154054 0.46866766
0.48307836 0.026693461 0.47650883 0.5065255 0.0057757436 -0.2476373 0.45297024 -0.49554673
-0.07982267 -0.36847413 0.2338452 -0.3262048 0.43902138 -0.52108395 0.072488494 0.53560674
-0.30706638 -0.42582443 0.4068297 0.13699211 -0.40625867 -0.19252925 0.08594185 0.22065929
-0.14364944 0.5057513 0.36398652 0.3740667 0.29620937 0.28793925 0.1786199 -0.027403839
-0.059176184 0.32821342 0.42904657 -0.03291063 -0.07463562 0.33574533 -0.50037956 -0.097375244

weight f4 [80, 80, 1]
00000000: 60e2 cfbb 5e06 263c 8e81 2e3c 7948 df3b
00000010: cac9 79bc 1568 d7bb 3d72 043a 7f31 76bb
00000020: 422e a5bc 0216 a2bc 9c12 813b 7292 853c
00000030: e221 bdbb edbc de3b e78b d4bb 1a2a 3cbc
00000040: 066b e6bc 93f5 e7bb ab9e 433b 7063 9e3a
00000050: b5f6 f6bb 2043 4c3c 9b18 88bb 3048 15bc
00000060: 501f 42bc f031 6c3c fa12 453c b200 65bc
00000070: 78fb 76bc bd0c bebb 1c7d 013c 9eb6 5dbc
00000080: c929 1e3c 55ba 2dbc d727 19bb 7b66 90ba
00000090: 6e9e 2abb e51b c0bb 6171 73bc 4353 243c
000000a0: 9c98 53bc 82df 1fbc c8af e73a 34da 21bc
000000b0: b98c e03a 505d ca3b 32c2 803c 03c9 253b
000000c0: ce6e 883b 28a0 05bc a601 1ebc df58 233c
000000d0: 2a2f 6c3c 8d3a 55ba 6a75 70bc 8abd 05bc
000000e0: fb35 37bc 9c69 523b d3dc eabb ec25 99bc
000000f0: ae7f 06ba 865f 3fbb a770 4e3c 95c4 873b
00000100: c6e4 31bc 1c4f 343c 5dde a5ba 22fb 6c3c
00000110: 6435 183b 1781 72ba 24e5 69bc 4f05 973c
00000120: 9992 17bb cac1 62bb 011d 0cbc 01e7 293c
00000130: 2b16 87bb e484 063c 5455 acbc a36c 8939
00000140: 5094 19bc 45f6 a739 cc2d 0d3c 00a0 d036
00000150: 9529 9ebb 409a 0bbc 2e3b 023c b8f2 81b9
00000160: 91ea 4bbc afce 97bb c390 cabb 5b4b 00bb
00000170: 3d2c 0fbc 13eb 5d3c 18aa cdbb 7df5 d239
00000180: be8e 3a3c 82d8 65bb 29c8 84bc be96 573b
00000190: 6ea0 113b 1a80 a3bb db46 3dbb 8047 143c
000001a0: 3ab9 333b 7a78 03bb f747 66bc 452c 93b8
000001b0: 3070 023b 716f a83b 55fd 74bb 8b6d 87ba
000001c0: 11bc 0bbb 24b2 61bc 0409 bb3b caea 1abc
000001d0: ea2a b5ba df1d d7bb 20c2 e8b8 6707 073c
000001e0: 5719 96ba c0c4 73bc 82b6 043b 0806 2ebc
000001f0: 1780 593c 4ed1 1dbc 74e9 eebb dc5f 18bb
00000200: 5023 483c 69b6 cb3a 5806 a2bc 9787 3abc
00000210: 3f70 843c c62f 783c 43e3 843b 416b cbbb
00000220: 9807 4539 f151 0b3c 834d 173b c104 11bc
00000230: 6b91 663b 8999 fd3b 21e7 1eb8 4bd0 1abc
00000240: 88a5 dd3a 44da fa3a b53e 3ebb 2b4f 023b
00000250: a9d6 b83a ea7d b1bb f472 453c 9507 c93b
00000260: 8148 8f3b ddb3 c53b 8c27 8d3b ace3 843b
00000270: d2ae 5a3b df65 55bc 5f29 0abc 367c 1b3c
00000280: 13e3 983b 4ffc 2e3c 3f51 8cbc b473 4abc
00000290: c996 173b 532c 6cbc a2d9 78bb eca3 4cbc
000002a0: 01e8 1d3b cc8d eb3c 5528 f23b 3330 63bc
000002b0: 843d 413a 430a f5bb a85d f8bb e035 a93b
000002c0: 2b1b eabb e397 163b 15d0 a9bc 5160 203c
000002d0: 6ed2 d33b 7cb7 e1bb 9006 143b 954f f7ba
000002e0: b4cd e0bb fb06 16ba 45a2 c5b9 7d05 5e3c
000002f0: d157 063c 85cb f5b8 9398 49b9 21f8 633c
00000300: 6b60 b6bc b5ca 813b 9255 18bb 6c31 9eba
00000310: 326d 2ebc 54fb d23b 6c6d 8abb b375 1fbc
00000320: 6b2e 55bc b5a5 e63b 663c 883b e10c 603c
00000330: 0998 6e3a 455b 973c 74ca 85ba 3ded 8a3b
00000340: c582 473c 5080 2bbc aa3c 853c 076a daba
00000350: 8817 4abc 3e73 bc3b d509 ddbb 3a99 a4bb
00000360: b6f8 9bbb 688f 423c 5e68 eb3b 0698 c03b
00000370: 2c12 36bb f992 0ebc 974e 4fbc 634e 0a3c
00000380: 8b4e 63bc 7816 f73a 4228 073b 32a8 02bc
00000390: c731 8bb9 c3c3 15bb 1cd6 b1bb 8173 5abc
000003a0: 147f a2bb 4794 c8bb d34c eebb 857a 7e3b
000003b0: bec1 0f3b e5b6 053b 9cf7 c6bb 0ce5 563c
000003c0: 2c1c 973b 6f4b 31bb 5182 1cbc a68b 073b
000003d0: 5c8a 183c 2ab6 cebb 005d d7bc dfff 953c
000003e0: 3829 413c dc8b 2cbb b332 cf37 569e 2e3c
000003f0: c48e e03b 7392 73bb 0ad7 71bc b25f 863a
-0.0063441247 0.010133354 0.010651005 0.0068140593 -0.015245864 -0.006573687 0.0005052423 -0.0037566123
-0.020163659 -0.019785885 0.003938986 0.016305182 -0.0057718614 0.006797424 -0.006486404 -0.011484647
-0.028127205 -0.0070788353 0.0029849212 0.0012084078 -0.007536734 0.012467176 -0.004153324 -0.009111449
-0.011848286 0.014416203 0.01202845 -0.013977217 -0.015074603 -0.0057998584 0.007903364 -0.013532309
0.009653517 -0.010603507 -0.0023369694 -0.001101687 -0.0026034373 -0.0058627003 -0.014858575 0.010029617
-0.012914803 -0.009757878 0.0017676288 -0.009878684 0.0017131782 0.0061756745 0.0157176 0.0025296814
0.0041635996 -0.00815586 -0.009643948 0.009969919 0.014415542 -0.000813403 -0.014676431 -0.008162865
-0.011182304 0.0032106405 -0.0071674376 -0.01869484 -0.000513072 -0.0029201224 0.012600101 0.0041433075
-0.0108577665 0.011005189 -0.001265477 0.014464172 0.0023225183 -0.0009250803 -0.014275823 0.018435149
-0.002312815 -0.003460037 -0.008551837 0.010370017 -0.0041225157 0.0082103945 -0.021036781 0.00026211617
-0.009373739 0.00032036207 0.008616876 6.2175095e-06 -0.0048267343 -0.008520663 0.00794868 -0.00024785637
-0.012446062 -0.004632793 -0.0061818077 -0.0019576165 -0.008738575 0.013544816 -0.0062763803 0.00040237224
0.011386571 -0.0035071676 -0.016208725 0.0032896246 0.0022220868 -0.004989636 -0.0028881344 0.00905025
0.0027423636 -0.0020060823 -0.014055244 -7.017752e-05 0.0019903295 0.005140238 -0.0037382443 -0.0010332329
-0.0021321813 -0.013775382 0.005707862 -0.009455392 -0.0013821993 -0.00656484 -0.00011098781 0.008241511
-0.0011451644 -0.014878452 0.0020250385 -0.010621555 0.013275168 -0.009632422 -0.0072910134 -0.0023250496
0.01221545 0.0015542033 -0.019778416 -0.011384866 0.016166804 0.015148109 0.004055412 -0.006207854
0.00018790213 0.008503423 0.0023086972 -0.008851231 0.003518189 0.00773925 -3.788539e-05 -0.009449075
0.0016910294 0.0019138535 -0.0029029076 0.0019883614 0.001410206 -0.0054166215 0.012051333 0.006134937
0.004372657 0.0060334043 0.004307693 0.004055461 0.0033368361 -0.013024776 -0.008432715 0.009490063
0.004665741 0.010680272 -0.017128585 -0.012356687 0.0023130646 -0.014414865 -0.0037971516 -0.012490254
0.0024094584 0.028754137 0.007390062 -0.013866472 0.0007371532 -0.00747803 -0.007579524 0.005163893
-0.007144352 0.0022978715 -0.020729104 0.009788589 0.006464294 -0.006888328 0.002258692 -0.0018868322
-0.006860459 -0.0005723086 -0.00037695668 0.013551113 0.008199648 -0.00011720419 -0.00019225692 0.013914139
-0.022262773 0.003960932 -0.0023244363 -0.0012069172 -0.010646151 0.006438652 -0.00422447 -0.0097326515
-0.013011555 0.007038797 0.0041575907 0.013674946 0.00091016345 0.018476138 -0.001020743 0.004239707
0.012177174 -0.010467604 0.016264278 -0.0016663679 -0.012334712 0.0057510426 -0.006745557 -0.005023149
-0.0047598733 0.011875011 0.0071840724 0.0058774976 -0.0027781827 -0.008702033 -0.012653015 0.00844154
-0.013873707 0.0018851301 0.002062336 -0.007974671 -0.00026549233 -0.0022852279 -0.005427135 -0.013333202
-0.0049589965 -0.0061211917 -0.0072723418 0.0038830352 0.0021935548 0.0020403203 -0.006071998 0.0131161325
0.0046115126 -0.0027053019 -0.009552554 0.0020682602 0.009310331 -0.0063083367 -0.026289463 0.018310485
0.0117896125 -0.002632848 2.4699932e-05 0.010657867 0.0068529565 -0.0037166148 -0.014760742 0.0010251908

bias f4 [80]
00000000: 6392 25bd 9045 07bc 4b9e e03d 3604 d2bd
00000010: b807 063d aa24 963d 5830 a7bd 59af 9bbd
00000020: 19f0 9bbd 3486 c2bd 8cc9 99bd 6a6e ee3c
00000030: e183 b6bc c865 c7bd 4414 923d bf6c aabc
00000040: c542 5e3d a618 ad3d 5aab eabc a4fe 18bc
00000050: 907b d2bd b422 c03d 6f44 08bd 476e 41bd
00000060: cf42 6c3d 234c 803d 90b5 abbd c74b 413d
00000070: 820b 77bd 76b7 0dbd 1a1f 9fbd e4de 47bd
00000080: 1393 bbbc 208c 9a3d dbcc 903d d9b2 ad3d
00000090: 076e f43c c689 d1bd b4ec e13d 061e 5cbd
000000a0: 4e84 953d 2ed4 d2ba 15c2 143d 0f20 acbb
000000b0: 49b9 64bd 821e cc3a f124 9fbd 404a be3d
000000c0: dd29 9cbd 68d2 01bd 7a04 a33d f2c9 2dbc
000000d0: d83e aa3a f768 ba3c e7b7 823d e02c cdbd
000000e0: 6157 253d 7d79 74bd 994a cc3c a518 3dbd
000000f0: 505d 743d 80f0 a5bc 8349 433b 73b0 b3bd
00000100: a254 76bd 6bf0 87bc 1875 9f3d ba2f d2bd
00000110: bdd8 14bd b071 1e3c 932b d4bd b867 973d
00000120: d0eb ac3d 17cd 0d3c 6b49 a4bc 6fab 17bb
00000130: 46b7 c63d 4d18 ffbd ec14 c6bd 8949 3bbd
-0.04042281 -0.008256331 0.10967692 -0.102547094 0.032722205 0.07331212 -0.08163518 -0.07601804
-0.07614154 -0.094982535 -0.07509145 0.029105384 -0.022279682 -0.0973621 0.071327716 -0.020803807
0.054262895 0.08451967 -0.02864616 -0.009338055 -0.10277474 0.09381619 -0.03326839 -0.04722431
0.0576809 0.06264522 -0.0838424 0.047191408 -0.06031371 -0.03459879 -0.07769604 -0.04879655
-0.022897279 0.07546258 0.07070323 0.08481378 0.029837621 -0.10231356 0.11031476 -0.05373957
0.07300626 -0.0016084963 0.036317904 -0.005252845 -0.055840764 0.0015573057 -0.07770718 0.09291506
-0.07625172 -0.0316948 0.07959838 -0.01060723 0.00129887 0.02275513 0.06382733 -0.10018325
0.040366534 -0.059686173 0.024937915 -0.04616608 0.059659302 -0.02025628 0.0029798455 -0.087738894
-0.060139306 -0.016594132 0.07786006 -0.10263009 -0.03633951 0.00967066 -0.103598736 0.0739283
0.08443415 0.008654854 -0.02005454 -0.0023142954 0.097029254 -0.12455807 -0.09671959 -0.045724425

weight f4 [80, 3, 1]
00000000: c083 28bc 0f43 34bd 0b63 8d3b ae26 783a
00000010: 0ab9 cdbc 3f30 82bc d2ea 84bc 00e5 37bd
00000020: d070 40bc bb61 ac3a 7823 643c bfba b73c
00000030: b2f2 a93c db9b 6d3c 882c 00bc 7509 74bb
00000040: 01e3 56bc aa00 8d3b 0ae1 9d3b 1b3a f83c
00000050: a2cd 953c 6405 e13b 04e8 5c3c 9ec2 483c
00000060: 34cb aabc 08ed babc 877e 36bb 778c f1b9
00000070: edc2 c23c 767c af3c b2cc 90bc b2ae c8bb
00000080: dc3c 8ebc 3b21 393c cf69 d53c 8d0a e83a
00000090: 258e c6bb 380f 30bc 4eee 203a 6335 343c
000000a0: c402 b43c 7fef 8e3c 649c b23c 55ed a73c
000000b0: bfc0 773b 5727 803c 207d cb3a 755a a63c
000000c0: d1ce 87ba 472d 3abb 7d9d 543c 5313 9e3c
000000d0: 5a91 623d eed4 d43b 1122 74bc 2158 dbbc
000000e0: f77e b0bc 75a3 0fbd 2e7b b1bc 83fc 99bc
000000f0: a236 b5bc fb98 35bd 30d2 89bc 8197 90bb
00000100: 728d a8bc 4575 34bc ffb8 a5bb feeb 1c3b
00000110: 4998 b9bc 9c78 ad3b 1703 a83c b44e 22ba
00000120: 9960 993b 5e6a 9e3c e19f 96bb cddf 9abc
00000130: 3fbf c1bc d882 27bc 3205 f93c dc18 3a3d
00000140: 4bb0 913c 7788 90bb 0346 bdbc 8e7b 873c
00000150: 79f1 f03b 8741 223b df4c 94bc 4ce8 f738
00000160: 2e7a 74bb 7a4e 973c a962 8e3c 3265 a53c
00000170: 3272 13bc 3d20 13bc df37 963c b2b6 403b
00000180: 206e 56bc 80c9 9dbc d3d9 6dbc fc9a bc3a
00000190: 295e 993c d774 49bc ea9d 16bc 6ce4 27bd
000001a0: 6742 e9bb 5765 81bc e7e5 abbc 02b5 e5bb
000001b0: 334f 093c 0e32 90ba e42d 37bc 5d38 8a3b
000001c0: 81d9 293d a98b 8c3c 7e1d 5e3b 3f77 00bc
000001d0: 5a14 6eba 3b54 023d afe2 d93c e1eb 603b
000001e0: fa6b 5a3c 3960 5f3c 181d 803b ae29 0cbd
000001f0: 8066 e9bc d399 31bb 9e3a 1d3c 7e5f 12bd
00000200: 48cb a2bc a64c bc3c 198e d93c a807 733c
00000210: 46f5 a43b fd83 1a3c 291e 153c 2ed2 60bc
00000220: 1717 0ebd cb14 90bc 5ee5 6abb fc82 17bb
00000230: cbeb 10bb cc2a d7b9 cd5e b93b 8d17 c6bb
00000240: 5673 e73c ad93 fe3c 434c 4f3c 1048 c73c
00000250: be60 003d 868d b03b dadf a13c 7d1f 0abc
00000260: 59bf 86bb e20f f2ba 093b 24bb fe5c cb3b
00000270: da4f 573c 847f 91bb a9a6 e4bb 2739 463a
00000280: 0c33 5c3c 3227 89ba 238d e8bb 6591 74bc
00000290: 3804 8fbc 09a9 8d3c ed6b 343d 83f7 d23c
000002a0: 3be1 673b 2f90 6d3c ee52 88bc 3994 813b
000002b0: 901e a43c 3297 ef3b 84f1 393b f039 043d
000002c0: c037 483c 2d34 953c 6de5 c33c e9de b33c
000002d0: 882d c63c 297e 213d 0aa1 a63b 4a72 47bc
000002e0: 446d ccbb ac99 05bc 48de 31bc 39ec 16bd
000002f0: 1686 803b 0af5 9b3a 228b 06bc e325 d7bc
00000300: 7861 b63c 8a9b e03b 7073 c73c 909c bcbb
00000310: ef2f aebb 4c89 0bbc 8190 3d3c 1329 9bba
00000320: 6d2d bb3b 754c 963c 5fb6 8d3c e0ec 143c
00000330: 1bc4 d83b c6fe 573c dc45 183c 7123 daba
00000340: 6d3d 65bb 006c 72ba b357 b8ba 272d 29bc
00000350: 160f 85bb 56d3 0c3d a7a7 db3c 73ee fb3b
00000360: 1cd3 13bc e61c 1dbc 329a 543a 30e4 ce3c
00000370: b252 3a3d 19b9 ef3a fd6f 8f3c be9b abbb
00000380: 14c1 01bc ebfb 70bc 6b89 87bb ddb5 b0bb
00000390: 87ac 33bb e15c 03bd 4d99 94bc 4d69 663c
000003a0: 04b7 893b b5ad b23b 3a2e 693c c3f0 193c
000003b0: 43f9 4c3a c35e 22ba de64 8e3c 81fb 3a3c
-0.010285318 -0.044009265 0.0043147854 0.0009466213 -0.025112648 -0.015892146 -0.016225252 -0.044896126
-0.011745647 0.0013151685 0.013924472 0.022427915 0.020745609 0.014502491 -0.007823117 -0.0037237082
-0.013115645 0.0043030577 0.0048180865 0.030301144 0.01828653 0.0068670977 0.013483051 0.012253432
-0.020848848 -0.022818103 -0.0027846412 -0.00046071757 0.023774588 0.021421652 -0.017675731 -0.006124341
-0.017363004 0.011299427 0.02605143 0.001770334 -0.0060594254 -0.010745816 0.0006139026 0.0109990565
0.021973975 0.017448185 0.021803088 0.02049891 0.0037804095 0.015643759 0.0015524961 0.020306805
-0.0010361319 -0.0028408335 0.012977001 0.019296324 0.0553144 0.0064951098 -0.0149007 -0.026775422
-0.021544917 -0.035067994 -0.021665182 -0.018797165 -0.022120778 -0.044335347 -0.016823858 -0.004412592
-0.020575259 -0.011014287 -0.0050574536 0.0023944373 -0.022655623 0.005293919 0.020509286 -0.0006191537
0.004680705 0.01933783 -0.004596696 -0.018905545 -0.023650764 -0.010224067 0.030397985 0.045433864
0.017784258 -0.004410799 -0.023104673 0.016538408 0.0073530045 0.0024758296 -0.018103061 0.000118211465
-0.003730427 0.018470038 0.01738103 0.020189855 -0.008999394 -0.008979854 0.018337188 0.002940577
-0.013087779 -0.019261122 -0.014517265 0.0014389451 0.018721657 -0.012295923 -0.009192923 -0.040989324
-0.0071185115 -0.015795393 -0.02098365 -0.007010103 0.008380699 -0.0011001246 -0.011180375 0.004218145
0.041467194 0.017156439 0.003389209 -0.0078409305 -0.0009082012 0.03181861 0.026597349 0.0034320282
0.013331408 0.013633781 0.0039097182 -0.034219436 -0.028491259 -0.0027099743 0.009596495 -0.0357356
-0.019872323 0.022985768 0.026557015 0.014833368 0.0050341217 0.0094308825 0.009101429 -0.013721986
-0.03468999 -0.01758804 -0.003584228 -0.0023118844 -0.00221132 -0.00041039882 0.005657053 -0.006045288
0.028253239 0.031076277 0.01265246 0.024326354 0.03134226 0.0053879647 0.019760061 -0.008430359
-0.004112166 -0.0018467868 -0.0025059602 0.006206154 0.013141597 -0.00444025 -0.0069778753 0.0007561617
0.013439905 -0.0010463952 -0.007096903 -0.014927243 -0.017458066 0.017292516 0.04404824 0.025752788
0.003538205 0.014499708 -0.016641106 0.003954437 0.020034105 0.007311725 0.0028372714 0.032281816
0.012220323 0.018213356 0.02391311 0.021956878 0.024191633 0.039426956 0.0050851153 -0.012173245
-0.0062386114 -0.008154314 -0.010856219 -0.036846373 0.0039222343 0.0011898589 -0.008211883 -0.026263183
0.022263274 0.006854479 0.024347037 -0.0057559684 -0.0053157727 -0.008516621 0.011570097 -0.0011837803
0.0057122023 0.018347004 0.017298875 0.0090896785 0.0066151745 0.013183301 0.0092939995 -0.0016642642
-0.003497924 -0.00092476606 -0.0014064222 -0.010325707 -0.0040606363 0.034381233 0.026813341 0.0076883375
-0.0090225 -0.009589409 0.0008110135 0.025255293 0.04548902 0.0018289416 0.017509455 -0.005237072
-0.007919569 -0.014708499 -0.0041362545 -0.0053927735 -0.0027416067 -0.032070998 -0.018139506 0.014063192
0.0042027254 0.0054528364 0.014232213 0.009395781 0.00078191253 -0.000619393 0.017382082 0.011412502

bias f4 [80]
00000000: 484d 313e 2c86 783e 18c3 cc3e 2d37 b7be
00000010: 2a0e bcbe 457b e23e 0137 f7be ca70 84bc
00000020: a887 813e ab26 07bf 1db2 953e 9a2f 993d
00000030: f2aa aebe 0618 d03e 4e88 00bf aefc 99be
00000040: da40 eebe 6d6b 093f 04ae 08be c420 ad3e
00000050: e057 943e c683 033e 6059 4d3e 3ab7 fbbe
00000060: 901a febc 28ad e23c 69f1 90be 6c89 28be
00000070: 9ca4 593d 6f6f 113e 2f42 91be 8e5c 6d3d
00000080: 7d6d 063f b725 9fbd 3d05 0a3f 9b22 f8bd
00000090: 4c1a 733e 4fb2 9cbe afcd 78be 79bb 08bf
000000a0: 81ee 203e 9a44 9f3e f941 05bf 7711 08be
000000b0: ee76 f53e c7a9 ee3e db4d fd3e bf02 f13e
000000c0: 0f65 2abe 14f0 d4bd 2c23 793e 5526 8ebe
000000d0: 03d1 e4bd 9ecb 7a3e 4eb8 6c3c 9b1d b23c
000000e0: 98fa 0cbe dd6c b43e fcde d2be 6bf9 03bf
000000f0: 183e a6be 7313 023e 14d9 6a3e 48b1 b33e
00000100: 0c99 073f c0ac d03e d56f 8e3e 787f 423e
00000110: 0004 be3e 98aa e73c ec95 63bd cb90 3ebe
00000120: 8706 c2be 7d48 f93d 0ff9 2cbe e0e5 18be
00000130: a520 a2be 741a e43e 272a f1bb 1fc9 eebe
0.17314637 0.24269933 0.39992595 -0.35784283 -0.36729556 0.44234672 -0.48284152 -0.016167063
0.2529881 -0.5279338 0.29237452 0.074797824 -0.34114796 0.40643328 -0.50207984 -0.30075592
-0.46533853 0.53679544 -0.13347632 0.3381406 0.28973293 0.12843236 0.20053625 -0.49163228
-0.031018525 0.027670458 -0.2830918 -0.16458672 0.0531355 0.14202665 -0.28370807 0.057949595
0.52510816 -0.077708654 0.53914243 -0.121159755 0.237405 -0.3060479 -0.24297212 -0.5341106
0.15715982 0.31107026 -0.5205379 -0.13287912 0.479423 0.46613905 0.49473462 0.47072408
-0.16640113 -0.10397354 0.24329823 -0.2776362 -0.11172678 0.24491736 0.014448239 0.021742633
-0.13767469 0.35239306 -0.4118575 -0.51552457 -0.3246925 0.12702732 0.22934371 0.35096192
0.52967906 0.40756798 0.27819696 0.18993938 0.37112427 0.028279588 -0.0555629 -0.18609922
-0.37895605 0.12172029 -0.16891883 -0.1493144 -0.3166553 0.44551432 -0.0073597613 -0.46637818

weight f4 [80, 80, 2]
00000000: ba81 9aba a6b3 2e3c b477 123c e5d4 eebc
00000010: 76cc 163b 7356 f03b a9f5 60bb 83e7 7f3b
00000020: b585 9d39 31da 29bb 2087 863c ab4a 193b
00000030: 35ae 603a bf9f de3b ed51 c23b 87b7 8c3b
00000040: b34e aebb b407 f03b 1685 23bc 16f3 bebb
00000050: a9b0 8fbb c55f ae3b 0775 0a3d 8aa9 283a
00000060: 87f6 c738 d9d7 40bc ff11 153c 0378 093b
00000070: 4981 fbbb 18f4 ecbb f138 9ebb f0cd 8d3b
00000080: f5b0 b3bb 6b1d 813b 2b7c b9bb 2072 3c3c
00000090: 7cb4 debc d5de e7b9 7a2e 08bb fc91 51bc
000000a0: c0ac 5bbb d76e d9bb bfbf 043c bb6d 0abc
000000b0: 9b05 ed3a 3b82 6b3c 529b 35bb b063 40ba
000000c0: 2e4b 8e3c 8a40 413c 272a b93b a528 953c
000000d0: db5a 5c39 309b 4d3c a2fd 1fbb 90b8 003c
000000e0: e5a9 21bb ba1b 313c 8e45 9dbb bf20 7bbb
000000f0: a464 d73a e527 94bc 909c 1c3b 2367 97bb
00000100: 5dbf 6f3c 4844 4a3c b5ef 8d3b 4acf 30bc
00000110: 7cc6 d3bb c297 da3b 4213 1dbc c67b fc3b
00000120: 3f91 fe3b ea77 40bc 05fa ca3a 23db 2d3a
00000130: 1fa1 633c ce0b 4abb 23f9 a3bc 4a8a 32bb
00000140: 157c e43b 52f8 1dbc 1984 7b3b 34e5 3b3c
00000150: 98f0 ba3c 8a82 58ba fea1 a7bc b191 1f3b
00000160: 2b80 eebb cde2 a7ba 1bad 983b 9431 67bc
00000170: 6c19 2ebc 84f8 a0bb 0d39 c6ba 7c50 9fbb
00000180: 316b 293b ab9d 16bc 77a4 363a 8d0c 2dbc
00000190: be1a 723b 34ac 873c 9158 f7bb 736c 27bc
000001a0: d1c0 133c 4924 f13b be75 913b 7325 5fbc
000001b0: e915 a2bb 4280 07bc b45a 32bc 6529 84bc
000001c0: 59e3 6a3b 5b7a edbb 6429 83bc cc6a 013c
000001d0: a09e 46bc e94f 813b cfcb 213c 9806 6d3c
000001e0: bbed 8dba 3d42 0f3c 5e10 06bb 87f2 51bc
000001f0: dfc3 fe3b f449 3abb a7fb c53a ffd6 debb
00000200: 8d87 413b 11e3 f83a 268d d13b 9091 a1bc
00000210: e48f c13b 2be9 8ebc 264c 03bd 1f18 053c
00000220: 55a3 84bb 3627 8abb 27c6 103b c4b1 ae3b
00000230: 3542 19ba 7079 66bb 2fd5 00bb 55fb 60bc
00000240: 4f84 bc3c 169c 6bb9 f4df a43b 424c 8dbc
00000250: 2674 eb3a 2673 a3bb 1593 a2bc 29d1 d2bb
00000260: ad87 cfbb 1e98 3eba be65 ed3b 5598 603c
00000270: 4a86 05bc e503 0a3c f3de d13b 7be1 643c
00000280: 5cf4 163c d464 4bbb bd6a 0bbc 086e 5a3c
00000290: 72e2 8c3a 4ad6 8fb9 9d8f 4ebc 7bbb 31bb
000002a0: bfd6 ffbb 7754 9c3c 9fc3 543c fab7 9b37
000002b0: b8cf 1b3c ade5 d93b 661c 6a3c aea9 a73b
000002c0: 704e 32bc 8d54 47bb 8395 bbbb 0b3e f33a
000002d0: c1a2 8b3c 1707 8f39 01d4 0abb 31c7 15bb
000002e0: 557b 91bb f938 80b7 4f98 c13c e4aa 4bbc
000002f0: d79a 4f3c e7ae 2fbb 5f8f fe3b e61f 153b
00000300: 172d b2ba e64c 463c abfe 80ba da9f 2a3c
00000310: 3028 04bb 343c 403c 8bf0 fe3b c203 13bc
00000320: c7db 8b3c 6199 de3a 8f39 9cbc ba77 28bb
00000330: f075 11bc 457d 333c a9b3 a2bb 26b7 8c3b
00000340: 58ee 94bc 2f1c 183c 5d26 0bbc 6d76 76bc
00000350: 3a79 363b e597 05bc 2174 913b aa37 dcba
00000360: f936 3abc 2e25 953b 2ab9 a63b 0a6a aeba
00000370: d260 88bb 5dfb d7bb 1b6f 883c d241 01bc
00000380: 3df5 a83b f704 843c 384d 663c cf11 5ebc
00000390: 8b2c f7ba f3d9 873c 9fa0 4dbc 33bd 133c
000003a0: 99e1 0bbb b1cf d53b d663 873c 5de4 28ba
000003b0: 8369 24bc 4626 c73b e5f0 013c 9773 83ba
000003c0: 2e8b 193c a287 18bb 625d 98ba b36c 433c
000003d0: 4573 56bc dd20 5bbb 2843 143c 5f6c 84b8
000003e0: 8640 17bb 2d0a 36bb a7da ce3b 4388 81bc
000003f0: 15c5 593c 75ac 54bc 3fd7 60bb e5be c43b
-0.0011787929 0.010662949 0.008939672 -0.02915425 0.0023010052 0.0073345243 -0.0034326112 0.0039047904
0.00030044993 -0.0025917406 0.016421854 0.0023390453 0.0008570881 0.0067939456 0.0059301765 0.004294339
-0.0053194403 0.007325137 -0.009980461 -0.005827318 -0.004385073 0.005321475 0.033803012 0.00064339547
9.534979e-05 -0.011770212 0.009098529 0.0020976074 -0.007675324 -0.0072312467 -0.0048285653 0.004327528
-0.0054837414 0.0039402745 -0.005660554 0.011501819 -0.027185671 -0.00044225776 -0.0020779655 -0.012791153
-0.0033519715 -0.0066355276 0.008102356 -0.008449013 0.0018083336 0.014374311 -0.0027710986 -0.00073390733
0.017369833 0.0117951725 0.005650777 0.018207857 0.00021014681 0.012549207 -0.0024412652 0.007856503
-0.0024667915 0.010809833 -0.0047995513 -0.0038319079 0.0016433191 -0.01808543 0.002389703 -0.004620449
0.014633027 0.012345381 0.004331554 -0.010791609 -0.00646287 0.006670923 -0.009587111 0.0077051846
0.0077687795 -0.01174734 0.0015485889 0.000663208 0.013893395 -0.003082979 -0.020016259 -0.0027243071
0.0069727995 -0.009641724 0.0038378297 0.0114682205 0.022819802 -0.0008259198 -0.020462986 0.0024348313
-0.0072784624 -0.0012808681 0.0046593077 -0.014110941 -0.010626178 -0.004912438 -0.0015123204 -0.0048618894
0.0025851245 -0.009192864 0.0006967256 -0.010562074 0.003694221 0.016561605 -0.0075483997 -0.010218727
0.009018139 0.007359062 0.004439085 -0.013619768 -0.0049464596 -0.008270325 -0.010885883 -0.01613302
0.0035841076 -0.007247252 -0.016010948 0.0078989975 -0.01212278 0.0039462936 0.009875252 0.014466904
-0.0010828295 0.00874382 -0.0020456533 -0.012814171 0.0077748145 -0.0028425427 0.0015104905 -0.006800532
0.0029530257 0.001898857 0.006395 -0.01972273 0.0059070457 -0.017445168 -0.032055043 0.008123427
-0.004047791 -0.0042161 0.0022090764 0.00533125 -0.00058463524 -0.0035167597 -0.0019658317 -0.013731797
0.023012308 -0.00022469493 0.00503158 -0.017248277 0.0017963692 -0.004988092 -0.019845525 -0.0064336252
-0.0063333125 -0.0007270592 0.0072447946 0.013708194 -0.008149693 0.00842378 0.0064047514 0.013969774
0.009213533 -0.003103544 -0.008509335 0.013331898 0.0010748638 -0.00027434743 -0.012607482 -0.0027119804
-0.007807582 0.019083245 0.012986093 1.856311e-05 0.009509973 0.006649694 0.014288997 0.005116663
-0.010882959 -0.0030415386 -0.0057246103 0.0018557919 0.01704538 0.00027280368 -0.0021183493 -0.0022854323
-0.004439751 -1.5285319e-05 0.023632197 -0.01243088 0.012671194 -0.002680713 0.007768556 0.0022754609
-0.001359376 0.012103295 -0.0009841522 0.010414088 -0.0020165555 0.011733104 0.00778014 -0.008973064
0.017072571 0.0016982966 -0.019070415 -0.0025706128 -0.008878216 0.01095516 -0.004965265 0.004294294
-0.018180057 0.009284063 -0.008493033 -0.015042883 0.0027843253 -0.00815389 0.0044388925 -0.0016801257
-0.011365646 0.0045515513 0.0050879912 -0.0013306749 -0.0041619325 -0.006591244 0.016654542 -0.007889228
0.005156188 0.016115649 0.014056496 -0.013554051 -0.0018857879 0.016583418 -0.012550502 0.009017277
-0.0021344183 0.006525003 0.016527098 -0.000644272 -0.010034922 0.0060775606 0.007930969 -0.0010028955
0.009371562 -0.0023274203 -0.001162451 0.011927771 -0.013089006 -0.0033436336 0.009049214 -6.314436e-05
-0.002307923 -0.0027777061 0.0063126865 -0.015812045 0.013291617 -0.01298057 -0.0034307984 0.0060042017

bias f4 [80]
00000000: edba adbc eacc 08bd 9b74 e93c 57df 673d
00000010: 08a3 ebbc eb91 953d 2bd8 54bc 9b76 cbbc
00000020: a6ac 66bc 96ca 5d3d b6e7 06bd 3078 553d
00000030: e708 13bd 7e3d c9bc d5f0 533d 76fb 263d
00000040: 1714 5cbc d0f9 323d abef 57bc a911 cf3c
00000050: c545 babc 7262 e83c 50b2 21bd b643 e33c
00000060: a90e e2bc a4c8 08bd 5d37 7d3d c869 5c3d
00000070: eba5 68bd bad8 7abd fe28 853d f2f6 f7b9
00000080: b973 88bc 43e7 703d bef4 6cbd a0ac a83c
00000090: f8fb 7abd 591b cf3b 1381 02bd b3ed 9abd
000000a0: 4615 7abc e2d3 c33c 16a2 94bd ba4c 9bbd
000000b0: c2dc 323d f8df 87bb 55ff a9bc 6888 083a
000000c0: 55f1 92bd 4d89 0a3d 9aa3 4fbd c218 243d
000000d0: 21c3 9abd 55af 303d 4fd2 56bd 4898 6fbd
000000e0: 45de 58bd 0ab6 193d 2f77 b83c a722 81bc
000000f0: 922e 803d 797c 6cbd 8d89 15bd 4e2f 703d
00000100: ddee 5abd 9eaa 95bd 73c5 813d 8a46 62bc
00000110: 09fe a6bb 4f3d efbc 7f07 8ebc d61c d93c
00000120: e684 c7bc a6b6 363d 3443 ec3c c127 b63c
00000130: f388 473c 949b 6d3a c56e 18bc 99fe 453c
-0.021207297 -0.033398546 0.028497985 0.056609478 -0.028764263 0.07303222 -0.012990992 -0.024836829
-0.0140792485 0.05414828 -0.03293582 0.052116573 -0.03589716 -0.024565455 0.051743347 0.040767156
-0.013432524 0.04369527 -0.0131797 0.025276976 -0.022738347 0.028367255 -0.039476693 0.027742248
-0.027594881 -0.03339447 0.061820377 0.05381182 -0.056798857 -0.061241843 0.06501959 -0.000472955
-0.016656743 0.0588143 -0.05785059 0.020590127 -0.061275452 0.0063203988 -0.031861376 -0.07564869
-0.015263861 0.023904745 -0.07257478 -0.07582994 0.043667562 -0.004146572 -0.020751635 0.00052083144
-0.07174937 0.033822346 -0.050693132 0.040062673 -0.07556749 0.04313596 -0.05244666 -0.058494836
-0.052946348 0.03752712 0.022517769 -0.015763594 0.062588826 -0.057735894 -0.03650813 0.058638863
-0.053450454 -0.07307933 0.063364886 -0.013810763 -0.0050962013 -0.029204039 -0.017337559 0.026503008
-0.024355363 0.04460778 0.028840639 0.022235753 0.012178647 0.00090640155 -0.009303753 0.012084627

weight f4 [80, 80, 2]
00000000: 207b d33b 4539 51bc 1671 1b3c d31b 2d3c
00000010: aff7 b9bb 9856 8e3b 6efc 9a3b c2d7 9cbb
00000020: 947c c53b f9bd aaba adac 0f3c 71d7 01bb
00000030: 6c8a c73b c17b dfb9 2bee 0cbc 7512 823b
00000040: 25fe b7bb b3c1 843b 1073 5dbb 5623 09bc
00000050: 34d0 d2bb 1110 a53b 98f7 fdbb fae5 153c
00000060: aadd 583b db49 443b d0fa 033c 4116 ebbc
00000070: 476c d93b 133a 4c3b 4063 b43c 3300 6fbc
00000080: 63d3 3bbc 0524 963c 8757 debb f477 4c3a
00000090: b387 7b3b e88b 5ebb 4c97 5b3b 440f 3e3b
000000a0: 63be 883b 11b7 063b 8c43 29bb fbd6 3b3a
000000b0: b0d6 1a3c 006e 803c a24a a8bb 782e 2aba
000000c0: 00d5 593b 79cb 02bc 8494 8d3c 2535 873a
000000d0: 1d99 8bbb 395d 1b3c 40b4 833b e113 24bc
000000e0: b118 69bc 3609 2abc 1f65 5d3c faf3 c539
000000f0: 01c8 b7bc d99b 8ebb e2fa a73c 28d4 763b
00000100: 589b 83bb cdaf febb 6e0f f8ba b2db 29ba
00000110: 4638 8b3c 8507 5ebb 28e3 40bc 4cb1 e33b
00000120: 8f04 81bc c7d2 b1bb aec9 f23b a2ee 1f3c
00000130: 0ddc dcbb 469a 06bc 46d2 de3b 65c1 da3a
00000140: 09d1 49bb a529 923b 2da9 993c 3063 a83c
00000150: 611b 1d3b 7e60 9f3b bcc2 ca3c 7f7c b83b
00000160: b4c0 173c c433 65bb cae5 193c f63b 4bbb
00000170: 109c 223b 1c08 1f3c 6a4b 2bbc 41ab 44bc
00000180: 49cc 95ba a208 a73b 292a 133c aaef 1f3b
00000190: 06ea f83b d589 db3a e4f9 dabb e459 7fbb
000001a0: 75c7 753b 1d9b efbb 1ca1 a2bb 0f0f 00bb
000001b0: 596a db3c b366 393c 6586 0f3c bf50 9539
000001c0: a484 ee3b 800e ee3b 9466 1ebc c1c2 a9ba
000001d0: b50d a439 30fd dbbb 8ad5 693c da86 dd3a
000001e0: 038e 87bc 1b67 283a ec2c 2b3a 16ff 013c
000001f0: d58c 37ba a6f5 aebb 742b 463b 0206 1b39
00000200: 3c99 ca3b 9f60 51bb 2676 d5bb 4fc6 dcba
00000210: 7c8d 2dba 10d6 2d3c b72e 123a 05b5 abba
00000220: 6c5e 15bc 0e10 003c 3215 cfbb 92ef f3bb
00000230: ab93 803b fcba a43b 2225 4abb 6e23 723c
00000240: 5c9f debb 4878 a6bb aa9b 853a e658 41bc
00000250: f04f 2fbc 49df b13c 0fad 78bb 2675 ca3a
00000260: da61 983c 8281 383c 9311 fdbb 5cdd 1dbc
00000270: de25 19bc 3d92 e9bb 8c10 09bc ac51 c7bb
00000280: f980 ca3b 1d9f 1e3c a791 b6bb 30b2 edba
00000290: 3214 59bb 865d 30bb 34d8 583c 4c45 38bc
000002a0: 6fc5 7b3b 38a0 293c 7ec5 243c f7e3 cdbb
000002b0: 4871 9dbb 85d0 2abb db8d d1bb 06a8 afba
000002c0: fce4 5abc 39db 8ebb 0a5b d93a 880d 013c
000002d0: 58c6 c53b bdd9 19bc 3df0 493c f867 903c
000002e0: 9117 d83b ee01 bd39 c3bc 58bc 056b f8bb
000002f0: b7c8 af3b cd6a bebb a5f9 2b3c dce4 453a
00000300: 218c 913c 93a0 85ba bac3 abbb 0624 123c
00000310: 43ee 74bc 7d29 0ebc 4a8b ee3b 6800 ca3c
00000320: 29d1 3dbb 3c39 32bc 13e1 253c 31ac c43b
00000330: 15e1 b0bb d4be a0bc 2ce8 8aba ac5b e3bb
00000340: 7cd2 6e3b 4b7c 0c3c dabe 30bb d4da d2bb
00000350: 1694 773b 58a9 713b 4579 7e3c b8ba 14bc
00000360: d895 5bbb 34d2 8bbb bbf3 a13b 2d62 863b
00000370: 67f9 643b 67ad cf3b de3d c33c c17e 573b
00000380: 67f6 a7bb ca0c 98bc 4a58 01bc 568d d9bb
00000390: 45eb d53b 0a44 16bc 385f cb3a a0fd 023c
000003a0: 5fce d2bb c3fb 593c 73ce f1bb 4e95 9e3b
000003b0: f49c 9cba ff1d 113b 8795 9bbc d65c 773c
000003c0: 77e1 89bb b018 6e3c 0276 7ebc 3d36 2b3c
000003d0: f1a0 71ba 2019 46bb bce0 413b 1f78 5b3c
000003e0: a7e2 103c 182e dd3b 3298 033c c7a7 97bb
000003f0: c2fb 563c 2d2f 9e3b 0160 04bc 1816 67bb
0.0064538866 -0.012770002 0.009487411 0.010565716 -0.005675278 0.004343819 0.004729799 -0.0047864625
0.0060268138 -0.0013026587 0.008769196 -0.001981225 0.006089499 -0.00042626078 -0.008601706 0.0039694854
-0.005615013 0.004051411 -0.0033790506 -0.008370241 -0.006433511 0.0050373157 -0.0077504627 0.009149069
0.0033091106 0.0029951248 0.008055404 -0.028697135 0.006635222 0.0031162545 0.022019982 -0.01458745
-0.011463973 0.018327722 -0.0067853364 0.0007799857 0.0038380444 -0.0033957902 0.0033506928 0.0029000798
0.0041730865 0.0020555893 -0.0025827615 0.00071655185 0.0094506 0.015677452 -0.00513585 -0.000649191
0.003323853 -0.007983082 0.017282732 0.0010315521 -0.004260196 0.009482675 0.00401929 -0.010014505
-0.014227078 -0.010378173 0.013512879 0.00037756545 -0.022434236 -0.0043520746 0.020505372 0.0037663076
-0.004016321 -0.007772422 -0.0018925497 -0.00064795755 0.016994607 -0.0033878994 -0.011772908 0.0069486257
-0.015749244 -0.005426738 0.007409296 0.009761484 -0.0067400993 -0.008215493 0.006799969 0.0016689716
-0.003079476 0.004460531 0.018757427 0.020555109 0.0023972618 0.0048637977 0.02475106 0.0056300755
0.009262253 -0.0034973482 0.009393165 -0.0031011081 0.0024812259 0.009706523 -0.010454992 -0.012003721
-0.001142868 0.0050974647 0.00898222 0.0024404326 0.007596257 0.0016749451 -0.0066826213 -0.003896349
0.003750292 -0.007312192 -0.0049630534 -0.0019540226 0.026784109 0.011315989 0.0087600695 0.00028479655
0.0072789956 0.007264912 -0.009668011 -0.0012951718 0.0003129073 -0.006713532 0.014272103 0.0016901151
-0.016547209 0.00064240553 0.0006529826 0.007934352 -0.00070018816 -0.005339342 0.0030238302 0.0001478419
0.0061828177 -0.003194846 -0.0065143285 -0.0016843769 -0.0006620509 0.0106101185 0.0005576419 -0.0013100213
-0.00911675 0.007816328 -0.0063196654 -0.0074443305 0.0039238534 0.005027173 -0.0030844887 0.014778955
-0.0067938995 -0.0050802566 0.0010193486 -0.01180098 -0.010700211 0.021712916 -0.0037944948 0.001544629
0.018601347 0.011261346 -0.0077230423 -0.009635296 -0.009347407 -0.0071280287 -0.0083657615 -0.006082734
0.0061799255 0.00968149 -0.0055715623 -0.0018134769 -0.003312361 -0.0026911213 0.013235141 -0.01124699
0.003841724 0.0103531405 0.010056851 -0.006283279 -0.004804764 -0.0026064229 -0.0063950843 -0.0013401515
-0.013360258 -0.0043596295 0.0016582918 0.007876761 0.0060356073 -0.009390292 0.012325344 0.017627701
0.006594606 0.00036050327 -0.013228598 -0.007581117 0.0053645032 -0.0058110715 0.010496532 0.00075490563
0.017767014 -0.001019495 -0.0052418383 0.0089197215 -0.014949384 -0.008676884 0.007279788 0.024658397
-0.002896378 -0.010877904 0.010124463 0.006001972 -0.0053979256 -0.019622244 -0.0010597757 -0.0069384184
0.0036441376 0.008574556 -0.0026969225 -0.0064347778 0.0037777475 0.0036874618 0.015531843 -0.00907772
-0.0033506062 -0.0042670015 0.004942385 0.004101059 0.0034938694 0.00633781 0.023833212 0.0032881948
-0.005125809 -0.018560786 -0.007894585 -0.006639163 0.0065282905 -0.009171495 0.0015516048 0.007995039
-0.0064332928 0.013304654 -0.007379347 0.004839576 -0.0011948631 0.0022143123 -0.018992199 0.015097817
-0.0042077857 0.014532253 -0.015531065 0.010449943 -0.00092174025 -0.0030227378 0.0029583415 0.013395338
0.008843101 0.0067498796 0.008031892 -0.004628155 0.013121547 0.004827401 -0.00807953 -0.0035260972

bias f4 [80]
00000000: 6062 453d 585d 753d c7da 05bd 2e03 0ebd
00000010: b8d5 e8bc a0f0 153c ff3d c63a 1fd4 4b3d
00000020: b3c7 60bd 84e2 59bd da4d 97bc f938 0fba
00000030: f311 933d bae8 e4bc f884 d43c 5195 7cbb
00000040: 24de 823c 233d 043b ce46 573c 22e5 a33c
00000050: 4fc8 333c 2799 1bbd f8bf 9cbb fbd5 48bd
00000060: e5ea 223d 94a2 d8bc 895d aeba bef5 44bd
00000070: 6a38 90bd 4526 623d 91ff 603d 95ab e23a
00000080: fc60 1dbd 9b9d 1dbd f2b7 983c ae1f 38bd
00000090: 8f7e 333d 0521 1f3c 6e20 493d 0bda 50bd
000000a0: 12db 743b eef6 2c3d 9c32 75bd 4ebe 37bd
000000b0: cc6a 4b3d bfbb 0cbd 4ef7 bf3c e599 b7bc
000000c0: 8ee0 bbbb f1f5 1fbb 9e03 0b3d 94bf 0cbc
000000d0: b417 393c a20a 053c 9da7 4c3d 18bb 80bd
000000e0: 8b4a ddbc bc1a 833d 18eb 2c3d f3e3 25bd
000000f0: fdb2 9d3a 1d4e 453c d859 3dbd 3049 d9bb
00000100: 72fe 593c e253 2cbd 66b7 babd d114 7e3d
00000110: 123d d03c ebf3 863b f1cb 353d ae02 9ebd
00000120: af58 703d 2de9 9abd 3379 503d 8563 28bc
00000130: 55ae 323c 8d80 a5bd db9c d5bc a669 40bd
0.04818952 0.059903473 -0.032679345 -0.034671 -0.028422222 0.009151608 0.0015124677 0.04976284
-0.054877948 -0.053194538 -0.01846974 -0.00054635067 0.07181158 -0.027943004 0.02594231 -0.0038541148
0.015975066 0.0020178042 0.01313944 0.02000672 0.01097305 -0.037987854 -0.0047836266 -0.049032193
0.039774794 -0.02644471 -0.0013303022 -0.04808592 -0.0704201 0.055212278 0.054931227 0.0017293567
-0.03842257 -0.038480382 0.0186424 -0.044952087 0.043821868 0.009712462 0.049103193 -0.050989192
0.0037362021 0.042227678 -0.059862718 -0.044859223 0.049662396 -0.034358736 0.023433354 -0.02241225
-0.005733556 -0.0024408067 0.033938996 -0.008590598 0.011297155 0.008120211 0.049964536 -0.06285685
-0.027013084 0.064015836 0.04221639 -0.040500592 0.0012031492 0.012042549 -0.04622826 -0.006631039
0.013305293 -0.042072184 -0.09117012 0.06203157 0.025419746 0.0041184328 0.044383947 -0.07715355
0.058678325 -0.07564006 0.050896835 -0.010277634 0.010905822 -0.0808116 -0.026075771 -0.046975754

weight f4 [80, 80, 2]
00000000: c897 2d3c 027a 51bb 08b2 16bb bddc 0fbc
00000010: 2ce7 62bb 6f4e 8dbc c0ba 2fbc 8968 f03b
00000020: b89f 6fbc db0d 063b 6f98 cb3c 6bb5 023c
00000030: 1cfc 9bbc 22df 37bb d1e9 8cbb 5c8d 773b
00000040: c5b9 c43c 5d54 db3c 1fcd 8dbb d0c8 493c
00000050: aacb 933c 5361 a7bc 8ae3 263b ae23 0b3c
00000060: b208 a4bb c120 b7ba 83d6 4b3c 9c8d 72bb
00000070: cffc 753b e77f 61bb 6273 233c 9ec8 8b3b
00000080: d5e3 273b bfa0 47bc b1c1 c7bb b3b2 83bb
00000090: 91d2 15bc df03 1a3b a8a5 8abb 048d 123c
000000a0: a1fd 833c f96e c5bb 7a3e 103b c661 3fbc
000000b0: ce31 8b3b 7e11 cbbb 4032 03bc 08da 263c
000000c0: 804a f439 4517 e6bb 2f3a d3bb 0b57 0d3a
000000d0: fd65 0f3c 3f1d fd3b 367d 78bc 6e36 7fbc
000000e0: 2a34 89bc 5acb 133b 589e 0c3b c3b4 1c3c
000000f0: be27 2cbc ad8d 203b 639b 5f3c 2fad 69bb
00000100: 0467 883a 1ba0 3c3a 3e30 1dbb 1d49 74bc
00000110: 81af 2abc 7e31 03bc 9f17 e53b 1655 3dbc
00000120: a730 f33a 4175 383b 71b7 0cbc d9ca 44ba
00000130: 51e8 633c a191 b4bb c8a2 4f3c c1a9 323c
00000140: 8c71 113c 5a28 553b dfd0 7ebb 998d 90bb
00000150: f5dd 0a3b 9230 64ba 8dfd 20bc 14a2 c23b
00000160: f7da 013c d0df a0bc 46ca ea3b aaf6 f03b
00000170: 64ee a53b 0f86 713b 0784 af3b 29f8 d63b
00000180: 8313 99bb 7619 213b 4070 5abc 261d b2bb
00000190: ff21 fe3b ec64 7637 5f61 b9bb 8a8c 8dbb
000001a0: 6637 363c d40c 17bb 19c2 e5bb b3d2 203c
000001b0: 0391 a23b 199a a3bc 88ff 933b ff46 a0ba
000001c0: 7265 3e3c f385 0b3c dfec ac3b 605f 96bc
000001d0: b824 88bb 0338 273a e607 d8bb 059a 22bc
000001e0: 8a06 e43a 3be8 d4bb 08ca 393c 2ad0 33bc
000001f0: 99f9 b33c e6bc f23b a90d 2abc e202 20bb
00000200: 88fa 173c 8939 d33b b7e6 d13b 1d92 90bb
00000210: ddef 25bb 130b 79bb 2794 f1ba 4724 ab3c
00000220: b5ea c03b 47d1 923b cb63 3ebb 8a40 bbbb
00000230: 258a 7b3c 753f 92bb c99c 61b9 40bd 5cbc
00000240: 7d22 f43b 424f 8bbb c8e3 8abc 0281 88b8
00000250: 8dd5 253c 67bb 5fbc 7dc5 16bc 62c2 47bc
00000260: 494b 51bc a7bd 76bb ddf6 3f3c 195c 163c
00000270: fee9 89bb e277 bfbb 00b8 98bb f0f2 babb
00000280: b47e 86bb 1a46 07ba c19f 88bc 9ed0 f13b
00000290: 6e42 18bb 074a 85b8 8290 1dbc 8e62 51ba
000002a0: f7a3 893c 5510 3abc fafd 3e39 ded2 2dbb
000002b0: b5da a5bb 067e eabb 16d9 4fbb 73a8 ae3c
000002c0: 2ab3 7d3b b0b1 b9bc 25aa 8fbb 4636 03bc
000002d0: 9108 263c 0d1c 273c 67db c0bb 26e7 8d3b
000002e0: cd51 7bbb 2593 bebb 9ff5 4abb 977e 8cbb
000002f0: c981 4fba d891 cbbb dece e1ba cc67 373c
00000300: becf 8fbc 138d 4bbc c48c ab3a 2aba a1bc
00000310: c38a 103c dfc0 4a3c 2afc 82ba d755 07bb
00000320: d4e8 a7ba e7ce 83bc 3378 893b 4b6b 203c
00000330: eb86 233c 64fd 0f3c ceb4 c03b a5ed 583c
00000340: b7e5 8d3c 5389 1f3c 0949 bbbb 1272 9439
00000350: 8a2b ddbb 79a8 2dbc 4f28 263c ab3b ac3c
00000360: 81c8 1fbc e1bb 1dbb 526a f2ba b1b4 42bc
00000370: 5c94 be3b 1f8c 743c 6c29 d8bb d291 5aba
00000380: 18c4 d43b ea79 06b8 f3bd 25bc 811e c5bc
00000390: e355 8c3b 2b3d c13c e485 4f3c 7390 183c
000003a0: 024c cbbc 36b4 9f3b 280a 653c 36d0 ffba
000003b0: 6594 34bb 2c79 2f3b 5d55 943a de12 a4bc
000003c0: 6cab c33b d116 013c b071 acbb 80fe 753b
000003d0: c39b a63b 3164 993c c629 86bc 2b08 5f3b
000003e0: 4a45 b6ba b7cb 0bbc 45bf 073c 1018 a1bc
000003f0: 9138 1ebc a54d f0bb 1929 89ba 7060 d63a
0.0105952695 -0.0031963591 -0.0022994298 -0.008780655 -0.0034622652 -0.017249314 -0.010725677 0.0073366803
-0.014625482 0.0020455036 0.02485296 0.007977824 -0.019041114 -0.0028056582 -0.004300334 0.0037773466
0.024014363 0.026773626 -0.004327431 0.012315944 0.01804145 -0.02043215 0.0025465214 0.008492393
-0.0050059194 -0.0013971553 0.01244128 -0.0037010675 0.003753472 -0.003440851 0.00997624 0.004265859
0.0025617976 -0.012184321 -0.006096088 -0.0040191053 -0.009144441 0.0023500843 -0.0042311735 0.008944754
0.01611215 -0.006025192 0.0022009895 -0.011681026 0.0042478805 -0.0061971536 -0.008007586 0.010183819
0.00046594813 -0.007021817 -0.006446145 0.00053916936 0.008752343 0.0077244337 -0.015166571 -0.015576942
-0.016748507 0.0022551627 0.0021456685 0.009564581 -0.010507522 0.0024498508 0.013647887 -0.0035656204
0.0010406678 0.00071954884 -0.0023985053 -0.01491001 -0.01041782 -0.008007405 0.0069913412 -0.011555931
0.0018553928 0.002814606 -0.008588658 -0.00075070333 0.013910369 -0.0055105244 0.012673087 0.01090473
0.008877169 0.0032525272 -0.003888182 -0.004411411 0.0021189426 -0.00087047473 -0.009826076 0.0059397314
0.00792574 -0.019637972 0.007165226 0.0073536234 0.005063819 0.0036853587 0.005356315 0.0065603447
-0.0046715154 0.0024581826 -0.013332427 -0.0054356037 0.0077555175 1.468624e-05 -0.0056573595 -0.004319732
0.011121606 -0.0023048418 -0.0070116636 0.00981586 0.0049611344 -0.01997094 0.0045165457 -0.001222819
0.011620866 0.008515823 0.0052772607 -0.018356025 -0.004154768 0.0006378891 -0.0065927384 -0.009924416
0.0017396968 -0.0064974106 0.011339672 -0.010974923 0.021969603 0.0074077724 -0.010379233 -0.002441578
0.00927604 0.0064460677 0.006405677 -0.0044119493 -0.0025319972 -0.0038000986 -0.0018430994 0.020891322
0.0058873543 0.004480514 -0.002905118 -0.0057144808 0.01535276 -0.004463131 -0.00021516079 -0.013472855
0.0074504004 -0.0042513916 -0.016954318 -6.509015e-05 0.010121715 -0.01365552 -0.009202358 -0.012192341
-0.012774297 -0.0037649663 0.011716572 0.009177231 -0.0042088022 -0.0058431486 -0.0046606064 -0.00570523
-0.0041044597 -0.0005160287 -0.01667774 0.0073796054 -0.0023232955 -6.355723e-05 -0.009616973 -0.0007987403
0.016801817 -0.011356433 0.00018214426 -0.0026523392 -0.0050614723 -0.0071561364 -0.0031715087 0.021320557
0.0038711526 -0.022667736 -0.0043842965 -0.008008545 0.010133878 0.010199559 -0.00588553 0.0043305336
-0.0038348318 -0.005815881 -0.0030969155 -0.0042875516 -0.0007915763 -0.0062124543 -0.0017227789 0.011194181
-0.017555114 -0.012423771 0.0013088216 -0.01974209 0.008822146 0.012375086 -0.0009993364 -0.002065053
-0.0012810477 -0.01608987 0.004195237 0.009791206 0.009980897 0.00878844 0.0058809286 0.013240253
0.01732145 0.0097373305 -0.0057154936 0.0002831375 -0.006749575 -0.010599249 0.010141446 0.021024546
-0.009752394 -0.0024068283 -0.0018494821 -0.0118839005 0.0058160257 0.014925986 -0.0065967347 -0.0008337769
0.0064931028 -3.206163e-05 -0.010116088 -0.024062397 0.0042826994 0.023588737 0.012666199 0.009311783
-0.024816517 0.0048737777 0.013979472 -0.0019517008 -0.002755427 0.0026775105 0.0011316944 -0.020028528
0.005971363 0.007878975 -0.005262576 0.0037535727 0.005084486 0.018724533 -0.016377341 0.0034031968
-0.0013906148 -0.008532456 0.008285348 -0.019664794 -0.009657041 -0.0073334747 -0.0010464519 0.0016355645
