GAN/NO Generator/NO_epochs=1000_seq=30_batch=5.pth (torch, 674968 bytes, 31 tensors)

weight f4 [1, 80, 1]
00000000: cc5b debb 8719 8abb 4141 15bc 7542 cc3b
00000010: 2288 d63b a62a 78ba 4c77 b53b 874c da3c
00000020: 80a7 333d cf6e 5ebb 1154 903c 7e65 083a
00000030: 7f18 7a3b 5d6f 283c 697d 293c 0fde 6ebb
00000040: 3279 e63b 797e 68bb 2b73 b4bc e07a 5a3c
00000050: 2476 443b d879 a63b 5fe8 f3bb ab13 ba3b
00000060: 33db 84bb d9ba 8abc 4376 5a3a d20b b93a
00000070: 4700 203c 2795 593c e00c 85bb 2f58 40bc
00000080: ba40 e2bb 2ef1 1fbc f89e d7ba 3422 faba
00000090: 8ed5 4b3c f33b 373c 5d62 0a3b 9602 8ebc
000000a0: 2e29 5fbc e616 3cbc 81c4 5b3c e037 bebb
000000b0: 0728 bdbb 5241 6b3a 5e9a 153b b254 3b3c
000000c0: 784f 563b 9ae4 d9bb a7b1 5abb 29ee 263c
000000d0: 6197 f13b bd77 1eba d5f8 983b d114 1abc
000000e0: bfbb 353b 9686 f6bb 502c b8ba 0f29 9c3c
000000f0: 365e 81ba da0d 20bc 2972 8abb 5813 c33c
00000100: 2604 3e3c 35e6 0b3c a10c 0d3b 8f94 9a3b
00000110: ee2d 7ebb e858 0e3b d1a4 943b c69c fdbb
00000120: 43dc 8ebc 09cc d2bb d3f2 22bb 39a6 60bb
00000130: c117 3abc a787 163c 5ee3 92bb 76fc 35bb
-0.0067858454 -0.004214469 -0.009109796 0.0062335082 0.00654699 -0.00094668043 0.005537903 0.02664782
0.043860912 -0.0033940559 0.017618211 0.0005203112 0.0038161573 0.010280457 0.0103448415 -0.0036448275
0.0070334906 -0.0035475774 -0.022027573 0.01333496 0.0029977644 0.005080443 -0.0074434723 0.005678614
-0.004054451 -0.016934799 0.00083336624 0.0014117903 0.009765691 0.01328019 -0.0040603727 -0.011739775
-0.0069046887 -0.009762092 -0.0016450575 -0.001908368 0.012441052 0.011183727 0.0021115758 -0.017335217
-0.013620658 -0.011480069 0.013413549 -0.0058050007 -0.005772594 0.0008974272 0.0022827606 0.011433767
0.0032701176 -0.006649566 -0.003337005 0.010188618 0.007372782 -0.0006045064 0.004668335 -0.009404377
0.0027730314 -0.007523368 -0.0014051292 0.019062547 -0.0009869996 -0.0097689275 -0.0042250347 0.023812935
0.011597669 0.008538772 0.002152242 0.0047174166 -0.00387847 0.0021720473 0.004536249 -0.007739636
-0.017439013 -0.0064330143 -0.0024863973 -0.0034278764 -0.011358202 0.0091876155 -0.0044826707 -0.0027768887

weight f4 [80, 3, 1]
00000000: 30ae 093a edc6 86b7 3ec4 9dbb e572 96ba
00000010: 52b1 8cbc 0772 d93b cdac 613b 4e1c a93b
00000020: 7f34 53bb 5163 a2bd 8cf7 573d 51f0 c9bc
00000030: dbd2 b6bd b824 883d b132 cabc 60e1 bcbd
00000040: 3197 a03d b0ff c3bc bbd9 cbbc eee2 553c
00000050: b6ca 14bc 13ab acbd 5a89 283d 2534 8bbc
00000060: 31b3 86bd 2c47 473d b5b6 b9bc cb62 bdbd
00000070: 5eab 3a3d e18b a6bc 4363 c33c 6d23 85bc
00000080: 4050 5e3a 664b eabc f9b1 d13c e21c 09bc
00000090: e5b0 123d fba4 aabc 889a ff3b 8394 32ba
000000a0: aebe 623c d19c 323c eec1 9ebd f092 1c3d
000000b0: 4e98 b1bc 0be0 acba d760 023c 63f0 223c
000000c0: 6c59 acbd 0485 963d 12b2 c53a d4a9 3b3d
000000d0: 9d1e 9cbc af0a 6a3c 1583 a23b 79ed 873c
000000e0: 79db eb3b 8346 c8bc 9a19 be3c eca9 f23a
000000f0: 730f adbd 8748 9b3d dc95 9fbb 65f6 833c
00000100: 51cf a5bc b99b 0fbc 3042 e63b a1ca 67bb
00000110: a322 81b8 b491 493c 194f 473c b579 a6bb
00000120: aa92 10bd 910e 8a3c e500 bb3b 107b 203d
00000130: 9c54 ccbc 479a 9d39 c647 9ebd c664 2b3d
00000140: c57b 44bc 18d7 4dbb 6c8d b4ba e497 ad3c
00000150: e4dd 96bb dad7 dc3a 961d 27bb 0412 46bc
00000160: d6f3 82bb f94a b83b e347 80bd 938b 263d
00000170: 3711 89bc 8c99 1bbd 3bba eb3c e30a 13bc
00000180: f9b6 d43c e908 24bc 905b 68bc 45ca 823b
00000190: 9c1e c13a 32da 28bc 3f79 afbc 50f3 813c
000001a0: 47d5 2bbc 0d8c 25bd b001 ac3c 01a8 51bc
000001b0: 99b6 493d cce4 dabc 81e0 a1bb 2a1f d8bd
000001c0: ea67 693d f85f ebbc 59ed 0ebc 652b 6c3c
000001d0: 692c 173b 61c8 0bbd 609c ec3c a7ff edbb
000001e0: d2dd 1f3b 62e9 1ebc c36a 58bc c0b8 47bc
000001f0: 8690 edba 9e8e 353c 74b7 88bd 2d69 933d
00000200: 13e4 b9ba 96ee ef3c acd0 6bbc b14b a33c
00000210: 7d73 a4bd 5510 513d bf17 03bc 0115 7d3c
00000220: 30a5 acbc c394 be3b 177c 70bd b84b 9f3d
00000230: 4d94 263c a5dc 873c bf52 99bc 85b3 a83c
00000240: 978b 00bc 0148 563c 94ee 06bc 899f 5dbd
00000250: 9dae ac3c cea6 83ba ec2c a4bc e783 843c
00000260: aa46 a93a daad c2bd 237b 813d 30ba 87bc
00000270: 5fbb a2bd 76ad 273d b3d7 92bc f822 34bd
00000280: 90d9 213d fdfb 5a3b 4e81 32bc c97f 2ebb
00000290: 75a8 493c a8d0 303b 0770 913c 56b4 983c
000002a0: 4ca1 99bd addd 853d a322 d3bc 062d 0d3d
000002b0: 2b61 b8bc c105 a83c 2bee a1bd 103c 613d
000002c0: f06b 82bc 1770 36bb c17f b93a 64c8 71bc
000002d0: dcb5 35bd 4ca1 2f3d c51f b4bb 7e73 0bbc
000002e0: 57af aebb 003f d7bb d059 c63b 7d2e 1d3c
000002f0: 881b 423c 6ae4 f93b 677b 0cbb 7f00 853b
00000300: 24e2 10bc 0e6f be3c 33ba a0bb 63e3 17bc
00000310: 6dd7 8438 abea c63a dda0 083d 3831 ccbc
00000320: 0497 99ba a1a8 da3c 3878 92bc a9a9 10bb
00000330: 0333 863c 0f44 d9bc 987e 163c 3e7d 59bd
00000340: 7194 de3c e20d 10bb d422 59bc 0a1e 543c
00000350: 8103 5bbc 8d23 0f3d 2f1d c9bc fb0a 7b3c
00000360: 551c 443c b5d2 8b3b 7add 95bb 6b0c e13c
00000370: 32d5 e0bc eb12 bcbb 4703 33bd 2f2c 123d
00000380: 2184 9ebc 1044 92bd adb7 573d 47e8 b0ba
00000390: ff7d 9abc a4f8 e73b 8d01 593c d82c 4fbd
000003a0: bb4f 7c3d d0c7 aebc 42e6 0d3d dc5b 853b
000003b0: 9673 0b3c c3a7 e53c fcc2 b7bc bb11 a03c
0.0005252091 -1.6066677e-05 -0.0048146537 -0.0011478333 -0.017174397 0.0066359076 0.0034435273 0.005160845
-0.0032227335 -0.07929099 0.052726313 -0.024650725 -0.08926936 0.066476285 -0.024682375 -0.09222674
0.078413375 -0.023925632 -0.024884095 0.013054593 -0.009081533 -0.08431067 0.041146614 -0.016992638
-0.06577147 0.04865186 -0.02267013 -0.09247359 0.045573585 -0.020330371 0.023851043 -0.016252244
0.0008480586 -0.028600406 0.02559756 -0.008368703 0.03581323 -0.020830622 0.007800404 -0.0006812291
0.013839407 0.010901646 -0.07751833 0.038226068 -0.02167907 -0.0013189329 0.007957659 0.009945008
-0.08415493 0.073495895 0.0015082976 0.045816258 -0.019057566 0.014284774 0.004959474 0.016592728
0.007197794 -0.024447685 0.023205567 0.0018513775 -0.08450212 0.07582193 -0.0048701596 0.016108701
-0.020240458 -0.0087651545 0.007026933 -0.003536858 -6.157651e-05 0.012302805 0.012164854 -0.0050804266
-0.03529612 0.016852649 0.0057068937 0.03917986 -0.024942689 0.0003006032 -0.077285334 0.041844152
-0.0119924 -0.0031408723 -0.0013775057 0.021190591 -0.004604088 0.0016848997 -0.0025499812 -0.012089256
-0.0039963527 0.005624172 -0.06263711 0.040660452 -0.016731841 -0.03798823 0.028775325 -0.008974764
0.025966154 -0.01001189 -0.014181986 0.0039913976 0.0014733854 -0.010305928 -0.02142012 0.01586309
-0.010487861 -0.040416766 0.020996898 -0.012796403 0.049246404 -0.026720427 -0.004940093 -0.10552819
0.056983866 -0.028732285 -0.00872358 0.014414643 0.0023067242 -0.034126643 0.02888316 -0.007263142
0.002439369 -0.0096991975 -0.013209048 -0.012190044 -0.0018124736 0.011081366 -0.06675616 0.07197795
-0.0014182351 0.029288571 -0.014393013 0.019933553 -0.0802984 0.051040966 -0.008001267 0.015446902
-0.021074861 0.0058160736 -0.05871209 0.07778114 0.010167194 0.016584704 -0.018716214 0.020593414
-0.007845781 0.0130786905 -0.008235592 -0.054107223 0.021079356 -0.0010044219 -0.020040952 0.016176177
0.0012914736 -0.09505816 0.063223146 -0.016568273 -0.079458944 0.04093691 -0.017925119 -0.04397866
0.039514124 0.0033414357 -0.010895086 -0.002662646 0.01230823 0.0026979838 0.017753614 0.018640678
-0.07501468 0.06536422 -0.025773352 0.034466766 -0.02250727 0.020510556 -0.07906755 0.05498892
-0.01592061 -0.0027837807 0.0014152454 -0.0147572495 -0.044362888 0.042878434 -0.0054969513 -0.008511422
-0.0053309607 -0.0065687895 0.006053187 0.009593603 0.011847384 0.007626106 -0.0021435858 0.004058897
-0.008842979 0.023246314 -0.004905009 -0.009270522 6.334377e-05 0.0015176138 0.033356536 -0.024925813
-0.001171798 0.026691737 -0.01787959 -0.0022073782 0.016381746 -0.02652171 0.009185456 -0.053097956
0.027170392 -0.002198093 -0.013252933 0.012946615 -0.013367535 0.034946013 -0.024550049 0.015322442
0.0119696455 0.0042670616 -0.004573521 0.027471742 -0.02744541 -0.00573956 -0.043704297 0.035686668
-0.019350113 -0.07141888 0.0526654 -0.0013496958 -0.018858908 0.007079201 0.013244999 -0.050579876
0.061599474 -0.021335512 0.03464342 0.0040697884 0.008511445 0.028034097 -0.022431843 0.019539705

bias f4 [80]
00000000: 9009 c8be f9b8 f0be 5da8 c3bb 51eb e53e
00000010: f79e 5d3e 6779 fe3e 0aee bd3e c97a 0b3e
00000020: bd1c 3c3e 2618 833e 4cdb 10bf 1312 02bd
00000030: 5e11 833d c6f9 aebe 68e6 853e 8752 febe
00000040: 47cd 043f 4050 00bf b847 743e e4c6 05bf
00000050: 35ee 783e b7bc 99be d646 ab3b a06c 6cbc
00000060: 6be5 003f 711c f4be 12b8 813e 9305 3ebe
00000070: 213a 2bbb 3072 bbbe 0e51 ab3d d7b8 10bd
00000080: 391b fbbe 5902 d8be db2c 55bc 6e58 c03e
00000090: 4699 ebbe 2a26 e23e be3e 8c3e 899b 023e
000000a0: 89bc 8ebe 8b1c a0be 6e7e 773e 209a dcbe
000000b0: 28f9 fc3e 6ca3 98be f2f1 0a3f 4b43 dcbe
000000c0: 55a3 083f 4cbb f33d aaf1 5e3e 2471 8f3e
000000d0: 4aee b43e 2e6c c53d baf5 f1be 29cd 76be
000000e0: d337 e03d 330a 6cbe d0ae 5f3e 16f5 6abe
000000f0: 8c81 003f 0f11 87be cf66 acbe cf61 c8be
00000100: 4d73 b93d 87a2 743d 80a7 cdbd ba89 a7be
00000110: c6f2 afbe 5b11 fe3e 016a a6be 1e98 c83d
00000120: ba65 f9be 00dc ecbe eafe b3bc 57cc 003f
00000130: 36b8 00bd 895a a13e b901 d0bd 52d0 45be
-0.39069796 -0.47016123 -0.005970998 0.44906095 0.21642672 0.49701998 0.37095672 0.13621058
0.18370338 0.2560436 -0.5658462 -0.03175552 0.06399797 -0.34174937 0.2615235 -0.49672338
0.5187573 -0.5012245 0.23855484 -0.5225661 0.24309619 -0.3002679 0.00522695 -0.014430195
0.50350064 -0.4767795 0.25335747 -0.18556814 -0.0026127177 -0.36610556 0.08365069 -0.035332527
-0.49044207 -0.4218929 -0.013011183 0.37567466 -0.46015376 0.44169742 0.27391618 0.12754644
-0.27878216 -0.31271777 0.24169323 -0.43086338 0.4940884 -0.2981218 0.5427543 -0.4302009
0.53374225 0.119009584 0.21771875 0.28016007 0.3533805 0.09639774 -0.47257787 -0.241017
0.109481476 -0.23050766 0.2184403 -0.22945055 0.5019767 -0.26380202 -0.33672187 -0.39137122
0.09055195 0.05972531 -0.10041714 -0.32722265 -0.3436491 0.49622616 -0.3250275 0.09794639
-0.48710424 -0.46261597 -0.021972138 0.503118 -0.031425677 0.31514385 -0.101565786 -0.19317749

weight f4 [80, 80, 1]
00000000: f957 95bb 8231 943c ab47 213c f3b7 56bc
00000010: 92d6 19bc 6bc8 8bbc b2e5 79bc 6988 a43a
00000020: e7ae 9cbb 1ab1 69bc 9a55 cb3c 63d5 c13b
00000030: 4bb6 ad3a f0e2 443b 34ae a7bc f0a9 e43c
00000040: daab 52bc 349c 4b3c 1832 e5bc eb2d 513c
00000050: 464b 6dbc 7ab0 68bc 007b 16bc 7332 673b
00000060: af7d 12bc 4ad2 383c 58c1 9abc 9a0c 183c
00000070: 954c 3fbb 71d0 9c3b d229 bcbc 2192 2e3c
00000080: d199 703c 6561 a73b 8442 9abb 0ac6 7d3b
00000090: 45b9 043d 9e29 d0bc ef9f 6e3a 768d a6bc
000000a0: a5c4 033c 2548 0a3c caa5 94bc 06e1 ef3c
000000b0: 18d6 8bba ea6d 9abb 8c85 b1bc ac41 f83b
000000c0: 54b9 573b 52f6 ffbc fb79 edbc 2352 c7bc
000000d0: e657 6cbc 1988 9abc eb68 b23c 17dc 9ebb
000000e0: eddc d6bc 9df4 2f3c 1f94 e7bb 3142 02bc
000000f0: 457d d23b d8a7 2f3c 1e3d ed3c 6898 123b
00000100: a1ba e8ba c8d1 9ebc 76b2 213c 4455 a33a
00000110: df8c a53c 6156 ce3b b38b c53c 7f0e 45bc
00000120: 8d85 bc3b 83da 713c b750 02bd fa6d a9bc
00000130: 4424 923c 8591 01bc 7641 d33c ca54 0f3d
00000140: aa09 64bc c7b9 e1ba d82a 143c ce25 d33b
00000150: 62dd 9bbb c6c0 5fb9 fabb a43b df21 15ba
00000160: dd8f 95bb ddca b5bb 3c83 903b 4cd6 b03c
00000170: 0125 2d3c f989 953b c32f c53a 6f7f 9d3c
00000180: 88f1 d9ba ba10 b3bc b845 89ba 4df5 6cbc
00000190: f9ce fa3b 618f ba3b f2eb 653c 8e2f 55bb
000001a0: 419f c93a dc2d 86bb c31e b93b 4237 733c
000001b0: a673 703c bca8 2b3b f482 f8ba 2fd6 2e3d
000001c0: 8f4e 3abb 8f84 2f3c c149 b23c 927a bdbb
000001d0: 0bed b43c b0cd ad3b 3a42 74bb 5c01 2abc
000001e0: 8b33 583c d2c5 79bb 00cb 333b 05b2 5cbc
000001f0: 9528 e7bb abb9 d139 46b7 81bb 675d 083c
00000200: fdfc 1c3b 4c03 f5bb 8d2e 46bc 56a1 a6b9
00000210: 3568 b93b 6ccb 04bc 0da5 9a3b 63d5 573b
00000220: 652d 1e3c 785b 07bb 7408 083c 34f4 fd3a
00000230: 5c81 e0ba 88c0 00bb 9c4a 33bb 2be5 d63a
00000240: 6580 4f3b a5e1 1cbc 49a1 15bc d82e be3b
00000250: 89e0 473c c575 223c 177c 023c 35bd 5bbb
00000260: b05d 673c a799 633c 85ef 5a3c 6a89 763c
00000270: 288a e53b 8b6f f93a 109b 1f3c da91 4c3c
00000280: 552d 15ba 702e 49ba a223 2e3b 0b99 dcbc
00000290: eae0 f13b 2032 17bd 0c59 48bc 8d30 7d3c
000002a0: 7239 6abc da3a c2bb 9ac3 403c 7756 743b
000002b0: 60db eebc a014 8d3a 9125 7fbb 54a0 093c
000002c0: ff12 9ebc 7e0d 833c a6bc 813c f73f ce3b
000002d0: 30a1 aebc 33f0 c03b 7e35 80bc b4f0 25bb
000002e0: d922 bebc 9c7a e43c 7f0f b9bb 6548 473c
000002f0: fb31 57bc aa9f 7ebb dd52 7f3b 1b9f 923c
00000300: eb07 533c 7e69 b6ba ba0a a9bc 2907 c8bb
00000310: 83ad 413b aec5 9cbb 0b0d 27bb 9bc2 d63b
00000320: 13ef e63b 0e92 f23a b4f1 e6bc 9416 703c
00000330: 2aa3 9dbc d4a4 493b 73ed 7f3b 5873 aa3c
00000340: f29b 91ba 18b2 cbbc fd1d 9ebc 3c88 623c
00000350: 4348 d2bc 9aa2 a83a 5d63 013b 7ecc 483c
00000360: 4135 afbc be9c 6b3b 30c0 ec39 36ad 153b
00000370: ea09 9bbc 092c a13a 5180 973c a2f9 623c
00000380: de15 013c ef40 31bc 14df 563c c648 2a3d
00000390: 0e6e 503c 1f09 9bbc f58d 8e3c f5b6 f4bc
000003a0: a94b b83c 374b 183c 5863 a0bc 0e84 6bbc
000003b0: 930c 35bc 67f1 6bbc 3485 8d3c da03 953c
000003c0: 5fd1 c03c 762e 023d fe4e b43b 3630 8dbd
000003d0: 2bd1 5ebd 55b1 7bbd 832a 83bd 5213 0ebd
000003e0: e11b fbbc 3ab0 5bbd 9c12 073d d571 c43b
000003f0: b8cf 6cbc d239 f03c 991f 56bd 1dfd 243d
-0.0045576063 0.018090013 0.009843747 -0.01310538 -0.009389536 -0.01706334 -0.015252518 0.001255286
-0.004781592 -0.014263416 0.024821091 0.0059153303 0.001325318 0.0030042492 -0.020468809 0.027913064
-0.012858355 0.012427378 -0.027977988 0.012767295 -0.014483279 -0.014202232 -0.009184599 0.0035277873
-0.008941098 0.011280606 -0.018891022 0.009280348 -0.0029189934 0.0047855903 -0.02296916 0.010654957
0.01468511 0.005108046 -0.0047076363 0.0038722777 0.03240325 -0.02541047 0.00091028115 -0.020331126
0.008042489 0.008440052 -0.01814546 0.029282104 -0.0010668663 -0.00471281 -0.021670125 0.007576188
0.003291686 -0.031245384 -0.028988829 -0.024331158 -0.0144252535 -0.018863725 0.021778544 -0.004848014
-0.026228392 0.010739473 -0.007067218 -0.007950352 0.0064236247 0.010721169 0.028959807 0.0022368673
-0.0017755815 -0.01938714 0.009869209 0.0012461324 0.020208774 0.0062969183 0.024114465 -0.012027382
0.005753225 0.01476157 -0.031815257 -0.020682324 0.017839558 -0.00790823 0.02578805 0.03499297
-0.01391832 -0.0017221504 0.009043418 0.0064437157 -0.0047566155 -0.00021338751 0.0050272914 -0.0005688946
-0.004564269 -0.005547865 0.0044101756 0.02158656 0.010567904 0.0045635668 0.0015044141 0.019225804
-0.0016627768 -0.021858562 -0.0010473048 -0.014462781 0.0076540676 0.0056933616 0.0140333045 -0.0032529566
0.0015382544 -0.0040948223 0.005649419 0.014844717 0.01467601 0.0026193103 -0.0018959926 0.04268473
-0.0028428172 0.010712757 0.021763684 -0.005782434 0.022085687 0.005304061 -0.003727092 -0.010376301
0.013195883 -0.0038112295 0.002743423 -0.013470178 -0.0070543983 0.0004000192 -0.0039586155 0.00832305
0.0023954504 -0.0074771997 -0.0120960595 -0.00031782192 0.0056581744 -0.00810514 0.0047193826 0.0032933585
0.009654378 -0.0020653885 0.008302797 0.0019375146 -0.0017128396 -0.0019646008 -0.0027357703 0.0016395202
0.0031662222 -0.009575282 -0.009132692 0.005803924 0.012199529 0.009915774 0.007964156 -0.0033529524
0.014121458 0.013891614 0.01336277 0.0150474105 0.007004995 0.0019030435 0.00974156 0.012485946
-0.0005690654 -0.0007674461 0.0026571532 -0.026928445 0.007381548 -0.036913037 -0.012228262 0.01545347
-0.014295923 -0.005927426 0.011765385 0.0037282982 -0.02915734 0.0010763593 -0.0038932303 0.008400042
-0.019296167 0.015997645 0.015837025 0.0062942463 -0.021317095 0.005888009 -0.015650507 -0.0025320472
-0.023209976 0.027890496 -0.005647599 0.012163256 -0.013134475 -0.0038852491 0.0038959302 0.017898133
0.012880306 -0.0013916937 -0.020634998 -0.006104369 0.0029552884 -0.0047843074 -0.0025489952 0.0065539605
0.007047543 0.0018506662 -0.028191425 0.014653821 -0.019242842 0.0030768411 0.0039051443 0.020806953
-0.0011109097 -0.024865195 -0.019301409 0.013826426 -0.025669223 0.0012865842 0.0019743063 0.012255786
-0.021387698 0.003595158 0.0004515662 0.0022838837 -0.018925626 0.0012296449 0.018493803 0.013853462
0.007878749 -0.010818704 0.013114709 0.04157331 0.012721552 -0.018925248 0.017401675 -0.029872397
0.022497015 0.009295276 -0.01957862 -0.014374746 -0.011050361 -0.0144008165 0.01727543 0.018190313
0.023537336 0.03178259 0.0055025807 -0.06893961 -0.054398697 -0.061448414 -0.06404593 -0.034686394
-0.030652942 -0.05363486 0.03297673 0.005995015 -0.014453821 0.029324446 -0.052276228 0.04028045

bias f4 [80]
00000000: 6cdd 5abc ca83 9b3d 69c1 803d d429 abbd
00000010: 8530 a83d 688f c53d 9408 913d cca5 23bc
00000020: 9ca6 0ebe fb2f ae3d 0b15 4fbd aaed e83d
00000030: 48a4 8bbd 8b70 283d 265a 7b3d f627 2d3d
00000040: 9661 86bd 7d84 9a3d 340a fdbb 20d3 0fbd
00000050: 10d1 27bd dcaf 913c 6c43 18bd 1d6b 573d
00000060: c2ee 7a3d 7f2f 83bd 04a8 c2bd b707 083c
00000070: 3f34 63bc 898d 89bd 2537 ad3d 9a01 99bd
00000080: cbb8 203d 47e4 0a3d 3edc 2e3c 0a5b 9f3d
00000090: 0f99 cb3d d47e 1a3d 077b 93bc a6f7 01be
000000a0: 58a3 143d b497 e6bd 0225 993d a12a a83d
000000b0: 4f1c 4fbc 1333 c2bc 6405 a7bd 7ab5 2c3d
000000c0: 8b32 e8bc bfc4 9e3d dcc8 873d 459b 41bd
000000d0: a2f5 503d 9102 0a3d da97 7d3d 9ac3 5bbd
000000e0: c26b 813d e1a0 88bd dd38 cbbd d8e2 9e3c
000000f0: 544a 43bd 54a4 8f3d e4a6 753d 85f3 b73d
00000100: ac02 883b ef57 d7bd 8a54 e33c b9e8 1dbe
00000110: 1bf2 db3d ccdf 2d3c b199 c7bd 2d32 9ebc
00000120: 0685 653d ab2e 88bd 1d4b cb3c 3742 ab3d
00000130: e5c8 ddbd 9526 38bb b1c8 d03c 3756 313d
-0.013358455 0.07593496 0.0628689 -0.083575875 0.08212379 0.09646493 0.07081714 -0.0099882595
-0.13930744 0.08505245 -0.050557178 0.11373456 -0.068184435 0.041122954 0.06136527 0.042274438
-0.06561582 0.075448014 -0.0077221636 -0.035113454 -0.040970862 0.017784052 -0.037173674 0.052592386
0.061262853 -0.064055435 -0.09504703 0.008302621 -0.013867437 -0.06716449 0.084577836 -0.074710086
0.039238732 0.03390911 0.010672627 0.07781036 0.09941303 0.03771861 -0.018003 -0.12692127
0.03628859 -0.11259404 0.07477762 0.08211256 -0.012641027 -0.023705995 -0.08155325 0.042165257
-0.028344413 0.0775237 0.06630108 -0.047267217 0.051015504 0.033693854 0.061912395 -0.053653337
0.06319381 -0.0667131 -0.09922955 0.019395277 -0.047678307 0.07013765 0.059973612 0.089819945
0.004150709 -0.10514819 0.027750272 -0.15420808 0.10739537 0.010612439 -0.09746111 -0.019311035
0.056035064 -0.06649526 0.02481609 0.08362239 -0.10829333 -0.0028099169 0.025486322 0.04329511

weight f4 [80, 3, 1]
00000000: b0ea ec3d f745 b2bd 531a 1e3d ac63 09be
00000010: 0454 d53d 8ded 06bd a7b8 ef3d c0de afbd
00000020: 2b15 873c 802f f53d 83a1 99bd bc92 cb3c
00000030: 2f44 113e bacb a9bd 2c8b 383c 2091 febd
00000040: 6454 ce3d 58eb 0bbd 2ba5 d4bd 7542 8d3d
00000050: db00 e7bc de84 cfbd 3e05 b13d f2ff 05bc
00000060: e3c4 dfbd 0ecf 9d3d f44d 09bc d51c dfbd
00000070: a9a8 c13d dc20 f4bc 869e 03be 620a 883d
00000080: ac6a a0bb ff4a 103d 06ad 3abd 98ff ad3c
00000090: 5630 bdbd d79b 533d b8dc 3abc 61a9 cabd
000000a0: d87b 4e3d ad19 0abc 5035 b2bd e613 7d3d
000000b0: c82c a9bc f839 c73d b3b3 86bd 3d0c 7c3c
000000c0: 3d0c d43d 0ea3 88bd e6ca 62bb 14e3 08be
000000d0: ed3e 853d f2a5 c6bc e3e4 973d 5dc8 34bd
000000e0: ec06 f83b 070b b43d 4773 b2bd 98fc d83c
000000f0: c0c3 033e b5ed aabd 5863 233d 87fa 9bbd
00000100: fa2c 453d 2c51 3cbc e7ff c5bd 0644 b23d
00000110: ffd9 48bd 2527 f33d 1476 c4bd e438 db39
00000120: 908b f03d 59ff 95bd 1d41 033d 0642 a43d
00000130: 098f 53bd 462b 853c 880b 15be f826 a93d
00000140: 2f64 bfbc e799 e93d 3dfb acbd 574a 9c3c
00000150: c41b a0bd 2c99 813d f1b2 82bc b2f4 c53d
00000160: ee5e 83bd 21ed b13c cdb5 e7bd 6463 b93d
00000170: 7934 c8bc 2b81 fc3d d0d8 a7bd 6602 ed3c
00000180: 64e8 d33d cfdf 87bd af0a a13c 714f da3d
00000190: e73b a6bd 3e5a c93c f25c edbc 5cc0 763a
000001a0: e425 5dbc 56ad 5fbd e0ab fc3c ae39 103c
000001b0: 5279 f4bd 6b3a ac3d dcd0 26bd 9c85 dbbd
000001c0: 3a1f 6b3d d895 b2bc 5325 e9bd 4ef9 b53d
000001d0: 58c5 d9bc 3bd7 d13d 35d2 cbbd e591 d43c
000001e0: 2459 b93d 5d7b 9cbd a489 cf3c cbdf b53d
000001f0: 98b0 6fbd 94d4 213c 7a42 b9bd 4c2c 8c3d
00000200: 9fde adbc 88e9 c83d 9cc4 96bd 31de 5c3c
00000210: a253 8abd 4c34 413d 2ffc d13a 53ee f03d
00000220: ce70 9dbd e327 963c 43f8 c8bd c249 7a3d
00000230: 4b6a 3ebc e81f dfbd 2f8e a93d dda7 2dbc
00000240: 1dfc d6bd c1a7 573d 591e a1bc 1e5a d1bd
00000250: 26db ad3d 2fca 4bbc b415 aabd b127 a53d
00000260: 0584 26bd ac40 dc3d 1476 a8bd 62ee 733c
00000270: dfdc d73d 4636 c0bd bb3b 333d 9005 c1bd
00000280: e588 c63d 6713 1abd 8806 dbbd ce4b 5b3d
00000290: 3869 09bd b39c ed3d 588e a2bd 5113 813c
000002a0: f64f 7ebd e619 803d ebc7 bebc 7af1 be3d
000002b0: 7324 8fbd 036b f93c c5a6 cfbc 1c3d 713c
000002c0: 3fea aabc 63e8 003e 473b a7bd c319 153d
000002d0: 97a3 febd 8e9d b43d 30c8 85bc a744 bb3d
000002e0: 9dea 22bd 5cd4 033d b977 0cbe d6d6 cd3d
000002f0: fb19 52bc 20fc b0bd edef 8d3d 96b3 84bc
00000300: 54f9 f33d a743 bfbd a03d c33b 4e1c a7bd
00000310: 1685 b03d e76f cabc c35c f83d a497 9ebd
00000320: 7145 fc3c 6c3c e83d f9e2 abbd 49c6 9f3c
00000330: cb19 dfbd 13e2 dc3d 3f77 6ebd 7b47 dfbd
00000340: a446 9f3d c6e1 17bc 5357 e2bd 77be 933d
00000350: e880 cebc e4d4 c9bd e01c cb3d 5a5a 23bd
00000360: 3e74 01be d6dc bc3d 7a35 fcbc 430b c63d
00000370: 0a64 c7bd ed8e f13c 3404 cd3d 7ecd 64bd
00000380: ad0d a83c 7c09 d4bd e1e3 713d 7359 60bc
00000390: a42c f23d 1593 adbd 7dee 2c3d 9c82 dcbd
000003a0: cd3c 753d c1a7 f2ba aac0 c53d f664 49bd
000003b0: 00f2 cf3c 4eac c4bd 9443 503d fc81 66bc
0.115682006 -0.08704751 0.038599323 -0.13416928 0.10416415 -0.03294139 0.117051415 -0.08587408
0.016489586 0.119719505 -0.07501509 0.024850242 0.14186166 -0.08290811 0.01126365 -0.12430024
0.1007469 -0.03415999 -0.10383066 0.06897441 -0.02819865 -0.10132764 0.08643578 -0.008178698
-0.10926225 0.07705508 -0.008380402 -0.10894171 0.094559975 -0.029800825 -0.1285344 0.06642605
-0.004895529 0.03522777 -0.045575164 0.02124004 -0.09237735 0.051662292 -0.0114051625 -0.09895588
0.050411075 -0.008428973 -0.08701575 0.061786555 -0.020651236 0.097278535 -0.06577244 0.015383777
0.10353897 -0.06671725 -0.00346058 -0.13367873 0.06506143 -0.02424905 0.074167036 -0.044136394
0.0075691845 0.08791166 -0.08713394 0.026487634 0.12867641 -0.0834612 0.039889663 -0.07616144
0.048138596 -0.011493962 -0.0966795 0.08704381 -0.049036022 0.118727006 -0.09592834 0.00041813322
0.117453694 -0.07324094 0.03204452 0.080204055 -0.05165008 0.016255986 -0.1455518 0.08259386
-0.023363201 0.11406308 -0.084463574 0.019078417 -0.07817796 0.06328043 -0.015954467 0.096658126
-0.06414591 0.021719517 -0.113139726 0.090521604 -0.024439083 0.12329324 -0.081956506 0.028931808
0.10347059 -0.06634485 0.019658415 0.106596835 -0.08116894 0.024579164 -0.028974984 0.0009412819
-0.013497803 -0.054608665 0.030843675 0.008802814 -0.119372025 0.0840958 -0.040726528 -0.10718843
0.057402827 -0.021799967 -0.11384072 0.08885442 -0.026583359 0.1024613 -0.09952203 0.025948474
0.09050205 -0.07640717 0.025334187 0.08880576 -0.058518022 0.009877343 -0.090458825 0.068443865
-0.021224318 0.098101676 -0.07361719 0.013480709 -0.06754233 0.047169015 0.0016020591 0.11764207
-0.076875314 0.018329566 -0.09812977 0.061105497 -0.011622022 -0.108947575 0.082790725 -0.010599104
-0.104973055 0.052650217 -0.019667791 -0.102222666 0.08489065 -0.012438341 -0.08304921 0.08064211
-0.040653247 0.10754523 -0.082256466 0.014888378 0.10540175 -0.09385352 0.043758135 -0.09424889
0.09694079 -0.03761616 -0.10694605 0.05353909 -0.03354761 0.11602154 -0.07937306 0.015756281
-0.062087975 0.0625494 -0.023288688 0.09323402 -0.06989374 0.030446535 -0.025348077 0.014724042
-0.02086365 0.12588648 -0.08165603 0.03640152 -0.12433546 0.08819114 -0.016330808 0.09143954
-0.039774526 0.032184944 -0.13717546 0.10050742 -0.012823577 -0.08641839 0.06930528 -0.016198914
0.1191279 -0.093390755 0.005958274 -0.081596956 0.08619134 -0.024711562 0.12127068 -0.07743767
0.030794831 0.113396496 -0.08392901 0.01950373 -0.108935915 0.10785308 -0.05821919 -0.10902306
0.077771455 -0.009270137 -0.11051812 0.07214063 -0.025207952 -0.09855059 0.09917617 -0.039881088
-0.12641999 0.092218086 -0.030787218 0.09670117 -0.09735878 0.029487098 0.10010567 -0.055860035
0.020514334 -0.103533715 0.059055213 -0.013693201 0.11824921 -0.08475319 0.042219628 -0.10767099
0.059872437 -0.0018513129 0.096558884 -0.04916855 0.02538395 -0.09603177 0.050845698 -0.014069077

bias f4 [80]
00000000: 15c2 773e 9b06 23be e852 723e 0c6e cd3e
00000010: 11f0 fdbe df2d 16ba d60a 2c3e f894 7f3d
00000020: 93a4 633e 47fe 09bf 2dbb abbd 51bf bbbe
00000030: 536d 613e 48b0 963e 622b 103f 1184 6bbe
00000040: af02 2bbe 32d9 01bf 8fc6 debe b337 e53e
00000050: c840 02bd fde7 f43e 2d03 1bbe 4a8b b7be
00000060: 9087 debd 5392 efbe 6ed7 b9be b606 53be
00000070: dcf9 a63e 9960 f63e 8ac9 abbe 260d 203e
00000080: b1c3 d73e 7991 873e ff25 08bf c22f b3be
00000090: f708 a93d 65d4 303e 3a44 3d3e 2fc2 083e
000000a0: 312a e63e d4ec d83e d75b d13e ad42 e73e
000000b0: 5e33 d53e 5556 a5bd 72a8 053f 1854 463e
000000c0: 3af6 a83e 3f85 013c f835 42be da5d 973e
000000d0: 9781 2b3d 148c 34bd fcb2 923e d8b0 ae3e
000000e0: ba84 eb3e b466 82be 4bc7 00be 02f3 5fbe
000000f0: 81b6 81be 5f61 0fbf 5f94 05bf 8d62 803e
00000100: 7070 b6bd ecfc 5d3e 47ea bf3d 51c9 ef3e
00000110: 586f e3be 52c3 8f3e d875 283e b320 34bc
00000120: 2d60 aa3d 99ed 043f 62ad f6be 1f93 52be
00000130: 2670 de3e 5d49 043f 6093 8d3d e9b3 30be
0.2419513 -0.15920489 0.23664439 0.40123022 -0.4959722 -0.0005728881 0.16801009 0.062397927
0.22230749 -0.5390362 -0.0838531 -0.366694 0.2201436 0.29431367 0.56316197 -0.22999598
-0.16700242 -0.5072204 -0.43510863 0.44769058 -0.03180006 0.47833243 -0.1513793 -0.35848457
-0.108657 -0.46791324 -0.36297172 -0.20608029 0.32612503 0.48120573 -0.335522 0.15630016
0.42141488 0.26478174 -0.5318298 -0.34997374 0.08253663 0.17268522 0.18483058 0.13355325
0.44954064 0.42368186 0.4089038 0.45168057 0.41640753 -0.08073107 0.5221015 0.19368017
0.33000356 0.0079053035 -0.189659 0.2956379 0.041871633 -0.0440789 0.2865218 0.34119296
0.459997 -0.2546898 -0.12576024 -0.21870044 -0.25334552 -0.5600795 -0.5217952 0.25075188
-0.089081645 0.21678513 0.09370857 0.4683328 -0.44420886 0.28078705 0.16451204 -0.010994124
0.08319125 0.51925045 -0.48179156 -0.20563935 0.43444937 0.51674443 0.06912875 -0.1725613

weight f4 [80, 80, 2]
00000000: 873f 31bd 6967 b13b c766 e73c ec73 813c
00000010: 6b51 21bd 3e3b 0cbc 55bc e0bc c559 6dbc
00000020: 8b65 f0bb 40c2 a93b 2d67 153d 9ab3 3bbc
00000030: 61af 5b3c c888 be3c e47f ee3c 4dbd 573c
00000040: 916d 5a3c 3e2a b43b 8ab1 863d b42e 9c3c
00000050: fcff 133d 97d7 953b bea3 1b3c d778 4c3c
00000060: d276 7d3c 1b26 40bb 7de7 c63c f8d9 55bc
00000070: 5046 923c b0ac c6bb 1381 89bc 0f31 48bb
00000080: 13a1 78bc 4c79 553c 9e2e db3c bdb9 ae3b
00000090: 98bb cdbb a036 143c 8cea d0bc 049b 0dbb
000000a0: 38d2 02bd a5c8 b2b9 031a 31bc ee68 1dbc
000000b0: d1be 903c 599b 6b3b d93d 74bc 3b1e 5d3c
000000c0: 6b98 5dbc 6d94 5bbb d529 583c 8713 133b
000000d0: 27d5 763d 8f5a 9d3c c5aa cd3a d393 a7bb
000000e0: c407 153c 379a dfbc ff9a e8bc ed44 2abc
000000f0: d568 833c aadb d5ba 763b efbc 6f0f 973b
00000100: b14b cbbc 0456 0938 5632 a6bc e851 cd3b
00000110: d5f5 eb3c d73e 8f3b c640 693c d6dd 00bb
00000120: 1ad0 da3c b21b 75b9 0906 003d 6407 c1ba
00000130: d2e0 9f3c 0553 153c 4d84 30bd e8ea bb3b
00000140: 6c0a 45bd 6628 99bc fdcf 3abd 2860 cd3b
00000150: 63cc 56bb 79d0 8bba a01e e8bc 60d8 bebc
00000160: 423e 84bb 70fe 98bb 2142 e4bc 4552 153b
00000170: 8789 cdbb 686d 5c39 78a1 843c 7ac7 1e3c
00000180: d9d7 bd3c a7bb d53b 69f9 2c3d 961e 68ba
00000190: 600b 113d edde 2e3b c6de d0bc 29e6 4b3c
000001a0: 5b96 9bbc b95c deba 5f18 783c 3817 9d3c
000001b0: 61fd 013d 1ff3 70bc aace 42bd b481 9bbc
000001c0: f4b7 0c3c 5bb7 3fbc ae83 0cbc 5cc1 6fbc
000001d0: 77a5 a13c a720 963c 6408 8ebb ea20 173c
000001e0: 91f9 663d 0d4a 833b 2642 84bc abcd 563b
000001f0: b3f1 5f3d df8b 353c 4667 df3c 1bee b23b
00000200: 8084 78bc 2c8e f53a 12f4 e33b 5439 d8ba
00000210: a99c dbbc 4457 673a eada 16bd 6c48 4ebc
00000220: 3806 3e3d d52d c53b 91fd ad3c 353c 4ebc
00000230: c8c7 eb3c cf51 b6bb 2bd4 b13c 9fe1 0b3c
00000240: 3286 113d e652 e9bb 00f7 20bd fa86 d03c
00000250: 663a 78b9 b90b 193c d0a0 453d f2bc 10bb
00000260: 9fa8 23bd 4d8c e0bb 284a 873c 982f d5bc
00000270: aa1f b3bc cffd 943c b4ca 8f3c 2254 eb3b
00000280: aaca f23b 5e3c 40bc 1aa9 d6bb 49b6 86bb
00000290: ca2d d5bb 0e6d 14bc 0292 11b8 b140 b6bb
000002a0: 10b0 153c 3882 08bb be97 82bc 7101 663b
000002b0: 2ba2 5bbc f3fa c93a 601b 083a 9dbf 8e3a
000002c0: 0de4 83bc 2db0 1ebc cf0d 43bc 7405 a03c
000002d0: 11c9 75bc 7248 d2ba 6d09 d73b 0ea7 83bc
000002e0: 5747 f03b 7c08 ac3a 2e87 04bc 5baf 2c3b
000002f0: 3d65 2dbc 8740 13bc 3b70 873c bd39 15bc
00000300: bc7a b73c a431 523c 8cdb 0fbc 98fe 2c3c
00000310: f58a 553c c0ed 6bbc 49e7 4d3b 0f38 b7bc
00000320: b988 a1bb 8222 823c 0e50 f03a 501e 95bc
00000330: 7f1c 24bc bd47 afbc c2c7 723b 14f7 06bc
00000340: 7d03 ae3c bfda 8b3a c95d b5ba 25ba 7b3c
00000350: 7669 bebc c32c 033a 2eb6 ef39 faef 50bc
00000360: c860 47bc 046b 40bc ae60 563c 20fc 75ba
00000370: 6285 ac3a af5c 003c f8c8 ee3a fbe8 d73b
00000380: a431 593c 7f59 87ba 43a8 863c 012d 6ebc
00000390: d1ba 6c3c 5dfb d6bb b969 093c c2fc dd3b
000003a0: 1820 ec3a 582e 4fbb 21ff 3a3c 448b b2bc
000003b0: c372 babc 8ae7 deba 84c9 c03c 9283 253c
000003c0: 7cb2 323c ccfa 103b 675c 013c da57 1a3c
000003d0: 20b0 22bc 90d9 303c 2dee afbb b45c 2f3c
000003e0: 6274 b03b 0c7e 49bc af23 043c 38fd c03c
000003f0: e858 35bc fa83 b2bb f829 1b3b a6f8 b83b
-0.043273475 0.005413939 0.02824725 0.015802346 -0.039384287 -0.008559046 -0.027433554 -0.014486735
-0.0073363236 0.005180627 0.03647535 -0.011456395 0.013408513 0.023258582 0.029113717 0.013167691
0.013331787 0.0054981997 0.06576832 0.019065239 0.036132798 0.0045728195 0.009499488 0.012479982
0.0154702235 -0.0029319588 0.024280304 -0.013052456 0.017855793 -0.0060630664 -0.01678518 -0.003054682
-0.015175122 0.013029408 0.026755627 0.0053322003 -0.0062784664 0.009046227 -0.025502466 -0.002160729
-0.03193876 -0.00034100297 -0.010809424 -0.009607537 0.017669113 0.0035950749 -0.014907324 0.013495977
-0.013525109 -0.0033505217 0.013193567 0.002244206 0.06026187 0.01920822 0.0015691152 -0.0051140576
0.00909609 -0.027295215 -0.02839422 -0.01039241 0.016041199 -0.0016316075 -0.029203158 0.004609994
-0.024816366 3.2743454e-05 -0.020287674 0.0062658675 0.028803745 0.0043715048 0.014236635 -0.0019663475
0.026710559 -0.00023375338 0.031255756 -0.0014726934 0.019516382 0.009114032 -0.04309492 0.00573479
-0.048105642 -0.018696021 -0.04560851 0.0062675662 -0.0032775633 -0.0010666988 -0.028334916 -0.023296535
-0.004035742 -0.004669003 -0.027863564 0.0022784632 -0.006272498 0.00021021592 0.016190276 0.009691114
0.023174213 0.006522614 0.042230044 -0.00088546553 0.03541124 0.0026683167 -0.025496852 0.012445011
-0.018992594 -0.0016964889 0.015142529 0.01917611 0.03173578 -0.014706402 -0.04756037 -0.018982746
0.00858878 -0.01170143 -0.008576317 -0.014633503 0.01973222 0.018326117 -0.0043344963 0.009224156
0.05639035 0.0040066303 -0.016144823 0.0032776396 0.05467386 0.011080711 0.027270924 0.0054605133
-0.015168309 0.0018734387 0.0069565857 -0.0016496577 -0.0268081 0.0008824954 -0.036829866 -0.012590509
0.04639265 0.0060174265 0.021239074 -0.012587597 0.028781787 -0.0055639516 0.021707615 0.008537679
0.03552837 -0.007120478 -0.039298058 0.025454987 -0.00023672878 0.009341174 0.048249066 -0.0022085276
-0.03995573 -0.0068526627 0.016514853 -0.026023671 -0.021865685 0.018187432 0.017552711 0.0071816603
0.0074094133 -0.011733143 -0.00655092 -0.0041110856 -0.0065057026 -0.009059204 -3.4706674e-05 -0.005561911
0.009136215 -0.002082957 -0.015941497 0.0035096074 -0.013405363 0.0015409872 0.00051920675 0.0010890845
-0.016099954 -0.009685558 -0.011905148 0.01953385 -0.015001551 -0.0016043319 0.006562403 -0.016070869
0.007332723 0.0013125087 -0.00808887 0.0026349637 -0.010583219 -0.0089875525 0.016533008 -0.009108004
0.022397391 0.012829218 -0.008780371 0.010558747 0.013033618 -0.014399946 0.0031418374 -0.022365598
-0.0049296287 0.015885595 0.0018334405 -0.01820293 -0.01001656 -0.021396512 0.0037045334 -0.008237619
0.021241898 0.001067005 -0.0013837154 0.0153642045 -0.023243647 0.00050039234 0.00045721367 -0.012752527
-0.012169071 -0.0117442645 0.013084574 -0.0009383578 0.001316231 0.0078345975 0.0018217852 0.0065890527
0.013256464 -0.0010326355 0.016437655 -0.014537097 0.014448837 -0.0065607266 0.008387023 0.006774516
0.0018014936 -0.0031613316 0.0114133665 -0.021794923 -0.0227598 -0.001700626 0.02353359 0.01010217
0.010906812 0.0022122143 0.007895566 0.0094203595 -0.009929687 0.010794058 -0.005368969 0.0107032545
0.0053849677 -0.012298118 0.008065148 0.023558244 -0.01106856 -0.0054478617 0.0023676138 0.0056448756

bias f4 [80]
00000000: c7be 87bd 28eb 093d 2850 52bd 465c d2bc
00000010: 89d3 f03c f3d5 0ebd 9d21 53bd ae52 223c
00000020: 55b1 2bbb 8102 963c c0cf 92bd fd5c 44bd
00000030: d561 0e3d 5b40 81bc 2f1d 15bd edbf 35bd
00000040: cd6e 9a3d 7750 b8bd 8240 2cbd 2311 143d
00000050: b5f3 6e3d ba66 0fbc 2490 6b3d 5760 e73c
00000060: 5768 573c ffb9 1b3d f468 703d 8abb 453c
00000070: 0031 87bd 312a 3d3d 22be 133d 7f27 913d
00000080: 7d18 8cbb c8cf 78bd 30f1 71bc 1931 823c
00000090: d298 7abd 7cc0 95bb aa82 05bd c8c1 15bd
000000a0: 3a3f 53bd 5293 923d a0f4 8cbc 7be2 a9bd
000000b0: 79dd 35bd d6b4 663d 2810 773d 052e 72bd
000000c0: a93c 95bc 95eb 8a3c 168b 583d b285 38b9
000000d0: a500 ec3b 2458 e738 88d4 b03c 4b66 3ebd
000000e0: 0b8e 2abd d4bf 1b3d 3131 833d 2ff0 2dbd
000000f0: 2d47 ebbc d385 f1bc 0085 9f3d 6179 44bd
00000100: 4a2b 6d3d 1a08 21bc ba9b f2bb 1ec5 bb3b
00000110: 4c2a 2fbc b881 943b 84fc 8fbb 4888 953d
00000120: 7e4b 6abd a304 923d 9ed8 0d3d 6668 b43c
00000130: 60df 083a 112a e13c 95f3 00bd 8235 923c
-0.06628185 0.033671528 -0.051345974 -0.025678765 0.029397743 -0.034872007 -0.051545728 0.009907408
-0.0026198227 0.01831174 -0.071685314 -0.047940243 0.03476127 -0.015777757 -0.036404785 -0.044372488
0.07540665 -0.089997225 -0.042053707 0.036149155 0.058337886 -0.008752519 0.05751051 0.02824418
0.013147435 0.038019177 0.05869384 0.012068639 -0.06601143 0.046182815 0.036069997 0.070876114
-0.00427538 -0.06074503 -0.014766976 0.015892552 -0.061180897 -0.004570065 -0.032595314 -0.036561757
-0.05157397 0.07157005 -0.01720649 -0.08295151 -0.044400666 0.056324802 0.060318142 -0.05912592
-0.018217402 0.016958037 0.052867018 -0.00017597413 0.0072022253 0.00011031356 0.021585718 -0.046484273
-0.04163937 0.03802474 0.06405867 -0.042465385 -0.028720463 -0.029482758 0.077890396 -0.04796732
0.05790261 -0.009828592 -0.007403818 0.0057302853 -0.010691237 0.0045320652 -0.004394116 0.07301384
-0.0572009 0.07129791 0.03463041 0.022022437 0.0005221274 0.02748588 -0.031482298 0.01784778

weight f4 [80, 80, 2]
00000000: 14cf 59bc 58d4 a93b 8dd0 87bb 6c36 0fbc
00000010: 2ec1 03bb a8d0 07bc 025c 4d3c a28b 7b3c
00000020: 7994 e1bb a018 8d3c 7506 f23b b8a5 60bc
00000030: 0c0d 7bbc e66e 88bb 3535 f53b c84a 4fbc
00000040: abe8 6bbb 4a8e b83a f369 863c 34ad ac3a
00000050: 93f1 93bb ca74 a03b 2dd1 913c 2bce 82bb
00000060: cc9a a6bc 24b2 fdbc e3ee b7bc 32df be3b
00000070: 305e 6cbc 8803 ea3c 6e7a 51bc fb61 a63a
00000080: 2cfa 9d3c 0901 8bbb 2c15 10bd fbb5 423c
00000090: 905b 5fbc 5cba 8dbb 69ce e8bb cdb2 523c
000000a0: c162 68bb cf75 953a e4d3 a5b9 4d4a 08bc
000000b0: 97b1 92bb 652e a13c 132d 883c ce53 41bb
000000c0: 0708 a53b 1e6a dd3c 5101 b1bb 01d5 a2bc
000000d0: 132a e8ba 3aa0 64bb 0796 83bc 6c21 8dbc
000000e0: d729 63bb 6f73 983a 8808 4fbc 5c23 773b
000000f0: 55ce 54bc 1040 0b3c 5fec 403c 35e7 aabc
00000100: 3a1b 78bb 3fad e6bc fe76 c2bb f415 2539
00000110: 27cc a8bb bc07 3a3c 4066 03bb e9cf 3ebc
00000120: b701 013c fc37 753b 1e79 633c 78fb b0bb
00000130: 1f51 e2ba c647 ee3b 4086 a93c 229f df3b
00000140: 052d 91bc f43d 663c f7fc d53a 7f5a b7bb
00000150: 5505 8ebb 94e7 993b 000f 37bc 9a18 db3c
00000160: 21d6 04bc 4fa0 9c3a 541f caba 8946 6b3c
00000170: fe44 0dbd 4cf7 b93c 5f75 c7bc 12f5 b53b
00000180: 3859 a7bb 8974 30bc 255a e6bc b3cf 013c
00000190: 6fcf 93bc 29a9 0d3c df4e 77ba b307 01bc
000001a0: 83e0 863c 3e96 36bc 35a7 9f3b e3eb 24b7
000001b0: 327c 9fbb d497 b93a 3264 8dbc 46bf 943b
000001c0: 45e0 eebb 6029 e53c 7b17 6d3c ed21 173b
000001d0: 3fe5 ac3b ebdb bc3b d5f7 28bc 63a5 a73b
000001e0: a28e 55bb 27c6 9e3b a7c8 df3b 9e09 89ba
000001f0: 48a7 213c 51ef 0ebb 4ca0 213a 3639 47bb
00000200: 8155 c93c c9c0 4cbb 96b2 193b 8d91 843b
00000210: e2c6 91bc 3e6e 37bb cdde 0dbc 8eb4 be3b
00000220: 5f19 87bc c644 f83a 090b cf39 3454 c23b
00000230: 295b a13c ad83 373c 5e31 1c3c 2922 0bbc
00000240: d042 b63b a776 45bc 20bc 60bc 7315 983c
00000250: e427 e4bc bfdc deba ab80 223c 066e 4fbc
00000260: bfed f3ba 885d 11bc 8a89 b6bc acbc 3e3c
00000270: c5f0 1d3c 575e 983c d04b 00bc 20d0 823a
00000280: 079b 3f3d e38a b23b 0dba 0dbc 4607 bcbb
00000290: 9341 aabc f12e dcba 24bc 1abc f382 573c
000002a0: ecc9 6d3c 34e0 6c3b 0586 bd3b f597 2e3b
000002b0: a7a1 ccbc ac95 553b 48b0 3b3c 4d69 13bc
000002c0: b5e5 2abc db73 813c ba1b 073c 0614 203c
000002d0: c7af 373c 1346 0ebc 4780 1fbc 080b 0bbb
000002e0: b2c3 f23a 6dd2 6cbc fbe2 c03c 7870 1d3b
000002f0: 1e88 b53c 57ec 4bbb 8f70 173d 09e1 98ba
00000300: 6df3 3bbb 1b74 8dbb 3ca7 2d3d 3478 f8bb
00000310: 5f07 78bb 29e3 8b37 3913 bb3c 060a c9bc
00000320: 2a9e 023c c60a d5bb ef74 45bb b3c4 7fbb
00000330: a565 0b3d 0e56 a0bb 7134 143c 6d47 8aba
00000340: 3fa7 cc3c e44a 79bc 7e98 6dba 10ee 02bb
00000350: f71f d83a dfb0 1c3c 6f6f 82ba 6bd4 c43b
00000360: d08b 7fbc d30a 57bc 66c6 1e3d 79e4 83ba
00000370: 6a50 b0bb 7b14 143b 1aef 57bb 17b8 303c
00000380: a302 973c 16ee fcbc 76a3 403c 9599 45bb
00000390: 61d8 433c f461 b9bb ccd5 b739 094d 04ba
000003a0: 9659 5cbb 4329 593c 675c a0bc 2ef6 773b
000003b0: 9474 39bc 0d1f 673c 757e ebbb 9f98 16bb
000003c0: 1a48 3b3d 30a9 6fbb 1ecc 69ba c6f8 913b
000003d0: 0755 793b a1c2 c4bc 2cfc 313d 3421 a63b
000003e0: 64d2 a13c e137 74bc 8317 b63b c2b1 29ba
000003f0: 2dee 0f3d cc05 ec3b df10 be3c d358 d3bb
-0.013294 0.005182784 -0.0041447342 -0.0087410025 -0.0020104158 -0.008289494 0.012534143 0.015353115
-0.0068841544 0.017223656 0.0073860236 -0.013711385 -0.015322935 -0.0041636107 0.0074831494 -0.012652107
-0.0035996835 0.0014080491 0.016407942 0.0013174177 -0.004514882 0.004896735 0.017799938 -0.0039918623
-0.020337485 -0.030968733 -0.022452777 0.005824947 -0.014426753 0.028566137 -0.012785537 0.0012693995
0.01928433 -0.0042420668 -0.03517644 0.011884208 -0.01363267 -0.0043251943 -0.007104684 0.012860012
-0.0035459253 0.0011402908 -0.00031629123 -0.008318496 -0.0044767368 0.019675443 0.016623056 -0.0029499414
0.0050363573 0.02702814 -0.0054017683 -0.019876959 -0.0017712734 -0.0034885542 -0.01606275 -0.01722785
-0.003466239 0.0011631082 -0.012636311 0.0037710285 -0.0129886465 0.00849916 0.011775105 -0.020862201
-0.0037858025 -0.028158782 -0.005934595 0.00015743804 -0.00515129 0.011354383 -0.002004996 -0.011646249
0.007873944 0.0037417402 0.013883857 -0.005401071 -0.0017266608 0.0072717397 0.020693898 0.00682439
-0.017721662 0.014052857 0.0016326 -0.005595505 -0.0043341317 0.0046967957 -0.01117301 0.02674513
-0.008107693 0.0011949631 -0.0015420713 0.014360079 -0.034489624 0.022700928 -0.02434796 0.0055528963
-0.0051070713 -0.010769972 -0.028119156 0.0079230545 -0.018043248 0.008646288 -0.0009434055 -0.007875371
0.016464477 -0.011144219 0.0048722276 -9.830083e-06 -0.0048671 0.0014159628 -0.01725969 0.004539403
-0.0072899186 0.02797383 0.01447093 0.0023060993 0.0052763517 0.005763521 -0.010312994 0.005116151
-0.0032586236 0.004845399 0.0068293395 -0.0010455137 0.009866543 -0.0021810124 0.00061655487 -0.003039909
0.024576904 -0.0031242839 0.0023452393 0.0040456713 -0.01779503 -0.0027989293 -0.008659077 0.0058198636
-0.01649159 0.0018941395 0.00039490339 0.005930448 0.019696789 0.011200828 0.009533254 -0.008492031
0.005562164 -0.012052215 -0.0137167275 0.018564915 -0.027851053 -0.0017003043 0.009918372 -0.012660509
-0.0018610283 -0.008872397 -0.02228238 0.011641663 0.009639923 0.018599672 -0.007830575 0.0009980239
0.046778705 0.0054486855 -0.008650315 -0.0057381717 -0.020783221 -0.0016798658 -0.00944427 0.013153779
0.014513474 0.0036144378 0.0057837986 0.0026640866 -0.024979426 0.0032590432 0.011455603 -0.008997274
-0.010430743 0.015802315 0.008246357 0.009770399 0.011211342 -0.008683699 -0.009735174 -0.0021216292
0.0018521457 -0.014454466 0.023545733 0.0024023335 0.022159632 -0.0031116211 0.03697258 -0.0011663745
-0.0028679029 -0.0043168194 0.042395815 -0.0075826887 -0.003784619 1.6675871e-05 0.022836315 -0.024540912
0.00797228 -0.0065015284 -0.0030129512 -0.0039027154 0.034032483 -0.004893071 0.009045706 -0.0010549851
0.024982093 -0.015215609 -0.00090635556 -0.0019978322 0.0016489018 0.009563654 -0.0009951423 0.0060067675
-0.015597299 -0.013125139 0.038763426 -0.0010062597 -0.00538068 0.0022595215 -0.0032948912 0.010786078
0.018433874 -0.030875247 0.011757722 -0.0030151356 0.011953444 -0.005657429 0.0003506377 -0.00050468795
-0.0033622733 0.0132544665 -0.01957531 0.0037835944 -0.011319298 0.014106524 -0.0071867057 -0.0022979153
0.04572306 -0.003656935 -0.00089186605 0.004454705 0.0038045065 -0.024018588 0.04345338 0.005069876
0.019753642 -0.014905901 0.005557002 -0.00064733264 0.03513925 0.0072028395 0.023201404 -0.0064497977

bias f4 [80]
00000000: 9211 a7bd f74b 20bd 516b a8bc dbc5 0ebd
00000010: ad15 2fbb a153 c3bb 72ee 3dbd cf7d 4a3b
00000020: a619 66bc 66b1 9e3d ff90 0a3c a84c 523d
00000030: 565e 143d 2354 713d bc0f 233d 7357 9d3d
00000040: fe44 a63c b795 1a3d 150c 3abd 6dcb c2bc
00000050: b918 603d 916b 3bbd 0271 573d d889 3ebc
00000060: 9683 8d3d 8bb0 413c c69a a73d 14a0 d23c
00000070: f83d 03bd 2af6 d8bd 2b6b 033d 0b07 5a3b
00000080: 5573 38bd c70c c6bd 66b9 633d bcb8 50bd
00000090: d184 6b3c cde2 8a3d 28a9 41bb c2b3 37bd
000000a0: 8551 883b 5fcd 92bb 857a 2d3d 4383 77bd
000000b0: 395d 08bd 79b7 21bd 569a 6dbd 51de 1cbc
000000c0: cba8 9a3c 77b5 d4bc 8ba4 97bd 1d4d b0bd
000000d0: eba8 5e3d a375 85bd bc6f 503d 9761 a7bd
000000e0: e45c d6bd 025b ddbc 0f7e 9abd cfae f83c
000000f0: b3b9 623d 3a2a a83d 68a9 babb ecd2 17bd
00000100: 6715 823d dd6f c43b 979e 94bc e38d 1cbe
00000110: bda3 01bd 2bd4 0a3d d61f acbd 8747 ee3c
00000120: 1308 053d 8a31 29bd 334e be3d c4af 343d
00000130: 9db2 04be 993d 773d a7ff 4bbd d5fa 0abd
-0.08157648 -0.039134946 -0.020558985 -0.03485666 -0.00267158 -0.005960897 -0.046369977 0.0030897742
-0.014044201 0.0774868 0.008457421 0.051342636 0.03622278 0.05891813 0.039809927 0.07682695
0.02029657 0.037740435 -0.04542168 -0.023778642 0.054711077 -0.04575688 0.052598007 -0.011629544
0.06909864 0.011821876 0.081838176 0.025711097 -0.03204152 -0.10593827 0.032084625 0.0033268358
-0.045031864 -0.09670406 0.05559673 -0.050957426 0.014374928 0.0678154 -0.0029550288 -0.044849165
0.0041601085 -0.0044800485 0.04235317 -0.060427915 -0.03329203 -0.039481614 -0.058008514 -0.009574489
0.018879315 -0.025965435 -0.07404431 -0.08608458 0.05436031 -0.06516578 0.05088781 -0.08172911
-0.10466936 -0.027020935 -0.07543575 0.030356793 0.055352878 0.08211179 -0.0056964643 -0.037066385
0.063517384 0.0059947805 -0.018142028 -0.152885 -0.031650294 0.033893745 -0.0840451 0.029086841
0.032478403 -0.04130701 0.09292259 0.044112936 -0.1295876 0.06036148 -0.049804356 -0.03393062

weight f4 [80, 80, 2]
00000000: f239 bb3c 5ca4 ebbc 259b 63bc 1557 463d
00000010: b962 0ebc e7be dcbc 414a 9f3c 61f2 b9bc
00000020: e00e 1bbc 798a 12bb 3e17 343c 6aac 863c
00000030: 1cd6 c7ba 517a 28bb 6c39 38ba 93bf 023d
00000040: 7b26 29bc 2d9e 0b3d b342 333c 1d7a cf3c
00000050: e6c1 eabb 1aaa 0d3d 22cb 1bbc 3d8a f23b
00000060: 6933 4abb cda4 1abb 1831 adbc 5688 683c
00000070: d64c ba3a 7652 0bbc 2ecc ba3b 9795 8bbb
00000080: 47ce b1bb 7add ccbb 0df5 74bb b770 ee3c
00000090: 636b 79bc a43f 933b f534 29bc bead d0bb
000000a0: 8449 753b dbea b0bc 5bd1 4f3c 61f4 86bb
000000b0: 7d45 9fbb 5939 a23c fee0 38bb 8766 57bc
000000c0: c24d 56ba 1f6b 8fbc 87be 28bc 9dc0 a73b
000000d0: 43e5 e33b 31a2 e33c 7285 153b c810 f1bb
000000e0: b71b 6cbc dfae 19bc 4f66 05bc d305 8abc
000000f0: 277b 623c 7408 8c3c bff2 33bc 2180 9ebc
00000100: 05ba f43b 40c0 c7bc a4e8 f8bb 662b 01bd
00000110: 2df9 233c f9b6 353c eb3f 49bb c11a 60ba
00000120: f95b e0ba f251 7c3b 49b0 bf3b f55d a73c
00000130: 5019 12bc 6fc2 413c ae50 323b 85a0 dcbc
00000140: e5d6 ab3b c0a9 05bd 124c 47bc 373f 37bc
00000150: ab87 00bd 0882 3d3b 567d 54bc f07e 04bc
00000160: 3960 a1bb adc7 a93a 9cb7 bc3a 4f85 f7ba
00000170: 529d 00bc 9a03 cebb b21e 9abc 4e04 733c
00000180: bf82 b1bb 0fa6 463c 8d9f e93b 4b23 923c
00000190: 7911 993b 78db 913c 0176 c7bb def8 6dbc
000001a0: fe33 b53b caec 0bbd 45dc 4ebb cff0 983b
000001b0: e567 2c3c 76c3 a1b9 9d8c f7ba 90b1 cebc
000001c0: 3416 33bc 5a5d 003c b4a2 3f3c 5d7c 0fbc
000001d0: a848 013b 9303 d43c 70d9 c0bb 0b09 2cbc
000001e0: 429f 873b 8fcb 763c 4d94 913c ebde 41bb
000001f0: 56cb 893c 57b9 823c e75e 07bc fa04 ac3a
00000200: 1089 06bc f8d2 9dbc cb42 78bc 315f b7bb
00000210: 52e3 753a a39d 9abc 1109 3e3c 9b1f fabc
00000220: 8427 853c 2b84 c23c 1e3c 82bb 52d0 223c
00000230: 48b9 57bc c490 b93c d31e 6c3c 041f c73c
00000240: 4b9a 463a b008 e83c e276 9fbc 26d4 e9bc
00000250: 98fc 3c3c cc6a 13bc 8193 2e3c e654 d23a
00000260: 7c5b 993a 028c f2bc 4717 1bbc 802f 453a
00000270: 8091 3abc 1954 7bbc dc1e 52bc fa6d 863c
00000280: 8854 52bd 6746 5439 f879 1f3d 7b47 b73b
00000290: 8631 e5bc b149 123c 8e30 0ebd 62dd 82bc
000002a0: d270 893c eac1 863c b851 863c ef98 f6bb
000002b0: 0f22 d9ba d097 21bc 04df 363d 2a08 0abb
000002c0: d72e cc3c df2c 23bc 4c7b 053d 714a b13a
000002d0: e257 723d c866 86bb 77fd 2b3c 3c77 78bc
000002e0: 4c6d 3ebc 40b4 873b 062a 90bb cd97 93ba
000002f0: 960d 673c 2b90 91b9 fe68 c8bb fbd4 023c
00000300: c9ea a13a 21be 86bc 3510 163d 127e 843c
00000310: 2662 c23c b40f 94bb 3011 e4bc b2ee 4bbc
00000320: 29ba 8dbc 330f 46bc 5da8 7fbb 10c3 39bb
00000330: ef8a 353d edeb e73b ca35 53bc 99c3 023c
00000340: 40b0 22bc 5fdc 6c3c 8621 6b3c 07e0 88bb
00000350: 7c1a 143d a3f8 e23a 9342 45bc bc01 403a
00000360: 0dcf 673c c36b a4bc 543d ae38 a5b0 a7bb
00000370: 3c02 d63c dabe 493c 5195 cabc c6c9 fdbb
00000380: 54ee 70bd b9eb aa3b e0ad 00bd 8a84 20bc
00000390: 5763 353c dd18 11bb 75e5 063d 862d 823c
000003a0: 3ecf b13c 75ea e7bb b367 1c3c bd23 95bc
000003b0: c4a6 de3c a3d0 b4bc 43f3 23bd de0d ba3b
000003c0: a836 0ebd 9ac0 813c 2fc6 6ebd c3f7 05bc
000003d0: 6de0 81bb 682c 8a3b df76 11bd 7719 ccbb
000003e0: db84 34bc 862a 663b 125b 0bbc 7033 473c
000003f0: d8a2 3dbc 8c1e 4abc 8b41 383c 20e7 0fbc
0.022854779 -0.028764896 -0.01389197 0.04842289 -0.0086905295 -0.026946498 0.019444587 -0.022698583
-0.009463996 -0.0022360368 0.0109918695 0.016439635 -0.0015246305 -0.0025707672 -0.00070275995 0.03192098
-0.010324116 0.034086395 0.010941195 0.025326783 -0.007164228 0.03458605 -0.00950888 0.007401733
-0.0030853397 -0.0023596764 -0.021141574 0.014192661 0.0014213573 -0.008503547 0.0057006096 -0.004259776
-0.0054262015 -0.006251988 -0.0037377507 0.029106481 -0.015223357 0.0044936705 -0.010327567 -0.006368368
0.0037427852 -0.021596363 0.012684192 -0.0041184877 -0.0048605786 0.019802736 -0.0028210278 -0.013147003
-0.0008175039 -0.017507134 -0.0102993315 0.005119397 0.0069548204 0.0277873 0.0022815135 -0.007356737
-0.014410905 -0.009380071 -0.008142068 -0.01684848 0.013823307 0.017093875 -0.010983168 -0.019348206
0.0074684643 -0.024383664 -0.0075960923 -0.03153553 0.010008139 0.011090987 -0.0030708264 -0.00085489085
-0.0017117254 0.0038500992 0.0058498723 0.020430544 -0.008917168 0.011826142 0.0027208733 -0.02693201
0.0052441233 -0.03263259 -0.012164133 -0.011184505 -0.031379383 0.0028916616 -0.012969336 -0.008086905
-0.0049248007 0.0012953185 0.0014397982 -0.0018884334 -0.007850008 -0.0062870504 -0.018813465 0.014832569
-0.0054171975 0.012124552 0.0071296156 0.017839095 0.0046712724 0.017804846 -0.006087065 -0.014524667
0.0055298796 -0.034161367 -0.0031564396 0.0046673785 0.010522817 -0.00030853943 -0.001888651 -0.025231153
-0.010930587 0.007834757 0.011696506 -0.008757678 0.0019727144 0.02588061 -0.0058852956 -0.010500203
0.004138858 0.015063181 0.01777091 -0.0029582332 0.016820591 0.015957518 -0.008262373 0.0013124042
-0.008211389 -0.019265637 -0.015152643 -0.0055960645 0.00093798817 -0.018873995 0.011598841 -0.030532649
0.016254194 0.023744663 -0.0039744517 0.009937363 -0.013166733 0.022652037 0.014411646 0.024306782
0.0007576092 0.028324455 -0.019465867 -0.028543543 0.011534832 -0.00899763 0.010655285 0.001604703
0.0011700238 -0.029607777 -0.009465999 0.00075220317 -0.011387229 -0.015339875 -0.01282474 0.016409863
-0.051350147 0.00020244122 0.038934678 0.005593238 -0.027977716 0.008928702 -0.034714274 -0.015974704
0.01677743 0.016449887 0.016396388 -0.0075255553 -0.0016565936 -0.009862855 0.044646278 -0.0021061995
0.024924679 -0.009959429 0.03258829 0.0013526214 0.059165843 -0.004101608 0.010497442 -0.015165146
-0.011622738 0.0041413605 -0.004399541 -0.001126045 0.01410236 -0.0002776397 -0.0061160317 0.007985349
0.0012353297 -0.016448082 0.03663655 0.016173396 0.023728441 -0.0045184735 -0.027840227 -0.012447046
-0.017300682 -0.012088585 -0.0039010264 -0.0028345026 0.04432195 0.007077685 -0.012891242 0.007981204
-0.009929717 0.014456837 0.014351254 -0.0041770968 0.03615807 0.0017316531 -0.012039798 0.0007324477
0.014148486 -0.020070916 8.30839e-05 -0.005117493 0.026124112 0.012313569 -0.024729403 -0.0077450005
-0.058821037 0.0052160886 -0.03141582 -0.009797225 0.011071048 -0.0022140064 0.03293367 0.015890848
0.021705266 -0.00707751 0.009546208 -0.018205518 0.02717913 -0.022072142 -0.040026914 0.0056779226
-0.034720093 0.01583891 -0.05829447 -0.008176747 -0.003963521 0.0042167194 -0.035513755 -0.0062286216
-0.011018003 0.003512056 -0.0085056 0.01215826 -0.0115744695 -0.0123363845 0.011246095 -0.008783132
