GAN/NO Generator/NO_epochs=1000_seq=127_batch=28.pth (torch, 675068 bytes, 31 tensors)

weight f4 [1, 80, 1]
00000000: 212d 4b3b d4bb 6a38 8062 94bb 99b2 bcb9
00000010: 1712 b2bb 2de2 acbb acb3 523b 00e9 013b
00000020: fea5 5239 574a 98bc 85dd 2d3c 9a04 803b
00000030: feb1 393c 76c0 52bb d1df ffb8 4b14 97bb
00000040: 9791 d7bb 9799 75bb 9968 8c3b 5a6f c4ba
00000050: 9b43 27bc c16e 173c c20f 3cb9 863a 7eb7
00000060: fe8e 663b 56df 0138 7322 b63c 73dd d638
00000070: ab29 033c 68ae 473c 14c0 c3bc 760d dd3b
00000080: 2c32 27b9 e613 d3bb 3062 48bc 5ae0 1d3c
00000090: cd09 1db9 7824 1b39 482b 33bc 5fc3 1b3c
000000a0: 15ca d93b 0167 12b8 cda8 89bc 4b4c d03b
000000b0: 45ec 743c dc1f 2b3c 61a2 6e3a 9600 93bb
000000c0: 4a21 83bc 5bcc ac3c 46f7 923a 909e bc3a
000000d0: 9521 513b d3ea dbb6 dac0 6fb6 d0d2 8537
000000e0: 2156 6437 38ba 043b 401b 06bc 9b59 8338
000000f0: 10ab 773a 3494 8b3b e491 a3ba e60f 11bc
00000100: cd84 dd3b 453d 8a3a 10d2 c23b bd18 fe3b
00000110: cb0d 703b f022 0ebb 240a cc3c 1225 823c
00000120: 14fc 31b8 ed05 1f3c e22f e339 3caf 41bc
00000130: d7e4 253c bfbe d7bc a7b7 783c 80fc 1c3c
0.003100224 5.5964876e-05 -0.0045283437 -0.0003599122 -0.0054342854 -0.0052759857 0.003215055 0.0019822717
0.00020088998 -0.018590135 0.010611896 0.0039067985 0.011333941 -0.0032158173 -0.000122010366 -0.0046105734
-0.006578635 -0.003747558 0.00428493 -0.0014986799 -0.0102089895 0.009242714 -0.00017934947 -1.5153206e-05
0.0035180445 3.0963995e-05 0.022233224 0.00010245563 0.00800554 0.012187578 -0.0238953 0.0067459894
-0.00015945052 -0.006441581 -0.012230441 0.009636009 -0.00014976338 0.00014795538 -0.010935612 0.009507029
0.0066464045 -3.4905042e-05 -0.016804123 0.006356751 0.014948909 0.010444608 0.0009103176 -0.004486154
-0.016007084 0.021093538 0.0011212609 0.0014390517 0.0031910886 -6.5540457e-06 -3.572603e-06 1.5953003e-05
1.36099125e-05 0.0020252597 -0.008185208 6.263257e-05 0.00094477925 0.0042596105 -0.0012479392 -0.008853888
0.006760216 0.0010546824 0.0059454516 0.007754414 0.0036629315 -0.0021688305 0.02490718 0.015886817
-4.2434855e-05 0.009706003 0.0004333249 -0.011821564 0.01012536 -0.026336072 0.015180505 0.009581685

weight f4 [80, 3, 1]
00000000: 3ef2 f1bb 5775 353b 6a49 0cbc f0bc 1b3b
00000010: a419 593c 9009 a73b 4a8d 0d3b df86 883b
00000020: 4dd7 053c ac30 fbbb c5f5 fbbb b792 54bb
00000030: 65c9 d13a 91ae 643b 230c b8bb b996 67bb
00000040: 835f a83c b355 503b d2f0 a3bb ae09 663a
00000050: 3ce0 0abb b56a 9cba a89a 5e3c 2421 e83b
00000060: 68b3 183c d7bf ae38 76c6 783c 88e2 aeb9
00000070: f126 1dbc 53ff 2fbc 01bb 193c 5708 303b
00000080: 99fe 08bc cf01 5d3c 4549 dcbb e11e 43bc
00000090: 6e06 a2bc 6983 c53c 13ae 5a3b 856f 58ba
000000a0: a80f c6bc eea8 54bc 7099 90bb c344 263b
000000b0: 96fa 45bb 4372 debb 7c89 3b3b 1fcb 00bc
000000c0: 82f1 57ba 2c8b 8d3a 6386 94ba fbed dd3b
000000d0: 4552 d0bb 557f 09bc 8fd4 b73b c05a 1abc
000000e0: 047b 8a3b 8f6a 373c aff7 093b 0407 65bc
000000f0: 2220 f8ba 2593 223c 6900 8cbb 7fe4 ebbb
00000100: 45fe 923b e379 07bc bd63 0ebc 720b 90bb
00000110: a062 d5b9 4b7d 083c 0441 15bb 9520 a2bb
00000120: 12cd dcbb 9396 fd3b a4cd a63a 8dd3 c1bb
00000130: b0d3 fe3b 9f9f 10bc 101d 103b b643 5eba
00000140: 395a af3b 525b e7bb 3bc4 b23a 6f7d 423c
00000150: 8854 03bc ee95 223b 49cc 923b 76be 53bc
00000160: 8dcc 5aba 3a03 43bc 0257 b7bb 0de2 fd3b
00000170: 8a64 de3b e7bf 0c3c 6a5f e93b 51c0 01bc
00000180: 0143 f13b 6a2f 23bb ff99 353a a7f9 41ba
00000190: 9c4c f43b a0ca d23a 2674 f9ba ccb5 45bb
000001a0: 052a d6bb 72cf 5cbc e503 0f3c a2f7 f63a
000001b0: 4722 343b a753 d9ba b255 633c 27a8 623b
000001c0: 1ad9 213b 0b58 72bc 0ad9 02bc 51d3 c8bb
000001d0: 9f34 1a3c a817 d83b 3f34 9d3a f78d 2abb
000001e0: a423 4a3c 44ff 673b 4f63 483b 65ff 6ebc
000001f0: 450a 57bc 0d29 143c cb73 adbc 97b4 19bb
00000200: d977 aa3c 6b3a bbbb fd07 09bc ff0b 02bc
00000210: 4447 ba3b 7c0e 37bc a954 953c 5f05 623c
00000220: 447d 48bc 3dec 87bc 5b98 b2bb b3f7 e03b
00000230: 67e8 1b3b d2f6 fc3b dab3 2dbc c98a 74bb
00000240: a774 0bbb d1ae 1b3c 37de 33bb 70e2 053b
00000250: 7c4d 45ba 58ac 993b 23fe de3b 1311 e7bb
00000260: 65e1 08bc 0088 a2bc 0e83 b43c 90b9 59bb
00000270: 09e9 7dba a5bc bd3b f1c6 063c e644 66bc
00000280: f386 e7bb cb66 583b 3bed 36bc 8a13 4dbb
00000290: 3f05 4fba 8911 e4bb 3613 093c b8bb c6bb
000002a0: b7bd ccbc 15eb a0bb bc62 80bb 4979 4c39
000002b0: 9cc6 93bc b085 4cbc 5ef4 913b b00d 803c
000002c0: 20b3 2f3c bd30 c33a ac52 c8bb bc46 cabb
000002d0: 65b2 8b3b 695f 57ba 9310 bebb f8d4 b4bb
000002e0: 61e7 63bc 50ab fdbb 8b04 a2bc 6979 0bbc
000002f0: 148b d2bc d90e d83b fc99 893c 1e48 bcbb
00000300: 0572 b2bb 6a30 413c cefc e2bb 0105 86bb
00000310: d495 fb3b 3718 e0bb 5764 9b3b eb70 a3bb
00000320: 7b84 7fba bbf7 383b e296 653c f9e2 24bb
00000330: 9c92 0fbc af87 2a3c 09b7 f8ba 3ac2 803c
00000340: 0c49 2bbb 0d18 f13b af38 cc3b d0c8 013c
00000350: 5144 953b aa05 6d3b fcc1 45ba 00bd 803a
00000360: 6822 2f3b 29e4 31bb 4a3a cfba c4eb 4b3c
00000370: 71c4 8fbc f8ce 88ba 1bae a0bb a014 853c
00000380: a3f7 1fbc 9f8c cd3c f4b9 ad3a eeea 3fbb
00000390: 0e57 ef3b 9850 a93b c4dc 89bc a5a4 043a
000003a0: 1fbb c93b 8b89 5a3c 2043 4c3c 41e5 b03b
000003b0: a89e 6a3c 0d53 1f3c 6fef 853c cc83 d83b
-0.007383614 0.0027688348 -0.008562425 0.0023763739 0.013250742 0.0050975755 0.0021599107 0.0041664685
0.0081690075 -0.0076657142 -0.00768921 -0.0032436082 0.0016005455 0.0034894089 -0.005616681 -0.003533764
0.020553356 0.0031789362 -0.0050030733 0.0008775246 -0.0021190783 -0.0011933657 0.013586678 0.007084029
0.0093201175 8.3326995e-05 0.0151840355 -0.00033356645 -0.009591804 -0.010742026 0.009382964 0.002686044
-0.008361482 0.013489201 -0.0067226016 -0.011909218 -0.019778457 0.024110513 0.0033367916 -0.0008256364
-0.024177387 -0.012979729 -0.0044128224 0.0025370575 -0.0030209175 -0.0067885234 0.0028615883 -0.007860928
-0.00082375866 0.0010798923 -0.0011331554 0.0067727542 -0.0063574635 -0.008392175 0.0056100558 -0.009421051
0.0042260904 0.011194839 0.0021052172 -0.013978723 -0.0018930475 0.009922777 -0.00427251 -0.0071988697
0.0044858777 -0.008268806 -0.008690772 -0.0043958956 -0.00040700007 0.008330653 -0.0022774348 -0.0049477317
-0.0067383135 0.007738897 0.0012726081 -0.0059151114 0.0077767 -0.008827119 0.002198998 -0.00084787176
0.0053513316 -0.007060447 0.0013638804 0.011870726 -0.008015759 0.0024808603 0.004479919 -0.012923827
-0.00083465205 -0.011902625 -0.005595089 0.0077478946 0.0067868875 0.008590675 0.00712197 -0.007919387
0.007362724 -0.0024900087 0.0006927549 -0.0007399567 0.0074554216 0.0016082115 -0.0019031807 -0.0030168174
-0.006535771 -0.013477193 0.008728956 0.0018842111 0.0027486251 -0.0016580716 0.013875412 0.003458509
0.0024696053 -0.014791499 -0.007986316 -0.0061287065 0.00941196 0.006594617 0.001199372 -0.002602456
0.012337599 0.0035399953 0.003057677 -0.014587258 -0.013125007 0.00904299 -0.021173378 -0.0023453587
0.020809101 -0.005713751 -0.008363721 -0.00793743 0.005684765 -0.011172887 0.018228846 0.013795226
-0.012236897 -0.01659214 -0.005450291 0.0068654655 0.0023789646 0.007719853 -0.010601962 -0.0037314168
-0.0021279247 0.009502129 -0.0027445683 0.0020429157 -0.00075264997 0.0046897344 0.006805198 -0.007051596
-0.0083545195 -0.01984024 0.022035148 -0.0033222176 -0.0009685909 0.0057903104 0.008226142 -0.014054513
-0.0070656477 0.0033020254 -0.011164959 -0.0031292164 -0.0007897205 -0.006960098 0.008366397 -0.0060648583
-0.024992807 -0.0049108365 -0.00391802 0.00019500138 -0.01803904 -0.012483045 0.0044541797 0.015631527
0.010723859 0.0014891844 -0.006113371 -0.006172983 0.0042632096 -0.00082158163 -0.0058003156 -0.005518552
-0.0139101455 -0.0077413693 -0.019777557 -0.008512833 -0.025701083 0.006593567 0.016797058 -0.0057459017
-0.005445721 0.011791328 -0.0069271093 -0.004089952 0.007677773 -0.006838824 0.004742186 -0.004987826
-0.0009747219 0.002822383 0.014013024 -0.00251597 -0.008762982 0.010408326 -0.0018975447 0.015717614
-0.0026136069 0.0073576034 0.006232343 0.007921413 0.004555263 0.0036166706 -0.00075438595 0.0009821951
0.0026723389 -0.002714405 -0.0015810218 0.012446348 -0.017549725 -0.0010437658 -0.0049035675 0.016245186
-0.009763631 0.025091467 0.0013254271 -0.0029284316 0.007304079 0.005167078 -0.016828902 0.00050599343
0.00615634 0.013338457 0.012467176 0.005398423 0.014320053 0.009724391 0.016349522 0.0066075083

bias f4 [80]
00000000: 2e53 553e 225b 89be a94b d2bd 2445 a7be
00000010: 5332 c8bd 4d29 cebe cf47 b9be 2abd 363e
00000020: aec6 27be 7a09 a63e 0051 36be 5acf d0be
00000030: 97b9 b6bd f1b0 89be e3ea 27be 7831 0abf
00000040: 3495 933e 068a c8be 5df9 8e3e 33ec 803e
00000050: ef08 cc3e 33a0 dabe 1836 c23e 9573 89be
00000060: ad4a 473e 0352 073f db90 83bd 556b 33bc
00000070: 9b30 04be cebb f3be 3dfe 853e 6247 0ebf
00000080: d601 b33e 9bba d33e 5c31 0b3f 726f 03be
00000090: 578e eebe 1fd2 f53d cde5 9b3e e34d 0fbf
000000a0: 6cb6 fdbd d8cb adbe 315c 2ebd 5b46 8dbe
000000b0: e9a7 6abe 8acf 34be ddd6 09bf 3931 e93e
000000c0: 887d f13e 1b59 a7bd 7503 7fbd 2cb4 5fbe
000000d0: 8f1d 02bf 9b22 0ebf a52e 413e ad89 99be
000000e0: 6e55 b4be f568 30bd 7a16 37be 47c0 38be
000000f0: d336 203b b735 f1bd 1fbf 4abe 4b17 88be
00000100: 79ce edbe 434e f33e aed9 60be a03f f13d
00000110: 0228 41be f730 fe3c c88a 073f 9d32 853e
00000120: 9896 fabe ab78 653e 53cd 063f 4d84 153e
00000130: 9b9f bb3e 857b 0f3f 8c57 a4bd 2ae3 d33d
0.20832512 -0.2682734 -0.10268337 -0.32669938 -0.097752236 -0.40265885 -0.36187598 0.17845598
-0.16384384 0.32429105 -0.17804337 -0.40783197 -0.08922117 -0.26892808 -0.16398196 -0.53981733
0.2882477 -0.39167804 0.27924624 0.25180206 0.39850566 -0.42700347 0.37931895 -0.26845995
0.1946208 0.52859515 -0.06424113 -0.010950883 -0.12909167 -0.4760422 0.2617053 -0.5557767
0.34962338 0.41353306 0.5437219 -0.12835482 -0.46592972 0.12002968 0.30448762 -0.5597822
-0.1238831 -0.33944583 -0.04256839 -0.2759274 -0.22915615 -0.17657295 -0.5384348 0.45545366
0.47166085 -0.081712924 -0.062259156 -0.21846074 -0.5082635 -0.55521554 0.1886545 -0.2998785
-0.35221428 -0.043068845 -0.17879668 -0.18042098 0.002444674 -0.117778234 -0.1979947 -0.2658027
-0.4644659 0.47520646 -0.21958038 0.11779714 -0.18862918 0.031029208 0.5294614 0.26015177
-0.4894302 0.22409312 0.5265705 0.1460125 0.36645207 0.5604785 -0.08024511 0.103460625

weight f4 [80, 80, 1]
00000000: 55f0 66bc d105 b63b 6c4b eb3b bb1c 223c
00000010: 8473 853c ced2 5cbc da8d 7b3c 5a2d 64bc
00000020: 78df 113c f46a 513b ecbd a83a dc46 24bc
00000030: 7817 2abc e1a6 ac3c 6fe7 8e3c 533c dcba
00000040: 2038 02bd 11cf 8bba 2e23 4f3c 0ad8 0b3b
00000050: a823 8ebc 080a 6e3c 8dea 3bbc f1de 853c
00000060: a39d 45bb 87a3 42bb 8631 ad3b 517a 863c
00000070: d330 8e3c cde8 a93a d77b 8fbc a84a 2f3c
00000080: e4e3 6dbc 9749 22bc f191 96bc 58b0 d23b
00000090: 6bf1 f73a e741 1dbc 0800 2c3c 2db0 00bc
000000a0: 5bdf 6d3b babc 613c 1fdb bcbc 12b6 a73c
000000b0: 3994 db3c 3807 b23a 9a5a ce3c a8b1 c6bc
000000c0: 0c4d f638 5901 813c e825 b3bb 8272 3fbb
000000d0: c238 533b 7a99 a1bb 48ae 19bc f7a3 b73c
000000e0: 6bbe 5a3c 6175 813a 4a33 30bb 7001 a6bb
000000f0: ec2b fbbb cfd7 8fbb eb84 063c 853e 003c
00000100: ebc5 cd3c 4b68 ccbc 61ed 0e3c a40a f6ba
00000110: ffe9 a4ba 4765 72bc 6883 96b9 aec1 f7bb
00000120: 5ca7 393c 43a8 6e39 543c 143a 9f51 363b
00000130: 5b1b 57b9 b440 06bc 75d9 54bc 161b 64bc
00000140: 4104 cfbc 90a4 bd3c 14a6 3e3a f3b6 2c3c
00000150: 918f f63b e98f 043c c87b aaba fa37 9dbc
00000160: e2dd a53c 7f06 bfbc 4109 2cbc 79ec 7abb
00000170: 25eb 02bc d5f8 263c 5c85 cbbb 6298 443c
00000180: 0aad b7bc 34e4 323c e0b1 a3bc b8b0 04bd
00000190: 93ba e9bb c36f 9e3b d880 01bd 3f41 2abc
000001a0: 0a96 7d3a 9c38 09bd b33c 043c a196 f73a
000001b0: f778 4e3c ed9e 8f3c 5d43 a2bc 1c49 b63c
000001c0: be48 cabc ebb3 b1bc 792c 88bc 1c6c 22bc
000001d0: 7f1f 913c 59e9 513c 6ccc 31bc 718a 103c
000001e0: dece ee3a 6464 953c 0794 1e3c 72d4 853c
000001f0: 5255 c4bc a989 063c e47a 023d b5b1 cbbc
00000200: 3854 ab3a ac35 dd3b 592a 01bc 73f3 33ba
00000210: 0ca3 ca3b 2969 ce3c ac25 2ebc cd58 e9bb
00000220: dffc 033c 6ecd 1d3c 778f dd3b 556a 573c
00000230: 3a80 983c 6c68 fdbb 4c95 74bb 5fb4 063b
00000240: 3a06 d73b 5995 9fbc 4cdb 70bc 9d66 90bc
00000250: 02f6 7b3c ed4c 2c3c 5400 9dbc 80d0 edbc
00000260: bcb0 8b3c 8d71 b8bc 73c9 dabc 0806 5fbc
00000270: d94f 13bc 8a99 a2bc b954 7ebc b291 67bc
00000280: 474f d73b 0658 aa3b 205f da3a acb5 0f3c
00000290: 64a4 19bb da2c 8d3c 8d41 7d3c 7407 f23b
000002a0: 0695 5e3c 0162 e33b b650 a3bb 9ade ca3b
000002b0: f553 a1ba 01ab 81bc 30c6 de3b 304b 27bc
000002c0: 8823 1f3b b914 453b 8eb4 55bc 32a9 593c
000002d0: 3761 a4bc e67d 573c 9bff 68bb 790e 3c3c
000002e0: d148 7039 9ec0 41bc eb3a 78bc f74f 57bc
000002f0: e57d 83bc 972b 8fbc 4f86 8bba d9a8 0e3c
00000300: 8a47 30bb bb3d 5abc 8bef 69bb fc73 15bc
00000310: 04d6 e53a 0d0d 5f3a e6b7 d0bc 1339 f03b
00000320: 8bfb cf3b b687 b439 0cd3 01bb 8e1c ae3c
00000330: e6b0 bfbb da28 a33b da05 81bc 082d d4ba
00000340: 61db 8abb 06b8 46bc 501d 853c 2d86 183b
00000350: e02b 803c a198 1f3c f8ee 433b 7722 45bb
00000360: a9e8 4a3b 61bd 07bc 8b3f 523b ad97 f0bb
00000370: dee6 8dbb b8f8 77bb ac06 8f3c 23fc 503c
00000380: 274d e438 4792 0d3c 368f 97bb 9519 d3bb
00000390: 2c5d a33b d912 8a3c 5275 5abc 96b0 93bb
000003a0: 7c86 143c e857 d33b acfc c939 3f4c 1fbb
000003b0: f47c b13b 2135 593c d7a0 0a3c ef5b fdba
000003c0: af2e 77bc eac4 bc3b 3a75 4dbb c08c 70bb
000003d0: 3970 61bc c391 72bc 6566 523c 5046 2a3c
000003e0: e94d 3dba 565e 863c af9c 413b fb71 f4ba
000003f0: 4f9f ad3b e5e8 c5ba f17c f8bb b6bd ddbb
-0.014095386 0.0055548926 0.007180622 0.009894545 0.016290434 -0.013477994 0.015353644 -0.013926828
0.008903377 0.0031954618 0.0012873984 -0.01002666 -0.010381572 0.021075668 0.01744434 -0.0016802646
-0.031791806 -0.0010666569 0.012642665 0.0021338486 -0.017350987 0.014528759 -0.0114694955 0.016341658
-0.0030153773 -0.002969952 0.0052854447 0.016415747 0.017357266 0.0012963057 -0.017515106 0.010698952
-0.014519665 -0.0099052405 -0.018380137 0.006429713 0.0018916553 -0.009598232 0.010498054 -0.007854504
0.003629646 0.013777906 -0.023053704 0.02047256 0.026804077 0.0013582474 0.025189687 -0.024254635
0.00011744545 0.015747713 -0.0054671653 -0.002921254 0.0032229875 -0.004931626 -0.009379931 0.022417052
0.013351063 0.0009876901 -0.002688604 -0.0050660893 -0.007665148 -0.00438974 0.008210401 0.007827406
0.025118789 -0.024952075 0.008723588 -0.0018771482 -0.0012581943 -0.014794654 -0.00028708135 -0.00756093
0.0113314055 0.00022760131 0.00056547415 0.0027819646 -0.00020514189 -0.008194137 -0.012991299 -0.013922473
-0.025270583 0.023149759 0.00072726724 0.010541665 0.0075244387 0.0080909515 -0.001300686 -0.01919173
0.020247404 -0.023318527 -0.010500253 -0.0038287921 -0.007990633 0.010191162 -0.006210966 0.0119992215
-0.022421379 0.010918666 -0.019982278 -0.032395095 -0.007132837 0.0048351004 -0.031617016 -0.010391532
0.00096735416 -0.033501253 0.008071112 0.0018889495 0.012602082 0.017531836 -0.019807512 0.022251658
-0.02469289 -0.021692237 -0.016622769 -0.009913471 0.017715214 0.012811982 -0.010851961 0.0088220695
0.001821961 0.018236347 0.009678847 0.016336653 -0.023966465 0.008211532 0.03185548 -0.02486501
0.0013071364 0.006750783 -0.007883632 -0.0006864585 0.0061839875 0.025196629 -0.010629099 -0.0071211816
0.008055895 0.009631498 0.006761487 0.01314791 0.01861583 -0.0077333953 -0.0037320433 0.0020554287
0.0065620216 -0.019480394 -0.014700722 -0.017627055 0.015378477 0.010516387 -0.019165196 -0.029030085
0.017052047 -0.022515083 -0.026707387 -0.013612278 -0.008991205 -0.019848604 -0.015523129 -0.014133858
0.00657073 0.0051984815 0.001666043 0.008771341 -0.0023443932 0.017233301 0.015457523 0.0073861424
0.013585335 0.006939173 -0.0049839867 0.006191087 -0.0012308346 -0.015828611 0.006798528 -0.010210797
0.0024282653 0.0030072166 -0.013043536 0.013284968 -0.020065887 0.013152575 -0.0035552743 0.01147806
0.0002291531 -0.011825709 -0.015150766 -0.013141624 -0.016051242 -0.01747684 -0.0010644885 0.008707249
-0.002689811 -0.013320382 -0.0035695757 -0.009121891 0.0017535095 0.00085087196 -0.025478315 0.0073310225
0.006347125 0.00034433388 -0.0019809632 0.02125385 -0.0058499454 0.004979235 -0.01574986 -0.0016187737
-0.004237578 -0.012128836 0.016249329 0.0023273334 0.015645921 0.009740979 0.0029897075 -0.0030080357
0.003096143 -0.008284898 0.0032081332 -0.0073423 -0.0043305 -0.0037837457 0.017459236 0.012755427
0.00010886258 0.008640832 -0.0046252264 -0.0064422586 0.004985472 0.01685469 -0.013333635 -0.0045071347
0.009065267 0.006449688 0.00038525963 -0.002430692 0.005416507 0.013257296 0.008461199 -0.0019329767
-0.015086814 0.0057607787 -0.003135039 -0.0036704987 -0.013759666 -0.01480526 0.012841796 0.01039274
-0.00072213874 0.016402405 0.0029542854 -0.0018649691 0.005298532 -0.0015099315 -0.0075832536 -0.006767

bias f4 [80]
00000000: 4a35 873d 7861 51bd 0f70 c73c ecc5 0d3d
00000010: 2d4c 85bd dfe5 213b c661 3c3c 6a1c cdbd
00000020: 698a 4dbd f2a7 013c 239d bb3d 05ee 923c
00000030: 81e9 b6bd bb47 07bd cccc ea3d 82f4 b4bc
00000040: d52f 9d3d e4ea 423c d674 8e3d 6bea 33bd
00000050: cade e03d 7a7b ae3c ceb1 bfbc 4c78 cc3d
00000060: fc0e 563d 5dbd 90bd 1ad3 d4bb 5e97 b43d
00000070: 0e9d dd3c 6f6a 0dbd b804 98bd 7dad a5bd
00000080: a6a7 143d 9262 323d 2c52 d6bd c7a4 c6bc
00000090: 9814 243c 9c88 bebd 489f c53d 4d37 65bc
000000a0: 5621 48bd c49d 2bbb a8a7 213d 977b ad3c
000000b0: f79b da3d 0b80 7f3d 58a4 46bd a0ad 343c
000000c0: 993e c13c f06f 33bd 069e f2bd 59d3 9dbc
000000d0: 5a2a 23bd 2341 a9bd 76e1 6d3d 2945 3abd
000000e0: 8e2f cb3d 7568 993c f280 473d 0c08 723d
000000f0: bf7c cc3b aa2d 843d 2cc4 c23d da27 e4bb
00000100: 245d 0fbd 9e06 27bc 4601 37bd 6125 02bc
00000110: 4afc c13c 6ba6 1c3d 9a66 dabd 6e77 343d
00000120: df46 98bc 6f51 a3bd 9089 a5bd c67d 01bb
00000130: 504b 7a3d 5228 cfbd de0d ff3c b21d cc3d
0.06601961 -0.051118344 0.024345426 0.03461258 -0.0650867 0.0024703664 0.01149792 -0.10015185
-0.050180826 0.007913576 0.09160831 0.017935762 -0.08931256 -0.033027392 0.11464843 -0.022089247
0.07675139 0.011896823 0.069558784 -0.04392473 0.10979994 0.021299113 -0.023400214 0.09983882
0.052260384 -0.07067368 -0.006494892 0.088179335 0.027052429 -0.03452533 -0.07422775 -0.08089731
0.036292695 0.043551035 -0.10464892 -0.024248494 0.010014676 -0.093034 0.09649521 -0.0139902355
-0.048859917 -0.0026186565 0.03946653 0.021177096 0.10674279 0.06237797 -0.048496574 0.011027724
0.02358942 -0.043807924 -0.11846547 -0.019265817 -0.03983531 -0.08264377 0.058076344 -0.045476113
0.0992118 0.018726567 0.048706956 0.059089705 0.006240457 0.06454022 0.09510073 -0.0069627585
-0.035000935 -0.010194449 -0.04467895 -0.007943482 0.023679871 0.038244646 -0.10664101 0.04405921
-0.018588481 -0.079745166 -0.080828786 -0.0019758805 0.06110698 -0.10115112 0.031134542 0.099666014

weight f4 [80, 3, 1]
00000000: 73ee 36bc be9b 0e3b 3fda 95bc 6f21 ad3a
00000010: 842e 013c 7bf2 853b 2eb8 b339 b86c 96bc
00000020: d5d6 d73b 0a73 573c c7ad 4cbb 7ee7 55bb
00000030: 2473 c1b9 bf17 d73a 841c f738 4cb4 3dbb
00000040: 9b59 693b c5cf 653b 9d69 4b3b ca8e 7dbc
00000050: a1b8 5c3c 381d 25ba 0dfa 1fbc 3b36 14bc
00000060: 9b92 423b 2157 73bc c368 673c cb47 533b
00000070: d84f 9abc 6132 0dbc 3c79 053b 85ba c13a
00000080: 80e2 13bb eef0 b739 9f57 b43c b705 263a
00000090: 9a47 65bc ee84 853c 8ed2 78bc 6d79 d2b9
000000a0: 52b6 5fbc d100 833c 4d73 6f3c 79c6 a3bb
000000b0: 03d1 b1bc 62f8 ba3a 95d7 ebbc 3eb5 5f3c
000000c0: 2f2d 153c a1dc c3bc 6bb6 933a 0910 c63a
000000d0: 5421 fcbb 2582 e33b 0e2b c5bb a25f ce3b
000000e0: 2f60 b1bb 46e1 e3bb 6241 20bc 3680 063c
000000f0: ed2e 3a3b 16a9 0fbc 9a48 623c 262a b0bb
00000100: 2c25 2e3c cb47 a639 24cb 553a 0672 913a
00000110: 394f 80bc 0416 67ba 73eb c7bb c889 d63b
00000120: 8145 863b dabe 023c f43b 90b9 a246 4c3a
00000130: 4681 76bb f705 873b 5dab 14bb 4381 a939
00000140: 9263 66bc 2174 f8bb 4876 013c 9341 543b
00000150: f910 b23b f5e3 593c 8fca fd3a d8f9 e23b
00000160: 6fd2 583a a7b1 a4bc 72d9 3b3c 11e8 a0bb
00000170: 5471 cd3c 05b1 7cbc 913e b13c e81c e43b
00000180: 5fc3 19bc 45e4 f2bb 7ad4 243c 8392 4cbb
00000190: 1d8c d4bb 8475 793c 3e6f 3dbc ab01 b2bc
000001a0: 1a80 a73c 1fc5 a4bc 1340 c83a 1319 a0bc
000001b0: 7dc4 30bb 4d4d c63b 2c9b 94bc 5d0c a1bc
000001c0: cba2 803b 29ef a13b cae0 193c 5adc a7bc
000001d0: d826 7c3b 89a9 0f3b 30a6 593c 0d1f 5dbc
000001e0: 26a2 00bc ed90 4abc 8c79 b0bb bd85 b2bc
000001f0: 46ec 2b3c 97f3 913c d08c a73b 0a81 bfbb
00000200: bb07 023d eb0b ba3a be07 153c c682 a1bc
00000210: a854 3abc caae 143c e9ea 24bc b007 03bd
00000220: e0f2 1bbc 260e f53a 9189 e93b 8f4b 573c
00000230: b279 babc e69f 7b3c 32c1 143c 4e30 03bb
00000240: d0e7 a6bb 973b 2d3c 5fa7 dcbb 0b62 6f3c
00000250: df43 863c 8851 96ba d06b 6fba 76ac 4fba
00000260: 8424 3a3b 130f 53bc 1b8d 573c 3ddf 06bc
00000270: 2776 5abc 7844 883b 8bb3 20bc 7af8 e73b
00000280: a4ab 6eb9 3f67 613c 2074 cebb 08e7 723b
00000290: edd3 1abb 9a89 7a3c 72d6 ebba 6916 fabb
000002a0: b730 483b a86b c1ba b499 ab3b 28c1 d4ba
000002b0: 99c4 8abb ae34 4f3c 0a74 ddbb b79a c3bc
000002c0: fcbb 003b 8951 21bb 2c7c b33b 4a8c 91bc
000002d0: 4c97 9f3c 0de5 eb3b 7142 dcba c489 1a3c
000002e0: d683 f23a d3dc 82bb e6c7 28bc c1c6 f0bb
000002f0: a8f8 d0bb d3e7 5bbb 141c b3bb 6059 afbb
00000300: 4772 edbb c4e2 793b 493d b5bc 93d9 27bc
00000310: bf53 85bb 4c69 aabb a9cc 24bb 37bf 27b8
00000320: e3b2 a2bc d094 fbb9 41c5 ac3c f9c5 56bc
00000330: 029e 043c 8f68 c03c b91e d6bc 0902 823b
00000340: 6260 c3bb 45b9 b7bc 137d 143c e427 f23b
00000350: f272 e4bc ba09 1abc 2065 87bb 0972 01bc
00000360: 01cd 833c 3304 f23b cf72 a3bb 59e9 86bc
00000370: 58c7 893c 1f03 4139 2aa6 12bc 9372 d53a
00000380: 9bfe 2e3b 428a b7bb 16a7 23bc 69e4 28bb
00000390: f77d 96bc 4cac 333c 5275 873a 8d7d 08bc
000003a0: 739f 77bc d452 2abb aadd 563b 215b 5fbc
000003b0: f7ee aebb 6b04 a93b d2c6 253c 4440 d3bb
-0.011165249 0.002176031 -0.018292544 0.0013208817 0.007884625 0.004087744 0.00034278765 -0.018362388
0.0065868893 0.013149986 -0.003123151 -0.00326392 -0.00036897615 0.0016410275 0.00011783189 -0.0028946577
0.0035606388 0.0035066467 0.0031038292 -0.015475938 0.013471753 -0.00062986044 -0.009764207 -0.009046133
0.0029689434 -0.014852316 0.014124098 0.0032238837 -0.0188369 -0.008617968 0.002036645 0.0014780319
-0.0022565424 0.00035083987 0.022014437 0.0006333249 -0.013994122 0.016298737 -0.015186919 -0.0004014479
-0.013654308 0.0159916 0.014614892 -0.004998025 -0.02170611 0.0014264698 -0.028789321 0.013654051
0.009105011 -0.023908915 0.0011269575 0.001511098 -0.0076944027 0.0069430047 -0.0060170954 0.0062980214
-0.0054130773 -0.006954345 -0.0097812135 0.008209279 0.0028409318 -0.008768341 0.013811255 -0.0053761182
0.01062898 0.00031715477 0.00081555755 0.0011096604 -0.015662776 -0.0008815231 -0.006101066 0.0065471865
0.004097641 0.007980073 -0.0002751049 0.00077925075 -0.0037613674 0.004120584 -0.0022685148 0.000323305
-0.014061825 -0.007582203 0.007901736 0.0032387718 0.005434152 0.013298978 0.0019362735 0.0069267564
0.0008271103 -0.020104242 0.011465417 -0.004910477 0.025078453 -0.015423064 0.02163628 0.0069614537
-0.009384959 -0.0074124658 0.010060424 -0.0031215257 -0.0064864294 0.015225772 -0.011562167 -0.021729311
0.020446826 -0.020113526 0.0015277885 -0.019543206 -0.0026972585 0.0060516954 -0.018140398 -0.019659216
0.0039256564 0.00494184 0.009391973 -0.020490814 0.00384753 0.002192112 0.013284251 -0.013496173
-0.007851159 -0.012363655 -0.0053855833 -0.021792287 0.010493344 0.017816348 0.0051132217 -0.00584424
0.031745654 0.0014194226 0.009096084 -0.019715678 -0.011372723 0.009074876 -0.010065773 -0.031989753
-0.009518355 0.0018696233 0.007126995 0.013140573 -0.022763107 0.015357947 0.0090792645 -0.0020017806
-0.005093552 0.010573289 -0.0067338194 0.014610778 0.016389785 -0.001146839 -0.0009133192 -0.0007922122
0.0028403113 -0.012882012 0.013156201 -0.008231935 -0.013333834 0.0041585527 -0.009808431 0.0070791813
-0.0002276139 0.013757526 -0.0063004643 0.0037063975 -0.0023624853 0.015291596 -0.0017992987 -0.007632066
0.0030546614 -0.0014756816 0.0052368287 -0.0016231881 -0.004234862 0.012646837 -0.0067582177 -0.023877485
0.0019643297 -0.002461525 0.005477449 -0.01776709 0.019481324 0.007198936 -0.0016804469 0.00943226
0.0018502425 -0.0039936095 -0.010301566 -0.007347912 -0.0063772984 -0.0033554926 -0.0054659937 -0.0053512305
-0.007246289 0.0038129548 -0.02212395 -0.010244745 -0.004068821 -0.0052005406 -0.00251464 -3.9993985e-05
-0.01986069 -0.00047985325 0.021090152 -0.013108724 0.008094313 0.023487357 -0.026137697 0.0039675278
-0.0059624175 -0.02242721 0.009063023 0.0073900092 -0.027886841 -0.009401733 -0.004131928 -0.007900723
0.016088964 0.0073857545 -0.0049880515 -0.01646869 0.016818687 0.00018407077 -0.008950749 0.0016284756
0.002670205 -0.0056011984 -0.009988567 -0.0025770909 -0.018370612 0.010966372 0.0010334647 -0.008330715
-0.015113699 -0.002598931 0.003278593 -0.013632567 -0.0053385454 0.0051579974 0.010118203 -0.00644687

bias f4 [80]
00000000: f760 763e 6711 9c3d fb50 eebe 90fc d3be
00000010: 529d 903e 3db5 91be 22d0 c83e 6c14 c6be
00000020: 518b cb3e 715f 97be 6100 6f3e af61 293e
00000030: 23db e4be eb55 97be 0429 0bbe 92c3 cebb
00000040: 783f 8e3e 6fb9 6bbe be2d a63d 9f7d 96be
00000050: 4a87 8cbe c551 c03e 2eb9 22be 36ea fbbe
00000060: 9420 af3c 453a 9fbd 47a7 293e 5dac 92be
00000070: 1e24 c53c 9be6 8ebe 2977 b3be bfaf 043e
00000080: c5e5 053e 7d54 cc3d 2a04 073f 1680 593d
00000090: a3f0 a53c e3ff 88bd a8db 0ebf 704e 663e
000000a0: 32c8 e43e 7da0 053d 5d03 e7be 60cc 033f
000000b0: 8a2d 053e 5b86 d53e 487e 483e 0ec1 a93d
000000c0: bdff 2ebe 00a1 f53d 1449 203e 047a 2fbd
000000d0: 7b1f b7be 5714 8ebe b1ce 02bf 6fcf 5bbe
000000e0: 38a7 cebd ae2a e43e a68d 9dbe e3a5 0abf
000000f0: 05de 813e a80e fb3e 70ec dfbe 5b85 a1bb
00000100: 1465 393e 90b1 9f3e 4992 c4bd 7a9a 853e
00000110: 3617 de3e 544b a63e b6df 903e 8429 b43e
00000120: 1b6e fdbe 8ed2 f93d b125 cb3e c219 eabe
00000130: a902 00bf 3efe f4be 344e 363e 94e5 083f
0.24060427 0.07620507 -0.46546158 -0.41403627 0.28245026 -0.28458586 0.39221293 -0.38687456
0.39754727 -0.29565004 0.23339988 0.1654117 -0.44698438 -0.29557738 -0.13589865 -0.006309935
0.27782798 -0.23019956 0.081141934 -0.29392716 -0.27446967 0.37562385 -0.15890953 -0.49202126
0.02137784 -0.07774786 0.16567717 -0.28647128 0.024065074 -0.27910313 -0.3505185 0.12957667
0.13075931 0.09977052 0.5274073 0.053100668 0.020256346 -0.066894315 -0.5580392 0.22490859
0.44683987 0.032623757 -0.45119753 0.51483727 0.13005653 0.41704068 0.19579422 0.082887754
-0.17089744 0.11993599 0.15652877 -0.042840973 -0.35766205 -0.27749893 -0.51096636 -0.21465848
-0.10090488 0.44563812 -0.30772132 -0.54159373 0.253647 0.4903462 -0.43735075 -0.0049292273
0.18104964 0.31190157 -0.09598214 0.2609442 0.43377084 0.32479346 0.28295678 0.35187924
-0.49498066 0.12198363 0.39677194 -0.45722777 -0.5000406 -0.4785022 0.1780327 0.5347531

weight f4 [80, 80, 2]
00000000: 37ea 14bc 8581 95bb 0ab3 8fbc 0999 cfbb
00000010: 1671 46bb e64b 3e3c 4d2f 96bb ed74 823c
00000020: 4cbc a4bb a447 0a3c ef6d 47bc 2703 163c
00000030: 7233 f7ba 7ccc b0bb 8782 ba3b 5445 323c
00000040: 44b0 93bb 3897 7c3c 558f 2c3c 1108 01ba
00000050: b27c 87bc 80a0 66bb d338 7bbc 0fe1 73bb
00000060: 8962 05bc 86f1 6e3a d6b8 8d3c 92c4 b23b
00000070: 2566 a9bb f0f6 b8bb e37c 7cbc 96bb d4ba
00000080: be86 fbbb 03f0 adbc 0f74 38bb 5127 a73c
00000090: 275c 90bc 8f24 08bb d907 503b e1ba 173b
000000a0: 1f0e 10bb c5e0 10ba 68ed ac3c 6630 163c
000000b0: 2754 583c 82aa 633c 5c3c aa39 3ae7 babb
000000c0: a6dc 8539 3a4b bfbb e45e 443c 9526 803b
000000d0: 7363 973a ac6c 05bc a4fd 933b e26b 7dbb
000000e0: 3544 4bbc 8ec1 213c 6470 d2bb d19b 0b3c
000000f0: 84e3 48bb abde 2f3c 6ca7 9a3c 3585 ccbb
00000100: 6b62 6dbc 72fe c33b 5d5b 5d3c f7ca 1aba
00000110: 0675 913c a9b3 8fbb 2bb5 523c a839 95ba
00000120: b305 0abc fabd d63b 443d 62bc 68ed 293b
00000130: 9181 673c 8261 1c3a ce7f d3bb 510e 84bc
00000140: 0133 eb3b bded b5bb e249 683c eb77 1fbb
00000150: fe94 2a3c b57b 56bb fa74 4a3c d230 313c
00000160: 4a8c 573c 136d 12bc 8acc 56bc 593c 2f3b
00000170: d211 c4bb efda 21bc c6d5 0d3c eb2d 9cbb
00000180: 9517 453c 7301 41b9 287a 093b 5af4 e9bb
00000190: d6c2 4b3c 80dd 143c 2aa1 67b9 ec26 1cbc
000001a0: 3b50 423c ab78 22bb 2e5c abbb a869 803b
000001b0: 1824 923c 6459 cabb 2f8a a83b e303 80bb
000001c0: df4c 0ebc 03a4 f83a 767a febb 9e90 943a
000001d0: 4312 48bc 52a8 a43c d2b6 18bc 42b2 ee3b
000001e0: 1b0a 5abb 1ccc 573b 44ba 9a3c b20a a7bc
000001f0: 8a1c 503c 518a 08bc 2727 a3bc 007c 37bc
00000200: 9a7a 4fbc c93c a63b 32e2 ddbb 24c8 4cbc
00000210: ce28 0cbc fd7f d63a 5bcf 523c a373 8f3a
00000220: 3c77 ad3b 7f80 baba c86d 17bc af86 9ebc
00000230: ff2b 23bc be9b 26bc 58c1 21bc b797 0ebc
00000240: 4a85 133c fc30 6a3c 2e4d a8bb 5106 81bb
00000250: 1eba 6f3c 1a68 34bb cd52 40bb 4262 04bc
00000260: ba20 21bc 3b73 94bb b1c3 a0b8 70c5 cab9
00000270: 5bdc 953b b544 2a3c 94bc 3cbb a61b 823b
00000280: e797 553c 6fa3 d8bc f3b7 503c 38ac 15bc
00000290: 68ad 303c f19d 4cbc d6cb 983b fb76 9a3c
000002a0: f3e5 eabb 46f8 16bc 6638 033c 3959 293c
000002b0: a30d 2ab9 14d4 b8bc 92ca 52bb b07c 09bc
000002c0: 4cdf b73b 1c56 76ba 087a b6bb 36d7 f33b
000002d0: 7dca f6bb c9f2 303c fa48 0ebc 24c1 1abc
000002e0: ac3c 84bc 8a36 62bc d196 a839 6dcf 693c
000002f0: 983f bb3b 7946 debb f822 423c f0c7 27bc
00000300: 6790 793b 1b65 01bc 6649 82bb e773 c23c
00000310: 36a9 1ebb e001 10bc 8aff 06ba 5c85 3d3c
00000320: 6c54 b8bb 4a7a 5bbc e170 f6bb 45cd 3439
00000330: b8b3 80ba e7b4 71bc f899 e8bb 1a83 3d3b
00000340: 6f16 a3bc d6bf f8ba 38ae be3b 10be 193c
00000350: 8c8f d73a a790 98ba 10db acbb be84 763c
00000360: 9ac3 33bc e340 c3bb 7b58 b8bb f09c 653b
00000370: fb64 2ab9 ef6f 8ebc d16b 923b 9030 a93a
00000380: 576c ba3c 4b0a 86bc 1c6b 013a 4498 963c
00000390: 91ea 5ebc 954d 5e3c 44a7 233c 09b0 04bb
000003a0: 319d 06bb 0cb0 85bb 8d02 b0bb 84fc 633b
000003b0: 7fa2 74b8 de85 fabb fc9c fd3b 4c23 573c
000003c0: ea75 88bc eec2 323c da98 db3b d36a adbb
000003d0: 5d1c 643c cb59 23bb 1d8e 2a3c 6587 f4bc
000003e0: 17cb 363c 4ab8 37bc 2011 903b df56 24bc
000003f0: 753b f73b 2405 4c3c 3e63 77bc 0375 24bc
-0.009089044 -0.004562559 -0.017541427 -0.006335382 -0.0030279807 0.011614775 -0.0045832754 0.015924895
-0.0050273295 0.008439932 -0.012172206 0.009156025 -0.0018859936 -0.00539547 0.0056918296 0.010880787
-0.0045070965 0.015416913 0.01053222 -0.00049221615 -0.016538952 -0.003519088 -0.015333372 -0.0037213003
-0.008141168 0.0009114969 0.01730005 0.005455562 -0.0051696473 -0.0056446716 -0.015410635 -0.0016230221
-0.0076759746 -0.02123261 -0.0028145348 0.02040449 -0.017622067 -0.0020773744 0.0031742959 0.002315216
-0.0021981073 -0.00055266573 0.021109298 0.0091668125 0.013203657 0.013895633 0.00032469898 -0.005703834
0.00025532133 -0.005837825 0.011985514 0.0039108493 0.0011550024 -0.008143585 0.0045163203 -0.003866904
-0.012406399 0.009872807 -0.0064220894 0.008521036 -0.0030653188 0.0107342405 0.018878661 -0.0062414655
-0.014488797 0.00598126 0.013510552 -0.0005904878 0.017755996 -0.004385431 0.012860577 -0.0011384981
-0.00842421 0.0065534087 -0.013808552 0.0025928859 0.014130012 0.00059654575 -0.0064544445 -0.016120108
0.007177711 -0.0055520223 0.014177771 -0.0024332951 0.010411499 -0.0032727544 0.012356991 0.010814862
0.013156006 -0.008937138 -0.013110289 0.002673885 -0.0059835697 -0.009878858 0.008656925 -0.004766216
0.012029548 -0.00018406454 0.0020977352 -0.0071397247 0.012436589 0.009086013 -0.00022089915 -0.009530764
0.011859949 -0.0024791162 -0.0052294945 0.003918845 0.017839476 -0.006175207 0.005143426 -0.0039067133
-0.00868532 0.0018969778 -0.0077660633 0.0011334603 -0.012211385 0.020099793 -0.0093209315 0.0072844336
-0.0033270183 0.0032928055 0.018887646 -0.020390842 0.012702117 -0.008333758 -0.01991613 -0.0111989975
-0.012663508 0.005073164 -0.0067713493 -0.012498889 -0.0085546505 0.0016365048 0.01286682 0.0010944497
0.005293755 -0.0014228969 -0.0092424825 -0.019351332 -0.00995922 -0.010168968 -0.009872757 -0.008703164
0.009003947 0.014293905 -0.0051361537 -0.0039375206 0.014631776 -0.002752787 -0.0029346228 -0.008080067
-0.009834463 -0.004530338 -7.665845e-05 -0.00038675545 0.0045733876 0.010392358 -0.0028798925 0.003970581
0.013036705 -0.026445119 0.012739169 -0.009135298 0.010783531 -0.012488828 0.004662971 0.018855562
-0.0071685254 -0.009214466 0.008009052 0.010336214 -0.00016217543 -0.022562064 -0.0032164198 -0.008391544
0.005611336 -0.00093969866 -0.0055687465 0.0074414266 -0.0075314627 0.010800072 -0.008684391 -0.009445462
-0.016142212 -0.013806948 0.00032155824 0.014270646 0.005714368 -0.0067833033 0.0118491575 -0.01024054
0.0038080455 -0.007897641 -0.003976035 0.023736907 -0.0024209744 -0.00878951 -0.00051497726 0.01156744
-0.0056252982 -0.013395855 -0.0075207804 0.00017242607 -0.0009819185 -0.014752603 -0.0070984326 0.0028917254
-0.019908158 -0.001897807 0.0058191083 0.009383693 0.0016445979 -0.001163979 -0.0052751377 0.015046297
-0.010971928 -0.005958663 -0.005625782 0.003503617 -0.00016250082 -0.017387358 0.004468419 0.001290815
0.022756739 -0.01636233 0.000493692 0.018383153 -0.01360573 0.013568302 0.00998861 -0.0020246527
-0.002054047 -0.0040798243 -0.005371398 0.0034787962 -5.832547e-05 -0.0076453527 0.0077396613 0.013130974
-0.016657788 0.010910733 0.006701571 -0.0052922755 0.013922778 -0.0024925347 0.010409859 -0.029849717
0.011156819 -0.0112133715 0.0043965727 -0.010030477 0.0075449296 0.0124523975 -0.015099345 -0.010037663

bias f4 [80]
00000000: 6c59 8d3d a310 873c 15b7 c43c 4047 83bd
00000010: cf25 ad3b cec7 563d 180c 3cbc cee4 4d3c
00000020: 7e32 2dbd 57e2 2b3d 4643 0fbd 8de7 e93c
00000030: 23fb 5abd 5324 bd3b 9dac 9f3d a05f 11bd
00000040: 62f5 5abd 16e0 1f3d b746 6bbd 4e9c 333c
00000050: 80be 71bd 5aae 57bd 302b 8abd 340a af3c
00000060: 98bb 7d3b 85f8 6abd 835c 8ebd 64d9 913c
00000070: 3792 493d ea27 f9bc 6440 8b3c e8b2 863d
00000080: 7526 7a3d e735 4b3d 6a98 f63c f054 233d
00000090: c727 91bd 3337 82bd fe38 3fbd e77c 7f3d
000000a0: ae04 933d e444 933d a07e a6bc d6ca 93bd
000000b0: 1c57 67bd 030e 5b3d b86e a43c ee60 8f3d
000000c0: f06c c63c 3fde fcbc a056 96bd 2d0a c7bc
000000d0: 920b 043d b782 f63b eaea 2abd 80eb 51bb
000000e0: 497f 3bbd e7a8 6b3c 6fdf 6cbd ef67 41bc
000000f0: 5513 a43c ef90 37bd 95b6 a1bc 9b2e 67bd
00000100: 2037 41b9 3093 b83c 9c2a 08bd bc71 363d
00000110: 9ee1 4abd 07d0 323d 82d8 153d a625 d8bc
00000120: 3dd9 243d 710d 673d 9279 01bd 96cc 563c
00000130: e74e 9d3d 5fc2 6c3d 4cdd 553b 6ce8 573d
0.069018215 0.016487425 0.024013082 -0.06410074 0.005284048 0.052436642 -0.011477493 0.012566758
-0.04228448 0.0419639 -0.034976266 0.028552795 -0.05346216 0.0057721524 0.07796595 -0.035491586
-0.05345667 0.039032064 -0.057440486 0.010962559 -0.059019566 -0.05265651 -0.067465186 0.02136717
0.003871655 -0.057365913 -0.06951239 0.017803855 0.049211707 -0.03041454 0.016998477 0.065770924
0.06107183 0.049611952 0.030101974 0.039875925 -0.07087665 -0.06358185 -0.04668521 0.062374976
0.07178627 0.07190874 -0.020324051 -0.07216422 -0.05647956 0.05348016 0.020072326 0.0700091
0.024221867 -0.030867694 -0.07340741 -0.024296844 0.032237597 0.0075229066 -0.041727938 -0.0032031238
-0.045775685 0.014383531 -0.05783027 -0.011804565 0.02002875 -0.044815954 -0.019740382 -0.05644093
-0.0001842645 0.022531122 -0.03324376 0.04454206 -0.04953157 0.04365542 0.03658343 -0.02638514
0.040246237 0.056409303 -0.03161008 0.0131103005 0.07681065 0.057802554 0.0032633124 0.05271189

weight f4 [80, 80, 2]
00000000: 2f32 533a 6d8f 183b fc06 de3b b97b a4bc
00000010: f529 1c3c f571 e73b e206 983c f070 be3b
00000020: 22ec 22bc 2ae2 953b 3f65 583b d6fd 56bb
00000030: 11e6 003b 4a23 eabb 249b 883c 2cfa a1bb
00000040: 1916 2abc 9c4c 143c e14a 9339 e515 71bb
00000050: a79f da3b c8ef b5bb 4dc9 a9b9 bfa6 cb3b
00000060: 0292 603b 6164 19bc 3b9e 993b 5f5d c23b
00000070: 43a2 35ba 3544 a33b 9f61 a1bc 3af0 a03b
00000080: c881 34ba be21 bb3c ba1a 653c 4b7f b73c
00000090: 0c11 573c dfad a2bb 297b 9cbb 9287 9e3c
000000a0: dc1e a03b 9438 dbbb 17cb ab3c 11a3 693b
000000b0: 89d7 2bbb 5267 0dbc cefa e33b 0b4d aa3b
000000c0: 8a51 803a a7e1 873b 0466 243b 45aa 32bc
000000d0: b03c 16bb b833 f63b bb9e 2e3b c21c 363b
000000e0: 8852 513b 421f 48bc 8aec ec38 c1eb dd3a
000000f0: 9d37 7d3c f71d 783b fb1a 053b dae5 afbb
00000100: 69e4 c7ba d066 2f3c 7e93 933b 3243 5fbb
00000110: 67cb 79bb 8f5b 0b3c 3cc9 54bb de13 783c
00000120: a0ec bbba 009a 4dbc 5117 813c 8f27 923a
00000130: ba7d 0e3b ed36 babc 0937 123c 2547 cf3b
00000140: 6575 79bc 8f9e 09bc 450c 903c c97d b73b
00000150: f3e1 a43b 74a9 2f3b 3560 4ebc 8f86 37bb
00000160: cf56 963c 9a6e a4bb 6375 e1bb 643a ed3c
00000170: ba56 88bc 6527 3a3b 9f8e 04ba e0ed a1bc
00000180: 6e3b f1bb ab6e 2abb 8ad7 fa3b 30de 09bc
00000190: 0050 2fbb fc18 34bc 44ae 5a3c 678c 1bbc
000001a0: efbe 15bb f2d8 b1bc dad8 95bc 1c13 c8bb
000001b0: e83d e73b f98e fc3b 3294 d53b a304 1d3c
000001c0: 71fc 61bc 6094 7f3b a852 d5bb b3cd 283c
000001d0: 1254 b33b a7c3 273b d1d8 33ba 23e6 563b
000001e0: 4acb a4bc d28a cfbb 60fe c2bb 0b12 50bc
000001f0: 4956 2f3c e3e7 f1bb a6ae 943b 73e9 cbbb
00000200: c88b a5bb 8882 98bc 48e4 caba 682c 1c3b
00000210: dd98 ed3b 40c0 67ba e905 11bc 469e 923a
00000220: 1fe0 db3b cff5 903c 0ecb 633b d3f0 2139
00000230: 08d8 1cbb ecc7 a43c e04c a63b fdc8 2abc
00000240: c740 543c 4705 77bc 95e4 7bbc def8 49bb
00000250: 7312 ae3b 1d38 773c f025 3abc 6f0f f63b
00000260: 20f2 e0bc f12f 65bb e227 0fbc 87ce f8bb
00000270: 8cb7 1d3c 001c b0bb e97f cc3b 5de5 4b38
00000280: 1e2f f1bb 8587 34bc 6a24 07bc 0816 e43a
00000290: 3bfd 45ba c10e 3abc 8186 d4bb e651 733c
000002a0: e60e f4bb a145 afbc 454e aebc 8f6c 39ba
000002b0: 4568 b5b9 9956 8dbc 30f4 acbb d19d 0e3c
000002c0: b405 413b a100 383b 07dd 9b3b d00c 2bbc
000002d0: 17a4 093c 8cf4 893a 8013 de3a 0b19 9f3b
000002e0: d841 35bc b10c d93b e740 76bb b111 343c
000002f0: 6e90 aa3a ea2c e73b 0517 1abc 49d4 c6bb
00000300: 10e2 77bb 7a52 4bbc eb6c ebba 52ae 56ba
00000310: 83b8 35bc d496 bc3b 7b7d 8f3c 4d64 c63b
00000320: 425f de3a 4e3c 6b3c 222e c9ba e0f5 fabb
00000330: 2b33 423c 65e1 193c 0787 83bc 3d6a 3cbc
00000340: 4016 f33b cfe7 58bc 89db 8cbc c9ba 0e3c
00000350: 7ef0 dcbb e7f8 4abc a954 37bc 720f 86ba
00000360: f8a6 50bc 0b75 c5bb c75d 5cbb e688 f5bb
00000370: 429f aa3c 8ee5 9b3b c931 cfba 7fdf 93bc
00000380: 6282 573b fc99 84bc b257 c9bb 1d8d b2bb
00000390: 6cf9 b1bb f38c 4dbc c1fd 443c f561 0abb
000003a0: 45b1 ebbb 8747 ac3b b0d3 2a3c 5340 aebc
000003b0: 6581 b13c e2f9 763a c1ee c2bb f6c4 ebbb
000003c0: 645f adbb 220c 0f3b 1309 e2bb 6a46 933a
000003d0: 7f46 653c cf4f 403c 4210 143c 5e9d 413c
000003e0: 8f34 883a 35bb 703c 66dc 203c d004 4abb
000003f0: 58e0 98ba fd80 6d3c ecaf 9bba 63f0 42bc
0.0008056489 0.0023278848 0.006775735 -0.020078527 0.009531488 0.0070631453 0.01855797 0.005811803
-0.009943994 0.00457408 0.0033019332 -0.0032805107 0.001966838 -0.00714532 0.01667554 -0.004943153
-0.010381245 0.009051468 0.00028093814 -0.0036786732 0.006671864 -0.005552266 -0.00032384173 0.006214946
0.0034266715 -0.009362311 0.004688052 0.005931541 -0.0006928781 0.004982496 -0.01969987 0.0049114497
-0.0006885794 0.022843238 0.013983423 0.022399565 0.013126623 -0.0049645747 -0.004775424 0.019351754
0.004886491 -0.0066900942 0.020970864 0.0035650174 -0.0026220998 -0.0086305905 0.0069573885 0.0051971725
0.0009789926 0.004146773 0.002508522 -0.010904853 -0.0022924356 0.0075134896 0.0026644904 0.0027788137
0.0031940062 -0.012214484 0.00011297416 0.0016931222 0.015455154 0.0037859657 0.002031027 -0.0053679766
-0.0015250567 0.010705665 0.0045036664 -0.003406715 -0.0038115622 0.008505716 -0.0032468578 0.015141455
-0.0014337488 -0.0125489235 0.015758188 0.0011150705 0.002174242 -0.022731269 0.008924254 0.0063256198
-0.015225743 -0.00839962 0.017583976 0.0055997116 0.005031818 0.0026803883 -0.01259618 -0.0028003787
0.01835194 -0.0050180675 -0.0068804487 0.028958507 -0.016642917 0.0028404829 -0.00050566526 -0.019766748
-0.007361821 -0.0026005905 0.007655089 -0.00841479 -0.0026750565 -0.010992285 0.013347212 -0.009493924
-0.00228494 -0.021709893 -0.01829188 -0.0061057936 0.0070569403 0.0077074734 0.0065179104 0.009583625
-0.013793097 0.003899835 -0.0065100975 0.010302949 0.0054726684 0.0025598796 -0.0006860616 0.003279098
-0.020116467 -0.0063336873 -0.005950734 -0.012699614 0.010701724 -0.0073823794 0.0045374213 -0.0062228977
-0.0050520636 -0.01861693 -0.001547941 0.002383018 0.0072508887 -0.0008840598 -0.008851507 0.0011186085
0.006710067 0.017695336 0.0034758481 0.0001544387 -0.0023932476 0.020114861 0.005075082 -0.010423896
0.012954897 -0.015076942 -0.015374322 -0.0030818502 0.005312258 0.015089062 -0.011361584 0.007509164
-0.027459204 -0.0034971202 -0.008737536 -0.0075929794 0.0096262805 -0.0053744316 0.006240834 4.8612583e-05
-0.007360353 -0.0110186385 -0.008248428 0.0017401585 -0.0007552688 -0.011356057 -0.0064857607 0.014851069
-0.007448065 -0.021395506 -0.021277556 -0.00070733664 -0.00034600697 -0.017253207 -0.005278133 0.008704619
0.0029452862 0.0028076547 0.004756573 -0.010440066 0.0084009385 0.0010525151 0.0016943067 0.0048552803
-0.011063062 0.0066238274 -0.0037575306 0.010990546 0.0013013014 0.0070549147 -0.009404902 -0.006067787
-0.0037823953 -0.012409801 -0.0017961537 -0.0008189428 -0.011091354 0.005755285 0.017515888 0.0060544373
0.0016965645 0.0143576395 -0.0015348832 -0.007658705 0.01185302 0.009392117 -0.016055597 -0.011499939
0.007418424 -0.013238861 -0.017194526 0.008711525 -0.006742536 -0.0123884445 -0.011189618 -0.0010227992
-0.012735121 -0.0060259155 -0.0033625232 -0.007493126 0.020827893 0.0047575897 -0.0015807684 -0.018050907
0.003288411 -0.016186707 -0.0061444873 -0.005448951 -0.0054313447 -0.012545812 0.01202339 -0.0021115516
-0.007192763 0.00525755 0.010426447 -0.021270907 0.021668145 0.0009421391 -0.005948872 -0.0071951104
-0.0052909125 0.00218273 -0.0068980544 0.0011236195 0.013993858 0.011737778 0.009037079 0.011817304
0.001039164 0.014693071 0.009818172 -0.0030825622 -0.0011663539 0.014496085 -0.001187799 -0.011898133

bias f4 [80]
00000000: e7d4 153c 48e1 75bc 2f36 a7b9 a78b 24bd
00000010: 9161 17bd f80b 80bd fa1e 5a3d 7dee 293d
00000020: 9551 19bd a5cc 4b3c 5f2a 01bd da7e 403d
00000030: fe3f 8cbc fdca e33c 06b6 42bd 4603 6d3d
00000040: 9d64 9fbb c73c 10bc b72c f5bc ca53 47ba
00000050: 5d31 13bc 7adb 18bd 0786 003d 9926 b53d
00000060: 9975 563b b0a0 aa3c 7078 c83c f622 95bd
00000070: 227c 963d c46d ed3c 115a 323d 2cc6 febc
00000080: 0039 cdbd 1563 50bd a00f c23c 293d 41bd
00000090: b9c3 02bd a61c ccba 7aa1 d9bc a509 81bd
000000a0: 247d 3d3d 8c8a 98ba 1c64 9d3d c089 713d
000000b0: 2caf 8a3b e1e4 50bd 3514 bebc 25cb 53bc
000000c0: 3bd9 9fbd 9711 d13c 5f3e d1bd d25b 903d
000000d0: 5871 1cb9 fc56 473c 454c 583d f261 233d
000000e0: 509b b6bc 3395 79bd 1ad3 4b3d 2dfd 10bc
000000f0: 19ec 40bd 3e3c 24b9 36f5 58bd edb5 94bd
00000100: bc60 98bd 1191 dcbd 1049 62bd 9a92 863d
00000110: e671 ce3c 5b4c b4bd f350 40bd 8e0d b23c
00000120: 6f81 073d 7525 8a3d df91 2939 f842 ebbc
00000130: a067 b7bc 286a 4fbd 6bda 71bd 24c6 353d
0.009144998 -0.0150073245 -0.00031893092 -0.040172245 -0.03695828 -0.06252283 0.053252198 0.041487206
-0.03743132 0.012438928 -0.03153455 0.046995975 -0.017120358 0.027806753 -0.047536872 0.05786445
-0.004864289 -0.008803553 -0.029928548 -0.0007603733 -0.008983937 -0.037318684 0.03137782 0.088452525
0.0032723902 0.020828575 0.024471492 -0.07282059 0.07347895 0.028983004 0.043542925 -0.031100355
-0.100206375 -0.050875742 0.023689091 -0.047177467 -0.031924937 -0.0015572503 -0.026566256 -0.06300668
0.04626192 -0.001163797 0.0768511 0.05896926 0.004232308 -0.050999526 -0.023202995 -0.012926851
-0.07805105 0.025521083 -0.102169745 0.07048763 -0.00014919543 0.012166735 0.05280711 0.03988833
-0.022290856 -0.060933303 0.04976187 -0.008849424 -0.04710016 -0.00015662701 -0.052968226 -0.07261262
-0.074403256 -0.10769857 -0.05524546 0.06570931 0.025200795 -0.08803626 -0.0469522 0.021734979
0.033082422 0.067454256 0.00016171437 -0.028718457 -0.02238828 -0.050638348 -0.05904619 0.044378415

weight f4 [80, 80, 2]
00000000: e75d 04bc 9453 733b cc07 22bc 0cb4 333c
00000010: 7bd4 ac3b 3458 c1ba 1900 903c 99f1 943c
00000020: c1e2 a13b 2f2f 0abc 295b e8b9 0dd9 233c
00000030: 8058 833b 46b0 153c 1c11 4dbc 38ac 0cbc
00000040: ec79 5ebb 4023 af3b f34d 2abc 7a31 74bb
00000050: a4b7 433b 6609 3cb9 028e 6a3a b492 57bc
00000060: 0065 1fbc cdbd 303b a37e 3fbb 4e58 b7bb
00000070: 4e31 3cbc c698 0f3c dddb b23c 307e 5cbc
00000080: 7c77 04bc d74f 913a b11c 13bc 2853 11bc
00000090: eb26 513c 9081 be3b 3254 4e3c ef34 cfbb
000000a0: 2fee a3bb 28d7 d039 5513 acbb a83e 713c
000000b0: 9400 25bc 85e8 89ba 4241 71bc ca73 89bb
000000c0: 0827 52bb 0a8c ce3b d75f cebb 0578 c7bb
000000d0: 71d5 d2bb 1f81 eb3b 5cdb bc3b 1e56 273c
000000e0: f5e6 b5bc bed9 2ebc 9d8b f43b d798 10bc
000000f0: 96a7 0f3c 2b2c 3a3c 696b 3b3c 3269 f03b
00000100: 2bf5 9eba c695 563c a746 55b8 5f53 193b
00000110: 1aa6 ca3c dd00 b739 6df7 60bb 18d3 a4bc
00000120: 9ae5 ad3c de1b 4e3c a39c 01bc 160d 9ebb
00000130: d9a9 183c 5976 17bc 1458 c23b 081b 67bb
00000140: 8852 953b 16fe cdbb fac9 95bb a545 923c
00000150: 150b f93b 50ae 8e3b 1be4 73b9 e5e5 3c3c
00000160: 087b 43bc 5dca 23bb 965e d9bc e8c1 85bc
00000170: 7859 ba3c 9e29 d6bb 1ec4 5b3c 1828 323c
00000180: 3877 d0bb 73d4 b038 f544 003c a80a 2e3a
00000190: fd28 babb fcc3 fa3b d033 433a 6ad7 a0bc
000001a0: e549 36bc a01d a5bc 3e1f b13b 84f4 eabb
000001b0: 786c a53a 4c6c 983b d42f 11bb 96ad f3ba
000001c0: c98c 2abb 1540 39bc c2d4 4a3c 4ec7 7bbb
000001d0: 797e 9abb 27e5 59bc 6062 ac3a a62a 893b
000001e0: ffc1 b53c 3840 afbb 10b9 28bc 8d65 8c3b
000001f0: a3b6 f63a c90c df3b fd7e a33c 6d94 79bb
00000200: efb9 223c b153 21bc 2302 213c 467d 72bb
00000210: b286 c4bc ce2a 0bbb 1e12 1e3b c315 acba
00000220: 798a 3cbc 682b 08bc a1da 053c b904 19bc
00000230: a963 d6bb a1b4 843c c1ff 82bc b8ef 35bb
00000240: 808c 273c b0c0 15bc bf3c f93a 3969 813c
00000250: e17a e83b c4fc 8f3c efcd c9ba b2f4 193b
00000260: 0d5d 37bc 04fe ec39 36fc 853b 4d4b 94bc
00000270: 8c5b 35bc 29f2 5a38 316d 563c a6ea a8bb
00000280: c726 5fbb 90f0 b63a 9b25 3dbc 11ed acbc
00000290: 4791 0fbc e7a8 65bb 1701 e03a f9bb 9cbb
000002a0: d775 afbb 4770 11bc b9bc e7bb 4b52 833b
000002b0: 3f86 cf3b 62d4 9b3a e61d b2bb f1f9 82bc
000002c0: 74f0 0e3c d49c 11bc 622e 0c3c c3a6 04bb
000002d0: f1dc 3b3c 782f 72bc 43e9 9dbb c322 4f3c
000002e0: 1341 d13b c698 90bc 91bd 013c cede 053c
000002f0: 03dc 85bb f8a6 6d3b 0bf5 18ba cb62 b7bc
00000300: c61e 84bc 85a3 59bc ae46 983c b63b e1bb
00000310: 7060 933c 25f1 9b3c b03d 363b 63f7 43bc
00000320: b013 3ebc 5f55 503b b22b 14bd ba63 6c3c
00000330: b750 40bc 92fd 593c 4a45 573b 13a2 02bc
00000340: 71ce acbc d374 92bc 2bb6 32ba f7c5 47bc
00000350: 023b 3bbc e604 a13b ffda f2bb dd30 13bb
00000360: 3fd8 553a 4587 4f3b c32e d53b 9051 9838
00000370: 30d5 333c 3ff8 48bc 4e82 693a 1dae dd3b
00000380: 2f9d 4a3b 1406 52bc 4d49 6f3a 1704 4cbc
00000390: 4fb0 b5bb 3228 86bb c96c 8bbc 848d b33b
000003a0: 7ca2 c93a ccc4 5dbc 6a49 273b 2805 6cbc
000003b0: 4c24 85bc 0042 eb3a c16e 893c f314 4fbc
000003c0: 26b5 273c 30c8 f83b 6012 6fbb 3f72 213c
000003d0: e2d2 db3c f68b e63b 1d51 52bc 7ab0 873c
000003e0: 7df8 96bb 7a36 c2ba bea2 c4bb f786 8d3b
000003f0: d62c 983b a514 c139 2bb8 74bc 1331 89bc
-0.008079029 0.0037128674 -0.009889554 0.0109682195 0.005274353 -0.0014751018 0.017578172 0.018181609
0.0049403613 -0.008434101 -0.00044318408 0.010000479 0.0040083528 0.009136265 -0.012516286 -0.008585982
-0.0033947183 0.0053447783 -0.010394561 -0.0037260936 0.0029864097 -0.00017932578 0.00089475524 -0.013157535
-0.00972867 0.0026968599 -0.0029219768 -0.0055952435 -0.0114863645 0.008764451 0.021833355 -0.01345782
-0.008085128 0.0011086416 -0.0089790085 -0.008869924 0.012765626 0.005813785 0.012593316 -0.006323449
-0.005002759 0.00039833155 -0.005251328 0.014724411 -0.010070939 -0.0010521567 -0.014725031 -0.0041947113
-0.0032066721 0.006303315 -0.006298046 -0.0060873055 -0.0064341356 0.0071870233 0.0057634544 0.010213403
-0.022204855 -0.010672031 0.0074629323 -0.008825502 0.008767983 0.0113630695 0.011439183 0.007336759
-0.0012127509 0.013097232 -5.0848957e-05 0.002339564 0.024737407 0.00034905123 -0.0034327165 -0.020120189
0.021227647 0.012579886 -0.00791088 -0.0048233373 0.009317839 -0.009244525 0.00593091 -0.0035263915
0.0045569576 -0.006286393 -0.0045711966 0.017855475 0.007600198 0.0043542758 -0.00023259262 0.0115294205
-0.011931188 -0.0024992444 -0.02653436 -0.016327813 0.02274774 -0.006535723 0.013413457 0.010873817
-0.006361868 8.431906e-05 0.007828941 0.0006639161 -0.0056811557 0.0076527577 0.00074463803 -0.019633967
-0.011126016 -0.020155728 0.0054053357 -0.007170262 0.0012620827 0.004651582 -0.0022153752 -0.0018591161
-0.0026023856 -0.011306782 0.012379827 -0.0038418355 -0.0047147837 -0.013299263 0.0013151877 0.0041859923
0.022187231 -0.0053482316 -0.010298029 0.0042845667 0.001882274 0.006806944 0.019958014 -0.0038082853
0.009932025 -0.009846614 0.00982717 -0.0037000938 -0.023990009 -0.002123523 0.0024119685 -0.0013129044
-0.011507624 -0.00831113 0.008169801 -0.009339505 -0.006542642 0.016199412 -0.015991094 -0.0027761292
0.010226369 -0.009140179 0.0019015296 0.015797244 0.0070947264 0.017576583 -0.0015396456 0.0023491797
-0.011191619 0.00045202684 0.004088904 -0.018102312 -0.01106919 5.220078e-05 0.013087557 -0.0051549254
-0.0034050213 0.0013957191 -0.01154461 -0.021109136 -0.008762664 -0.00350433 0.0017090169 -0.0047831503
-0.005354624 -0.008876867 -0.007072058 0.004007613 0.006333142 0.0011888857 -0.005435693 -0.015988322
0.008724321 -0.008887488 0.00855598 -0.0020241 0.011466251 -0.014781825 -0.0048190667 0.012642565
0.0063859313 -0.017650973 0.007918731 0.008170797 -0.0040850653 0.0036262851 -0.0005834854 -0.022385975
-0.016127955 -0.013283615 0.01858839 -0.006873573 0.01799032 0.019035885 0.0027807765 -0.011960837
-0.011601374 0.0031789166 -0.036174484 0.014428074 -0.011737994 0.013305085 0.0032847696 -0.007973212
-0.021094533 -0.017877972 -0.0006817306 -0.012193195 -0.011427643 0.004913914 -0.0074113603 -0.0022459545
0.00081575284 0.003166632 0.0065058186 7.263117e-05 0.010976121 -0.012266218 0.00089076615 0.0067651407
0.0030916443 -0.012818832 0.0009128049 -0.012452147 -0.0055446993 -0.004094147 -0.017019646 0.0054795165
0.0015383507 -0.01353569 0.0025525936 -0.014405526 -0.01625266 0.0017948747 0.016776444 -0.012639272
0.01023606 0.0075922236 -0.0036479458 0.009853899 0.026833955 0.0070357276 -0.012836722 0.016563643
-0.004607259 -0.0014817261 -0.0060008457 0.0043190676 0.0046440167 0.0003682721 -0.014936487 -0.016747033
