GAN/NO Generator/NO_epochs=500_seq=80_batch=5.pth (torch, 674918 bytes, 31 tensors)

weight f4 [1, 80, 1]
00000000: 25f5 a83c c868 d5bc 45ae 2c3c 605d aabc
00000010: ada3 00bc 606d 77ba 8f34 5d3c 4968 eb3b
00000020: 88af 8a3c ecb4 e1ba d9df 373c 679b 3a3b
00000030: 7fa1 103c 23ce 0b3b 1622 9b3c db1f 8b3b
00000040: 0263 a7bb fea7 0abd e30f 033c fb33 02bd
00000050: adbc 7c3b 84ee fa3b 994c 2b3c 0f9f 8b3c
00000060: 5203 f4bc 3d26 e93b 47ae b63b e9c9 42b7
00000070: c114 2d38 a347 eebc 6bb8 8838 d7f3 d5bb
00000080: a60a e538 9caf 85bc 2b26 2b38 c173 6739
00000090: f2f7 a93a bf39 fa3b e8b1 253c d41a a5bb
000000a0: 0b5a 7839 55d3 ad3b 8eed 01bc f80a 8eb8
000000b0: b999 d53b 3e92 2a3b c7cd b0bb 71b4 41bc
000000c0: 5885 963b e5a9 4a3c 7d29 993c 26d8 98bc
000000d0: a6f6 3b3c 3f9f d438 4128 5c3b 5266 ca3b
000000e0: dd31 e2bb 6747 fabb b99f 8c39 41a2 643c
000000f0: 1304 103b 1ae8 353c 14b1 66bc 4bb5 a138
00000100: b080 373c 160b 48bc c1a9 633c 3cf6 cd39
00000110: 3e73 123c f45c 92bc cf58 413c 1b2f 3c39
00000120: b8bb 9a3c abb5 0d3b 0fd8 143c 7ff5 2a3c
00000130: 543a a7bc 177d 103c fee2 353c 0eaf d6bc
0.020624707 -0.02605094 0.010539596 -0.020796478 -0.007851523 -0.00094386004 0.0135013005 0.0071840626
0.016929403 -0.0017220057 0.011222803 0.0028473975 0.008827566 0.0021332584 0.018937152 0.004245741
-0.005108238 -0.033851616 0.007999393 -0.031787854 0.0038564608 0.007657828 0.010455274 0.017043618
-0.02978674 0.007115154 0.0055749747 -1.1610312e-05 4.1265743e-05 -0.029086893 6.519336e-05 -0.006529312
0.00010921554 -0.016319089 4.0805124e-05 0.00022072998 0.001296757 0.0076362784 0.010113217 -0.0050385986
0.00023684667 0.0053047338 -0.007930173 -6.773131e-05 0.0065185693 0.0026027109 -0.0053956243 -0.011822806
0.0045935325 0.012369608 0.018696541 -0.018657755 0.01147238 0.0001013861 0.003359333 0.0061767483
-0.006902917 -0.0076379064 0.00026821884 0.0139547 0.0021975085 0.011102701 -0.014080305 7.710847e-05
0.011200115 -0.012209674 0.013895453 0.00039284106 0.008938609 -0.01786659 0.011800959 0.00017946625
0.01888834 0.0021623175 0.0090847155 0.010434507 -0.020413555 0.008818886 0.011101482 -0.02620652

weight f4 [80, 3, 1]
00000000: 9d09 3e3c cf3e 6b3b 7893 e03b 0247 b63c
00000010: 79da 613d c1ea 82bc e9f2 033a 17f6 123c
00000020: 5606 6fba 9af9 43bd 881d 72bd da08 153d
00000030: 8701 843c 0846 fe3c 7cd8 a8bb 0d72 4e3c
00000040: 4818 133d b8aa f43b fa5b afbc c798 b4bc
00000050: 7b33 bcbb e6e2 ee3b c4d0 353c d214 b4bb
00000060: d0d8 2cbc 085b 55bc d7fd 8ab9 65f5 2b3c
00000070: b708 823c 2858 d8bb 69a6 00bd 6b87 3fbd
00000080: 3b54 9f3c 9824 1ebc e507 29bc 242b 6b3c
00000090: e5fc a13b 5754 8c3c f5f1 26bc ab60 fd3b
000000a0: 0c02 893b e4e1 85bc b897 16bd b0d6 51bd
000000b0: 8941 063d 3871 0abd 26e5 6abd 1c66 603c
000000c0: 4e30 673c 7b6a ec3c deb6 bfbc 28a2 7a3c
000000d0: c70a 1c3c 4990 69bb 5b02 1e3c ccbd a43c
000000e0: 19be b8ba c69d 16bc 25f4 c63c 3f52 1fbc
000000f0: 10bc a9bb f6de 703c 8107 f1bb 62cb 783c
00000100: 61a0 033d cd8b adbc f404 0ebd 36c0 89bd
00000110: 468a 143c d345 9fbc d1a1 44bd d7cc d23c
00000120: fa39 2dbd f0b2 73bd 52ca ab3c b976 573c
00000130: 1783 673c df17 1c39 40b6 f0bc c1ab bdbc
00000140: 7bca bf3c 2178 2cbd 7009 98bd 1a20 a63c
00000150: b7ec b6bc 841f 75bd c68e 62ba b96b fd3b
00000160: a0f0 0c3d 4193 e0bb f7b8 c23b 1356 183c
00000170: dc8a 93bc 92ba 52bd 7a5b 20bd 87f8 c53c
00000180: 54dd 32bd 2849 42bd 7741 aa3c 36b7 5bba
00000190: e713 113d caba f7bb 0012 29bd 3a4e 92bd
000001a0: 94c0 9e3c e1aa 43bd 9b3d 2dbd 43a4 3f3c
000001b0: 00ef 9bbc ac00 f7bc 8245 643c f41c 04bd
000001c0: 6afd 82bd f747 ca3c 3430 57bb 670e 113c
000001d0: 09ac 3c3b 51b1 84bc e043 92bb b3cb 45bb
000001e0: 55ef ab3c 9646 0c3c 8404 81ba e56f 843c
000001f0: 8a61 c83c 76b2 8bbc 5d84 253a 41de 8d3c
00000200: 7356 373b de3b 843c 0279 1d3c a6ed 88bc
00000210: b83a 3dbd 303f 69bd 994c 3f3c de10 963c
00000220: f84c 043b fc36 00bc ee2d 00bb 9543 8bbc
00000230: f3bc 823b 6755 20bd d1ba 2fbd 3ec8 cc3c
00000240: bd7c e0ba b6dd 86bb 81b9 513c a80b 523c
00000250: dae5 963c fc7b 99bc d2fe af3c 4c31 003d
00000260: 627a d9bc 7be6 7b3b 2e38 8ebb 12be 93bc
00000270: acba ebbc 334b 40bd dcc8 4d3c b129 393b
00000280: 7284 c43b bdd5 14bb 8a8a fcbc 43b2 85bd
00000290: e09e 273c 64c5 46bd 9cb5 50bd ec8d 3d3d
000002a0: a250 b7b9 db19 133c cd7f 0ebc 1591 3bbd
000002b0: e8ff 8bbd 7e88 9b3c e1fa ac3b e64b 1d3c
000002c0: 6d93 533b f4d4 38bc d364 38bc d914 2a39
000002d0: 7960 1ebd ef03 8cbd 66bf b83c 0382 49bd
000002e0: 9800 3cbd 8504 ac3c 2887 80bc f66b 0fbd
000002f0: bccf 82bc 5c99 c23c 699b f93c 4201 64bc
00000300: d7e1 95bb d702 113b 600b c43b 2820 e1ba
00000310: c9b9 adbb 66be 243c 278c 15bd 0e4a 8ebd
00000320: 43a4 a03c 6705 853c 58b5 013d 13fa 8ebc
00000330: ca02 a43b 6bdc 273d 02ee 2eba 782b febc
00000340: 5cae 2abd 617f 193b 494a 4bbd f3de 96bd
00000350: 551f a93c de6a eebc f6dc 2ebd 51a1 e93c
00000360: 50be 3ebd 904c 62bd 5f80 f83c 581f 31bb
00000370: 8c03 b03c 2c6a acbb 9008 e9bc 7d02 71bd
00000380: ced8 933c 0eb0 a93b 0aa5 7f3c 0ce7 1fba
00000390: 260e 113c f230 993c 887d 263b eeb4 d8bb
000003a0: 3051 3abc 9ade d83b c258 16bc 94bd 2fbb
000003b0: ce93 1c3b bd26 b23c 8630 933c 47d3 ac3b
0.011598972 0.003589559 0.006853517 0.022250656 0.055139992 -0.01598108 0.000503345 0.008969805
-0.00091180706 -0.04784546 -0.059110194 0.036385395 0.01611401 0.031039253 -0.00515276 0.012600434
0.03591183 0.0074666403 -0.021406163 -0.022045506 -0.0057434416 0.007290232 0.011097137 -0.005495646
-0.010549739 -0.013022192 -0.00026510537 0.010495518 0.015873296 -0.006602306 -0.0314087 -0.046760004
0.019449344 -0.009652279 -0.010316824 0.014353547 0.0049434775 0.01713006 -0.010189523 0.007732471
0.004181152 -0.016343065 -0.036765784 -0.051230133 0.032777343 -0.03379938 -0.05734744 0.01369622
0.014110638 0.028859368 -0.023402628 0.01529745 0.009524054 -0.003563898 0.009644116 0.020110033
-0.001409474 -0.00919289 0.024286339 -0.009724199 -0.0051798895 0.0147015955 -0.007355631 0.015185209
0.03213537 -0.021184826 -0.034672692 -0.067261145 0.00906617 -0.019442474 -0.048005883 0.02573244
-0.04229162 -0.05949682 0.020970497 0.013150864 0.014130375 0.00014886212 -0.029383779 -0.023153188
0.02341198 -0.04210675 -0.07423675 0.02027898 -0.022329671 -0.05984451 -0.0008642491 0.007733789
0.034409165 -0.0068534915 0.0059424597 0.009297865 -0.01801055 -0.05144746 -0.03914974 0.024166359
-0.043668106 -0.04743305 0.02078317 -0.00083814876 0.03541937 -0.007560109 -0.04127693 -0.07143827
0.019378938 -0.047770385 -0.04229508 0.011696878 -0.019034863 -0.030151688 0.013932588 -0.032254174
-0.06395991 0.024692519 -0.0032835128 0.008853531 0.0028789064 -0.016197832 -0.0044636577 -0.0030181229
0.020988146 0.008561751 -0.0009843265 0.016166637 0.024460573 -0.01705287 0.0006313974 0.017317893
0.0027975112 0.016141828 0.00961137 -0.016714882 -0.046198577 -0.056945026 0.011675977 0.01831859
0.0020187479 -0.007825609 -0.0019558626 -0.016999999 0.0039898097 -0.039143946 -0.04290277 0.024997827
-0.0017127019 -0.0041157855 0.012800575 0.012820162 0.018420149 -0.018735878 0.021483812 0.031297013
-0.026547614 0.0038436938 -0.0043401932 -0.018034969 -0.028775536 -0.046946716 0.012560096 0.002825361
0.005997234 -0.0022710406 -0.03082778 -0.06528141 0.01023075 -0.04852809 -0.050954446 0.046277925
-0.00034964556 0.008978332 -0.008697462 -0.045792658 -0.068359196 0.018985983 0.0052789305 0.009600615
0.0032283918 -0.011281241 -0.011254507 0.0001622023 -0.038666222 -0.06836688 0.022552203 -0.049196254
-0.045899004 0.020998249 -0.015689448 -0.03501507 -0.015968196 0.023754768 0.030469613 -0.0139163155
-0.0045740413 0.0022126937 0.0059828013 -0.0017175721 -0.0053016883 0.01005516 -0.036510613 -0.069477186
0.019609576 0.016237928 0.031667084 -0.017453229 0.0050052153 0.04098169 -0.0006673039 -0.031026587
-0.04167019 0.002342187 -0.04963139 -0.07366743 0.020644823 -0.029103693 -0.042691194 0.028519304
-0.046568215 -0.055248797 0.03033465 -0.002702674 0.021486066 -0.00526168 -0.028446466 -0.058840264
0.018047716 0.005178458 0.015603313 -0.00060997973 0.008853471 0.018700097 0.0025404412 -0.0066133654
-0.011371896 0.006618333 -0.009176435 -0.0026815878 0.002389181 0.021746987 0.017967474 0.0052742097

bias f4 [80]
00000000: 184f e0be b81d 053f 502f 9839 4c9f cb3d
00000010: dc1c abbe d323 efbe f804 c8be 8bea 0ebf
00000020: ef92 76be eedb dfbe 6186 233d e88e 3cbe
00000030: b1ae 1b3d 617b 06be 82c7 ed3e dac8 c83e
00000040: 39b0 023f 9a58 2dbd 92f4 773c 6862 89be
00000050: eb87 00bf f768 5abe e702 ea3e f1e6 853d
00000060: 59e5 de3d 3d52 03bf 8b2e 163e d961 123f
00000070: 6053 bf3d c3d8 cfbe b16c b8be db0b e43e
00000080: 9149 963e 36d8 cdbe 8503 913e e11b 043f
00000090: 401f 3a3c a748 7a3e f145 b6be 17bc fcbe
000000a0: 88ff 88be 6057 c1be 17d0 00bf 2b74 3abe
000000b0: 6b6b b33e 30da 0bbf 05b0 f1be cc50 c83d
000000c0: 2b65 cabe c238 5abd d0ef c1be 25e8 a4bd
000000d0: 1ea2 f63e 3a30 00be 9a88 033e 3067 a73e
000000e0: 02e9 abbe 36d0 fc3e ccf5 063f 0f4e 0abf
000000f0: d36e b13e e8a9 fc3e 80a9 32bb 8150 07bf
00000100: ebb0 e0be b009 51be 4f9c 793e 95e8 b0bd
00000110: d18a 27be c5c7 473d d232 653e a11e f43e
00000120: 3bb6 3c3e 2b07 03be bf5a 163e f374 0ebe
00000130: b766 fcbe 24c2 f4be 2dd7 103c 7cc0 dbbe
-0.43810344 0.5199847 0.0002902695 0.09942493 -0.33420455 -0.4670702 -0.3906629 -0.55826634
-0.24079488 -0.4372248 0.039923076 -0.1841389 0.038008396 -0.13133003 0.46441275 0.39215738
0.51050144 -0.042320825 0.015133994 -0.2683289 -0.50207394 -0.21329103 0.4570534 0.06538189
0.10883588 -0.5129736 0.14666192 0.57180554 0.093420744 -0.40595064 -0.36020425 0.44540295
0.29353002 -0.40204018 0.28322998 0.5160504 0.01135999 0.24441777 -0.35600236 -0.4936225
-0.26757455 -0.37761974 -0.5031752 -0.18208377 0.3504289 -0.546298 -0.47204605 0.09781036
-0.3953031 -0.053276785 -0.37878275 -0.080520906 0.4817056 -0.12518397 0.12845078 0.32695913
-0.33576208 0.49377602 0.52718806 -0.5402536 0.34654865 0.49348378 -0.0027261674 -0.52857214
-0.43884978 -0.20413852 0.24376033 -0.086381115 -0.16361548 0.0487745 0.22382668 0.47679618
0.1842889 -0.12795703 0.14683054 -0.139118 -0.49297115 -0.47804368 0.008840364 -0.4292029

weight f4 [80, 80, 1]
00000000: 8aec c5b9 610e 183b eb75 2ebc a118 823b
00000010: 6137 48bc 60c7 d7bb 5825 a93b 90b4 9abc
00000020: 34e0 dc3b 356e 9cbc 1278 28bb 1a9c 303c
00000030: 0aaa 90bc b137 d2bb 7465 503c 998a e1bb
00000040: f9a5 80bc f6fc 223c bbfe bbbc b8c7 03bc
00000050: b618 ddba 90f0 4a3c 0832 ddba 1905 dd3b
00000060: afe9 8f3c 4f07 b3bb cab3 f03c dd05 d0bb
00000070: 9ebe 6e3b 0695 843a 8a2d d23b c22a aabb
00000080: 6211 05bc e371 4ebc 717c 55bc 087a 48bc
00000090: 88c2 0bbb 07bb 713c 14b2 ef39 75f0 cd39
000000a0: 0735 313b ebc8 93bc 42c4 333c 1c09 b9bc
000000b0: 7a96 4fbb be07 19bc 1177 dabb 294e 483c
000000c0: 8097 44bb 7dc4 90bb ba23 71bc ade2 163c
000000d0: 077d ec3a 695d af3c 8120 04bc f9d8 b03c
000000e0: 400d b6b9 9f2c b13b 92b7 6dbb cf39 01bb
000000f0: 09b3 673c 05b4 9e3b 4a30 4e3c 25ca 9c3a
00000100: ccbe 2b3b 2d22 e63a 21c4 a03b 5645 8fbb
00000110: a2fb 61bc 9ffd 5cbb c9aa 6cba 0e13 2ebc
00000120: 4f11 d8bb 4e8a 003a 9148 903c 9f47 dfbb
00000130: e0de 183c eadf 243c dc8c 053c 68ab 61bc
00000140: 7e05 a53b 0cdc e1bb f836 d33a eee5 98bc
00000150: 1e79 d73b 922b 4fbc 4064 b6bb 1f18 9abb
00000160: 82a1 bc3a b505 01bd 2f31 f9bc cc56 5ebc
00000170: 986e 98bb 2c57 5c3b 953f 48bb d3a8 1cbb
00000180: e0e8 6e39 f844 05bc 8441 9fbb a220 2fbb
00000190: 77de 7ebc bc41 0c3c e2e7 a1bc dfe5 8bbc
000001a0: 4857 883c 3945 5e3c f7f4 8fb8 d39f 48bc
000001b0: 587a db3b b96b 843a bd94 89bb 50c9 5f3b
000001c0: 397e 793b 9275 50bc 66f2 923c c65b 00bd
000001d0: 63ae 61bb 10aa 6c37 f48e 733c e43a 6aba
000001e0: 5d04 7f3b bb37 37bc 6976 1f3c ce9b 443c
000001f0: 49b2 24bc 6da6 c73b b0c2 013a 2c6f 60bc
00000200: 368d fc3a 641a 0b3c 8994 0c3c 6a90 d63b
00000210: 02a2 6ebc 926d adbc c5cd 983a bcdb 233c
00000220: c1b5 cc3a 30bb 8b3c de7e 3cbc 81d1 c63b
00000230: a505 dc3b 2282 09bb 2493 e9bb afff 1dbb
00000240: a359 20bc dd13 1fbc 72e4 1b3c c8d7 b23b
00000250: f49d 0cbc b03c 353c d0ed 253c 5791 683c
00000260: aabf 9e3a 43e1 34bc ad53 493c ecaf df3a
00000270: c314 b63b b31f d0bb fbc7 4f3c 1551 c33b
00000280: 81eb 32bc 78b7 faba 7015 9bbc 1ecd 9e3b
00000290: fd58 e33b 104d cd3b 7e4f 6d3a d003 34bc
000002a0: 8b43 1abb e419 93bb 32fa b23c 62af c53b
000002b0: 68d6 95ba 32ab 043c a4a7 fdb9 6c13 7dbb
000002c0: ccef 703b 9121 8cbb 4cea 46bc 4358 cc3a
000002d0: c0e6 d7bb 6209 203c 4617 87bb ab48 d3ba
000002e0: 2ae7 1f3c 5b72 86bc f7eb 953c 361e 8d3c
000002f0: 2afb 5dbb 874b 55bb 97fe 38bb ca10 193c
00000300: 875c e23b f2f6 47bc b0fc 8cbb eaad 97bb
00000310: 4f44 5b3c 99f0 6bba da67 2e3b e679 bd3b
00000320: 2063 393b 5fc1 19bc 414c d63b 87e3 ce3b
00000330: 8354 debb 6dc2 573b b1c9 7fbb 958a 03bb
00000340: 98f8 8dbb 7a0b b4bb 868d 25bb d2b7 e5bb
00000350: 6753 da3b 2c57 1abc 1ac0 1c3c 990d a83b
00000360: a3ac ec3b b7e3 54b9 0457 f93b c715 773c
00000370: aa62 fd3b 9bbe d93a ccdf 2b3b 036a 17bb
00000380: ee14 5f3c 89d5 afbb 9085 9e3a 5a33 863b
00000390: 840f fa3b cea0 b8bb 9d36 8cbb d65f a73c
000003a0: 45b0 ac3c 9fcf 11b9 d779 183b d689 8e3b
000003b0: b584 3ebb 063a 773b 5a7f fe3b dad2 b8bc
000003c0: c614 2dbb 575b 673b 706e a0ba 59e4 adbc
000003d0: 6c44 193b bc82 95ba 184d 85bc 9c23 e3bb
000003e0: b897 eebb b65a f9ba 2172 a0bb 85bd 2bbb
000003f0: d49e 863b ecfb c9bb f5ea bd3b a3f0 87bc
-0.00037751003 0.002320193 -0.010648231 0.003970221 -0.012220235 -0.0065850466 0.0051619224 -0.018884927
0.0067405943 -0.01909552 -0.0025706333 0.010779405 -0.017659206 -0.0064153303 0.012719501 -0.006882977
-0.015704142 0.009948006 -0.022948613 -0.008043222 -0.0016868326 0.012386456 -0.0016875872 0.0067449925
0.017567484 -0.0054635177 0.029382605 -0.006348355 0.0036429535 0.0010115213 0.00641412 -0.0051930854
-0.00812182 -0.012600395 -0.013030157 -0.012236126 -0.0021325666 0.014754063 0.0004571831 0.000392798
0.0027039663 -0.018040141 0.0109720845 -0.022587352 -0.0031675384 -0.009340225 -0.006667026 0.012225666
-0.0029997528 -0.0044179545 -0.0147179905 0.009209317 0.0018042632 0.021406846 -0.00806439 0.021587836
-0.00034723617 0.0054069306 -0.0036272747 -0.0019718294 0.014141806 0.0048432373 0.012584755 0.0011962099
0.0026206253 0.0017557793 0.004906193 -0.004372279 -0.013792904 -0.0033720506 -0.00090281345 -0.01062466
-0.00659386 0.00049034215 0.017612727 -0.006813958 0.009330481 0.010063151 0.008151259 -0.013773777
0.005036055 -0.0068926867 0.0016114404 -0.018664327 0.0065757176 -0.012644665 -0.00556615 -0.0047025825
0.0014391395 -0.031499583 -0.03041896 -0.013570499 -0.0046518557 0.0033621294 -0.0030555476 -0.0023904338
0.00022784201 -0.008134119 -0.004860105 -0.0026722332 -0.015555969 0.008560594 -0.01976389 -0.017077385
0.016643181 0.013566309 -6.8643996e-05 -0.012245136 0.006697934 0.0010102905 -0.004198639 0.0034147091
0.003806962 -0.012723343 0.01793785 -0.031337522 -0.0034436218 1.4106292e-05 0.014865626 -0.0008935167
0.0038912513 -0.011182721 0.009732821 0.012000037 -0.010052272 0.0060928375 0.000494997 -0.01369838
0.0019268158 0.008490179 0.008580335 0.006547977 -0.014564993 -0.021170411 0.0011658004 0.010001119
0.0015618132 0.017057031 -0.011504857 0.0060674553 0.00671454 -0.0020982106 -0.007128136 -0.0024108698
-0.009786996 -0.009709326 0.009514915 0.005457852 -0.008582581 0.011061832 0.0101275 0.014194808
0.0012111564 -0.011040035 0.012288016 0.0017065979 0.005556674 -0.006351435 0.012681956 0.0059605935
-0.010920406 -0.0019128164 -0.01893112 0.004846229 0.0069380985 0.00626529 0.0009052678 -0.010987237
-0.0023538794 -0.0044891704 0.021847818 0.00603287 -0.0011431696 0.008097457 -0.00048380822 -0.0038616313
0.0036764024 -0.0042764624 -0.012140822 0.0015590269 -0.006588787 0.009767862 -0.0041226475 -0.0016119679
0.009759704 -0.01641195 0.018300993 0.01722632 -0.003387163 -0.0032546239 -0.002822792 0.009342382
0.006908003 -0.012204872 -0.0043025836 -0.0046288865 0.013382985 -0.00090003904 0.0026612193 0.0057823537
0.0028287843 -0.009384482 0.006539852 0.0063137445 -0.006784977 0.0032922283 -0.003903013 -0.0020071615
-0.004332613 -0.005494532 -0.0025261356 -0.0070104385 0.0066627744 -0.009420197 0.009567285 0.005128574
0.0072227283 -0.00020302726 0.00760925 0.015080876 0.007732709 0.0016612591 0.0026225923 -0.002310396
0.01361583 -0.0053660315 0.0012094248 0.004095477 0.007631244 -0.005634404 -0.0042789713 0.02043144
0.021080146 -0.00013905622 0.0023265982 0.0043499274 -0.0029070799 0.0037723794 0.0077666463 -0.02256148
-0.0026410087 0.0035302246 -0.0012239944 -0.021227049 0.002338673 -0.001140676 -0.016272113 -0.006931735
-0.00728127 -0.0019024226 -0.0048964177 -0.0026205492 0.0041082893 -0.0061640646 0.0057958313 -0.016594237

bias f4 [80]
00000000: da87 8b3d bb0f a5bb e466 8f3d 1bd5 c33d
00000010: 4e15 963d 465d d1bd c130 0bbd 95ab 7ebd
00000020: 041e 99bd 7824 e9bd 324c d9bd 2b4f e23c
00000030: 571b 1439 1eae e43c 9bb7 dbbd 5026 9c3c
00000040: 27c5 d8bc 80cb 433d fecc 8d3d d311 efbd
00000050: 2e00 81bd 7282 2aba bb50 663d 850e 5abd
00000060: b934 01bd 2e0b 87bc e1f8 b13c 2a7a 03bd
00000070: bcd4 18bc d3df 92bd 33fc 723c b131 b63d
00000080: 9783 7ebd fb76 be3d 5c7c ab3b e32a 873c
00000090: 8614 f43c a7c7 80bc ad5a 123c 36eb 263d
000000a0: 4a51 173d 8eb2 80bd 33ee 49bd 7f9b 313d
000000b0: 4a89 913d 7248 843d b0f0 77bd 09aa 033d
000000c0: f3fa 9ebd 779f cebd 00bd c1bd 2f21 a0bd
000000d0: bb6e 963d cb14 bcbc 9902 ed3c cf67 a5bd
000000e0: 618b be3c 74d5 76bd df76 763d 6227 aa3d
000000f0: cefd 33bd 9855 893c 065a a5bd a8d9 46bd
00000100: 6ca1 86bd fb76 a03b b9d7 aabd 18b4 363d
00000110: 6999 9e3c aa95 8d3d 4bea d13c dfc7 a73d
00000120: 913a c2bd d5ab 17bd 81a8 0bbd 13de 8fbd
00000130: 1d37 263c bdf3 8ebc 418e db3d ef4b d9bd
0.06813021 -0.0050372756 0.07002047 0.09562131 0.07328282 -0.102228686 -0.033982042 -0.062175352
-0.07476428 -0.11383909 -0.10610236 0.02762564 0.00014124565 0.027915057 -0.10728379 0.019061238
-0.026461197 0.047801495 0.06923865 -0.116733216 -0.062988624 -0.0006504423 0.056229334 -0.053236503
-0.03154442 -0.016484823 0.02172512 -0.032098927 -0.009328064 -0.07171597 0.014830637 0.08896197
-0.062137213 0.093000375 0.0052333307 0.016499942 0.029794943 -0.015720202 0.008932752 0.04075166
0.036942758 -0.062840566 -0.04929943 0.043361183 0.07106264 0.0645913 -0.06053227 0.03214458
-0.077627085 -0.10089009 -0.09459877 -0.07818829 0.07345339 -0.022959134 0.028931903 -0.080764405
0.02325982 -0.06026216 0.060171958 0.08308293 -0.04394322 0.016764447 -0.08073811 -0.048547417
-0.065737575 0.004896996 -0.08341927 0.044605345 0.019360261 0.06913312 0.025624415 0.08192419
-0.09483827 -0.037029106 -0.034096245 -0.07024779 0.010144976 -0.017450208 0.10720492 -0.10610186

weight f4 [80, 3, 1]
00000000: 05ec 96bd 25f3 d6bd 86c8 1e3d 1188 a93d
00000010: bad6 c93d 54f6 76bd 29c1 0cbd debd bdbd
00000020: eae4 073d 70fc 623d a07c cd3d 1d9d e8bc
00000030: 16c1 963d c02e c43d 0a0c fcbc 1221 843d
00000040: a4db 973d e260 1cbd 4722 89bd 7265 bbbd
00000050: 666f 7c3d 9268 8bbd d968 cabd bfc8 5b3d
00000060: 2e6e 9ebd 03d0 a5bd 1bb5 513d a48d 573d
00000070: d197 783d 2e56 1cbd a5c9 60bd 3550 aebd
00000080: 501f 313d 6deb 85bd dd6e adbd 2819 e43c
00000090: f326 6ebd 8e69 d8bd 413c 173d 4cae 5cbd
000000a0: 9fd8 94bd d5ef 0f3d cad6 96bd c8bb b5bd
000000b0: 4acb 123d 6195 8dbd dcc0 b8bd ae65 aa3c
000000c0: 46f5 e33c a016 aa3d 1421 14bd 54de 923d
000000d0: 1139 d73d 1efc 02bd 7a92 63bd c95f eabd
000000e0: f002 f33c 45d1 833d 0dda c63d 34a2 25bd
000000f0: b6d1 50bd 46dd 9ebd bb11 023d 543d 43bd
00000100: 6252 a1bd 9b19 dd3c 22dd 64bd cae6 9bbd
00000110: 9ec5 c53c 301b 9cbd 0d5d e2bd a4c7 483d
00000120: 84b2 a23d f61c b83d 9587 54bd 7fb7 77bd
00000130: af4b d8bd 2b83 4f3d a6ca 36bd bc15 bebd
00000140: 2a25 263d 598a fcbc 2ca7 debc 60e0 563c
00000150: 2989 afbc f6ec 96bc ed4d 0b3d a963 b93d
00000160: 1ae3 ba3d a0b6 97bd 600f 0ebd f91d 3dbd
00000170: 6e18 073d 8770 a93d 0cbb cc3d e0bc 53bd
00000180: 8ff3 88bd 1943 abbd 66ab 353d 7df2 603d
00000190: afff bd3d a4fd 45bd 7010 80bd 479f 82bd
000001a0: 8c44 4d3d 59c0 4bbd a714 a5bd 0808 043d
000001b0: dcb0 11bd 30f7 7dbd efd7 de3c 3d68 52bd
000001c0: 9319 d7bd 953a 203d c749 93bd 625c f4bd
000001d0: bac3 243d 47ff a03d 052f a13d 4328 c8bc
000001e0: 97b7 5fbd 4514 aebd 49a1 d33c 819b 4ebd
000001f0: 1da7 a9bd c701 c83c 2428 783d e803 df3d
00000200: bf71 cebc 2021 213d 7ec2 933d 7eee d3bc
00000210: f9b7 82bd bd55 c0bd f995 c63c 9c5d 46bd
00000220: 4f5c a6bd c010 203d 7915 683d fcda c53d
00000230: a240 ddbc 5f4f 3b3d 6f05 d33d 157e 24bd
00000240: d65b 8abd fd95 bbbd 826d 2a3d f5de 85bd
00000250: b35a c4bd b0ad 243d 0b18 80bd cc1f c2bd
00000260: e204 083d 0f3a 753d 5e00 f23d 81d2 3bbd
00000270: 9c6f 7dbd 4fa4 d0bd 4d57 2e3d 1be8 5dbd
00000280: 6bbf 9cbd c6b0 4b3d 474b 7abd 233a bdbd
00000290: 7f92 103d 8b99 e7bc 54cc c2bd 299f 293d
000002a0: 3d8c 243d 88c2 c03d 7c9d 21bd 8d66 493d
000002b0: cd10 aa3d 9f64 17bd cecb 8dbd 01d8 bebd
000002c0: 6c27 223d da24 abbd 9a66 c3bd 44ed 753c
000002d0: f10b 56bd e607 6abd 2edc 12bb 05fe 81bd
000002e0: e55e dfbd cee5 2e3d e636 373d eb44 a43d
000002f0: 592c e6bc 650b 023c dee1 0a3d 98ef 9ebc
00000300: 5ad7 87bd ca89 aebd 792b 223d 35db 833d
00000310: 7ef8 e13d 280d 33bd bcb1 72bd 130f cfbd
00000320: 07f3 283d 7cf9 7cbd 95d1 a3bd 0414 303d
00000330: ad3a 07bd 518f 8ebd e34f 3a3d 7204 5d3d
00000340: 27d5 b23d 4a9b 37bd f5bc 85bd d2dd c0bd
00000350: 6601 223d 1f59 60bd 51a3 ccbd c97a 273d
00000360: 9275 90bd 0ea1 acbd da87 4d3d 7472 45bd
00000370: 66d7 90bd e0d9 333d f1f0 7dbd b046 dcbd
00000380: e7af 163d 532f 9bbd a763 c2bd f14e 173d
00000390: e3d4 763d 4187 b73d 0b0f e3bc e58c 64bd
000003a0: cbfb bebd d7f8 0c3d bf1a 80bd 173c dfbd
000003b0: 2c4a 053d 7db4 633d 7503 b63d 7791 49bd
-0.07369236 -0.10495595 0.038765453 0.08277906 0.09855409 -0.06029351 -0.0343639 -0.0926473
0.033177294 0.055416524 0.10033536 -0.02839523 0.07361047 0.09579229 -0.03076746 0.0645162
0.0741494 -0.038178332 -0.06695991 -0.091502085 0.061629675 -0.068070546 -0.09883279 0.053658243
-0.07735859 -0.08096316 0.051198106 0.052625313 0.06069166 -0.038168125 -0.054879803 -0.08511392
0.043242753 -0.065390445 -0.08468411 0.027844027 -0.058142614 -0.10567008 0.036922697 -0.05387716
-0.0726788 0.03514083 -0.073651865 -0.08873707 0.035838403 -0.069132574 -0.0902116 0.020800438
0.027826916 0.083050966 -0.03616436 0.07171312 0.105089314 -0.03197872 -0.055559613 -0.11444051
0.029664487 0.06436399 0.09709559 -0.040437892 -0.050981246 -0.07757048 0.03175519 -0.04766591
-0.078770414 0.026989749 -0.05587495 -0.07612379 0.024142083 -0.07622373 -0.11052904 0.049018517
0.079442054 0.08989899 -0.051887114 -0.06047773 -0.105613105 0.0506622 -0.044626854 -0.09281489
0.040562786 -0.030827688 -0.027179323 0.013115019 -0.021427708 -0.018423539 0.034009863 0.09052212
0.091253474 -0.0740788 -0.03468263 -0.046171162 0.032982282 0.08273416 0.09996614 -0.051693797
-0.0668708 -0.08362407 0.04435291 0.054918755 0.092772834 -0.048337594 -0.06253135 -0.06378036
0.0501142 -0.049743984 -0.0806058 0.03223422 -0.035569057 -0.062003314 0.027202575 -0.05136894
-0.10502925 0.03911837 -0.07191806 -0.11931683 0.040225722 0.0786119 0.078702964 -0.02443326
-0.054618444 -0.0849996 0.025833743 -0.05044127 -0.082838275 0.02441491 0.060585156 0.10889417
-0.025200723 0.03933823 0.07214831 -0.025870558 -0.06382746 -0.09391353 0.024241434 -0.048429117
-0.08123075 0.039078474 0.056661103 0.096609086 -0.027008358 0.04572999 0.10303771 -0.040159304
-0.067557976 -0.09159467 0.04160834 -0.06536666 -0.09587612 0.040204704 -0.06254586 -0.09478721
0.03320778 0.059869822 0.11816476 -0.04585505 -0.061874017 -0.101875894 0.042563725 -0.05417643
-0.076536976 0.04972913 -0.061106946 -0.09239604 0.03529596 -0.028271457 -0.09511629 0.041411553
0.040172804 0.09412104 -0.03945683 0.049170066 0.08303986 -0.036961194 -0.06923638 -0.09318543
0.039588377 -0.08356638 -0.09541054 0.015010182 -0.052257482 -0.05713644 -0.002240907 -0.063472785
-0.109067716 0.042699628 0.04473009 0.080209576 -0.028097318 0.007937287 0.03390681 -0.019401357
-0.06632872 -0.08522375 0.03959224 0.06438295 0.11033724 -0.04371372 -0.059251532 -0.10110297
0.041247394 -0.061761364 -0.07998959 0.04298784 -0.033014942 -0.06960929 0.045486342 0.053959318
0.08732062 -0.04482583 -0.06530181 -0.09417309 0.039552115 -0.054772492 -0.09992088 0.04088858
-0.07053675 -0.08429156 0.050178386 -0.048204854 -0.07072334 0.043908954 -0.061997358 -0.1075567
0.036788847 -0.07577386 -0.094916634 0.03694052 0.06026162 0.089613445 -0.027717134 -0.05579843
-0.093253694 0.034417 -0.062551014 -0.10900133 0.03254144 0.05559205 0.08887378 -0.04921099

bias f4 [80]
00000000: f087 023f ea99 b6bd d7f6 613e 4fa6 d1be
00000010: 13fd 543e 253b 653e 4f8a 0e3e 8fac 4b3e
00000020: 421b 933c ccad 8a3d aa84 583e a0c0 fcbd
00000030: 782d 863d aa30 453d 7a0e ec3d 719d 8f3e
00000040: 3350 04bf 48f8 f4bb cbf6 eb3e 6503 9d3d
00000050: a429 573d e933 063f 8592 4f3d f5a7 fcbc
00000060: 8c79 f1bd d0d9 81be 9e13 8c3e 07c4 9abe
00000070: 4a1a 8d3d a547 3dbd f68d c1be 6b1c debc
00000080: b047 07bf eb6a 6cbe f190 dfbc 174c c8be
00000090: 9cf3 a23d f403 d03e 30a4 213e 2fc8 843e
000000a0: 1113 bbbe 8471 ae3e c23e 0bbf ef2b c7be
000000b0: 831a 56bc 94ac dd3d 10fe 6fbe faae 25be
000000c0: 1439 023f cfce fb3e 74fd 91bd 8814 3dbe
000000d0: 0e30 4cbe 705f b0be 8923 b7be a230 a33e
000000e0: 1025 a53e 9ce1 e3bd dd6d a7be 9af1 6f3e
000000f0: 3bf1 f23e e33e 0abd 9bb5 103e aa03 1f3d
00000100: 1250 a73d ccf2 52be b5f1 22be f27d 58be
00000110: c7d2 113f a6f3 aabe 8ef8 923e 9686 0ebf
00000120: 40fa 9c3c 4b21 083f aadf 893d 9a33 5abe
00000130: 57b6 d8be df54 503e 86f4 463c e44a c23c
0.50988674 -0.089160755 0.22066818 -0.40947196 0.20799665 0.22385843 0.13919948 0.19890045
0.017957333 0.067714304 0.21144357 -0.12341428 0.06551641 0.048142113 0.11526199 0.28049806
-0.51684874 -0.0074758865 0.46086726 0.07666663 0.052529946 0.5242296 0.05067684 -0.030841807
-0.11790761 -0.2536149 0.27358717 -0.30227682 0.0688978 -0.046210904 -0.3780362 -0.02711316
-0.5284376 -0.23087661 -0.027290793 -0.39120552 0.07956621 0.40628016 0.15785289 0.25933978
-0.36537984 0.3407098 -0.54392636 -0.38900706 -0.013067844 0.10823932 -0.23436761 -0.1618003
0.50868344 0.4918122 -0.071284205 -0.18464863 -0.19940206 -0.34447813 -0.357693 0.3187304
0.3225484 -0.11127016 -0.32701007 0.23432007 0.4744967 -0.03375138 0.14131777 0.038821854
0.08169569 -0.20600432 -0.15912516 -0.21141794 0.56962246 -0.33389014 0.28705257 -0.5567411
0.019162297 0.531758 0.06732114 -0.21308747 -0.42326614 0.20344876 0.01214326 0.023717351

weight f4 [80, 80, 2]
00000000: 2ccd e63b 1901 e6ba ae86 1d3b 3fa0 ee3b
00000010: 6480 1abc e7a1 083c 2494 92ba bd37 1fbb
00000020: 73a5 d638 3f97 99bc 27b2 a8bb 8618 62ba
00000030: 6880 95bc d794 6e3c e112 0d3b 2184 36bc
00000040: a815 b63c fbaa 133c 89d1 a5bb 0b89 fe3b
00000050: 885c 31bc 26b6 e43b 9512 313b e03b 0a3c
00000060: 6357 b63c 4cbc e13a 6f2e 91bc 4540 ce3b
00000070: e7d2 3e3c 32ae bfbc de26 743b 6061 8e3c
00000080: 8b68 b2bc 0d3a 5bbc c585 013c 8b62 4639
00000090: 2806 5c3b b5ac 3f3c ba0d bd3b a74b d8bb
000000a0: e6d8 2d3c 4146 233a d61f 3bba e795 6e3a
000000b0: 561e 493a 0afb 833b ee34 3e3c 97be 07bc
000000c0: 895d a2ba a246 dabb f131 a13c 230c b2bb
000000d0: 00b8 e2bb 5399 4a3c de9e 993b 948c e73b
000000e0: c116 63bc 4543 13bc 67e3 fe3b d22f 36bc
000000f0: 2227 a139 eb80 a5ba d3e8 133a 5827 24bb
00000100: 9d3f 9db9 7c86 22bc 01a7 a93c 1a66 223c
00000110: 74bd 28bb a6f1 a33b 670c 843c abd6 fc3a
00000120: e9ff 6fba c738 633b 1293 763c 3b4e 46bc
00000130: b180 043c c20e e03b 175b b93b 054a a73b
00000140: 9c6b 15bb 977d 823a 8276 30bb 3099 133c
00000150: 8ae1 903c 7863 343a afa5 05bc 680f 5fbc
00000160: 2cbd 1e3c b43e 60bc a18f 51bc c9e0 8cbb
00000170: 37f1 d1b9 1ace 2ebc 1d52 65bc 4923 103c
00000180: 0ba5 05bb 9e62 abbb a552 09bd 105c e7bc
00000190: 8cae bf3b b546 033c 0f89 9e3b 4ca7 8a3c
000001a0: 89f6 60bc 2594 023c d5bb c03b 1e56 05bc
000001b0: 74e8 3cbb 029b 1e3b 70c8 a3bb ae15 f5bb
000001c0: 2b48 02bb 6d85 593b 1669 acb9 a170 a93b
000001d0: d3ad 23bc 9ae7 4f3b c592 d5bb 8747 19bc
000001e0: 4e7b b93a 55c8 2a3c 06f0 bf3b 0757 543c
000001f0: 6b38 803a 3114 963a 0136 113c 13d4 c13b
00000200: 319d e93b 4d7b 113c 858e 3cbb cad7 6fbc
00000210: 19e3 f3bb 3f7b b33b 2b57 f53b 90f0 1d3c
00000220: 8d79 793c 4cf5 0cbc e09a cbba 22a6 dd3c
00000230: 992a 0fbc 803a c6bb 5952 1aba 8b5f 633c
00000240: e9c9 17bc dfc7 05bc 0e19 5cbc 396b 6ab7
00000250: 95f8 8fbc 10e5 443c ee3c d13b 1791 97b9
00000260: 42f2 3cbb 4f78 2bbc 026d 653c 1b94 143c
00000270: 57e7 5c3c e5c0 363b c79a c1b9 61b6 123a
00000280: f844 11bc 1535 2c3b 8561 483c c1ec babb
00000290: baa8 0d3c eedc 523c 37d9 c63b 40c0 5eb9
000002a0: 5abb 103c aa67 d4bc 4acd 2a3c 004e 583b
000002b0: 5059 0e3b a8d5 f8bb 2b7c 4a3c 5c0c da3b
000002c0: 4b16 9ebc fc7a 85b9 a983 3f3c 629e c5bb
000002d0: be71 643c aaf9 1f3c e68f 41bc a9a5 2c3c
000002e0: efef f73a 683e b8bb 3e4c ee3a d64d 14bc
000002f0: 5cda b0bb ef51 863b 4b9a 0e3c 474a 91bb
00000300: 4dc6 cebb 1b2b 713c 503f 45bc 1da3 a5ba
00000310: d8eb 48bc 50bc c5bb 11db 21bc 27e0 b4ba
00000320: bf19 303c 0567 933c a446 7abc 163b af3b
00000330: 6676 cb3c 2acf b8bc 8a8c bfbb 8000 023c
00000340: 8948 eabc 0e71 953a 4ee9 7fbb 1861 6e3b
00000350: 3987 75bc edd9 00bc 3e4c 1f3c 8939 3bbc
00000360: 873a af3c 7a2b f83b abb0 97bc 00f2 9638
00000370: 457d f2bb cc1f 54ba 6957 333c e3da a23b
00000380: e63a 133c 80fd 3fbb faa3 203c f9cc ce3b
00000390: 0aa5 b1bb 140b ae3a 49ab e43b c9c8 66bc
000003a0: 8b70 023b 65c7 c3bb 9b1b 02bc db82 d63c
000003b0: 37f0 4abb ffc9 62bc f89e 893c 23a7 933c
000003c0: e999 74bc 483d dc3b c2ea 9e3c c7ca 943b
000003d0: 2c6d e63b 0aa0 1bbc 8a29 a43b 314e 55bc
000003e0: da2f a2bb 58c6 0c3c 8ae3 e8bb a569 02bc
000003f0: 42c7 843b dbff f23b fa7b 7f3c 3ec1 f43a
0.0070435014 -0.0017547935 0.0024036574 0.0072822864 -0.009430025 0.008339382 -0.0011183065 -0.0024294697
0.000102351325 -0.018748878 -0.0051481905 -0.000862487 -0.018249705 0.014561853 0.0021526145 -0.0111399
0.022227123 0.009012933 -0.005060379 0.0077678016 -0.010825284 0.0069797216 0.0027019132 0.008437127
0.022258466 0.0017222255 -0.017722337 0.0062942826 0.011646963 -0.023398492 0.0037254612 0.017380416
-0.021778366 -0.01338054 0.007905428 0.00018919462 0.0033573005 0.011698891 0.0057694586 -0.0066008153
0.010610795 0.0006228425 -0.0007138228 0.00091013167 0.0007672062 0.004027729 0.011609299 -0.008285186
-0.0012387495 -0.006661252 0.019677134 -0.0054335757 -0.006918907 0.012365657 0.004688128 0.0070663188
-0.013860405 -0.008988206 0.0077785733 -0.0111198 0.0003073747 -0.0012626922 0.00056422985 -0.0025047865
-0.0002999277 -0.009919759 0.020709516 0.009912038 -0.0025747688 0.005003172 0.016119195 0.001929005
-0.000915526 0.0034671293 0.015049713 -0.012103613 0.008087323 0.006837697 0.0056566107 0.0051052594
-0.0022799736 0.0009955642 -0.0026926105 0.009008691 0.01768567 0.0006881277 -0.008157178 -0.013614513
0.009688657 -0.013686825 -0.012790591 -0.0042992574 -0.00040043305 -0.010669256 -0.013996628 0.008797475
-0.0020392563 -0.005230262 -0.03352608 -0.028242141 0.005849665 0.008012463 0.004838116 0.016925476
-0.013730654 0.007969891 0.0058817663 -0.008138208 -0.0028825076 0.0024201279 -0.0049982592 -0.007479391
-0.0019879441 0.00331911 -0.00032884692 0.005170897 -0.009990173 0.0031723739 -0.0065177404 -0.009355432
0.0014151128 0.010423739 0.0058574704 0.012960202 0.0009782439 0.0011450109 0.008862973 0.005915174
0.0071293344 0.008879495 -0.0028771472 -0.01463885 -0.0074428436 0.0054773386 0.007487198 0.009639874
0.015226734 -0.008603405 -0.0015533827 0.027056757 -0.008738183 -0.006049454 -0.00058869045 0.01387776
-0.009264448 -0.008165329 -0.013433708 -1.3972452e-05 -0.017574588 0.012017503 0.006385437 -0.00028909065
-0.002883092 -0.0104656955 0.01400304 0.009068514 0.01348289 0.002788597 -0.00036927147 0.00055966346
-0.008866541 0.0026276757 0.012230282 -0.005704493 0.008646185 0.012870057 0.0060683745 -0.00021243189
0.008833731 -0.025928337 0.010424921 0.0033005476 0.0021720715 -0.007593829 0.0123587055 0.0066543054
-0.01929774 -0.00025459367 0.011689105 -0.0060308436 0.013943134 0.009764114 -0.011814093 0.010537543
0.001891611 -0.005622674 0.0018180681 -0.009051761 -0.005397124 0.0040991227 0.0087037785 -0.0044339034
-0.0063102604 0.01471975 -0.012039021 -0.0012637113 -0.012263261 -0.0060344115 -0.00987889 -0.0013799713
0.010748326 0.01799346 -0.015275631 0.0053476198 0.02483673 -0.022559721 -0.005845611 0.0079346895
-0.02859904 0.0011401491 -0.0039048973 0.003637379 -0.014985853 -0.007864458 0.009722767 -0.011427292
0.021390213 0.007573542 -0.018516859 7.1976334e-05 -0.007400187 -0.00080918963 0.010946133 0.004969941
0.00898621 -0.0029295385 0.00980472 0.0063110557 -0.0054212855 0.0013278448 0.0069784266 -0.014085957
0.0019903507 -0.0059746974 -0.007941152 0.026185444 -0.0030965933 -0.013842105 0.016799435 0.018024033
-0.014929273 0.0067211725 0.01939905 0.0045407745 0.0070320573 -0.0094986055 0.0050098347 -0.013019131
-0.004949552 0.008592211 -0.007107203 -0.007959758 0.0040520737 0.0074157543 0.015593523 0.0018673313

bias f4 [80]
00000000: 5f40 843c c271 0dbc 98a2 733d 9452 36bd
00000010: c5b5 7d3d 27c9 19bd 7ea9 913d fcb9 6cbc
00000020: 7f48 d9bc afe6 83bd 7374 6cbc c3a6 683d
00000030: b1ae 553d e384 7f3d c5ab a1bd 8fee 8d3d
00000040: f50b 01bd e300 dcbb da4d 59bd 9f89 92bc
00000050: 8780 87bd 784b 323d 344e 5ebc 605b 82bd
00000060: f556 e83c 53fd 633d 468e debc 1163 393d
00000070: 86d1 623d 51c6 0f3d e60b 65bd e865 4cbb
00000080: f6d5 4b3d 8db4 22bc 45a2 32bc d662 96bd
00000090: f2ab 6fbd 8390 933d 80f4 7c3d 363f 9d3d
000000a0: aafe 2ebd da87 b5ba 071d 08bc 7457 023d
000000b0: 72bc 8abc 8781 6ebd 1d00 92bd 90dc 963d
000000c0: 66c0 133d ca56 4bbd 9f58 453c 5d3c 64bd
000000d0: f59c 07bd 50a6 dbbc 96a5 35bc bfe2 01bd
000000e0: 877e babb b399 a5bb 2dd9 753d 335f 71bd
000000f0: fa84 0d3d 0672 6a3d 93db c73c 1a97 8c3d
00000100: ca2b a3bc 177b cdbc aad3 ae3c 6f2c 333d
00000110: bbac ecba c9a3 60bd 496f 4f3c 8a5e c3bc
00000120: 060c d83c 616b 3abd a009 6abd 9fb3 bb3c
00000130: 0d7a 953d fd27 90bd 8f24 77bd c81f 753d
0.016143976 -0.008633079 0.059481233 -0.044512346 0.061940927 -0.03754535 0.07112406 -0.014448639
-0.026523827 -0.06440484 -0.0144320605 0.05679966 0.05216855 0.06238259 -0.078940906 0.06930267
-0.031505544 -0.006713973 -0.05305276 -0.017887888 -0.066163115 0.043529004 -0.01356845 -0.06365085
0.028361777 0.05566151 -0.02716745 0.045260493 0.0553756 0.03510124 -0.05591955 -0.003118867
0.049764596 -0.009930742 -0.010902946 -0.0734307 -0.05851359 0.07205298 0.06175661 0.07678072
-0.042723335 -0.0013849691 -0.008307702 0.031821683 -0.01693556 -0.058228996 -0.07128928 0.07366288
0.036072157 -0.049643315 0.012045055 -0.05572163 -0.03310867 -0.026812702 -0.011086842 -0.031710383
-0.0056913528 -0.0050537228 0.060021568 -0.05892868 0.034550644 0.057237647 0.024396693 0.06864758
-0.019918341 -0.025083108 0.021341164 0.043743547 -0.0018056849 -0.054843698 0.01266081 -0.02384879
0.02637292 -0.04551256 -0.057138085 0.022912798 0.0729867 -0.07038877 -0.0603376 0.059844762

weight f4 [80, 80, 2]
00000000: 37ff 653b c5ed 3f3b 2602 88bb 7ebc a43b
00000010: 5cd8 bd3b 30a8 98bb d59f de3b 647e c3bb
00000020: 518d 8a3b 67ca 1a38 37aa 313b 2781 2cbc
00000030: 7044 2e3c b58c 883a 2710 63bb 1223 e13b
00000040: eb4e 3ebc 10ae aa3b 0a27 c1bb 70f8 463c
00000050: 6127 c638 9ca8 383c bc6b 8739 64cf 053c
00000060: 16e9 0a3c f95d ab3b 897e 883b 2b18 113c
00000070: 3ef1 1d3c dc92 99bc add2 343a 2eb6 5fba
00000080: 13f9 723c ad5b c8bc bc83 91bc 88f3 093c
00000090: 94ee 103c 580a 793c 35b5 113c 9565 dc3b
000000a0: e9df 07bc c045 9b3c bd15 7cbc 95c5 883c
000000b0: b373 2e3c 6f01 d13c c1f5 91ba 3433 6b39
000000c0: 1c34 7e3a 2076 3dbc 303a d63b 67fe ddbc
000000d0: 2c5c 8c3b ea2c a13b 0bb9 52bc 84f9 48bc
000000e0: 957d 7ebc 35af 893c 3a0f 2abc 9091 6d3c
000000f0: 9efa 31bc 9706 2e3c 03a4 70bc a79f 473c
00000100: 14d9 c03b f955 8e3c 2449 29bc b85c f5bb
00000110: bb6d 6339 04d9 db3a 64ef ba3b c35f 50bb
00000120: d026 edb7 7a76 ffbb 2632 853c 4dea ac3c
00000130: 66f1 5a3c ebdf 3bbb 889a 5cbc d65f 6bbc
00000140: 03a0 d63a c24a c33b 061d 92bb 5828 ef3b
00000150: 8b43 a2bb 6af8 0fbc d724 5ebc b89c 323b
00000160: 5f49 02bc 07ea 6cbc dabd 8c3c 8e80 5bbc
00000170: 221c b3bb 1685 a83b f985 2039 e34d 2f3c
00000180: aa80 883c 2eb3 cd3b 80e8 4b3c 7c96 1fbc
00000190: 3ac2 9f3a fd3b d439 9664 803b 3034 153c
000001a0: 4ebd 143d db32 11bc 3c9d 263c 2219 5cbc
000001b0: 5f9c 65bc d7ea 883a 0ed9 f43a dfe9 6cbc
000001c0: d25d a33b a4cd 53bc 8403 91ba 83eb a4bb
000001d0: 2a6f 6b3b 65db d8bb 57a9 a3bb a330 473b
000001e0: 72b4 b9bb 05cd 01bd 1692 433c 5fdb 913c
000001f0: 24d1 1f3c 8a8e deba c876 df3b 5914 0dbb
00000200: b6bc a93b 681a c63c 2972 893c fb01 92bb
00000210: 47b2 87bb 72c3 533c 48d5 4ebb 9cef 55bb
00000220: f30f edbb 250e af3c d57f be3c 19aa 8e3c
00000230: e924 983c 1064 2dbc 3851 573c 2d81 c9bb
00000240: 3926 063c 71bb 23bc de53 0b3c 2b6c 23bc
00000250: 1ac9 2dbc 1870 08bc ab3e 6c39 c2d2 16bc
00000260: ca35 663c 68bf adbb e494 97b8 dbac 453b
00000270: 9d4a abbb 4a5f b1ba 0b84 f7bb e936 943b
00000280: d7af 313c 1640 9e3b 546e dabb 85be ebbb
00000290: 5ce6 c039 dec6 41bb 6cc1 a6bb de94 333c
000002a0: 283d b3bb 0916 c83b 3dd1 e4bb a612 db3c
000002b0: 52cf 1d3c 5fcc 693c 1435 2dbb 9f8f 2dbc
000002c0: be8c d239 ec6c c73b dddf d33b 5070 eb3a
000002d0: 402c 14bc d874 91bc bac7 913b f70d 6fbc
000002e0: ff51 2e3c 59cf 553b a5bb 9a3a 6ed5 94bc
000002f0: 76d2 b7bb 57ec 643c 7284 243c cad7 843c
00000300: f8b9 eb39 56d0 c13c 1751 d8bb c6eb 69bb
00000310: fccf 11bb fda4 0bbc 979e 11bb e2ac 30bb
00000320: 818b c5bb 91e3 783b 7654 d2ba 1c57 c539
00000330: 7c90 9e3c 6e64 38bb 7d62 833c d834 393c
00000340: c87f 743c 0a54 3dbc e91d bb39 b43b 5d3c
00000350: 8e30 f5ba d3e8 3f3c 9f82 74bc 48a3 2fbc
00000360: a0f2 0d3c dfe8 583c 613d 1c3c 5131 23bb
00000370: 452d 0dbc 2d22 7b3c 66a2 8e3a 6b3c 76b9
00000380: e9aa e6bb 3324 daba 2ab9 06bc a535 703a
00000390: 626b 393c 60c3 6bbb 9479 a23a 67e7 913b
000003a0: c20a 8e3b 62e6 803c ef95 40bb 8b63 153c
000003b0: e889 08ba ea50 babb 80fd 103c de6a 163c
000003c0: 3562 d73a 8f89 9e3b ca49 1d3c d7ae 86b9
000003d0: 46ea 463c 66aa 843c 7a8c e23b fada 483b
000003e0: d32f a93b 1410 cdba c010 853b 7220 3cbc
000003f0: 4420 51bb 42f2 b7ba c2a5 dfbb 86fe 5ebb
0.0035094747 0.0029286009 -0.0041506467 0.005027353 0.0057936143 -0.0046587214 0.006793956 -0.0059659947
0.004228272 3.6904963e-05 0.0027109513 -0.010528839 0.010636434 0.001041791 -0.0034647079 0.006870636
-0.011615495 0.005208738 -0.0058945464 0.012144193 9.4487106e-05 0.011270668 0.00025829475 0.008167122
0.008478424 0.0052297083 0.004165475 0.00885586 0.009640036 -0.018746786 0.0006897848 -0.0008533922
0.014829892 -0.024457777 -0.017763011 0.008419879 0.008845944 0.01520022 0.008893301 0.0067259767
-0.00829313 0.018954158 -0.015386042 0.016695777 0.010647702 0.025513379 -0.0011135862 0.00022430421
0.0009697096 -0.011563808 0.006537698 -0.027098848 0.0042834487 0.0049186843 -0.0128615005 -0.01226652
-0.015532871 0.016807178 -0.010379607 0.014500037 -0.010862974 0.010621688 -0.014687541 0.01218406
0.0058852527 0.01737498 -0.0103323795 -0.0074878596 0.00021689285 0.001677305 0.005704807 -0.003179536
-2.8270675e-05 -0.007796106 0.016259264 0.021107817 0.013363218 -0.00286674 -0.0134645775 -0.014366111
0.0016374592 0.0059598396 -0.0044590263 0.0072985105 -0.0049518994 -0.008787254 -0.013558588 0.0027254056
-0.007952063 -0.014460093 0.017180372 -0.013397349 -0.005466 0.005142818 0.00015308698 0.010699722
0.016662914 0.0062774634 0.012445569 -0.009740468 0.0012188621 0.00040480486 0.003918241 0.009106681
0.036313348 -0.008862223 0.0101693235 -0.0134337265 -0.014014333 0.0010445964 0.001868041 -0.014460056
0.0049855495 -0.0129274465 -0.001106367 -0.005032958 0.0035924413 -0.0066179507 -0.004994552 0.003039398
-0.0056672627 -0.031689662 0.011936685 0.0178048 0.009754453 -0.0016979736 0.0068195798 -0.002152702
0.005179967 0.024182513 0.016778069 -0.0044558025 -0.0041411254 0.012925016 -0.003156023 -0.003264404
-0.0072345673 0.02136905 0.023254314 0.017415093 0.018572288 -0.010582939 0.013141923 -0.006149432
0.008187824 -0.00999342 0.008503882 -0.00997452 -0.010607028 -0.0083275065 0.0002253006 -0.009205522
0.01405091 -0.0053023584 -7.227974e-05 0.0030162844 -0.0052274005 -0.0013532427 -0.0075535825 0.0045231474
0.010845146 0.004829417 -0.006665984 -0.0071943426 0.00036792725 -0.0029567997 -0.0050889757 0.010960786
-0.005469937 0.0061061424 -0.006982951 0.02674229 0.009631949 0.014269917 -0.0026429342 -0.010593324
0.00040159182 0.0060859825 0.0064658956 0.0017962549 -0.009043753 -0.01775591 0.004448858 -0.014590732
0.010639667 0.003262481 0.001180519 -0.018168177 -0.0056098057 0.013972363 0.010041343 0.016216177
0.0004496125 0.023658913 -0.0066014635 -0.003569351 -0.0022249212 -0.008523223 -0.002221977 -0.0026958515
-0.006028593 0.0037977437 -0.00160469 0.0003763967 0.019356005 -0.0028136033 0.016038174 0.011304103
0.014923044 -0.011555681 0.00035689704 0.013503004 -0.0018706487 0.011713224 -0.014923721 -0.010720082
0.008663803 0.013239115 0.009536118 -0.002490122 -0.00861675 0.015327972 0.0010882139 -0.00023482896
-0.007039417 -0.0016642868 -0.0082228575 0.0009163267 0.011317106 -0.0035974607 0.0012395852 0.004452634
0.0043347785 0.015734855 -0.0029386242 0.009117971 -0.0005208538 -0.0056859152 0.008849502 0.009180753
0.0016432466 0.0048381756 0.009600112 -0.00025688738 0.012140816 0.016194534 0.006913719 0.0030648098
0.005163172 -0.001564505 0.0040608346 -0.011482345 -0.00319101 -0.001403399 -0.00682518 -0.003402622

bias f4 [80]
00000000: 439e 213d 63ae 4e3b 6240 f2bc 0722 0cbb
00000010: 90f9 a63c 8717 a5bc 9dfe c63c b9a8 00bd
00000020: 46fe ea3c 5cb7 d33b 9dfb 52bd 5832 073d
00000030: d7d0 053d 9e1f 0fbd 2e54 8dbc 5442 51bd
00000040: 94ba 48bd 73eb d13c c961 8ebd f9e2 d13c
00000050: c2be 03bd b409 8dbd 92d9 26bb 0c25 5dbd
00000060: 1a44 4dbd 7c01 70bd 3b87 5ebd c833 543b
00000070: 2390 223c 2583 8abd 0fdd 093d c14e 72bd
00000080: 4032 a53d 8712 54bd 12af 313d 5eb8 47bc
00000090: 7688 11bd 50aa f83b 15a6 7dbd a61d 4e3d
000000a0: 0920 68bd 5d09 8e3c 3e7f e1bc 1b2e 90bd
000000b0: 1c68 a13c 91e5 2fbd 3359 9d3d 098b 8f3d
000000c0: 208d 0fbd 72d5 5a3c 04d2 223d a7cc 4b3d
000000d0: be0b 86bd 2a66 06bd 80d4 503d 5b96 27bd
000000e0: bbb9 3a3d 5344 493d 3b0e 33bd 8c76 2e3d
000000f0: 077f 8bbd 5685 463d 6771 a7bd 1dd1 5f3c
00000100: 85f0 cbbc f9d0 60bd 0f50 7b3d f6e9 3abb
00000110: 521a a23c bd72 313b b7d7 5d3c 5959 c43d
00000120: d00d ff3b 6886 8fbd f085 3b3d ab3f a53d
00000130: 3c49 a2bc 6f90 e8bc 0369 0dbd 83c6 a2bc
0.03945757 0.0031537048 -0.029571716 -0.0021382587 0.020382673 -0.02015282 0.024291331 -0.031410906
0.0286857 0.006461067 -0.05150949 0.033006996 0.03266987 -0.034942262 -0.017252054 -0.051088646
-0.04900606 0.025624966 -0.06952245 0.025620924 -0.032164343 -0.06886616 -0.0025459272 -0.05399041
-0.050113775 -0.058595166 -0.054328185 0.0032379497 0.00992206 -0.06763295 0.033658084 -0.059157137
0.08066225 -0.05177548 0.04337985 -0.012189953 -0.03553053 0.007588662 -0.061925966 0.050321244
-0.056671176 0.01733845 -0.027526494 -0.07040044 0.019702964 -0.04294354 0.07683029 0.07008941
-0.035046697 0.013356553 0.039751068 0.04975572 -0.065452084 -0.032812275 0.050983906 -0.040914875
0.045587283 0.049137425 -0.043714743 0.042593524 -0.06811338 0.048467003 -0.08175927 0.013660696
-0.024894962 -0.05488679 0.061355647 -0.00285208 0.019787941 0.0027076446 0.0135402 0.09587354
0.007783629 -0.07008058 0.04578203 0.08068784 -0.019810311 -0.028389184 -0.034523975 -0.019870048

weight f4 [80, 80, 2]
00000000: ee95 2cbc d2cf d43b 3726 d43b 7fb4 fcbb
00000010: 25a8 243b 2270 163b 159e 863b 2cf9 30bc
00000020: 1e66 fa3b 19a6 303c e0b1 48bb dad8 b5bb
00000030: df01 00bc ec05 ddba 4977 40bb f589 59bc
00000040: 41ba 9f3c 2efb 99bb 26c2 39bc 0a89 2b3b
00000050: a083 1e3c c3c4 9bbc a935 31bc 46af 80bb
00000060: 3f6e f2bb 1289 4d3c 177f 2bba 4e6c 953c
00000070: 327b 6c3a 2bf1 3bbc 3e6a 793b 70de b9bb
00000080: cfa0 013c 0c33 09bb 2f71 8ebb 311f f03b
00000090: 084d eb39 3177 cdbb 190c b9bc 7bd2 c8bc
000000a0: 681c b4b9 7c60 a73b 48b6 67bc 0000 983c
000000b0: e239 6e3b c1f6 b43a 4a4d 34bc 5273 003a
000000c0: 8fd1 493c 77c0 853c 0706 803c 9ac6 9c3c
000000d0: f9d5 eebb 4f3d 123c ea8a 10bc 91b3 b6bb
000000e0: ee0a 153c c5a9 c33b 36a1 f23b 255b 643c
000000f0: c8ec a83b c9db d4bc 08c6 183a 3ff4 a23b
00000100: 424b 083c 3985 a53c 2dfb 323c f662 343b
00000110: 8d1e 82bc f9e1 163c 0814 fc3b 4406 bebc
00000120: 9a95 d73b 56f4 323c ef23 263a c75b 15bb
00000130: f24a 07bc 02f8 82bb 939f 9abb 1a68 25bc
00000140: 51d0 a8ba f16b 2bba 28c9 78bb a6a0 53bc
00000150: e63f 91bc dd36 c53a 96b5 24bc d871 633c
00000160: b7fd ce3b 425b a9bb 3fb5 243c 635e 0ebc
00000170: 2124 5ebb 43a2 613b 379b 3bbc 3600 133c
00000180: 8f0a 05bc a8d7 c93b 5189 95bc 8626 42bc
00000190: c29d a23a 76af 1f3b b434 49ba 5901 9bbb
000001a0: 0a00 bdbb 6945 c1bb 729e 83bb 53a8 933c
000001b0: b9f4 fbb9 1f30 003c d843 603c 1bf3 d93a
000001c0: 0e8d 38bc 54d5 22bc 32c9 7ebb 09dc 35bc
000001d0: aba7 233c 4604 10bb 1f26 08bc 7e1e 2f3c
000001e0: b7eb 553c b346 603c af5a 75bc 9c7a 9e3a
000001f0: fca1 953c e21c 71bc ba27 75bb cc82 0e3c
00000200: 4d6e 2fbb 0b47 1eba e3eb 93bc d060 fb3b
00000210: ee38 c33c 2f10 8e3c 3f02 7d3a a726 72bb
00000220: b356 8cbc 4b49 1abc e819 1ebc 373d baba
00000230: 250b ffba 9353 293c f5ac 81ba b341 52bc
00000240: 3ec0 f93b 8588 d2bb 782d 86b9 dceb 1f3b
00000250: a9be 2d3c aadf a5bb e75e 1c3c 59c1 383c
00000260: 5049 26bc 1cc0 853b 1490 d9bb d763 94bb
00000270: d006 2e3c d745 09bc bd98 bebb 06a9 d43b
00000280: 0409 90ba cd9e d0bb e80f 0a3c 396d 743c
00000290: 0803 b2bb ab92 9cbc d3a6 7d3c b550 4b3c
000002a0: 91b1 943b d9c9 32bc d080 383c 5288 333b
000002b0: b871 3ebc 9c10 863a 4a71 20bb 7496 303c
000002c0: 8ac8 423c ebfe 5339 e5bc d13a a2b0 9abb
000002d0: ddd2 ef3a 483e e43b bb94 60bb d42e 57bb
000002e0: 5dbe dfbb ef84 4039 6819 4fbc 2cf3 24bc
000002f0: e97d a2bc 329a a0bc e188 8e38 cd21 0abc
00000300: 1d6e 99bb 626f 9cbb 07bf 5dbb 659d 01bd
00000310: 7967 623a 8630 e83b 8030 05bb 0fb2 bbbb
00000320: 399a db3a a7fc 90bb a2cd 213c f3eb 4dbc
00000330: 72c7 733b 3df8 86b9 1a0e 9a3b 0537 213b
00000340: ff10 2abc 1e47 193b 28bb db3b 4c45 283c
00000350: 6112 6c3c 547b 9eba b800 b4bb af69 0abc
00000360: 5d5b a1bb 74b5 70bb ccd4 683b 5092 443c
00000370: 8bd7 283c 651f d23b a000 853b c258 d03a
00000380: 3def 55bc e5e3 623c 329b 05bc 2dd0 3bbc
00000390: 9b10 d33a 7e3f d0bb a88f a33b 5c89 793a
000003a0: a48c 09bc 1ddb 7abc 2237 a0bc 8301 2a3c
000003b0: f2d6 ad3c f376 003b b171 a3bb c6c1 61bc
000003c0: 31b0 3639 3025 5bbb d978 1cbc 73f8 4dbb
000003d0: 89f5 fc3a 4e35 633a 3530 a5bb 1ce8 433c
000003e0: ecc9 1d3b 83b6 6ebc e469 4cbc 64cb 7eba
000003f0: 70c0 4f3c 580b 88bb 4e68 6b3c e184 ad3b
-0.010533793 0.0064945007 0.006474282 -0.0077119465 0.0025124636 0.002295502 0.0041082003 -0.010801595
0.007641568 0.010781788 -0.00306236 -0.0055495324 -0.007812946 -0.0016862727 -0.0029367974 -0.01327752
0.019497992 -0.0046991324 -0.0113377925 0.002617421 0.0096749365 -0.019014722 -0.010816016 -0.003927144
-0.0073983963 0.012544887 -0.000654207 0.01824012 0.0009021043 -0.011471073 0.003805771 -0.0056722686
0.007911875 -0.0020934967 -0.0043469886 0.007327937 0.00044880086 -0.0062703122 -0.022588776 -0.024514427
-0.0003435344 0.0051079374 -0.01414258 0.018554688 0.0036350419 0.0013806449 -0.011004755 0.00048999966
0.012318029 0.016327126 0.015627874 0.01913767 -0.007288691 0.00892575 -0.008822182 -0.005575605
0.009096844 0.005971166 0.0074044717 0.013937746 0.0051551796 -0.025983708 0.0005827849 0.004972964
0.008318724 0.020205127 0.010924143 0.0027524806 -0.015883708 0.0092091495 0.0076928176 -0.023196347
0.006579113 0.010922512 0.0006337752 -0.00227903 -0.008257614 -0.00399685 -0.0047187298 -0.0100956205
-0.0012879466 -0.0006539217 -0.0037961695 -0.01291672 -0.017730664 0.0015046258 -0.010053059 0.013882123
0.0063168663 -0.0051683495 0.010052978 -0.008689496 -0.0033896046 0.003442899 -0.01145058 0.008972218
-0.008120193 0.0061597414 -0.018253954 -0.011850005 0.0012406635 0.0024366057 -0.0007675395 -0.0047303853
-0.005767827 -0.005898167 -0.004016691 0.0180246 -0.00048056783 0.007823973 0.01368805 0.0016628237
-0.011264099 -0.009938557 -0.0038877246 -0.011099824 0.009988706 -0.0021975203 -0.00830987 0.010688422
0.013056687 0.013688731 -0.014975234 0.0012090984 0.018265717 -0.014716359 -0.0037407712 0.008698177
-0.0026768625 -0.0006037808 -0.018056815 0.007671453 0.023830857 0.017341701 0.0009651519 -0.0036949308
-0.017131185 -0.0094168885 -0.009649731 -0.0014208917 -0.0019458277 0.010334867 -0.0009893464 -0.012833047
0.007621794 -0.006424966 -0.00025592349 0.0024402058 0.010604539 -0.005062063 0.009544111 0.011276566
-0.010149315 0.004081739 -0.00663949 -0.0045285034 0.010621741 -0.0083784675 -0.0058165477 0.0064898757
-0.0010989015 -0.006366587 0.008426644 0.014918619 -0.0054324903 -0.019112905 0.0154816685 0.012409379
0.004537769 -0.010912382 0.01126118 0.0027394486 -0.011623792 0.0010228339 -0.0024481588 0.010778058
0.011888633 0.00020217492 0.001600173 -0.0047207633 0.0018297095 0.0069654323 -0.0034268338 -0.0032834308
-0.006828113 0.00018360068 -0.012640335 -0.010067742 -0.01983543 -0.019604776 6.796583e-05 -0.00843091
-0.004682316 -0.00477402 -0.0033835785 -0.031644244 0.00086366344 0.0070858626 -0.0020323098 -0.0057280133
0.0016754336 -0.0044246498 0.009875687 -0.012568462 0.0037197736 -0.00025743424 0.004701388 0.0024599445
-0.010380029 0.0023388336 0.0067056604 0.010270428 0.014408679 -0.0012091198 -0.0054932497 -0.0084480485
-0.0049242214 -0.0036729248 0.0035527227 0.011997774 0.010305296 0.006412434 0.0040589124 0.0015895593
-0.013057527 0.01384828 -0.008154677 -0.011463207 0.0016102971 -0.006355225 0.0049914904 0.00095190643
-0.008395348 -0.01531103 -0.01955754 0.010376337 0.021220658 0.001960215 -0.0049879183 -0.013779109
0.00017422509 -0.0033438914 -0.009550297 -0.0031428605 0.0019299249 0.0008667306 -0.005041147 0.011957195
0.0024076654 -0.014569881 -0.012476418 -0.00097196386 0.012680158 -0.004151743 0.01436813 0.0052953814
