GAN/NO Generator/NO_epochs=5_seq=127_batch=28.pth (torch, 674918 bytes, 31 tensors)

weight f4 [1, 80, 1]
00000000: ae3a 2cbc 5fd7 b03b 163a 873b 2c91 cfbb
00000010: e26b 59bb c1b3 473c 2e80 0dbc 813c 0dbc
00000020: 85ca 50ba 6ab5 ac3b db3e 8fbb fb6c 17bc
00000030: 6a7a f6bb 7fff 82bb 7e6b 7e3c 4877 713b
00000040: e03a 3bbb 9033 a13b 82cc 423c 8dc2 593c
00000050: 6ce7 30ba 9faa 773b d236 ab39 a2f0 2038
00000060: f8d2 bb3b 0ed3 00bc bb53 423c bc2a 4cbb
00000070: a12a d5ba ea84 e7bb b153 d23b feba 8f3c
00000080: 7244 f3ba 6f52 be3b 84cd a5bc 616c 66bc
00000090: bc60 26bc 4559 f33a 783e 86bc 6ee4 07bc
000000a0: 5a4f 8b3c 9494 423c 7244 ef3b 417d dab9
000000b0: 95e9 9f3c e47c 21bc e322 023c 93bc 863c
000000c0: 94b9 3fb8 ccdc de3b 34b8 203c d95d 753c
000000d0: b4f3 9cbb 1fff 783c 4bf2 0e3c 737c dbb9
000000e0: 1e1d 8abc da9a b23b 8ca8 33b9 ddfc 42bb
000000f0: a25c 133d bebd 3c3a 48f1 23bc cfa9 963c
00000100: 316a 6fba cf55 fe3b 8783 953b d357 e3bb
00000110: 6745 4ebc 6b61 78bb 1ed4 543a 9133 833b
00000120: 5176 2539 f8a0 383c 1c89 313c c611 0fbb
00000130: 1fff 843b 2dd4 17ba b534 22bc b158 51bb
-0.010512037 0.005396768 0.0041267974 -0.0063344445 -0.0033175875 0.012188853 -0.008636517 -0.008620382
-0.0007964748 0.0052706497 -0.0043715066 -0.009242292 -0.007521917 -0.0039977427 0.015528558 0.0036844779
-0.0028569028 0.004919477 0.011889579 0.013291013 -0.0006748352 0.0037790907 0.00032656506 3.837108e-05
0.0057319365 -0.007862819 0.011860783 -0.0031153401 -0.0016263315 -0.007065405 0.006418668 0.01754522
-0.0018559827 0.0058081667 -0.020239599 -0.0140639255 -0.010154899 0.0018566033 -0.01638721 -0.008294208
0.017005611 0.011876244 0.0073018605 -0.00041673522 0.01952056 -0.009856436 0.007942888 0.016447341
-4.571078e-05 0.0068012234 0.009809542 0.014975988 -0.004789794 0.015197544 0.008724759 -0.00041863657
-0.016859587 0.0054505887 -0.00017133559 -0.002975277 0.035977013 0.00071999046 -0.010006256 0.018391518
-0.000913295 0.007761694 0.0045627984 -0.0069379597 -0.012589789 -0.0037899863 0.0008118766 0.00400395
0.00015779703 0.011268847 0.010835912 -0.0021830662 0.004058733 -0.00057918095 -0.009900262 -0.0031943733

weight f4 [80, 3, 1]
00000000: 9bc6 86bb cf0c a0ba 9191 51ba d531 003c
00000010: cd20 89bc e522 9bbc c5ee 92bc 434b d2bb
00000020: 31db eb3b 3064 5abc 8fcc d0bb 1e13 00bb
00000030: 04a1 c4ba 98dd a7bc 31da 143c ce2e 57b9
00000040: 29fd 13bc 8f39 e93a e5a9 4fbc d82b 3d37
00000050: 5fa1 b9bb 3de5 553c 5851 f1b9 fa2a 41bc
00000060: 0423 843b b4c4 243c 23d3 313b 9b35 4d3c
00000070: 4f46 96bc c1fa 4dbc 21e0 983c 524e 323c
00000080: b8ed cd3b 6951 3bbc e62c b6bb d5a1 d5bb
00000090: 0554 b6ba 2e05 45bb e1b6 48bc b9ce 7fba
000000a0: a908 653c 79c9 a63b 2c55 bfba 9d22 48bb
000000b0: 99bd a4bb 2493 b3bc 01c5 b8bc 3a3c 033c
000000c0: 817f 853b 1fb4 86bb d65c 8cbc 2a33 79bb
000000d0: 9046 a53c 7b67 823b b631 703a 6a4f 7c3b
000000e0: 70f9 2cbb 596f 80bb 99ff 98bb 8619 d2bb
000000f0: 223b 7cbc 4fce 88bb 3ac3 7b3c 2589 273c
00000100: 44e6 123a 362c 873b 6d47 39bc 9fbf 7b3c
00000110: a405 97bb e093 273a 1008 6d3b 7309 22bc
00000120: bc9f ce3b 45d7 11bc 84ab b33b ac77 4ebc
00000130: c2b3 c1bb 0d86 a6bc 3f50 9dbc 726b abbc
00000140: 7e78 93bc 5d4a abbb 7efb bf3c 0088 283c
00000150: 8117 37ba bca2 8cbb b380 903b 9252 573c
00000160: bab5 49ba 0559 f63b 514c 8b3b e64a 173b
00000170: 76d6 103c 6af2 0c3c ae03 88bb 74c8 1ebc
00000180: 6661 363c 5221 69bc 5610 13bb f16a 85bb
00000190: a0ea 3a3b 9992 ff3c 1f9f 3fbc 6ce4 62bc
000001a0: cd57 e1bb afc3 563c edf6 b8bc 33aa 9cbb
000001b0: 6b96 d83b ab80 05bc 0b41 04bb c561 94b9
000001c0: 7ac6 723a 2dc6 3cbb eec2 903b 9575 b5bb
000001d0: a6d5 5d3c 1bb2 8e3a 1079 a33c 29ed 3dbc
000001e0: 4e79 e2b8 b1fe 6c3c 145e 87bb 7b28 9d3a
000001f0: 2a4f c5bb 3890 d2bb ece2 55bc dde0 763c
00000200: 7202 1d3a 6947 a03b ce24 183b dfa9 cbba
00000210: c888 2bbb 1e94 ddba 579f 98bc 06a3 d0bb
00000220: a68d a4bb b1a7 2d3b 8cb7 073c 0ff2 98bb
00000230: 85af 253c 731a 433c 87da 013c 16dd 7e3b
00000240: ecc7 ab3c ef36 5b3c 2292 2cbc 438d e3bb
00000250: 23f1 403b 6d66 1d3c 7d4e b63b 115d 8fbc
00000260: b543 1a3c b173 0b3c b232 06bc d605 523c
00000270: 52db c5ba aeb1 67bc 66c3 943c 4f76 1c3b
00000280: 060b 83bc f1b7 c0bb 03c1 193c 822c ad3a
00000290: 15b4 643b eb56 9d3b 2e24 fdbb c3f2 053b
000002a0: 0be9 403b 3798 32bb 5726 42bc fd82 eebb
000002b0: fd6a ac3b e17c d8bb 3aeb 2dbc 7978 f53b
000002c0: b6b2 7ebb 217b 853c dfd3 7fbc 6770 073c
000002d0: 7440 69bb 712c c5bb a3b7 04bc d0bd 4dbb
000002e0: a517 533c 1f0a 84ba 21bc 103c 20de 94bb
000002f0: 04ee b1bc 4770 83b9 b09b 55ba ab78 45bc
00000300: 4f20 82ba 532c 2a3b cbc8 10bc 9f6b 25bb
00000310: 245f 0d3c e702 243c 8d8e 973c a162 823b
00000320: ccda ec3a 281b 0abb 13fb 8ebb 0a7d f6bb
00000330: 9c0c fbbb 1a17 913c 1a79 e03b c9c8 45bb
00000340: 032e fe3b 6d6f 1bbb 1d75 083b ad8b 833a
00000350: ec72 46b8 f321 5fbc 5559 f83b 2def 5a3a
00000360: c6d8 03bc 0608 a53a f9d4 3e3c faba b53b
00000370: b02a 03bc f2d1 183c 8ea2 573a 5b7c 55bc
00000380: 396d 8dba 6240 adbb a700 203c 0143 443c
00000390: 1e32 cb3b 5759 5fbc bb31 4e3a 6bb4 25bb
000003a0: 7ba9 673c e07c b939 fdd1 16b9 3584 47bc
000003b0: bccc 5dbc da67 beba f2f5 92bb 72c0 1fbc
-0.004113031 -0.0012210849 -0.00079944084 0.007824381 -0.016739273 -0.018937537 -0.01793612 -0.0064176633
0.0071977605 -0.013329551 -0.0063720415 -0.0019542645 -0.00150016 -0.020491406 0.009085224 -0.00020521434
-0.009032526 0.0017793643 -0.012674783 1.1275486e-05 -0.005664989 0.013055143 -0.00046027708 -0.011790032
0.0040324945 0.010056663 0.0027133904 0.012524988 -0.018344073 -0.012571991 0.01866156 0.010882931
0.006284442 -0.011432984 -0.0055595515 -0.006519536 -0.0013910538 -0.0030062902 -0.012250633 -0.0009758282
0.0139791155 0.0050899354 -0.0014597527 -0.003053821 -0.0050274846 -0.021920748 -0.022554876 0.008009965
0.0040740375 -0.0041108276 -0.017134111 -0.003802488 0.020175248 0.003979621 0.0009162681 0.0038499483
-0.0026393794 -0.0039195237 -0.0046691415 -0.006411734 -0.015394958 -0.0041749845 0.01536637 0.010225569
0.000560377 0.0041251434 -0.011308533 0.01536551 -0.0046088267 0.00063925795 0.0036168136 -0.009889948
0.006305663 -0.008901422 0.0054830927 -0.012601774 -0.0059113214 -0.020327592 -0.019203303 -0.020925257
-0.018001791 -0.0052273707 0.02343535 0.010286331 -0.00069843984 -0.0042918604 0.0044098734 0.013142245
-0.0007694621 0.007517936 0.004251041 0.0023085414 0.008840194 0.008602718 -0.0041508293 -0.009691346
0.01113162 -0.014229136 -0.0022440157 -0.0040715863 0.0028521195 0.031197833 -0.011695652 -0.013848405
-0.0068769217 0.013108178 -0.02257868 -0.0047810315 0.006609728 -0.008148353 -0.002018037 -0.00028301604
0.00092611427 -0.0028804645 0.0044177687 -0.0055376985 0.013539707 0.001088682 0.019955188 -0.011592188
-0.000107991145 0.01446502 -0.004131088 0.0011990214 -0.0060214 -0.0064258836 -0.013054591 0.01506826
0.0005989439 0.0048913253 0.0023215297 -0.0015538296 -0.0026174057 -0.0016905104 -0.018630667 -0.00636709
-0.0050217686 0.0026497657 0.008283507 -0.0046675275 0.010112648 0.011908161 0.007925636 0.0038889102
0.020969354 0.013379796 -0.010532888 -0.00694433 0.0029440604 0.00960694 0.0055635558 -0.017500432
0.009415557 0.00851147 -0.008190798 0.012818774 -0.001509527 -0.014141483 0.01815958 0.0023874228
-0.015996467 -0.0058813025 0.0093843965 0.0013212117 0.0034897376 0.004801621 -0.00772526 0.0020438887
0.002943578 -0.0027251372 -0.011849961 -0.0072787986 0.0052617774 -0.0066066836 -0.010615164 0.007491168
-0.0038863844 0.016294064 -0.015614479 0.008266545 -0.0035591396 -0.0060172607 -0.008100423 -0.0031393655
0.012884055 -0.0010073817 0.008833916 -0.004543081 -0.02171994 -0.0002506992 -0.00081485044 -0.012052695
-0.0009927842 0.002596636 -0.008836935 -0.002524115 0.00862864 0.010010458 0.01850059 0.0039790426
0.0018070578 -0.0021073315 -0.0043634265 -0.00752223 -0.0076614153 0.017711211 0.006850374 -0.0030179492
0.00775695 -0.0023717538 0.0020821758 0.0010036133 -4.7313908e-05 -0.013618934 0.0075790086 0.000835168
-0.008047288 0.0012590892 0.011647456 0.005545971 -0.008005783 0.009327399 0.00082258217 -0.013030137
-0.0010789997 -0.005287216 0.0097657805 0.011978866 0.006201043 -0.01363214 0.0007865687 -0.002528454
0.014139528 0.0003537899 -0.00014383341 -0.012177517 -0.013537582 -0.00145268 -0.0044848854 -0.009750472

bias f4 [80]
00000000: 74ac afbe f335 b43e 418b ce3e b69a a43e
00000010: 5be9 dd3e 204a cfbe 0305 33be 5523 ea3e
00000020: 2ad1 e3bb 6ad7 f23e f5e4 b63e 2f2e b4be
00000030: 9c9f 92be 80a2 2e3e d5d0 c3be 9b96 8d3c
00000040: 9325 7f3e 7f80 da3e 976e 1a3e 20fd 083f
00000050: 502c c2bd 0478 923e c0f9 873e 4fd6 76be
00000060: 599a fb3e 7c5d 073f 2df3 6a3e aede 973d
00000070: bbe8 913d 4148 8bbd 0fd7 e23e 7a08 29be
00000080: 66e0 63be 65c4 cdbe 8262 123f 2263 053f
00000090: d8eb 4dbe 6c0a 9dbd a9a9 fe3e eeb5 073f
000000a0: 666e 13bf 4cbb 133f 5569 8c3e 62c5 dabe
000000b0: 1a2b d1be a7f5 303e 6552 cb3e cbb2 033b
000000c0: 82f5 843e 9a81 b1be 6bed 25be 1493 9ebe
000000d0: cbab 0a3f 2036 433e 758a dbbe 88d3 103e
000000e0: 9c5e 0cbf ee8e e63e 98e4 41be d88b fbbd
000000f0: 15ca b63e 0b77 98be c9d1 4cbc 1e35 9a3d
00000100: b2c2 b53d afde b3bd 9bfa 03bf f85a ac3d
00000110: b9dd 5ebe 1bb1 b3be 5fc2 a2be 70a0 4f3e
00000120: 32c1 03bf 0f46 d6be a6c5 003f 9f1a b8be
00000130: f35b 8e3e 8868 f03e c1a9 0fbf 8c2e b4be
-0.3431126 0.3519741 0.40340617 0.32149285 0.433421 -0.4048624 -0.1748238 0.4573008
-0.0069524245 0.47429973 0.35721555 -0.35191485 -0.28637397 0.17054176 -0.38245264 0.017283728
0.24916677 0.4267616 0.15081249 0.5351124 -0.09481108 0.2860719 0.26557732 -0.2410519
0.49141195 0.5287702 0.22944327 0.0741552 0.07124468 -0.06800891 0.44304702 -0.1650714
-0.2225357 -0.401889 0.5718156 0.5210439 -0.20109499 -0.076680034 0.49738815 0.5301198
-0.5759033 0.5770767 0.27424112 -0.42728716 -0.40853196 0.17281209 0.397113 0.0020095583
0.25968558 -0.3466919 -0.16203849 -0.30971587 0.54168385 0.19063616 -0.42879072 0.14143193
-0.5483186 0.45030922 -0.18934858 -0.122825325 0.3570105 -0.29778323 -0.012501189 0.075296625
0.08875026 -0.08782708 -0.5155427 0.084157884 -0.21764268 -0.35096058 -0.31788918 0.20276046
-0.5146667 -0.41850325 0.5030159 -0.3595781 0.27804527 0.4695475 -0.561184 -0.35191762

weight f4 [80, 80, 1]
00000000: 0e90 26bc f2fc a23b 8165 54bb e81d 6e3c
00000010: 0a74 163c 3729 083d 208c 523c 7ec5 32bc
00000020: d0a3 f6bb 428e 3ebc 4f90 c53a 2f80 b3bb
00000030: bcfa a13c 4f92 ff3b c816 ac3b 11da 83bc
00000040: 5ef7 47bc 014a bdbc eeb3 63bc f8d1 0abc
00000050: acf3 78bb 973e 043c 62bf 04ba 8fde e53b
00000060: e167 11bb 6c56 eb39 fcf9 4fbc 4386 953b
00000070: b94c 2bbc d7b5 e43b 9c10 083c 8a62 c13b
00000080: 482b bfbb 9905 00bd fb2c c4bc 7b19 6dbc
00000090: 0fbb 58bc 2117 0bbc 9b69 2b3c ca36 4cbc
000000a0: 3dbb 70bc 3568 38bb 1044 05bc b8b8 da3a
000000b0: b108 4e3c 54b5 733b 1be8 873c 5635 98bb
000000c0: b669 4c3c 475d 6a3a 36d3 d6bb f0d0 c9ba
000000d0: 6214 d3bb e145 97bc 787c a1b8 4db3 d8ba
000000e0: cf04 1fbc fa54 19bb b11a ad3c 2cc3 ba3b
000000f0: a692 89bb 5a7c ad3b fcca bdbb 2420 39bc
00000100: d777 45ba e66f 423b e1f5 5b3a c7a4 85b9
00000110: 403e d53b 9d98 c4bc ee6f 0e3c e7c5 203b
00000120: 80c1 e4bb 8bb3 843a 1fd3 b5ba 7a0d 2d3a
00000130: b6db 0abc 51db bfba e014 003c 5175 31bb
00000140: 682d 733b cb57 b8bb cafb 6bbc b3ed 663b
00000150: 7bbd a53c ed88 583c c55a 1bbc fcc1 ddb9
00000160: c7c8 413c b503 b93c 44b7 e03a 4970 c53b
00000170: 9156 f4bb edb7 443c 22cb d0bb 4b11 60bc
00000180: 8377 b1bb dee8 183c 9daf 1abc c657 393c
00000190: bf33 453c 8161 053c 29f1 0d3b 053e f33a
000001a0: 428c 923b 3509 1a3c 7f67 d13b 6b1d 3bbc
000001b0: 1e3d 953c ee6c 46bb c91e 423c 4f26 1e3c
000001c0: 31b0 f4bb 6ae8 ebba 34a2 63bc f33e 94bb
000001d0: 9845 a33b 88e0 85bc 76ac 99bb ae96 013a
000001e0: b7cb f0ba 6cba dcb9 a4b0 aa3c 76ec 023c
000001f0: 9228 87bb 6cc2 bdbb 0a48 84bc d88b 4f3c
00000200: 4f14 a13b b717 82bb 102a 1abc a44a a5bb
00000210: fa68 2f3c 7fc7 46bc a81a aa3b acde 8f3b
00000220: 75f7 293b 0195 5cbc 43e7 8fbb 6331 a6bb
00000230: 3802 0fbc 5d92 153c cca4 7a3b 3e36 863c
00000240: 2ec1 f53b c617 74bb e8b4 8c3b 9423 993b
00000250: 0e91 98b8 a50b 963b 6fe2 b23b 612d d13b
00000260: 0ba4 a23b c5e3 fcbb 3cc3 a6b9 c9c1 d03a
00000270: 4720 423c 7e79 f43b d4c5 a03b 7795 283b
00000280: 1a44 0fbc 1925 c03c 4bee 7e3b b5ef ad3b
00000290: 6588 70bb 621f 463a 7eb8 7dbb 7aa3 b6bb
000002a0: 462f daba 0516 153b 1e48 f8bb 91b2 c8bb
000002b0: 1159 34bc b127 25bd 2048 983b 2d58 e03b
000002c0: 679e 243c 10f1 de3b 5934 e5bb 0b32 a0bb
000002d0: b0b8 bfbb 2275 a7bb 028f 273c a77e deba
000002e0: c748 373c 6de7 c6ba a9a5 7a3c f693 183c
000002f0: 0771 2e3c 5bc2 71bb a264 18bb 2a1b 03bc
00000300: c5f4 c7bc 5d76 e8ba 1a4d 5c3c b2dd 343b
00000310: bded bdb9 ed2c be3a 682e d23b c2ee 31bb
00000320: 8031 74bb e29f 1b3c d4cd 03bb 758a 3dbb
00000330: 6682 3bbc 7bd4 ccbb b5b1 6e3b 559a af3c
00000340: 3b03 3c3b 847e cf3b 0641 4bba 6b9d a7ba
00000350: 615f ce3b 4671 9f3c 1c83 a1bc 9403 0f3a
00000360: d23a 653a 5993 383c f6f4 bc3c ddef d1ba
00000370: 0828 723c 4b9d 95bb 0da7 15bc 2533 b63b
00000380: 0366 213a ba99 76bb c9f0 83bc 0f25 733c
00000390: 20bb 27bc fadd d2bb 2e98 0abc 77bb cf3b
000003a0: b3e4 2a3a 8ff3 b4bc 87ea 62bc b9e6 f2bb
000003b0: 818c 263b 8afc a7ba df47 28bb e8da 023c
000003c0: f59e 013b 5552 ea3a 1b1c 2a3b 9bda 1c3c
000003d0: 7c88 20bc 8acb 0d3a 6693 483a 026d a3ba
000003e0: b215 d93b d2ed 053b 8a1f f6bb 194c 813b
000003f0: 4ac1 2f3c 1b7f e7bc 370d e33a 1d14 2b3a
-0.010166181 0.004974001 -0.0032409134 0.014533497 0.009182939 0.03324243 0.012850791 -0.010911344
-0.007526852 -0.011630597 0.0015072915 -0.005477927 0.01977288 0.0077994238 0.005251739 -0.016095193
-0.012204973 -0.023106577 -0.013897879 -0.008472912 -0.0037987037 0.008071563 -0.00050639187 0.0070150564
-0.002218716 0.00044887082 -0.012693878 0.0045631244 -0.010455304 0.006979685 0.008304741 0.0059016393
-0.005834017 -0.03125534 -0.02394723 -0.014471407 -0.013228192 -0.008489401 0.01046219 -0.012464235
-0.014693079 -0.0028138284 -0.008133903 0.001668713 0.012575314 0.0037186937 0.016590169 -0.00464503
0.012476375 0.0008940291 -0.00655594 -0.0015397351 -0.006441639 -0.018465938 -7.700262e-05 -0.0016532928
-0.009705736 -0.0023396597 0.021130892 0.005699536 -0.00419839 0.005294365 -0.00579202 -0.011299167
-0.0007532811 0.0029668747 0.0008390826 -0.00025490506 0.006507665 -0.023998553 0.008693678 0.0024532021
-0.006981075 0.0010124309 -0.0013872123 0.00066014344 -0.008475235 -0.0014637505 0.007817477 -0.0027077983
0.0037105922 -0.0056257 -0.014403293 0.0035236895 0.020231953 0.013216239 -0.00948209 -0.00042296934
0.011827654 0.022584775 0.0017144461 0.0060253483 -0.0074566086 0.012006742 -0.0063718716 -0.013675998
-0.0054158582 0.009332864 -0.0094412835 0.011312431 0.012036263 0.0081409225 0.0021658635 0.0018557912
0.0044722864 0.009401609 0.0063905115 -0.011420588 0.01821762 -0.003027733 0.01184816 0.009652688
-0.0074672927 -0.0017998342 -0.013893653 -0.0045241057 0.0049826615 -0.016342416 -0.0046897484 0.00049434125
-0.0018371259 -0.00042100565 0.020836182 0.007990947 -0.0041247094 -0.005790999 -0.016147632 0.012667619
0.004915751 -0.003970112 -0.009409443 -0.0050442982 0.010706181 -0.0121325245 0.005191166 0.004390558
0.002593485 -0.01346326 -0.004391582 -0.0050718053 -0.008728556 0.009129134 0.00382452 0.016383287
0.0074998355 -0.0037245615 0.0042940266 0.0046734307 -7.274943e-05 0.004579025 0.005459122 0.0063835834
0.004963403 -0.007717582 -0.00031807448 0.0015926893 0.011848516 0.007460772 0.0049063955 0.0025723854
-0.008744264 0.02345519 0.0038899358 0.0053081163 -0.0036702391 0.0007557777 -0.0038714702 -0.005573687
-0.0016646169 0.002274872 -0.0075769564 -0.0061248024 -0.011007563 -0.040321056 0.00464727 0.006846449
0.010047532 0.0068036392 -0.0069947657 -0.004888778 -0.005850874 -0.005110399 0.010226967 -0.0016975001
0.011186785 -0.0015175171 0.0152982855 0.00931262 0.010647065 -0.0036889527 -0.0023253341 -0.008002082
-0.024408707 -0.001773547 0.013446117 0.002759796 -0.00036226018 0.0014509239 0.0064142235 -0.0027150367
-0.003726095 0.009498568 -0.0020111697 -0.0028921638 -0.011444664 -0.0062509156 0.003642184 0.021435896
0.002868845 0.0063322205 -0.00077535247 -0.0012788003 0.006297991 0.019463193 -0.019715838 0.000545555
0.00087444216 0.011265599 0.023066025 -0.0016016919 0.014780052 -0.00456587 -0.009134066 0.005560296
0.00061568635 -0.003762825 -0.016106026 0.014840378 -0.010237485 -0.006435153 -0.008459134 0.006339486
0.0006519064 -0.022088794 -0.013849861 -0.007412758 0.0025413337 -0.0012816351 -0.0025677604 0.007986762
0.0019778584 0.001787732 0.0025956694 0.009573604 -0.009798165 0.0005409053 0.00076513586 -0.00124684
0.0066249007 0.0020435941 -0.007511084 0.003945839 0.010727236 -0.02825885 0.0017322664 0.00065261294

bias f4 [80]
00000000: 24e5 60bc 6178 6cbd 6265 94bc c185 bb3c
00000010: 4bd0 93bc 72ef 8cbc 41d1 93bd a514 943c
00000020: 3ba3 843c f020 8abd e773 bf3d 10c3 e1bd
00000030: 03c0 7bbd 4668 94bd cf05 62bc 1113 103d
00000040: 3b0c 5d3d e94f 293d 12c6 2abd 65d4 f63c
00000050: 8d24 0d3d b058 83bd 770e 773d e697 d83d
00000060: bf85 bcbd 4f59 22bc c3d8 f13b 983f 5c3d
00000070: c189 e43d 8985 a5bc 3286 083d 5491 f63c
00000080: c63b 8dbd 9fee dbbd 46d1 77bd 9e43 923d
00000090: 6bdd 973a ea07 033d f134 603c e605 a23d
000000a0: 3f87 5cbd 18fc ea3c 3ae6 3c3d a521 96bc
000000b0: 2457 d8bd cb1e e93b 0d22 2d3c bb77 043d
000000c0: 81e3 4a3d 369a 0f3d 7835 c73c 7c8d b4bc
000000d0: 4d8e 0c3d 41eb 9fbd fc35 a03d 92c7 453d
000000e0: ad75 87bb 9684 c83d 9a0f 8cbd c054 4abd
000000f0: b397 d2bd b657 b33d c353 80bd f73a c4bd
00000100: ca25 4b3c c7a2 5a3d 0c2e 64bd 14f8 d1bb
00000110: 14cd c7bd 7857 74bd 1ded d33c 315c b33d
00000120: 089a 08bd 38c4 753d 1e7c 3d3d 011f c83d
00000130: 41df 7dbc 9e16 d5bc fdee c53d 5f0f 6bbd
-0.013726506 -0.05773199 -0.01811475 0.022890927 -0.018043658 -0.01720402 -0.072176464 0.01807625
0.016191116 -0.067445636 0.093482785 -0.11023533 -0.061462414 -0.07246451 -0.01379533 0.035174433
0.053966742 0.041335974 -0.0416928 0.030130574 0.034458686 -0.064134 0.06031653 0.10575847
-0.092051975 -0.009908988 0.0073805763 0.053771585 0.11159087 -0.020205276 0.033331104 0.030098595
-0.068961665 -0.10738873 -0.060502313 0.07141803 0.0011586373 0.03198997 0.013684497 0.07911281
-0.05383992 0.02868466 0.046118 -0.01832659 -0.10563496 0.0071142665 0.0105672 0.032340746
0.04953337 0.035059176 0.024317488 -0.022040121 0.034315396 -0.07808543 0.07822797 0.04828603
-0.004133901 0.09790914 -0.06838913 -0.04939723 -0.102828406 0.08756964 -0.06265976 -0.09581559
0.012399146 0.053377893 -0.055707976 -0.006407747 -0.097559124 -0.05965373 0.0258699 0.087578185
-0.03335002 0.060001582 0.046260945 0.097715385 -0.015495122 -0.026011761 0.09664724 -0.057387706

weight f4 [80, 3, 1]
00000000: 5748 ce3a a6c8 b43b 54d2 98ba 0ba9 35bc
00000010: 62c4 60bc 12ab b7bc 9c69 993a 19db 393c
00000020: 25f5 24bc 009a 9dba b1a7 47bc 1e43 3cbc
00000030: e077 d73b 02ee c7bc 75ae 73bc 0a75 27bc
00000040: 7ec3 34bc 2be2 2e3c ca32 6f3c 6d2c 3439
00000050: 5605 a93c d787 9bbc 4e0a 6dbc fad4 c0bb
00000060: 283c a6bb 4ffb a13c 5e14 54bc b0e5 92bb
00000070: 191b 273c 9c37 fe3b 0f0c 97bc 293a 6ebc
00000080: eb0e 563b c35d 1a3b 6be6 e8b9 0a86 91ba
00000090: 1ced ac3a 2a0d 603c ab89 3a3c 3431 5d3b
000000a0: f75d 8e3a fb3a d03b 0052 c4bb 2470 7abc
000000b0: dcd8 473c a9ae 89bb ef92 b638 60f3 173c
000000c0: df74 9f3c 3651 00bc bed9 3bbb fffa a0bc
000000d0: 9d05 2abc f62f 703b fcfb 563c bef7 7d3a
000000e0: 9530 203b a21c 323c 4d9f 9bbc f482 613c
000000f0: 4a64 41bc 5f08 58bb 4e51 e73b 6f41 5e3c
00000100: 8401 223c cb02 25bc a56a b83c 9998 72bc
00000110: d97f 7d3c 7c05 27bc 2181 eebb 6246 713c
00000120: 00b0 243c 3533 89bc de66 c3bb 2af7 2dbc
00000130: d1ef abbc 89bc b63a 0a0b 7d3c 3d36 023c
00000140: b1cc fdbb f903 8b3b 86fd b73c 13bd 2abb
00000150: aed5 1339 9f29 923c e9f1 d03b 2487 17ba
00000160: 44ac 19bb a231 05bc c8e9 f2b9 79a0 54bb
00000170: f783 3fba 1c37 a93c b1c3 2dbc 5de1 06bb
00000180: ac39 78ba a467 ddbb 5c79 88bb 3599 2e3c
00000190: 29d2 18bc 4548 0e3c 75b2 5abc 0030 76ba
000001a0: b113 3abc fb94 453c d312 083b 729a d8bc
000001b0: 60e3 18bc ec08 c53b 0d03 04bb 872b 0e3c
000001c0: b6bc 2bbb ecee 813c fda8 41bc a18f 15bb
000001d0: fd6b ce3b 43e5 d6bb bfdb 183c 960c 2abc
000001e0: 43e8 bd3c 96d8 09bc 51c9 033a 2dcd 3a3c
000001f0: 9d55 5ebc 3d38 4fbb 2eef b0bc 81a8 4cbc
00000200: 40e2 bb3b ade5 26bb 9f7c b5bb f98f 793c
00000210: d5dc ac3c 9e1f 75ba bf4d 3639 ece3 ecbb
00000220: 2dc1 ecbb d51a 873a 2949 61bc 273a 93bb
00000230: dec6 203b eaff d2bc 2958 8dbb 2281 5dbb
00000240: bb08 81bc 7ba9 d03a fc70 233b 04d5 683a
00000250: 5959 a7bc 62cf 7e3c d0fd 3fbc c9bf fb3b
00000260: 7ced 30bc bceb b6bc 0805 493a 5a98 ab3b
00000270: 4828 a5bb e679 cc3b 4591 72ba e6ed 123c
00000280: 2f65 9c3c a23b d63b f66e 37bc 098b 10bc
00000290: ca8b 423c acc2 163c 27d1 d83b be77 6fba
000002a0: 1b2f 0f3c 756e 3d3c 77fe d0ba f927 98bc
000002b0: b64c 9ebb 167a 8e3c d74d 253b 1d80 993a
000002c0: 1bed 14bc b271 533b 4847 90b9 032a 053b
000002d0: 70e1 afbb b04b 1cba 8a80 c73a dab8 1d3c
000002e0: 419c fe3a c8d8 1bbb 9ec6 e3b9 48c9 133c
000002f0: 90da 2a3c e557 2dbc 4d06 51ba b40c 4539
00000300: be72 963b 2baf 6d3b 879b 2b3c d466 503a
00000310: a608 e0bb 80b6 343c a61d 88bb 0170 143c
00000320: 82fd 12bc 9d88 9a3c fcbc 003c d2b2 9ebc
00000330: 4b0a 93bc 9064 2f3a 9030 a03b 3b80 56bc
00000340: d267 733c 4ba0 1bbc 9281 753a 2dea 1bbc
00000350: 9960 293b 0020 e53b d682 91bc 9cdf 80bb
00000360: 6536 78bc 03dd c6bb a80c fabb 2772 46bc
00000370: 43c8 74bc 6002 b43b 69f4 483c 0eb3 1d3c
00000380: 840e 803b 6bb9 16bb 0308 1d3b dcd8 94b9
00000390: 1d58 9d3a 4d68 96bc 5d45 ba3b 7085 87bc
000003a0: 8fb5 c03b d683 1f3b 8253 94bb 8360 543c
000003b0: f471 90bb b577 88bb e87b a23b 8670 f6bb
0.0015738112 0.005517083 -0.0011659362 -0.011087666 -0.013718696 -0.02242044 0.0011704448 0.011343741
-0.010068213 -0.0012024045 -0.012185977 -0.011490611 0.0065755695 -0.024405483 -0.014873137 -0.010220775
-0.011032937 0.01067404 0.014599511 0.00017182688 0.020632427 -0.018985672 -0.014467789 -0.005884764
-0.005073089 0.019773154 -0.012944309 -0.0044829473 0.010199332 0.007758094 -0.018438367 -0.014540234
0.00326627 0.0023554421 -0.00044422163 -0.0011102569 0.0013193223 0.013675014 0.011385362 0.0033751251
0.0010861744 0.0063546873 -0.0059912205 -0.0152855255 0.012197699 -0.0042017293 8.705805e-05 0.009274334
0.019464908 -0.007831862 -0.002866372 -0.019650934 -0.010377315 0.003664968 0.013121601 0.00096881005
0.002444302 0.010871084 -0.018996859 0.013764132 -0.011803696 -0.0032963974 0.007059253 0.013565405
0.009888057 -0.010071467 0.02251179 -0.01480689 0.015472376 -0.010194179 -0.007278577 0.014726253
0.010051727 -0.01674805 -0.0059631905 -0.010618011 -0.020988377 0.0013941686 0.015444526 0.007947502
-0.0077453484 0.004242417 0.022459757 -0.0026052638 0.00014098614 0.017842112 0.006376494 -0.00057803304
-0.0023448626 -0.008129509 -0.00046332018 -0.0032444282 -0.0007305736 0.020656161 -0.0106057385 -0.0020581104
-0.0009469043 -0.0067567397 -0.004164858 0.010656645 -0.00932745 0.008684223 -0.0133482115 -0.0009391308
-0.011357234 0.0120594455 0.0020763173 -0.026440833 -0.009331554 0.0060130265 -0.002014342 0.00867737
-0.002620501 0.015860997 -0.011820075 -0.0022821205 0.0062994943 -0.006558092 0.009329735 -0.010378977
0.02318204 -0.0084134545 0.0005027252 0.011401457 -0.0135702165 -0.0031619214 -0.021598425 -0.012491346
0.005733758 -0.0025466487 -0.0055385376 0.01523208 0.021101395 -0.00093507196 0.00017385835 -0.007229319
-0.007225177 0.0010307679 -0.013750353 -0.0044930163 0.0024532597 -0.025756795 -0.004313488 -0.0033798893
-0.015751233 0.001591965 0.002493917 0.00088818395 -0.020428346 0.015552374 -0.011718228 0.0076827747
-0.010798808 -0.022329204 0.0007668291 0.0052366676 -0.0050402023 0.0062401174 -0.0009253214 0.008967852
0.019091217 0.0065378705 -0.011195889 -0.008822211 0.011874149 0.009201687 0.00661673 -0.00091349694
0.008739258 0.01156198 -0.0015944977 -0.018573748 -0.004830922 0.0173922 0.0025223398 0.0011711154
-0.0090897335 0.0032263813 -0.0002751893 0.002031923 -0.0053674504 -0.0005962206 0.0015220803 0.009626592
0.0019425229 -0.0023780335 -0.00043444795 0.009020157 0.010428086 -0.010580038 -0.0007973656 0.00018792116
0.004591315 0.0036267738 0.010474092 0.0007949893 -0.0068369685 0.0110298395 -0.004153925 0.009059907
-0.008971574 0.01886397 0.007857557 -0.019372378 -0.017949244 0.0006690705 0.0048886016 -0.013092096
0.014856296 -0.009498666 0.0009365316 -0.009516281 0.002584493 0.00699234 -0.017762583 -0.0039329063
-0.015149687 -0.006068827 -0.0076309033 -0.012112177 -0.014940324 0.005493447 0.012265303 0.0096252095
0.0039079804 -0.0022998701 0.0023961074 -0.00028390333 0.0012004409 -0.018360281 0.0056845383 -0.01654312
0.0058810185 0.0024340055 -0.0045265565 0.012962463 -0.0044081155 -0.004164661 0.0049586184 -0.007520738

bias f4 [80]
00000000: 7e72 b4be 7ba4 b7be 7d19 2fbe ffe0 b9be
00000010: 43c6 0ebf 7f7c cd3e 2dbc 26bd 027d d03e
00000020: da94 a1be 0032 0f3e 23cc 51be 1abf c73e
00000030: 4bbe b6be 382e b0be c523 b63e eb80 0d3e
00000040: faa9 0b3f 07ab 83bc bab2 463e f372 073f
00000050: d8c6 3ebe 5311 143e 55e6 c4be 2e1c 9f3b
00000060: 7021 bc3e 78e9 da3e 4a2e e8bd d2fb a53e
00000070: 51e7 56be 12c5 1cbe 7312 c03e 71ab c03e
00000080: a907 dbbe fae1 123f 2cee ddbe b2f9 0c3e
00000090: ec02 07be 3756 043e cb2a acbe ad31 e9be
000000a0: 8338 ca3e b7a1 dd3d 3146 12bf 48b8 853e
000000b0: 6232 973e 810b 05bc 9298 033f 064f 8a3e
000000c0: fd76 013e 23f6 ae3e 3f57 f93e e791 fe3e
000000d0: 2c02 a1be 008d 243e 318f b63e 94d7 9ebd
000000e0: 6d4e 033f d885 0bbf d167 29be 9494 b33e
000000f0: 355d f43e a5d0 43bc f53e 353e 6dd7 033f
00000100: 8781 efbd 3cea 723e 2d42 12bf 0c99 59be
00000110: 8474 cbbe 320c d0be 680c 313e 6988 e43e
00000120: 94ae 5b3a 5f96 ac3e 2280 213d a375 663e
00000130: ff47 b7be 3a62 b23e 3a94 7b3a 93d1 643e
-0.352436 -0.35867676 -0.17099567 -0.3630447 -0.55771273 0.40134045 -0.040706802 0.40720373
-0.31558877 0.13983917 -0.20488028 0.39012986 -0.35692057 -0.34410262 0.35574165 0.1381871
0.5455624 -0.016072763 0.19404116 0.52909774 -0.1863054 0.14459734 -0.3845698 0.004855654
0.3674426 0.42756248 -0.11336954 0.32418686 -0.20986678 -0.15309551 0.37514076 0.376308
-0.42779282 0.5737606 -0.43345773 0.13767126 -0.13184708 0.12923513 -0.33626398 -0.45545712
0.3949624 0.1082186 -0.57138354 0.26117158 0.29530627 -0.0081204185 0.5140468 0.27013415
0.12643047 0.34172162 0.48699376 0.4972069 -0.3144697 0.16069412 0.3565612 -0.07755962
0.51291543 -0.54501104 -0.16543509 0.35074294 0.4772736 -0.0119516 0.17699797 0.5150059
-0.11694627 0.23722166 -0.57132226 -0.21249789 -0.39737332 -0.40634304 0.17289889 0.44635323
0.0008380201 0.33708474 0.039428838 0.22505812 -0.35797116 0.34840566 0.00095969776 0.22345571

weight f4 [80, 80, 2]
00000000: 8565 84bb b6cc 6c3c af65 17bb cf3c 2abb
00000010: a060 993b 174f 59bb 7af9 113c b807 78bc
00000020: 1855 bdbc a4f9 3abc 648a 0ebc be6e 1c3b
00000030: 0351 123c 098a c13b 342e 66bc 803e 743a
00000040: e157 8e3c a7e2 00bc 4a1a 64bc e3dd 71bc
00000050: e850 e739 d369 dc3a 7e1e cc3b 8938 593c
00000060: 1053 183b f5f7 9cbb 5715 733c 6024 863b
00000070: 3036 95bb 6d15 683b e6d8 4cbc 8275 9a3b
00000080: a708 063c b3a8 c7ba 65c5 9b3b 3ed9 72bc
00000090: ff92 60bb 6595 043c d2e5 0d3b c755 2f3c
000000a0: fe66 a73a 9c7f f93b d9b5 89bb e00c 2a3b
000000b0: 5f3a 0bbc 3579 43bc cf29 793b ef5a 26bc
000000c0: 6297 2f3c bf06 dc3b 8687 a23c eb5a 023b
000000d0: 6737 10bc e411 b5bb b599 e9ba 6490 d43b
000000e0: 1fe4 2c3c ed46 b139 61cf adba 090b c1bb
000000f0: aadd cabb ec90 6e3c 41aa dc3b 4648 69ba
00000100: d90c d23a a0b6 033d 5ed9 4ebc 4fbe 653b
00000110: 84fd c8bb 2951 a03b 2242 3dbc da8a fcbb
00000120: 96b7 83bc ee3c a1ba 9aac 143c 6a02 763a
00000130: fafa f23b 25ad 33bc 97a0 62bc c272 0c3c
00000140: 6c4b 73bc 681e 0ebc 9a31 e03b 3036 0f3c
00000150: 94d4 7e3b 3463 80bc aded 08bc bd5d 163c
00000160: 49a2 323c 76b4 5abc 0087 3a3c b7a8 0a3c
00000170: f06c 693c 26b9 b83b 2fe8 043c adc0 0ebc
00000180: f59f 96bc d322 aabc 8176 103c 2797 8abb
00000190: 3f0b 3d39 1a50 fcbb f3fa d43b 271d b4bb
000001a0: 53c1 873c cbce 2fbc a930 d7bb 92b5 cc3b
000001b0: 0fd5 0cbc 0257 ce39 17f9 813b 1dac dfba
000001c0: 31d5 d2bb 8cb2 5d3c caf8 993a 0def 04bb
000001d0: 469c d239 cb10 623c e162 59bc 26ad c3bb
000001e0: 4117 573a dc45 a9bc b41c 243b 3186 73bb
000001f0: 1800 84ba fcef aabb 09b5 023c 837b e73b
00000200: 604e 32bc 1d3b 573c beaf 993c 1020 feba
00000210: dcde 68bc be14 c4bb 9823 9cbb b797 023b
00000220: 211e 2a3c fe47 9cb9 6de0 a83b 3f0b a7bb
00000230: 685d ec3b 874f 5abb 0b56 5d3c f70f 39bc
00000240: 51f1 a9bc 5957 e7ba 1a6f f83b 4c27 e9ba
00000250: ea74 7ebb cb07 923b 7ae9 7c3a c03e 0d3b
00000260: 5c4e ccbb 5127 2e3c 3021 dbbb 8edf 9139
00000270: 79c9 2bbb 22ee ab39 3a6d 65bc 44b2 3a3c
00000280: ab90 beba 2c8e 5d3c c7e0 0d3a 34ee fc3b
00000290: c0dd e13b a8ec ebbc a850 e1bb 625e ebbb
000002a0: 2495 843b cc4c 6cbc a2ea 16bc 2f66 8bbb
000002b0: f5b9 a43b e97c bdbb a1bb 063b 695f 463c
000002c0: 88d6 3cba 92de ffbb dad6 68bc 565c 94bc
000002d0: b329 03bb 662c 92bc 0f0d 6b3c 5036 9fbb
000002e0: f1b3 0a3b bad1 81bc 88b8 f5bb 5543 f83b
000002f0: 1cc8 553c cfc8 47bc 3048 9e3b 1c15 d23b
00000300: fa48 463c e52d bebb bce6 8fbc 45ce caba
00000310: eb5e c4bb f490 103c cfad d6bb d11d d338
00000320: b470 ef39 d722 a3bb 9239 683c f5dd b63b
00000330: c73d babb d0d7 1abc eedb ef3a 32a3 a73c
00000340: 7306 b83c f2d1 023c 3adb 803b ff3f 9e3b
00000350: 25a2 b4ba c78c eaba 5a5f fe3b 2c5a fbbb
00000360: 9620 11bc f80f b8bb 44fe ec3a 6d24 edba
00000370: 9442 4c3a f300 9b3a beff 3fbb 6228 e3bb
00000380: 4f01 e93b 72c4 52bc 85ba 6b3b dfe9 49bb
00000390: 11c1 cf3b 5334 edbb 22e6 5b3b d3b0 adbc
000003a0: aaad 3d3c a713 773b 8860 84ba 21c5 973a
000003b0: bc1c 5fbc 6bc0 e539 ba17 0c3c fa66 2fbc
000003c0: 7fc6 57bb 8f68 aaba e0e6 473b bdfa 08bc
000003d0: 66f0 3fbc c50a c43b d9eb a43b 1e0b c739
000003e0: 2318 71bc 12b0 b53c 91a7 6ebc 166c 353b
000003f0: 56e5 973c 5e3d e83b 7a2f 5f3b 70d7 8b3c
-0.0040404224 0.014453104 -0.002310138 -0.0025976186 0.004680708 -0.0033158713 0.0089095775 -0.015138559
-0.023111865 -0.011412058 -0.008699987 0.0023869718 0.0089304475 0.0059063477 -0.014049102 0.00093171746
0.017375888 -0.007866538 -0.013922283 -0.014762375 0.00044120033 0.0016816206 0.006229221 0.013258108
0.0023242868 -0.004790301 0.014836631 0.0040936917 -0.004553579 0.0035413161 -0.0125028845 0.004713715
0.008180774 -0.0015232771 0.004753756 -0.014822302 -0.0034267304 0.008092259 0.0021651876 0.010701603
0.0012771783 0.007614089 -0.004202586 0.0025947616 -0.0084978035 -0.0119307535 0.0038019305 -0.010153516
0.010717245 0.0067146714 0.019840013 0.0019890617 -0.008802271 -0.0055258144 -0.0017822298 0.0064869393
0.010552435 0.00033812915 -0.0013260656 -0.005891208 -0.006190975 0.014560919 0.006734163 -0.0008899014
0.0016025557 0.032156587 -0.012625067 0.003505606 -0.006133737 0.0048924875 -0.011551412 -0.007706982
-0.016078752 -0.0012301484 0.009074355 0.0009384515 0.0074151726 -0.010966574 -0.013832233 0.008572282
-0.014849525 -0.008674242 0.0068418505 0.008740947 0.003888403 -0.015672304 -0.008357448 0.009177622
0.01090295 -0.013348689 0.011384726 0.008463076 0.014247164 0.005637306 0.0081119975 -0.00871293
-0.01838682 -0.020768559 0.008817316 -0.0042294445 0.00018028634 -0.0076999785 0.006499642 -0.0054966393
0.016571676 -0.010730456 -0.00656708 0.006247231 -0.008595719 0.00039356208 0.0039664614 -0.0017064844
-0.006434106 0.013531338 0.0011747119 -0.0020284087 0.00040170754 0.013797949 -0.0132682035 -0.0059715686
0.0008205064 -0.020663194 0.0025041522 -0.0037158842 -0.0010070829 -0.0052165966 0.007977732 0.0070642843
-0.010882944 0.013136652 0.018760558 -0.0019388217 -0.01421329 -0.005983918 -0.0047649853 0.0019926855
0.01038316 -0.00029808277 0.0051537068 -0.005097776 0.0072132833 -0.0033311562 0.013509284 -0.01129531
-0.020744951 -0.0017649933 0.0075816037 -0.0017788201 -0.003882701 0.0044564954 0.0009647828 0.0021552294
-0.006234927 0.010629491 -0.006687306 0.00027823116 -0.0026212616 0.00032793084 -0.014003092 0.011395041
-0.0014538964 0.013522666 0.00054122176 0.0077188257 0.0068928897 -0.02879937 -0.00687607 -0.007182882
0.0040460993 -0.014422607 -0.009211214 -0.0042541246 0.0050270506 -0.0057827127 0.0020558613 0.0121077085
-0.00072035985 -0.007808515 -0.014211381 -0.018110435 -0.0020013868 -0.017843436 0.014346375 -0.0048587695
0.0021164382 -0.015847076 -0.0074988045 0.007576386 0.013048198 -0.012193873 0.0048303828 0.006411208
0.01210236 -0.005803811 -0.017566077 -0.001547285 -0.0059927604 0.008823622 -0.0065514813 0.00010066818
0.00045669603 -0.0049785185 0.014173882 0.0055806586 -0.005683634 -0.009450868 0.0018299797 0.02046356
0.022464013 0.007984625 0.003932384 0.0048294063 -0.0013781233 -0.0017894738 0.0077628316 -0.0076706614
-0.008857867 -0.005617138 0.0018081148 -0.0018092521 0.00077919033 0.0011825844 -0.0029296721 -0.0069323042
0.0071107517 -0.012864219 0.0035969329 -0.0030809564 0.006340154 -0.0072389035 0.0033553918 -0.02120248
0.011577049 0.0037700923 -0.0010099569 0.0011579135 -0.013617691 0.00043821646 0.008550579 -0.010705704
-0.003292471 -0.0013001132 0.0030502602 -0.008360562 -0.01171503 0.005982729 0.005032998 0.0003796452
-0.014715227 0.022178683 -0.014566318 0.0027682832 0.018541973 0.0070873937 0.0034055398 0.017070502

bias f4 [80]
00000000: b987 02bd 8340 98bd a07f 1f3c 7f07 39bd
00000010: b79b 2ebd 8ffc 81bd 7663 313d 3294 7e3d
00000020: 03f9 283d 62c8 e8bc 9411 6fbd 0e81 84bd
00000030: 5b61 94bd 9315 babc 550b 04bd 06ff a03d
00000040: 7879 943c 6a39 453b 789d 59bd 2d2c 80bd
00000050: 3392 f8bc 1fd2 343d b17f 1b3d a1f3 cd3c
00000060: b49e 8abd a7c1 833d a1c0 8ebc 41ec b33b
00000070: c861 903d f2ca 1f3d 47cb 963d 9775 a2bd
00000080: 3a5c 23bd 6b9e 6c3d 9e80 4d3c 9e5e dbbb
00000090: c9ec 613d 6b80 e3bb 8480 0abd ef31 06bd
000000a0: 21e4 523d fbf1 d8bc 7a70 ad3c bb90 a3bd
000000b0: 926f 243b 3fea 413d 1895 b4bc d87b 16bd
000000c0: 475b 9b3d 9ad8 ca3c 8269 62bd 08bf 603c
000000d0: 62f1 993c b2ba a03d 032c 1f3d 5542 95bd
000000e0: 349d f139 f04c 3d3c 8978 8c3d ef32 873d
000000f0: 2aa5 f2bc 83c6 993d a2b2 8c3d 29bc 69bd
00000100: ccab 333d 31d2 2bbd b0f4 29bd 7da7 a7bc
00000110: 7afd 7b3d c14a 873d 9417 723d c5e6 783d
00000120: c5b5 fabc 0b69 70b9 8b44 403d 1a71 74bd
00000130: 8d2c 0e3d e034 b6bb 06d3 fb3c 268d 9d3b
-0.031867716 -0.0743418 0.009735018 -0.045173164 -0.04262897 -0.06347 0.043307744 0.06215305
0.0412531 -0.028415862 -0.058366373 -0.06469928 -0.072451316 -0.022715366 -0.03223737 0.07861142
0.018124327 0.0030094036 -0.05312869 -0.06258426 -0.03034315 0.0441457 0.037963573 0.025140585
-0.067685515 0.06433421 -0.017425837 0.00549081 0.070499 0.039011903 0.07362991 -0.07932585
-0.039882876 0.057768267 0.012542872 -0.006694629 0.055157457 -0.006942799 -0.03381397 -0.032762464
0.051487092 -0.026482573 0.021171797 -0.079865895 0.0025090915 0.047342535 -0.02204375 -0.0367392
0.07585769 0.024761487 -0.0552764 0.01371742 0.018791858 0.07848109 0.038860332 -0.072880425
0.00046084228 0.011553988 0.06858928 0.06601512 -0.029619772 0.07508566 0.06870009 -0.05706421
0.04386501 -0.0419485 -0.041493118 -0.020465607 0.06152103 0.06606055 0.059104517 0.060766954
-0.030604253 -0.00022927315 0.046940368 -0.059678175 0.034710456 -0.0055605024 0.030740272 0.004808086

weight f4 [80, 80, 2]
00000000: dfeb 7437 3fd0 783a 8b79 ae3b 9fc0 87bc
00000010: 1884 dc3b d198 1f3c 3476 e53b 73be ea3b
00000020: bb0c d8bb 79ee 4dbc 9651 943b 29fb 793b
00000030: 9f48 6e39 39d4 e93b 4004 553c 5ac4 b5bc
00000040: 2ecc 843c 8d30 7ebb 767f 6c3c 9c97 493c
00000050: 7e9f cd3b 7ef8 b93b 3a45 29bc 36db c93a
00000060: f00c 6bb9 2e7a 83bb e240 883c f8de 443c
00000070: 6156 bfbc b2f5 743c 12da c2bc 696d 34ba
00000080: a77e 8bbb 608b cf3c 18aa 1bbc ff0e c2bb
00000090: 88f1 d0bc 104c cbba 2865 f1ba f4db 94bb
000000a0: 4073 eb3b b0bf 72bb dd16 57bc 3c20 afbc
000000b0: 06c5 7bbb 79cd febb 9931 8abb fc4a 413c
000000c0: a4fa 83bc 29ee 553c 05f4 55bc 504d 26bb
000000d0: f98b 27bc 1ba8 d6bb 435b 61bb cdb8 563b
000000e0: d00a bd3b 767e cbbb e651 4b3c f6ea 433c
000000f0: f130 8ebc 7116 123c 1561 8d3c d5a3 3d3b
00000100: b9f9 2cbb f434 e43b 4a13 82bb 5472 a6bb
00000110: 2604 8d3b 2fa6 253b d2e1 8b3b 9a38 a43b
00000120: 5edd 1abb ceb1 ecbb 0c76 31bc 1a7d d9bb
00000130: 8227 b0bb 72d7 69bb c96b 2a3c dffe b5b8
00000140: 0512 e3bc 2221 5d3c 358a 993b 804f 0c3c
00000150: 778c 91bb 9504 dfba d5ad b53b 06a8 9fba
00000160: 333a 5dbc 873b 093c 1db7 b5bb c5a0 153b
00000170: 2558 15bc 0bfa 9c3a d706 85bb a959 543c
00000180: bc0e a7bc 5bb0 5c3b 8313 8f3b 97e2 013c
00000190: a3f1 39b8 5d93 d8bb e9a1 48bc 3ea0 f6bb
000001a0: b784 1c3c 338d 5dbc d357 ebba 421f 58bc
000001b0: 7aca f5bb 4509 5f3b 3f6f 593b a610 273c
000001c0: 91ea 683c 1bfa f9bb af44 923c 8c30 00ba
000001d0: 9244 36bc ae07 53bc 0d6f 14bc 03b4 963b
000001e0: 4a64 d9bb 7c76 da3a a3aa 2dbc 1196 cd3b
000001f0: 5e7d 8eba 2268 3a3c 1447 86bc fb60 c13b
00000200: 642b 4d3c c2ae 7abb cbb8 f33b 44e4 393c
00000210: ffec 763c a0cb 51bc e0e6 a33c 5df0 543c
00000220: 2465 64bc d5eb 2fbb 1fb2 053c 4c46 733a
00000230: ed24 823b 5011 11bc 40bb a43b 0345 9fbb
00000240: 4988 0abc 6d07 423c 3302 19bc 9885 95bc
00000250: cd6b b3bb 5e7a 5f3b 818b dab8 e7be 613c
00000260: 15f9 fa3b f673 2fbb e160 25bc ddb2 aabc
00000270: a7f6 c8ba 08aa 00bb b302 4a3b 6c8b 3dbc
00000280: c655 2ebb cc0c 2cbb 5a12 bdbc 37bf 8dbc
00000290: b7f0 e2bb b1eb 3dbb a6b2 433c f983 d2ba
000002a0: 4c60 283c ebfc 76bb 4bf5 093b 8a94 bbb9
000002b0: afa8 4cba b0e0 133b 6263 243a e18a e8ba
000002c0: 9cb9 d1bb 8dbd 283c 3c89 f13b ec92 c13c
000002d0: 385a 8f39 4c25 6bbc 1a94 28bc 19de ee3b
000002e0: 4048 2dbc 0586 b8bc f4df 75bc 3a3c 8fbb
000002f0: 0b26 04bc 80e6 173c 7053 23bc b8f7 0c3c
00000300: a106 45bc da74 52ba 742f 30bb 4e92 823b
00000310: 9fef 903b b164 72b9 ceb6 97bc 33dc 0fbb
00000320: ad46 05bc e8c1 17ba 97d8 77ba b9bc 92bb
00000330: 132b 15bb 4d26 70bc 4a4d 503c 5391 07bc
00000340: a76e 01bb ed55 5a3b ad7e 413c 7e20 18ba
00000350: e060 dbbc 15d3 00bc bc68 3cba 996a 02bb
00000360: 93f2 813c 0644 fcbb 2852 9a3c b5be 8c3c
00000370: 1e96 5fbc 8d21 1bbc aa0d f2ba c41a 4a39
00000380: afbb 26bc 96c5 7ebc 3e9c 91ba 1207 66bb
00000390: f2ff 373b ae95 8dbb 811a 1b3c 510c 49b9
000003a0: 7a9c e23b c6a7 fc3a 8507 84bb 1ce4 2f3c
000003b0: 0917 1d3c f458 41bc b68e 523c 5baa bbba
000003c0: 572e 043c 44ac 8fbb 7c96 c4bb 0f87 87bc
000003d0: 52df 973b ac23 ecbb 2c43 7ebc dc15 363a
000003e0: 14cd 433b ecd3 90bb 726a cc3a c574 0bbc
000003f0: 2116 da3a d872 4abc 38b7 2d3c b27c 1cbc
1.4598451e-05 0.00094914803 0.0053245476 -0.016571341 0.006729614 0.009741024 0.0070026163 0.0071638166
-0.0065933145 -0.012569063 0.0045263274 0.0038144088 0.00022724502 0.0071358946 0.013001502 -0.022188354
0.016210642 -0.0038786263 0.014434686 0.012304213 0.0062751165 0.0056753745 -0.010331446 0.0015400413
-0.00022416166 -0.0040123677 0.016632501 0.0120160505 -0.023356618 0.014951156 -0.023785625 -0.00068827585
-0.0042570415 0.025335014 -0.009501003 -0.005922198 -0.025505796 -0.0015510339 -0.0018416988 -0.004542822
0.0071853697 -0.0037040524 -0.01312801 -0.021377675 -0.0038416996 -0.007775959 -0.0042173383 0.011797663
-0.016110726 0.01305727 -0.013058667 -0.0025375672 -0.010226243 -0.0065508015 -0.0034386672 0.0032763958
0.005769111 -0.0062101437 0.012409663 0.0119578745 -0.017357321 0.008916483 0.017258206 0.0028936763
-0.0026393963 0.0069643203 -0.0039695846 -0.005079547 0.004303473 0.0025276055 0.0042688632 0.0050116302
-0.002363048 -0.0072233444 -0.010831367 -0.0066372277 -0.0053758034 -0.0035681394 0.010401675 -8.678226e-05
-0.027718553 0.013496669 0.004685665 0.008563876 -0.0044417935 -0.0017014915 0.005544404 -0.0012180812
-0.013502645 0.008376009 -0.0055455104 0.0022831422 -0.009115254 0.0011976374 -0.0040596533 0.01296083
-0.020392768 0.0033674452 0.0043663397 0.007927558 -4.433248e-05 -0.006609364 -0.012245634 -0.0075264266
0.009553126 -0.013522434 -0.0017955251 -0.013191046 -0.0075009437 0.0034032625 0.003317788 0.01019684
0.014216081 -0.007628692 0.017855017 -0.00048900465 -0.011124747 -0.012880249 -0.00905968 0.004599096
-0.00663427 0.0016667391 -0.010599765 0.006273993 -0.0010871103 0.011377366 -0.016391315 0.0059014536
0.012522552 -0.0038251136 0.0074378005 0.011345927 0.015071153 -0.012804896 0.02000755 0.01299676
-0.013940129 -0.0026843448 0.008160143 0.00092801894 0.003971687 -0.008854225 0.0050272048 -0.0048605218
-0.0084553445 0.011842591 -0.009338903 -0.018252179 -0.0054754973 0.0034100036 -0.00010421035 0.013778425
0.0076590874 -0.0026772 -0.0100938985 -0.020837242 -0.0015332297 -0.0019632597 0.0030824363 -0.011568885
-0.0026601418 -0.0026252745 -0.02308004 -0.017303092 -0.006925668 -0.0028979594 0.011944449 -0.001606106
0.010276865 -0.0037687372 0.0021050747 -0.0003577809 -0.0007807118 0.0022564344 0.00062709127 -0.0017741584
-0.0064003 0.010299099 0.007371096 0.023629628 0.00027342304 -0.014352154 -0.010289216 0.0072896597
-0.010576308 -0.022524843 -0.015007008 -0.0043711932 -0.008065711 0.009271264 -0.0099686235 0.008603983
-0.012025506 -0.00080282765 -0.0026883753 0.003984726 0.0044230963 -0.00023116429 -0.018519785 -0.0021951317
-0.008134526 -0.0005789087 -0.00094545766 -0.004478064 -0.002276127 -0.014657569 0.01271374 -0.008274394
-0.0019749792 0.0033315376 0.011809987 -0.00058031816 -0.026779592 -0.007862826 -0.00071872375 -0.0019899963
0.015862739 -0.0076985387 0.018838003 0.01718078 -0.013646631 -0.009468448 -0.0018467207 0.00019274192
-0.010176583 -0.015550038 -0.0011109186 -0.003509943 0.002807614 -0.0043208217 0.009466768 -0.00019173442
0.006915626 0.0019276075 -0.0040292167 0.010735538 0.009588012 -0.011800993 0.012851408 -0.0014317738
0.008067689 -0.0043845493 -0.0059993844 -0.016543893 0.004634776 -0.007206401 -0.015518945 0.00069460063
0.0029876875 -0.0044197943 0.0015595688 -0.008511727 0.0016638675 -0.012356482 0.010602765 -0.009551214

bias f4 [80]
00000000: 90c8 21bd 4d19 b4bc 7177 4d3d 7986 e9bc
00000010: bb0f 2f3c c754 adbc 2d46 b93b b32e 9bbd
00000020: 4533 61bd 6e46 8f3d 08d8 6dbd 1f85 2fbd
00000030: 7413 10bd 28d3 8b3d 17b4 673d 5238 92bc
00000040: e20d 743d 472c 81ba 01f7 853d 5448 95bd
00000050: c633 c8bc acac e0bc d259 56bd e05a 00bd
00000060: 884a 843d 046c 02bd 9698 943d 1adb 813c
00000070: f262 9d3b cda0 6fbd 09f8 ba3c 8e0a 47bd
00000080: ec0f 37bc f0b0 7abd 7796 8abd f961 323d
00000090: 71d8 1e3d f104 d839 9acb 9ebd ea8b 71bd
000000a0: 27b4 63bd 32b3 2fbc b398 72bd 8512 a2bc
000000b0: 1a78 7c3d 1369 6cbb 4a8a 73bd 6db8 57bd
000000c0: 6045 b23c 56f0 7b3a 1df0 a0bc b874 a43c
000000d0: cf27 503d a0a0 cb3c 4889 88bd 77e5 0cbb
000000e0: 1396 f3bc eef3 b0bc 08e1 723b b446 3d3d
000000f0: 9530 cb3c 629a 8a3c c739 113d c54a 363d
00000100: be14 1c3d 71ac c73c f129 933d c873 e9bc
00000110: de1e 9d3d 71cb 9abd e91d d2bb 08bc 99bd
00000120: 5423 6a3d c9c9 92bd 50eb a33d 6e26 1e3d
00000130: a625 703d 82da 22bd afb3 8cbc 8cdf 27bd
-0.039497912 -0.02198472 0.050162736 -0.028506504 0.010684903 -0.021158589 0.0056541176 -0.075772665
-0.054980535 0.06995855 -0.05806735 -0.042851564 -0.035174802 0.06827384 0.05656823 -0.017849121
0.059583552 -0.0009855115 0.06541253 -0.07289186 -0.02443875 -0.027426086 -0.052331753 -0.031336665
0.06459528 -0.031841293 0.07255666 0.015851546 0.004803055 -0.05850296 0.02282335 -0.04859405
-0.01117323 -0.061203897 -0.0676698 0.043550465 0.038780633 0.00041202412 -0.07753678 -0.058971323
-0.05559173 -0.010723876 -0.059227657 -0.019784221 0.061637975 -0.0036073371 -0.059458055 -0.052666117
0.021761596 0.0009610703 -0.019645745 0.020075187 0.050819214 0.024856865 -0.06666809 -0.0021499076
-0.029734647 -0.02160069 0.0037060399 0.046210006 0.02480344 0.016919319 0.03545549 0.0445049
0.03810572 0.024374219 0.07185734 -0.028497592 0.07671903 -0.075583346 -0.006412257 -0.07506567
0.057162598 -0.07167394 0.08003867 0.03861087 0.058629654 -0.039759167 -0.017175524 -0.040984675

weight f4 [80, 80, 2]
00000000: 3e00 bdbb 006d d9ba 7715 92bb 1c86 b13b
00000010: 8cf0 eeb9 980a ccbc 1be1 da38 df45 abbb
00000020: b32a 103c 9864 81bc 88ef 9eba 4165 833b
00000030: 7aae 39ba c31a 083c f64e 0b3c 9963 773c
00000040: 8a57 36bb d181 b73b 61e0 9ebb 910f 82bc
00000050: fcb5 47bb 33e1 27bc cd03 db3b 08d1 6c3c
00000060: 6af4 88bb 4439 b83b 761e 80bb e360 033b
00000070: 9930 86bb 790f 5f3c 790a 4dbc 8f90 3ebc
00000080: 4b62 0f3c 887f de3b 3661 163b e701 6cbb
00000090: 536f 083c 6a2f 64bb 874c 66b9 7969 43b9
000000a0: fbf7 aabb b1ef 16bb 86c2 57bb 88db 4d3c
000000b0: 1879 bc3a 2231 523c 9e35 8cba 9c30 813c
000000c0: d2da aebc 2aa2 43bc f271 473c 879e 8f3c
000000d0: 0aa6 7e3b a6a9 843c 1852 08bc 0b6c 793c
000000e0: 28dc ec3b 01ef 7fbb 978e 90bc 2373 0b3c
000000f0: b0f4 203c e354 70ba c859 f23b 6cf8 89bc
00000100: 16a8 4f3c 3ec9 8dbc b5b4 eabb 6956 5a3b
00000110: 1610 a4bb 98e5 453a 7e4a b23b ac71 013c
00000120: ddaf 543c 564f 5abb 91f6 ac3a 324e c33a
00000130: 0f14 1ebb e487 15bc 1a36 0e3c 48b7 e139
00000140: 4752 603a ae25 39bb cffe cd3b 5c37 fa3a
00000150: d04f 713a a047 803b e614 e33b 03ac 8ebb
00000160: e4f0 48bc a538 0a3b e1eb b3bb 343f b83a
00000170: 27c4 6b3b ffed 083c 5189 de3c 8b8f de3b
00000180: 9aec 9fbc 3067 213c bc8f 91bb 48a7 7c38
00000190: a039 55bb d9d4 90bc 3397 013c 9678 1c3b
000001a0: 56c7 2e3c 3f4e 2bbc 9848 4fbc ac8b 0bbc
000001b0: 7350 0cbc c78f 4a3b 9311 803c b1e4 873c
000001c0: 4991 90bb 1bde 4cbc 3a1e b33b 2481 393c
000001d0: 92bd 94bb a872 79bc a623 983b 3a2b b6bb
000001e0: 57c4 36bc a95f c6bb 061c fbbb 2c0a a5bb
000001f0: 2797 e0bb a359 0d3c 6a1c ae3c 1478 70bb
00000200: df5c bfbb 379c 8dbb f660 cf3b 584f abbb
00000210: 0315 723c 9fef 1dba 96b8 2e3c abca 54bc
00000220: b717 663b cec3 133c 9e43 e9bb 1ff8 9dbb
00000230: d323 3bbb 269d 03ba 0628 e7bb fee2 64bc
00000240: 9856 1f3c 2bff 283a 153d 0d3a ca06 6fbb
00000250: fe71 15bc bfe7 913b b712 623c 0b8c cf3b
00000260: e2f2 fc3a 489a 003c b9df 533c 50c1 523c
00000270: 3896 593c 205d d8bb 5ba6 b73c a470 873b
00000280: c848 0ebc 1297 873b 607e f6bb fb78 9cbb
00000290: 2f2e 1e3b f8fc a1bc a707 6d3b 9577 063c
000002a0: 1a8d a3bb c73f 20bb 731e 85bb 2ba8 3f3c
000002b0: f982 f73b 1c15 7e3b bfab 7bbb 3c7f e83b
000002c0: d63c 993b 365f 4bb9 a44a 3cbb 5383 ce3c
000002d0: 552d 6b3c 07ec f9bb 4779 a739 ff8b 93bc
000002e0: 22cf 2f3b aeda 413b 72aa 7cbb b74e 673c
000002f0: 673b 0a3c 8002 363b 8461 49b9 2091 433c
00000300: 0873 923c a6ab 543a b502 303b d059 f13b
00000310: c0e7 fc3b f125 5d3c 8712 743b 7aa3 413c
00000320: 3ec0 5a3c ce9d 333b 3753 223c bd20 1ebc
00000330: 747c 99bb 3842 96ba 578b 1339 2280 803c
00000340: e279 89bb 5387 793c 6297 9cbc 330c b2ba
00000350: f0d3 e23a 89cc c03a bb28 89bb ad77 60bc
00000360: 7950 2f3c f600 f33b f11e f23b 79dd bcbb
00000370: 594d ff3a adbe a03b 81f5 d73b 3bdc 2fbc
00000380: ee8f c5bb 065b c93c 106b 26bc a82f 5b3b
00000390: 6f12 073c 6d18 05bc 37ce 3cbc e0ed e8ba
000003a0: 5c40 8fbc 75c4 eb3a 5181 743b 1e6c e43b
000003b0: ff8d 7e3c 1f52 f13b efe6 783b cddd 40bb
000003c0: 8624 b3ba 9531 833b 0192 523c 9c0c ae3a
000003d0: 382f 0cbc 86e8 22bb 2a39 88ba b547 993b
000003e0: cc84 593c ea8c adbc df92 28bc a0bf 1abc
000003f0: 53c5 bcbb 8d77 79bc 7ef1 71bc 72b1 42bc
-0.005767851 -0.0016588271 -0.004458125 0.0054175984 -0.0004557412 -0.024907395 0.00010436979 -0.005226835
0.008799243 -0.015795037 -0.0012125829 0.004009873 -0.0007083189 0.008307162 0.0085027125 0.0150994295
-0.0027823173 0.005600192 -0.0048485254 -0.015876563 -0.0030473461 -0.010246563 0.0066838027 0.014454134
-0.004179527 0.005622061 -0.003909881 0.0020046763 -0.0040951488 0.013614529 -0.012514704 -0.011631145
0.008751462 0.0067901053 0.0022946126 -0.0036011876 0.008327323 -0.00348183 -0.00021963018 -0.00018635941
-0.00521755 -0.002303105 -0.0032922341 0.012564547 0.001437935 0.012829097 -0.0010697132 0.01577025
-0.021344576 -0.011940518 0.012173163 0.017531646 0.0038856291 0.016194176 -0.008320354 0.015223513
0.007228393 -0.003905237 -0.017646117 0.008511337 0.009823963 -0.00091679225 0.0073959567 -0.01684209
0.012674352 -0.017307874 -0.0071626552 0.0033315665 -0.0050068004 0.0007549166 0.005441009 0.007900637
0.012981382 -0.0033311448 0.0013196041 0.0014900623 -0.0024120843 -0.009126637 0.008679891 0.000430519
0.0008557182 -0.0028251219 0.006286479 0.0019089985 0.00092053134 0.0039147884 0.0069299815 -0.0043540015
-0.012264464 0.0021090892 -0.0054907654 0.0014056922 0.003597507 0.008357524 0.027165087 0.006792014
-0.019522 0.009851262 -0.0044421833 6.0237275e-05 -0.0032535568 -0.017679619 0.007909584 0.0023875586
0.010667643 -0.010455667 -0.012651585 -0.008517187 -0.008564102 0.0030908452 0.01563338 0.01658854
-0.0044118506 -0.012504126 0.00546625 0.011322293 -0.0045392 -0.01522509 0.0046429215 -0.005559352
-0.0111552095 -0.006053884 -0.0076632528 -0.005036613 -0.0068539563 0.008627328 0.021253783 -0.0036692666
-0.0058399285 -0.004321601 0.0063286973 -0.0052279644 0.014775517 -0.0006024781 0.010664126 -0.012987773
0.003510935 0.009018851 -0.0071186563 -0.004820838 -0.0028555288 -0.00050206704 -0.0070543317 -0.013970135
0.009725235 0.00064467144 0.0005387825 -0.0036472552 -0.009121416 0.004452675 0.013798407 0.006333833
0.0019298459 0.0078492835 0.012931758 0.012863472 0.013280444 -0.0066028982 0.022418192 0.004133301
-0.008684345 0.004137882 -0.0075223893 -0.004775164 0.0024136414 -0.019773945 0.0036167891 0.0082072215
-0.004991186 -0.0024452077 -0.0040624677 0.011697809 0.007553455 0.0038769906 -0.003840193 0.0070952456
0.0046764417 -0.00019395057 -0.0028731013 0.025209105 0.01435407 -0.0076270136 0.0003194308 -0.018011091
0.0026826342 0.0029579806 -0.0038553742 0.014117888 0.008437014 0.0027772486 -0.00019205181 0.011936456
0.017877117 0.0008112736 0.0026857082 0.007365443 0.0077180564 0.0134978155 0.0037242488 0.011818761
0.013351498 0.0027407291 0.009907535 -0.00965136 -0.0046840254 -0.0011463827 0.0001407092 0.015686098
-0.0041954378 0.015230018 -0.019115154 -0.0013583958 0.0017305594 0.0014709394 -0.0041857637 -0.013700408
0.0107003385 0.007415886 0.0073889424 -0.0057637063 0.0019478007 0.004905543 0.0065905456 -0.010733659
-0.0060291206 0.024579536 -0.010157362 0.0033445153 0.008244141 -0.008123499 -0.011523775 -0.0017771088
-0.017486744 0.0017987626 0.0037308524 0.0069708964 0.015536784 0.007364526 0.0037979444 -0.0029429079
-0.0013667501 0.0040037134 0.012852193 0.0013278904 -0.00855618 -0.0024857833 -0.0010393013 0.0046777376
0.01327629 -0.021185357 -0.010288923 -0.009445101 -0.0057608276 -0.015226257 -0.014767049 -0.011883127
